models/sqa-v2/xls-r-300m/model_300m_lay21_full.pt (torch, 384909 bytes, 67 tensors)

norm_input.weight f4 [1024]
000000 21 4f ed 3e 19 bb 23 3f b9 9a 4d be ca 8d a5 3e
       0.46349433 0.63957363 -0.20078553 0.3233474
000010 b3 28 2e 3e 07 db 23 3f 31 b7 16 3f 5b aa 58 3f
       0.17007713 0.64006084 0.5887328 0.8463494
000020 fc 5d 58 3f 90 41 22 3f 3a 79 ef 3e 8c 84 cd 3e
       0.8451841 0.6338129 0.46772176 0.40140188
000030 c2 dd 8a 3e f1 a4 9d bd bc 1d d9 3e 20 a6 98 3e
       0.27122313 -0.07697476 0.42405498 0.29814243
000040 3f 7e 08 3f ad 1a cb 3e 96 94 e5 3e 08 29 f2 3e
       0.53317636 0.3966879 0.44839925 0.4729693
000050 90 c4 cd 3e a4 77 92 3e c4 75 f3 3e 14 b1 07 3f
       0.40189028 0.28606904 0.47550786 0.53004575
000060 0c c7 c2 3e b9 b9 46 3e 92 46 40 3f d1 27 bf 3e
       0.38042486 0.19406785 0.7510768 0.37335065
000070 e7 28 31 3f 20 0a 17 3f f3 7a 2b 3f de 0d 19 3f
       0.6920304 0.58999825 0.6698448 0.59786785
000080 c6 d8 14 3f 4c ba 3d 3f e2 85 1a 3f c5 e5 00 3f
       0.5814327 0.7411239 0.6036054 0.503506
000090 0d e1 00 3f 92 f0 2e 3f ba 3b 98 3e 29 f9 5b 3e
       0.503434 0.6833583 0.29733068 0.21481766
0000a0 29 1a f7 3e a7 58 0b 3f 78 9e b1 3e cc 3d 2c 3f
       0.48262146 0.5443215 0.34691215 0.67281795
0000b0 34 46 15 3f 5f 6e 33 3f 00 f4 bd 3e 99 67 2e 3f
       0.58310246 0.7009029 0.3710022 0.6812683
0000c0 69 3f 03 3f 99 4a e8 3e e4 17 13 3f d9 ea fc 3e
       0.5126863 0.45369413 0.5745833 0.49397925
0000d0 f0 8c a5 3e a4 a3 ac 3e 53 60 eb 3e 07 f1 16 3d
       0.3233409 0.33718598 0.45971927 0.036850955
0000e0 ec 8f a1 3e 02 a9 e5 3e 92 2f 21 3f a3 f2 1d 3f
       0.31555116 0.44855505 0.6296321 0.6169836
0000f0 b6 48 04 3f 60 59 17 3f 84 4f d9 3e 31 16 eb 3e
       0.5167345 0.5912075 0.42443478 0.45915368
000100 c2 15 40 3e 74 ce bc 3e 28 c5 f5 3d 86 54 1a 3f
       0.187583 0.3687626 0.12000495 0.6028522
000110 3e 00 26 3f 73 47 81 3e ad e8 14 3f 30 88 3a 3f
       0.6484412 0.25249824 0.58167535 0.72864056
000120 75 b4 09 3f 77 98 a4 be 3a 7a 46 3f 6b c0 f4 3e
       0.5379098 -0.3214757 0.7753025 0.47803053
000130 9b ac 0d 3f 60 9e c4 3e c5 2b 27 3f aa e2 a6 3d
       0.553415 0.3840208 0.6530116 0.081487015
000140 f3 20 0a 3f dd 14 f2 3e 63 68 eb 3d 3d 66 4d 3f
       0.53956527 0.47281542 0.114945196 0.8023413
000150 87 5a f0 3e 0d eb 23 3f f6 9d b9 3e d9 f1 37 3f
       0.46944067 0.64030534 0.36253327 0.71853405
000160 54 c4 9f 3e 62 de a0 3d 8e 48 1a 3f 07 97 ba 3d
       0.31204474 0.07854916 0.6026696 0.091108374
000170 f9 29 5a 3e 8e 4d cb 3e 6d 7d 2c 3f 35 d5 cc bd
       0.21305074 0.39707607 0.67378885 -0.100016035
000180 ec 90 43 3e fa 34 e7 3e 48 87 99 3d 7e 5a f6 3e
       0.19098252 0.45157605 0.07496506 0.48115915
000190 24 d7 11 3f e5 32 1e 3f f6 f7 2d be 57 d7 fc 3e
       0.56968904 0.6179641 -0.16989121 0.4938304
0001a0 4d ce ad 3e 5c 8a fc 3e e3 10 3d 3e dd d5 1e 3f
       0.33946458 0.4932431 0.18463473 0.6204508
0001b0 6d 9c f0 3e 99 62 b0 3e 65 ad 1d 3f ca 06 16 3f
       0.46994343 0.34450224 0.61592704 0.5860411
0001c0 bc 14 ef bd 6e 8d ac 3e e7 f9 00 3f 78 0d 12 3f
       -0.11673877 0.33701652 0.5038132 0.570518
0001d0 79 b1 ee 3e 55 a8 51 3e 39 39 c6 3e 3f 13 de bd
       0.46619776 0.2047437 0.38715532 -0.10843515
0001e0 f3 e6 0b 3f 40 53 f0 3e e7 4a a3 3d 91 6f 3c 3e
       0.54649276 0.46938515 0.07973271 0.18401934
0001f0 cd e8 b6 3e d8 15 06 3f b2 3d 3a 3f 56 be 38 3f
       0.35724488 0.5237708 0.7275039 0.7216543
000200 db 88 2f 3f f5 c3 52 3e ee e2 01 3f b3 03 bd bd
       0.685682 0.20582564 0.5073689 -0.09229221
000210 03 74 f6 3e 0f f7 8e 3e 93 14 91 3e f6 2c cb 3e
       0.48135385 0.27922866 0.2833601 0.3968274
000220 d1 de 9a bd 39 80 24 3f 0d df d4 3e 17 6f 72 be
       -0.0756203 0.6425815 0.41576424 -0.2367519
000230 90 55 21 3f 3f 06 70 3f 8b f7 0e 3f 27 49 9e 3e
       0.63021183 0.9375953 0.5584647 0.30915186
000240 7a 04 4e 3f 13 48 0d 3f d0 ee 10 3f f8 a0 34 3f
       0.8047558 0.551881 0.566144 0.7055812
000250 77 39 ee 3e a0 4a 23 3f 84 5b b5 3e 26 19 c2 3e
       0.46528217 0.63785744 0.35421383 0.37909812
000260 54 fb fb 3e 3a 19 01 3f 0b 14 a4 3e 73 47 cd 3e
       0.49215186 0.5042912 0.32046542 0.40093574
000270 35 db 37 3f 99 9f 17 3e 90 db 1e 3f af 0e 03 3f
       0.7181886 0.14806975 0.62053776 0.5119428
000280 d5 b1 e4 3e 70 2c d2 3e 3f 44 0c 3f ae 19 a7 3e
       0.44666925 0.41049528 0.54791635 0.3263678
000290 f8 3f 62 3d e6 96 c2 3e 38 d8 d6 3e f7 a9 bc 3e
       0.055236787 0.3800575 0.41961837 0.36848423
0002a0 62 59 d3 3e 64 9d 44 3f a7 d0 2c 3f 2d ca 13 3f
       0.4127913 0.7680266 0.6750588 0.5773037
0002b0 bc 1a 16 be aa f3 43 3f a4 d1 b4 3e 10 86 25 3f
       -0.14658636 0.76543677 0.35316193 0.6465769
0002c0 0f 37 10 3f a0 1a dc 3e b8 5d 8b 3e 71 a0 11 3f
       0.5633401 0.42989063 0.2721994 0.5688544
0002d0 e3 a3 35 3f 23 c3 3f bd 6a 28 0c 3d e6 8d 03 3f
       0.70953196 -0.046816956 0.03421823 0.51388395
0002e0 0b 4a 00 3f 73 75 0f 3f 6b 2b e5 3e a1 00 08 3f
       0.5011298 0.5603859 0.44759688 0.5312596
0002f0 a6 b7 28 3f 25 63 da 3e 9f c3 89 bd ba a8 c0 3e
       0.65905225 0.42653766 -0.06726765 0.37628728
000300 73 e7 cc 3e 32 cf c1 3e 7a 7b 1a 3f 85 48 52 3f
       0.40020332 0.3785339 0.6034466 0.82141906
000310 7e 67 24 3f 93 eb fd 3e a6 9b 32 3f 01 61 ee 3e
       0.64220417 0.4959379 0.6976875 0.46558383
000320 4b 9c 23 3f f1 b8 12 3f e6 0e 85 be 90 dc e5 3e
       0.6391036 0.5731345 -0.2598793 0.44894838
000330 16 86 b2 3e 08 45 30 3f d2 b1 06 3f 56 a0 f6 3e
       0.34867924 0.68855333 0.5261508 0.48169202
000340 82 5b e8 3e d1 cb e5 3e 3c 9c fa 3e 14 c3 1c 3f
       0.45382315 0.44882062 0.48947322 0.61235166
000350 aa 82 06 3f 70 bb 0d 3f ee 90 48 3f 4b 26 b8 3e
       0.5254313 0.5536413 0.78346145 0.35966715
000360 54 8f cf 3e 30 33 a2 3e 9e 9d 0c 3f 96 9d 38 3f
       0.40539038 0.31679678 0.54928005 0.7211546
000370 1f d3 1b 3f a0 6b f2 3e a3 c0 0e 3f 31 56 1f 3f
       0.6086902 0.47347736 0.5576269 0.6224089
000380 2d 2d bf 3e 9d c8 b5 3d fa d7 35 3e 43 2a 72 3f
       0.37339154 0.088761546 0.1775817 0.94595736
000390 49 9c 48 3f 0c 1a c9 3e 64 81 1e 3f 4a e9 79 3e
       0.7836347 0.39277685 0.61916184 0.24405399
0003a0 0d 07 f3 3e 57 25 0a 3f f2 7c 10 3f d8 d4 f2 3e
       0.47466317 0.53963226 0.5644065 0.47428012
0003b0 25 80 dc 3e 36 28 23 3f c1 58 1e 3f a1 9b a0 be
       0.43066517 0.6373323 0.6185418 -0.31368735
0003c0 4a cf b7 3d 0b 13 3e 3f 28 19 10 3f 39 b7 4e 3e
       0.08975084 0.7424781 0.56288385 0.20187081
0003d0 45 bb 59 3d 7a 84 22 3f 45 3c ec 3e 7c 4b 17 3f
       0.05315711 0.63483393 0.46139732 0.59099555
0003e0 6d b9 ea 3e b7 4b f3 3e f8 9f 04 3f 1b ca 93 3e
       0.45844594 0.47518703 0.5180659 0.28865132
0003f0 b2 18 0a 3f 93 cf 27 3f ae f0 04 3f 15 02 a0 3e
       0.5394393 0.6555111 0.5192975 0.31251588

norm_input.bias f4 [1024]
000000 0d ff 5a 3c be d6 45 3c 04 11 0a 3c f7 40 68 ba
       0.013366473 0.012075124 0.008426908 -0.0008859778
000010 2f f0 cc 3a 56 a9 f6 39 85 d3 73 b9 be 62 ba b9
       0.0015635545 0.00047046941 -0.00023253083 -0.00035550253
000020 a5 36 95 3a 8c 67 48 bc 30 2b 8e 39 3d 3b b4 ba
       0.0011384083 -0.012231719 0.00027116528 -0.0013750565
000030 b7 61 cc 3b 58 87 47 3b fc c3 07 bb 95 30 a9 bb
       0.0062372345 0.0030445661 -0.002071618 -0.005163262
000040 a2 7e ae 3b ff 18 63 bb 06 2f 7f 3b 72 72 ab ba
       0.0053251544 -0.003465235 0.003893794 -0.0013080372
000050 4b e8 fe 3a 61 cc 2a b9 93 a9 99 39 bc bc 1c 3b
       0.0019447891 -0.000162886 0.00029308777 0.0023916205
000060 63 6e 11 bb 8e 26 c5 b5 6e 12 4b ba f3 ee 1a bc
       -0.002219104 -1.4688865e-06 -0.00077465817 -0.009456384
000070 59 ec 4f bb 93 fa af b7 f1 c6 f7 3b c7 12 ed bb
       -0.0031726568 -2.0978308e-05 0.0075615575 -0.0072349044
000080 7f 77 c8 bb fa b0 89 3b d4 ae 7b 3b 75 c0 e5 3a
       -0.0061177607 0.0042020055 0.0038403766 0.001752867
000090 7f f7 a3 3a 27 59 63 3c 06 d4 9d 39 8d 3b aa 3b
       0.0012509673 0.013876236 0.00030103343 0.0051950873
0000a0 2a ab b6 b9 04 d4 36 bb 9c 25 c8 3b 1a 14 a6 ba
       -0.00034841272 -0.0027897367 0.006107999 -0.0012670786
0000b0 e0 dd 01 3b 24 27 26 bb 1e 55 41 3b 08 e2 bf 3a
       0.0019816086 -0.002535292 0.0029500197 0.0014639506
0000c0 c5 cf d4 bb 75 ca a1 bb 3c d9 c7 bb e7 9a ea 3b
       -0.0064944946 -0.004937465 -0.0060988944 0.007159579
0000d0 73 09 a9 bb aa e5 ae b9 33 93 8c bb 0d 23 40 3a
       -0.005158597 -0.0003335898 -0.0042900085 0.0007329442
0000e0 29 39 db 3a e5 65 88 bb 64 f9 00 bb 3d 1a 8e bb
       0.0016725409 -0.0041625374 -0.0019679898 -0.004336624
0000f0 b1 79 44 3b f0 93 9b 39 08 f8 cb 3a 1b 76 9d 3b
       0.002997976 0.00029674126 0.001556159 0.004805339
000100 1e e7 a5 bb 5c 7f 04 bc 04 2c 75 3a ad 6c f0 ba
       -0.0050629517 -0.0080870055 0.0009352567 -0.0018342935
000110 3b 39 5e 3b 94 1e a3 bb 80 76 b1 bb 65 e2 09 3c
       0.0033908624 -0.0049780104 -0.0054157376 0.008415793
000120 12 eb 61 3b 8e e6 a9 3b dc c1 a2 3b 78 46 05 3c
       0.0034472388 0.005184955 0.0049669575 0.008134477
000130 b0 f1 90 bb 7a 2d 42 3b 65 71 a3 bb e8 86 60 bb
       -0.0044233426 0.0029629157 -0.004987883 -0.0034260098
000140 df 5c 50 3a 34 7a 46 ba 67 08 6d 3b fa ae bb 3b
       0.0007948409 -0.000757131 0.0036168338 0.005727646
000150 9a d3 36 3c 84 b2 b8 3c 20 03 8b 3a f1 e3 13 bc
       0.011158848 0.02254606 0.001060579 -0.009026513
000160 7c a8 29 3b 85 81 b8 3b e7 4d 46 bb 12 c0 23 ba
       0.0025887778 0.0056306743 -0.0030258836 -0.0006246577
000170 f9 0b c5 3b fb 97 d5 3b 81 8d de b8 4d 24 a5 39
       0.00601339 0.0065183616 -0.00010612142 0.000314983
000180 18 db 27 ba 56 d4 e8 bb d8 04 f1 ba 56 a3 80 3a
       -0.0006403192 -0.0071053905 -0.0018388284 0.0009814303
000190 21 a9 ec 3b a6 2f 01 bc 63 62 91 3b c9 56 7e bb
       0.00722231 -0.007884895 0.0044367774 -0.0038809052
0001a0 1d 5f 1f bb c0 0b 32 bb d5 94 56 3b 55 8a d1 bb
       -0.0024318167 -0.0027167648 0.003274252 -0.0063946643
0001b0 42 aa 13 3b 73 38 9b 3b 43 8b 57 bb ef 89 b7 bb
       0.0022531901 0.004736954 -0.0032889403 -0.0056011598
0001c0 2c 7c 4d 3b ba 0a 39 bb ab 81 31 bb 24 60 91 3b
       0.003135453 -0.0028235153 -0.0027085345 0.0044365097
0001d0 ca 4e 5b bb d3 cd 01 bb f4 da b1 ba aa 37 57 39
       -0.003346371 -0.0019806519 -0.0013569281 0.00020524734
0001e0 86 c0 00 3b ee 1e e9 3b 97 df 31 ba 6e ef 58 3b
       0.0019646003 0.007114283 -0.00067853316 0.0033101696
0001f0 bd ae e3 39 c7 c2 38 b7 e3 ec 90 3c 2c bb 41 3a
       0.00043427004 -1.1012605e-05 0.017691081 0.00073902565
000200 50 8b 2d bb 98 d0 f0 38 c4 64 4a bb a8 81 d8 ba
       -0.0026480742 0.000114829454 -0.0030882815 -0.0016518133
000210 d8 4c 59 3b a9 7e 85 3b ca 27 1e bb 9b 28 a8 3b
       0.0033157375 0.004073937 -0.0024132603 0.0051317937
000220 30 1d 6d bb a0 46 e7 bb 0e a6 ed 39 a9 00 57 3b
       -0.0036180727 -0.0070579797 0.00045327883 0.003280679
000230 60 95 61 b9 d9 f7 82 ba 38 93 6b bb 7e 3f a6 bb
       -0.00021513319 -0.0009992077 -0.0035945904 -0.005073487
000240 64 d4 42 3b a5 5b a3 ba fe cf 9e 3a c2 29 84 bc
       0.0029728645 -0.0012463225 0.001211643 -0.016133193
000250 3d 87 03 bc 4e fa 2b 3c 1e de f3 3b e0 c9 e2 bb
       -0.008027849 0.010496689 0.00744225 -0.006921038
000260 94 38 03 3c 2c ea 46 3b 26 05 14 ba 74 2c 09 3b
       0.008009095 0.003035198 -0.0005646519 0.0020931037
000270 1a 00 52 3b 6f 7c c1 3a b6 39 e1 b8 c0 b9 d2 39
       0.0032043518 0.0014761816 -0.000107395856 0.00040192716
000280 10 76 88 3b e9 96 1b 3c 55 81 6b bb d2 60 ae ba
       0.004164465 0.009496429 -0.0035935242 -0.0013304001
000290 72 00 7f 3a 53 da c6 38 e2 53 d8 3a 2d 05 6f 3b
       0.00097275444 9.482042e-05 0.0016504491 0.003647159
0002a0 7b b5 37 bc e7 28 ac bc d1 16 15 bc f7 83 17 bc
       -0.011212702 -0.021015598 -0.009099678 -0.009247771
0002b0 b6 07 fd 3a 4a 49 c5 bb 23 ae 6c bb dd 7a 8d 3a
       0.0019304666 -0.0060206996 -0.0036114536 0.0010794062
0002c0 f3 aa 08 3c d5 f2 3a 3a ff c2 d6 bb a6 9c 7f ba
       0.008341539 0.00071315217 -0.006554007 -0.00097508205
0002d0 5e ec 18 bc ec be 66 3b 38 60 e8 b9 81 6e d2 3a
       -0.009333698 0.0035209013 -0.00044322177 0.0016054661
0002e0 2d 40 93 bb bf 37 26 bb 2a db 09 3b cc 0c 2e bb
       -0.0044937343 -0.0025362817 0.0021035173 -0.002655792
0002f0 34 ca 01 3c ef 4b bf ba 72 fd 30 3b 87 39 a3 3a
       0.007921744 -0.0014594774 0.0027006534 0.0012453058
000300 5e f7 0c bc 73 68 08 3c 6c 64 d5 bb 6b 72 2b 3b
       -0.008603899 0.008325684 -0.0065122154 0.0026160728
000310 b1 3a ed bb 6f 7d e2 39 61 10 59 b9 db 2c d4 bb
       -0.0072396626 0.00043199534 -0.00020700834 -0.0064750738
000320 23 b5 0d bc 80 3c bb bb 48 bd 4e bc 46 d3 cb bb
       -0.008649143 -0.0057139993 -0.01261837 -0.006220254
000330 5d d7 c3 3b 67 90 83 bb 43 86 8b 3b fb be 63 3b
       0.005976601 -0.004015017 0.0042579486 0.0034751284
000340 77 92 d9 bb 59 ec b4 bb 48 7d 8f 3b 98 55 fa bb
       -0.0066397744 -0.005521339 0.0043789484 -0.007639598
000350 b7 d8 31 3b 49 19 8a bb 03 a7 4d bb 0e b9 c3 3a
       0.0027137229 -0.00421444 -0.0031380064 0.001493247
000360 99 bd c0 3b 11 b5 05 3b 6c ed a3 3b bd a7 08 bc
       0.005881977 0.0020402113 0.005002668 -0.008340773
000370 60 56 89 bb 64 6f b0 b9 9f ca 99 bb 87 f3 0d 3c
       -0.004191205 -0.00033652328 -0.004693344 0.0086640185
000380 43 5c 9b bb 86 21 64 bb 84 0f ba 3b 65 38 73 3c
       -0.004741223 -0.003481002 0.005678119 0.0148449885
000390 bd 19 08 3c 21 66 19 bb 76 f7 2a 3c 08 07 0a 3c
       0.008306918 -0.002340682 0.010434976 0.008424528
0003a0 0f d7 b5 3a 80 df 0b ba af e3 3b 3b fc fc b1 39
       0.0013873297 -0.00053357333 0.0028669646 0.0003394856
0003b0 9c 39 ae bb 09 19 bf bb 4f 3c 1e bc 57 8b cb ba
       -0.005316926 -0.005831842 -0.009657933 -0.0015529197
0003c0 a4 47 7f ba c5 fa dc 3b be 69 57 bc cf a9 d1 39
       -0.00097381533 0.0067437612 -0.0131477695 0.00039990104
0003d0 f4 6b e5 b9 dc 8e fb bb c2 86 0c bb 88 1c 76 bb
       -0.00043758715 -0.0076769423 -0.0021442627 -0.0037553627
0003e0 58 71 71 ba 21 cc 68 3a 3e db 18 bb c7 82 69 bb
       -0.000921031 0.0008880515 -0.0023324038 -0.0035630928
0003f0 82 46 1a bc a9 af 8f bb 0c 75 3d b9 3c 2f 58 ba
       -0.009416224 -0.004384954 -0.00018068048 -0.00082467846

norm_input.running_mean f4 [1024]
000000 fd 58 7b 3f 90 16 38 c0 e4 05 d1 3f 30 e1 24 3f
       0.9818266 -2.876377 1.6329923 0.6440611
000010 a7 26 48 40 f7 2d 15 c0 83 88 7f bf f0 1e be 3f
       3.1273592 -2.3309305 -0.99817675 1.4853191
000020 1f 73 05 40 47 57 99 bf 7f 9d f7 3f f9 80 33 bf
       2.0851514 -1.197976 1.9344939 -0.7011867
000030 ca fd 9e 40 2b 7c 90 bf 90 98 0c 40 02 f0 a8 3f
       4.96848 -1.1287893 2.1968117 1.3198245
000040 06 35 aa 3f f3 68 00 bf f7 16 1d c0 0d a9 59 40
       1.3297431 -0.5016014 -2.4545267 3.400943
000050 90 9a 92 be 18 61 9c 40 ac c2 2a 40 79 c4 6e 3d
       -0.28633547 4.8868523 2.6681318 0.05829284
000060 85 52 91 bc ca df a0 40 20 14 c0 bf f1 e1 0f c0
       -0.017739544 5.027318 -1.5006142 -2.2481654
000070 51 06 42 bf 2f 38 7b bf 5c b0 04 c0 f6 3e be bf
       -0.7579089 -0.98132604 -2.0732641 -1.4862964
000080 02 31 12 bf 09 c5 82 3e 6d 97 89 40 e0 da f7 bf
       -0.5710603 0.2554095 4.2997346 -1.936367
000090 a3 7b c4 bf 0f eb 11 c0 a8 e7 86 c0 05 85 1c c0
       -1.5350231 -2.2799718 -4.2157784 -2.4456189
0000a0 55 c5 04 bf 91 47 a7 3f b7 69 df bf bc 44 86 bd
       -0.51863605 1.3068715 -1.7454137 -0.06556079
0000b0 d4 e2 91 3f 97 d7 50 40 65 d7 48 40 5a 45 f1 3f
       1.1397347 3.2631586 3.1381466 1.884929
0000c0 47 ab 76 40 f2 ca 90 3e 86 b3 30 40 50 01 16 be
       3.854204 0.28279835 2.7609572 -0.14648938
0000d0 b8 d2 3d 3f 3e e5 6a 40 a6 de 0a 40 36 1a a4 c0
       0.74149656 3.6702418 2.1698394 -5.1281996
0000e0 66 8c 32 c0 90 df 52 3f bf dd 57 40 2e b9 28 bf
       -2.7898192 0.8237238 3.3729093 -0.6590756
0000f0 c3 c6 6d bf 6d 8f e1 bf cb 40 99 bf 54 39 18 40
       -0.9288141 -1.7621895 -1.1972898 2.378499
000100 8e c3 34 3f f1 0f 80 bf 4d 44 97 3f d3 a1 30 40
       0.7061089 -1.0004865 1.1817719 2.759877
000110 5c 04 8c bf e5 e7 94 40 db fd 34 c0 fe e4 c1 3f
       -1.093883 4.6533074 -2.827994 1.5148008
000120 3e 18 89 3f a1 16 05 3f 9b 8f f7 be aa 51 07 40
       1.0710523 0.51987654 -0.4835175 2.1143594
000130 76 d2 88 40 44 b3 26 40 67 98 79 c0 2b 8e 11 3f
       4.275691 2.6046915 -3.899927 0.56857556
000140 34 7c 18 40 6b 92 42 3f ce 73 2b 3e f9 86 2c bd
       2.3825808 0.76004666 0.16743395 -0.042120907
000150 b0 03 28 40 2f 69 80 bf 5d b7 a6 3f 22 d4 95 3f
       2.625225 -1.00321 1.3024708 1.1705363
000160 67 10 4d 40 58 60 3a c0 5f f2 9e 3f de 89 7b 3f
       3.2041261 -2.9121304 1.2417716 0.98257244
000170 e0 8b a9 3f 82 7f 2a 40 77 52 bf be 50 08 79 3f
       1.3245811 2.6640325 -0.37367603 0.9727831
000180 1e 3f 62 bf 0d c3 94 3f 99 ed 41 40 37 6a 22 be
       -0.8837756 1.1622025 3.0301268 -0.1586083
000190 be 4f 1b 40 be 22 b1 40 aa e6 2f 3f d6 20 20 3f
       2.426742 5.535491 0.6871134 0.62550104
0001a0 79 1e ac 3f d6 d6 45 3f e1 db 3f c0 9b b0 2e c0
       1.34468 0.7728094 -2.9977953 -2.7295291
0001b0 a6 4c c1 3e 68 88 a3 3f 00 0e 03 40 8f fd c5 3d
       0.3775379 1.2776003 2.0477295 0.09667503
0001c0 1d 06 2b 40 f7 00 ae 3e 8e 85 af 3f ee b2 24 c0
       2.6722481 0.3398511 1.3712633 -2.573421
0001d0 55 71 9f 40 dd 28 18 bf bf 6d a0 3f cd 01 67 40
       4.9825845 -0.5943735 1.2533492 3.609485
0001e0 7b 5c 96 3f 5c 41 26 bd 2b f7 ce 3f 45 87 dd 3d
       1.1746973 -0.040589675 1.616918 0.10816816
0001f0 9f d3 a8 bf 0a f3 a6 bf fa 35 bf 3f 34 91 c6 be
       -1.3189582 -1.304292 1.4938347 -0.38782656
000200 f0 94 2b 3f 19 2b 66 3f f8 93 71 40 66 62 9a 3e
       0.67024136 0.8990951 3.7746563 0.30153197
000210 d8 4c 9c 3f 2f e8 40 40 c4 58 27 bf 75 8d 15 c0
       1.2210951 3.0141714 -0.6536982 -2.3367589
000220 f4 b5 21 40 2a 89 de 3f 38 11 83 bf 72 c9 c4 3e
       2.5267305 1.7385609 -1.023963 0.3843494
000230 47 b4 1d 40 5c a7 b1 3e f0 af 20 3f f1 10 ca 3f
       2.4641283 0.34697998 0.6276846 1.578642
000240 10 04 6b 3e f9 1c 1a c0 6b 52 43 40 4f e1 5b 40
       0.22950768 -2.4080184 3.0519054 3.4356267
000250 23 c1 a5 3f 19 d1 1d bf ef bb 3f 40 26 82 5b bf
       1.2949566 -0.6164718 2.9958456 -0.85745466
000260 b9 7f e3 3f 39 7e d7 3f f4 fa a6 c0 25 56 ee 3f
       1.7773353 1.6835395 -5.218134 1.8620039
000270 99 6e 0f 40 33 36 99 c0 ce 8a 0a 3f 64 b1 86 be
       2.2411253 -4.787866 0.5411805 -0.26307213
000280 8b 5c 0b 40 2f 8e 3c 40 2d f7 fa 3d b7 c2 0a 40
       2.1775234 2.9461782 0.12254176 2.1681345
000290 1d 2d b2 40 bc 1f b0 3f 7d 66 d5 bf 16 89 8e 3f
       5.568007 1.3759685 -1.6671902 1.1135585
0002a0 37 28 42 40 5a 02 57 3f 6f 4c d9 bd 6f 36 a2 bf
       3.0337045 0.83987963 -0.10610282 -1.2672862
0002b0 1d 8b 1b 40 e6 58 9c bf 59 2e 31 40 95 7d b6 40
       2.4303658 -1.221463 2.7684538 5.70283
0002c0 a7 43 90 bd 44 1b 5f be 04 a4 73 40 f9 81 a7 3d
       -0.07044154 -0.21787745 3.8068857 0.08179087
0002d0 16 10 3b bf cf b1 b4 c0 4d d9 87 c0 fb 00 ef 3e
       -0.7307142 -5.646705 -4.245276 0.46680436
0002e0 de 89 07 3f a8 c1 cd 3f 93 7c 18 c0 87 47 d3 bf
       0.52944744 1.6074724 -2.3826034 -1.6506203
0002f0 25 4c df be 53 32 a8 3f 80 37 3a c0 d1 71 50 3f
       -0.4361278 1.3140358 -2.9096375 0.8142367
000300 d0 b9 0e bf 45 e0 88 40 91 69 88 40 77 c5 04 40
       -0.5575228 4.2773767 4.2628865 2.0745523
000310 7d 1e 36 40 a0 e3 9c be aa 73 9e 40 28 ff 12 c0
       2.8456109 -0.30642414 4.951619 -2.2968235
000320 ee 41 6e 3f 12 d5 61 3f ed 5d 2c c0 91 e4 ba bf
       0.9306935 0.88215744 -2.6932328 -1.4601003
000330 11 69 40 bf 06 7f 7e bf 50 3b eb 3f fc fd 9d bd
       -0.7516032 -0.9941257 1.8377476 -0.07714459
000340 39 6b f5 3f 58 c8 7e 3f 7c 2c db 3f b1 f9 90 be
       1.9173347 0.9952445 1.712295 -0.283155
000350 99 83 8e 40 83 c5 be 3f de fa f1 bd 35 67 53 40
       4.453564 1.4904026 -0.11815427 3.3031743
000360 3f 8b 1b 40 d3 30 20 c0 ae f8 24 c0 d6 88 f5 3e
       2.430374 -2.50298 -2.5776782 0.4795596
000370 76 89 0a 40 f1 9b 7d bf 85 c8 cd 40 0f 75 bb bf
       2.16464 -0.9906607 6.4307275 -1.4645098
000380 19 74 a8 be 44 8b 97 c2 d7 da 2f 3f 17 42 56 40
       -0.32901075 -75.772 0.686933 3.3477838
000390 d5 0b 3b 40 7c 5e 6c 3f 2f 4e d7 bf e0 66 8e 40
       2.9225972 0.9233167 -1.6820735 4.450058
0003a0 9b e4 12 40 86 42 67 bf 04 0a 0d 40 2d 74 03 40
       2.295203 -0.9033588 2.2037363 2.0539658
0003b0 3f 69 5c 3f 17 2f f2 3f a2 57 68 3f 2b 41 9d bf
       0.8609809 1.8920621 0.9075872 -1.2285513
0003c0 2f dd f6 3d 42 10 4b 40 ec 5c ae 3f 09 fe 0a be
       0.12053906 3.1728673 1.3622108 -0.13573469
0003d0 19 bb fc 40 ac a0 3d c0 42 ad 90 bf 5b a4 a4 c0
       7.897839 -2.9629316 -1.1302874 -5.145063
0003e0 66 da 8f 3f 9c 7a 11 bf 6d 8b f7 3f d8 19 8d 3f
       1.1238525 -0.5682771 1.9339424 1.1023512
0003f0 2e 7e 6a 3f 61 e8 00 3f a1 cc 53 3f b7 0e f2 3f
       0.91598785 0.5035458 0.82734114 1.8910741

norm_input.running_var f4 [1024]
000000 0d ec c6 40 90 68 de 40 b1 59 8e 40 6c 75 40 41
       6.216315 6.950264 4.4484487 12.028667
000010 40 45 ce 40 da 5d c3 40 32 ce ca 40 6c b3 92 41
       6.4459534 6.1052065 6.3376703 18.337608
000020 94 50 1e 41 d7 00 9b 40 06 fd 14 41 3b 4a 20 41
       9.894672 4.8438525 9.311773 10.018123
000030 23 c5 66 41 1f d2 c1 40 ea 7d 6a 41 82 8c 69 40
       14.423129 6.0568995 14.655741 3.649201
000040 a3 dc b9 40 cd a8 d6 41 3e 07 80 40 d0 a2 bd 40
       5.808183 26.832422 4.000884 5.9261246
000050 eb 3e 19 41 78 f5 c1 41 41 78 28 41 a5 d6 4c 41
       9.577861 24.244858 10.529359 12.802403
000060 e3 34 96 40 79 fd 25 41 a4 76 b0 40 ad 56 f5 40
       4.693956 10.374383 5.5144825 7.6668305
000070 5a f1 a0 40 04 f9 d0 40 3d 77 20 41 00 c6 0e 42
       5.029462 6.5303974 10.029111 35.69336
000080 2d ea 10 41 4e 26 70 40 5a 28 2f 41 52 e0 44 41
       9.057172 3.752338 10.947351 12.304766
000090 c7 66 33 41 c5 e5 05 41 c9 ea 20 42 29 18 f2 40
       11.212592 8.368596 40.229282 7.565449
0000a0 45 7d 36 41 00 3e 0b 41 ee 6b 37 41 7e b0 26 40
       11.405583 8.702637 11.46385 2.6045222
0000b0 ce df 2d 41 c7 98 5b 41 50 c0 1a 41 0a a7 88 40
       10.86714 13.724799 9.671951 4.2703905
0000c0 b1 c3 10 41 0c e4 d9 40 6f be 08 41 76 10 ec 40
       9.047776 6.8090878 8.546493 7.3770094
0000d0 92 5f 63 40 ea 97 c2 40 9b 99 34 41 8f cf 68 42
       3.5527081 6.081044 11.287501 58.202694
0000e0 45 56 c9 40 e8 8b f7 40 f7 60 ba 40 c5 b4 be 40
       6.291781 7.7358284 5.8243365 5.9595666
0000f0 3c 4f a3 40 e4 92 f5 40 0d 64 ad 40 c2 74 22 41
       5.103422 7.674181 5.418463 10.153505
000100 ad 48 6c 40 cb 61 85 40 96 c1 9b 40 d9 42 19 41
       3.6919358 4.1681876 4.867381 9.57882
000110 bc 28 ac 41 a6 c3 01 41 a5 94 03 41 82 64 2f 40
       21.51989 8.110266 8.22379 2.7405095
000120 a3 f5 85 40 2e 0d c7 40 9b c6 17 42 81 3f fd 40
       4.186235 6.220359 37.94395 7.914002
000130 6f ca 01 41 35 b4 d6 40 31 15 54 41 ad 1f 09 42
       8.111922 6.709498 13.255174 34.280933
000140 da 8d 8f 41 75 90 5a 40 bb 7f d5 41 99 d4 d5 40
       17.944263 3.415067 26.687368 6.682202
000150 36 f8 2a 41 2c f7 ef 40 b3 e1 bf 41 4c 2a 2c 40
       10.685598 7.4989223 23.985205 2.6900816
000160 a6 7d c8 40 a5 a4 eb 40 cc 4a 89 40 b4 9e a9 40
       6.265338 7.363848 4.2903805 5.300623
000170 1e 66 ba 40 26 52 b3 40 c0 2b 9d 40 8c d0 87 40
       5.8249655 5.603778 4.9115906 4.2442074
000180 26 19 90 40 8d 9b 5e 40 c8 1d c2 40 75 a7 08 41
       4.50307 3.478244 6.0661354 8.540883
000190 dc df c9 40 74 26 3e 41 76 dd b1 40 5e f0 13 41
       6.3085766 11.884388 5.558284 9.246183
0001a0 b2 b1 6d 40 6a 26 d4 40 a6 a5 40 42 f0 62 fe 41
       3.7139707 6.629689 48.161766 31.79831
0001b0 d6 c2 e3 40 a2 41 04 41 69 39 13 41 91 7b dc 40
       7.1175337 8.266024 9.201516 6.890084
0001c0 d1 ff 25 41 14 26 0c 41 6f 70 e7 40 5a 7a 9c 40
       10.374955 8.759296 7.232475 4.8899355
0001d0 65 e8 2d 41 e7 37 30 41 60 8b 98 40 9c ea c1 40
       10.869237 11.013648 4.7670135 6.059889
0001e0 f4 2e 83 40 b9 1a ec 40 9f c6 ba 42 a5 0f 4c 41
       4.0994816 7.378262 93.38793 12.753819
0001f0 bd 65 0b 41 c9 ee dd 40 31 d2 a8 40 c3 fe b2 40
       8.712338 6.9353986 5.275658 5.593599
000200 79 f8 d4 40 40 e7 be 40 52 86 ad 41 41 23 42 41
       6.655331 5.9657288 21.690586 12.133607
000210 21 44 15 41 56 e4 a1 40 03 4a 98 40 db 1d 9d 40
       9.329133 5.059123 4.7590346 4.9098945
000220 00 09 02 41 93 dc e6 40 0d 8b 9a 40 91 2c a7 40
       8.127197 7.2144256 4.829474 5.22419
000230 47 49 fa 40 7d d4 37 40 66 9c 11 42 d4 6b f8 40
       7.821445 2.8723443 36.402733 7.7631626
000240 2a 43 29 41 da 1a 35 41 fc 3c be 40 d4 78 87 41
       10.578897 11.319056 5.9449444 16.933998
000250 7c 7b 63 41 be 99 4a 41 e4 f2 63 41 57 74 a8 41
       14.217648 12.662535 14.246799 21.056807
000260 07 bf 35 41 e4 f3 33 41 61 ea d4 41 ad 82 ff 40
       11.359138 11.247044 26.614443 7.9847016
000270 b7 4a 1c 41 1d f1 38 41 dc 8f 8a 41 0f ba 8b 40
       9.768241 11.558866 17.320244 4.366462
000280 f8 fe 9e 40 69 7d a6 40 66 88 79 41 29 98 13 41
       4.968624 5.202809 15.5958 9.224648
000290 28 1d 50 41 fa 5d 99 40 28 d5 94 40 bf 8b 17 42
       13.007118 4.7927217 4.65102 37.88647
0002a0 9a 35 1c 41 ae ff 8b 40 6b 78 a1 40 ac f0 97 40
       9.763086 4.374961 5.0459495 4.748129
0002b0 7c 5a ac 42 57 a7 bd 40 b9 f8 70 41 df 46 a2 41
       86.17673 5.926677 15.060723 20.284605
0002c0 f2 c3 9c 40 2f d9 a2 40 e6 6c c5 40 a9 e0 85 40
       4.898919 5.0890117 6.1695433 4.1836743
0002d0 22 13 e3 40 45 ee 0b 42 dd 0f 07 41 12 b6 b6 40
       7.0960855 34.982685 8.441373 5.7097254
0002e0 78 db eb 40 eb 92 e5 40 29 df db 40 24 c5 c2 40
       7.3705406 7.1741843 6.870991 6.086565
0002f0 5d e4 9c 40 36 47 fc 40 82 78 4a 42 8d fe 16 41
       4.9028764 7.8836927 50.617683 9.437146
000300 83 4e 8a 40 c4 42 6e 41 59 82 65 41 c0 3d d4 40
       4.322084 14.8913 14.344323 6.632538
000310 7e fa af 40 b7 85 ca 40 06 55 17 41 f1 55 13 42
       5.4993277 6.3288226 9.458258 36.833927
000320 13 c0 8b 40 7c 9a f2 40 98 12 bb 41 16 0c 02 42
       4.3671966 7.581358 23.384079 32.511803
000330 33 07 a0 40 29 c0 c6 40 be e4 d2 40 02 7f 9d 40
       5.000879 6.210957 6.5904226 4.921754
000340 a1 03 d2 40 59 c2 12 41 5a e9 2c 41 00 0e 4f 41
       6.562943 9.172448 10.806971 12.940918
000350 f7 c2 09 41 8a df ec 40 0f 16 37 41 d4 24 26 41
       8.610099 7.4022875 11.442885 10.383991
000360 69 7f b8 40 6d 2b b6 41 be 0d e3 40 cf 43 c3 40
       5.765553 22.771204 7.0954275 6.1020274
000370 e9 2d a4 40 ff 3d d5 40 70 fc aa 41 cb 83 d5 40
       5.1306043 6.663818 21.37326 6.672338
000380 51 dc fc 40 6a a1 c3 44 db 13 6d 40 49 d9 1b 41
       7.901894 1565.0442 3.704337 9.740548
000390 5c 94 b9 40 18 42 7d 40 a5 5c d9 40 83 a4 fd 40
       5.7993603 3.957159 6.792559 7.926332
0003a0 3e 20 c1 40 64 28 f7 40 98 b4 1b 41 6d eb 7f 40
       6.035186 7.7236805 9.73159 3.9987442
0003b0 dc a9 58 40 ca d8 97 41 8b 9c c6 40 1d ee 00 41
       3.3853674 18.980854 6.2066092 8.058133
0003c0 fc 6f 49 41 90 0e ae 40 17 73 cb 40 6d 9a f0 40
       12.58984 5.4392776 6.357799 7.518851
0003d0 37 58 9b 41 4c b8 27 41 a7 a5 00 41 cc 63 44 41
       19.418074 10.482494 8.040442 12.274364
0003e0 c6 7e 8c 40 70 57 22 41 2e 8b 96 40 61 8e 81 41
       4.3904753 10.146347 4.7044897 16.19452
0003f0 63 a7 7e 40 a3 ea c9 40 cd 42 cb 40 e7 3e 03 41
       3.9789665 6.309892 6.3519044 8.202857

transformer.norm.weight f4 [1024]
000000 0b d1 dc 3e 59 d1 3d 3f 75 49 b3 be 53 da 4f 3e
       0.43128237 0.74147564 -0.3501698 0.20298128
000010 20 f3 7d 3d 54 19 2b 3f df 9b 15 3f 94 f4 84 3f
       0.06199944 0.6683552 0.58440965 1.0387139
000020 ff af 7e 3f 93 9c 2e 3f ef 52 c8 3e 26 ca a2 3e
       0.994873 0.68207663 0.39125773 0.31794852
000030 16 4d 14 3e 55 5f 69 3d 6d 15 c0 3e 79 7f 3f 3e
       0.14482531 0.05697568 0.37516347 0.1870097
000040 24 5d f6 3e a5 f5 88 3e 73 32 c2 3e 8b 4c d4 3e
       0.48117936 0.26749912 0.37929115 0.41464648
000050 4d 84 ac 3e 3a 8b 30 3e 69 dd cb 3e fd ed 07 3f
       0.33694687 0.1724061 0.3981736 0.53097516
000060 a8 b5 9d 3e e3 51 c4 be 9e 2d 61 3f dc 21 a1 3e
       0.30802655 -0.38343725 0.8796023 0.31471145
000070 d5 40 59 3f a3 23 12 3f 74 14 54 3f 5b cc 1f 3f
       0.8486455 0.5708563 0.8284371 0.62421197
000080 01 b1 11 3f e7 4c 50 3f 53 c0 2d 3f 61 fa 02 3f
       0.5691071 0.81367344 0.6787159 0.511633
000090 7c 1d e3 3e 79 e9 3d 3f c9 58 84 3e ee 1e 42 3e
       0.44358432 0.74184376 0.25848988 0.18957111
0000a0 3d c8 fd 3e 59 36 12 3f b7 5f 89 3e 09 fc 3a 3f
       0.49566832 0.5711418 0.26830837 0.73040825
0000b0 93 ca 1a 3f f9 90 4a 3f 7f ca 9e 3e b0 82 3c 3f
       0.60465354 0.7912746 0.31013867 0.73636913
0000c0 80 a6 dc 3e 11 a0 e6 3e ff 73 37 3f de 45 cc 3e
       0.4309578 0.45043996 0.7166137 0.39897054
0000d0 1e ff 5d 3e ad 98 87 3e c9 d0 e5 3e b8 e5 95 ba
       0.2167935 0.2648367 0.44885853 -0.0011436259
0000e0 f1 f6 c3 3e 4f e7 bc 3e 46 59 1e 3f 16 4b 1c 3f
       0.3827434 0.36895224 0.6185497 0.6105207
0000f0 9e 81 0c 3f bf 28 23 3f 94 06 d5 3e a5 20 d8 3e
       0.5488528 0.6373405 0.4160658 0.42212406
000100 04 14 89 3d 91 cf 97 3e c0 80 fa bc c5 d8 2c 3f
       0.06693271 0.29650548 -0.03057897 0.67518264
000110 5b ef 2f 3f 10 6e 8c 3e fe bd 19 3f a0 6f 6f 3f
       0.687246 0.2742772 0.6005553 0.935297
000120 11 99 00 3f 33 d4 a3 3e 90 c0 5e 3f 77 2b dc 3e
       0.5023356 0.31997833 0.8701258 0.4300191
000130 22 2b 0b 3f 54 79 b3 3e db ec 3a 3f 46 f5 a1 3c
       0.5436269 0.35053504 0.7301766 0.019770276
000140 5f ef 12 3f f6 20 cf 3e 33 46 e7 3d 81 a1 60 3f
       0.573965 0.40454835 0.11292686 0.87746435
000150 3b 91 06 3f 76 07 2a 3f d3 78 6a 3e 61 d1 41 3f
       0.52565354 0.66417634 0.22897653 0.7571011
000160 53 d5 9e 3e f8 b3 a3 3d 73 f1 0f 3f 3b ff 6a 3d
       0.31022128 0.07993311 0.562278 0.057372313
000170 14 36 30 be fb d4 a8 3e 2e 2e 29 3f 53 2c 25 bc
       -0.17208129 0.3297499 0.6608609 -0.0100813685
000180 2b 60 70 be 65 41 fd 3e 94 c3 97 3d 84 71 d3 3e
       -0.23474185 0.49463955 0.074103504 0.41297543
000190 ad e5 0a 3f 7a 69 33 3f ec 64 a1 bd fd f0 f7 3e
       0.5425671 0.7008282 -0.078805774 0.48426047
0001a0 27 02 9f 3e cc 17 c6 3e a4 b1 14 3d cb be 25 3f
       0.3105633 0.3869003 0.036302224 0.6474425
0001b0 6a 11 dd 3e af be 53 3e 3c ef 3a 3f 9e 76 0e 3f
       0.43177348 0.20678209 0.7302129 0.55649745
0001c0 0b 97 88 3d 34 8c 68 be 09 a9 f3 3e a3 14 0b 3f
       0.06669434 -0.22709733 0.475899 0.54328364
0001d0 7d 3d d2 3e 51 9b b9 3e f2 e4 95 3e 7d 7e 90 bd
       0.41062537 0.3625131 0.29276234 -0.07055376
0001e0 2c 02 09 3f 32 27 b6 3e 1e 34 4a bd 93 ab 79 3d
       0.5351894 0.3557678 -0.04936611 0.06095464
0001f0 81 b2 5f 3e 5e fa f7 3e ef 88 63 3f 56 08 39 3f
       0.21845438 0.48433203 0.8888082 0.72278345
000200 71 df 36 3f 08 63 2a 3e e0 20 07 3f 1e 1d cf 3d
       0.71434695 0.1663934 0.5278454 0.101129755
000210 fd 48 ec 3e 00 2b 26 3e c9 37 33 3e 21 3d eb 3e
       0.46149436 0.1622734 0.17501749 0.45945075
000220 33 6e 74 3d 02 5e 3f 3f 2e 67 d4 3e 18 98 40 3e
       0.059675407 0.7475282 0.4148497 0.18808019
000230 8d b0 22 3f 33 55 84 3f 0d c1 08 3f 31 9c 98 3e
       0.63550645 1.0338501 0.5341957 0.29806665
000240 9c 59 6b 3f bc f8 21 3f d1 82 13 3f 65 1d 50 3f
       0.9193361 0.63270164 0.57621485 0.8129485
000250 36 c7 c6 3e f7 62 34 3f d9 9a 80 3e 1d 5d b8 3e
       0.3882386 0.7046351 0.2511814 0.3600854
000260 d3 9a e2 3e 0f 2a 0b 3f 2a 91 38 3e 63 c0 a7 3e
       0.44258747 0.5436105 0.18024126 0.32763967
000270 81 3b 4a 3f dc 95 95 3d f8 00 1d 3f c5 7b dc 3e
       0.78997046 0.07303974 0.61329603 0.4306318
000280 d7 47 e1 3e 11 70 b2 3e f7 94 12 3f 46 db 62 3e
       0.44000122 0.34851125 0.5725855 0.22153959
000290 09 54 83 bc 0e 9f 87 3e 2d 3a cf 3e c5 da 91 3e
       -0.016031282 0.26488537 0.40474072 0.2848722
0002a0 b6 5d b2 3e 72 ad 5d 3f fa 97 40 3f 34 1a 2f 3f
       0.3483712 0.8659278 0.752319 0.6839936
0002b0 ad f3 72 3e 50 3d 5a 3f 03 27 ca 3e fc e0 29 3f
       0.23725767 0.85249805 0.3948289 0.66358924
0002c0 72 2f 25 3f 7e 53 c4 3e fa cf 3e 3e 7f 2e 12 3f
       0.6452552 0.3834495 0.18634024 0.571022
0002d0 9f 2a 3d 3f c3 7f 4d 3c 40 5f e7 bb 68 62 f7 3e
       0.7389316 0.012542668 -0.007060915 0.48317266
0002e0 f9 d3 d6 3e 29 6a 0d 3f 2c f4 b2 3e 67 fc 0b 3f
       0.41958597 0.5524011 0.34951913 0.5468201
0002f0 ed 83 32 3f 8e 8b ba 3e b4 f1 9e bc 44 a0 83 3e
       0.6973255 0.36434597 -0.019402362 0.2570821
000300 9f 84 90 3e fc da a9 3e e1 d4 21 3f b3 3b 6e 3f
       0.28226182 0.33174884 0.6321545 0.93059844
000310 5d 09 4b 3f e2 48 f6 3e 72 45 43 3f 7d 07 bc 3e
       0.7931116 0.4810248 0.7627784 0.36724463
000320 b7 01 2b 3f 89 22 11 3f 79 20 06 bf 74 c6 c3 3e
       0.6679949 0.5669332 -0.523933 0.38237345
000330 e9 29 62 3e c7 1f 3a 3f 71 27 f6 3e 71 41 dc 3e
       0.220863 0.7270474 0.48076966 0.43018678
000340 d4 9e e0 3e 15 46 c9 3e 32 51 d4 3e 62 1d 27 3f
       0.43871176 0.3931128 0.41468197 0.6527921
000350 22 e8 0b 3f a7 d5 1b 3f 7c 9e 55 3f f7 a0 e5 3e
       0.5465108 0.6087288 0.8344495 0.4484937
000360 8f e0 cc 3e e0 4d 82 3e e3 82 15 3f 97 16 57 3f
       0.40015075 0.2545004 0.5840284 0.84018844
000370 8b 63 23 3f 9a 4f c1 3e 53 08 fe 3e fe ed 2f 3f
       0.63823766 0.37756044 0.49615726 0.6872252
000380 25 c6 81 3e fe 6a 88 bd ef 45 cc 3d 96 85 93 3f
       0.25346485 -0.06661032 0.09974276 1.1525142
000390 df 68 5b 3f c3 13 92 3e 71 3a 40 3f a4 c6 0d 3e
       0.85706896 0.28530702 0.75089175 0.13845307
0003a0 b9 72 f6 3e ba 63 09 3f a6 b3 0b 3f 4e 0f d1 3e
       0.481344 0.53667796 0.54570997 0.4083199
0003b0 a2 02 d4 3e 8f dd 1e 3f e4 65 1d 3f a3 6a 7f be
       0.4140826 0.6205682 0.614836 -0.24943022
0003c0 66 54 98 bd a4 fa 5d 3f 89 5e 28 3f 50 b9 e8 3d
       -0.07437973 0.8671057 0.6576925 0.113634706
0003d0 d1 57 e7 3c 7a a6 3c 3f 98 64 dd 3e 8b 83 23 3f
       0.028240116 0.73691523 0.4324081 0.63872594
0003e0 d9 1d cb 3e f3 f8 df 3e d5 67 00 3f 38 13 1e 3e
       0.3967121 0.4374462 0.50158435 0.15437019
0003f0 aa 23 08 3f 61 cb 40 3f 67 8d e6 3e f7 a7 45 3e
       0.5317942 0.7531033 0.45029756 0.19302355

transformer.norm.bias f4 [1024]
000000 08 46 28 be 38 00 7a 3d 1b c7 97 bc 86 35 dc 3d
       -0.16432965 0.061035365 -0.018527558 0.10752396
000010 63 19 d9 bd d2 1e 15 3d a8 98 7a 3e 6e 67 a0 3b
       -0.10600545 0.036406346 0.24472296 0.0048951423
000020 9d 4c 63 3e 41 40 0a 3c 34 dc ec 3d 11 33 e7 bd
       0.22197194 0.008438171 0.11565438 -0.11289037
000030 c0 04 da bd 98 db 67 bc e3 87 74 3d 1a 41 8c 3d
       -0.10645437 -0.014151476 0.059699904 0.06848355
000040 42 9d cc bd 27 33 83 3e d8 f0 4b bd 28 8e 57 be
       -0.09990932 0.25624964 -0.049790233 -0.21050322
000050 f2 db 0d be 25 84 17 3c 2b f1 07 be b3 62 98 be
       -0.13853434 0.009247814 -0.13275592 -0.29762802
000060 48 f3 ac 3d 21 b2 db bc d9 c1 f8 bd d9 64 e0 3d
       0.0844484 -0.026818337 -0.121463485 0.10956735
000070 35 7f 4f 3e 59 a1 c6 3c 4f d9 d9 bd 27 99 e1 bd
       0.2026337 0.024246858 -0.106371514 -0.110155396
000080 1d 24 4c 3e 3e 51 d6 bd 47 bb af bd c8 ff da bb
       0.19935651 -0.104647145 -0.08580642 -0.0066833235
000090 80 9c 10 3e 6f 63 52 3d e5 c2 27 be 47 24 91 bc
       0.141222 0.05136436 -0.1638294 -0.017717494
0000a0 3d 2b 88 3d 34 b8 8b 3e 3f 10 38 3e 03 5c d7 3c
       0.06648872 0.27288973 0.17974947 0.026288992
0000b0 63 41 e4 be 0a 8d 7f bd a3 54 c9 bd e0 c6 a7 bd
       -0.44581136 -0.062390365 -0.09830596 -0.08192229
0000c0 1e f5 66 bd 4e c9 0e be 87 69 b0 bd 35 35 23 be
       -0.056386106 -0.13943979 -0.08613878 -0.15938266
0000d0 37 43 b4 3c fa f4 ad bd 37 3a 59 3d 45 29 e2 bc
       0.022004707 -0.08493991 0.053034034 -0.02760757
0000e0 df d7 1d 3e b1 31 41 3c 49 71 ba 3d 52 a0 19 3e
       0.1541438 0.0117916325 0.09103639 0.15002564
0000f0 1f 9c 83 3b b1 6d 13 3c 52 0e 18 3d e8 23 6e bd
       0.004016414 0.00899832 0.037123032 -0.05813971
000100 9f 7e bd 3c 98 61 19 be 54 de 8b bc 86 f5 1d be
       0.023131667 -0.14978635 -0.017073788 -0.15425691
000110 6a bf f0 bd 83 d8 80 bd 95 62 2d 3e df af 5b 3d
       -0.11755259 -0.06291296 0.16932137 0.05363452
000120 c6 90 ab bd 1a bd ae bd dc 8f b8 3d c8 48 84 bc
       -0.08377223 -0.08532162 0.09011814 -0.016147986
000130 25 07 71 bd ef 66 2f be 77 9b d9 bc c9 ed 84 bc
       -0.058844704 -0.1712911 -0.02656339 -0.016226666
000140 7f 7b 2c be 4c 9e a7 bd e3 58 02 3c b8 81 92 bd
       -0.16843985 -0.081844896 0.007955763 -0.07153648
000150 1c 81 8a 3d bc 6c 0b 3e cd d4 50 bd 43 10 f5 3d
       0.06762907 0.13615698 -0.050984193 0.11965992
000160 41 ce 99 bd fd 35 89 3d 9f 75 8d bd 44 9a 70 3c
       -0.07510043 0.066997506 -0.069072 0.014685217
000170 3d 48 f8 3d 0d 5a 5e 3d dd 44 8f 3d 18 de 7e 3b
       0.12123153 0.054285098 0.069955565 0.0038889702
000180 16 d1 94 bc c4 38 a9 be 28 f7 d6 3c c3 91 91 3c
       -0.018166106 -0.3305112 0.0262409 0.0177697
000190 2c ea bd be 2f 72 58 be 95 03 3e 3d 46 16 be bc
       -0.3709272 -0.21137308 0.046390135 -0.02320398
0001a0 ea 08 85 be 40 dd e6 bc 4c 7e 09 bd 62 c3 8f 3c
       -0.25983363 -0.028181672 -0.03356771 0.01754922
0001b0 d5 7f 7a 3d 7e 85 d9 bb ca 7a c8 bd 46 02 b6 3e
       0.061157066 -0.006638228 -0.09789045 0.3554861
0001c0 94 a5 35 be 56 1b 3f bd 2b 65 b3 bd 72 5c 39 be
       -0.17738944 -0.04665693 -0.08759531 -0.18101671
0001d0 a5 d9 21 3b 30 2c bd 3d 2b cd 18 bd 32 7c af bc
       0.0024696377 0.09236944 -0.03730504 -0.021421526
0001e0 b8 1c fa 3d 58 bd fc 3d d5 71 17 bd 07 19 45 3d
       0.12212509 0.12340802 -0.036973793 0.04811957
0001f0 95 ff e9 b9 90 a1 a2 bd 99 64 46 be 85 74 3e 3d
       -0.00044631647 -0.07940972 -0.19374312 0.04649784
000200 dd 5a ae 3d 5b 66 3f 3e a7 85 1b be a9 08 27 bd
       0.085134245 0.1869139 -0.15187703 -0.040779743
000210 3f d8 7c bd 6e 0e a8 bd 4b 09 17 3e 80 31 42 3e
       -0.061729666 -0.08205877 0.14749639 0.18964195
000220 13 d1 ad bd 84 1a de bd f8 2c 5f be 58 1b 97 ba
       -0.08487143 -0.10844901 -0.21794498 -0.0011528535
000230 21 b5 ac bd 05 18 38 be f4 04 49 be 12 e5 7c 3d
       -0.08432985 -0.17977913 -0.19630796 0.061741896
000240 ed 4b 0f bc 24 26 ea bd 4d a8 65 3d c4 0e 6a be
       -0.008746129 -0.11433056 0.056068707 -0.22857195
000250 13 90 90 3d e2 89 ca 3c b1 7e 20 be a5 ac 85 3e
       0.0705873 0.02472395 -0.15673329 0.2610828
000260 60 b9 2a 3e 4e 30 84 be 81 cf b5 bd 9c 4d f4 bc
       0.16672277 -0.25818104 -0.08877469 -0.029822163
000270 57 28 99 3d a0 f1 12 3d 93 49 b0 bd 4a b4 e5 3d
       0.07478397 0.035874963 -0.08607783 0.11216028
000280 e5 e7 a3 3d da c0 22 bd 23 39 86 3d c4 c9 89 bd
       0.08003215 -0.0397347 0.06553867 -0.06727937
000290 79 7f c0 3c 28 22 a5 bd e8 07 43 3e 77 bc ae 3d
       0.023498284 -0.080631554 0.19045985 0.085320406
0002a0 e5 df 01 3d 69 57 0b 3e 52 88 aa bc 75 e8 53 bc
       0.031707663 0.13607563 -0.020816956 -0.01293384
0002b0 0e 6c a8 3d e1 05 24 be 43 19 1a 3d 23 a8 25 3d
       0.08223735 -0.16017868 0.037621748 0.04044355
0002c0 cf 65 02 3e 1f c9 8d bd 19 6e 23 bb ac 7e 1b be
       0.1273415 -0.069231264 -0.002493745 -0.1518504
0002d0 c6 bc 36 3e 91 21 11 3d c8 ab d1 3c a9 03 7f be
       0.17845449 0.035432402 0.025594607 -0.2490374
0002e0 bd bd ac 3d 78 de 01 bd f8 ea 28 3d 9b 27 4b 3e
       0.08434627 -0.031706303 0.04123971 0.19839327
0002f0 10 38 d3 3d 2c bc 02 bd e7 1a 45 bc dd 47 e5 bd
       0.103134274 -0.031917736 -0.01203034 -0.111953475
000300 9c 19 9c bd 36 b4 19 3d ac 76 3c 3d ef c3 d1 bd
       -0.07622072 0.03752538 0.04601161 -0.102424495
000310 db f9 5a be 46 12 be bc 83 8d 5b be 02 7d a4 bd
       -0.21384375 -0.023202073 -0.21440701 -0.08031656
000320 59 e0 b0 bd 18 f2 da 3d 8e 97 78 3d 11 23 a9 3c
       -0.08636541 0.10690707 0.06069141 0.020646604
000330 5e e5 40 bc 32 e6 47 3e e0 3c c2 3c 07 42 98 bd
       -0.011773435 0.19521406 0.023710668 -0.07434469
000340 19 a4 8c 3c 81 c0 5c 3d 07 88 d9 bd 29 dd 09 3e
       0.017168092 0.053894524 -0.10621648 0.13463272
000350 2a 6b b4 be c8 d3 2b bc fa 4f 5e bd 6f 3b 01 be
       -0.3523801 -0.010487504 -0.05427549 -0.12620328
000360 da a6 10 3d dd e3 e8 bd 41 4a 5b be 2f 32 9b bd
       0.035315372 -0.113715865 -0.21415044 -0.07577931
000370 95 ae cb bd 68 fe 99 bd c1 05 84 be 14 73 c3 3c
       -0.09945408 -0.07519227 -0.2578564 0.023858584
000380 63 51 1d 3e c4 93 3f bd cd d2 cd bd 1d 77 26 be
       0.15363078 -0.04677178 -0.10049973 -0.16256376
000390 1f 49 42 be 5b aa 54 3e 8d 6e 1e 3e 17 93 53 bc
       -0.18973206 0.2076811 0.1547186 -0.012913487
0003a0 3d 1f bc bc 05 c2 16 3e 68 f6 80 bd 25 f6 9e bd
       -0.022964114 0.1472245 -0.06296998 -0.07761792
0003b0 49 24 c0 3d 66 ff c0 3d b4 1b bb bd b2 3a b0 bd
       0.09381921 0.094237134 -0.09136143 -0.08604945
0003c0 bc 4d 40 3b df 8a ac be 54 76 b7 3d c3 7f 1d 3d
       0.0029343208 -0.336997 0.08958116 0.03845192
0003d0 20 79 6d 3c dc 70 7f 3d d5 9a 9a 3d 5d ac a3 3e
       0.0144942105 0.06236349 0.07549063 0.3196744
0003e0 cc e1 38 3e 4e cb db 3d 39 e2 3b 3d 78 1b c9 3c
       0.18054885 0.10732137 0.04587004 0.024549231
0003f0 ac 17 2d be 9d 08 21 3e e3 62 cf 3d 03 3b ba 3b
       -0.16903561 0.15725942 0.10126283 0.0056833043

transformer.norm.running_mean f4 [1024]
000000 9c 6f 5a 3c 0c 09 46 3c 2d cf 09 3c b8 a5 62 ba
       0.013332274 0.012087118 0.008411211 -0.000864591
000010 ca ee cc 3a 44 94 e2 39 37 f9 48 b9 b2 24 af b9
       0.001563513 0.00043216546 -0.00019166326 -0.0003340594
000020 59 6c 85 3a 3b 90 48 bc 87 90 8e 39 6a 3d b6 ba
       0.0010179385 -0.0122414185 0.00027192032 -0.0013903801
000030 63 2f cc 3b 95 08 48 3b 72 cb 07 bb 61 71 a9 bb
       0.006231235 0.0030522693 -0.0020720628 -0.0051709865
000040 85 a0 ae 3b 37 80 63 bb e7 2c 7e 3b f9 89 ab ba
       0.005329194 -0.0034713873 0.0038784088 -0.0013087384
000050 68 81 00 3b 6a 67 39 b9 f3 5c 9c 39 37 b8 1c 3b
       0.0019608382 -0.000176815 0.0002982389 0.0023913512
000060 12 87 12 bb 84 6d fb b6 2e 7f 52 ba ed 1a 1b bc
       -0.002235834 -7.493132e-06 -0.00080298155 -0.009466869
000070 31 9f 4c bb fb 5a 97 b7 7d 21 f8 3b 21 eb ec bb
       -0.0031222815 -1.8042969e-05 0.0075723515 -0.007230178
000080 c9 37 c9 bb 8e fc 88 3b 3d 06 7b 3b d2 94 e5 3a
       -0.0061406833 0.0041804975 0.003830328 0.0017515665
000090 d7 bf 9f 3a 3c 03 64 3c 99 8b 9e 39 80 d8 aa 3b
       0.001218791 0.013916787 0.00030240117 0.005213797
0000a0 3f e9 c0 b9 fd 44 32 bb a7 92 c7 3b 10 87 a7 ba
       -0.00036794876 -0.0027201765 0.0060904804 -0.0012781341
0000b0 1c bc 02 3b c0 f7 2b bb a0 28 40 3b fc 71 be 3a
       0.0019948548 -0.00262402 0.002932109 0.001452982
0000c0 8b df d5 bb 63 56 a1 bb 6a ac c8 bb 7e cf eb 3b
       -0.0065268925 -0.004923628 -0.006124069 0.007196366
0000d0 96 bd a8 bb c5 18 a2 b9 25 ed 8b bb a9 3c 40 3a
       -0.0051495535 -0.00030917503 -0.004270213 0.0007333258
0000e0 91 17 dd 3a ee 27 88 bb 2f 96 01 bb ca f5 8e bb
       0.0016867985 -0.0041551506 -0.0019773354 -0.0043627964
0000f0 9a 6d 45 3b a6 9c 97 39 d9 57 ca 3a f0 7f 9d 3b
       0.0030125142 0.00028917677 0.0015437558 0.004806511
000100 f1 e0 a5 bb 93 81 04 bc c0 78 76 3a fc f9 ed ba
       -0.0050622155 -0.0080875335 0.00094021484 -0.0018156166
000110 b1 d2 5a 3b 1e 53 a4 bb bc 38 b1 bb c6 9c 09 3c
       0.0033389742 -0.005014791 -0.0054083746 0.008399194
000120 04 88 61 3b be 54 ac 3b 1f c8 a3 3b 2d fa 04 3c
       0.0034413347 0.0052591255 0.0049982215 0.008116287
000130 65 62 91 bb bc a8 41 3b 1b 33 a6 bb 92 9f 60 bb
       -0.0044367784 0.0029550036 -0.00507201 -0.0034274799
000140 10 3e 53 3a 87 d2 45 ba e7 d3 6c 3b 50 7d bb 3b
       0.0008058259 -0.00075463246 0.0036137046 0.0057217255
000150 71 89 37 3c 63 99 b8 3c 19 8a 8d 3a bd 03 13 bc
       0.011202202 0.022534078 0.0010798603 -0.008973059
000160 ff b5 2b 3b f9 32 b9 3b a2 c2 44 bb 61 ed 22 ba
       0.0026201007 0.0056518284 -0.0030023237 -0.0006215182
000170 9c 1d c5 3b f6 5d d6 3b e4 75 a6 b8 7f 0f a5 39
       0.0060154926 0.0065419627 -7.937456e-05 0.00031482798
000180 17 e3 23 ba e2 4d e9 bb dd 39 f2 ba bd c6 83 3a
       -0.00062517956 -0.00711988 -0.0018480379 0.0010053735
000190 06 4a ed 3b 7b 00 01 bc c7 4b 91 3b 4f 14 80 bb
       0.0072414903 -0.00787365 0.004434082 -0.003908671
0001a0 26 54 1f bb 1e cc 31 bb 48 02 57 3b 4c 0c d1 bb
       -0.002431163 -0.002712972 0.0032807756 -0.0063796397
0001b0 7a 66 15 3b 46 2d 9b 3b df 7a 58 bb e3 48 b8 bb
       0.0022796676 0.0047356216 -0.0033032221 -0.005623923
0001c0 93 bf 4d 3b 0b 40 39 bb ff 94 31 bb 82 b3 90 3b
       0.0031394705 -0.0028266932 -0.0027096865 0.0044159302
0001d0 1e 47 5d bb 47 7c 04 bb b5 09 b3 ba bb 79 4e 39
       -0.0033764313 -0.0020215677 -0.0013659509 0.00019691039
0001e0 64 6f 01 3b 94 90 e9 3b fd bb 30 ba 62 a5 58 3b
       0.0019750232 0.0071278308 -0.00067418796 0.003305756
0001f0 e4 c2 e0 39 2b d6 3b 37 3a 60 91 3c eb 2d 3e 3a
       0.00042869814 1.1195933e-05 0.01774608 0.0007254767
000200 7e b7 2e bb fb 7e e0 38 90 83 4a bb 81 b3 da ba
       -0.0026659663 0.00010704804 -0.0030901171 -0.0016685576
000210 f2 a7 5a 3b e1 39 85 3b 66 c6 1e bb 37 ed a8 3b
       0.0033364263 0.0040657376 -0.0024227141 0.0051552313
000220 90 86 6e bb 42 1c e7 bb e7 58 e9 39 a0 2f 57 3b
       -0.0036396123 -0.007052929 0.0004450746 0.0032834783
000230 37 53 53 b9 f0 11 80 ba 37 ee 6a bb 50 e4 a6 bb
       -0.00020153528 -0.0009770971 -0.0035847554 -0.005093135
000240 e0 62 45 3b d2 4a a1 ba 87 40 9c 3a 93 04 84 bc
       0.0030118749 -0.0012305623 0.0011921086 -0.016115462
000250 87 28 03 bc d3 1d 2c 3c 87 0a f4 3b d6 00 e3 bb
       -0.008005268 0.0105051575 0.007447544 -0.00692759
000260 3e 85 03 3c 78 eb 45 3b 0b ce 16 ba 6c 69 08 3b
       0.008027373 0.0030200165 -0.00057527487 0.002081479
000270 d9 55 52 3b 26 89 c2 3a 47 d6 02 b9 b9 1b c6 39
       0.0032094626 0.0014841899 -0.0001247759 0.00037786158
000280 eb e7 87 3b 3c d6 1b 3c f0 5a 69 bb 54 61 ab ba
       0.00414752 0.009511527 -0.0035607181 -0.0013075271
000290 0f 86 7f 3a 13 6b b9 38 f8 d7 d6 3a 97 1d 70 3b
       0.00097474543 8.8414316e-05 0.0016391268 0.003663873
0002a0 8e bd 37 bc 62 bc ab bc a9 23 15 bc 7e 7a 18 bc
       -0.011214627 -0.020963851 -0.00910274 -0.009306548
0002b0 ff c8 f7 3a e9 0b c5 bb be 02 6d bb 8e a9 8c 3a
       0.0018904506 -0.0060133827 -0.0036164965 0.0010731684
0002c0 8e 06 09 3c b4 cc 3b 3a ac 42 d7 bb 0d b0 80 ba
       0.008363379 0.0007163987 -0.006569227 -0.0009818092
0002d0 77 3e 1a bc c3 b6 66 3b bc 68 e9 b9 be 59 d2 3a
       -0.009414307 0.003520415 -0.00044519256 0.0016048474
0002e0 66 6a 93 bb ff 80 24 bb 38 48 0a 3b 37 3e 2d bb
       -0.0044987677 -0.0025101302 0.0021100175 -0.0026434788
0002f0 26 7f 02 3c cf d8 be ba 7b 0a 31 3b ce 1f a5 3a
       0.007964885 -0.0014560464 0.0027014303 0.001259798
000300 87 dd 0c bc 87 7a 08 3c 47 49 d6 bb 74 73 2b 3b
       -0.008597738 0.008329994 -0.006539497 0.0026161345
000310 80 01 ee bb c7 30 cc 39 84 d4 38 b9 e3 6c d4 bb
       -0.0072633624 0.00038946254 -0.00017626776 -0.006482707
000320 bb 76 0d bc f8 d9 b9 bb d7 d3 4d bc 55 6e cb bb
       -0.008634265 -0.005671736 -0.012562714 -0.006208221
000330 f0 e6 c3 3b ba be 84 bb 53 a3 8c 3b 83 dc 62 3b
       0.0059784576 -0.0040510567 0.0042919307 0.0034616299
000340 95 3f d9 bb 98 36 b5 bb b7 e0 8f 3b 7b 2c f9 bb
       -0.006629894 -0.0055301897 0.004390802 -0.0076041794
000350 0b 84 32 3b 7b f7 89 bb ae 15 4c bb 59 c8 c4 3a
       0.0027239348 -0.00421041 -0.0031140852 0.0015013322
000360 aa 0d c1 3b 1a 32 05 3b c2 ba a4 3b 97 63 08 bc
       0.0058915215 0.0020324052 0.005027146 -0.008324525
000370 62 d6 88 bb 9b ab c0 b9 00 c2 98 bb 43 63 0e 3c
       -0.004175947 -0.0003674895 -0.0046617985 0.008690658
000380 78 83 9b bb 4a 62 62 bb 7b 91 ba 3b 99 60 75 3c
       -0.004745897 -0.0034543448 0.005693612 0.014976644
000390 11 92 09 3c 9c 8a 19 bb 5d 33 2b 3c 7a 9f 09 3c
       0.008396641 -0.0023428565 0.010449258 0.008399839
0003a0 d8 e8 b5 3a bc bb 12 ba 12 ba 3c 3b 3f 4c b1 39
       0.0013878597 -0.00055974326 0.002879743 0.0003381688
0003b0 7c 1a ae bb 6a 11 bf bb 7b b8 1d bc 83 19 cd ba
       -0.005313216 -0.0058309333 -0.009626503 -0.0015647862
0003c0 2d 0f 83 ba c7 e1 dc 3b c1 0a 57 bc 48 ce d0 39
       -0.000999903 0.006740782 -0.0131251225 0.00039826543
0003d0 cf e7 e4 b9 7a 65 fc bb d6 0c 0a bb 55 fb 75 bb
       -0.0004366026 -0.0077025266 -0.002106478 -0.0037533839
0003e0 14 cc 78 ba 55 09 63 3a c7 48 18 bb 81 36 69 bb
       -0.0009490859 0.00086607534 -0.0023236738 -0.0035585465
0003f0 fb f0 19 bc 4b 34 92 bb d1 ea 43 b9 33 08 56 ba
       -0.009395833 -0.0044618 -0.00018684125 -0.0008164674
