models/sqa-v2/xls-r-1b/model_1b_lay10_subset.pt (torch, 425869 bytes, 67 tensors)

norm_input.weight f4 [1280]
0.7451538 0.6752722 0.5745497 0.7732688 0.7695873 0.84500587 0.59474283 0.9368913
0.650946 0.77729267 0.8188886 0.69740325 0.7591323 0.55225503 1.0220823 0.64692265
0.583642 0.63037837 0.69770885 0.66464055 0.61506426 0.6452124 0.72866917 0.79057646
0.7237363 0.95742536 0.84935975 0.71785456 0.82001615 0.7541961 0.723669 0.74524385
0.6746245 0.6443809 0.632039 0.80347216 0.7183388 0.6828532 0.58763677 0.8334713
0.61351675 0.7285762 0.7314967 0.6859987 0.57729465 0.9023711 0.77115697 0.8056827
0.54664505 0.63605505 0.73966724 0.69229376 0.76794976 0.86876214 0.76081103 0.6808371
0.84437 0.89355046 0.5557104 0.72388124 0.71468794 0.5952446 0.59250444 0.71841913
0.8202522 1.0688692 0.66747427 0.6105577 0.7391292 0.7052539 0.5445331 0.68311024
0.69858205 0.6619929 0.6373508 0.62803715 0.8005477 0.6230566 0.6782417 0.823382
0.83406395 0.902268 0.68176425 0.70144325 0.76100904 0.7382562 0.74825066 0.69442713
0.64910245 0.7570883 0.7691907 0.6800715 0.6193938 0.6170752 0.6801467 0.7655473
0.64850736 0.7543754 0.7344335 0.9247541 0.70618665 0.7164028 0.75187474 0.5647065
0.76182705 0.9292367 0.7105112 0.64625406 0.77973557 0.68995655 0.8019372 0.6400523
0.64429486 1.0627921 0.8890778 0.6205664 0.6024639 0.785279 0.58293056 0.7368611
0.7580342 0.6323682 0.8907749 0.5959464 0.8567022 0.94921297 0.59564364 0.7298023
0.80063707 0.6094094 0.60702515 0.6731391 0.7566574 0.7281034 0.91905636 0.995212
0.579186 0.7005865 0.5786466 0.79997814 0.7207451 0.6717654 0.7581889 0.881482
0.6939786 0.73208785 0.7107182 0.79912865 1.0820609 0.76841533 0.810456 0.7927513
0.8347299 0.79541004 0.70941854 0.6555884 0.8263601 0.6180539 0.6150097 0.61559033
0.7622497 0.9611115 0.903982 0.5765565 0.7759918 0.6451414 0.65421975 0.71410424
0.6416214 0.68140477 0.6453396 0.89164233 0.7997015 0.7969136 0.7534998 0.6334404
0.86696315 0.78374803 0.8575517 0.6594045 0.9583409 0.8947611 0.79850626 0.6939008
1.0200151 0.62557924 0.80278134 0.69713247 0.6966401 0.6881215 1.0043964 0.7280676
0.88127023 0.6297523 0.7675207 0.6909208 0.64792293 0.8458538 0.93689144 0.9632343
0.6489534 0.7607985 0.63873094 0.8576053 0.64427114 0.62727916 0.6350712 0.622486
0.8027204 0.61865264 0.6754873 0.79743135 0.7165951 0.77538466 0.77259225 0.75151676
0.7476693 0.678271 0.72817403 0.6936944 0.64320105 0.6378475 0.7172814 0.85079646
0.828735 0.9206385 0.7728013 0.82982105 0.71676636 0.7680093 0.836892 0.71460384
0.7899 0.6112598 0.9205902 0.65822697 0.80534637 0.8081068 0.8876683 0.6067379
0.7105234 0.7429944 0.820249 0.6811476 0.555049 0.8394891 0.7109721 0.6945946
0.78007525 0.7992941 0.81207424 0.86493546 0.75646603 0.75308305 0.60476655 0.56555855
00000000: 66c2 3e3f a4de 2c3f b015 133f f2f4 453f
00000010: ac03 453f 4e52 583f 1141 183f 1cd8 6f3f
00000020: 66a4 263f a7fc 463f afa2 513f 0589 323f
00000030: 7f56 423f 9660 0d3f 98d3 823f b99c 253f
00000040: 9069 153f 7a60 213f 0c9d 323f e225 2a3f
00000050: da74 1d3f a42c 253f 108a 3a3f 3863 4a3f
00000060: c846 393f d419 753f a46f 593f 51c5 373f
00000070: 94ec 513f ff12 413f 5f42 393f 4dc8 3e3f
00000080: 31b4 2c3f 26f6 243f 4fcd 213f 5ab0 4d3f
00000090: 0de5 373f 78cf 2e3f 5d6f 163f 605e 553f
000000a0: 6f0f 1d3f f883 3a3f 5e43 3b3f 9c9d 2f3f
000000b0: 95c9 133f cb01 673f 8b6a 453f 3941 4e3f
000000c0: eef0 0b3f 81d4 223f d55a 3d3f 2a3a 313f
000000d0: 5b98 443f 3267 5e3f 83c4 423f 574b 2e3f
000000e0: a228 583f b9bf 643f 0943 0e3f 4850 393f
000000f0: caf5 363f f361 183f 5fae 173f 51ea 373f
00000100: 0cfc 513f b5d0 883f 98df 2a3f 824d 1c3f
00000110: 9237 3d3f 858b 343f 8566 0b3f 50e0 2e3f
00000120: 46d6 323f 5e78 293f 6c29 233f 0bc7 203f
00000130: b2f0 4c3f a380 1f3f 40a1 2d3f 2ac9 523f
00000140: 3785 553f 09fb 663f 1a88 2e3f c991 333f
00000150: 7dd1 423f 5cfe 3c3f 5b8d 3f3f fac5 313f
00000160: 942b 263f 8ad0 413f afe9 443f 2a19 2e3f
00000170: 9890 1e3f a4f8 1d3f 181e 2e3f e8fa 433f
00000180: 9404 263f bf1e 413f d503 3c3f afbc 6c3f
00000190: a6c8 343f 2d66 373f dd7a 403f 9b90 103f
000001a0: 1907 433f 75e2 6d3f 10e4 353f e870 253f
000001b0: c09c 473f fea0 303f c24b 4d3f 78da 233f
000001c0: 82f0 243f 9209 883f 9a9a 633f 71dd 1e3f
000001d0: 133b 1a3f 0b08 493f f03a 153f eea2 3c3f
000001e0: 880e 423f e2e2 213f d309 643f f18f 183f
000001f0: d650 5b3f 9fff 723f 1a7c 183f 53d4 3a3f
00000200: 8df6 4c3f 4102 1c3f 0066 1b3f d852 2c3f
00000210: 4db4 413f fc64 3a3f 4747 6b3f 37c6 7e3f
00000220: 8945 143f a359 333f 2f22 143f 5ecb 4c3f
00000230: c082 383f d1f8 2b3f ab18 423f cea8 613f
00000240: 95a8 313f 1c6a 3b3f a1f1 353f b293 4c3f
00000250: f980 8a3f deb6 443f 0b7a 4f3f c0f1 4a3f
00000260: dcb0 553f fe9f 4b3f 749c 353f a4d4 273f
00000270: 568c 533f c838 1e3f 4771 1d3f 5497 1d3f
00000280: cc22 433f 670b 763f 5d6b 673f 3599 133f
00000290: 66a7 463f fd27 253f f27a 273f 89cf 363f
000002a0: 4d41 243f 8b70 2e3f fa34 253f ac42 643f
000002b0: 3db9 4c3f 8802 4c3f 5de5 403f 2629 223f
000002c0: 4cf1 5d3f b6a3 483f 8288 5b3f bcce 283f
000002d0: d455 753f 100f 653f e86a 4c3f 7ca3 313f
000002e0: db8f 823f f625 203f 1483 4d3f 4677 323f
000002f0: 0157 323f bb28 303f 1090 803f a362 3a3f
00000300: ed9a 613f 7237 213f 3d7c 443f 30e0 303f
00000310: 47de 253f e089 583f 1ed8 6f3f 8696 763f
00000320: cf21 263f b1c3 423f df83 233f 058c 5b3f
00000330: f4ee 243f 5e95 203f 0794 223f 3e5b 1f3f
00000340: 167f 4d3f 0560 1e3f bcec 2c3f 7624 4c3f
00000350: c772 373f 9c7f 463f 9bc8 453f 6763 403f
00000360: 4167 3f3f 2ba3 2d3f 9d69 3a3f f595 313f
00000370: d3a8 243f f949 233f c19f 373f cccd 593f
00000380: fa27 543f f7ae 6b3f 4ed6 453f 276f 543f
00000390: 007e 373f 429c 443f 8e3e 563f 47f0 363f
000003a0: e336 4a3f 867b 1c3f cdab 6b3f 9081 283f
000003b0: 2e2b 4e3f 16e0 4e3f 3b3e 633f 2d53 1b3f
000003c0: dde4 353f e234 3e3f d7fb 513f b05f 2e3f
000003d0: b117 0e3f c2e8 563f 4402 363f f4d0 313f
000003e0: 03b3 473f 8a9e 4c3f 19e4 4f3f 696c 5d3f
000003f0: c2a7 413f 0dca 403f fbd1 1a3f 72c8 103f

norm_input.bias f4 [1280]
0.0010937925 -0.0007637585 0.00012470144 0.0028331343 0.0007919525 -0.0011115842 0.00025315877 -0.00081724656
-0.00017657502 0.003197367 0.004521589 0.0013993434 -0.0010013002 0.0013942606 0.0058394126 -0.0017682295
-3.376273e-06 -0.00024001279 0.0011163623 -0.00049886876 -0.00037745835 0.00087594794 -0.0015570531 0.003707764
0.0042006187 -0.004228635 -0.0012161512 0.00033944158 -0.0017216323 0.0022231874 0.00066358683 0.0013023753
-0.0012855752 -0.00064108893 -1.1003548e-05 -0.0017803283 0.00038775906 -0.0009653098 0.0010435578 -0.0031873514
-0.003453736 -0.0007278017 0.0005941747 0.0016350421 -0.00020722966 -0.0045883227 -0.004250257 0.0018690976
-0.0009863273 0.0016690942 0.0018062289 0.0020472873 0.00012670661 0.00021318591 0.0038286939 -0.0010035534
-0.0040954906 0.0049287644 -0.0005146407 -0.00068850257 0.00023924802 -5.4556265e-05 -0.00057773263 0.00029043556
0.0021318605 0.0025734555 -0.00023303655 -0.0025307848 -0.0005148063 -0.0007589189 0.00036842993 -0.00010505909
-0.0015309568 0.00051403104 0.0009797659 0.0011198731 0.0006878183 0.00022928858 0.0030509015 -0.002221336
-0.00088643626 0.00011456454 0.00024112347 0.00050528726 0.0026873385 -0.0029822772 0.0024600727 -0.00031042797
0.00021506198 -0.0031553556 0.0023061458 -0.00057017023 -0.001271396 -4.050882e-06 -0.0007070696 -0.0015861562
-0.0020256082 -0.0003976361 -0.0018662855 -0.0046565514 0.0006691095 0.00093662314 0.0046777427 0.00047062422
0.0030282093 0.0018208065 0.00017874906 -0.0008611667 -0.00063303916 -0.0004628137 -0.00051449094 0.0022154767
0.0032630623 0.00088285905 0.0036403646 -0.00048688755 -0.00022688314 -0.000996877 -0.00014274791 -0.00295194
0.0012133985 0.00258122 -0.0020817714 -0.0016486155 -0.0015465376 -0.00045108132 0.00041740865 -0.0006190562
0.0010296511 -0.00031963625 0.001253308 0.0024550732 0.0020088698 0.0022134401 0.0005533999 0.002087146
0.00057902077 -0.0018671359 0.0003678164 -0.00021881194 -0.0016822544 0.00083126995 -0.004293748 -0.00046898093
0.00086168776 -0.00066619704 -0.0007000686 0.00044798147 -0.004007595 -0.00054280827 -0.0009740727 -0.0032104654
0.00032427692 0.002104422 -0.0018857736 0.0022479512 -0.0013003835 -0.0010937268 0.00062423316 0.0005150373
-0.0008216817 0.0033128469 5.4390253e-05 0.002928361 -0.0025171754 -0.0011393278 0.00244343 -0.0011912567
0.00066569017 -0.00045747237 -1.3812987e-05 0.0017699905 0.0037748646 0.00070322555 0.00088885566 -0.001258167
-0.0047606067 -0.0005665509 -0.0059262468 -0.00068028306 0.002399411 0.0020089406 -0.0033437433 8.660073e-05
-0.0020635235 -7.889766e-06 -0.0014025475 0.0020933568 0.0018893458 -0.00041334672 -0.0009555068 -0.00085209426
-0.0011001355 -0.0005392237 -0.0037932477 -0.00018450903 -0.0011766877 0.005041115 0.00035665068 3.2335334e-05
0.0003237403 0.0017175038 -0.0010987876 0.00074375543 0.0019422934 -0.00028447446 0.0018193219 0.0018641623
0.004449119 0.00086074823 0.0021036717 0.0011381721 -0.0016861943 0.0015120411 -0.001717495 -0.0015622297
-0.0011023814 0.00128151 0.0012173374 -0.0015445552 0.002941712 -0.00030518053 -0.0008345134 0.0017814018
0.0025737188 0.0028356754 0.0028673343 -0.00061805325 0.0022472625 -0.0004921915 0.00024179347 -0.00014879872
-0.0019163166 -0.00046744393 0.004018357 -0.0025811086 -0.00035514293 0.00033472583 -0.003310841 -0.00015625796
0.00096862356 -0.001562932 0.0044933315 0.0010717944 0.0016170752 -0.0010462094 -0.00023090852 -0.0011143213
-0.0010176819 -0.0054354323 0.0012989634 5.839647e-05 0.0003723728 -0.0021677646 0.00033371785 -0.00033821017
00000000: 965d 8f3a f736 48ba 4ac2 0239 1bac 393b
00000010: 089b 4f3a 94b2 91ba 65ba 8439 7d3c 56ba
00000020: ff26 39b9 eb8a 513b d629 943b 2c6a b73a
00000030: 0f3e 83ba 9fbf b63a 8b58 bf3b f0c3 e7ba
00000040: ee93 62b6 f1ab 7bb9 e752 923a 84c6 02ba
00000050: 9ae5 c5b9 df9f 653a 0816 ccba f5fd 723b
00000060: 58a5 893b 5d90 8abb 4367 9fba 14f7 b139
00000070: 65a8 e1ba e5b2 113b 8ff4 2d3a 77b4 aa3a
00000080: bf80 a8ba c00e 28ba e19b 38b7 e859 e9ba
00000090: 244c cb39 d80c 7dba fdc7 883a e2e2 50bb
000000a0: 1358 62bb f2c9 3eba 64c2 1b3a e94e d63a
000000b0: ca4b 59b9 a459 96bb bd45 8bbb 82fc f43a
000000c0: a747 81ba 82c5 da3a fcbe ec3a c82b 063b
000000d0: 8cdc 0439 a88a 5f39 d3ea 7a3b aa89 83ba
000000e0: 7733 86bb 7981 a13b f4e8 06ba a07c 34ba
000000f0: a7de 7a39 58d3 64b8 fb72 17ba 9a45 9839
00000100: afb6 0b3b 6ba7 283b 465b 74b9 86db 25bb
00000110: 11f4 06ba 2ff2 46ba d429 c139 2b53 dcb8
00000120: 63aa c8ba 0ac0 063a 7d6b 803a b5c8 923a
00000130: b44e 343a 2f6d 7039 a2f1 473b d593 11bb
00000140: bb5f 68ba 5e42 f038 17d6 7c39 4175 043a
00000150: 0f1e 303b 4f72 43bb 2c39 213b f0c0 a2b9
00000160: 4382 6139 15ca 4ebb b522 173b 7a77 15ba
00000170: f8a4 a6ba d0ec 87b6 a35a 39ba 92e6 cfba
00000180: 11c0 04bb d079 d0b9 269e f4ba fc95 98bb
00000190: 2e67 2f3a b787 753a c047 993b 1dbe f639
000001a0: ec74 463b 21a8 ee3a 966e 3b39 ebbf 61ba
000001b0: 8af2 25ba cea5 f2b9 e7de 06ba 8831 113b
000001c0: 1ad9 553b ab6f 673a 2f93 6e3b f144 ffb9
000001d0: 7be7 6db9 a4a9 82ba 9aae 15b9 5675 41bb
000001e0: e60a 9f3a af29 293b 546e 08bb 5b16 d8ba
000001f0: 31b5 caba 1c7f ecb9 a4d7 da39 2948 22ba
00000200: 5cf5 863a da94 a7b9 0a46 a43a 4be5 203b
00000210: 3ea7 033b 5d0f 113b 0a12 113a 80c8 083b
00000220: 6dc9 173a afba f4ba 7bd7 c039 e270 65b9
00000230: 177f dcba 95e9 593a 92b2 8cbb 8ee1 f5b9
00000240: e3e2 613a baa3 2eba cf84 37ba 0edf ea39
00000250: 2552 83bb 3f4b 0eba ea58 7fba ac66 52bb
00000260: b603 aa39 58ea 093b 102c f7ba 5d52 133b
00000270: a171 aaba 625b 8fba 94a3 233a 9103 073a
00000280: 2066 57ba 591c 593b 1721 6438 bfe9 3f3b
00000290: 32f7 24bb 7f55 95ba f421 203b f123 9cba
000002a0: b681 2e3a e7d8 efb9 54be 67b7 07ff e73a
000002b0: b863 773b ab58 383a 1802 693a 14e9 a4ba
000002c0: ddfe 9bbb 9684 14ba f630 c2bb 0655 32ba
000002d0: 703f 1d3b 6ea8 033b b422 5bbb 6a9d b538
000002e0: 2e3c 07bb 495e 04b7 afd5 b7ba b330 093b
000002f0: eda3 f73a 75b6 d8b9 fa7a 7aba 145f 5fba
00000300: 6c32 90ba b15a 0dba 2398 78bb c478 41b9
00000310: 163b 9aba f02f a53b d8fc ba39 cd9f 0738
00000320: b0bb a939 dd1d e13a 3205 90ba 95f8 423a
00000330: 8d94 fe3a 8425 95b9 5076 ee3a e856 f43a
00000340: eac9 913b d6a3 613a c1dd 093b b82e 953a
00000350: 4b03 ddba ae2f c63a 921d e1ba bbc3 ccba
00000360: c87d 90ba 57f8 a73a 118f 9f3a ac72 caba
00000370: bdc9 403b a300 a0b9 3fc3 5aba ed7d e93a
00000380: d6ab 283b bdd6 393b e3e9 3b3b da04 22ba
00000390: cf46 133b 6a06 01ba f189 7d39 da06 1cb9
000003a0: ea2c fbba 4313 f5b9 6cac 833b d127 29bb
000003b0: 7a32 bab9 247e af39 b2fa 58bb 2dd9 23b9
000003c0: 3aeb 7d3a 4cdb ccba cc3c 933b 747b 8c3a
000003d0: 0af4 d33a f620 89ba 0920 72b9 6b0e 92ba
000003e0: bd63 85ba b61b b2bb fb41 aa3a bbee 7438
000003f0: 083b c339 0e11 0ebb daf6 ae39 cd51 b1b9

norm_input.running_mean f4 [1280]
0.6750614 0.2226434 0.63617265 0.11450396 0.16880828 -0.14976157 0.23928623 -0.5163895
-0.37775114 -0.005113678 0.05102559 -0.03577999 0.70834994 -0.016895482 -0.14592008 -0.1990799
-0.2412199 -0.016289389 0.064996175 0.081596464 0.28309286 0.0136918565 0.159411 -0.39910176
0.014044764 0.04384426 -0.07496985 -0.21117204 -0.36089262 -0.31362057 0.036232 0.5309974
-0.66571504 0.36995375 0.210129 -0.28076598 0.19876233 0.30640277 -0.009249661 -0.12555028
-0.2871002 0.491479 -0.1883021 0.06423505 -0.1773285 -0.028517067 0.052116368 -0.30761528
0.3886137 -0.039219346 0.035467092 0.07616383 0.05885744 -0.26495808 -0.032648735 0.066574335
-0.061358195 -0.5212916 -0.3556276 0.06566935 -0.20785505 -0.41905853 -0.49311408 0.65951407
-0.30112594 0.009352261 -0.023281418 0.0527518 -0.23001498 -0.48317543 -0.32045856 -0.33440125
-0.2559705 0.7105756 -0.49767095 0.03915039 -0.046095114 0.024946587 0.21406707 -0.17500804
0.11332702 0.29691368 -0.49705586 -0.015258156 0.75220543 0.42325222 0.181077 0.18783467
0.16837808 0.33733296 0.3167137 0.27665365 -0.22432958 -0.56252956 -0.21303417 -0.3170613
0.046613183 -0.9991161 0.6741825 0.065915816 -0.7883525 -0.45810005 0.2790578 -0.20120597
-0.12801039 -0.14252113 -0.14061216 0.6530138 0.13689545 0.55875117 -0.019745013 -0.14821002
0.100802556 -0.017529365 -0.37830797 -0.31026953 -0.104814336 -0.35224274 0.53648514 0.42178482
-0.072951004 0.25070533 0.11281223 0.079279944 -0.20091917 -0.2027132 0.06908442 -0.04812495
-0.6056493 -0.13431391 -0.5144898 0.3171889 -0.34519553 -0.036150616 0.026997132 -0.65064645
-0.31193262 0.44446054 -0.21887396 -0.07882516 0.19114305 0.10290252 -0.13635097 0.066753514
0.07941642 -0.26224834 -0.31439108 0.16506422 -0.058140527 -0.25508907 -0.012994816 0.08480348
0.4863388 0.23306026 -0.121955186 0.008339105 -0.32734975 -0.2557067 -0.69239855 0.2924845
-0.005130504 0.16236715 0.24446763 -0.63041514 0.38340145 -0.11484679 -0.5057533 0.020935288
-0.10425539 0.040695343 0.29715818 -0.41754213 0.577817 0.3764872 -0.60768765 -0.029081598
0.48033053 0.5289114 0.26414588 -0.62171274 -0.28107557 0.35409194 -0.016284108 -0.17321149
-0.12249653 0.27791673 0.32812962 -0.052358616 -0.6165231 0.072489314 0.2111534 0.22565632
0.39047953 -0.29531884 0.1050504 0.10673286 0.27003786 0.32659104 -0.43137863 -0.83025336
-0.371799 -0.14444526 -0.41196775 0.64715195 0.57591575 -0.09187871 0.08314028 -0.27735966
0.16904303 -0.063788325 0.6330934 -0.14848545 0.39083228 0.47734535 1.1604666 -0.31865367
0.17111972 -0.069189556 0.12555331 0.20598151 -0.21923906 0.081136145 -0.051962327 -0.19502498
0.0068457313 0.65023446 -0.41958633 -0.9154901 0.021442397 -0.3350465 0.061216116 0.52263284
-0.24572827 -0.057174355 -0.19688186 0.064272426 -0.034879554 0.06237117 0.03858467 0.1745742
-0.19365495 -0.1414761 0.044028766 -0.20088768 -0.36796027 0.06425093 0.075386286 -0.23055893
-0.28970838 0.0727773 -0.30653653 0.12853952 0.08031333 -0.073889345 -0.6026248 -0.018501122
00000000: d3d0 2c3f a2fc 633e 36dc 223f 0d81 ea3d
00000010: 14dc 2c3e 195b 19be 7307 753e 1a32 04bf
00000020: 9968 c1be a490 a7bb 3600 513d 0a8e 12bd
00000030: 6c56 353f 6568 8abc 136c 15be 9adb 4bbe
00000040: 5902 77be 5371 85bc b71c 853d 0c1c a73d
00000050: 8cf1 903e cf53 603c a33c 233e 1157 ccbe
00000060: 031c 663c 0a96 333d cb89 99bd 7c3d 58be
00000070: ebc6 b8be e092 a0be 0168 143d 72ef 073f
00000080: 4d6c 2abf 946a bd3e 0e2c 573e 8fc0 8fbe
00000090: 5a88 4b3e d3e0 9c3e e48b 17bc 4190 00be
000000a0: ccfe 92be 23a3 fb3e 44d2 40be aa8d 833d
000000b0: 9a95 35be a09c e9bc f977 553d c07f 9dbe
000000c0: 60f8 c63e 77a4 20bd f145 113d c8fb 9b3d
000000d0: 8014 713d 96a8 87be aeba 05bd 2058 883d
000000e0: bb52 7bbd 5e73 05bf d214 b6be a77d 863d
000000f0: f4d7 54be d78e d6be 7379 fcbe ead5 283f
00000100: 2e2d 9abe 3a3a 193c acb8 bebc 4512 583d
00000110: 0c89 6bbe c562 f7be 2513 a4be a436 abbe
00000120: 910e 83be 48e8 353f bace febe 295c 203d
00000130: 3bce 3cbd c95c cc3c 6634 5b3e 4f35 33be
00000140: ff17 e83d 1205 983e 1b7e febe 58fd 79bc
00000150: 8990 403f 84b4 d83e 406c 393e bb57 403e
00000160: 4e6b 2c3e e8b6 ac3e 4c28 a23e 8ca5 8d3e
00000170: a7b6 65be f001 10bf a125 5abe dc55 a2be
00000180: 77ed 3e3d 13c6 7fbf 3997 2c3f dffe 863d
00000190: 78d1 49bf 178c eabe aae0 8e3e f008 4ebe
000001a0: 2815 03be 0ff1 11be a2fc 0fbe ea2b 273f
000001b0: 522e 0c3e 510a 0f3f 4bc0 a1bc 5ec4 17be
000001c0: 9271 ce3d be99 8fbc 95b1 c1be a6db 9ebe
000001d0: e6a8 d6bd 2959 b4be 1757 093f 2ef4 d73e
000001e0: 5667 95bd 735c 803e 190a e73d 865d a23d
000001f0: c1bd 4dbe 0d94 4fbe 227c 8d3d ab1e 45bd
00000200: d50b 1bbf 9689 09be 9bb5 03bf 9566 a23e
00000210: 78bd b0be ab12 14bd 1729 dd3c c490 26bf
00000220: a2b5 9fbe 5590 e33e 7f20 60be 166f a1bd
00000230: 01bb 433e 8ebe d23d 979f 0bbe 11b6 883d
00000240: 13a5 a23d 6a45 86be def7 a0be 9806 293e
00000250: c324 6ebd 099b 82be 35e8 54bc 72ad ad3d
00000260: 6601 f93e 59a7 6e3e a4c3 f9bd bea0 083c
00000270: 639a a7be fdeb 82be 0841 31bf 87c0 953e
00000280: c91d a8bb 9343 263e b955 7a3e e362 21bf
00000290: 324d c43e cb34 ebbd 0c79 01bf 7b80 ab3c
000002a0: da83 d5bd 29b0 263d 1e25 983e 15c8 d5be
000002b0: d1eb 133f eec2 c03e 6b91 1bbf 883c eebc
000002c0: e2ed f53e bd66 073f 213e 873e 9128 1fbf
000002d0: 23e9 8fbe 8a4b b53e 4066 85bc 5a5e 31be
000002e0: 76df fabd 1a4b 8e3e 9b00 a83e fd75 56bd
000002f0: 75d4 1dbf 4775 943d 9938 583e 7312 673e
00000300: efec c73e 0834 97be aa24 d73d c296 da3d
00000310: 6742 8a3e f136 a73e a9dd dcbe 7c8b 54bf
00000320: 705c bebe 75e9 13be 70ed d2be c0ab 253f
00000330: 376f 133f e82a bcbd 7345 aa3d 1602 8ebe
00000340: 9e19 2d3e 74a3 82bd 6912 223f 920c 18be
00000350: 2b1b c83e 9c66 f43e 2b8a 943f 9326 a3be
00000360: 023a 2f3e 41b3 8dbd 0c91 003e d1ec 523e
00000370: 3480 60be b52a a63d 73d6 54bd a1b4 47be
00000380: 2852 e03b c475 263f 05d4 d6be 8f5d 6abf
00000390: f7a7 af3c 378b abbe c0bd 7a3d 44cb 053f
000003a0: 31a0 7bbe a82f 6abd 669b 49be 43a1 833d
000003b0: dddd 0ebd e978 7f3d f50a 1e3d 94c3 323e
000003c0: 7c4d 46be 1cdf 10be 8257 343d 80b5 4dbe
000003d0: 4a65 bcbe fe95 833d 2064 9a3d a417 6cbe
000003e0: a854 94be 440c 953d 5bf2 9cbe dd9f 033e
000003f0: 517b a43d 4c53 97bd 9e45 1abf aa8f 97bc

norm_input.running_var f4 [1280]
1.7398605 2.0930955 1.858059 2.0811064 2.2216926 2.3458257 1.9655266 2.1617744
2.09929 2.4305656 1.6164887 1.4827223 1.8394884 1.9213511 1.4126673 2.4586337
1.5715778 2.2475286 2.0275323 1.8736298 2.0870945 1.9477822 1.8401299 2.0152087
1.5748954 2.613936 2.1550968 1.7892635 1.7566988 1.6056674 2.018229 1.900058
4.244747 1.9386448 2.233758 1.5477062 1.5878768 2.1198988 1.5702363 2.255869
1.9721334 1.9055237 2.371068 1.8453228 23.559975 1.6833527 1.9546286 2.0173483
1.6815763 2.018472 1.9207685 2.2339022 2.0498626 1.761735 1.5320505 2.350005
2.0433664 2.3035288 2.16487 1.8726351 2.9447753 1.8819585 1.941864 1.7804482
1.4316622 2.0895963 1.8108459 2.23516 1.4935298 1.7902036 3.087108 4.417185
1.5484675 2.0767684 1.9049622 2.8073497 2.0585136 2.0035052 1.8113544 2.3948178
1.8843809 2.2357807 2.9854195 1.918163 1.7230533 1.5937513 1.8303591 2.5315895
1.6720408 1.6612618 2.0799825 2.107722 1.8615135 3.8932755 1.7002755 1.7892467
1.9415058 1.9100132 1.7694203 1.8284905 2.3813338 2.4001272 1.5153954 2.6813426
1.7185458 1.8873738 1.9583826 2.9171784 3.0334032 2.2691212 1.555186 1.5071722
1.8416698 1.8578819 2.076767 3.1609232 2.0073392 1.9016656 2.1171849 1.9053425
1.861649 1.9217656 2.0587802 2.173409 1.6422291 1.5691688 1.6460158 1.867039
2.0791435 1.6692215 3.1781757 2.2619326 1.8747369 1.5508143 1.6451114 1.953086
1.7602905 1.7747613 1.6627204 1.8388909 1.7387298 1.6778327 2.277024 2.1666534
1.8268714 1.5382417 1.725532 1.9081808 1.8891716 1.7153054 1.5288918 1.5202811
1.7150075 1.8904529 1.8874576 1.7054616 1.889524 1.8104652 2.0403507 1.9001971
2.1330972 1.6898518 1.6262002 1.8254511 1.9622017 1.6319393 1.9053866 1.7622004
1.893474 1.7516066 1.6725656 2.4610574 2.1168962 1.9715111 1.9455192 3.7667189
1.6821697 1.7666281 1.7418569 1.871388 1.7206697 2.5313635 1.6762961 1.6543946
1.5637217 1.7111056 2.1146996 1.9222939 2.0238144 2.6725063 1.8142942 1.4332515
1.8253218 1.9892157 1.698131 1.6870571 1.5751296 2.1576905 1.8760818 2.1088994
2.0783548 1.6941725 2.0256588 1.679276 1.6940987 1.5252237 2.6078374 2.1472716
1.6701485 1.6187097 1.8019642 1.6389328 2.3997555 1.7990435 2.9818642 1.5138541
2.313571 1.7588457 1.5010383 2.0507333 2.191364 1.5935475 1.4960237 1.6938487
1.601536 2.0685403 1.926399 1.6070765 1.7119218 2.0474002 2.2080674 1.6501374
1.4642178 2.0641675 1.7377713 1.7281913 1.5078298 1.6423485 1.7317685 1.4655898
1.9097478 1.9107863 1.7362058 2.270468 2.1146502 1.8871155 2.1371493 1.8658038
2.6671333 2.3423357 1.8900644 1.7315382 2.944952 2.0744882 2.0653088 1.6457536
00000000: c0b3 de3f 47f5 0540 e1d4 ed3f d930 0540
00000010: 3630 0e40 0222 1640 6096 fb3f 835a 0a40
00000020: c45a 0640 638e 1b40 1ae9 ce3f d8c9 bd3f
00000030: 5b74 eb3f d5ee f53f 48d2 b43f 415a 1d40
00000040: 7629 c93f 82d7 0f40 17c3 0140 1ad3 ef3f
00000050: f592 0540 ed50 f93f 6089 eb3f 2ef9 0040
00000060: 2c96 c93f ba4a 2740 1bed 0940 9606 e53f
00000070: 82db e03f 8286 cd3f aa2a 0140 1a35 f33f
00000080: f8d4 8740 8325 f83f e4f5 0e40 3d1b c63f
00000090: 8c3f cb3f 6cac 0740 81fd c83f 2860 1040
000000a0: de6e fc3f 33e8 f33f 94bf 1740 8a33 ec3f
000000b0: d47a bc41 1a78 d73f 4531 fa3f 3c1c 0140
000000c0: e43d d73f a52e 0140 bedb f53f 41f8 0e40
000000d0: f330 0340 8880 e13f 3b1a c43f 7b66 1640
000000e0: 84c6 0240 046d 1340 3b8d 0a40 82b2 ef3f
000000f0: 3377 3c40 04e4 f03f 008f f83f bae5 e33f
00000100: b540 b73f f2bb 0540 ccc9 e73f dd0c 0f40
00000110: fc2b bf3f 6425 e53f 2d93 4540 9459 8d40
00000120: 2f34 c63f c6e9 0440 cdd5 f33f 9eab 3340
00000130: b0be 0340 6e39 0040 76da e73f b244 1940
00000140: 6533 f13f 0817 0f40 1d11 3f40 5d86 f53f
00000150: 038d dc3f 0b00 cc3f 3549 ea3f 9005 2240
00000160: 6f05 d63f 3aa4 d43f 6f1e 0540 ebe4 0640
00000170: 1346 ee3f 6d2b 7940 a1a2 d93f 0906 e53f
00000180: 4383 f83f 507b f43f 5d7c e23f fa0b ea3f
00000190: c667 1840 af9b 1940 7af8 c13f 1e9b 2b40
000001a0: 4ff9 db3f 7795 f13f 48ac fa3f 0db3 3a40
000001b0: 4723 4240 4839 1140 5610 c73f 05eb c03f
000001c0: d6bb eb3f 13cf ed3f c0e9 0440 914c 4a40
000001d0: 3f78 0040 c769 f33f f57f 0740 43e2 f33f
000001e0: 844a ee3f 6afc f53f 0ec3 0340 2219 0b40
000001f0: 9034 d23f 86da c83f a5b0 d23f 22fb ee3f
00000200: b010 0540 0da9 d53f 3b67 4b40 81c3 1040
00000210: 61f7 ef3f 1581 c63f 0393 d23f b9fe f93f
00000220: 3351 e13f 612b e33f 06d4 d43f c760 eb3f
00000230: b38e de3f 39c3 d63f c3ba 1140 73aa 0a40
00000240: ecd6 e93f 1be5 c43f 3cde dc3f 453f f43f
00000250: 60d0 f13f 218f db3f bab2 c33f 9298 c23f
00000260: 5e85 db3f 5cfa f13f 3698 f13f 914c da3f
00000270: ecdb f13f 53bd e73f 1b95 0240 a939 f33f
00000280: aa84 0840 104d d83f 5427 d03f 62a8 e93f
00000290: 6d29 fb3f 63e3 d03f b5e3 f33f c88f e13f
000002a0: 5b5d f23f a534 e03f a116 d63f f781 1d40
000002b0: 3a7b 0740 7a5a fc3f c606 f93f ec11 7140
000002c0: 5651 d73f df20 e23f 2bf5 de3f a489 ef3f
000002d0: e83e dc3f dc01 2240 df90 d63f 34c3 d33f
000002e0: 0828 c83f 8205 db3f 3d57 0740 ba0d f63f
000002f0: 2d86 0140 580a 2b40 cb3a e83f c974 b73f
00000300: 25a4 e93f 9f9e fe3f 5b5c d93f 7df1 d73f
00000310: d99d c93f 9a17 0a40 7323 f03f 35f8 0640
00000320: c403 0540 a5da d83f 65a4 0140 84f2 d63f
00000330: 3ad8 d83f 883a c33f cfe6 2640 e66c 0940
00000340: 6dc7 d53f e131 cf3f c3a6 e63f 8dc8 d13f
00000350: 9895 1940 0f47 e63f ddd6 3e40 f9c5 c13f
00000360: 8c11 1440 db21 e13f 0622 c03f 373f 0340
00000370: 4f3f 0c40 5df9 cb3f b47d bf3f 09d0 d83f
00000380: 22ff cc3f f762 0440 3e94 f63f afb4 cd3f
00000390: 4120 db3f 9b08 0340 fa50 0d40 b437 d33f
000003a0: 7d6b bb3f 521b 0440 4a6f de3f 5f35 dd3f
000003b0: 9100 c13f 7a38 d23f 97aa dd3f 7298 bb3f
000003c0: 9e72 f43f a594 f43f fe3b de3f 594f 1140
000003d0: 6e56 0740 008d f13f 0ec7 0840 a9d2 ee3f
000003e0: 50b2 2a40 d4e8 1540 a1ed f13f 0ba3 dd3f
000003f0: 187a 3c40 6ac4 0440 052e 0440 0ea8 d23f

transformer.norm.weight f4 [1280]
0.6260998 0.47969866 -0.051860318 0.8504266 0.7902003 0.9579741 0.33113328 1.1344683
0.38744164 0.8121114 0.946874 0.63204753 0.8250284 0.39908472 1.2709846 0.5078826
0.3703849 0.6336121 0.68478006 0.5097984 0.4718689 0.5574652 0.7694542 0.880865
0.77043563 1.272579 1.0443368 0.68526447 0.968761 0.887346 0.68109894 0.73420364
0.6800639 0.5021581 0.5613736 0.8873029 0.8463321 0.67876565 0.34645808 0.96364486
0.59143096 0.778256 0.7474954 0.6766028 0.1719206 1.1463281 0.84485644 0.96524227
0.25912192 0.51890725 0.80459636 0.6481905 0.83749306 1.0760787 0.8636892 0.6502505
0.9812376 1.1053599 0.3729232 0.74132764 0.7533052 0.13208023 0.32514212 0.7255968
0.8009633 1.3972998 0.40066722 0.539922 0.6054002 0.74560964 0.2225951 0.5006377
0.67734087 0.4901015 0.520905 0.5600343 0.8769131 0.44014284 0.5880874 0.97587335
1.0624181 1.0871984 0.33193347 0.6940806 0.83515084 0.75927806 0.7968905 0.5740632
0.47702748 0.853091 0.74033684 0.61114144 0.44547608 0.37275496 0.6247653 0.75485724
0.546509 0.83360744 0.63929117 1.1972381 0.558735 0.8173493 0.8527932 0.24651846
0.77756476 1.207076 0.5872978 0.49801505 0.7661775 0.677237 0.9300331 0.5433557
0.51047873 1.4644064 1.0781853 0.2734864 0.38859385 0.8986811 0.18605821 0.7660084
0.75814444 0.56585574 1.0456184 0.42032748 1.0124844 1.1565706 -0.009758327 0.75467306
0.97009027 0.35689816 0.47502026 0.5566273 0.82532454 0.74145526 1.0987551 1.2609533
0.4180977 0.52087027 0.35556895 0.84408796 0.73963386 0.48759875 0.80106986 1.0197148
0.6101165 0.8267941 0.6100174 0.87280834 1.5249252 0.8649942 0.96665406 0.8529191
0.8863813 0.81419986 0.4219382 0.65893567 0.78407884 0.3756342 0.4569174 0.25035533
0.763702 1.2331384 1.0473849 0.5481115 0.8350672 0.5812635 0.70367706 0.7132542
0.29417518 0.5446754 0.47769666 1.0810584 0.8608941 0.8788317 0.8199881 0.51290166
1.0661393 0.83173525 1.0355614 0.39942884 1.1166487 1.0618815 0.8883436 0.52657837
1.3251284 0.27088866 0.88336444 0.6201182 0.7003694 0.624775 1.32111 0.76410604
1.0683511 0.53130317 0.8647302 0.5186366 0.7119877 0.9821422 1.1446476 1.1724591
0.40781376 0.79488105 0.42506242 1.0478176 0.5954499 0.28767037 0.4876461 0.4982934
0.9392793 0.4776179 0.57983947 0.8120402 0.6721135 0.83642703 0.7952103 0.73602057
0.6546765 0.6066891 0.6249434 0.6633432 0.49027646 0.3883118 0.7467517 0.9245978
1.0054992 1.1363608 0.9206362 0.96372366 0.6267888 0.7944123 0.99337274 0.6746613
0.8666139 0.47126472 1.1528059 0.56203294 0.9622169 0.95091474 1.0440953 0.4704095
0.6395047 0.76148087 0.9316713 0.6256033 0.2981542 0.98831314 0.77284396 0.6624235
0.8238508 0.81624717 0.8506019 1.07017 0.7607776 0.81316656 0.38593757 0.2940581
00000000: 1448 203f 109b f53e 7c6b 54bd 8fb5 593f
00000010: 914a 4a3f ca3d 753f 4d8a a93e 4236 913f
00000020: c05e c63e 88e6 4f3f 5666 723f decd 213f
00000030: 1035 533f d554 cc3e a0af a23f 9804 023f
00000040: 17a3 bd3e 6734 223f bf4d 2f3f 2682 023f
00000050: cd98 f13e 0ab6 0e3f f3fa 443f 5e80 613f
00000060: 453b 453f dee3 a23f d4ac 853f 7e6d 2f3f
00000070: b900 783f 1c29 633f 805c 2e3f c5f4 3b3f
00000080: ab18 2e3f 6f8d 003f 2eb6 0f3f 4826 633f
00000090: 38a9 583f 96c3 2d3f f462 b13e 6eb1 763f
000000a0: 0568 173f c93b 473f dc5b 3f3f d735 2d3f
000000b0: f40b 303e e1ba 923f 8348 583f 1e1a 773f
000000c0: a1ab 843e 1bd7 043f 07fa 4d3f d0ef 253f
000000d0: f265 563f f2bc 893f bc1a 5d3f d176 263f
000000e0: 6332 7b3f 6f7c 8d3f caef be3e a6c7 3d3f
000000f0: 9cd8 403f 0a40 073e 0779 a63e b6c0 393f
00000100: ee0b 4d3f b8da b23f 4124 cd3e 5438 0a3f
00000110: 82fb 1a3f 46e0 3e3f f8ef 633e cb29 003f
00000120: 3666 2d3f 95ee fa3e 085a 053f 685e 0f3f
00000130: 607d 603f 675a e13e e58c 163f d6d2 793f
00000140: 51fd 873f 5129 8b3f 2ff3 a93e 44af 313f
00000150: 72cc 553f 0c60 423f 0401 4c3f cef5 123f
00000160: f23c f43e 2c64 5a3f b786 3d3f c473 1c3f
00000170: 7115 e43e bdd9 be3e 9ef0 1f3f 533e 413f
00000180: 04e8 0b3f 4c67 553f 96a8 233f 193f 993f
00000190: 4209 0f3f ce3d 513f a850 5a3f 566f 7c3e
000001a0: 7c0e 473f 7781 9a3f 2659 163f d4fb fe3e
000001b0: 3524 443f 675f 2d3f a616 6e3f 5c19 0b3f
000001c0: bcae 023f ab71 bb3f fa01 8a3f 6906 8c3e
000001d0: c6f5 c63e f70f 663f 0b86 3e3e 2019 443f
000001e0: c115 423f ecdb 103f d3d6 853f 2a35 d73e
000001f0: 1799 813f 810a 943f 64e1 1fbc 4132 413f
00000200: d657 783f 5bbb b63e db35 f33e 207f 0e3f
00000210: 7848 533f 03d0 3d3f 02a4 8c3f eb66 a13f
00000220: e710 d63e c157 053f 220d b63e 2616 583f
00000230: a558 3d3f 8ba6 f93e ea12 4d3f 0486 823f
00000240: 9830 1c3f c7a8 533f 1a2a 1c3f 5e70 5f3f
00000250: c030 c33f 4370 5d3f a476 773f e858 5a3f
00000260: e3e9 623f 676f 503f 4908 d83e 02b0 283f
00000270: 64b9 483f 2053 c03e 14f1 e93e 932e 803e
00000280: f981 433f 7bd7 9d3f b510 863f 0951 0c3f
00000290: f7c6 553f afcd 143f 2e24 343f d497 363f
000002a0: 219e 963e d96f 0b3f a894 f43e 1f60 8a3f
000002b0: 8e63 5c3f 1dfb 603f bdea 513f 864d 033f
000002c0: 4177 883f 9aec 543f 478d 843f f081 cc3e
000002d0: 58ee 8e3f bceb 873f 7c6a 633f d7cd 063f
000002e0: cf9d a93f ebb1 8a3e 2c24 623f 11c0 1e3f
000002f0: 694b 333f 41f1 1f3f 221a a93f 749c 433f
00000300: bbbf 883f 7c03 083f f55e 5d3f 5ec5 043f
00000310: d344 363f ac6d 7b3f d083 923f 2413 963f
00000320: f7cc d03e 537d 4b3f c8a1 d93e e31e 863f
00000330: 686f 183f 8849 933e c0ac f93e 5020 ff3e
00000340: 9c74 703f 558a f43e 5c70 143f dee1 4f3f
00000350: a10f 2c3f 1520 563f e792 4b3f d86b 3c3f
00000360: e198 273f fa4f 1b3f 4afc 1f3f dcd0 293f
00000370: 8405 fb3e ced0 c63e 1f2b 3f3f 71b2 6c3f
00000380: 33b4 803f 4574 913f d0ae 6b3f 98b6 763f
00000390: 3b75 203f 9b5e 4b3f ad4d 7e3f 9ab6 2c3f
000003a0: 69da 5d3f 9c49 f13e 258f 933f 64e1 0f3f
000003b0: d953 763f 266f 733f eaa4 853f 84d9 f03e
000003c0: 94b6 233f 69f0 423f 0382 6e3f 8a27 203f
000003d0: aba7 983e 1702 7d3f 1ad9 453f 9694 293f
000003e0: e3e7 523f 93f5 503f 0cc1 593f 55fb 883f
000003f0: 52c2 423f af2b 503f 9c99 c53e c98e 963e

transformer.norm.bias f4 [1280]
0.012418485 0.01554431 0.016857356 0.09852847 -0.072418295 -0.0015300347 0.12990832 0.009663882
-0.057071626 -0.117877126 -0.080728546 -0.041932352 0.019098775 0.09353016 0.0029951222 -0.046219155
0.031160003 -0.19997066 0.025851455 0.055441216 -0.106273726 -0.0008396844 0.21569273 -0.11534245
0.14481375 -0.016133385 0.020210447 0.10840896 0.31302068 -0.05990457 -0.05757607 -0.17214681
0.025659492 0.15111181 -0.14005318 0.0864891 0.008834156 0.009535541 -0.017101182 0.112936825
0.0495556 0.0463093 0.0763516 0.040424652 0.02386895 0.11175781 -0.118901744 -0.10137317
0.010019903 -0.16165379 0.12032295 0.022102414 -0.15421861 0.07824612 0.07039471 0.061032936
0.06546589 0.048724785 -0.1706332 0.1101161 0.23274377 0.029450463 -0.015170461 0.061226808
-0.03388038 -0.120101124 -0.08445456 0.15594304 -0.03670878 -0.022052055 -0.009503267 -0.09264473
0.12234917 0.028020032 -0.054945488 -0.076548144 0.06591145 -0.08362229 0.16322212 0.0046729515
-0.11230363 -0.01783345 0.11312939 -0.11766154 -0.15274791 -0.15894455 0.11567003 -0.07559088
-0.1160648 -0.094505414 -0.16730621 -0.21954945 0.06916218 -0.013106411 -0.12669718 0.04871255
-0.102905154 -0.006897731 0.23251934 0.0032688987 0.25158247 -0.16547902 -0.023223966 0.0023900445
0.048964802 0.11970083 -0.050276108 0.03227771 0.071981 -0.0048609204 -0.1958395 0.030646387
0.101757415 0.013600602 -0.011049766 -0.043443725 0.15661243 0.17992312 -0.059431706 0.010127329
0.1817474 -0.14503466 0.24969736 0.05376829 -0.0102948 -0.112657465 -0.068005085 0.04857117
-0.0887094 0.016009292 0.10088493 -0.096736364 -0.035105407 -0.08136509 0.0080928225 0.09180185
0.005696158 0.09653254 -0.064352825 -0.00835026 -0.19010945 -0.16184044 0.12305553 -0.19375597
0.10620329 -0.07175641 0.107355736 -0.14740308 0.011820124 -0.097726375 -0.11545841 0.20871006
-0.25057834 -0.096510015 -0.15979572 -0.12431465 0.022509191 0.0014685733 -0.022647442 0.064982295
0.046347085 -0.18935725 -0.13966145 0.100570664 0.124722406 0.013208422 -0.045157984 -0.095211044
0.12756243 -0.10032011 -0.1689864 -0.05396559 0.086019166 0.0862109 0.07401775 0.1416962
-0.022176752 0.04133763 0.11972999 0.06649336 -0.03536334 0.058174435 0.08663758 -0.13350098
-0.02300886 0.1284084 -0.06868995 0.023664394 0.049644 -0.060246106 -0.055109713 0.09087234
-0.089078635 -0.026580717 -0.06710064 0.07385367 -0.04145734 0.098042324 0.08740993 0.08302377
-0.20578764 0.04193043 0.17200659 -0.038292523 0.11051506 0.105784945 0.059255335 0.059603345
0.08722001 -0.026515258 -0.038387768 -0.068348646 0.04786753 -0.01118364 -0.1127029 -0.036627144
-0.04395253 -0.081125 -0.10895848 0.16158718 -0.11398501 0.031326167 0.15074657 0.14039218
0.06443862 0.01513216 -0.10043298 0.016083589 -0.17550553 0.05256827 -0.19435649 0.046752084
0.099485666 0.07525008 0.04456621 0.038622536 -0.11519998 0.122675836 0.011546558 0.056897644
-0.06504881 -0.18149151 -0.052904528 0.17603572 0.07866804 0.1085464 0.058871824 0.032439847
0.014426237 -0.021164931 -0.2204792 0.08771635 0.05935398 -0.04924624 0.13463713 -0.0860591
00000000: e776 4b3c 90ad 7e3c 7018 8a3c 4bc9 c93d
00000010: 0b50 94bd 728b c8ba b006 053e 4255 1e3c
00000020: f0c3 69bd 9069 f1bd 0255 a5bd 42c1 2bbd
00000030: 0975 9c3c be8c bf3d d049 443b 4c50 3dbd
00000040: 4343 ff3c 1cc5 4cbe 6ec6 d33c 5416 633d
00000050: 0aa6 d9bd 441e 5cba 8ede 5c3e aa38 ecbd
00000060: 0e4a 143e 292a 84bc 6190 a53c 8405 de3d
00000070: 3f44 a03e 7f5e 75bd e3d4 6bbd 4147 30be
00000080: db33 d23c 0ebd 1a3e 1a6a 0fbe 3221 b13d
00000090: 23bd 103c f53a 1c3c c717 8cbc 6c4b e73d
000000a0: d0fa 4a3d d2ae 3d3d 3a5e 9c3d 5294 253d
000000b0: d188 c33c 47e1 e43d c282 f3bd bd9c cfbd
000000c0: 852a 243c 9288 25be e16b f63d 1f10 b53c
000000d0: 7ceb 1dbe 803f a03d 1a2b 903d acfd 793d
000000e0: fb12 863d a493 473d 78ba 2ebe 8d84 e13d
000000f0: 6254 6e3e 1942 f13c 868d 78bc f6c8 7a3d
00000100: 27c6 0abd 94f7 f5bd 83f6 acbd 88af 1f3e
00000110: f25b 16bd 83a6 b4bc 97b3 1bbc 85bc bdbd
00000120: 3492 fa3d 448a e53c 850e 61bd 46c5 9cbd
00000130: 95fc 863d 2a42 abbd b323 273e 8f1f 993b
00000140: 72ff e5bd 7517 92bc 62b0 e73d 89f8 f0bd
00000150: f369 1cbe 5cc2 22be 69e4 ec3d 64cf 9abd
00000160: 62b3 edbd 0e8c c1bd 5252 2bbe 92d1 60be
00000170: e7a4 8d3d 46bc 56bc e8bc 01be d086 473d
00000180: f0bf d2bd 5d06 e2bb 8d19 6e3e 053b 563b
00000190: 6bcf 803e 5573 29be 3040 bebc 4ba2 1c3b
000001a0: 518f 483d b525 f53d 52ee 4dbd a235 043d
000001b0: c66a 933d 5b48 9fbb 268a 48be 220e fb3c
000001c0: 3166 d03d 0fd5 5e3c 140a 35bc 0cf2 31bd
000001d0: 025f 203e c43d 383e a96e 73bd 19ed 253c
000001e0: fe1b 3a3e f783 14be aab0 7f3e 233c 5c3d
000001f0: 85ab 28bc f5b8 e6bd 4046 8bbd 90f2 463d
00000200: 46ad b5bd eb25 833c c29c ce3d b71d c6bd
00000210: b0ca 0fbd bea2 a6bd c297 043c 9c02 bc3d
00000220: d6a6 ba3b dab2 c53d 6acb 83bd 87cf 08bc
00000230: 0dac 42be 80b9 25be 8a04 fc3d f767 46be
00000240: 1c81 d93d 06f5 92bd 53dd db3d d5f0 16be
00000250: 32a9 413c c424 c8bd 7575 ecbd 17b8 553e
00000260: ce4b 80be 0ba7 c5bd 7da1 23be ae98 febd
00000270: 3265 b83c 257d c03a 2187 b9bc 7015 853d
00000280: 71d6 3d3d dee6 41be 6903 0fbe fef7 cd3d
00000290: 766e ff3d 2368 583c 94f7 38bd 02fe c2bd
000002a0: ba9f 023e a174 cdbd c50a 2dbe 060b 5dbd
000002b0: d12a b03d 578f b03d 9e96 973d cf18 113e
000002c0: 05ac b5bc a651 293d ff34 f53d ac2d 883d
000002d0: 26d9 10bd 5148 6e3d 0b6f b13d 7bb4 08be
000002e0: 147d bcbc 7e7d 033e 51ad 8cbd d5db c13c
000002f0: 8257 4b3d 9fc4 76bd b9ba 61bd 471b ba3d
00000300: dc6e b6bd cebf d9bc 0f6c 89bd 9840 973d
00000310: 2ccf 29bd 6aca c83d fa03 b33d 5e08 aa3d
00000320: ffb9 52be 3ebf 2b3d 7f22 303e 9fd8 1cbd
00000330: b855 e23d c7a5 d83d b9b5 723d a322 743d
00000340: 68a0 b23d 8736 d9bc 7e3c 1dbd 60fa 8bbd
00000350: be10 443d 963b 37bc c7d0 e6bd 5806 16bd
00000360: 9107 34bd dd24 a6bd a025 dfbd 1c77 253e
00000370: f970 e9bd de4f 003d 4f5d 1a3e f8c2 0f3e
00000380: 65f8 833d e1ec 773c ceaf cdbd bbc1 833c
00000390: b9b7 33be d451 573d 6305 47be 1d7f 3f3d
000003a0: 24bf cb3d b71c 9a3d 0f8b 363d aa32 1e3d
000003b0: f8ed ebbd 783d fb3d c62d 3d3c 810d 693d
000003c0: 4f38 85bd e9d8 39be 6bb2 58bd b542 343e
000003d0: b61c a13d 934d de3d 9523 713d a5df 043d
000003e0: 065c 6c3c 1462 adbc 4dc5 61be a1a4 b33d
000003f0: 291d 733d 6db6 49bd 51de 093e c13f b0bd

transformer.norm.running_mean f4 [1280]
0.0010987597 -0.00076666626 0.00012491072 0.0028271754 0.0007825738 -0.0011019391 0.00025334483 -0.0008228754
-0.00017664833 0.0032030041 0.0045242975 0.0014002433 -0.0010028098 0.001394006 0.0058475356 -0.0017722375
-6.06876e-07 -0.00023895052 0.0011227118 -0.00049770274 -0.00037434834 0.00087807985 -0.0015594853 0.0037133046
0.0041925428 -0.004233934 -0.0012196281 0.00034162172 -0.0017099457 0.0022248784 0.0006643515 0.0013004057
-0.0012893162 -0.000639365 -7.775021e-06 -0.0017797905 0.00039041712 -0.0009637238 0.001040497 -0.003177933
-0.0034484705 -0.000724797 0.0005928168 0.001639719 -0.00020766993 -0.0045963954 -0.004254748 0.0018714113
-0.0009875396 0.0016672636 0.0018133281 0.0020461224 0.00011573213 0.00022569617 0.003828668 -0.0010027814
-0.004091197 0.004924823 -0.0005155441 -0.0006868607 0.00023845753 -5.4852353e-05 -0.0005780351 0.0002883362
0.0021223347 0.0025904647 -0.00023473566 -0.0025268313 -0.00052447163 -0.00075779017 0.00036779302 -0.00010644862
-0.0015363944 0.0005153182 0.0009843262 0.0011217928 0.00068828376 0.00023243859 0.0030494796 -0.0022179177
-0.0008814131 0.00012088991 0.00024273743 0.00050467125 0.0026928612 -0.0029889718 0.0024532527 -0.00031059363
0.00020828293 -0.0031496047 0.0023078616 -0.00056815374 -0.0012733567 -3.277216e-06 -0.0007074088 -0.0015874606
-0.0020255065 -0.00040431338 -0.0018632158 -0.0046517607 0.00066971546 0.0009326586 0.0046763895 0.0004727499
0.0030165114 0.001815745 0.000179347 -0.0008546264 -0.00063812535 -0.00047032032 -0.0005165205 0.002210711
0.0032639576 0.0008882459 0.0036425267 -0.00048559255 -0.0002272697 -0.0010054399 -0.00014238457 -0.002957666
0.001210291 0.00258462 -0.0020702628 -0.0016524298 -0.0015526048 -0.00046129915 0.00041742905 -0.0006170396
0.0010454789 -0.00031998032 0.0012571663 0.002455824 0.0020124123 0.00221856 0.0005450065 0.0021041033
0.00057745125 -0.0018683278 0.00036586102 -0.00021596938 -0.0016844574 0.00082843634 -0.004293765 -0.00047469643
0.000869659 -0.00065645797 -0.00070273003 0.00045037875 -0.0040258267 -0.00053894223 -0.0009750416 -0.0032106366
0.00031956253 0.0021028067 -0.0018877453 0.0022448567 -0.0013016295 -0.0010916932 0.00062733947 0.00051372754
-0.0008120287 0.003297241 4.83345e-05 0.0029307103 -0.0025125027 -0.0011374454 0.0024419029 -0.0011910802
0.00066486996 -0.00045741868 -9.483688e-06 0.001768544 0.0037709868 0.00070477714 0.00087714515 -0.0012604985
-0.0047626807 -0.00056562707 -0.0059355344 -0.0006785922 0.002403355 0.0019987524 -0.0033519948 8.712039e-05
-0.0020832492 -1.1294617e-05 -0.0013977333 0.002093916 0.0018896409 -0.0004142245 -0.00093689724 -0.000846046
-0.0010948565 -0.00053925987 -0.0037900414 -0.0001853273 -0.0011761502 0.005036778 0.0003597173 2.4039531e-05
0.00032369388 0.0017043817 -0.0010941267 0.00073775416 0.0019429199 -0.00028437414 0.0018196163 0.0018624155
0.0044477615 0.0008572456 0.0021060572 0.0011385878 -0.0016912777 0.0015084445 -0.0017108442 -0.001563351
-0.001107248 0.0012862378 0.0012157959 -0.0015355733 0.0029424357 -0.00030708377 -0.0008428709 0.001778851
0.0025625194 0.0028208755 0.0028645454 -0.0006093397 0.002242839 -0.0004917352 0.00024625816 -0.00014852385
-0.0019161155 -0.0004663963 0.0040256097 -0.0025776841 -0.00035320807 0.0003323185 -0.0032982125 -0.00015956089
0.00096908974 -0.0015725656 0.0044968124 0.0010722891 0.0016172512 -0.0010334576 -0.00022395965 -0.001113851
-0.0010045235 -0.0054417504 0.001302121 3.7983795e-05 0.0003744661 -0.0021701693 0.00033506434 -0.0003404501
00000000: 4204 903a 1afa 48ba 77fa 0239 2248 393b
00000010: a425 4d3a f16e 90ba 5ed3 8439 3cb6 57ba
00000020: ad3a 39b9 7ee9 513b 8f40 943b 5e88 b73a
00000030: b770 83ba 14b7 b63a af9c bf3b 6c4a e8ba
00000040: 33e8 22b5 cb8e 7ab9 f527 933a 4478 02ba
00000050: 2f44 c4b9 f12e 663a a567 ccba ea5a 733b
00000060: 9961 893b d0bc 8abb eedb 9fba b11b b339
00000070: 4220 e0ba 44cf 113b e027 2e3a 6072 aa3a
00000080: 46fe a8ba 0f9b 27ba 7671 02b7 dc47 e9ba
00000090: e6b0 cc39 69a2 7cba 4961 883a de44 50bb
000000a0: bcff 61bb 4e00 3eba 4367 1b3a d7eb d63a
000000b0: f9c1 59b9 5c9d 96bb 6a6b 8bbb 254a f53a
000000c0: 5570 81ba 1588 da3a 32ad ed3a 3d18 063b
000000d0: 37b5 f238 dba8 6c39 64ea 7a3b c36f 83ba
000000e0: 730f 86bb 6960 a13b 9425 07ba 710e 34ba
000000f0: 750a 7a39 4411 66b8 4787 17ba d42b 9739
00000100: de16 0b3b c9c4 293b 6023 76b9 3299 25bb
00000110: b27c 09ba 70a6 46ba 58d4 c039 2b3d dfb8
00000120: d760 c9ba 6b16 073a 8204 813a 1f09 933a
00000130: f16d 343a c2ba 7339 c7d9 473b 7c5a 11bb
00000140: a20e 67ba 4786 fd38 5587 7e39 ea4b 043a
00000150: b77a 303b a0e2 43bb c0c6 203b 2cd7 a2b9
00000160: 8666 5a39 9969 4ebb 7e3f 173b 27f0 14ba
00000170: c3e6 a6ba 24ee 5bb6 6771 39ba 5712 d0ba
00000180: 5cbe 04bb 06fa d3b9 2637 f4ba cc6d 98bb
00000190: d88f 2f3a a97d 743a 663c 993b 6bdb f739
000001a0: aab0 453b 4bfe ed3a 180f 3c39 0209 60ba
000001b0: de47 27ba 5395 f6b9 1b67 07ba 93e1 103b
000001c0: 1fe8 553b 2cd9 683a 75b7 6e3b 2197 feb9
000001d0: 3f4f 6eb9 f7c8 83ba 114d 15b9 67d5 41bb
000001e0: a1a2 9e3a ba62 293b 3fad 07bb 5896 d8ba
000001f0: c680 cbba 86da f1b9 61da da39 d4c0 21ba
00000200: 7308 893a 08c3 a7b9 80c7 a43a e4f1 203b
00000210: ade2 033b 4365 113b c4de 0e3a ffe4 093b
00000220: 1960 173a aee2 f4ba 09d1 bf39 d775 62b9
00000230: 03c9 dcba 6c2b 593a b6b2 8cbb ade0 f8b9
00000240: d4f9 633a 2616 2cba 6a37 38ba d020 ec39
00000250: 15eb 83bb cd47 0dba ef99 7fba 8b69 52bb
00000260: f58a a739 3ecf 093b 396e f7ba 721e 133b
00000270: 709b aaba 2517 8fba 0a74 243a acab 063a
00000280: 53de 54ba 8616 583b c6ba 4a38 2911 403b
00000290: cda8 24bb 5616 95ba 5508 203b 051e 9cba
000002a0: ab4a 2e3a b2d1 efb9 211c 1fb7 7dce e73a
000002b0: a922 773b cbc0 383a 37f0 653a 5037 a5ba
000002c0: 4310 9cbb 9746 14ba df7e c2bb 8de3 31ba
000002d0: 9b81 1d3b 80fd 023b 24ad 5bbb 67b4 b638
000002e0: 1f87 08bb 037e 3db7 2634 b7ba 153a 093b
000002f0: d4ad f73a 452c d9b9 1c9a 75ba 30c9 5dba
00000300: 4a81 8fba 1e5d 0dba 5862 78bb 6b54 42b9
00000310: 0d29 9aba 8e0b a53b 7098 bc39 80a8 c937
00000320: 75b5 a939 8f65 df3a cd68 8fba d865 413a
00000330: 93a9 fe3a 0d18 95b9 3180 ee3a 4b1c f43a
00000340: 87be 913b c7b8 603a c705 0a3b ab3c 953a
00000350: ddad ddba 00b7 c53a 683e e0ba 5be9 ccba
00000360: 1421 91ba fb96 a83a 575b 9f3a 4a45 c9ba
00000370: e1d5 403b 1600 a1b9 1cf4 5cba 5628 e93a
00000380: f1ef 273b 70de 383b 19bb 3b3b 18bc 1fba
00000390: 98fc 123b cae7 00ba 361c 8139 11bd 1bb9
000003a0: 2b26 fbba a786 f4b9 43e9 833b 5dee 28bb
000003b0: c92e b9b9 093b ae39 d326 58bb cd4f 27b9
000003c0: 830a 7e3a 8c1e ceba ff59 933b 0d8c 8c3a
000003d0: f2f9 d33a 1575 87ba b6d6 6ab9 a3fe 91ba
000003e0: 37aa 83ba b650 b2bb eeab aa3a ca50 1f38
000003f0: fd53 c439 6639 0ebb 93ab af39 707e b2b9

transformer.norm.running_var f4 [1280]
0.5543563 0.45627895 0.33027828 0.5977813 0.5919216 0.71516895 0.3537886 0.8787615
0.42356396 0.6044376 0.67033017 0.4872255 0.57681805 0.30526263 1.0449882 0.41867277
0.3405239 0.39692378 0.4878094 0.4420495 0.3782275 0.41658035 0.53092134 0.6253533
0.5242854 0.916098 0.72173053 0.5157711 0.6722155 0.5687931 0.5237942 0.5562513
0.45520896 0.41563144 0.3999528 0.64644325 0.5164212 0.46617702 0.34535614 0.6952563
0.37675974 0.53158045 0.5356256 0.47102785 0.33364597 0.8143426 0.5941931 0.6496345
0.29932055 0.40503696 0.54677063 0.47855464 0.58992183 0.7561687 0.57945806 0.46380216
0.7133212 0.79905486 0.30878308 0.52453905 0.5108208 0.35449764 0.35172927 0.51679784
0.6747483 1.1432911 0.44530925 0.37275064 0.5465289 0.49739894 0.29665825 0.46621123
0.48873195 0.43875805 0.40675244 0.39448872 0.64068645 0.3883333 0.46084806 0.678828
0.69569147 0.8133681 0.46416104 0.49235532 0.57903785 0.5458197 0.5596105 0.4822156
0.42198035 0.5737621 0.59269375 0.4624635 0.38400555 0.38117746 0.46234086 0.5860541
0.42069465 0.5693207 0.53968024 0.855502 0.49889228 0.51323074 0.56603545 0.31914815
0.58062595 0.86429065 0.5054846 0.41765994 0.6086528 0.47646075 0.6440786 0.40988672
0.41504842 1.1291986 0.790383 0.38543844 0.36348942 0.6165113 0.34005758 0.5429564
0.57463735 0.4002561 0.7938679 0.35515025 0.7346654 0.9016981 0.35496762 0.53200716
0.64037365 0.371248 0.3689717 0.45279378 0.57193625 0.53069574 0.8455314 0.9912992
0.3352763 0.49177703 0.334687 0.6401883 0.5194218 0.4509534 0.5754011 0.7770033
0.48190907 0.5364731 0.5053844 0.63798285 1.1715701 0.59052473 0.656435 0.6293397
0.6971621 0.63379854 0.5036914 0.43029413 0.6836094 0.3823311 0.37824136 0.37906662
0.5810066 0.9245708 0.8177694 0.3334396 0.60246366 0.41672957 0.42830223 0.51041466
0.41133595 0.46449158 0.41688523 0.7958555 0.6388782 0.6361156 0.56860864 0.40143886
0.751388 0.6138392 0.7362982 0.43600723 0.9188656 0.8007511 0.63835096 0.48254874
1.0406604 0.39180058 0.64485526 0.48663846 0.4852906 0.47413525 1.0094329 0.5301224
0.7766835 0.39620155 0.58909416 0.4778407 0.41966575 0.716604 0.877761 0.9292399
0.4210614 0.57892704 0.40774003 0.7359065 0.41598722 0.393713 0.40321755 0.38783473
0.64476985 0.38237235 0.4560909 0.63642395 0.51388353 0.6016292 0.5973171 0.56623846
0.5602341 0.46073088 0.5306578 0.48157677 0.41447282 0.4066904 0.5149435 0.7234334
0.6876846 0.8474207 0.59612775 0.6882432 0.51378167 0.59010893 0.7006586 0.51127225
0.62436134 0.3739214 0.84887445 0.43372345 0.6482686 0.6530865 0.78849274 0.36918557
0.50499773 0.5521174 0.67263305 0.4642144 0.30796713 0.70512784 0.50575 0.48248953
0.6088519 0.63967407 0.6603967 0.74836975 0.57175076 0.56728446 0.36569333 0.31995052
00000000: 4bea 0d3f 659d e93e 3c1a a93e 3208 193f
00000010: 2d88 173f 5015 373f c823 b53e 83f6 603f
00000020: 60dd d83e 6cbc 1a3f c29a 2b3f 9f75 f93e
00000030: 59aa 133f 624b 9c3e 2cc2 853f 475c d63e
00000040: 2659 ae3e 9839 cb3e 27c2 f93e 5054 e23e
00000050: 09a7 c13e 054a d53e 76ea 073f 2717 203f
00000060: 9137 063f 6685 6a3f 55c3 383f 9309 043f
00000070: 5116 2c3f 6d9c 113f 6017 063f 7c66 0e3f
00000080: 2611 e93e a5cd d43e 9dc6 cc3e 4e7d 253f
00000090: 2e34 043f c1ae ee3e 85d2 b03e 51fc 313f
000000a0: a7e6 c03e a815 083f c21e 093f 902a f13e
000000b0: a5d3 aa3e c278 503f 0a1d 183f 724e 263f
000000c0: 8b40 993e 0161 cf3e 29f9 0b3f 1d05 f53e
000000d0: 1e05 173f 4694 413f 5d57 143f 7a77 ed3e
000000e0: 389c 363f dc8e 4c3f d118 9e3e 3148 063f
000000f0: 27c5 023f b780 b53e dc15 b43e dd4c 043f
00000100: 4ebc 2c3f 5d57 923f 93ff e33e 2cd9 be3e
00000110: 51e9 0b3f 13ab fe3e 97e3 973e 3db3 ee3e
00000120: 133b fa3e e5a4 e03e db41 d03e 6dfa c93e
00000130: 0704 243f 9fd3 c63e 47f4 eb3e acc7 2d3f
00000140: d618 323f e438 503f 84a6 ed3e ff15 fc3e
00000150: d33b 143f d7ba 0b3f a242 0f3f f7e4 f63e
00000160: cf0d d83e 13e2 123f c7ba 173f 04c8 ec3e
00000170: 609c c43e b129 c33e f1b7 ec3e a407 163f
00000180: 4a65 d73e 00bf 113f 7c28 0a3f 2e02 5b3f
00000190: cf6e ff3e 1763 033f b3e7 103f 6367 a33e
000001a0: e7a3 143f 2742 5d3f 7067 013f 86d7 d53e
000001b0: abd0 1b3f aaf2 f33e 56e2 243f acdc d13e
000001c0: 3a81 d43e 9489 903f 8a56 4a3f 3058 c53e
000001d0: 491b ba3e afd3 1d3f 071c ae3e 31ff 0a3f
000001e0: 6f1b 133f 5eee cc3e ed3a 4b3f 41d6 b53e
000001f0: 0813 3c3f b0d5 663f 51be b53e 9f31 083f
00000200: 87ef 233f 3814 be3e dce9 bc3e 96d4 e73e
00000210: 6a6a 123f addb 073f bf74 583f c9c5 7d3f
00000220: 56a9 ab3e 33ca fb3e 185c ab3e 61e3 233f
00000230: d4f8 043f 5de3 e63e 7d4d 133f b0e9 463f
00000240: c9bc f63e 4d56 093f df60 013f d852 233f
00000250: 02f6 953f a12c 173f 200c 283f 681c 213f
00000260: 3779 323f 9f40 223f ebf1 003f 834f dc3e
00000270: 0701 2f3f e7c0 c33e daa8 c13e 0515 c23e
00000280: d9bc 143f acb0 6c3f 5659 513f 98b8 aa3e
00000290: 0f3b 1a3f 945d d53e 6e4a db3e 89aa 023f
000002a0: a09a d23e d7d1 ed3e fb71 d53e 30bd 4b3f
000002b0: 868d 233f 79d8 223f 5690 113f 6589 cd3e
000002c0: f75a 403f 9124 1d3f 0a7e 3c3f 573c df3e
000002d0: c73a 6b3f 06fe 4c3f f86a 233f a110 f73e
000002e0: 5c34 853f 169a c83e 3c15 253f ad28 f93e
000002f0: 0278 f83e dbc1 f23e 1935 813f 1ab6 073f
00000300: bbd4 463f eeda ca3e e0ce 163f 89a7 f43e
00000310: 6ede d63e 5c73 373f f2b4 603f abe2 6d3f
00000320: 5c95 d73e 9034 143f 4dc3 d03e 5e64 3c3f
00000330: 47fc d43e c094 c93e 8872 ce3e 4692 c63e
00000340: a30f 253f 4fc6 c33e bf84 e93e aeec 223f
00000350: df8d 033f 5f04 1a3f c6e9 183f 01f5 103f
00000360: 816b 0f3f ebe4 eb3e 31d9 073f 3b91 f63e
00000370: c835 d43e b939 d03e 56d3 033f ee32 393f
00000380: 190c 303f 90f0 583f d49b 183f b530 303f
00000390: 3287 033f 6111 173f 5d5e 333f bde2 023f
000003a0: 25d6 1f3f a072 bf3e d64f 593f 0011 de3e
000003b0: eef4 253f ad30 273f a9da 493f e405 bd3e
000003c0: 8847 013f 9157 0d3f ae31 2c3f 83ad ed3e
000003d0: dead 9d3e 4283 343f d578 013f de08 f73e
000003e0: b8dd 1b3f aec1 233f c20f 293f 2995 3f3f
000003f0: 425e 123f 8e39 113f 283c bb3e 8ed0 a33e
