models/sqa-v2/xls-r-1b/model_1b_lay41_subset.pt (torch, 425869 bytes, 67 tensors)

norm_input.weight f4 [1280]
0.6941507 0.7087996 0.8365892 0.55692846 0.59481716 0.5967594 0.7009911 0.7382134
0.7550665 0.8277937 0.81401837 0.6800406 0.6111073 0.7868178 0.7754668 0.69594735
0.5788938 0.6170827 0.76655334 0.54088366 0.7443267 0.69386685 0.7572675 0.75944656
0.7333098 0.7607093 0.7290942 0.78162384 0.64723885 0.65620977 0.68737656 0.65868104
0.7476557 0.7030128 0.74989825 0.67739034 0.64101833 0.65665275 0.8558984 0.69097453
0.66368735 0.9815323 0.63965666 0.69869536 0.58902293 0.7049714 0.61238 0.8056029
0.68348336 0.7799938 0.61453986 0.68485963 0.64947706 0.8969308 0.7319441 0.5123789
0.8951457 0.600462 0.7832356 0.58141524 0.81173074 0.7475586 0.6861492 0.7346776
0.7531992 0.7596589 0.8062356 0.7146758 0.9504617 0.609218 0.8253878 0.7538738
0.722471 0.7285311 0.67235774 0.6916032 0.68897337 0.6687187 0.7561189 0.9179381
0.7756551 0.7291521 0.74687636 0.82386917 0.62283313 1.0351826 0.7142305 0.80747896
0.91217893 0.7538962 0.67861813 0.9125045 0.6291248 0.6560413 0.7912806 0.7213632
0.6491842 0.6261207 0.71213317 0.7515114 0.8156586 0.61762166 0.8396385 0.6695246
0.71319777 0.8487847 0.7605088 0.72930473 0.8654675 0.74227977 0.73701924 0.96435964
0.595248 0.64798766 0.7783622 0.66588974 0.78258246 0.73248535 0.6618907 0.56905603
0.76566476 0.84050983 0.59898704 0.60868436 0.8575484 0.6343793 0.6234663 0.9404644
0.63791263 0.7753003 0.98300827 0.953519 0.6622005 0.77169913 0.7507175 0.62924767
0.91844475 0.90834546 0.65802836 0.88286006 0.81158173 0.58109486 0.78427213 0.67164445
0.6437229 0.5583081 0.55844265 0.71300125 0.7919321 0.7877111 0.5851504 0.8432602
0.5684667 0.83559895 0.8014056 0.73040676 0.6809206 1.0741382 0.65411884 0.71826535
0.73181725 0.6966588 0.74784756 0.5848625 0.7122701 0.67169034 0.65983325 0.8488804
0.8307983 0.59795696 0.69102013 0.7684526 0.6031622 0.7059608 0.77351385 0.7143586
0.54776853 0.648377 0.6436511 1.0687262 0.5984454 0.6526455 0.6632907 0.83451194
0.8782889 0.76739466 0.5946827 0.74676 0.65126675 0.7424976 0.56739783 0.5932239
0.9296347 0.76848197 0.87681395 1.0088224 0.85445046 0.7336277 0.7955874 0.6454015
0.8973026 1.0244588 0.63479704 0.56434476 0.662418 0.77973616 0.71310526 0.7243404
0.5739724 0.7011876 0.61794204 0.87738264 0.8013834 0.5509161 0.65414816 0.56948876
0.7884216 0.754462 0.6682752 0.57433534 0.8868912 0.72559744 0.85205764 0.77921236
0.69375104 0.58907676 0.76003313 0.89897716 0.7017369 0.6412671 1.1423393 0.6474621
0.71187913 0.82960004 0.53291523 0.80178523 0.5620897 0.71443015 0.9380045 0.8111019
0.81965274 0.8086645 0.80870533 0.6868316 0.72443986 0.60879856 0.7496592 0.6983084
0.8292273 0.80115575 0.73052174 0.74609476 0.8076411 0.72439516 0.67514765 0.6836631
00000000: dcb3 313f e473 353f b62a 563f dd92 0e3f
00000010: f045 183f 39c5 183f 2774 333f 8efb 3c3f
00000020: 0a4c 413f 4aea 533f 8263 503f 2417 2e3f
00000030: 8771 1c3f e46c 493f fe84 463f 9b29 323f
00000040: 6232 143f 22f9 1d3f d73c 443f 5a77 0a3f
00000050: 328c 3e3f 42a1 313f 48dc 413f 176b 423f
00000060: 31ba 3b3f d8bd 423f eba5 3a3f 8018 483f
00000070: 72b1 253f 5dfd 273f e9f7 2f3f 529f 283f
00000080: 5d66 3f3f a6f8 333f 55f9 3f3f 7469 2d3f
00000090: c719 243f 651a 283f 281c 5b3f b5e3 303f
000000a0: 6ae7 293f b345 7b3f 8ac0 233f b3dd 323f
000000b0: 35ca 163f 0179 343f f0c4 1c3f fe3b 4e3f
000000c0: c4f8 2e3f acad 473f 7c52 1d3f f652 2f3f
000000d0: 2144 263f 429d 653f b060 3b3f 432b 033f
000000e0: 4528 653f e1b7 193f 2182 483f a1d7 143f
000000f0: 96cd 4f3f 0060 3f3f 79a7 2f3f d513 3c3f
00000100: aad1 403f 0179 423f 7565 4e3f fef4 363f
00000110: 7551 733f b6f5 1b3f 9d4c 533f e0fd 403f
00000120: dcf3 383f 0481 3a3f a31f 2c3f e80c 313f
00000130: 8f60 303f 2631 2b3f 0291 413f fefd 6a3f
00000140: 5591 463f b6a9 3a3f 4a33 3f3f 17e9 523f
00000150: fe71 1f3f dd80 843f cfd7 363f f1b6 4e3f
00000160: 8f84 693f 57ff 403f ebb9 2d3f e599 693f
00000170: 530e 213f 53f2 273f 5e91 4a3f 42ab 383f
00000180: f030 263f 7249 203f 5c4e 363f 0d63 403f
00000190: 01cf 503f 741c 1e3f 8cf2 563f f765 2b3f
000001a0: 2194 363f f449 593f b4b0 423f b7b3 3a3f
000001b0: 478f 5d3f 0c06 3e3f 4bad 3c3f 46e0 763f
000001c0: 2c62 183f 85e2 253f bf42 473f c077 2a3f
000001d0: 5357 483f 2984 3b3f ab71 293f a8ad 113f
000001e0: 9b02 443f a72b 573f 3757 193f bdd2 1b3f
000001f0: 4b88 5b3f af66 223f 7d9b 1f3f 46c2 703f
00000200: 3e4e 233f 157a 463f 6ea6 7b3f d219 743f
00000210: f985 293f 138e 453f 062f 403f 6016 213f
00000220: 321f 6b3f 5489 683f 8c74 283f 1e03 623f
00000230: d2c3 4f3f a2c2 143f 0fc6 483f e4f0 2b3f
00000240: 06cb 243f 48ed 0e3f 19f6 0e3f 4087 363f
00000250: 10bc 4a3f 6fa7 493f 6bcc 153f e7df 573f
00000260: 0987 113f d0e9 553f eb28 4d3f f0fb 3a3f
00000270: d050 2e3f 5c7d 893f 5574 273f 3de0 373f
00000280: 6058 3b3f 3b58 323f f072 3f3f 8cb9 153f
00000290: 5557 363f e6f3 2b3f d5ea 283f 3a50 593f
000002a0: 33af 543f b513 193f b2e6 303f 4fb9 443f
000002b0: d768 1a3f d9b9 343f 0105 463f 35e0 363f
000002c0: 8f3a 0c3f 09fc 253f 52c6 243f 05cc 883f
000002d0: b833 193f c713 273f 6bcd 293f 93a2 553f
000002e0: 8bd7 603f fa73 443f 203d 183f aa2b 3f3f
000002f0: 6bb9 263f 5314 3e3f fc40 113f 86dd 173f
00000300: 8afc 6d3f 3cbb 443f e176 603f 1821 813f
00000310: 44bd 5a3f 06cf 3b3f 9eab 4b3f 0839 253f
00000320: a0b5 653f 7721 833f 0f82 223f e678 103f
00000330: 3a94 293f ca9c 473f 118e 363f 5f6e 393f
00000340: dbef 123f 0881 333f 7331 1e3f 269c 603f
00000350: 7627 4d3f d608 0d3f 4176 273f 04ca 113f
00000360: ffd5 493f 6c24 413f 1514 2b3f a407 133f
00000370: 4d0b 633f c1c0 393f 7320 5a3f 767a 473f
00000380: ab99 313f bccd 163f 8891 423f 5e23 663f
00000390: 08a5 333f 152a 243f 2d38 923f 14c0 253f
000003a0: b63d 363f ab60 543f 226d 083f cc41 4d3f
000003b0: 1ce5 0f3f e5e4 363f 1021 703f 60a4 4f3f
000003c0: c3d4 513f a304 4f3f 5007 4f3f 32d4 2f3f
000003d0: e474 393f 39da 1b3f aae9 3f3f 57c4 323f
000003e0: 3e48 543f 8b18 4d3f 7903 3b3f 1100 3f3f
000003f0: 91c1 4e3f f671 393f 7ad6 2c3f 8b04 2f3f

norm_input.bias f4 [1280]
0.0007806966 0.00069990085 0.00095222826 -0.00019097584 -0.00029007668 0.00020387402 -0.00017427291 -0.003067675
-0.0024134298 -0.0036115062 -0.0015222353 0.000528896 0.0011248048 0.0009530004 0.004249368 -0.0004035579
0.0006610388 -0.00077639485 0.00089144555 0.00014119405 -0.0025005045 -0.0016198421 0.0024243735 -0.0020003172
-0.001747771 0.0010060307 -0.0006566502 -0.0024749401 0.0014831761 -1.7812372e-05 0.0032537642 0.00092066167
-0.005146125 0.00068995944 -0.0012120988 -0.0005325739 0.00015438817 -0.00084150134 0.0005552354 0.0026472046
0.001518379 0.0040151514 0.00030844755 -0.0020221598 0.00013712207 0.0012640066 0.00045674373 0.0007688458
-0.0015347535 0.0008043981 -0.00035178033 -0.0020908664 0.000626078 0.00344121 -7.543794e-05 0.0015664618
-0.0006847065 0.0003782771 -0.0020759872 -0.001247089 -0.0026746744 -0.0031987308 -0.00071200164 -0.0027669328
0.001489995 0.0008981628 -0.0010388156 -0.0012465657 0.0012651125 0.00011658971 -0.0004780248 -0.0031644176
0.0007521778 0.00030931478 -0.001138623 0.002217079 0.00026973238 0.0005136479 -0.00079505984 0.002074978
0.00034116118 -0.0018373295 -6.530271e-05 -0.00075178605 -0.0016086285 0.0034495369 -0.0009486706 -5.9935934e-05
-0.00029607172 -0.0029195976 0.0012717412 0.0017036521 0.0032622362 -0.00087956 0.0016935451 -0.0022865064
0.0012543346 -0.00068517146 -0.002314547 0.0007407626 -0.0007132222 0.00040085465 0.0013472921 -0.000906392
0.0007522847 0.0035500694 0.0016511854 0.0035584301 -0.0018651538 -0.0018496225 0.0011715214 0.0018765879
-0.0005820668 0.0015758687 -0.0021201037 -0.00091990054 -0.002672306 -0.0003476084 -0.0012313967 0.0010544076
0.0006983155 0.0004270303 0.0006268641 0.00026274644 0.002927815 0.00074986054 -3.1814958e-05 0.00041864207
0.0001136992 -0.0005071786 -0.0024506962 -0.00036522592 0.00068281207 0.003304945 0.00705982 -7.06949e-05
0.0005314352 0.0018044406 -0.0017814408 -0.0008598671 -0.0002880442 0.00018838923 -0.00241701 0.0009165106
-0.00018057587 0.0015406575 -0.00042990904 -0.001711872 0.001236869 -0.0017263795 0.0009552679 -0.0027073177
-0.0009633201 0.0050656362 -0.0012468431 -0.0015438237 -0.0024092717 -0.0035814557 -0.00062118046 0.00094561616
-0.0008933894 -0.002733423 -0.002660238 0.0019429148 8.186341e-05 -0.00045345756 -0.001691208 0.0012742375
0.00068818615 -0.0006373806 -0.000101648366 -0.00084726943 -0.00064889266 -0.0002715347 -0.0012610621 -0.0003234782
-0.00062400306 -0.00045635825 0.00042492876 0.003153135 0.0018661465 -0.00015854699 0.00077062583 0.00021402423
0.0028600036 0.00041315597 1.3167315e-05 -0.0006212483 -0.00014129361 0.00032621 -0.00015195654 -0.0004480244
-0.0022224493 0.00018050932 1.553961e-05 0.0060777385 -0.0023747087 0.001349742 0.0011538571 -8.17431e-05
0.001161761 0.0041068764 1.1025059e-05 -0.00012831028 -0.00030695743 0.002399975 0.00056408066 -0.0014619621
0.00011541032 0.00015237088 -0.00033325658 -0.00046971877 0.0021205882 -0.00065478205 -0.0007386655 0.00048781684
0.0020211947 0.00058733847 -0.0017824065 0.00024248761 -0.0021966551 -0.000547893 0.00046781707 -0.000107972766
-0.0019938797 6.074658e-05 0.0011128155 0.00043092613 0.0025102876 0.00040003966 0.002041229 -0.0006052422
0.0015344978 -0.0007710881 0.0005616132 0.0040189573 0.00016789274 -0.0013880272 -0.0019082271 -0.0012298872
0.001852717 0.0007692785 -0.0021340605 0.0018830108 0.00064397295 0.00018823764 0.0002667478 -9.38172e-06
0.0017247236 -0.00027052598 0.00041946146 -0.00018016719 -0.0008764039 -0.002730727 -0.00017694433 -0.00061484525
00000000: a9a7 4c3a 8d79 373a f59e 793a b040 48b9
00000010: 6f15 98b9 04c7 5539 07bd 36b9 0c0b 49bb
00000020: a22a 1ebb 05af 6cbb be85 c7ba 9ca5 0a3a
00000030: 306e 933a c6d2 793a 483e 8b3b a094 d3b9
00000040: 9049 2d3a fa86 4bba e6af 693a 7d0d 1439
00000050: 81df 23bb e250 d4ba 3de2 1e3b c117 03bb
00000060: 7715 e5ba cadc 833a 0d23 2cba 9b32 22bb
00000070: 2267 c23a c76b 95b7 1b3d 553b 8f58 713a
00000080: d3a0 a8bb 65de 343a 49df 9eba 6e9c 0bba
00000090: 42e3 2139 3398 5cba 388d 113a b97c 2d3b
000000a0: 5804 c73a 8891 833b 21b7 a139 3686 04bb
000000b0: 6dc8 0f39 06ad a53a 1b77 ef39 5e8c 493a
000000c0: c829 c9ba 3ede 523a 286f b8b9 eb06 09bb
000000d0: 621f 243a ec85 613b 7034 9eb8 bc51 cd3a
000000e0: e07d 33ba 7e53 c639 490d 08bb 5d75 a3ba
000000f0: 9749 2fbb cca1 51bb 9fa5 3aba 6e55 35bb
00000100: f04b c33a af72 6b3a de28 88ba ce63 a3ba
00000110: 22d2 a53a a081 f438 679f fab9 1e62 4fbb
00000120: cc2d 453a 872b a239 d93d 95ba 6a4c 113b
00000130: de6a 8d39 54a6 063a 906b 50ba 5bfc 073b
00000140: e1dd b239 8cd2 f0ba 20f3 88b8 8213 45ba
00000150: 9ed8 d2ba a011 623b 35b0 78ba b863 7bb8
00000160: 133a 9bb9 b856 3fbb 8eb0 a63a 144d df3a
00000170: 3ecb 553b 4692 66ba f2f9 dd3a 36d9 15bb
00000180: 7c68 a43a 149d 33ba a8af 17bb bd2f 423a
00000190: 88f7 3aba cd29 d239 9f97 b03a f09a 6dba
000001a0: f934 453a 48a8 683b 976c d83a 8d34 693b
000001b0: 2d78 f4ba 086f f2ba bc8d 993a d7f7 f53a
000001c0: d795 18ba 618d ce3a 70f1 0abb 7b25 71ba
000001d0: db21 2fbb 363f b6b9 d166 a1ba 0c34 8a3a
000001e0: 290f 373a 09e3 df39 2354 243a 3bc1 8939
000001f0: 96e0 3f3b 4a92 443a 0d71 05b8 307d db39
00000200: cb71 ee38 2ef4 04ba dc9b 20bb cb7b bfb9
00000210: befe 323a c797 583b 1056 e73b 0942 94b8
00000220: 0350 0b3a fb82 ec3a 3c7f e9ba b468 61ba
00000230: a304 97b9 598a 4539 b366 1ebb fc41 703a
00000240: f758 3db9 e3ef c93a 6a65 e1b9 e560 e0ba
00000250: 701e a23a af47 e2ba f26a 7a3a 416d 31bb
00000260: 5187 7cba a3fd a53b 1d6d a3ba 215a caba
00000270: dfe4 1dbb dbb6 6abb b7d6 22ba 3ae3 773a
00000280: 5932 6aba 3a23 33bb 6357 2ebb 67a9 fe3a
00000290: 15ae ab38 0bbe edb9 86ab ddba 5104 a73a
000002a0: 6467 343a e315 27ba 0d2c d5b8 4a1b 5eba
000002b0: 731a 2aba c55c 8eb9 394a a5ba 8298 a9b9
000002c0: 2394 23ba 5e43 efb9 f9c8 de39 d4a4 4e3b
000002d0: 7c99 f43a a23f 26b9 d303 4a3a b16b 6039
000002e0: e66e 3b3b db9c d839 30e9 5c37 45db 22ba
000002f0: 3728 14b9 2a07 ab39 8656 1fb9 d1e4 eab9
00000300: 83a6 11bb 1a47 3d39 0f5b 8237 c427 c73b
00000310: 00a1 1bbb d3e9 b03a 053d 973a 7e6d abb8
00000320: 3b46 983a fa92 863b 45f8 3837 078b 06b9
00000330: 21ef a0b9 e648 1d3b d0de 133a 4f9f bfba
00000340: 7208 f238 bfc5 1f39 f1b8 aeb9 9644 f6b9
00000350: 91f9 0a3b aea5 2bba 01a3 41ba abc1 ff39
00000360: 0576 043b 9ef7 193a a39f e9ba 4644 7e39
00000370: c2f5 0fbb 7aa0 0fba 5845 f539 706f e2b8
00000380: c0ab 02bb 25ca 7e38 e4db 913a eded e139
00000390: a383 243b 6abc d139 24c6 053b 1ea9 1eba
000003a0: 3421 c93a d922 4aba 3939 133a 75b1 833b
000003b0: 5d0c 3039 77ee b5ba 7a1d faba 2b34 a1ba
000003c0: ded6 f23a 68a9 493a 98db 0bbb 5ccf f63a
000003d0: 4bd0 283a a861 4539 49da 8b39 2e66 1db7
000003e0: 1f10 e23a 62d5 8db9 2aeb db39 43eb 3cb9
000003f0: 78be 65ba fff5 32bb 228a 39b9 912d 21ba

norm_input.running_mean f4 [1280]
-0.218334 -0.5409167 -0.07189329 0.6757451 -0.34885806 0.20876096 1.117311 -0.55867463
0.19994307 0.124763675 0.8321895 -0.055877622 0.41605672 -1.2576447 0.30423442 0.9374372
-0.50424415 1.1443027 0.790482 0.3404456 0.51170546 -0.014107015 1.0067052 0.26841998
0.020071406 0.13248068 -0.16561794 0.42497066 -0.21303101 -0.26436886 -0.68840414 1.0865352
-0.75859225 -1.3458002 -0.19616146 -0.56782115 0.2716253 0.9495461 -0.9831396 0.013579933
-0.2462141 -0.5809139 -0.33956382 -0.73680645 -0.2041097 -0.013633457 0.0772944 -1.1621053
-0.6502019 1.1480757 -0.19322897 1.2016369 0.07153306 0.3065624 0.65730155 0.88523835
-0.6563188 -0.59939694 1.3824105 -0.07500056 -1.6104193 -0.24378042 -1.126377 -0.29648033
-0.21594673 0.85562754 0.9798646 -0.26505294 -0.5501653 0.5064331 1.2438656 0.22929376
0.6453036 0.9562436 2.9575517 -0.20670523 -0.08642374 -0.20317149 -0.21842559 0.56208694
0.11971582 -0.58294356 -0.3059006 0.11591419 1.2340645 0.4179312 -0.16620073 3.7143106
0.24255627 -0.58850545 -0.51167744 0.68667454 -0.39518017 -1.5767184 0.5952543 0.45525908
0.1499565 -0.21693225 -0.48241994 0.8530839 -1.0068018 -0.40366802 -0.5828321 0.86869466
0.30105558 0.6968979 0.5112777 -0.5158992 0.14832962 -1.40984 0.32100105 -1.2171139
0.674251 1.1442672 0.4938591 0.20903896 0.5853526 -1.6457545 0.64018226 0.94127846
-0.53901374 -0.18212286 -0.7922379 -0.81422824 -0.016342593 0.82227135 -3.8631136 -0.16310702
-2.4226131 0.26919702 -0.9251038 -0.35562047 0.5037209 0.13416564 0.55909836 0.3729021
0.35331738 0.19620869 -0.13583887 0.5647045 0.2779226 -0.32208532 -0.4298938 1.0142262
0.71080625 0.2307265 -0.28237122 0.53891236 -0.24699225 -0.57658625 -0.7329508 0.376232
-0.9458315 0.075307086 0.13420296 0.8032944 0.08075002 -0.3298158 -1.3939211 -0.12425
0.6243632 0.18806633 -0.6076101 1.3124253 -0.8779761 -0.53803986 0.93589133 1.6365887
0.42513245 -0.100695886 -0.08567923 0.3949788 -0.40644434 -0.12962331 0.8758622 1.0384254
0.9846526 0.27172 -0.35405785 0.2893212 -0.3698551 0.2846184 -0.5895883 -0.77865
-1.9154885 0.09445758 -0.4587624 0.92188895 -1.6911211 1.1002641 0.38347128 0.6929357
-0.12315247 0.23326842 0.86393005 -0.9999855 -0.7663036 0.12151389 -0.12961583 -1.2308091
0.4311004 -0.25198534 0.43025622 0.89511466 0.06720408 -0.20313776 -0.29497257 -0.8236351
0.5875425 0.22255391 -0.061498392 -0.022420166 0.5097047 0.35516924 0.18754548 1.0759512
-0.11684257 0.33155218 0.00014226875 0.38240504 -0.26169524 0.55031663 -1.3445016 0.26988414
0.1898829 -0.70931196 1.3058394 1.6336948 0.44448462 0.36773446 -0.2984738 -0.01703888
-0.25124535 1.4390564 2.2512445 0.1502089 -0.08381859 -0.034840267 -0.42623705 0.24126257
1.0568751 0.9758528 1.2257351 -0.91162676 -0.0071018306 0.22223516 -1.1121497 0.6446149
0.36347997 -0.22568859 0.7145236 0.0038863935 -0.36001107 0.40104815 -0.4718288 -0.81264395
00000000: f392 5fbe 8479 0abf ca3c 93bd a2fd 2c3f
00000010: 869d b2be 6fc5 553e 0c04 8f3f 4d05 0fbf
00000020: e0bd 4c3e 1984 ff3d 5f0a 553f efdf 64bd
00000030: 6305 d53e 80fa a0bf 9dc4 9b3e e2fb 6f3f
00000040: 2516 01bf 8378 923f 075d 4a3f e34e ae3e
00000050: 21ff 023f 1c21 67bc b7db 803f 586e 893e
00000060: ca6c a43c 04a9 073e c097 29be c195 d93e
00000070: cd24 5abe 5b5b 87be 413b 30bf 9613 8b3f
00000080: 1a33 42bf 2e43 acbf 8dde 48be ba5c 11bf
00000090: 7912 8b3e 7415 733f 09af 7bbf 5e7e 5e3c
000000a0: 8d1f 7cbe c6b6 14bf 4fdb adbe 599f 3cbf
000000b0: 2202 51be dd5e 5fbc 874c 9e3d debf 94bf
000000c0: a273 26bf 25f4 923f d1dd 45be 3dcf 993f
000000d0: ed7f 923d bff5 9c3e ea44 283f fb9e 623f
000000e0: 8204 28bf 1472 19bf d4f2 b03f e599 99bd
000000f0: 3822 cebf 93a1 79be 1f2d 90bf 45cc 97be
00000100: 2421 5dbe 680a 5b3f 68d8 7a3f 05b5 87be
00000110: a2d7 0cbf 9aa5 013f fd36 9f3f fccb 6a3e
00000120: 9e32 253f 61cc 743f 8748 3d40 89aa 53be
00000130: eefe b0bd 300c 50be f5aa 5fbe eee4 0f3f
00000140: 912d f53d ca3b 15bf 019f 9cbe 6b64 ed3d
00000150: d3f5 9d3f 14fb d53e 8630 2abe 44b7 6d40
00000160: ac60 783e 4ba8 16bf 4bfd 02bf e7c9 2f3f
00000170: 0e55 cabe e9d1 c9bf 9662 183f b817 e93e
00000180: 328e 193e 7d23 5ebe bfff f6be b563 5a3f
00000190: e2de 80bf 93ad cebe 7c34 15bf c662 5e3f
000001a0: f523 9a3e e767 323f 18e3 023f f811 04bf
000001b0: b8e3 173e a375 b4bf 405a a43e 63ca 9bbf
000001c0: b79b 2c3f 5977 923f 1adb fc3e 4f0e 563e
000001d0: abd9 153f 15a8 d2bf fce2 233f a0f7 703f
000001e0: cefc 09bf 6a7e 3abe 1ad0 4abf 4371 50bf
000001f0: e7e0 85bc 6080 523f 413d 77c0 8705 27be
00000200: 180c 1bc0 31d4 893e 9ad3 6cbf e313 b6be
00000210: daf3 003f b862 093e 1221 0f3f 06ed be3e
00000220: 04e6 b43e eeea 483e 5819 0bbe 7990 103f
00000230: df4b 8e3e 5ee8 a4be 0a1b dcbe 2ad2 813f
00000240: 66f7 353f 9143 6c3e f692 90be 29f6 093f
00000250: 89eb 7cbe 289b 13bf aaa2 3bbf 7ba1 c03e
00000260: 0322 72bf 9a3a 9a3d 806c 093e b4a4 4d3f
00000270: 4460 a53d 9edd a8be 026c b2bf c976 febd
00000280: 44d6 1f3f 7694 403e 568c 1bbf 8dfd a73f
00000290: 0bc3 60bf fbbc 09bf 9396 6f3f bd7b d13f
000002a0: f6aa d93e a539 cebd 9878 afbd a93a ca3e
000002b0: 7919 d0be f9bb 04be 8138 603f 20eb 843f
000002c0: 3112 7c3f e21e 8b3e 1247 b5be e921 943e
000002d0: a65d bdbe 81b9 913e 42ef 16bf 9b55 47bf
000002e0: ba2e f5bf fa72 c13d e8e2 eabe ea00 6c3f
000002f0: a876 d8bf 74d5 8c3f 5956 c43e 3c64 313f
00000300: 5d37 fcbd ebdd 6e3e 852a 5d3f 0dff 7fbf
00000310: 792c 44bf 46dc f83d 03ba 04be 278b 9dbf
00000320: 31b9 dc3e 3904 81be 8b4a dc3e 3c26 653f
00000330: 4ba2 893d 5803 50be a506 97be c0d9 52bf
00000340: 2f69 163f 2ce5 633e bde5 7bbd 7faa b7bc
00000350: 027c 023f bed8 b53e ec0b 403e c5b8 893f
00000360: 284b efbd 35c1 a93e fa2d 1539 98ca c33e
00000370: ebfc 85be 8de1 0c3f a118 acbf 412e 8a3e
00000380: aa70 423e 7895 35bf bf25 a73f e91c d13f
00000390: 7d93 e33e b147 bc3e 8fd1 98be 1f95 8bbc
000003a0: 3ba3 80be 0033 b83f 6414 1040 5dd0 193e
000003b0: 15a9 abbd abb4 0ebd be3b dabe 890d 773e
000003c0: af47 873f 7dd1 793f e3e4 9c3f 5f60 69bf
000003d0: 79b6 e8bb 9d91 633e ec5a 8ebf 7b05 253f
000003e0: 0c1a ba3e e91a 67be 05eb 363f ddb2 7e3b
000003f0: 5f53 b8be 2f56 cd3e 8b93 f1be 6f09 50bf

norm_input.running_var f4 [1280]
2.4147174 2.4879122 2.3832269 2.6115623 3.1157868 2.2191002 4.8017063 2.2786615
2.1295207 2.0965443 2.1113207 2.7610013 4.371501 4.0675836 2.032024 2.0532095
2.6260908 4.734092 3.2033725 2.7204838 3.3804362 1.752237 2.968629 2.9579704
2.3389015 9.728576 10.300107 1.903007 1.8117785 2.344363 12.437927 3.3692245
4.049156 2.5235467 2.5488427 2.3830233 4.5542235 2.3432086 3.0589285 2.0733376
4.053684 3.4584785 2.6489146 1.9825873 2.0738842 1.9048605 3.170282 2.1417038
3.5544417 2.3439124 3.0265448 2.6945717 1.9595997 3.7997234 3.7080872 2.673471
2.4647932 2.7536554 2.214127 2.1321156 3.236961 2.9638593 2.7644072 2.3437927
2.531871 3.1025977 2.1624846 3.0081697 2.1227963 3.9512432 3.1918097 3.5339398
4.6647673 2.059719 21.91293 2.2232335 3.14597 2.1494462 1.7258527 2.4449756
3.327242 2.6946182 1.814569 2.984725 3.056089 2.0847414 2.4767725 4.023172
3.2286243 2.4142535 2.3955576 2.3750758 3.2900484 2.5753608 2.6327522 2.0621736
3.728478 2.3254128 5.701876 1.8717276 1.7359349 2.855884 1.995622 3.2699895
3.1669443 2.9175777 1.7950163 3.2217774 2.4233406 2.9504826 2.4410508 2.5182633
3.7021143 5.0208006 2.3475258 2.2804663 2.655711 3.611555 2.6524441 1.6583441
2.4854739 2.0876782 2.55057 1.6869224 1.5728904 2.0887094 9.648158 2.0970888
36.553173 1.6867765 5.3296766 3.394811 2.02747 3.0780666 3.1941028 3.0548108
2.3589082 2.4025338 2.039859 1.9574199 2.0526743 2.1236854 2.493391 3.2745767
2.01468 2.8756926 2.9838743 1.9003197 1.8286855 4.2593327 2.0880134 2.2027879
2.3261788 2.8846166 2.334423 2.6775484 1.9785613 2.4121938 2.2820036 2.3783846
2.2033854 2.4314573 7.08324 2.4077895 1.7244146 2.3507464 2.0810015 2.5131142
2.4640582 2.5716257 1.9778352 3.2686727 2.3639328 3.1061714 3.2727237 4.413629
2.1832285 2.5560625 3.0511448 2.7463489 2.5277672 2.683067 2.6567233 3.1240282
2.792948 1.7715908 2.4796028 3.3073883 1.818931 4.2737308 2.0998576 3.13316
2.294753 2.7573807 2.4090996 2.0711336 2.3418448 3.0031712 2.7008321 1.9335418
2.7054331 2.1610475 2.072881 1.9644043 2.930113 1.9202024 2.368868 2.4840093
2.3122752 2.3888524 1.8539867 2.0656033 2.051163 2.369444 1.7645701 2.1439943
1.9121016 2.5634003 4.0182877 2.5606 2.1698058 2.3968513 2.3362916 2.1872332
1.558618 3.384389 2.342644 2.125454 4.0463142 2.0804727 2.2963095 2.4402432
2.3162448 3.255571 3.833637 1.8991942 2.5903442 2.3063006 3.949477 2.0852292
4.378441 4.244206 3.0995452 2.4132998 1.7876472 10.48668 1.9360412 1.628964
2.2010024 2.4814584 2.5242991 2.9391205 3.536291 4.6772666 2.583775 2.4894824
00000000: bb8a 1a40 f439 1f40 ca86 1840 d623 2740
00000010: 0d69 4740 bd05 0e40 94a7 9940 97d5 1140
00000020: 114a 0840 c82d 0640 e11f 0740 3fb4 3040
00000030: 56e3 8b40 a529 8240 ae0c 0240 c967 0340
00000040: df11 2840 af7d 9740 0e04 4d40 681c 2e40
00000050: 1159 5840 4d49 e03f 04fe 3d40 634f 3d40
00000060: 90b0 1540 3fa8 1b41 3dcd 2441 bc95 f33f
00000070: 5ce8 e73f 0b0a 1640 c001 4741 60a1 5740
00000080: b092 8140 ca81 2140 3d20 2340 7483 1840
00000090: 33bc 9140 21f7 1540 7cc5 4340 90b1 0440
000000a0: c8b7 8140 b657 5d40 d187 2940 6cc5 fd3f
000000b0: 85ba 0440 78d2 f33f e6e5 4a40 ad11 0940
000000c0: f97b 6340 a902 1640 e9b2 4140 dd73 2c40
000000d0: 2ad4 fa3f ab2e 7340 4d51 6d40 261a 2b40
000000e0: 2cbf 1d40 e43b 3040 42b4 0d40 9574 0840
000000f0: 5e2a 4f40 dfaf 3d40 0cec 3040 b300 1640
00000100: 2d0a 2240 f690 4640 2666 0a40 da85 4040
00000110: e5db 0740 2be1 7c40 9c46 4c40 122c 6240
00000120: c645 9540 70d2 0340 ae4d af41 7549 0e40
00000130: 9357 4940 8790 0940 bee8 dc3f 7b7a 1c40
00000140: 88f1 5440 a074 2c40 cc43 e83f bc05 3f40
00000150: f696 4340 676c 0540 7183 1e40 d3bd 8040
00000160: c8a1 4e40 2183 1a40 d150 1940 3e01 1840
00000170: 2790 5240 b6d2 2440 037f 2840 a7fa 0340
00000180: 629f 6e40 90d3 1440 c575 b640 c594 ef3f
00000190: 1d33 de3f cec6 3640 8b70 ff3f 8247 5140
000001a0: 37af 4a40 98b9 3a40 18c3 e53f 9a31 4e40
000001b0: 0318 1b40 b5d4 3c40 2d3a 1c40 3a2b 2140
000001c0: 71ef 6c40 66aa a040 dd3d 1640 29f3 1140
000001d0: 2bf7 2940 b823 6740 a5c1 2940 9f44 d43f
000001e0: 0112 1f40 859c 0540 8a3c 2340 13ed d73f
000001f0: 7954 c93f 6aad 0540 db5e 1a41 b436 0640
00000200: 7336 1242 4be8 d73f b68c aa40 9544 5940
00000210: 12c2 0140 0bff 4440 2e6c 4c40 0582 4340
00000220: 5af8 1640 1dc3 1940 0d8d 0240 bc8c fa3f
00000230: 045f 0340 76ea 0740 b893 1f40 aa92 5140
00000240: 84f0 0040 590b 3840 ccf7 3e40 ad3d f33f
00000250: 5e12 ea3f 744c 8840 03a2 0540 7afa 0c40
00000260: 1de0 1440 8f9d 3840 3067 1540 f45c 2b40
00000270: 7f41 fd3f 6261 1a40 590c 1240 7437 1840
00000280: 4404 0d40 ff9c 1b40 e7a9 e240 3919 1a40
00000290: 9eb9 dc3f a172 1640 212f 0540 ddd6 2040
000002a0: 21b3 1d40 8495 2440 b429 fd3f ef31 5140
000002b0: ad4a 1740 83cb 4640 4e74 5140 733c 8d40
000002c0: 04ba 0b40 8796 2340 f545 4340 2ec4 2f40
000002d0: f0c6 2140 5fb7 2b40 c107 2a40 14f0 4740
000002e0: a9bf 3240 7dc3 e23f d0b1 1e40 40ac 5340
000002f0: bbd2 e83f 67c2 8840 1164 0640 b285 4840
00000300: 3cdd 1240 ed78 3040 b02e 1a40 748d 0440
00000310: c9e0 1540 f533 4040 6fda 2c40 4c7e f73f
00000320: d125 2d40 9a4e 0a40 15aa 0440 9a71 fb3f
00000330: f986 3b40 31c9 f53f 899b 1740 02fa 1e40
00000340: 51fc 1340 f5e2 1840 704f ed3f d832 0440
00000350: 4146 0340 f8a4 1740 6fdd e13f 3437 0940
00000360: bfbf f43f c00e 2440 d095 8040 dfe0 2340
00000370: 19de 0a40 0366 1940 cd85 1540 a1fb 0b40
00000380: cb80 c73f d499 5840 e1ed 1540 7007 0840
00000390: 687b 8140 7726 0540 bcf6 1240 f22c 1c40
000003a0: 5b3d 1440 465b 5040 4f5a 7540 cc18 f33f
000003b0: 33c8 2540 6e9a 1340 3bc4 7c40 6574 0540
000003c0: 301c 8c40 89d0 8740 f35e 4640 8173 1a40
000003d0: a0d1 e43f 71c9 2741 33d0 f73f e481 d03f
000003e0: 39dd 0c40 37d0 1e40 1e8e 2140 8d1a 3c40
000003f0: 9752 6240 2bac 9540 925c 2540 ae53 1f40

transformer.norm.weight f4 [1280]
0.6749814 0.66739756 0.88145024 0.21930356 0.3409453 0.18701006 0.67190415 0.76489925
0.83707345 0.9895832 0.9343027 0.53298783 0.502936 0.81327105 0.79348624 0.59808624
0.27107286 0.10796415 0.6620994 0.1375391 0.7824128 0.5594811 0.7847168 0.73027295
0.5604478 0.6799364 0.7114901 0.7927771 0.502407 0.5008866 0.6828375 0.5533574
0.81132483 0.55215174 0.7363651 0.5356327 0.486991 0.47927222 1.0289607 0.66264886
0.6186925 1.2721673 0.5264517 0.7100242 0.4081063 0.60660565 0.36823356 0.8923521
0.58970773 0.7499566 0.3844452 0.58087236 0.28397253 1.0831908 0.7405204 0.16296813
1.070802 0.3215476 0.8834053 0.34530726 0.9286259 0.8390918 0.57186675 0.7952079
0.779783 0.7191976 0.9555655 0.7136878 1.2867745 0.07341721 1.0256633 0.8318564
0.53101903 0.63696927 0.4286582 0.64742845 0.42781824 0.6803723 0.7292703 1.2093188
0.82918465 0.76729566 0.77613753 0.8584851 0.5218233 1.4074394 0.7318772 0.87723744
1.1749574 0.8321359 0.5954993 1.1044111 0.52622956 0.5560648 0.83979386 0.76415026
0.5069049 0.4744666 0.6344903 0.8019245 0.92232996 0.48026034 0.98286706 0.6206459
0.7316779 1.0174019 0.84106016 0.6928826 1.0346959 0.8358313 0.6885679 1.2465322
0.17665108 0.4962566 0.8297385 0.58241206 0.8963161 0.8104431 0.49055195 0.25007203
0.8257769 0.96792495 0.42454663 0.3994374 0.93174183 0.4918771 -0.0067024888 1.1942456
0.06749565 0.894972 1.2466288 1.2049885 0.5385708 0.9043148 0.80953854 0.35129604
1.1956955 1.1453301 0.48220637 1.0527545 0.9258126 0.36907527 0.8327866 0.4913398
0.500732 0.1941892 0.20733793 0.64970267 0.9208709 0.8409084 0.4056467 1.0119275
0.24081564 1.0118259 0.8912981 0.6957543 0.6600991 1.5016302 0.2895194 0.71584505
0.7465249 0.65388364 0.7478348 0.4018159 0.71980894 0.6429252 0.60782814 0.99320865
0.95479584 0.1108136 0.6114483 0.7408166 0.3269212 0.70752 0.8232629 0.721499
0.17307855 0.53951836 0.4767984 1.5028052 0.43949455 0.5035229 0.5281906 0.94379723
1.0840542 0.78721255 0.18876904 0.840093 0.62921774 0.7423861 0.28914863 0.31847423
1.1418172 0.7487223 1.0498956 1.416817 0.96565086 0.83711827 0.8939841 0.39971006
1.055736 1.3191607 0.45227274 0.21570519 0.5960703 0.7995741 0.6025785 0.7438247
0.26045996 0.70589536 0.11664139 1.0638149 0.7844184 0.34476012 0.72366345 0.16733351
0.90658027 0.74647325 0.5340914 0.3510648 0.9840633 0.7181903 1.0776716 0.8455674
0.60475546 0.0948207 0.77934706 1.1052825 0.58022684 0.35947415 1.4870721 0.36536387
0.7630989 0.95002556 0.21918924 0.94466186 0.20380536 0.76796883 1.1266223 0.79279923
0.7894477 0.91704243 0.83741117 0.676203 0.70343506 0.15790348 0.7474984 0.595927
1.0617911 0.82934827 0.68566287 0.60575557 0.8276078 0.71917933 0.67086965 0.5703935
00000000: 95cb 2c3f 91da 2a3f b9a6 613f 1d91 603e
00000010: 6290 ae3e 917f 3f3e e901 2c3f 70d0 433f
00000020: 724a 563f 5355 7d3f 762e 6f3f e471 083f
00000030: 6ac0 003f 8832 503f ea21 4b3f 2e1c 193f
00000040: 10ca 8a3e 4f1c dd3d 597f 293f 0dd7 0c3e
00000050: 354c 483f 273a 0f3f 33e3 483f 2bf3 3a3f
00000060: 8279 0f3f 5010 2e3f 3724 363f 71f3 4a3f
00000070: bf9d 003f 1b3a 003f 70ce 2e3f d5a8 0d3f
00000080: fcb2 4f3f d159 0d3f 6c82 3c3f 3a1f 093f
00000090: e256 f93e 2b63 f53e fcb4 833f 5ba3 293f
000000a0: a262 1e3f 61d6 a23f 8ac5 063f 25c4 353f
000000b0: 4ff3 d03e 824a 1b3f 1c89 bc3e 3071 643f
000000c0: 16f7 163f 28fd 3f3f 00d6 c43e 0db4 143f
000000d0: d964 913e ffa5 8a3f bf92 3d3f 1ee1 263e
000000e0: 0a10 893f e3a1 a43e da26 623f 1dcc b03e
000000f0: 6dba 6d3f b8ce 563f dc65 123f bf92 4b3f
00000100: dc9f 473f 551d 383f f19f 743f 3eb4 363f
00000110: 07b5 a43f c35b 963d ef48 833f 8bf4 543f
00000120: ddf0 073f 6b10 233f 1679 db3e dfbd 253f
00000130: fe0a db3e e12c 2e3f 75b1 3a3f f5ca 9a3f
00000140: 7245 543f 7d6d 443f f3b0 463f aec5 5b3f
00000150: 3696 053f f926 b43f 4e5c 3b3f a292 603f
00000160: 0165 963f dc06 553f a472 183f 585d 8d3f
00000170: fbb6 063f 435a 0e3f bbfc 563f 5a9f 433f
00000180: 85c4 013f 49ed f23e f56d 223f ed4a 4d3f
00000190: d11d 6c3f afe4 f53e 2d9d 7b3f a6e2 1e3f
000001a0: 3e4f 3b3f 3a3a 823f b84f 573f c160 313f
000001b0: ea70 843f 0af9 553f fc45 303f 5e8e 9f3f
000001c0: 05e4 343e 5815 fe3e be69 543f f518 153f
000001d0: f974 653f 3379 4f3f a029 fb3e 7109 803e
000001e0: 1d66 533f eec9 773f 2d5e d93e 0f83 cc3e
000001f0: a286 6e3f 51d7 fb3e 8da0 dbbb 0add 983f
00000200: 293b 8a3d e31c 653f 8891 9f3f 103d 9a3f
00000210: c7df 093f 2d81 673f eb3d 4f3f 13dd b33e
00000220: 8d0c 993f 2d9a 923f c1e3 f63e a9c0 863f
00000230: 0e02 6d3f 6ff7 bc3e 8131 553f e490 fb3e
00000240: f92f 003f 89d9 463e 6550 543e ea52 263f
00000250: 32be 6b3f c645 573f edb0 cf3e d786 813f
00000260: 6098 763e 8383 813f 1d2c 643f f41c 323f
00000270: 41fc 283f 6b35 c03f e33b 943e 9f41 373f
00000280: 411c 3f3f eb64 273f 1a72 3f3f d0ba cd3e
00000290: 6645 383f bf96 243f a09a 1b3f ec42 7e3f
000002a0: 806d 743f 3ef2 e23d e087 1c3f 28a6 3d3f
000002b0: 3762 a73e 0820 353f 5bc1 523f 29b4 383f
000002c0: 813b 313e e01d 0a3f eb1e f43e ec5b c03f
000002d0: 6e05 e13e e0e6 003f 8037 073f b29c 713f
000002e0: 4ac2 8a3f c386 493f ac4c 413e 5610 573f
000002f0: 6a14 213f 040d 3e3f 4a0b 943e 0e0f a33e
00000300: 1127 923f 44ac 3f3f fb62 863f 425a b53f
00000310: e534 773f 624d 563f 24dc 643f cca6 cc3e
00000320: 5b22 873f 42da a83f 4b90 e73e d2e1 5c3e
00000330: 1098 183f e3b0 4c3f 9642 1a3f 4c6b 3e3f
00000340: 025b 853e 8fb5 343f aee1 ee3d 162b 883f
00000350: a5cf 483f 6684 b03e 0242 393f 7a59 2b3e
00000360: a515 683f df18 3f3f 37ba 083f c4be b33e
00000370: 93eb 7b3f 52db 373f 25f1 893f 1b77 583f
00000380: 41d1 1a3f 5b31 c23d 4a83 473f e679 8d3f
00000390: bf89 143f ff0c b83e 6158 be3f f910 bb3e
000003a0: 735a 433f e034 733f 2573 603e 5cd5 713f
000003b0: 5ab2 503e 9b99 443f 2935 903f e4f4 4a3f
000003c0: 3f19 4a3f 4bc3 6a3f 9460 563f a41b 2d3f
000003d0: 5214 343f 73b1 213e 0e5c 3f3f ac8e 183f
000003e0: c5e8 873f 2b50 543f 9a87 2f3f cc12 1b3f
000003f0: 1bde 533f 231c 383f 1dbe 2b3f 4f05 123f

transformer.norm.bias f4 [1280]
-0.21541183 -0.14642757 0.068005815 -0.24531959 -0.16196375 -0.15086713 0.17135237 -0.006505185
0.07513427 -0.14947847 0.09280312 0.13756241 -0.030969867 -0.22878636 0.109480046 -0.1135653
-0.318604 0.038788345 0.28328177 -0.091524705 0.032041963 -0.07042975 -0.03223938 -0.051446535
0.07230982 -0.060281422 -0.03982731 -0.033170138 -0.010839303 -0.05623351 0.16385077 -0.079819955
-0.10443721 -0.3262628 -0.18177523 -0.048539564 0.08059309 -0.05460943 -0.20908317 -0.039821014
-0.02126713 0.18144388 -0.13191259 -0.07042875 0.06697507 0.1682079 -0.007894969 0.06944517
0.26085448 -0.028010044 0.01311717 -0.0020865453 -0.14454274 -0.00014495746 -0.024029186 -0.16124973
-0.066183485 0.08731744 -0.06265058 0.076174706 -0.10863634 0.04522192 -0.17965388 0.08493873
-0.06879429 -0.20732926 0.07799414 -0.025492495 -0.01529295 0.048689097 -0.033860065 0.109368585
-0.049394444 0.16370039 0.119322374 -0.17820448 0.0660776 -0.26864943 -0.045412596 -0.17473409
0.04348494 -0.05754623 0.17735234 -0.2321217 0.015275314 -0.07695017 -0.18746406 0.10678268
0.040264737 -0.013494552 -0.3840402 0.08346111 0.3971598 -0.1109194 0.26824394 0.020080712
0.007635907 0.22413579 -0.13400282 0.06192442 0.11851593 -0.09732253 0.23759569 0.031275563
-0.20497818 -0.07837922 -0.016141526 -0.01516342 -0.053312548 0.13724625 0.024912309 0.22548416
0.10399131 -0.12843324 -0.17893144 -0.01697756 -0.05620048 0.08778662 -0.043547373 -0.016347395
-0.05383134 0.089321695 -0.15425645 -0.043149054 -0.06737952 -0.056277838 0.044131815 -0.0363898
-0.0032956651 -0.11623516 -0.08597812 0.09891586 0.082088225 -0.0077535957 -0.098395444 0.11534323
-0.10436353 -0.036205344 0.16905387 0.04694704 0.10868877 0.10729347 -0.016114023 0.037863415
-0.101098344 0.17972463 0.041489117 -0.003798718 -0.09326018 0.1559191 0.07929417 -0.094728336
-0.23497798 -0.018612474 -0.038545802 0.27373758 0.045971625 -0.13748321 0.019813685 0.1034793
0.03756778 0.08608795 0.08939141 -0.038613405 0.1492155 0.051607583 0.34335077 -0.28230983
-0.0917575 -0.023152357 0.19229855 0.037025224 -0.006816079 -0.016976872 -0.010100599 0.19754243
-0.056228247 -0.080952935 -0.1789737 0.022486115 0.08165717 0.07834984 -0.019904407 0.143053
-0.052970614 0.009143208 0.05448705 0.26760128 -0.20276622 0.004955351 0.0778129 0.0785938
-0.027965907 0.27954987 -0.042220462 -0.20896004 0.18662581 0.011006972 0.001474406 -0.073430605
-0.029000849 0.015263857 0.09447726 0.14695753 -0.18743558 0.004691255 -0.06334958 0.036182765
0.009991962 -0.11903689 -0.0007140961 -0.101158574 0.07971036 -0.020357981 0.09094939 -0.16646807
0.044619717 -0.030070415 -0.07469947 0.07654254 0.080790766 0.18206231 0.20557435 -0.009131021
-0.06842919 -0.13940094 0.055245742 0.20847619 -0.0086799245 -0.022506766 0.029743666 -0.036500987
-0.09085663 -0.19276725 0.08281419 0.14967956 0.18663453 0.092870645 -0.036464162 -0.28060737
0.0049535898 0.02029223 0.21415627 -0.017830396 0.089248754 -0.054102514 -0.13940385 -0.15569101
0.00599508 -0.07488494 -0.09655926 -0.30292073 0.010973101 -0.048150267 -0.06445774 0.2283722
00000000: eb94 5cbe 1cf1 15be a246 8b3d 0f35 7bbe
00000010: d3d9 25be ea7c 1abe ff76 2f3e 7229 d5bb
00000020: ffdf 993d e210 19be 900f be3d 29dd 0c3e
00000030: 85b4 fdbc f946 6abe 1337 e03d ed94 e8bd
00000040: 1020 a3be 87e0 1e3d 4f0a 913e 4e71 bbbd
00000050: 6f3e 033d 793d 90bd 710d 04bd 9ab9 52bd
00000060: 2c17 943d a7e9 76bd f621 23bd 69dd 07bd
00000070: 5597 31bc 1c55 66bd 7fc8 273e a578 a3bd
00000080: 2de3 d5bd eb0b a7be 4923 3abe 6cd1 46bd
00000090: fd0d a53d 23ae 5fbd e619 56be 5c1b 23bd
000000a0: 6738 aebc 6dcc 393e 1814 07be f33c 90bd
000000b0: 3a2a 893d b13e 2c3e e659 01bc 4539 8e3d
000000c0: b88e 853e 5275 e5bc 66e9 563c 6cbe 08bb
000000d0: 0303 14be b9ff 17b9 dbd8 c4bc a61e 25be
000000e0: 358b 87bd 7cd3 b23d f34e 80bd 7c01 9c3d
000000f0: bb7c debd 9f3a 393d 30f7 37be 5bf4 ad3d
00000100: 05e4 8cbd 1f4e 54be 64bb 9f3d a3d5 d0bc
00000110: 488f 7abc 386e 473d dab0 0abd a3fc df3d
00000120: d451 4abd 13a1 273e 4a5f f43d 3c7b 36be
00000130: b153 873d 6b8c 89be 8f02 3abd 7eed 32be
00000140: 441d 323d 98b5 6bbd da9b 353e 50b1 6dbe
00000150: 5045 7a3c 0d98 9dbd 94f6 3fbe e1b0 da3d
00000160: a3ec 243d 4118 5dbc eba0 c4be a9ed aa3d
00000170: 8858 cb3e b629 e3bd 4557 893e 4e80 a43c
00000180: a136 fa3b da83 653e 0938 09be 76a4 7d3d
00000190: 7bb8 f23d 0951 c7bd 494c 733e ce1a 003d
000001a0: cde5 51be 4985 a0bd 3c3b 84bc fe6f 78bc
000001b0: 425e 5abd 488a 0c3e e614 cc3c 52e5 663e
000001c0: 65f9 d43d 0184 03be ce39 37be 8614 8bbc
000001d0: 7932 66bd 79c9 b33d bb5e 32bd f9ea 85bc
000001e0: 407e 5cbd 4bee b63d 67f5 1dbe 10bd 30bd
000001f0: 46fe 89bd 9783 66bd 90c3 343d 790d 15bd
00000200: 16fc 57bb b30c eebd 4c15 b0bd 6694 ca3d
00000210: df1d a83d e011 febb 8d83 c9bd 1239 ec3d
00000220: 8cbc d5bd 0e4c 14bd 751c 2d3e 8a4b 403d
00000230: 3898 de3d aebc db3d 8e01 84bc ab16 1b3d
00000240: a60c cfbd bc09 383e 7ef0 293d eaf3 78bb
00000250: 31ff bebd 42a9 1f3e fb64 a23d ee00 c2bd
00000260: 119e 70be 3079 98bc 34e2 1dbd 5527 8c3e
00000270: be4c 3c3d 66c8 0cbe 4f50 a23c f5ec d33d
00000280: ace0 193d e14e b03d d812 b73d 1729 1ebd
00000290: f3cb 183e 7962 533d accb af3e ea8a 90be
000002a0: 5beb bbbd 03aa bdbc e9e9 443e c3a7 173d
000002b0: 6a59 dfbb 1513 8bbc fc7c 25bc 9048 4a3e
000002c0: 974f 66bd a7ca a5bd e244 37be cd34 b83c
000002d0: e03b a73d e275 a03d 910e a3bc 7c7c 123e
000002e0: b7f7 58bd 65cd 153c d02d 5f3d 0903 893e
000002f0: f3a1 4fbe 7f60 a23b 5f5c 9f3d c9f5 a03d
00000300: c218 e5bc 2921 8f3e 5def 2cbd 9ff9 55be
00000310: d61a 3f3e 9656 343c db40 c13a c962 96bd
00000320: 3093 edbc 4215 7a3c 4b7d c13d 097c 163e
00000330: 1def 3fbe 19b9 993b 6dbd 81bd 6134 143d
00000340: 54b5 233c 9dc9 f3bd 2e32 3bba 3a2c cfbd
00000350: 2f3f a33d c8c5 a6bc ac43 ba3d 9b76 2abe
00000360: 2ac3 363d 3b56 f6bc 09fc 98bd 56c2 9c3d
00000370: a175 a53d 8b6e 3a3e 1582 523e 479a 15bc
00000380: 9a24 8cbd 1fbf 0ebe 5c49 623d c87a 553e
00000390: 3e36 0ebc 1c60 b8bc fda8 f33c 0f82 15bd
000003a0: 0a13 babd c764 45be 7c9a a93d 9945 193e
000003b0: 1f1d 3f3e f732 be3d 725b 15bd c5ab 8fbe
000003c0: b951 a23b e43b a63c c84b 5b3e 0d11 92bc
000003d0: 0dc8 b63d 999a 5dbd e2bf 0ebe 776d 1fbe
000003e0: 6072 c43b 475d 99bd dcc0 c5bd 6d18 9bbe
000003f0: 85c8 333c 3739 45bd 6b02 84bd 67da 693e

transformer.norm.running_mean f4 [1280]
0.0007829083 0.0006826454 0.0009290989 -0.00019103996 -0.00028381677 0.00020520232 -0.00018444244 -0.0030750192
-0.0024193176 -0.0036103092 -0.001535322 0.0005376064 0.0011244843 0.00095909665 0.0042170193 -0.00040988196
0.0006609704 -0.0007747174 0.0008952126 0.00014209189 -0.002502506 -0.0016199122 0.002415327 -0.001994588
-0.0017574661 0.0010208075 -0.00065768877 -0.0024735802 0.0014917548 -2.305123e-06 0.0032546497 0.0009276038
-0.0051203794 0.00068052014 -0.0012099254 -0.0005396412 0.0001520345 -0.00084843737 0.0005437587 0.0026474053
0.0015137761 0.0040185032 0.0003111033 -0.002015926 0.00013559267 0.0012581573 0.00046106186 0.0007659266
-0.0015380924 0.0008094985 -0.00035670598 -0.0020953503 0.0006337262 0.0034531744 -7.587448e-05 0.0015670069
-0.00068905414 0.00037702138 -0.0020727306 -0.0012505522 -0.0026363253 -0.003198761 -0.0007077908 -0.0027651715
0.0014865953 0.0009001736 -0.0010473097 -0.0012430784 0.0012626818 0.00011616884 -0.00047025908 -0.0031569803
0.00076151727 0.00032093245 -0.0011452755 0.0022014014 0.0002633149 0.00051731593 -0.0007554727 0.0020685915
0.00032399414 -0.0018428277 -6.15963e-05 -0.00076270406 -0.0016082991 0.0034690823 -0.00096482097 -4.81807e-05
-0.00031845484 -0.0029171582 0.001271682 0.0016987697 0.0032708235 -0.00088480045 0.001715993 -0.0023007998
0.0012550935 -0.00068302994 -0.0023145536 0.0007251722 -0.0007174456 0.00039823394 0.001353741 -0.0008976507
0.00073071325 0.0035511504 0.0016454853 0.0035550587 -0.0018593731 -0.0018520127 0.001176505 0.0018888992
-0.00058236433 0.0015758272 -0.002122736 -0.0009231111 -0.0026864652 -0.0003499011 -0.0012311907 0.001053849
0.0006936455 0.00042604416 0.0006296767 0.00026321455 0.0029269382 0.0007509353 -3.1827098e-05 0.0004566859
0.00011367352 -0.0004981771 -0.0024478666 -0.00039285113 0.00066898944 0.0032742638 0.0070493896 -7.040253e-05
0.0005359898 0.0018127677 -0.0017861258 -0.00086547434 -0.00032735945 0.0001868776 -0.002407179 0.00091413304
-0.00018006051 0.0015428087 -0.0004262784 -0.0017001313 0.0012182109 -0.0017046939 0.0009578473 -0.0027043528
-0.00096412556 0.005057377 -0.0012589233 -0.0015249688 -0.0024102605 -0.0035697012 -0.0006188199 0.00094512297
-0.00089568534 -0.002722682 -0.002650478 0.0019414423 8.758038e-05 -0.00045199305 -0.0016747006 0.001264289
0.0006979154 -0.00063759636 -0.000101323414 -0.0008361575 -0.00064603187 -0.0002780705 -0.0012634099 -0.00032136712
-0.00062357716 -0.0004610039 0.0004280618 0.00318237 0.0018687835 -0.0001600251 0.00076726713 0.00021376244
0.002873794 0.00042272682 9.877677e-06 -0.00062597427 -0.00014249649 0.00031474506 -0.0001512272 -0.00045234492
-0.0022291485 0.0001901615 2.6926498e-05 0.0061085373 -0.0023744944 0.0013448313 0.0011457332 -8.862723e-05
0.0011672147 0.0040852055 1.0683095e-05 -0.00012794776 -0.00032343843 0.0024053617 0.00057139003 -0.0014612357
0.00011628534 0.00015235571 -0.00033418497 -0.00047697665 0.0021205896 -0.00065077934 -0.00072478433 0.00048646398
0.002027548 0.000575091 -0.0017897454 0.00023634055 -0.0022017008 -0.0005366384 0.0004530775 -0.00011491919
-0.0019955214 6.140017e-05 0.0011138832 0.00044796115 0.0025060917 0.0003947285 0.0020370062 -0.000596778
0.0015283729 -0.0007834291 0.0005622091 0.0040151183 0.00016943869 -0.0013852381 -0.0019062714 -0.0012402324
0.0018466397 0.0007616402 -0.0021141777 0.0018978515 0.00063771167 0.00018678044 0.00026473694 -1.263483e-05
0.001711707 -0.0002456659 0.0004276211 -0.00017279694 -0.0008726125 -0.0027419098 -0.00017602669 -0.0006049073
00000000: 163c 4d3a 8ff3 323a c68e 733a e651 48b9
00000010: 3ecd 94b9 942b 5739 e466 41b9 4386 49bb
00000020: 6a8d 1ebb f09a 6cbb dc3c c9ba 28ee 0c3a
00000030: 6f63 933a e36b 7b3a ec2e 8a3b 6de5 d6b9
00000040: f944 2d3a 6816 4bba b3ac 6a3a 80fe 1439
00000050: 1501 24bb 3c53 d4ba 764a 1e3b a2b7 02bb
00000060: c75a e6ba 9ecc 853a bf68 2cba ca1b 22bb
00000070: fc86 c33a b6b1 1ab6 f64b 553b 702a 733a
00000080: dbc8 a7bb ef64 323a 5c96 9eba b576 0dba
00000090: 736b 1f39 ab69 5eba 078b 0e3a 1780 2d3b
000000a0: e669 c63a a6ad 833b 941b a339 a01d 04bb
000000b0: e12d 0e39 c1e8 a43a adba f139 77c8 483a
000000c0: d199 c9ba 8634 543a 4404 bbb9 2552 09bb
000000d0: a520 263a a74e 623b cd1e 9fb8 0764 cd3a
000000e0: a4a1 34ba f4aa c539 a6d6 07bb 92e9 a3ba
000000f0: 33c6 2cbb 4ea2 51bb 098b 39ba e137 35bb
00000100: dcd9 c23a a1f9 6b3a e245 89ba caee a2ba
00000110: 9280 a53a ac9f f338 1b8d f6b9 57e5 4ebb
00000120: 8fa0 473a d342 a839 121d 96ba 6345 103b
00000130: 870d 8a39 7c9c 073a ea0a 46ba 3591 073b
00000140: c2dd a939 098b f1ba 432d 81b8 34f0 47ba
00000150: 90cd d2ba 8b59 633b 0aec 7cba a215 4ab8
00000160: 49f6 a6b9 cb2d 3fbb 91ae a63a 41a9 de3a
00000170: 505b 563b f4f1 67ba 2ceb e03a 04c9 16bb
00000180: f381 a43a 5d0d 33ba c4af 17bb 7c19 3e3a
00000190: f612 3cba 0eca d039 0370 b13a 5250 6bba
000001a0: 568d 3f3a 6bba 683b 53ad d73a fdfb 683b
000001b0: 35b6 f3ba 3cbf f2ba f534 9a3a f194 f73a
000001c0: cfa9 18ba fd8b ce3a 9a1d 0bbb f0fc 71ba
000001d0: 680f 30bb ee72 b7b9 e85f a1ba 4e21 8a3a
000001e0: c3d5 353a ae5e df39 e310 253a 0f00 8a39
000001f0: e0d1 3f3b 6ada 443a 167e 05b8 586f ef39
00000200: 0264 ee38 1998 02ba 636c 20bb 96f7 cdb9
00000210: 1f5f 2f3a 0895 563b 91fe e63b 12a5 93b8
00000220: ab81 0c3a 649a ed3a 701c eaba 00e1 62ba
00000230: 71a1 abb9 93f4 4339 c3c1 1dbb 6ea2 6f3a
00000240: a0ce 3cb9 1238 ca3a 1e7e dfb9 f1d6 deba
00000250: 60ac 9f3a 0970 dfba 0b18 7b3a 833b 31bb
00000260: 5fbd 7cba 5ab8 a53b 7502 a5ba 76e1 c7ba
00000270: 76f5 1dbb a6f1 69bb 4d38 22ba 21c2 773a
00000280: 6dcc 6aba 066f 32bb a4b3 2dbb fe77 fe3a
00000290: 5cab b738 7bf9 ecb9 a181 dbba 80b6 a53a
000002a0: 4ff4 363a 5e24 27ba 987d d4b8 9431 5bba
000002b0: 775a 29ba fec9 91b9 0099 a5ba 2a7d a8b9
000002c0: 8e77 23ba e5b2 f1b9 7b6d e039 4f8f 503b
000002d0: f8f1 f43a 69cc 27b9 6d22 493a 6b25 6039
000002e0: 4356 3c3b 6fa1 dd39 4db8 2537 6c18 24ba
000002f0: 1c6b 15b9 5e04 a539 be92 1eb9 b528 edb9
00000300: e816 12bb 1766 4739 37e0 e137 202a c83b
00000310: 689d 1bbb 0d45 b03a 6d2c 963a 62dd b9b8
00000320: 3afd 983a 30dd 853b 8b3b 3337 b729 06b9
00000330: 2c93 a9b9 46a3 1d3b 56c9 153a ef86 bfba
00000340: 37de f338 adc1 1f39 8c35 afb9 b912 fab9
00000350: 97f9 0a3b 1099 2aba 74ff 3dba 170c ff39
00000360: 9ce0 043b b4c1 163a e495 eaba 2fd2 7739
00000370: 694a 10bb 32ad 0cba 088b ed39 c500 f1b8
00000380: 4bc7 02bb f7c3 8038 b8ff 913a 54dc ea39
00000390: 3e3d 243b 90f3 ce39 4b7f 053b 1871 1cba
000003a0: af53 c83a 095f 4dba 3761 133a 4191 833b
000003b0: 5aab 3139 e190 b5ba dbdb f9ba 4b8f a2ba
000003c0: f20a f23a cfa8 473a 048e 0abb 54c1 f83a
000003d0: 1b2c 273a 7eda 4339 64cc 8a39 2efa 53b7
000003e0: 5b5b e03a b8cc 80b9 5532 e039 d330 35b9
000003f0: 09c0 64ba 9db1 33bb ce93 38b9 a492 1eba

transformer.norm.running_var f4 [1280]
0.48252875 0.50257844 0.69906044 0.3099333 0.3539606 0.35601634 0.49206495 0.5455211
0.57021946 0.68526006 0.6641838 0.46105018 0.37324965 0.6194925 0.602549 0.48459253
0.3350597 0.38096723 0.58686167 0.2928169 0.55360544 0.48136905 0.5735979 0.5779265
0.5378817 0.57869124 0.53119344 0.61061794 0.41912016 0.43001518 0.47246912 0.43437365
0.56035537 0.4956072 0.56353813 0.45850843 0.41147253 0.43175152 0.7335118 0.47735807
0.44066817 0.96478707 0.4098438 0.48716834 0.34779915 0.49748936 0.37588263 0.6495039
0.46790603 0.60744685 0.3786544 0.47035256 0.42328322 0.8038823 0.5370773 0.26281074
0.803464 0.3607059 0.6134802 0.33774123 0.65971076 0.558078 0.47075528 0.5398107
0.5676801 0.5781433 0.65117985 0.5119993 0.9041839 0.37137115 0.68277687 0.5692579
0.5223694 0.5314804 0.45275572 0.477585 0.47375047 0.4465552 0.5732541 0.84468424
0.601729 0.5323317 0.55724305 0.67737913 0.38861287 1.0711659 0.5094939 0.65196776
0.83170444 0.56792164 0.46078655 0.833716 0.39580843 0.43067154 0.62570804 0.52177846
0.42159536 0.3917997 0.5074825 0.5660519 0.66583633 0.38008338 0.70565766 0.448491
0.50752336 0.7204501 0.57841885 0.5324248 0.74954015 0.5515223 0.5436449 0.92885524
0.35432366 0.4198975 0.6054425 0.44391516 0.6117498 0.537923 0.43866485 0.32407767
0.5861842 0.7074611 0.35943136 0.37076283 0.735968 0.40220043 0.38891235 0.8849832
0.40713093 0.60158336 0.9668614 0.9095541 0.4397613 0.5957436 0.5654123 0.39572126
0.8441168 0.8253847 0.433063 0.7797285 0.6605929 0.33738327 0.61408067 0.4510698
0.41508973 0.31225908 0.31180885 0.5084212 0.62655944 0.62075496 0.34215707 0.711283
0.32333913 0.6995831 0.6433472 0.5335996 0.46489114 1.1556281 0.4280961 0.51499206
0.53646463 0.4844377 0.5599788 0.3426527 0.5076833 0.45151287 0.43599287 0.72213596
0.6887873 0.35763916 0.47719407 0.59041363 0.36374605 0.49835408 0.59844536 0.51101774
0.30064848 0.42107138 0.4149036 1.1440694 0.35845453 0.42558104 0.43967 0.69738597
0.7718322 0.58864534 0.35407588 0.5586137 0.4242542 0.5510168 0.32165083 0.35175288
0.8617229 0.59115607 0.7680148 1.0192744 0.73080516 0.5379223 0.6338946 0.41613796
0.80386996 1.0502695 0.4037691 0.31851438 0.44015926 0.6084515 0.50922614 0.5241663
0.32899824 0.49190176 0.38201752 0.7701666 0.643402 0.3034871 0.4279962 0.32416472
0.62271106 0.56773156 0.44584993 0.33054197 0.78695387 0.5266505 0.7267028 0.60729426
0.4817964 0.347131 0.57796866 0.8068419 0.49211943 0.4113925 1.3055669 0.41971195
0.5060366 0.6879675 0.28442842 0.64366335 0.31560388 0.5107313 0.8794731 0.6595039
0.67039907 0.6523654 0.65487754 0.4732945 0.5237848 0.37064654 0.5623217 0.48755947
0.6869087 0.643074 0.53355616 0.55670404 0.65268624 0.5231156 0.45556584 0.4667233
00000000: 020e f73e fba8 003f a0f5 323f 94af 9e3e
00000010: 533a b53e c647 b63e f0ef fb3e 45a7 0b3f
00000020: e7f9 113f 346d 2f3f f307 2a3f c50e ec3e
00000030: 941a bf3e 0f97 1e3f a740 1a3f 831c f83e
00000040: f28c ab3e 230e c33e 913c 163f 19ec 953e
00000050: 16b9 0d3f 0176 f63e 50d7 123f fef2 133f
00000060: 9db2 093f 1c25 143f 4bfc 073f 7551 1c3f
00000070: eb96 d63e f32a dc3e 79e7 f13e 3966 de3e
00000080: 7373 0f3f 3ac0 fd3e 0944 103f 9ec1 ea3e
00000090: 87ac d23e 890e dd3e 6ec7 3b3f 4768 f43e
000000a0: 429f e13e 49fc 763f 0cd7 d13e 216e f93e
000000b0: bb12 b23e edb6 fe3e b073 c03e e345 263f
000000c0: 6191 ef3e a381 1b3f fdde c13e 0dd2 f03e
000000d0: 94b8 d83e 3bcb 4d3f e67d 093f 218f 863e
000000e0: d1af 4d3f 72ae b83e 0a0d 1d3f 6bec ac3e
000000f0: cee2 283f 33de 0e3f d606 f13e 0931 0a3f
00000100: 7c53 113f 3301 143f b9b3 263f 6312 033f
00000110: 9978 673f 5c24 be3e 77ca 2e3f e3ba 113f
00000120: 00ba 053f 190f 083f 99cf e73e 0586 f43e
00000130: 6c8f f23e e2a2 e43e c8c0 123f 3a3d 583f
00000140: e90a 1a3f e446 083f 7ba7 0e3f b868 2d3f
00000150: 44f8 c63e f71b 893f 316e 023f 5ce7 263f
00000160: 95ea 543f 5063 113f 37ec eb3e 696e 553f
00000170: 67a7 ca3e fb80 dc3e 672e 203f 4693 053f
00000180: 59db d73e f899 c83e 60ea 013f c7e8 103f
00000190: 4074 2a3f 4a9a c23e fba5 343f 9da0 e53e
000001a0: 0ded 013f 6b6f 383f 4213 143f fe4c 083f
000001b0: dde1 3f3f 9130 0d3f 502c 0b3f 75c9 6d3f
000001c0: e969 b53e cefc d63e 48fe 1a3f d948 e33e
000001d0: a39b 1c3f 52b5 093f ae98 e03e 82ed a53e
000001e0: 2b10 163f 2c1c 353f 6307 b83e a0d4 bd3e
000001f0: 6668 3c3f 37ed cd3e 851f c73e 428e 623f
00000200: 7773 d03e 5e01 1a3f 3b84 773f 8ad8 683f
00000210: 6528 e13e a782 183f dcbe 103f fa9b ca3e
00000220: 0a18 583f 694c 533f 6fba dd3e 499c 473f
00000230: 9e1c 293f 80bd ac3e 6434 1d3f 9ff2 e63e
00000240: a486 d43e 6ce0 9f3e 69a5 9f3e e427 023f
00000250: 3366 203f cce9 1e3f 362f af3e a516 363f
00000260: b58c a53e e117 333f 67b2 243f fc99 083f
00000270: 3606 ee3e 9feb 933f 692f db3e 85d6 033f
00000280: bf55 093f 3808 f83e c55a 0f3f 2d70 af3e
00000290: 88f7 013f b22c e73e 753a df3e e7dd 383f
000002a0: 5d54 303f 7b1c b73e c852 f43e 5925 173f
000002b0: ec3c ba3e 4428 ff3e b733 193f 0fd2 023f
000002c0: 99ee 993e ab96 d73e 3f6e d43e de70 923f
000002d0: 5a87 b73e c2e5 d93e 6d1c e13e e387 323f
000002e0: cc96 453f 76b1 163f 6f49 b53e 4f01 0f3f
000002f0: d937 d93e 700f 0d3f 6baf a43e f418 b43e
00000300: df99 5c3f 0156 173f 9e9c 443f 9577 823f
00000310: 0c16 3b3f 47b5 093f eb46 223f 0910 d53e
00000320: 6cca 4d3f 3b6f 863f d3ba ce3e 5114 a33e
00000330: 8e5c e13e 7ac3 1b3f a55c 023f c32f 063f
00000340: 7572 a83e 8cda fb3e cd97 c33e a329 453f
00000350: feb5 243f a962 9b3e 5122 db3e ebf8 a53e
00000360: fe69 1f3f db56 113f 7146 e43e cc3c a93e
00000370: cf75 493f 91d2 063f 3209 3a3f a377 1b3f
00000380: 05ae f63e 28bb b13e c1f5 133f 318d 4e3f
00000390: 14f7 fb3e 0aa2 d23e d11c a73f 7ce4 d63e
000003a0: 9d8b 013f a31e 303f 9aa0 913e 1fc7 243f
000003b0: d596 a13e 49bf 023f 2625 613f 3fd5 283f
000003c0: 469f 2b3f 6b01 273f 0ea6 273f a853 f23e
000003d0: c316 063f 62c5 bd3e 51f4 0f3f 65a1 f93e
000003e0: 40d9 2f3f 7fa0 243f 2397 083f 2884 0e3f
000003f0: 7216 273f e7ea 053f ed3f e93e 5bf6 ee3e
