models/sqa/xls-r-1b/model_1b_lay10_full.pt (torch, 425869 bytes, 67 tensors)

norm_input.weight f4 [1280]
0	0x3f08ed0b	0.534867
1	0x3f2be8c1	0.6715203
2	0x3e2c40f5	0.16821654
3	0x3eeaa62f	0.45829913
4	0x3ecb8699	0.39751127
5	0x3ef4675e	0.47735113
6	0x3ee7b9b2	0.45258862
7	0x3f27f370	0.6560583
8	0x3f194394	0.5986874
9	0x3edfa1bc	0.4367808
10	0x3f010d77	0.5041117
11	0x3e1fe277	0.15613733
12	0x3f19a010	0.6000986
13	0x3ed0d912	0.40790612
14	0x3e916c89	0.28403118
15	0x3eac5ed5	0.336661
16	0x3e8a0653	0.2695795
17	0x3f0e910c	0.55690074
18	0x3ebe8a13	0.37214717
19	0x3f37e33f	0.71831125
20	0x3f035f6a	0.51317465
21	0x3f1a04b5	0.6016343
22	0x3ee37c42	0.4443074
23	0x3f181a15	0.594148
24	0x3e759aad	0.23984785
25	0x3eeb3426	0.45938224
26	0x3f435e39	0.7631565
27	0x3edf3d97	0.43601677
28	0x3f790372	0.9727088
29	0x3f187a68	0.5956178
30	0x3edb03a8	0.42776227
31	0xbee85727	-0.45378992
32	0x3f029080	0.5100174
33	0x3ef1e107	0.47241995
34	0x3e31076a	0.17287984
35	0x3ef64e24	0.48106492
36	0x3f35d683	0.71030444
37	0x3f0f9801	0.56091315
38	0x3f265ac3	0.6498224
39	0x3f67b626	0.9051231
40	0x3f24999f	0.6429691
41	0x3f08f1c4	0.53493905
42	0x3e45a6f8	0.19301975
43	0x3ed3a751	0.4133859
44	0xbd93d9f4	-0.07219306
45	0x3e3a7815	0.1820987
46	0x3e707ff0	0.23486304
47	0x3e693d1a	0.22777215
48	0x3ed411bc	0.4141978
49	0x3f3531aa	0.70778906
50	0x3f49969d	0.7874544
51	0x3f26002d	0.6484402
52	0x3f19c0f4	0.6006005
53	0x3f21d69a	0.6321808
54	0x3f67cbe7	0.90545505
55	0x3f071321	0.52763563
56	0x3efaa303	0.48952493
57	0x3ebcf979	0.36909083
58	0x3f27f4a4	0.65607667
59	0x3edd0f90	0.43175936
60	0x3f309490	0.6897669
61	0x3ead57ae	0.33855957
62	0x3eabdb3d	0.33565703
63	0x3f48efc7	0.7849087
64	0x3da53a01	0.08067704
65	0x3efd1bee	0.4943537
66	0x3eb9a47e	0.3625831
67	0x3e858f98	0.26086116
68	0x3e592f8b	0.21209542
69	0x3efc24b2	0.49246746
70	0x3f4d5b22	0.8021718
71	0x3e3cb799	0.18429412
72	0x3f0fe809	0.5621343
73	0x3f18a22a	0.5962244
74	0x3eebcb19	0.4605339
75	0x3ecfadf1	0.40562394
76	0x3f318ed6	0.69358575
77	0x3ee593d6	0.44839352
78	0x3f4a61d5	0.7905553
79	0x3f587a57	0.84561676
80	0x3e9b536c	0.30337083
81	0x3f40ef7f	0.7536544
82	0x3cf3a3e7	0.02974124
83	0x3f10bc70	0.5653753
84	0xbe78626e	-0.24256298
85	0x3f6cf9ab	0.92568463
86	0x3f74aecc	0.9557922
87	0x3ee0193f	0.4376926
88	0x3f483505	0.782059
89	0x3f1c43b3	0.610408
90	0x3f0bcaef	0.5460653
91	0x3f41d76c	0.7571933
92	0x3edcf80d	0.43157998
93	0xbdf56a5e	-0.119831786
94	0x3ef450fb	0.47718033
95	0x3f42898b	0.75991124
96	0x3f15ed44	0.58565164
97	0x3f2687cf	0.6505098
98	0x3e9c315c	0.30506408
99	0x3f57bc08	0.8427129
100	0xbe11705d	-0.1420302
101	0x3e82ef8b	0.25573382
102	0x3ec28935	0.37995306
103	0x3e29d836	0.16586384
104	0x3e5d8daf	0.21636079
105	0x3f600bfb	0.8751828
106	0x3f303177	0.6882548
107	0x3e33abcc	0.17546004
108	0x3eeeeea7	0.46666452
109	0x3f14d3d6	0.58135736
110	0x3ecef270	0.4041934
111	0x3ec7363e	0.3890857
112	0x3f4a2ea0	0.78977394
113	0x3e97b513	0.29630336
114	0x3efb3f58	0.49071765
115	0x3f0c087e	0.5470046
116	0x3df718f3	0.120653056
117	0x3f314187	0.6924061
118	0x3e827bb8	0.25485015
119	0x3f19a60d	0.60019
120	0x3eff57b2	0.49871594
121	0x3e31f002	0.17376712
122	0x3ef42628	0.4768536
123	0x3ec6fbdb	0.38864025
124	0x3eb5cfd9	0.35510138
125	0x3f48e3fa	0.78472865
126	0x3f69717e	0.911888
127	0x3f714826	0.94250715
128	0x3f19e099	0.60108334
129	0x3e20fe0a	0.15721908
130	0x3de6e6e2	0.11274506
131	0x3f4f5393	0.809869
132	0x3f133d57	0.5751547
133	0x3f06ecd7	0.5270514
134	0x3ef622f2	0.48073536
135	0x3e990a50	0.2989068
136	0x3f34638e	0.7046441
137	0x3f15d8f6	0.5853418
138	0x3ed72c1a	0.42025834
139	0x3d3fecd0	0.0468567
140	0x3dacaba9	0.08431179
141	0x3f164b8b	0.5870902
142	0x3f5a4e66	0.85275877
143	0x3e4c00de	0.19922206
144	0x3f1c2feb	0.61010617
145	0x3eefc918	0.4683311
146	0x3e457eaa	0.192866
147	0x3f4059be	0.75136936
148	0x3f1b102c	0.6057155
149	0x3f1d20fa	0.61378443
150	0x3e9daa5c	0.30794036
151	0x3f0934a8	0.5359597
152	0x3e9f2d57	0.3108928
153	0x3f125340	0.5715828
154	0x3ef88a8f	0.48543212
155	0x3de268a5	0.110551156
156	0x3ebb3b10	0.365685
157	0x3ea1f3df	0.3163137
158	0x3ecc61d0	0.39918375
159	0x3f2a5dc6	0.66549337
160	0x3e150e5c	0.14556259
161	0x3f078c3e	0.5294837
162	0x3f2b6574	0.6695168
163	0x3f2b7321	0.6697255
164	0x3f34dcc8	0.70649385
165	0xbe8f2505	-0.2795793
166	0x3efcdf23	0.4938899
167	0x3ed566e7	0.4168007
168	0xbee4e1b1	-0.4470344
169	0x3f27187f	0.65271753
170	0x3ec00ea2	0.37511164
171	0x3f158042	0.5839883
172	0x3f06d5dd	0.5267008
173	0x3eeabfb5	0.45849386
174	0x3f28146a	0.6565615
175	0xbdf80f0e	-0.121122465
176	0x3f083f5f	0.53221697
177	0x3e8c8331	0.2744384
178	0x3f2a9fbb	0.6664998
179	0x3f13d8b4	0.5775254
180	0x3f24f9ce	0.6444367
181	0x3f538668	0.8262696
182	0x3f02a784	0.5103686
183	0x3ea03f7d	0.31298438
184	0x3ec07204	0.37586987
185	0x3f25171b	0.6448838
186	0x3ed4f9ae	0.4159674
187	0x3f2d9906	0.6781162
188	0x3ec42a01	0.38313296
189	0xbf725cf7	-0.94673103
190	0x3f073b4c	0.52824855
191	0x3f054ed6	0.5207342
192	0x3ea7bd2d	0.32761517
193	0x3e760aa6	0.240275
194	0x3f0951b1	0.53640276
195	0x3f0a2dad	0.53975946
196	0x3f104cf2	0.5636741
197	0x3f182de6	0.59445035
198	0x3ed1ca66	0.4097473
199	0x3f1ecc0c	0.620301
200	0x3eb72849	0.35772923
201	0x3eeb5303	0.4596177
202	0x3ef72b9b	0.48275456
203	0x3e9e2012	0.30883843
204	0x3f1bd8ba	0.60877573
205	0x3eb112ca	0.34584647
206	0x3eadb6b4	0.33928454
207	0x3ea86fb0	0.3289771
208	0x3f63869e	0.88877285
209	0x3db4bdb6	0.08825247
210	0x3e65dcea	0.22447553
211	0x3edbbd83	0.42918023
212	0x3ecde697	0.4021499
213	0x3ede11c9	0.43372944
214	0x3e6fc349	0.23414339
215	0x3ef9ee4f	0.48814628
216	0x3ebcd64f	0.36882254
217	0x3f2fd479	0.6868358
218	0x3e3964d7	0.18104874
219	0x3eb6a2d5	0.35671106
220	0x3f170c9e	0.5900363
221	0xbd933a98	-0.0718891
222	0x3edf9ef8	0.4367597
223	0x3ef7662e	0.48320144
224	0x3e3953dc	0.18098396
225	0xbdf10281	-0.11768056
226	0x3ddc7897	0.10765188
227	0x3ebaf5ff	0.36515805
228	0x3ecdf9a7	0.40229532
229	0x3e61e133	0.22058563
230	0x3f1c34c3	0.6101801
231	0x3f3a68a7	0.72815937
232	0x3f0177d0	0.50573444
233	0x3eeabe84	0.45848477
234	0x3ea69527	0.3253567
235	0x3f91c2be	1.1387556
236	0x3ea158a5	0.31512943
237	0x3ef1f50c	0.47257268
238	0x3f087403	0.5330202
239	0x3eb4ad7d	0.3528861
240	0x3ea6dc0d	0.3258976
241	0x3eaac593	0.33353862
242	0x3e8237da	0.25433236
243	0x3f0bf199	0.54665524
244	0x3f53dccd	0.8275879
245	0x3eb5aeb5	0.35484853
246	0x3f23cf03	0.6398775
247	0x3eb533ab	0.35390982
248	0x3f14545c	0.5794122
249	0x3f0a166f	0.5394048
250	0x3ecf265a	0.40458947
251	0x3eb11ff7	0.345947
252	0x3f33056c	0.6993015
253	0x3ebd473b	0.36968407
254	0x3f38cd85	0.721886
255	0x3e9837ac	0.29729974

norm_input.bias f4 [1280]
0	0xbbbbac26	-0.005727309
1	0xbc35b0b2	-0.011089491
2	0xbbedcfe9	-0.007257451
3	0x393f7b47	0.00018261104
4	0xba31bd11	-0.0006780187
5	0x3be0431a	0.0068439366
6	0xbbe9079a	-0.007111502
7	0x3c67be14	0.014144439
8	0xbb44c313	-0.00300235
9	0x3c15849b	0.009125854
10	0xbc823701	-0.015895369
11	0xbbbb91b3	-0.005724156
12	0x3c726c28	0.014796294
13	0x3bea6444	0.007153066
14	0xbc2e7919	-0.010648989
15	0x3c9207cf	0.017825989
16	0xbd0254f3	-0.031819295
17	0x3c6bac54	0.014384348
18	0xbbdd24a8	-0.0067487545
19	0x3c3ca51d	0.011513975
20	0x3c5020ea	0.01270316
21	0x3c2b5b08	0.010458715
22	0x3cc67f26	0.024230551
23	0xbcaeea37	-0.021351917
24	0x3ccfc446	0.025362145
25	0x3c53b8e3	0.012922498
26	0x3cb58de2	0.022162382
27	0x3b6e6ce7	0.0036380829
28	0xbc0233eb	-0.0079469485
29	0x3b100274	0.0021974118
30	0xbc96f3c1	-0.018426778
31	0xbb8cb5a6	-0.004294115
32	0x3c3eba2d	0.011641067
33	0x3a749def	0.0009331395
34	0xbb9b4cde	-0.004739388
35	0x3b918683	0.004441084
36	0xbc6150ac	-0.013752144
37	0xbb7d7d86	-0.0038679554
38	0xbb9f35f9	-0.004858729
39	0xbcd3e98b	-0.025868198
40	0xbaa65035	-0.0012688698
41	0xbb6db076	-0.003626851
42	0xba89d447	-0.0010515534
43	0x3c389f22	0.011268409
44	0x3b2ff3b8	0.0026848149
45	0xb6bb98f9	-5.5908426e-06
46	0x3b562a4c	0.003267902
47	0xbaa0a0eb	-0.0012254989
48	0xbb4d9b10	-0.0031372942
49	0xbc62958a	-0.013829598
50	0x3b726e4f	0.0036992019
51	0xbc8484b9	-0.016176568
52	0x39cf1ccb	0.0003950357
53	0x3bfeefa8	0.007780034
54	0xbb1a617e	-0.0023556645
55	0xba8e0f43	-0.0010838289
56	0x3b0dff9d	0.002166725
57	0xbb68b3f4	-0.003550765
58	0x3caecfc9	0.021339314
59	0xbc152691	-0.009103433
60	0xbcabdd52	-0.020979557
61	0xbd10721f	-0.035265084
62	0x394bcb9b	0.00019435438
63	0xbb5527ae	-0.0032524872
64	0xbac90479	-0.0015336416
65	0xbaa36324	-0.0012465459
66	0xbb171689	-0.0023054203
67	0x3a534004	0.00080585503
68	0xbaa9fb51	-0.0012968575
69	0xbb161eee	-0.002290662
70	0xbb1ea1aa	-0.0024205246
71	0x3b740291	0.0037232975
72	0x3c292b2e	0.010325236
73	0xbd2340cd	-0.03985672
74	0x3b66ad03	0.0035198338
75	0xbbda78d1	-0.0066672345
76	0xbc3a11da	-0.011356795
77	0xbc266064	-0.010154817
78	0xbc2a77f4	-0.010404576
79	0xbcf49f48	-0.029861107
80	0xb9303223	-0.00016803345
81	0x3be36eea	0.006940712
82	0x3ade25ca	0.0016948518
83	0xbc3618a0	-0.0111142695
84	0x3b7a8528	0.003822634
85	0xbd09fb54	-0.03368695
86	0x3b67f486	0.003539355
87	0xba912cb7	-0.0011075948
88	0x3c555c93	0.01302256
89	0xbb17a9bb	-0.0023141939
90	0x3bb86f55	0.005628506
91	0x39e0b459	0.0004285898
92	0xbbfc4efd	-0.007699846
93	0xbb9bf23e	-0.004759102
94	0x3b8cddaf	0.0042988877
95	0xbb343aaf	-0.0027500798
96	0xbc1c762f	-0.009549662
97	0x3be27dfb	0.0069119907
98	0x3c129619	0.008946919
99	0x3cb2c5d3	0.021822846
100	0xbc8b558d	-0.017008567
101	0xbb0050bf	-0.0019579378
102	0xbb27bcab	-0.0025594633
103	0xbc194dc4	-0.00935692
104	0xbb574d9a	-0.003285265
105	0xbd307929	-0.043084297
106	0x39a60974	0.0003166903
107	0x3bd39156	0.0064565344
108	0xbc63ec43	-0.01391131
109	0x3c2b927e	0.010471938
110	0xbca29a2b	-0.019848904
111	0xba7cc24d	-0.000964199
112	0xbb77140f	-0.0037701165
113	0xbbcb8004	-0.006210329
114	0xbc707b7e	-0.01467788
115	0xbab9ab83	-0.0014165494
116	0x3b9ac33b	0.0047229803
117	0xbc9a9be6	-0.018873166
118	0xbc110562	-0.008851381
119	0xbca0ebde	-0.01964372
120	0x3c334a1e	0.010942964
121	0xbb657de2	-0.003501766
122	0xb9e2f376	-0.00043287472
123	0x3a8f3e18	0.001092854
124	0x3c2d4447	0.010575361
125	0xbc82a87b	-0.015949478
126	0x3c17dcf8	0.009268992
127	0x3c0c99d8	0.008581601
128	0x3c846703	0.016162401
129	0xbcc3f610	-0.023921043
130	0x3ba19a55	0.004931728
131	0xbc19a473	-0.009377587
132	0x3ae7fb32	0.0017698763
133	0xbb613d03	-0.0034368641
134	0xbc9a8902	-0.018864159
135	0x3c18173b	0.009282882
136	0x3c6b9372	0.014378415
137	0xbbdd294b	-0.0067493073
138	0xbc1c787e	-0.009550212
139	0xbb8f3973	-0.004370862
140	0xbd1be148	-0.03805664
141	0x3a99bf35	0.0011729958
142	0x3b91ec68	0.0044532306
143	0x3a7455b7	0.0009320634
144	0x3c8305b0	0.015993923
145	0xbbaabea3	-0.005210714
146	0xbbe68f8c	-0.007036155
147	0xbc89c491	-0.016817363
148	0x3c5899cc	0.013220262
149	0x3cd8ab73	0.02644894
150	0x3c3f7923	0.011686596
151	0x3c57ed58	0.013179146
152	0x3c25150e	0.010075821
153	0x3d2021e8	0.039094836
154	0x3c8e49c5	0.01736916
155	0xb9d5ee44	-0.00040804048
156	0x3c3716d8	0.01117488
157	0x3c07a72b	0.008279602
158	0xbc856c86	-0.0162871
159	0x3c8d36da	0.01723807
160	0x3b62d9c9	0.0034614673
161	0x3c546548	0.0129636
162	0xbba71684	-0.0050991196
163	0xbd08843a	-0.033329226
164	0x3c1ad01f	0.009449034
165	0x3ae7f742	0.001769759
166	0x3c18fa3f	0.009337007
167	0x3bcdd1f2	0.006281131
168	0x3c548bc8	0.01297278
169	0xbac6d25e	-0.0015168895
170	0xbbc0ba26	-0.0058815656
171	0xbcc91baf	-0.024549333
172	0x3bacde12	0.0052754963
173	0x3930fd78	0.00016879092
174	0x3be7ba98	0.0070718043
175	0x3c10050a	0.008790264
176	0xbb84bccb	-0.004050826
177	0xbc0da2f7	-0.008644811
178	0xbacdc53e	-0.0015699042
179	0xbcbffa89	-0.023434894
180	0xba37d0bb	-0.0007011999
181	0xbd129754	-0.03578885
182	0x3c81fd29	0.015867786
183	0x3ab03cce	0.0013445856
184	0x3bd6a71f	0.006550684
185	0x3ca4d28e	0.020119932
186	0x3c892335	0.01674042
187	0x38ee5cf7	0.000113660404
188	0x3c66fe13	0.014098662
189	0xbca77e96	-0.020446103
190	0xbc7cfe9a	-0.015441561
191	0xbcc7efb9	-0.0244063
192	0xbc1eda2e	-0.009695573
193	0xbb3b8947	-0.002861576
194	0x3bf12839	0.0073595312
195	0x3a0cbdd1	0.0005368861
196	0xbca4683f	-0.02006924
197	0xbc6addbd	-0.014335093
198	0x3c396788	0.011316188
199	0x3d0d328e	0.03447204
200	0xbc3d5bff	-0.011557578
201	0xbbb4cbde	-0.005517467
202	0x3ade78b1	0.0016973225
203	0xbc448c12	-0.011996286
204	0x3b94ca16	0.004540692
205	0xbc566d26	-0.013087546
206	0x3b8e11ea	0.0043356316
207	0x3c2842e8	0.010269858
208	0xbc6808c1	-0.014162243
209	0xbc090a4b	-0.00836427
210	0xbb53ea78	-0.00323358
211	0xbc1b2aba	-0.009470636
212	0x3c135523	0.008992466
213	0x3a491be6	0.00076716987
214	0xbcbf1597	-0.023325725
215	0x3c36d8ac	0.011160057
216	0x3b0b8b77	0.0021292844
217	0xbc6920f8	-0.014229052
218	0xbb3afc15	-0.00285316
219	0x3c0f9d37	0.00876551
220	0x3c0afed8	0.008483611
221	0xbb31b6c1	-0.0027116986
222	0x3b6bc422	0.0035975059
223	0x3c58a506	0.013222938
224	0xbc05978a	-0.0081538055
225	0x3b0583c9	0.002037274
226	0x3bb75346	0.0055946438
227	0xbd05c892	-0.032661982
228	0x3b470ba8	0.0030371938
229	0xbaed7d02	-0.001811892
230	0x3bcf02e2	0.0063174823
231	0xbc19699a	-0.009363556
232	0xbc0dd8c9	-0.008657643
233	0xbca52bae	-0.02016243
234	0x3a26190a	0.00063361286
235	0xbd69b8ed	-0.057061125
236	0x3b3ee231	0.002912652
237	0x3b235eba	0.0024928288
238	0xbbf23d21	-0.007392541
239	0xb9d55834	-0.00040692242
240	0xbb21925d	-0.002465389
241	0xbc342e69	-0.010997393
242	0xbba934dd	-0.0051637725
243	0xbb2398b9	-0.0024962856
244	0xbc75e5b5	-0.01500838
245	0x3c2bb6a7	0.010480559
246	0x3bf66aa1	0.0075200354
247	0x3b01609e	0.0019741426
248	0x3ba7a6cc	0.0051163193
249	0x3b8db53e	0.0043245843
250	0x3adee8f9	0.0017006687
251	0x3b6c3e87	0.0036048011
252	0x3c418293	0.0118109165
253	0xbca66656	-0.02031247
254	0x3bbec892	0.0058222497
255	0xba51999e	-0.0007995608

norm_input.running_mean f4 [1280]
0	0x3f0b1a2a	0.543368
1	0x3e6c622a	0.23084322
2	0x3ee615de	0.44938558
3	0x3d421fa7	0.047393467
4	0x3e475648	0.19466507
5	0xbea07b5a	-0.3134411
6	0x3e4500df	0.19238614
7	0xbf008151	-0.5019732
8	0xbe61aa6e	-0.2203767
9	0xbce6b46c	-0.028162204
10	0x3d8880a7	0.066651635
11	0xbca3aeb6	-0.01998077
12	0x3f222447	0.63336605
13	0xbd545490	-0.051838458
14	0xbe0b7f17	-0.136227
15	0xbe50ba7e	-0.20383641
16	0xbe95c077	-0.29248402
17	0xbce42c71	-0.027853223
18	0xbc10265f	-0.008798211
19	0xbb2cf20e	-0.0026389393
20	0x3e64a044	0.22326761
21	0xbd295099	-0.04133663
22	0x3e07443c	0.13209623
23	0xbed043ad	-0.40676633
24	0xbcb67cdf	-0.02227634
25	0x3dc8a558	0.09797162
26	0xbc828b6c	-0.015935622
27	0xbdc0644e	-0.093941316
28	0xbe7d05ef	-0.24709295
29	0xbe880481	-0.26565936
30	0x3de7ecc3	0.113244556
31	0x3eec8079	0.46191767
32	0xbf0aee53	-0.54269904
33	0x3e6badbc	0.23015493
34	0x3e4db4a7	0.20088445
35	0xbe8b2b8a	-0.27181655
36	0x3da9db63	0.08293798
37	0x3ea58e71	0.32335237
38	0xbcc8b32c	-0.024499498
39	0xbe329f07	-0.17443477
40	0xbe6f2ef0	-0.23357749
41	0x3ec27190	0.37977266
42	0xbdda164b	-0.10648783
43	0xbd10e686	-0.035376094
44	0xbe1fd48a	-0.15608421
45	0xbb225c7d	-0.0024774366
46	0x3cddb09a	0.02706175
47	0xbe790f69	-0.24322285
48	0x3e97ff23	0.2968684
49	0xbd707ea5	-0.058714528
50	0x3cf91dd8	0.030409738
51	0x3d076740	0.03305745
52	0x3cfedf63	0.031112378
53	0xbe95ea33	-0.29280242
54	0xbd0efdad	-0.034909893
55	0xbd1b0664	-0.03784789
56	0xbe0f0435	-0.13966449
57	0xbf0518c0	-0.5199089
58	0xbebac772	-0.3648029
59	0x3d8f5498	0.06998557
60	0xbe368cf9	-0.17827214
61	0xbee498ce	-0.4464783
62	0xbec1755c	-0.3778485
63	0x3f1ba169	0.6079317
64	0xbe8a3cbf	-0.2699947
65	0xbc794faa	-0.015216747
66	0x3cfe230a	0.031022567
67	0x3d05770a	0.032584228
68	0xbdddf5f6	-0.10837929
69	0xbecc0f63	-0.3985549
70	0xbe8cde9c	-0.27513587
71	0xbe87e255	-0.26539865
72	0xbe3c08bb	-0.18362705
73	0x3f172c25	0.59051734
74	0xbeef78a8	-0.4677174
75	0xbcac7fd2	-0.021057043
76	0xbdb2d88c	-0.08732709
77	0xbca77b59	-0.020444559
78	0x3e5abc7d	0.21360965
79	0xbdfb00b6	-0.12255995
80	0x3d9d6fc5	0.07687334
81	0x3e31cd99	0.17363586
82	0xbf1ca418	-0.6118789
83	0x3e06532c	0.13117665
84	0x3f2a587d	0.6654127
85	0x3ec605d9	0.38676336
86	0x3e0e1ebc	0.13878912
87	0x3d5f5a9f	0.054529782
88	0x3e138d5b	0.14409392
89	0x3eb6f2d4	0.35732138
90	0x3e5e5a55	0.21714146
91	0x3e8703a5	0.26369968
92	0xbe0bd1f6	-0.13654312
93	0xbef79834	-0.4835831
94	0xbe79cf94	-0.24395591
95	0xbeae82c8	-0.34084153
96	0x3ce4a0bc	0.027908675
97	0xbf57bc1f	-0.84271425
98	0x3ef740cd	0.48291627
99	0x3d917e96	0.071042225
100	0xbf10b58b	-0.5652701
101	0xbeefa635	-0.46806493
102	0x3e767f64	0.24072033
103	0xbe5624d2	-0.20912483
104	0xbdef3dfc	-0.116817445
105	0xbe12756e	-0.14302608
106	0xbe0a418b	-0.13501565
107	0x3f205b7a	0.6263958
108	0x3d3368cd	0.043801118
109	0x3ee00d27	0.43760034
110	0x3d2e2135	0.042512137
111	0xbe284300	-0.16431808
112	0x3d01cc44	0.031688944
113	0x3baa1bca	0.005191301
114	0xbe9062d5	-0.28200403
115	0xbe0cbe76	-0.1374453
116	0xbe2d8150	-0.1694386
117	0xbe8e4269	-0.27785042
118	0x3ef2739e	0.47353834
119	0x3e97fea2	0.29686457
120	0xbca748fc	-0.020420544
121	0x3e7bea84	0.2460118
122	0x3d2366c7	0.039892938
123	0x3dcb789a	0.09935112
124	0xbca37e70	-0.019957751
125	0xbdac26dd	-0.0840585
126	0x3d73647e	0.05942201
127	0x3c83acb9	0.016073572
128	0xbf03a5dc	-0.51424956
129	0xbe185450	-0.14875913
130	0xbeec5e3c	-0.46165645
131	0x3e980d90	0.29697847
132	0xbe95a19c	-0.2922486
133	0xbb4789bd	-0.0030447089
134	0x3d0fa5d4	0.035070255
135	0xbf0b7903	-0.54481524
136	0xbe757a13	-0.23972349
137	0x3ea4da1e	0.3219766
138	0xbdb2651f	-0.087106936
139	0xbd85242d	-0.065010406
140	0x3e2f297e	0.17105672
141	0x3e4c36e9	0.19942822
142	0xbdb7b335	-0.08969728
143	0xba45ecf2	-0.0007550261
144	0x3dec89a7	0.115496926
145	0xbe2d3fd0	-0.16918874
146	0xbea515e0	-0.32243252
147	0x3e4651bc	0.19367117
148	0x3d2649ee	0.04059785
149	0xbe4d4cd2	-0.20048836
150	0xbcd9e367	-0.026597692
151	0x3e0a63ef	0.13514684
152	0x3ef010d1	0.4688783
153	0x3e8831ff	0.26600644
154	0xbe21e68c	-0.15810603
155	0xbcc75122	-0.02433068
156	0xbe66ca58	-0.22538126
157	0xbe34e838	-0.1766671
158	0xbf213998	-0.62978506
159	0x3e4a6ce9	0.19768108
160	0xbc88588c	-0.016643785
161	0x3df4c5cf	0.119517915
162	0x3e4aee2c	0.19817418
163	0xbeeb6824	-0.4597789
164	0x3eb80e71	0.35948518
165	0xbdd658f3	-0.104661845
166	0xbf13bfe6	-0.5771469
167	0xbd973bb4	-0.07384434
168	0xbded60dd	-0.11590741
169	0xbd5b66c6	-0.05356481
170	0x3e83f118	0.25769877
171	0xbee87d37	-0.4540803
172	0x3eed8d87	0.4639704
173	0x3e88c3fa	0.26712018
174	0xbefbf35d	-0.4920911
175	0xbe0790ad	-0.13238783
176	0x3ec72c3d	0.3890094
177	0x3ed9b4c5	0.4252073
178	0x3e61d24b	0.22052877
179	0xbef2aff7	-0.47399876
180	0xbe073712	-0.13204601
181	0x3eb1003d	0.34570494
182	0xbcb92eaa	-0.022605259
183	0xbe2ed726	-0.1707426
184	0xbd0985d7	-0.033574905
185	0x3e6396b8	0.22225463
186	0x3e77173e	0.2412996
187	0xbd6b25a0	-0.05740893
188	0xbf0d0559	-0.55086285
189	0x3da277d7	0.07933014
190	0x3e3ce3eb	0.18446319
191	0x3e3a18c0	0.18173504
192	0x3e90d787	0.28289434
193	0xbe5c9e51	-0.21544768
194	0x3e0176f0	0.12643027
195	0x3e0ed829	0.13949646
196	0x3e82dd3b	0.2555941
197	0x3e61ce69	0.22051395
198	0xbea0ab51	-0.31380704
199	0xbf5b30aa	-0.8562113
200	0xbe86f051	-0.26355222
201	0xbe300440	-0.17189121
202	0xbee43c1d	-0.44577113
203	0x3efa43ed	0.48879948
204	0x3ee60423	0.4492503
205	0xbe11ba7d	-0.14231296
206	0x3e334b95	0.17509301
207	0xbdf1dc4f	-0.11809599
208	0x3de11ad5	0.10991446
209	0xbd3c7f9b	-0.04602013
210	0x3edcae23	0.43101606
211	0xbdfc1138	-0.12307972
212	0x3e9f6a47	0.3113577
213	0x3ecc9134	0.3995453
214	0x3f8afe73	1.0858902
215	0xbe4ead7f	-0.20183371
216	0x3e0d3d0c	0.13792819
217	0x3d464f95	0.04841574
218	0x3e25da89	0.16196646
219	0x3e0603c1	0.1308737
220	0xbe0405f4	-0.12892896
221	0xbcae3b1d	-0.021268422
222	0xbd80fb5c	-0.06297943
223	0xbe493c61	-0.19651939
224	0xbd9a5fc0	-0.07537794
225	0x3f157e9f	0.58396333
226	0xbeac4fd8	-0.33654666
227	0xbf39a5a5	-0.7251838
228	0xbc16fb14	-0.009215135
229	0xbe9fd999	-0.312207
230	0xbbf8c3a8	-0.0075916834
231	0x3ea2e837	0.3181779
232	0xbe5e4f96	-0.21710047
233	0xbd0c3df5	-0.034238774
234	0xbe7f259b	-0.24916689
235	0x3ddabf40	0.10681009
236	0xbd54e3d4	-0.051975086
237	0x3daf179d	0.08549426
238	0xbc88f4fd	-0.016718382
239	0x3df38257	0.11890095
240	0xbe17f496	-0.14839396
241	0xbe9dbaf8	-0.30806708
242	0x3db9d5f3	0.09074011
243	0xbea73ca5	-0.32663456
244	0xbe9417ea	-0.28924495
245	0x3d6a909b	0.057266813
246	0x3d5af0f1	0.053452436
247	0xbe413b8d	-0.18870373
248	0xbe49bb0f	-0.19700263
249	0x3d14d2b6	0.036333762
250	0xbe881777	-0.26580402
251	0x3d96619e	0.07342838
252	0x3dee838e	0.11646186
253	0xbd8726b3	-0.06599178
254	0xbf094657	-0.53622955
255	0xbdbeecf9	-0.09322543

norm_input.running_var f4 [1280]
0	0x3fd033c6	1.62658
1	0x3fe71c28	1.8055468
2	0x3fcf2ef7	1.6186208
3	0x3fea9762	1.8327448
4	0x3ff9fe9f	1.9530829
5	0x4011874c	2.2738829
6	0x3fe3a1b6	1.7783725
7	0x4003dc9d	2.0603402
8	0x3fe3fe62	1.7812006
9	0x40093d6f	2.1443746
10	0x3fb59fb1	1.4189359
11	0x3faf68ac	1.3703818
12	0x3fd35675	1.651076
13	0x3fd56b13	1.6673301
14	0x3f9d8884	1.2307286
15	0x40107f05	2.2577527
16	0x3fb8855a	1.4415696
17	0x40002241	2.0020907
18	0x3fede248	1.858468
19	0x3fde14fb	1.7350153
20	0x3fe5a9f6	1.7942493
21	0x3fde23e2	1.73547
22	0x3fd5cd6a	1.6703312
23	0x3fdfa1c9	1.7471248
24	0x3fb5a8e2	1.4192164
25	0x4016e7bb	2.3578937
26	0x3ff1b9cb	1.8884825
27	0x3fc49c08	1.5360117
28	0x3fd09cf8	1.6297903
29	0x3fb85678	1.4401388
30	0x3fde060b	1.7345594
31	0x3fdd0c9e	1.7269475
32	0x407863f4	3.8811007
33	0x3fdd4635	1.728705
34	0x4003053e	2.047195
35	0x3fb2d32d	1.3970696
36	0x3fb80ce2	1.4378932
37	0x3ff55c93	1.9168876
38	0x3fb104e1	1.3829614
39	0x3ffbc43a	1.9669259
40	0x3fe1c10e	1.7637041
41	0x3fd556e7	1.6667145
42	0x4006224d	2.0958436
43	0x3fd7fdc2	1.6874316
44	0x41a36bc2	20.427616
45	0x3fbc3291	1.4702932
46	0x3fd60e5b	1.6723131
47	0x3fef3abd	1.86898
48	0x3fccec3b	1.6009592
49	0x3fe4f1a9	1.7886249
50	0x3fdc94c7	1.7232903
51	0x400216d1	2.0326426
52	0x3fdfb174	1.7476029
53	0x3fced0e0	1.6157494
54	0x3fb6084c	1.4221282
55	0x40047c44	2.0700846
56	0x3fec5f52	1.846659
57	0x4009357f	2.1438901
58	0x3ff5219c	1.9150882
59	0x3fd913fa	1.6959221
60	0x402d6bea	2.7097116
61	0x3fd90720	1.6955299
62	0x3fdefd10	1.7420979
63	0x3fcd63fd	1.6046139
64	0x3faa100e	1.328615
65	0x3fe95972	1.8230422
66	0x3fd68b3a	1.6761239
67	0x3ffa4cc8	1.9554682
68	0x3fb1c434	1.3888001
69	0x3fd4c9ab	1.6624044
70	0x4031f4bf	2.780563
71	0x4071f6a1	3.780678
72	0x3fb13e40	1.3847122
73	0x3fed1a5b	1.8523668
74	0x3fd97609	1.6989146
75	0x401d0d8e	2.4539523
76	0x3fee62e2	1.8623927
77	0x3fd4a1f9	1.661193
78	0x3fce8c45	1.6136557
79	0x4003d249	2.0597098
80	0x3fd47642	1.659859
81	0x3ff4e40d	1.9132096
82	0x402a3a7a	2.6598191
83	0x3fdf6e6a	1.7455571
84	0x3fcebad8	1.615077
85	0x3fbc9f0d	1.4736038
86	0x3fd64a71	1.6741468
87	0x400e35c4	2.2220316
88	0x3fc4d81a	1.5378449
89	0x3fba11bd	1.4536663
90	0x3fee9b55	1.8641154
91	0x3ff26b51	1.8939
92	0x3fcbd157	1.592326
93	0x40553603	3.3314216
94	0x3fcd46da	1.6037247
95	0x3fc8bd9c	1.5682864
96	0x3fd9b5e8	1.7008638
97	0x3fdfa9ae	1.7473657
98	0x3fcd26bc	1.6027446
99	0x3fd3b87a	1.6540673
100	0x400cbf2b	2.199168
101	0x400baa8a	2.1822839
102	0x3fa8d1c7	1.3189019
103	0x40140b0a	2.3131738
104	0x3fc90228	1.5703783
105	0x3fd9eaa2	1.7024729
106	0x3fdeeb5c	1.7415576
107	0x4028fff2	2.6406217
108	0x4033b261	2.8077624
109	0x4002dda4	2.0447779
110	0x3fb9b918	1.4509611
111	0x3fa8bb06	1.3182075
112	0x3fd8be57	1.6933087
113	0x3fdbec87	1.7181557
114	0x3ff3f8c2	1.906029
115	0x403201f1	2.7813685
116	0x3ff23046	1.8920982
117	0x3fd9bca9	1.70107
118	0x3ff4afb2	1.9116118
119	0x3fd1d414	1.6392846
120	0x3fd10724	1.6330304
121	0x3fddc352	1.7325232
122	0x3feef481	1.8668367
123	0x3fef5e7d	1.870071
124	0x3fbc7291	1.4722463
125	0x3faed36a	1.3658268
126	0x3fb8e15d	1.4443775
127	0x3fd64ffc	1.6743159
128	0x3ff7260b	1.9308485
129	0x3fc0adbe	1.5053022
130	0x402ca000	2.6972656
131	0x3ffd803b	1.9804758
132	0x3fd5b7c7	1.6696709
133	0x3fb60011	1.421877
134	0x3fb4e4cb	1.4132322
135	0x3fe27d18	1.7694426
136	0x3fcdbaa0	1.6072578
137	0x3fc39e2f	1.5282649
138	0x3fbf918e	1.4966295
139	0x3fd489ed	1.6604592
140	0x3fc9578d	1.5729843
141	0x3fbfd05c	1.4985461
142	0x4006f1d6	2.1085105
143	0x3ff44ec9	1.9086543
144	0x3fd83a73	1.6892837
145	0x3fb10d3a	1.3832161
146	0x3fc64f06	1.5492866
147	0x3fdc0bc8	1.7191095
148	0x3fd35bfc	1.6512446
149	0x3fc9aac9	1.5755244
150	0x3fb1b19c	1.3882327
151	0x3fb6a6b7	1.4269627
152	0x3fc3e2ef	1.530363
153	0x3fd61901	1.672638
154	0x3fd75803	1.6823734
155	0x3fd4798d	1.6599594
156	0x3fdda6bc	1.7316508
157	0x3fd770bc	1.6831279
158	0x3fec03c0	1.8438644
159	0x3fd5142e	1.6646783
160	0x3fecfa46	1.8513877
161	0x3fc8cec8	1.5688105
162	0x3fb2bf75	1.3964678
163	0x3fd55028	1.6665087
164	0x3fdac176	1.709029
165	0x3fbddfa0	1.483387
166	0x3fe99054	1.824717
167	0x3fcaec57	1.5853375
168	0x3fda7c65	1.7069212
169	0x3fca5530	1.5807247
170	0x3fc73c5e	1.5565298
171	0x400d8f76	2.2118812
172	0x3ff23031	1.8920957
173	0x3fe04773	1.7521805
174	0x3fdbc85f	1.7170523
175	0x405b6aac	3.4283857
176	0x3fbd5d4a	1.4794095
177	0x3fcb99fa	1.5906365
178	0x3fcbc4bd	1.5919415
179	0x3fdd52d0	1.7290897
180	0x3fceba39	1.6150581
181	0x400f3da1	2.2381365
182	0x3fb88f96	1.4418819
183	0x3fc08a51	1.5042211
184	0x3fad6e0c	1.3549209
185	0x3fc4181c	1.5319858
186	0x3ff1144a	1.8834317
187	0x3fdedad3	1.741053
188	0x3fea4879	1.8303367
189	0x401490ba	2.3213334
190	0x3fda09bb	1.703422
191	0x3fa7b00b	1.3100599
192	0x3fd1028f	1.6328906
193	0x3fe5fab5	1.7967135
194	0x3fc26c33	1.518927
195	0x3fc6f259	1.5542709
196	0x3fb2b5e7	1.3961762
197	0x3ff43acb	1.9080442
198	0x3fd537a1	1.6657602
199	0x3ffc0fca	1.9692318
200	0x3fedd133	1.8579468
201	0x3fb5c0f8	1.4199514
202	0x3fea82ae	1.832113
203	0x3fb7342e	1.4312799
204	0x3fbbfa23	1.4685711
205	0x3fa3a8e5	1.2785918
206	0x400e30a0	2.2217178
207	0x3ff3d032	1.9047911
208	0x3fbef835	1.4919497
209	0x3fc48ce2	1.5355494
210	0x3fd38d61	1.652752
211	0x3fbd7167	1.4800233
212	0x400aef08	2.1708393
213	0x3fd25914	1.6433434
214	0x4036d2ab	2.8566082
215	0x3facf8cd	1.3513428
216	0x40007c94	2.0076036
217	0x3fc69612	1.5514548
218	0x3fac7575	1.3473345
219	0x3ff224c8	1.8917475
220	0x3ff1b0df	1.8882102
221	0x3fb2b2e3	1.3960842
222	0x3fb2e67d	1.397659
223	0x3fc3d5db	1.5299639
224	0x3fbb6e13	1.4642967
225	0x3ff80385	1.9376074
226	0x3fe442c9	1.7832881
227	0x3fc59fad	1.5439354
228	0x3fbbf1ae	1.468313
229	0x3ff3862f	1.9025325
230	0x3ff0332c	1.8765616
231	0x3fbd8fac	1.480947
232	0x3faa507d	1.3305813
233	0x3fdf583e	1.7448804
234	0x3fc60f2a	1.5473378
235	0x3fb7fdd0	1.4374332
236	0x3fafbb68	1.3729067
237	0x3fb1331d	1.3843724
238	0x3fc3da8a	1.5301068
239	0x3fa0c463	1.2559932
240	0x3fd7c217	1.6856107
241	0x3fdc6072	1.7216933
242	0x3fbdb64b	1.4821256
243	0x4008b2c0	2.13591
244	0x3fea3e50	1.8300266
245	0x3fd59a85	1.6687781
246	0x3ff4a8c7	1.9114007
247	0x3fd7d3b5	1.6861483
248	0x401836e9	2.3783514
249	0x400795cf	2.1185186
250	0x3fc9eb10	1.577486
251	0x3fce44d8	1.611476
252	0x402daa57	2.7135217
253	0x3fefe8f9	1.8742973
254	0x3fecdbda	1.8504593
255	0x3fbb1ba9	1.4617816

transformer.norm.weight f4 [1280]
0	0x3edcbeb0	0.43114233
1	0x3f26bf10	0.6513529
2	0x3e0039ab	0.12521999
3	0x3ec51077	0.38489124
4	0x3eadd1a4	0.33949006
5	0x3ec0ae48	0.37632966
6	0x3ea988cb	0.33112177
7	0x3f3145e0	0.69247246
8	0x3f1a96b0	0.6038618
9	0x3ea64f21	0.32482246
10	0x3efe612b	0.49683508
11	0x3d448a49	0.04798344
12	0x3f0ab4e0	0.54182243
13	0x3eac7818	0.33685374
14	0x3e2ffb91	0.17185809
15	0x3e428a90	0.1899817
16	0x3e9e67cb	0.30938563
17	0x3f07b20d	0.5300606
18	0x3eb8dd0d	0.36106148
19	0x3f31ad7c	0.6940534
20	0x3f0299f0	0.5101614
21	0x3f191f0e	0.5981301
22	0x3eede77b	0.46465668
23	0x3f29f5b9	0.6639057
24	0x3f33d325	0.70244056
25	0x3f12b0b7	0.57300895
26	0x3f6b1b1e	0.9183825
27	0x3ecb44e4	0.39700997
28	0x3f92cefd	1.1469418
29	0x3f305ac8	0.6888852
30	0x3ec3758c	0.3817562
31	0xbef40f98	-0.47668147
32	0x3ee17609	0.44035366
33	0x3ec7572a	0.38933688
34	0x3d487eb5	0.048948962
35	0x3ebde6d7	0.3709018
36	0x3f2dc1d7	0.678739
37	0x3efc7c1f	0.49313447
38	0x3f18a3f7	0.5962519
39	0x3f87fa9f	1.0623358
40	0x3f21f65a	0.6326653
41	0x3f0999b9	0.5375019
42	0x3dd85f70	0.10565078
43	0x3eafe3f9	0.34353617
44	0xbc93df8f	-0.018050937
45	0x3e22f12a	0.1591231
46	0x3e93392c	0.28754556
47	0x3da452c6	0.080236
48	0x3ebbdcfc	0.36692035
49	0x3f3ed3dd	0.7454203
50	0x3f51a74e	0.8189591
51	0x3f3eb1f2	0.74490273
52	0x3f0e6c1e	0.55633724
53	0x3f35ec6c	0.71063876
54	0x3f7613ed	0.96124154
55	0x3ee4c8a8	0.4468434
56	0x3ed6f35c	0.41982543
57	0x3e819141	0.25306132
58	0x3f21ea5e	0.6324824
59	0x3eafefe2	0.34362704
60	0x3f34feed	0.70701486
61	0x3e8ddf48	0.27709413
62	0x3e8576e2	0.26067263
63	0x3f463b6d	0.77434427
64	0x3d7e9560	0.062154174
65	0x3f029213	0.5100414
66	0x3e56bd62	0.20970681
67	0x3e86478b	0.26226458
68	0xbe5dbe42	-0.21654609
69	0x3eddb59f	0.43302628
70	0x3f410651	0.75400263
71	0x3e0f43f4	0.13990766
72	0x3f15b9e7	0.5848679
73	0x3f4a6734	0.79063725
74	0xbf016016	-0.5053724
75	0x3eb3d231	0.351213
76	0x3f6b642f	0.91949743
77	0x3eebec3f	0.4607868
78	0x3f589426	0.84601057
79	0x3f6422da	0.8911568
80	0x3ea34b7e	0.31893533
81	0x3f4503db	0.7695901
82	0x39cadda6	0.00038693583
83	0x3ef466cc	0.47734678
84	0x3e70f59b	0.23531191
85	0x3f8053d8	1.0025587
86	0x3f7fa308	0.9985814
87	0x3ee1aca3	0.44077024
88	0x3f59e950	0.8512163
89	0x3f411804	0.7542727
90	0x3ee5df20	0.44896793
91	0x3f4100a1	0.75391585
92	0x3ec0068d	0.37504998
93	0x3b3ac985	0.0028501463
94	0x3ecae2db	0.39626202
95	0x3f6107ff	0.87902826
96	0x3f1b5010	0.6066904
97	0x3f20cd5b	0.6281335
98	0x3e1c22d4	0.15247661
99	0x3f7e39ce	0.9930695
100	0xbdec0c6c	-0.11525807
101	0x3e5a60d9	0.21326007
102	0x3e88b30f	0.2669911
103	0xbdfc2896	-0.12312429
104	0x3dc31e49	0.09527261
105	0x3f81ee9d	1.0150944
106	0x3f4f1fcb	0.8090789
107	0x3da4b97e	0.08043192
108	0x3ed3572b	0.4127744
109	0x3f22da36	0.63614213
110	0x3ed85dc3	0.42259035
111	0x3eb21b22	0.34786326
112	0x3f463c51	0.77435786
113	0x3e8d7f03	0.27635965
114	0x3eebab75	0.4602925
115	0x3ef89dc9	0.4855788
116	0x3d4565dc	0.048192844
117	0x3f282b70	0.6569128
118	0x3e3adbf7	0.18247972
119	0x3f1ca7a3	0.61193293
120	0x3f08eadf	0.53483385
121	0x3e420ca7	0.18950139
122	0x3ed2c47b	0.41165528
123	0x3e7c403f	0.24633883
124	0x3edae949	0.42756107
125	0x3f5e3d2a	0.8681208
126	0x3f866500	1.0499573
127	0x3f7fdd2b	0.9994685
128	0x3f1a5f5e	0.6030177
129	0xbe463f38	-0.19360054
130	0xbe6f81ac	-0.2338931
131	0x3f53c7ae	0.8272656
132	0x3f17e7cf	0.59338087
133	0x3ef1dbed	0.47238103
134	0x3f07df92	0.53075516
135	0x3e89278a	0.26787978
136	0x3f2cfc20	0.6757221
137	0x3f1b405b	0.60645074
138	0x3e954865	0.29156795
139	0xbbd39203	-0.006456615
140	0x3e9bce7a	0.30430967
141	0x3efa71cf	0.48914954
142	0x3f6b2320	0.9185047
143	0x3dac1698	0.08402747
144	0x3f27b064	0.65503526
145	0x3ec4cd7e	0.38438028
146	0x3dd2cf44	0.10293439
147	0x3f47043f	0.77740854
148	0x3f23b8e2	0.63953984
149	0x3f224bc1	0.6339684
150	0x3e8063b9	0.25076082
151	0x3f144c56	0.5792898
152	0x3efd1d51	0.4943643
153	0x3f1f4a10	0.62222385
154	0x3ed2b357	0.4115245
155	0x3d0ef9a6	0.034906052
156	0x3e7080bc	0.23486608
157	0x3e65ff55	0.22460683
158	0x3e8dd619	0.27702406
159	0x3f2b3648	0.668797
160	0x3d16d430	0.03682345
161	0x3f0e198b	0.55507725
162	0x3f4021f6	0.7505182
163	0x3f287066	0.65796506
164	0x3f4e4f79	0.80590016
165	0xbe71c54f	-0.23610424
166	0x3f02f9ae	0.5116223
167	0x3ea1bba2	0.31588465
168	0xbf07e95d	-0.5309046
169	0x3f1b4f15	0.60667545
170	0xbe80c7c8	-0.2515242
171	0x3f03b8d7	0.5145392
172	0x3f02a9e2	0.5104047
173	0x3ec81627	0.390794
174	0x3f23b0cd	0.6394165
175	0xbefcf911	-0.49408773
176	0x3f109931	0.5648375
177	0x3e47df6c	0.19518822
178	0x3f3a3f11	0.7275248
179	0x3f2ce341	0.6753426
180	0x3f29cc5a	0.6632744
181	0x3f7154a4	0.94269776
182	0x3ef368fa	0.47541028
183	0xbe43a158	-0.19104517
184	0x3eba667e	0.3640632
185	0x3f30c4d4	0.69050336
186	0x3ebd5cb0	0.36984777
187	0x3f28c88b	0.65931004
188	0x3e8cf88b	0.27533373
189	0x3f927109	1.1440746
190	0x3f208cc6	0.62714803
191	0x3efef7d5	0.49798456
192	0x3eb556bd	0.3541774
193	0x3e3e06ad	0.18557234
194	0x3f08fdc9	0.53512245
195	0x3ef4727e	0.477436
196	0x3f2a0e8b	0.6642844
197	0x3f199f87	0.60009044
198	0x3ef0ee02	0.47056586
199	0x3f1935d0	0.59847736
200	0xbe78c856	-0.24295172
201	0x3eb0e1d3	0.3454729
202	0x3ec688b5	0.38776174
203	0x3e8521be	0.26002306
204	0x3f0c3f2f	0.5478391
205	0x3ea14081	0.31494525
206	0x3e349acc	0.17637175
207	0x3e69bdaf	0.22826265
208	0x3f6bcfcb	0.9211394
209	0x3cc90273	0.0245373
210	0x3e00a39f	0.12562416
211	0x3ed82fc5	0.42223945
212	0x3ea911c2	0.3302136
213	0x3ee166cb	0.44023737
214	0xbea219c6	-0.3166029
215	0x3ed0ed7d	0.4080619
216	0x3eb8653c	0.36014736
217	0x3f345ea1	0.7045689
218	0xbddad390	-0.106848836
219	0x3e871def	0.26390025
220	0x3f07aaff	0.52995294
221	0xbc8da5eb	-0.01729103
222	0x3ed01aba	0.4064539
223	0x3ed18aaa	0.40926105
224	0x3d9e2036	0.077209875
225	0x3de1fa23	0.11034038
226	0x3c4e567a	0.01259386
227	0x3e9394d4	0.28824484
228	0x3e924e02	0.2857514
229	0x3d947fcb	0.07250937
230	0x3f16a83b	0.5885045
231	0x3f31d366	0.69463193
232	0x3f06187b	0.52381104
233	0x3ed1e5ff	0.40995786
234	0x3e9d1b8a	0.30685073
235	0x3fa378a8	1.2771196
236	0x3e71bb86	0.23606691
237	0x3ed461c3	0.41480836
238	0x3ef5ed15	0.48032442
239	0x3e974ede	0.29552358
240	0x3e6fe130	0.23425746
241	0x3e830423	0.25589094
242	0x3e5e6142	0.21716788
243	0x3f143597	0.5789427
244	0x3f5065ce	0.8140534
245	0x3e97e39c	0.2966584
246	0x3f13c6bc	0.5772512
247	0x3e55fb99	0.20896758
248	0x3efe5548	0.4967444
249	0x3edd7811	0.43255666
250	0x3e959e99	0.29222563
251	0x3e58b946	0.21164426
252	0x3f342c46	0.70380056
253	0x3ede31e7	0.43397447
254	0x3f383be7	0.71966404
255	0x3e33052f	0.17482446

transformer.norm.bias f4 [1280]
0	0x3c85ec91	0.016348155
1	0xbd7e1698	-0.062033266
2	0x3daeb4be	0.085305676
3	0xbcc26790	-0.023731023
4	0x3dd09197	0.10184019
5	0xbe334f9a	-0.17510834
6	0x3dc44a55	0.0958449
7	0x3dea611e	0.11444305
8	0x3e01fada	0.12693349
9	0xbc6cc3aa	-0.014450947
10	0x3b56c1e1	0.003276937
11	0x3e7f4d1b	0.24931757
12	0x3e8e509d	0.27795878
13	0x3e002f1a	0.12517968
14	0x3d27bf63	0.040954005
15	0x3e098214	0.13428527
16	0xbd46e96a	-0.048562445
17	0xbd87ad11	-0.06624807
18	0xbd6cf21d	-0.057848085
19	0xbd805fd3	-0.06268277
20	0xbe24e3c7	-0.16102515
21	0xbe496173	-0.1966608
22	0x3e1fb60d	0.1559679
23	0x3dd7a441	0.10529376
24	0x3d56fccd	0.052487183
25	0xbeab15c0	-0.3341503
26	0xbe9420b4	-0.289312
27	0xbda13b11	-0.07872594
28	0x3eeac6ed	0.45854893
29	0xbe2e0c13	-0.16996793
30	0xbe54c2fd	-0.20777507
31	0xbe88567c	-0.26628482
32	0xbeaed7f9	-0.3414915
33	0x3e515f8d	0.20446606
34	0x3e05a40c	0.1305086
35	0x3e6d084c	0.23147696
36	0x3f24ba2b	0.6434657
37	0xbdbde368	-0.0927189
38	0xbe4b16f3	-0.19832973
39	0x3ea0174e	0.3126778
40	0x3e990b5f	0.29891488
41	0xbe812f3b	-0.25231346
42	0x3e276f79	0.16351117
43	0x3d73ba78	0.059504002
44	0x3bdde008	0.0067710914
45	0xbd1b7fa1	-0.037963513
46	0xbea617cb	-0.32440028
47	0x3e473203	0.19452672
48	0x3e1ca321	0.15296604
49	0x3e360227	0.17774259
50	0x3ca770ac	0.020439468
51	0xbc1bc1f8	-0.009506695
52	0xbed864c8	-0.4226439
53	0xbea13f55	-0.3149363
54	0xbccab5ea	-0.024744947
55	0xbdeba6b1	-0.11506403
56	0x3e691d9d	0.22765203
57	0x3d7d8c22	0.06190122
58	0xbd6fe299	-0.05856571
59	0x3d9da582	0.07697584
60	0x3b62d6b4	0.0034612836
61	0xbea4fc96	-0.32223958
62	0x3ea734d6	0.32657498
63	0x3d6a7981	0.05724478
64	0xbcc7c77c	-0.024387114
65	0xbe2e5a78	-0.17026699
66	0x3e1f1d6f	0.15538572
67	0x3e361b6a	0.17783895
68	0x3d2c4535	0.04205819
69	0x3da57971	0.08079804
70	0x3ce26f96	0.027641099
71	0xbd4e58bb	-0.05037759
72	0x3e775cfd	0.24156566
73	0x3e6455d4	0.22298366
74	0x3db6d027	0.08926421
75	0x3ec0e49c	0.37674415
76	0x3da9947f	0.082802765
77	0xbe23f961	-0.16013099
78	0xbe8858d8	-0.26630282
79	0x3e722be9	0.23649563
80	0xbe380d00	-0.17973709
81	0xbe7ee43d	-0.24891753
82	0x3d82953d	0.06376121
83	0xbe5c7f60	-0.21532965
84	0xbd0442cb	-0.03229026
85	0xbd0c7549	-0.03429154
86	0x3dae59c3	0.085132144
87	0xbd38f2fb	-0.0451536
88	0xbea598f4	-0.32343256
89	0x3e47541f	0.19465683
90	0xbe9935b2	-0.2992378
91	0x3c7f786a	0.015592674
92	0xb89445d9	-7.0702e-05
93	0x3db305c4	0.08741334
94	0xbd2e3859	-0.042534206
95	0x3c6dd21a	0.014515424
96	0xbd404bf4	-0.046947435
97	0xbe366846	-0.17813215
98	0x3e19ca28	0.15018523
99	0xbe82f026	-0.25573844
100	0x3d677d94	0.056516245
101	0x3e9378fc	0.2880324
102	0x3ac50f58	0.001503448
103	0x3de1e4f2	0.11029996
104	0xbce8b3bd	-0.028406018
105	0xbe28a2c7	-0.16468345
106	0x3c71f03b	0.014766748
107	0xbe41f5f4	-0.1894148
108	0x3dc17d82	0.09447767
109	0xbd81612d	-0.06317363
110	0xbe8617d0	-0.26190042
111	0x3eb1e48f	0.3474469
112	0x3dd42edf	0.103605025
113	0xbc8d436b	-0.017244061
114	0xbe2688bb	-0.16263096
115	0x3e199d7f	0.15001486
116	0x3d8fc798	0.07020491
117	0x3e6a3753	0.22872667
118	0xbb1df208	-0.002410056
119	0xbe5c18b6	-0.21493801
120	0x3b3b0dd1	0.002854217
121	0x3da51b29	0.08061821
122	0x3e24b8ae	0.16086075
123	0xbc9446ed	-0.018100226
124	0x3e1efe10	0.15526605
125	0xbe90e4d8	-0.28299594
126	0x3e9050f8	0.28186774
127	0x3e1991c3	0.1499701
128	0x3c67de32	0.014152097
129	0x3de04275	0.10950176
130	0x3e174c38	0.14775169
131	0xbe0af699	-0.13570632
132	0xbda31f36	-0.079649374
133	0x3d064324	0.032778874
134	0xbd9bb6c8	-0.07603222
135	0xbda28648	-0.07935768
136	0xbe5a8d01	-0.21342851
137	0x3929a7f5	0.00016179665
138	0xbc52ca54	-0.012865622
139	0x3d35568b	0.044271987
140	0xbe3b50e8	-0.18292582
141	0xbe444f86	-0.19170961
142	0x3b375cb9	0.002797885
143	0xbd93f663	-0.07224729
144	0xbe5696df	-0.2095599
145	0x3d5734a0	0.05254042
146	0xbdd283cf	-0.10279047
147	0xbe13e625	-0.14443262
148	0xbe2caf9d	-0.16863866
149	0xbd89f35b	-0.067358695
150	0xbd1c2afa	-0.038126923
151	0x3d237e5e	0.039915435
152	0xbe48c8cb	-0.19607846
153	0xbe58de83	-0.21178631
154	0xbd397d61	-0.045285586
155	0x3cfb37ea	0.03066631
156	0xbe4107de	-0.18850657
157	0xbe195137	-0.14972387
158	0x3ddf0a72	0.10890664
159	0x3ddf0f68	0.108916104
160	0x3e483ec2	0.1955519
161	0xbdd53bc3	-0.10411789
162	0xbe107e53	-0.14110689
163	0x3e6ce6e8	0.23134959
164	0xbcbf7df0	-0.023375481
165	0xbd942c19	-0.072349735
166	0xbdd05d34	-0.10174027
167	0x3e4574f1	0.19282891
168	0x3e13068a	0.14357963
169	0x3e7e3fc5	0.24829014
170	0xbd18d780	-0.03731489
171	0x3de02ef5	0.10946456
172	0xbe343c43	-0.17601113
173	0x3dbf77cb	0.093490206
174	0x3d0c2f03	0.03422452
175	0xbdc50bad	-0.096213676
176	0x3d4f714d	0.05064516
177	0xbda113be	-0.07865094
178	0x3b783c61	0.0037877786
179	0xbe8a2b17	-0.26986
180	0xbece3838	-0.40277267
181	0xbe80ade4	-0.25132668
182	0xbd992f65	-0.07479743
183	0x3e5dede5	0.21672781
184	0x3d0f1c0e	0.034938864
185	0xbe24934e	-0.16071817
186	0xbe2e9058	-0.1704725
187	0x3e0b0920	0.135777
188	0x3e02af4b	0.12762181
189	0x3eb514ea	0.3536752
190	0x3e04e109	0.12976469
191	0xbe65029e	-0.2236428
192	0x3dee75dd	0.116435744
193	0xbd820971	-0.06349457
194	0x3d177076	0.036972485
195	0xbce8f2d0	-0.028436095
196	0xbe29dee4	-0.16588932
197	0xbe1852f7	-0.14875399
198	0xbe672f41	-0.2257662
199	0xbd9dfe0f	-0.077144735
200	0xbe0019cb	-0.12509839
201	0xbe188ee0	-0.14898252
202	0x3e465bae	0.1937091
203	0xbe383b55	-0.17991383
204	0x3e52d27a	0.20588103
205	0xbe4ae6ed	-0.19814654
206	0xbe0576b7	-0.13033567
207	0xbdc29264	-0.09500578
208	0x3e0f7461	0.14009239
209	0xbd72fc03	-0.05932237
210	0x3e0f3314	0.13984329
211	0xbe3b1b0e	-0.1827204
212	0x3e54c3d3	0.20777826
213	0x3d9a29b3	0.07527485
214	0x3e6d9ad5	0.23203595
215	0xbe8b879d	-0.27251902
216	0xbe1fb521	-0.15596439
217	0x3dfd01ad	0.12353835
218	0xbcd06a22	-0.025441233
219	0x3d4993e9	0.049213324
220	0x3d3757dd	0.044761527
221	0xbe579905	-0.21054466
222	0x3e914ad5	0.28377405
223	0x3e8ae44d	0.27127305
224	0xbd7ae810	-0.06125647
225	0x3d7fe915	0.062478144
226	0x3e289b69	0.16465534
227	0x3e9db24b	0.3080009
228	0xbd5c4338	-0.053775042
229	0xbc864552	-0.016390476
230	0xbe1aeada	-0.15128651
231	0x3e2f403a	0.17114344
232	0x3e2d89f7	0.1694716
233	0x3e54ce20	0.20781755
234	0xbe8177a4	-0.2528659
235	0x3e8d10da	0.2755192
236	0x3e13a164	0.14417034
237	0xbe513ba6	-0.2043291
238	0x3e199b6b	0.15000694
239	0x3bdd646a	0.006756355
240	0x3c4f1518	0.0126393065
241	0xbdca4321	-0.09876085
242	0xbe0d1dbb	-0.13780873
243	0x3de096f4	0.10966292
244	0x3c359cbc	0.011084732
245	0x3e00c8e1	0.12576629
246	0xbdd9f9ac	-0.10643324
247	0xbdf529e6	-0.11970882
248	0xbe76c70b	-0.24099366
249	0xbcaf04cc	-0.021364592
250	0x3e1925ef	0.14955877
251	0x3e30999b	0.17246096
252	0xbdcd6760	-0.10029483
253	0x3c5c31c9	0.013439604
254	0xba448ba9	-0.00074976176
255	0x3d789f0d	0.060698558

transformer.norm.running_mean f4 [1280]
0	0xbbbadc30	-0.005702518
1	0xbc34d560	-0.011037201
2	0xbbeeda8a	-0.0072892355
3	0x393fc99e	0.00018290288
4	0xba34782f	-0.0006884364
5	0x3be057a8	0.006846387
6	0xbbeaef4d	-0.00716964
7	0x3c66c8d9	0.014085972
8	0xbb46c2a3	-0.0030328415
9	0x3c188a74	0.009310354
10	0xbc822b15	-0.015889684
11	0xbbbb779b	-0.005721045
12	0x3c72f477	0.014828793
13	0x3be85760	0.007090494
14	0xbc2e2aa9	-0.010630288
15	0x3c9205c1	0.01782501
16	0xbd01f4f5	-0.03172775
17	0x3c6bc4d3	0.014390188
18	0xbbddc8f2	-0.0067683393
19	0x3c3d72dd	0.01156303
20	0x3c509d11	0.01273276
21	0x3c2bc0ee	0.01048301
22	0x3cc5ec46	0.024160516
23	0xbcaf70ff	-0.021416185
24	0x3cca6607	0.024706854
25	0x3c568f3e	0.013095675
26	0x3cb4e91c	0.022083811
27	0x3b6edb5c	0.0036446666
28	0xbc04348d	-0.00806917
29	0x3b0625ba	0.0020469264
30	0xbc972c46	-0.018453728
31	0xbb7d7b8a	-0.0038678371
32	0x3c3f6bff	0.011683463
33	0x3a568e28	0.0008184635
34	0xbb9b3577	-0.004736598
35	0x3b9aae59	0.004720491
36	0xbc61159b	-0.013738061
37	0xbb7b7c82	-0.0038373773
38	0xbb9d6384	-0.004803123
39	0xbcd31084	-0.025764711
40	0xba990481	-0.0011674316
41	0xbb7c3c93	-0.0038488253
42	0xba90b607	-0.0011040577
43	0x3c375d5c	0.011191692
44	0x3b2f1da9	0.002672056
45	0xb8986cd4	-7.2681956e-05
46	0x3b55c6a6	0.0032619624
47	0xba9f81c5	-0.0012169412
48	0xbb4f64be	-0.003164574
49	0xbc640464	-0.013917062
50	0x3b6eea46	0.0036455556
51	0xbc83f1ea	-0.016106565
52	0x39b9bfb7	0.00035428788
53	0x3c019f87	0.007911569
54	0xbb1f99bd	-0.002435311
55	0xba9e3e14	-0.0012072944
56	0x3b082e59	0.0020779578
57	0xbb6671bc	-0.0035163006
58	0x3caf6562	0.021410648
59	0xbc14cba4	-0.009081755
60	0xbcabead3	-0.020985996
61	0xbd1058b7	-0.035240855
62	0x398b9474	0.00026622752
63	0xbb56a397	-0.0032751316
64	0xbaca71df	-0.0015445313
65	0xbab59200	-0.0013852715
66	0xbb17a9d5	-0.0023142
67	0x3a3f6952	0.0007301766
68	0xbac494ba	-0.0014997937
69	0xbb13615a	-0.0022488446
70	0xbb2a8799	-0.0026020764
71	0x3b6de0fe	0.0036297436
72	0x3c2814b1	0.0102588395
73	0xbd23ce41	-0.03999162
74	0x3b747bd1	0.0037305246
75	0xbbdce2ec	-0.0067409184
76	0xbc48bdd7	-0.012252293
77	0xbc263e74	-0.010146726
78	0xbc2f1da8	-0.010688223
79	0xbcf397fd	-0.02973556
80	0xb9449d00	-0.00018750504
81	0x3be9c485	0.0071340227
82	0x3addca4a	0.0016921249
83	0xbc34da85	-0.011038427
84	0x3b772923	0.0037713728
85	0xbd08be68	-0.03338471
86	0x3b69604d	0.0035610378
87	0xba8da63d	-0.0010806989
88	0x3c56887a	0.013094062
89	0xbb1025b7	-0.0021995136
90	0x3bb689e0	0.005570635
91	0x39e9a16b	0.0004456149
92	0xbbfafea5	-0.0076597505
93	0xbb9bf315	-0.0047592022
94	0x3b8df5f4	0.0043322984
95	0xbb393341	-0.002825931
96	0xbc1d027e	-0.009583114
97	0x3be4c518	0.006981503
98	0x3c129c69	0.008948424
99	0x3cb2827b	0.021790734
100	0xbc8b6c7d	-0.017019505
101	0xbafde4e3	-0.0019370582
102	0xbb255aab	-0.0025231044
103	0xbc19f92b	-0.009397785
104	0xbb5708b5	-0.0032811586
105	0xbd2fcf83	-0.042922508
106	0x39c31cf9	0.00037214885
107	0x3bd3be18	0.00646187
108	0xbc657a55	-0.014006217
109	0x3c2a5f14	0.010398645
110	0xbca3b1ce	-0.019982245
111	0xba66f0c7	-0.00088096823
112	0xbb727a77	-0.0036999264
113	0xbbcb5436	-0.006205107
114	0xbc73ddc3	-0.014884415
115	0xbab9dc5e	-0.0014180054
116	0x3b9afc22	0.0047297636
117	0xbc9c2102	-0.019058708
118	0xbc12cd2a	-0.008960048
119	0xbca17fb9	-0.019714223
120	0x3c32f943	0.010923686
121	0xbb70b941	-0.0036731514
122	0xb9d43856	-0.00040477765
123	0x3a880532	0.0010377525
124	0x3c2cb338	0.010540776
125	0xbc833b21	-0.016019406
126	0x3c1a0022	0.009399446
127	0x3c08db6b	0.008353095
128	0x3c84c0ea	0.01620527
129	0xbcc47cd7	-0.02398531
130	0x3bb642c4	0.0055621583
131	0xbc1a8099	-0.009430074
132	0x3af19831	0.0018432197
133	0xbb596e5a	-0.0033177347
134	0xbc9a0f6e	-0.018806186
135	0x3c17c76f	0.009263857
136	0x3c6bdc57	0.014395795
137	0xbbde93e7	-0.0067925337
138	0xbc1d58cd	-0.009603691
139	0xbb8f3859	-0.004370731
140	0xbd1b931c	-0.03798209
141	0x3a9e455e	0.0012075116
142	0x3b8e46c1	0.0043419306
143	0x3a6d456d	0.0009051178
144	0x3c828626	0.015933108
145	0xbbab31d8	-0.0052244477
146	0xbbe7463a	-0.007057932
147	0xbc87fe39	-0.016600715
148	0x3c57f152	0.013180094
149	0x3cd908ce	0.026493456
150	0x3c3fff10	0.0117185265
151	0x3c570b4d	0.013125253
152	0x3c2b8b1f	0.010470181
153	0x3d1fa3cf	0.03897458
154	0x3c8d6c4a	0.01726355
155	0xb9ce7613	-0.00039379354
156	0x3c388f7f	0.011264681
157	0x3c07246f	0.008248433
158	0xbc85335a	-0.016259838
159	0x3c8c3e01	0.01711941
160	0x3b62f23e	0.003462925
161	0x3c52bd28	0.012862481
162	0xbba610c6	-0.0050679175
163	0xbd08a89b	-0.03336392
164	0x3c19f62b	0.00939707
165	0x3ae5da73	0.0017536416
166	0x3c192c4d	0.009348941
167	0x3bcf3a9e	0.0063241264
168	0x3c5888f9	0.013216251
169	0xbac6809c	-0.001514453
170	0xbbc097c5	-0.0058774673
171	0xbcc8e450	-0.02452293
172	0x3baa83ca	0.0052036988
173	0x36101287	2.1468456e-06
174	0x3be773f5	0.0070633837
175	0x3c052ccc	0.008128356
176	0xbb86c2d5	-0.0041125813
177	0xbc0def24	-0.008662973
178	0xbad3ea68	-0.0016167881
179	0xbcc2472a	-0.023715574
180	0xba0479af	-0.00050535327
181	0xbd12e55c	-0.035863265
182	0x3c81dd8e	0.015852716
183	0x3aae7184	0.0013308977
184	0x3bd64a44	0.006539615
185	0x3ca390bf	0.019966481
186	0x3c887ea8	0.016661957
187	0x39225f2c	0.00015484978
188	0x3c66c065	0.014083956
189	0xbca8ba9c	-0.020596795
190	0xbc79a0b9	-0.015236073
191	0xbcc9ec28	-0.02464874
192	0xbc20ea67	-0.009821511
193	0xbb3a4cb5	-0.0028427069
194	0x3bef242f	0.0072980146
195	0x3a147146	0.0005662631
196	0xbca5208d	-0.020157123
197	0xbc680e4c	-0.014163565
198	0x3c3349f9	0.010942929
199	0x3d0d4eec	0.034499094
200	0xbc3cefcc	-0.011531781
201	0xbbb16b84	-0.005414428
202	0x3ace6c1a	0.001574877
203	0xbc444623	-0.0119796125
204	0x3b948fb3	0.004533732
205	0xbc56132a	-0.0130660925
206	0x3b8df473	0.004332119
207	0x3c286ea0	0.010280281
208	0xbc686ec8	-0.014186569
209	0xbc094305	-0.008377795
210	0xbb533512	-0.0032227677
211	0xbc1ae6c8	-0.009454437
212	0x3c156bb6	0.009119919
213	0x3a49c21e	0.0007696467
214	0xbcbcc90a	-0.023045082
215	0x3c36ab01	0.011149169
216	0x3b0983b5	0.0020983045
217	0xbc68bb55	-0.01420482
218	0xbb36bcf1	-0.0027883614
219	0x3c0f77fe	0.008756636
220	0x3c0ac75a	0.008470381
221	0xbb321be6	-0.0027177273
222	0x3b685a47	0.00354542
223	0x3c57a87b	0.0131627275
224	0xbc05af18	-0.008159421
225	0x3b06d12d	0.0020571456
226	0x3bb766a7	0.005596954
227	0xbd05cd2c	-0.03266637
228	0x3b4c7cce	0.003120232
229	0xbaed2f58	-0.0018095775
230	0x3bd1833f	0.0063938196
231	0xbc17aa4f	-0.009256913
232	0xbc0e2b65	-0.008677338
233	0xbca4bbb1	-0.02010903
234	0x3a229f07	0.00062035065
235	0xbd67db63	-0.056605708
236	0x3b3de6b7	0.0028976628
237	0x3b270b5d	0.002548895
238	0xbbf5bb30	-0.007499121
239	0xb9cb2fa8	-0.00038754684
240	0xbb1e4e2d	-0.0024155483
241	0xbc33993c	-0.010961827
242	0xbba9c9e8	-0.00518154
243	0xbb20af28	-0.0024518464
244	0xbc77aa37	-0.015116266
245	0x3c2b6b05	0.010462527
246	0x3bf53153	0.0074826865
247	0x3b005a35	0.0019585018
248	0x3ba6c467	0.005089331
249	0x3b8803d8	0.004150849
250	0x3acfdf77	0.0015859444
251	0x3b6d917e	0.003625005
252	0x3c415a24	0.011801276
253	0xbca6d3e0	-0.020364702
254	0x3bbb23ef	0.0057110707
255	0xba4ea402	-0.00078827154
