models/sqa/xls-r-1b/model_1b_lay41_subset.pt (torch, 425869 bytes, 67 tensors)

norm_input.weight f4 [1280]
00000000: d31c 1e3f b06a 5c3e 5d52 bc3e c5c9 0a3f
00000010: 897a 1b3f 6c24 853d 7951 2d3e 6d88 d03e
00000020: b4d8 ee3e f1fc 4d3f a3f6 f73e 354b 983e
00000030: e49e 113f 4330 183f b06a ea3e f27a eb3e
00000040: 6c1f 213f 26ba eb3e bc5f 493f 9674 2a3f
00000050: 35e3 e63e 911e db3e eb3e c43e 1130 1f3f
00000060: 9150 4e3f b61b 3d3f 92bd 093f 0148 113f
00000070: 6d99 293f 3b5e f33e 2cd9 143f 5dd7 223e
00000080: 8d46 3d3f 9493 b6bd be3c 4f3f 4b2d 403f
00000090: d288 263f 5114 153f c530 423f b6f1 1c3e
000000a0: 9592 ec3e 088a fd3e 1a98 3d3f 1730 193f
000000b0: b1f1 303f 22ae 353f 6b85 163f 5379 823e
000000c0: d76c 253f a1e2 4a3f 04c5 df3e 62ad e83e
000000d0: 00ed 843f 88c1 3e3f 87a8 2a3f f804 f13e
000000e0: 9e1d 363e 2f84 cf3e a58a 253f 23d1 013f
000000f0: 739a 603f 78e8 023f bf86 e4bd 3ff9 283f
00000100: eae7 d43e 9725 b23e 298d 3c3f a63d 5b3e
00000110: 899b 473f 1441 cb3e f050 233f cf92 3f3f
00000120: 8157 353f a85e 0e3f eb5e 0b3e 7d8f e63e
00000130: 313d 0d3f 0e7d f03e a267 5c3f c3e4 013f
00000140: 43ce 1e3f 271c 4b3f cf78 853f bc0c 353f
00000150: 3764 293e 4f5e 383f ade5 0d3f 8333 2b3f
00000160: 04e8 b73e 1643 f03e cdb9 fe3e 53e7 0d3f
00000170: 86f0 823f bdc3 ae3e 183d f73e 809a 313e
00000180: 02e9 0e3f 0dad 8e3e 141b 1d3f 8179 ab3e
00000190: 363b f73e 9f44 423f 84eb 7f3e 5f56 143f
000001a0: c5c3 a5be f7c3 7f3f f755 b63e 2c1a be3e
000001b0: 722e c13e d64f c23d 2cfe 623f 01dd 123f
000001c0: 9691 f03e 8072 513f a420 d33e aee8 823e
000001d0: 14b9 043f 49b4 4c3f c845 1a3f 4f18 043f
000001e0: 54d9 103f 12b5 4f3f 7542 863e 4b71 343f
000001f0: ef80 203f 963a 433e 0808 8e3e 8ff7 043f
00000200: e302 a13e 27fc 303f 85e4 4f3f fdca 653f
00000210: 3452 c93e b665 e33e 2ac8 283f 2775 003e
00000220: 626e 6f3f 6e98 a53e 6584 9e3d 14d6 0a3f
00000230: db19 1e3f 13c6 a43e e1ed a53e e31a 923e
00000240: 6619 443f ca84 c33d 5f14 be3d 583b 3e3f
00000250: df7e 423f 928d a93e f151 0b3f 8f70 873e
00000260: 04b5 813e f179 a43d 328a c63e aed6 373f
00000270: e155 e63e e739 773f 4283 bd3e dff3 ce3e
00000280: d3ac a43e 72b1 e13e 9d4a 043f b154 9d3e
00000290: 938e 043f 03f0 993e 6e3e bc3e c066 0a3f
000002a0: 72a5 f53e 0897 b53d 46ff 0d3f c8b3 0b3f
000002b0: aec4 1a3f e0e3 d9bd 67bd 193f fc1a d53e
000002c0: b4e7 a03e b421 ac3e f04e 3f3f 61a9 8c3f
000002d0: cefc 533f 2c0c a33d dd76 203f 00eb 293f
000002e0: 56df 103f 1d7c 3a3f f57c 723f 13bf a83e
000002f0: a478 eb3e 78d9 1d3f 6728 f63e 9afa 4e3f
00000300: a2af 963e 60d7 dabd 8779 323f f6ac 6e3f
00000310: f57e 303f 7729 423f 61f6 d43e dc9f 6e3d
00000320: ba38 083f 379e 0c3f 79ea a73e d367 e53e
00000330: 795c 123f d981 783e 0ff3 0e3f 47ca d13d
00000340: f7f9 d23e 786d e43e 1502 023f a9dd 073f
00000350: cc1a 353f 5ab9 373f 499f 883f b7fd bb3e
00000360: 50ba 123f ba57 7e3e f3a1 783e 7943 283f
00000370: 284d d83e f816 163f 7f37 703f 803f 143f
00000380: ae83 e53e 0c40 c53e 5c31 f83e 20ff 1b3f
00000390: 3638 dc3e 97bd 413f 49d8 233f 2b56 133f
000003a0: 6ec4 3f3f 0143 3d3e f956 e33e 35be 463f
000003b0: d985 3e3f 2ebb aa3e e438 253f 72b7 263f
000003c0: 1f79 e23e d3c9 0d3f 6009 3c3f 4168 213f
000003d0: 559e 213f e4a9 453e 8325 1d3f 7531 073f
000003e0: 4c94 5c3f 909b 043f 2a74 843e 065a 7e3e
000003f0: 9825 443f 228c c73e e401 e53e fdca 4d3e
0.6176273 0.21525073 0.36781588 0.54214126 0.6073385 0.065010875 0.1692561 0.40729085
0.46649706 0.8046408 0.48430356 0.29744878 0.5688307 0.5944864 0.4578452 0.45992237
0.6293857 0.46040457 0.78661704 0.66584146 0.4509522 0.42796758 0.38329253 0.6218272
0.80591685 0.7387041 0.53804886 0.56750494 0.66249734 0.4753283 0.5814388 0.15902467
0.73935777 -0.08914867 0.8095206 0.7506911 0.6505252 0.58234125 0.75855666 0.1532658
0.46205583 0.49519372 0.74060214 0.59839004 0.6911879 0.7096883 0.5879733 0.25483188
0.646192 0.7925206 0.43704998 0.4544478 1.0384827 0.74514055 0.666634 0.47074103
0.17784736 0.40530536 0.6466468 0.5070974 0.8773567 0.5113597 -0.11158513 0.6600532
0.41583186 0.34794304 0.73652893 0.21410236 0.779717 0.39698088 0.63795376 0.7483339
0.70836645 0.55613184 0.13610427 0.45031348 0.55171496 0.4697041 0.8609563 0.5073969
0.6203348 0.7933983 1.0427493 0.70722556 0.16542135 0.72018903 0.5542858 0.66875476
0.359192 0.46926183 0.4975113 0.554311 1.0229652 0.3413371 0.48288798 0.17344093
0.5582429 0.27866402 0.6136944 0.33491138 0.48287362 0.7588596 0.24992186 0.5794429
-0.32375923 0.99908394 0.3561246 0.37129343 0.37730747 0.09487884 0.88669086 0.57368475
0.46986073 0.8181534 0.4123584 0.25568146 0.51844907 0.79962593 0.6026273 0.5159959
0.56581616 0.81135666 0.26222578 0.7048537 0.6269674 0.19065318 0.27740502 0.51940244
0.31447515 0.69134754 0.8120807 0.8976286 0.39320529 0.44413537 0.65930426 0.1254469
0.93527806 0.32342857 0.07740096 0.5423291 0.617582 0.3218237 0.3240805 0.28536138
0.76601255 0.09546812 0.09281229 0.743093 0.7597484 0.33115822 0.5442191 0.26453063
0.25333416 0.08031071 0.3877731 0.7181195 0.44987395 0.96572727 0.37014204 0.40420434
0.32163104 0.44080693 0.5167635 0.30728677 0.5178005 0.30065927 0.3676638 0.54063034
0.47977787 0.088666975 0.5546764 0.545712 0.6045636 -0.10639167 0.6005463 0.4162215
0.31426775 0.33619463 0.74729824 1.098919 0.82807624 0.07961306 0.6268137 0.66374207
0.56590784 0.7284563 0.9472192 0.32958278 0.4599048 0.61659956 0.480777 0.8085114
0.29430872 -0.10685611 0.69716686 0.9323267 0.6894372 0.7584452 0.41594222 0.058257923
0.5321156 0.54928917 0.32796076 0.44805774 0.5717235 0.24268283 0.5583963 0.102436595
0.41206333 0.44614768 0.50784427 0.530726 0.70744014 0.717672 1.067361 0.36717007
0.5731554 0.24838153 0.24280529 0.65727955 0.42246366 0.586288 0.9383468 0.57909393
0.44827026 0.38525426 0.48475158 0.60936165 0.43011636 0.75679916 0.640019 0.57553357
0.749091 0.18482591 0.44402292 0.7763398 0.74422985 0.33345932 0.64539933 0.65123665
0.44233033 0.55386084 0.73451805 0.63049704 0.6313222 0.1930309 0.61385363 0.5280984
0.86163783 0.5179987 0.25869876 0.24839029 0.76619864 0.389741 0.44728005 0.20096965

norm_input.bias f4 [1280]
00000000: 8669 e1bc 3334 253b 432c 5a3b 5afc a0bc
00000010: 238c feb9 a5a6 b23c e7e4 233a aca1 a53c
00000020: 8c82 003b 05b4 63bc c5c6 d3bc ae6b 2b3c
00000030: e847 7bbc 6ee6 603b e504 31bc 9284 60bc
00000040: fd8e 26bc 0c39 c0bc 2af2 2ab9 dea0 823b
00000050: 1760 0d3c d5df 7c3b 3cb5 8aba 2f5b 763c
00000060: 07b9 5ebc f325 70bb ef70 5a3b 7f1a 183c
00000070: 2be5 523b adaf b73b 31f5 d23c e4a6 a8bb
00000080: 6fd2 31bd 76d4 d93a 29dd 7ebc 9bb2 fd3a
00000090: dfa4 463c f805 873b cd44 6d3c 795d b3ba
000000a0: 57b8 2bbb 1f10 d1bb fb27 afba 9b6d 98ba
000000b0: 184a 623a 0253 1c3b 76c1 4bbb e828 09bc
000000c0: d0b2 46ba 731e ce3b 3733 c83b d8c2 cd3b
000000d0: 27b6 a23c ba28 a93b a3a7 213c 0f72 a8bb
000000e0: e1cc 143c 24ec a0bb 0ece 093b 41c2 8abc
000000f0: 6d57 8b3c 4753 44bc 401a 193b 1235 7b3c
00000100: 8696 e93b f83d 5c3b 8a9b 1abc c15f 72bb
00000110: 828f ab39 f84b b4bc b2e3 4f3c 5bb0 07bd
00000120: 8391 6a3c c713 b1bb 1a55 573b 005a e1bb
00000130: c46c 193a 79a5 30bc 215c 873c b5ec 993c
00000140: 705b 0fbc d0b1 70bc 4bfc 25bd a046 b4ba
00000150: 31c5 fa3b cb59 b13b 3bbe 08bc 2041 9b3b
00000160: ee55 443c 3483 4e3c f382 553c 54f8 cc3b
00000170: 55fb 933c b240 cc3c ad66 96bb 5986 db3b
00000180: a4d7 89bc d8a4 4cbc ee92 e33b c573 9ebb
00000190: 29ba 82b9 9381 083c 8cff abb9 c4ac 32bc
000001a0: 6a7a 7bbb f05f d93c 51a1 2b3c 359c c7ba
000001b0: 122e b33c 2904 d43b 512d 90bc 5e42 a43b
000001c0: e5d8 58bb f3eb 813c be72 e53b f62d 7ebb
000001d0: d03a 413c aa14 02bc 4b81 c8b9 d675 ccbb
000001e0: 9a71 a93c e9e5 d1bc 5ae4 1f3c 749d 403a
000001f0: 1800 86ba 0bdc 703b 2eb5 5e39 7dfb 0c3b
00000200: 9ba6 59bb b739 f0bb 2af5 67bc 8191 813b
00000210: 80e8 86bc f54c 88bb 0f03 f9bb dd28 3a3b
00000220: 2afc 81bc c62f 8abb 9f56 d3b9 2629 103b
00000230: 9340 f2bb f46a a9bb 1316 453a 76c2 253b
00000240: b00f 08bc 8d0e 96ba c624 65bb 55ba 21bb
00000250: 36eb 493c dfd8 e63b 8b95 ebbb c59a 293b
00000260: cc96 baba 0262 3f3b a8f1 063c 29d3 973c
00000270: e204 12bb de4f f83c 2798 7dba 7337 10bc
00000280: b296 3f3b 0a69 c43b fbcf e93b b715 34ba
00000290: 25cc 4abc c4d1 89bb a3fa 71bb 1f75 513c
000002a0: 3b6c e03b c53b c4b9 3097 ef39 2414 2ebc
000002b0: a995 91bb 7d08 b8bc 6b2f a43a 47cd 713c
000002c0: ab49 aa3b 2e37 5bbb 796f 123c eb02 99bc
000002d0: 6030 053c fb8c d0b8 9011 65bc 982e 6e3c
000002e0: 25d3 8f3b cb9b 37bc 2ac4 843c eaaf 1f3a
000002f0: 7c35 943c 4f97 9d3b 19c2 33bc e2d5 153b
00000300: 2b0f 4dbb 22ea 65bb 8785 10bb a6de 173d
00000310: 9f4c cebb f9b8 c93b 4d9f 0c3c a84d c2bb
00000320: 1c7b 7dbb 8f86 f33b 1983 d83b b58a e13b
00000330: aa42 96bb ea27 583b a394 813a f8d0 fd3a
00000340: 829d 603a de34 cfbb ab8e 03bb 2f44 fc3b
00000350: 8240 b03c e187 cd3c 8ac3 1f3c d160 523c
00000360: 8956 02bb e73b 8b3b 4030 05bb 739f 503c
00000370: 234c ce3b 42b2 443b 7b5c 313c 59ff dc3b
00000380: fc06 ad39 bbd6 1e3b a025 763c ac38 bbbc
00000390: faa1 a9bb 44bb 90bc 347e c43b 3505 6e3b
000003a0: ed50 893c ae62 883b 9b4a 0abc 1bb8 193d
000003b0: cfa0 e83c 8ece bdb9 a9e2 aabc a686 e23a
000003c0: 87fa e1bb 8ffd 333c 5d7b 91bc a5c4 353d
000003d0: 3395 03bd 9288 28bc a8a3 603b ca7f a93b
000003e0: 5e08 25bb 8a51 b23c 31fa f5bb df68 13bb
000003f0: 6fa4 273c bd0b d93b b212 4fbc 0761 8bbb
-0.027516138 0.0025208115 0.0033290542 -0.01965158 -0.00048551065 0.021807978 0.00062520657 0.020218693
0.0019609062 -0.0138979005 -0.025851617 0.010462685 -0.015336968 0.0034317034 -0.01080439 -0.013703482
-0.010165927 -0.023464702 -0.00016302677 0.003986462 0.008628867 0.0038585563 -0.0010582577 0.015036388
-0.013593919 -0.0036643713 0.0033331474 0.009283661 0.0032180052 0.005605659 0.025751682 -0.005146848
-0.043413576 0.0016619104 -0.015555658 0.0019355597 0.012124269 0.0041205846 0.014481735 -0.0013684473
-0.0026202404 -0.0063800956 -0.0013363356 -0.0011629345 0.00086322566 0.0023853187 -0.0031090654 -0.008371569
-0.0007579746 0.006290251 0.006109621 0.0062793307 0.019862248 0.0051623257 0.009866628 -0.00514055
0.00908205 -0.0049109627 0.002102736 -0.01693833 0.017009461 -0.0119827455 0.0023361593 0.015332477
0.0071285395 0.0033606272 -0.009436497 -0.0036983343 0.00032722583 -0.022008881 0.012688564 -0.03312717
0.014316919 -0.005403969 0.003285712 -0.006877184 0.0005852694 -0.010781639 0.016523423 0.018789629
-0.008749828 -0.014690831 -0.04052381 -0.0013753958 0.0076529016 0.0054123155 -0.008346136 0.004737988
0.011983378 0.012604523 0.013031709 0.006255189 0.01806418 0.024933193 -0.0045898766 0.006699365
-0.016826458 -0.012490474 0.0069450056 -0.004835578 -0.00024934232 0.008331674 -0.0003280606 -0.010905448
-0.0038372525 0.026535004 0.010475473 -0.0015229048 0.021872554 0.0064702225 -0.017599734 0.0050127944
-0.0033088264 0.01585958 0.0070022037 -0.003878472 0.011793807 -0.007939497 -0.00038243303 -0.006239633
0.020684052 -0.025622325 0.009759033 0.0007347681 -0.0010223417 0.003675225 0.00021239065 0.0021512203
-0.0033210877 -0.007331099 -0.014157573 0.003954113 -0.016468287 -0.0041595646 -0.0075992416 0.0028405704
-0.015867312 -0.004217121 -0.00040309594 0.0021997183 -0.0073929518 -0.0051702205 0.0007518243 0.002529291
-0.008304521 -0.0011448428 -0.0034964546 -0.0024677713 0.012324145 0.007044896 -0.007189458 0.0025879603
-0.0014235615 0.0029202704 0.008236326 0.018533306 -0.0022280742 0.030311521 -0.00096738565 -0.008802283
0.0029234109 0.005993967 0.007135389 -0.0006869691 -0.012377773 -0.004205914 -0.0036923073 0.0127842715
0.0068488396 -0.00037428565 0.00045698276 -0.010624919 -0.0044428897 -0.022464985 0.0012526339 0.014758415
0.00519677 -0.0033449638 0.00893771 -0.01867815 0.008129209 -9.9444725e-05 -0.013981238 0.014537476
0.004389184 -0.0112065775 0.01620682 0.0006091582 0.01809191 0.004809297 -0.010971569 0.002286308
-0.0031289558 -0.003508218 -0.0022052245 0.03707757 -0.006295755 0.0061560837 0.008582902 -0.0059296675
-0.0038678115 0.007431812 0.006607425 0.0068829902 -0.0045855837 0.0032982775 0.0009886216 0.0019364646
0.00085683924 -0.006323441 -0.002007405 0.007698558 0.021515135 0.025089206 0.00975121 0.012840466
-0.0019888005 0.0042490843 -0.0020322949 0.012733328 0.0062956973 0.0030013476 0.010825272 0.006744307
0.00033002335 0.0024236876 0.015023619 -0.022854172 -0.00517678 -0.01766742 0.00599649 0.0036319022
0.016762221 0.004162154 -0.008440639 0.037529092 0.028396992 -0.00036202784 -0.020860033 0.001728256
-0.0068963203 0.010985746 -0.01775902 0.044376988 -0.03212471 -0.010286467 0.0034277234 0.0051727043
-0.002518199 0.021767396 -0.007506632 -0.0022492928 0.010232075 0.0066237138 -0.012638735 -0.00425351

norm_input.running_mean f4 [1280]
00000000: 1d1a 6abe e615 08bf 8aca c6bd 5b1a 303f
00000010: a7ad e4be b811 473e ebce 8b3f dad0 0cbf
00000020: 1dbb 1c3e 703b 1e3e 2100 553f a21c 823c
00000030: a2c3 c53e c654 9bbf d58a a03e 7576 7e3f
00000040: b7fb febe b251 8f3f 0cda 3b3f d2fa dc3e
00000050: 0d55 193f 4892 c7bb e697 6a3f 89a2 763e
00000060: e06d 58bb d3a6 623e 69f7 88be 3502 e93e
00000070: ed13 69be 0d38 8bbe 8fdd 13bf c12b 903f
00000080: daf5 52bf 3702 a9bf b4e2 28be 5823 2dbf
00000090: 659c 973e 1a2a 7e3f 0907 81bf b559 05bc
000000a0: abb4 73be f4a2 1cbf 28ea a8be ebb5 38bf
000000b0: d3ac 64be 404d aa3c 731c 153e 9d90 9abf
000000c0: d55a 3dbf cfe0 973f 0f88 21be e902 a03f
000000d0: c89c a43d 5d09 903e 6aa7 323f 0c19 713f
000000e0: 5480 31bf 212f 23bf 3d00 ac3f ad5e 03be
000000f0: 66db d1bf ce71 4bbe 121e 89bf c015 88be
00000100: 65e2 61be d455 5f3f 586f 803f c864 75be
00000110: 25c5 08bf adc5 f83e be24 a93f 3607 a63e
00000120: 5885 1b3f c8a9 7c3f 9b19 4a40 522b 79be
00000130: a8b5 6ebd 5a97 33be bfcd 5dbe 72ce 0c3f
00000140: cd39 c43d a3f4 01bf 0320 a6be 6375 343e
00000150: 7fd0 973f 51a9 d33e 5490 43be a208 6a40
00000160: 5961 833e 1ee0 21bf 9e0c f6be 3ca6 293f
00000170: b086 acbe f450 d3bf 745c 0b3f 4a18 e93e
00000180: 9075 463e 6d55 afbe b9b1 c8be 12d2 5e3f
00000190: efe9 7cbf 1546 d7be eecd 0fbf 4e1b 603f
000001a0: a393 b13e 96d0 203f ac75 fd3e 8b09 00bf
000001b0: e7a8 2c3e 9094 babf c6cf b53e eae7 a1bf
000001c0: 3d38 3e3f 31f0 943f 0275 db3e f0c7 dd3d
000001d0: 5e00 113f 8e16 d9bf 5426 233f 0f8c 603f
000001e0: 27cf 03bf 54cf 3cbe b06e 52bf 0fe5 57bf
000001f0: a7a7 f63c 7545 613f 3870 75c0 b8cd 40be
00000200: 6ebd 18c0 f875 863e 9086 83bf 9e91 bcbe
00000210: 4265 ff3e ed64 db3d 4f2e 083f 43e6 b93e
00000220: 3286 a13e 132d 533e 9c95 babd eb17 043f
00000230: 70b4 893e 2d89 c2be 4c4b e4be 159c 7e3f
00000240: 482d 393f 7edf 783e aff8 8dbe ae4d 193f
00000250: 0bf8 7fbe 4e72 0dbf ae17 4abf 1522 c53e
00000260: ccaf 7cbf 862d 0c3e 36e5 093e af79 503f
00000270: 0abc 433d 79a1 aebe 507f b0bf 1bfe 17be
00000280: 516e 153f 6cb4 4d3e 3589 36bf ce1b a63f
00000290: 4391 5dbf 0c03 14bf ad39 723f da53 da3f
000002a0: 9e56 dc3e fa5b e0bd 47e3 a9bd 52c1 b43e
000002b0: 3cf0 cdbe 027c 45be 4021 573f 34bc 7d3f
000002c0: bdbe 823f a20d 8a3e a282 e1be 1a20 623e
000002d0: 9337 b9be 85a8 763e e17b 1cbf 3ad3 3bbf
000002e0: 8e66 ffbf 1098 913d 71f5 febe 3098 713f
000002f0: addb d5bf c683 883f 899a bd3e 6d00 353f
00000300: 717d e5bd f18a 163e 210d 633f d306 80bf
00000310: 3f66 4dbf 5efe 113e 151b adbd 11be 9dbf
00000320: 97dd e33e 3784 87be 51b5 d63e 3f44 633f
00000330: 6b7c 6b3d 707e 6bbe ef8a 81be 6390 57bf
00000340: 7227 263f 3c6a 993e 7698 c1bd 5a80 08bd
00000350: bd30 f63e 5da4 9f3e 6843 5a3e 8f01 883f
00000360: 22dc b1bd e133 ee3e 6647 973d b8a0 a63e
00000370: 5a6c 94be 581f 103f 1c60 a8bf e56d 803e
00000380: d11a 393e 4cc9 3bbf b78a a73f 0cd5 ce3f
00000390: 9d89 d93e d994 b43e d2ea 6abe be98 803a
000003a0: ef88 76be 1794 c23f 244f 1340 e27d 613e
000003b0: e977 14be 49a8 02bd 9e6d edbe 485d 803e
000003c0: bf9e 823f ec0d 823f 16a3 8f3f 42d9 7cbf
000003d0: 9456 a5bc b77a 893e 6fc3 86bf e36e 2b3f
000003e0: 93e6 783e 6137 45be b9b7 333f dc1e 9b3d
000003f0: c2b0 b7be 8260 c03e 1d6e 07bf dfe9 3ebf
-0.22861524 -0.53158414 -0.097066 0.68790215 -0.44663736 0.19440353 1.0922521 -0.5500618
0.15305753 0.15452361 0.8320332 0.015882794 0.38625818 -1.2135246 0.3135592 0.993995
-0.49801418 1.1196806 0.7337959 0.4316011 0.598954 -0.006090436 0.9163803 0.2408544
-0.0033024475 0.22133951 -0.2675126 0.45509496 -0.22761507 -0.271912 -0.57759947 1.1263353
-0.8240639 -1.3203801 -0.1649273 -0.67632055 0.29611507 0.9928299 -1.0080272 -0.008139064
-0.23799388 -0.61186147 -0.32991147 -0.72152585 -0.22331552 0.020788789 0.14561634 -1.2075382
-0.73966724 1.1865481 -0.15774558 1.2500888 0.08037716 0.28132144 0.69786704 0.94178843
-0.6933644 -0.6374379 1.3437573 -0.12829085 -1.639508 -0.19867632 -1.0712302 -0.26579094
-0.22059019 0.8724034 1.003398 -0.23964226 -0.5342582 0.48588315 1.3214338 0.32427377
0.6075034 0.98696566 3.1578128 -0.24332932 -0.05827871 -0.17538205 -0.21660517 0.5500251
0.09581337 -0.5076391 -0.32446298 0.17622904 1.1860503 0.41340116 -0.19098026 3.656777
0.25660208 -0.632326 -0.480565 0.6626928 -0.33696508 -1.650908 0.5443795 0.45526344
0.19380784 -0.34244862 -0.39198092 0.8703929 -0.98794454 -0.42045656 -0.561736 0.87541664
0.3468295 0.62818277 0.4950384 -0.5001456 0.16861306 -1.4576588 0.3551008 -1.26489
0.7430456 1.1635801 0.42862707 0.10829151 0.56641185 -1.6960008 0.6373036 0.8771371
-0.51487964 -0.18438464 -0.82200146 -0.8433389 0.03010924 0.8799661 -3.8349743 -0.18828475
-2.3865619 0.26261878 -1.027544 -0.36829847 0.4988194 0.107126094 0.5319566 0.36308488
0.31547695 0.20622663 -0.09110567 0.51598996 0.26895475 -0.37995282 -0.44588697 0.9945691
0.7233472 0.24304006 -0.27728793 0.59884155 -0.24996965 -0.5525254 -0.7894238 0.38502565
-0.98705745 0.13689241 0.13466343 0.81435674 0.04778675 -0.3410757 -1.3788853 -0.14843027
0.58371454 0.20088357 -0.7130311 1.2977235 -0.86549777 -0.5781715 0.94619256 1.705684
0.43034834 -0.10955043 -0.08295303 0.35303742 -0.40222347 -0.19285586 0.8403511 0.991153
1.0214459 0.26963526 -0.44044977 0.22082558 -0.36175212 0.24087723 -0.61126524 -0.7336918
-1.9953172 0.07109082 -0.49796632 0.94372845 -1.6707665 1.0665214 0.37031963 0.70703775
-0.11205567 0.1470144 0.8869191 -1.0002083 -0.8023414 0.1425719 -0.08452431 -1.2323629
0.44504997 -0.2646806 0.41935208 0.8877601 0.0574917 -0.22997451 -0.2530131 -0.8420469
0.6490394 0.29963863 -0.09452908 -0.03332553 0.4808406 0.31180087 0.21314776 1.0625476
-0.08684565 0.46523955 0.07386665 0.32544494 -0.28988916 0.56297827 -1.315433 0.25083843
0.18076636 -0.7335403 1.3089207 1.6158767 0.42487803 0.35269812 -0.2294114 0.0009811146
-0.24075674 1.5201443 2.3017054 0.22020677 -0.14498867 -0.03189877 -0.46372694 0.25071168
1.0204695 1.0160499 1.1221645 -0.9876901 -0.020182885 0.26851436 -1.0528392 0.66966075
0.24306707 -0.19259407 0.70202214 0.07574245 -0.35877043 0.3757363 -0.52902395 -0.7457561

norm_input.running_var f4 [1280]
00000000: b4fa 1a40 557a 1e40 d440 1640 c308 2740
00000010: 30b1 4e40 a987 1040 fc16 9140 ca6e 1840
00000020: 1892 0940 d626 0840 6d14 0140 d913 3040
00000030: 9aaf 8540 324f 8240 400f f63f 6beb 0340
00000040: 6fc6 2840 2a28 9740 908b 4940 0245 2a40
00000050: 543d 5040 1f62 e43f f4ad 3c40 b15e 4340
00000060: 5459 1140 c5f6 1741 4264 2241 195a f13f
00000070: 86a5 e53f dca5 1340 dcd3 4741 b8fd 5540
00000080: f98e 8140 24cf 2140 b41a 2140 1845 1b40
00000090: 4709 9140 e4fe 1940 1a2a 3f40 5f5c 0a40
000000a0: 83d4 7840 a75a 5740 bcb1 2540 4ae5 f93f
000000b0: c64b 0240 2f16 f03f bed3 4440 e386 0d40
000000c0: f77d 6940 6c69 1140 5b5f 4640 02b9 2840
000000d0: 1fdc fe3f 7af8 6f40 f1b5 7440 b9dd 2b40
000000e0: 0255 1840 bb04 3340 9192 0c40 9431 0940
000000f0: 48fd 4940 f744 4040 e174 3340 c0c2 1840
00000100: 0864 2a40 2f9b 4840 79c7 0940 ba03 3f40
00000110: a0df 0940 9b6c 8140 203f 4c40 eb6e 5640
00000120: a372 9640 fcbb 0440 e3b4 aa41 77e7 0a40
00000130: 9931 4340 7c1c 0c40 9fa9 e03f b0d2 2440
00000140: 27fc 5340 494f 2940 a0f0 e93f 9099 3b40
00000150: 32d5 4a40 519f 0540 251d 1d40 b417 8140
00000160: c529 5440 ec50 1a40 3284 1c40 a9dc 1c40
00000170: c631 5740 957e 2740 272e 1f40 609d 0340
00000180: e152 6a40 855e 1740 54a4 b040 3ef2 ef3f
00000190: 412e e33f 05ea 3740 bba3 0340 8a33 5340
000001a0: 0be1 4c40 948f 4040 f351 f23f ad53 4b40
000001b0: c854 1a40 779a 3640 71d8 1a40 a80f 2440
000001c0: ab4a 7240 9ae8 9f40 8613 1740 9f0b 1340
000001d0: 0231 2c40 54e7 6840 01f8 2240 2dcc d93f
000001e0: b19b 1f40 146f fa3f 14db 1e40 840b d73f
000001f0: 3cfc c93f 2128 0440 a226 1a41 ffbb 0740
00000200: 6131 1442 a00c d73f a058 ab40 7cbb 4d40
00000210: 167d 0740 f985 3f40 61d5 5040 c791 3f40
00000220: 4cbc 1140 fec8 1340 2476 0340 15ba f33f
00000230: ab68 fa3f 4e2a 0440 975b 2140 ebfa 5940
00000240: cbc7 fc3f c41d 3540 f16e 3940 1b12 f93f
00000250: 7c55 e43f 99ee 8840 2a57 0540 2b6a 1440
00000260: b1ec 1040 795b 3640 e70f 1840 092a 2b40
00000270: 4703 fb3f b053 1a40 0c56 0d40 a93e 1e40
00000280: 9d36 0940 112d 1c40 09e6 e740 ae7a 1f40
00000290: 35c9 d83f d0a6 1240 1374 0540 1384 1e40
000002a0: 634f 1a40 17d9 2340 0319 fc3f 0804 5040
000002b0: 8074 1540 e1a4 4240 3e04 5440 8fad 8a40
000002c0: 244a 0d40 9d21 2240 2354 4140 38c5 3040
000002d0: c273 2240 3b7f 2b40 4efc 2d40 3448 4840
000002e0: 6611 3340 fb15 e73f 7b34 1d40 d6d9 5240
000002f0: aef9 e23f 3244 8640 1af2 0d40 af5a 4840
00000300: a53e 1540 f382 2e40 f675 1c40 aa5a 0440
00000310: 3a1b 1a40 65ea 4140 4f0b 2c40 f150 fa3f
00000320: 8eea 3340 525d 0840 e06b 0540 9620 f73f
00000330: 9ef9 4040 eacf f13f 944b 1540 7691 1d40
00000340: 8dd4 1640 9d05 1940 6191 ef3f c0b7 0940
00000350: 47d9 0440 4a16 1e40 6519 e43f 80a7 0840
00000360: dd26 f03f eaf5 2240 4d28 7f40 ff60 2040
00000370: a1c1 0740 cb7e 1d40 d155 1940 09b6 0b40
00000380: 57d4 c73f 22de 5b40 4a8b 1640 bba5 0140
00000390: 02af 8140 284d 0640 2c3d 1540 4b2c 1940
000003a0: 83a5 1440 6343 5a40 8001 7440 9f31 f03f
000003b0: 89db 2c40 89a8 1540 ec2e 8340 8904 0440
000003c0: 7e59 8740 5a48 8540 8074 4340 1069 1440
000003d0: 5cd3 e03f 427e 2241 22f5 f83f 0fb9 db3f
000003e0: 7710 0940 7abf 1340 9e7a 2140 d101 3d40
000003f0: cee1 6540 47a1 8f40 fba2 2240 1a44 2440
2.4215517 2.4762166 2.3477068 2.6099098 3.2295647 2.25828 4.5340557 2.381762
2.1495419 2.1273704 2.0168717 2.7512114 4.1776857 4.0721674 1.9223404 2.0612438
2.6371114 4.723653 3.1491432 2.660462 3.2537432 1.7842444 2.9481173 3.0526545
2.2710772 9.497746 10.149477 1.8855621 1.7941139 2.3069983 12.4892235 3.3436108
4.0487027 2.5282679 2.5172548 2.4260921 4.5323825 2.4061823 2.9869447 2.161888
3.8879707 3.364908 2.588973 1.9523098 2.0358748 1.875677 3.0754237 2.2113578
3.6483133 2.2720594 3.09957 2.636292 1.9910926 3.7495408 3.8236048 2.6854079
2.3801885 2.7971637 2.1964457 2.143651 3.156084 3.0042093 2.8040087 2.3868866
2.6623554 3.1344717 2.1527998 2.9846025 2.154274 4.0445075 3.1913528 3.35052
4.7014937 2.0739737 21.338324 2.1703775 3.0499022 2.1892385 1.7551764 2.5753593
3.3122652 2.6454642 1.8276558 2.9312477 3.1692624 2.087849 2.4549038 4.0341434
3.3150494 2.411189 2.4455686 2.450968 3.362413 2.617101 2.487192 2.0564804
3.6613085 2.365144 5.5200596 1.8745801 1.774849 2.8736584 2.0568683 3.3000207
3.2012355 3.0087633 1.8931259 3.1769822 2.4114246 2.8531778 2.4194605 2.5634556
3.7858074 4.9971437 2.3605666 2.2975843 2.6904912 3.6391191 2.546387 1.7015435
2.4938776 1.9565148 2.4821215 1.6800389 1.5780101 2.0649493 9.634432 2.1208494
37.04822 1.6800728 5.3545685 3.2145681 2.1170096 2.992552 3.2630236 2.9932725
2.2771177 2.3091426 2.0540857 1.9041163 1.9563192 2.065082 2.5212152 3.4059398
1.9748472 2.8299417 2.8973963 1.945865 1.7838588 4.2791257 2.083445 2.31898
2.2644465 2.849333 2.3759706 2.6744406 1.9610375 2.4113579 2.208377 2.4725745
2.1439583 2.4402506 7.2468305 2.4918628 1.6936404 2.2914314 2.0852096 2.4768112
2.4110954 2.560125 1.9695133 3.250246 2.3352356 3.0413134 3.312759 4.3336864
2.2076502 2.5333016 3.0207603 2.7620373 2.5383153 2.6796405 2.7185245 3.129407
2.797937 1.8053583 2.4563282 3.2945457 1.7732446 4.1958246 2.2179017 3.130535
2.3319485 2.7267425 2.4446998 2.0680337 2.4079118 3.0299313 2.6881902 1.9555951
2.811191 2.1306958 2.0847092 1.930682 3.0152354 1.8891575 2.332738 2.4620032
2.356723 2.3909676 1.8716241 2.1518402 2.0757616 2.4701104 1.782025 2.1352234
1.876186 2.5462594 3.9868348 2.5059202 2.1211932 2.4608638 2.3958628 2.1829855
1.5611676 3.435433 2.3522515 2.0257404 4.0526133 2.0984592 2.3318586 2.3933284
2.322602 3.410363 3.8125916 1.8765143 2.7008994 2.3384116 4.099478 2.0627768
4.2296743 4.165082 3.0539856 2.3189125 1.7564502 10.155825 1.9449809 1.716585
2.14163 2.3085618 2.523109 2.9532359 3.591907 4.488437 2.5411975 2.5666566

transformer.norm.weight f4 [1280]
00000000: 1b27 2b3f 6db6 9c3d 18d6 cc3e f34f df3e
00000010: 718d 0a3f 9e84 3e3d 560a 8f3d e10a a93e
00000020: c99d e23e 2694 503f a455 b73e a59f 053e
00000030: c92c eb3e c58e 1c3f 4400 d33e 5767 c73e
00000040: 58b1 033f 8610 e73e 2ee3 443f 7fca 453f
00000050: 1f7b 003f 1933 cb3e f38d 403e 9342 4b3f
00000060: e92d 503f 75d6 263f 1d59 063f d6d3 0b3f
00000070: 7882 103f 3815 bf3e 4323 113f fe58 b03d
00000080: d571 3e3f ece5 f63d d5c5 623f e95f 453f
00000090: ffc8 1d3f e5f3 203f 6ca3 643f 87b9 adbd
000000a0: a8b0 c93e 26d0 223f b0b9 2a3f cd10 473f
000000b0: 382d 583f ae06 3d3f 6fce 053f dcf6 e53d
000000c0: 26f5 283f a005 363f c709 953e 11dd e83e
000000d0: 1bf6 873f 100c 5c3f 4cdb 433f 91a2 c93e
000000e0: 64bf f13d 2b2f 7f3e 0622 3d3f c5ed 023f
000000f0: 6fb3 823f 5506 073f c477 153d 02c8 2c3f
00000100: f58d 873e 044a 513e 53a9 5e3f 12c2 4e3d
00000110: 35da 6a3f e525 be3e fbdd 433f cf47 583f
00000120: 4a3f 133f c8f0 023f 12d8 233d cb93 df3e
00000130: ee4d d53e 3332 063f 7b48 743f 35ed 343f
00000140: dac1 183f 0f6b 493f 52a5 a03f 44ef 3c3f
00000150: 27d7 c6bd 9936 683f 3778 063f b19b 3d3f
00000160: 8fbb 873e 817a 1c3f f437 e73e 4ece 0c3f
00000170: 7a21 8e3f 0f0e 843e f955 d83e 165f 81bd
00000180: 11d9 f83e 3ad8 093e 7a56 243f c780 963e
00000190: 1b56 a93e 180d 423f 4c27 0b3e 0d3a f93e
000001a0: a6f0 34bf 53a2 893f c110 f33e b3b9 903e
000001b0: 71be 083f 623f 463d f9a0 763f 0c58 0c3f
000001c0: d32f b53e 1165 503f eb38 ca3e cbf8 333e
000001d0: 2373 fb3e ada1 643f 2c88 043f 4186 fb3e
000001e0: 4c44 333f 6049 533f 88bc 0f3e 8980 1a3f
000001f0: cb37 473f 79ed 5c3d c566 b23d ab27 fd3e
00000200: 18b5 f2bd 39d6 403f 42e2 733f f932 813f
00000210: 1469 f83e cd99 dd3e 8560 253f 6d26 33be
00000220: 6ed9 973f e432 8d3e db33 f13c 5a42 0c3f
00000230: 8510 043f 121f 2a3e 60d2 483e b542 4a3e
00000240: 8936 443f 438b 08bc df7b 0a3d f71b 3c3f
00000250: e4c3 323f 28c5 453e 8718 eb3e d4ad 893e
00000260: 651a 043e 5fe5 a83d c670 9d3e 5a01 473f
00000270: 8c9b a33e 0ad7 9c3f 9191 273e e787 943e
00000280: 80b3 7b3e f2b0 9fbe 51f3 fb3e 3f20 173e
00000290: 4160 023f 0a5c 453e 1a77 903e 4d2b 073f
000002a0: d31b 133f ee8f bc3d 8dc9 073f 1324 043f
000002b0: 079d 0b3f 98cf 223e fe7d 013f 5bd6 ab3e
000002c0: d350 693e 2351 5b3e 8d41 473f 8c77 b73f
000002d0: 68b6 673f 9f0e b73b eef4 023f 3f1a 1b3f
000002e0: 7dc9 2c3f 26aa 4f3f 643f 783f cdcf 2d3e
000002f0: 1e2b ee3e f342 053f fda1 e13e 7123 503f
00000300: 73bb 783e 6514 273d bf38 443f e449 933f
00000310: 550f 3e3f 676f 653f b80c ce3e ed5c 023c
00000320: ae99 133f 95dd 1a3f aced 3a3e bf4e bb3e
00000330: 9a16 0d3f 23a2 ef3d c7f9 ea3e efba 283d
00000340: 9322 a33e 7be3 ce3e 5c91 eb3e 50e4 f13e
00000350: f793 5a3f 7984 3c3f 0083 9f3f 71f1 a33e
00000360: 867b 103f 1e8c 9c3e 172b fc3d e61d 013f
00000370: bd95 a73e 0e87 0f3f 895c 923f 5e66 033f
00000380: 1924 d43e d3c9 773e 6365 d13e 79b2 2e3f
00000390: fcdf a63e 4ee1 403f 7538 383f b66a 253f
000003a0: 568f 643f 424e 3f3e 1bd0 9c3e 949d 683f
000003b0: 5ab8 243f c868 723e ca7d 3e3f 74b2 093f
000003c0: 4d27 993e b23c 193f 9cc0 243f 2e1a 333f
000003d0: d80f 2c3f 8f88 9f3d a75c 253f c227 e23e
000003e0: b29c 873f 3bd3 de3e b590 2f3e af1e a53d
000003f0: d641 523f 54ad 7e3e 81d7 ec3e e807 be3d
0.66856545 0.076519825 0.4000709 0.43615684 0.5412207 0.046513192 0.06984393 0.33016112
0.44261006 0.81476057 0.35807526 0.13049181 0.45932606 0.6115535 0.4121114 0.3894603
0.5144248 0.45129794 0.7690915 0.7726211 0.5018787 0.39687422 0.1880415 0.7939846
0.81320053 0.65170985 0.52479726 0.5462011 0.5644908 0.37320876 0.5669443 0.08610724
0.74392444 0.12055573 0.8858312 0.7709947 0.6163482 0.62872154 0.8931186 -0.08482652
0.3939259 0.6359886 0.66689587 0.7776001 0.84444 0.7383832 0.5226812 0.11228725
0.65999067 0.71102333 0.29109022 0.4548116 1.062198 0.85955906 0.76506495 0.3938184
0.11804083 0.24920337 0.7388004 0.5114406 1.0211009 0.52744037 0.03649117 0.6749269
0.26475492 0.20438391 0.8697712 0.05047805 0.9173921 0.37138286 0.7651059 0.8448457
0.57518446 0.51148653 0.040000983 0.43667445 0.41661018 0.5242035 0.95423096 0.7067445
0.59670794 0.78678983 1.2550452 0.7380259 -0.09709006 0.9070831 0.52527183 0.7406569
0.26510283 0.61124426 0.45159876 0.55002296 1.1103966 0.25791976 0.42253092 -0.06316964
0.4860311 0.1346139 0.6419445 0.29395124 0.33073506 0.7580123 0.1358921 0.48677102
-0.706797 1.0752662 0.4747372 0.28266677 0.5341559 0.04840029 0.96339375 0.5482185
0.3538805 0.81404215 0.3949655 0.17575376 0.4911128 0.893092 0.5177028 0.49125865
0.7002609 0.82533836 0.14036763 0.6035238 0.7781951 0.05393741 0.08711008 0.49444327
-0.11850947 0.7532688 0.9526712 1.0093681 0.48517668 0.43281403 0.646004 -0.17495127
1.1863229 0.2757789 0.029443672 0.54788744 0.51587707 0.16613415 0.19611502 0.19752009
0.76645714 -0.008333984 0.03380954 0.7348017 0.69830155 0.1931349 0.4591715 0.26890433
0.12900694 0.08246874 0.30750102 0.7773644 0.3195461 1.2253125 0.16364123 0.29009935
0.24580193 -0.31189686 0.49209073 0.14758395 0.5092812 0.19273391 0.28215867 0.52800447
0.5746433 0.0920714 0.5304192 0.51617545 0.5453648 0.15899503 0.50582874 0.33561978
0.22784738 0.2141767 0.778344 1.4333358 0.90512705 0.0055864598 0.51154983 0.60586923
0.67494947 0.81119 0.96971726 0.16973801 0.4651727 0.5205528 0.440689 0.8130408
0.24290256 0.040790934 0.7664909 1.1506925 0.74242145 0.8962311 0.4024408 0.007956726
0.5765637 0.6049436 0.18254727 0.36583516 0.5511261 0.11700847 0.4589369 0.0411939
0.31862316 0.4040793 0.46009338 0.472445 0.85382026 0.7363964 1.2461853 0.32020143
0.5643848 0.3057565 0.12312906 0.50436246 0.3273143 0.5606545 1.143449 0.51328075
0.4143379 0.24198084 0.40897664 0.6824108 0.32592762 0.7534379 0.71961147 0.6461595
0.89281213 0.18682197 0.30627522 0.90865445 0.643438 0.23672783 0.7441069 0.5378792
0.29912797 0.5985824 0.643564 0.6996182 0.67211676 0.07789718 0.645945 0.44170958
1.0594695 0.4352053 0.17145045 0.08062493 0.8213171 0.24870807 0.46258166 0.09278852

transformer.norm.bias f4 [1280]
00000000: 1752 debd 0e89 c0bb 2237 773e 6d71 4bbe
00000010: da50 0c3e 004b 9ebc b62b 2a3d 3c14 e4bd
00000020: 0620 3f3e f6e7 f13d 96be 69be 08ad 8b3e
00000030: 5eff d3bd e849 a03e 87ca 1e3e beb2 793e
00000040: fc74 0a3e 5dc5 0bbe 2025 273c 5976 943e
00000050: fc73 7a3e 3f45 5abd 095f c5bd cf8c e23e
00000060: d699 19be 109f 9cbe 1f47 3c3d 1a93 533e
00000070: 5a15 babe 0840 45be 924e cebd 63c3 873e
00000080: b094 4d3e b642 a3be 7a4d e8bd 106a 67be
00000090: b06a 86be 7cf4 06be ba10 183d 4b38 a4be
000000a0: 06d0 6cbe 2080 42be 3c9c 72be 0a79 2c3d
000000b0: eae4 95be 4140 9bbe fb4b 3fbe d823 80be
000000c0: 50d1 07be 20be 1dbe bae4 4cbe dcce 823d
000000d0: 1a54 9d3d 79f4 95be 10aa 5c3e c2cf a0be
000000e0: 1710 873d 5ed6 7b3e 3f11 05be 3c5f e53c
000000f0: 915e 69be 83eb 54be 27f6 803e dba8 cbbd
00000100: 6f91 0d3e b34c 09be 6eef 0dbe 5120 993d
00000110: 0d18 49be 5435 82be f1c9 ee3d 5450 fdbb
00000120: d926 b23d c109 853e baa0 353d cb43 79be
00000130: c990 e6bd d921 f13d 4371 a1bd 1978 8b3d
00000140: 592d c43e a270 6e3e bccf 323e d1c2 35be
00000150: ff9a 80be dde8 58be e15e d7bd 9709 3dbe
00000160: d350 2c3e 7a89 5fbe 3b3c 8c3e 50c1 fa3d
00000170: 3bec 183e 41b1 33bd f992 4e3e 30cf 3a3e
00000180: 86c0 df3d b44f 8cbe c4c8 963e 4ce7 893e
00000190: 1a5c 143e db9f 863e 02f9 913c be56 bf3e
000001a0: cee5 a03d 3658 783e 2cf7 263e 6f55 cdbd
000001b0: e142 6a3e 825b b13d f0a2 d6bd bae2 db3c
000001c0: 0334 123e 1b1f f6bd 5a0c 163e c545 80bd
000001d0: f6ea 63be 5506 df3e f7fc 173e ff05 fb3d
000001e0: e02f 3ebe c9cb 47be b307 c33e d02a 7f3e
000001f0: 71ac c43d 471d 543e 7b19 b1be 85be c2bd
00000200: f1d4 bf3e d893 7dbe 825d 80be 3b14 d9bd
00000210: dd31 913d a8b5 a9bb d7b1 c33e af33 523d
00000220: b57f fcbd 54c3 43be 0c6c afbd 5838 6a3e
00000230: 2813 88bd 7589 863e f161 143d 9945 56be
00000240: be7f 2fbe 66a8 79be 1060 183e 965f 453d
00000250: 6ef5 45bd 8f16 5dbe b868 a4bd 5675 ac3e
00000260: f580 f7bd 6de7 8d3c 855c 3b3e 4632 883e
00000270: ca06 50bd bfa9 44be 30c8 853d 8be8 e4bd
00000280: 8a67 44be 6c05 293e 08dc 8f3d 4a8c c03e
00000290: 845e 39bc 67ee 9cbd 125e bc3d bbef 713e
000002a0: 2926 f2bd da86 73bd 07c0 9abe 0837 21be
000002b0: 5e30 d63e d62a 29be 31d6 24be 2965 78bc
000002c0: 7b7c af3e c4a7 d9bd 6769 4c3e 9f18 e7be
000002d0: b8f6 69be 296b 043e ee27 813e bd4c 963e
000002e0: 2f3c 0b3f 100d f13e 0a4a aebe b046 35be
000002f0: 27f1 0f3e 6c16 623e 0007 1f3e 4b56 023e
00000300: df64 c9bd d877 adbc 4949 90bd 3ac0 1b3d
00000310: 3d5e f9be 14bf 113e edc7 3abd a64a 8b3e
00000320: 331e 34bd 1ddb f6bd b828 e5bc a189 e73e
00000330: 26c2 1a3e d849 e43c 7cfb 253e ded2 84bc
00000340: 0ab1 7e3e 9b03 303e 7c53 09be 9858 47bd
00000350: e464 8abe 92b2 1b3e 932f 6b3c 2bbf 173e
00000360: f77c 98be 0c53 723e 4b3d 2ebe 7a6b 93be
00000370: bf41 833e 5aa5 723e 44ce 823e bf6e 3d3e
00000380: f263 883e ea4a 4fbd e409 8abe b32e 10be
00000390: fa28 3ebe cd96 12be 79e6 853e db6f d7be
000003a0: d8b0 1d3e 5ae0 6bbe 24cd cd3e 4e29 5fbe
000003b0: 0359 86be c145 59be ab55 8bbe 1dbd babd
000003c0: 9d5c f2bd 6f0f adbe 2845 ffbd e4a2 57be
000003d0: 3e5c c83d 01e9 34be 809f 413c 7fc5 dcbd
000003e0: 7ef8 8f3e 823b 66bc fbaa f0bd fe2a 27be
000003f0: f46d 463d dd2a e13e 9444 90bd 68d3 603e
-0.10855501 -0.005875713 0.24142125 -0.19867487 0.13702717 -0.019322872 0.041545592 -0.11136672
0.1866456 0.11811821 -0.22826609 0.2728045 -0.10351442 0.31306386 0.15506946 0.24384591
0.13521188 -0.13649507 0.010201722 0.28996542 0.24458307 -0.053288694 -0.09637267 0.44248053
-0.1500009 -0.30590105 0.045966264 0.20661584 -0.36344415 -0.19262707 -0.1007358 0.26516256
0.20076251 -0.31886834 -0.113429025 -0.22599053 -0.2625327 -0.13179201 0.037125327 -0.32074198
-0.2312623 -0.18994188 -0.23692411 0.04210762 -0.2927621 -0.3032246 -0.18681328 -0.25027347
-0.1326344 -0.15404558 -0.20009127 0.063871115 0.07682057 -0.2928808 0.21549249 -0.31408507
0.06594866 0.24593493 -0.1299486 0.027999513 -0.2278998 -0.20792966 0.251878 -0.09944316
0.1382501 -0.13408165 -0.13860866 0.07476867 -0.19638081 -0.2543131 0.11659611 -0.007730523
0.08698816 0.25984004 0.044342734 -0.24342267 -0.11258084 0.11774034 -0.07882931 0.06810016
0.38315848 0.23285154 0.17462057 -0.17750098 -0.25118253 -0.2118258 -0.105161436 -0.1846069
0.16827707 -0.21829787 0.27389702 0.12243903 0.14933865 -0.043870214 0.20173253 0.18243098
0.10925393 -0.2740456 0.29450047 0.26934278 0.14488259 0.26293835 0.017818931 0.37370867
0.07856332 0.242524 0.16305226 -0.10026061 0.22877075 0.08660032 -0.104802966 0.02684151
0.14277653 -0.12017652 0.14653149 -0.062633075 -0.22257599 0.43559518 0.14842592 0.12257003
-0.1857295 -0.19511332 0.38091812 0.24918675 0.09603203 0.20714293 -0.34589753 -0.09508995
0.3746715 -0.24763429 -0.2507134 -0.10599562 0.07089589 -0.005179126 0.3822162 0.05131882
-0.12329046 -0.1911748 -0.0856553 0.22873056 -0.06644279 0.26276746 0.036226217 -0.20924987
-0.17138574 -0.24380645 0.14880395 0.04818686 -0.048329763 -0.21590637 -0.08027786 0.3368327
-0.120851435 0.017322266 0.18297012 0.26600856 -0.050787725 -0.19205378 0.06532323 -0.111771666
-0.19180122 0.16505975 0.070243895 0.37607032 -0.011314038 -0.07662659 0.0919763 0.23626606
-0.11823685 -0.059454776 -0.3022463 -0.15743649 0.41833776 -0.16520247 -0.16097333 -0.015160837
0.3427466 -0.10627702 0.19962083 -0.45135972 -0.22848022 0.12931503 0.25225776 0.29355422
0.5438871 0.47080278 -0.34040862 -0.17702746 0.14056836 0.22078866 0.15530014 0.1272823
-0.09833693 -0.02117531 -0.07045228 0.03802512 -0.4870471 0.14233047 -0.04560082 0.2720539
-0.043974113 -0.12053511 -0.027973518 0.4522219 0.15113124 0.027867243 0.16209215 -0.01621383
0.24872223 0.17188875 -0.13410753 -0.048668474 -0.27030098 0.15204838 0.014354604 0.14819019
-0.2978284 0.23664492 -0.17015569 -0.28792936 0.25636098 0.23695889 0.25547993 0.18499278
0.26638752 -0.050608553 -0.2696067 -0.14080314 -0.18570319 -0.14315338 0.261524 -0.42077526
0.15399492 -0.23034802 0.40195572 -0.217931 -0.26239786 -0.21218015 -0.27213797 -0.09118102
-0.11834071 -0.33800837 -0.124643624 -0.21058232 0.09783219 -0.17667009 0.011817813 -0.10779857
0.28119272 -0.014052274 -0.11751362 -0.16324994 0.048444703 0.43978015 -0.0704433 0.21955645

transformer.norm.running_mean f4 [1280]
00000000: 1d46 e1bc 7081 253b 53ec 5b3b 7ce9 a0bc
00000010: 75af f6b9 c7b3 b23c cfd4 233a 4090 a53c
00000020: 8cdc fe3a 9b62 63bc b1c1 d3bc 0e55 2b3c
00000030: 645e 7bbc 30bc 613b 7513 31bc 6772 60bc
00000040: 60d4 26bc 9a49 c0bc 5917 a3b9 d60d 843b
00000050: 3bc5 0d3c e5fd 7a3b 1cc8 8cba a102 763c
00000060: 5280 5fbc af87 72bb 79bb 553b b2e1 173c
00000070: ec4f 583b bb06 b83b 0c46 d33c 0fb4 a8bb
00000080: 0fb5 31bd da0a d93a 71e6 7ebc 3282 f73a
00000090: 1a88 453c c62d 863b 1484 6d3c d45d b1ba
000000a0: a781 2bbb f756 d1bb 3103 baba ce59 98ba
000000b0: 50b3 623a eb8e 183b 7734 4bbb c525 09bc
000000c0: f5a9 42ba 2238 cc3b 7871 c83b 4d35 cd3b
000000d0: 9a4b a23c 1be1 a83b a0db 213c 2964 a8bb
000000e0: 68e9 143c 1229 a1bb 8762 083b 111f 8bbc
000000f0: e830 8b3c 08cf 44bc 7254 193b 5f78 7b3c
00000100: 3b40 e93b cb12 5c3b 2d3f 1bbc 327c 72bb
00000110: 175a a539 6b19 b4bc 561d 503c c5a2 07bd
00000120: 67e7 6a3c a1e4 b0bb 19ce 573b 94bc e2bb
00000130: dab4 173a 3ccf 30bc 1549 873c 00f3 993c
00000140: 4010 0fbc 803a 70bc fda6 25bd 2b7a a8ba
00000150: d41b fa3b eb31 b43b b4a9 08bc 6b20 9b3b
00000160: 635f 443c 152f 4f3c d600 563c dd94 cc3b
00000170: 25c8 943c 9c2d cc3c 4a89 96bb 866f db3b
00000180: e93f 8abc 4579 4cbc cdc7 e23b ee6d 9ebb
00000190: ab09 7db9 0d35 073c 7d22 a8b9 730b 32bc
000001a0: a672 77bb d8f6 d93c 2741 2c3c c409 c7ba
000001b0: f387 b33c 5d2a d43b 6c7a 90bc 8c58 a43b
000001c0: 3b11 59bb 5b4c 813c c9fa e53b fd25 7ebb
000001d0: a30c 413c 5847 03bc d504 ecb9 4e67 cabb
000001e0: ef41 a93c c817 d3bc d0e0 1f3c 685c 403a
000001f0: 4122 85ba 62ea 703b 633f 7439 4d26 0c3b
00000200: bef8 58bb 5922 f1bb 5d0e 68bc e402 7b3b
00000210: 9460 86bc fff7 87bb 6682 f8bb ae48 363b
00000220: 43ec 81bc ce0d 8abb 11c4 d2b9 58d7 113b
00000230: c69e f1bb 4d58 a9bb 0853 493a 323b 263b
00000240: c029 08bc 87e4 95ba 9f37 65bb 3fb6 1fbb
00000250: 1ea9 493c 4c2e e73b ce21 ecbb ba2b 2a3b
00000260: df40 baba b67f 3f3b c7c6 063c acfe 973c
00000270: d5db 11bb d17f f73c 4a2e 7cba 3be4 0fbc
00000280: 0590 3d3b ee13 c43b 6bf1 e93b d4d6 2eba
00000290: f40f 4bbc f7ea 8abb 7657 71bb 5851 523c
000002a0: 3e62 e03b 5e2a c7b9 a565 e339 433e 2ebc
000002b0: 240b 91bb eb0e b8bc 2208 a43a ff74 713c
000002c0: 3428 aa3b 44cc 5bbb 9737 133c 83c3 97bc
000002d0: 0aaf 063c b11b d1b8 025b 65bc da79 6c3c
000002e0: 8cc0 903b 9335 37bc d5ec 843c d4fd 1d3a
000002f0: b61f 943c 1044 9d3b 2ed5 33bc cf7d 113b
00000300: e3da 4dbb 8dae 65bb 3383 0fbb f0d0 173d
00000310: 43d1 cdbb 11f2 ca3b 2a19 0d3c 5847 c2bb
00000320: 1d87 7dbb 355b f33b 71c4 d83b 3160 e13b
00000330: dfd5 97bb 4881 573b 8c21 883a 5d82 fd3a
00000340: dd7a 623a 5ddb cebb e9ba 03bb c885 fc3b
00000350: 4f3e b03c d366 cd3c bcc8 1f3c c3bd 523c
00000360: 68bf 07bb 5384 8b3b 1959 05bb 92be 513c
00000370: 45e9 cd3b 72f7 443b 5a15 333c 5da9 dd3b
00000380: 1395 a239 9be2 1d3b 79ec 753c 9b57 bbbc
00000390: 8bb0 a9bb 5573 90bc cc95 c33b 83ea 703b
000003a0: 4e97 893c 6807 883b 1853 0abc af86 193d
000003b0: aae7 e83c dce1 c3b9 b5e5 aabc 8eee dc3a
000003c0: bdd6 e2bb a3f0 333c 3f13 91bc 6aa2 353d
000003d0: 11e4 03bd 9148 28bc ccf9 5c3b 431a a93b
000003e0: 54c3 22bb 9422 b23c 757b f6bb 709e 13bb
000003f0: 328d 263c c06f d93b 36b5 4ebc 5b64 8bbb
-0.027499253 0.0025254153 0.0033557608 -0.019642584 -0.00047051502 0.02181424 0.00062496675 0.020210385
0.001944439 -0.01387849 -0.025849195 0.01045729 -0.015342329 0.0034444444 -0.010807862 -0.013699151
-0.01018247 -0.023472596 -0.00031107178 0.0040299697 0.00865298 0.0038298306 -0.001074079 0.015015275
-0.013641434 -0.0037007143 0.0032612963 0.009270119 0.0033006622 0.0056160367 0.025790237 -0.005148418
-0.04338556 0.001655902 -0.015557871 0.0018883406 0.012056375 0.004094812 0.014496822 -0.0013531991
-0.0026169808 -0.006388541 -0.0014191625 -0.0011623444 0.00086479355 0.0023278545 -0.0031006613 -0.008370821
-0.0007425838 0.0062322775 0.006117042 0.0062624575 0.01981144 0.005153788 0.009879023 -0.005138893
0.0090888515 -0.004918226 0.002081068 -0.016982587 0.016991094 -0.012012251 0.002339628 0.015348523
0.0071182526 0.0033580537 -0.0094755115 -0.0037000296 0.00031538375 -0.021984776 0.012702307 -0.033114213
0.014337397 -0.0053983484 0.003292924 -0.006919453 0.0005787142 -0.010791596 0.01651434 0.01879263
-0.008731902 -0.014662385 -0.040442456 -0.0012853792 0.007632712 0.0054991147 -0.008341242 0.004734089
0.011985633 0.012645503 0.013061723 0.006243332 0.018161843 0.024924092 -0.004594003 0.0066966442
-0.016876178 -0.012480085 0.0069207908 -0.004834882 -0.00024131562 0.008252394 -0.00032069153 -0.0108669875
-0.0037757545 0.026606962 0.01051358 -0.0015185406 0.021915412 0.0064747767 -0.0176365 0.0050154384
-0.0033121842 0.01578348 0.0070184213 -0.0038779967 0.011782798 -0.008012615 -0.00045017028 -0.0061768657
0.020661322 -0.025768176 0.009758189 0.00073379884 -0.0010157303 0.0036760797 0.00023293267 0.0021385134
-0.0033107246 -0.007358831 -0.014163581 0.0038301283 -0.016403474 -0.0041494365 -0.007583904 0.0027814317
-0.015859729 -0.0042130714 -0.00040200402 0.00222536 -0.0073736636 -0.005167997 0.0007679914 0.0025364873
-0.008310735 -0.0011435904 -0.003497578 -0.0024370102 0.012308387 0.0070550796 -0.0072061783 0.0025966004
-0.0014210007 0.0029220409 0.008226103 0.018554054 -0.0022256274 0.030212315 -0.0009619935 -0.008782442
0.0028924954 0.005983821 0.007139375 -0.0006669585 -0.01239394 -0.004239436 -0.0036825812 0.012836777
0.006847649 -0.00037987804 0.00043372545 -0.010634962 -0.004426377 -0.022468051 0.0012514631 0.014737367
0.005192781 -0.00335385 0.008985422 -0.018525844 0.0082204435 -9.9710545e-05 -0.013998749 0.014433349
0.0044174846 -0.011182207 0.016226212 0.0006026898 0.018081527 0.0047993734 -0.010976119 0.0022200232
-0.0031410984 -0.0035046667 -0.002189827 0.037064493 -0.0062810495 0.0061934073 0.008611957 -0.005928915
-0.003868527 0.007426644 0.0066152145 0.006877922 -0.0046336497 0.0032883454 0.0010385974 0.001934122
0.0008639524 -0.0063127712 -0.002010042 0.0077063777 0.021514086 0.025073444 0.009752449 0.0128626255
-0.0020713452 0.0042577176 -0.0020347296 0.012801783 0.0062839114 0.0030054715 0.010930384 0.0067645744
0.00031010117 0.0024091366 0.015009993 -0.022868922 -0.0051785163 -0.01763312 0.005968785 0.0036760874
0.01679578 0.0041512735 -0.008442663 0.03748196 0.028430779 -0.00037361577 -0.020861486 0.0016855763
-0.0069225715 0.010982665 -0.017709373 0.044344343 -0.032199923 -0.010271207 0.0033718226 0.0051606013
-0.0024835663 0.021745004 -0.0075220414 -0.0022524856 0.0101654995 0.006635636 -0.012616446 -0.0042539067

transformer.norm.running_var f4 [1280]
00000000: 3d52 c33e f3c0 3d3d 66f7 093e c584 963e
00000010: 6224 bd3e 2dff 8a3b f676 e83c cac5 293e
00000020: a84c 5f3e 3897 253f 7d44 703e 1424 b43d
00000030: aac6 a53e ac39 b53e b65f 573e 87ae 583e
00000040: 2431 cb3e 8312 593e c6a8 1e3f 5290 e33e
00000050: f732 503e 6152 3b3e 208a 173e 63c9 c53e
00000060: d36c 263f e485 0b3f f18d 943e dc0a a53e
00000070: d050 e03e b4be 673e 9c24 ad3e b25f d03c
00000080: 23da 0b3f c55f 023c f647 283f ac6f 103f
00000090: b1e2 d93e adb6 ad3e dc76 133f 9e55 c13c
000000a0: 18d3 5a3e 4c63 7b3e f494 0c3f 9096 b73e
000000b0: 6c5f f43e 4d20 013f 2d12 b13e 440c 853d
000000c0: 58f9 d53e 92a7 203f 56e1 433e e05c 523e
000000d0: bb4a 8a3f de3d 0e3f 9972 e33e a96a 633e
000000e0: 58d3 013d b53d 293e 747b d63e 49ed 833e
000000f0: d11c 453f 5ccf 853e d4f8 4b3c 5a45 df3e
00000100: d2dd 303e 834c f83d acdd 0a3f 8051 3b3d
00000110: 72ad 1b3f 8770 213e 598b d03e 949a 0f3f
00000120: 7c74 003f 6a5e 9e3e b3cb 983c b334 4f3e
00000130: 16e5 9b3e 22b3 613e 18ea 3d3f 8ac6 833e
00000140: 75d7 c43e e655 213f 113c 8b3f 4f5f 003f
00000150: 1747 e23c 7c8d 043f 328b 9d3e 0837 e53e
00000160: 6c1e 043e b600 613e 1b29 7d3e 1891 9d3e
00000170: 462d 863f f90f ee3d a35e 6e3e ac76 f63c
00000180: b7a3 9f3e 61a9 9e3d 8ec9 c03e 7e4d e53d
00000190: 537f 6f3e 14b2 133f f93d 803d 0fd1 ab3e
000001a0: 5c3f d73d 1701 803f 5c00 023e 24e6 0c3e
000001b0: aee6 113e 2f22 133c 5173 493f cd9f a83e
000001c0: e0e6 613e f080 2b3f 495c 2e3e 604c 853d
000001d0: fda5 893e 1213 243f 61ae b93e 306e 883e
000001e0: 27ff a33e 77b9 283f 7c9b 8d3d c780 fe3e
000001f0: c1fb c93e 9290 153d a0d0 9e3d 093c 8a3e
00000200: f7ba ca3d e9fa f43e d6c1 283f d66c 4e3f
00000210: bd07 1e3e fa75 493e d9de de3e af49 813c
00000220: 15ad 5f3f 740f d53d 57e2 bf3b 5680 963e
00000230: 7278 c33e 6de7 d33d 6c65 d93d 6313 a73d
00000240: 956c 163f d568 193c d334 0d3c 4898 0d3f
00000250: eab5 133f a975 e03d c4b5 973e 9c94 8f3d
00000260: 9ffe 823d dd4f d33b cd53 1a3e 95e0 033f
00000270: dae9 4f3e a42c 6f3f bf2e 0c3e 0fac 273e
00000280: 5060 d33d 3aa0 463e f08a 883e 385a c13d
00000290: 4001 893e c134 ba3d 3e73 0a3e bbcc 953e
000002a0: 1acd 6b3e 4c78 013c f1aa 9d3e 1984 983e
000002b0: 9ab4 ba3e a48c 393c 84f2 b93e d00e 323e
000002c0: abbd ca3d d967 e73d 56e6 0e3f b3ba 9a3f
000002d0: 7fca 2f3f 42c2 cf3b 8d5d c93e dbe2 e13e
000002e0: 29d3 a33e aac4 073f 87df 653f 68da dd3d
000002f0: 4cd0 583e 311d c33e 5efc 6c3e 31cc 273f
00000300: f6df b03d f926 3b3c 2e77 f93e d466 5e3f
00000310: 0baa f33e c354 133f a604 313e 3396 5d3b
00000320: 8df3 903e c00d 9b3e 84fd db3d b338 4d3e
00000330: d2ae a73e c339 733d c4df 9f3e a1df 2b3c
00000340: 0b4c 2d3e 8dcc 4b3e be48 843e 9c85 903e
00000350: 1348 003f 04de 033f ba41 923f aa30 0a3e
00000360: 396e a83e 9f0f 7d3d 68d7 723d 8021 dd3e
00000370: 8330 373e 0fa4 af3e f94b 613f 8e80 ab3e
00000380: dd9a 4d3e af38 183e 0809 713e ac48 be3e
00000390: 6d69 3d3e 06dd 123f 9bde d13e f9d1 a93e
000003a0: 7db5 0f3f 9233 0c3d 4d7e 4a3e 01d6 1a3f
000003b0: ebe6 0d3f 1058 e33d 6af8 d43e fe42 d93e
000003c0: 9b85 473e 8227 9d3e e455 0a3f 09e7 cb3e
000003d0: 8657 cc3e 4097 193d b3ad c03e 4efd 8e3e
000003e0: bdfc 3d3f ea5e 893e 4a37 893d 01a0 7d3d
000003f0: cb90 163f c32d 1b3e 08af 4c3e 3545 243d
0.3814868 0.04632659 0.13473281 0.2939817 0.3694182 0.004241845 0.028377037 0.16579357
0.21806586 0.64683867 0.23463626 0.08795944 0.3237813 0.35395563 0.21032605 0.21160327
0.3968593 0.21198468 0.6197628 0.44446045 0.20331942 0.18293144 0.14798784 0.38630208
0.650098 0.54501176 0.29014543 0.32234848 0.43811655 0.22631341 0.33816993 0.025436256
0.54629725 0.007957404 0.65734804 0.564204 0.42555764 0.33928433 0.5760324 0.023600396
0.21369588 0.24549598 0.54914784 0.35857058 0.4772905 0.5043991 0.3458418 0.0649648
0.41791797 0.6275569 0.19128928 0.20543242 1.0804056 0.5556315 0.4442337 0.22208656
0.031695694 0.16527446 0.41891062 0.25766972 0.76997095 0.26134765 0.012449462 0.436076
0.17272118 0.121239685 0.54244494 0.04573202 0.6081153 0.15765582 0.40731314 0.5609524
0.5017774 0.30931407 0.018651819 0.20234947 0.30448216 0.2204099 0.74185324 0.2573741
0.3844563 0.63021696 1.0877706 0.5014543 0.027621789 0.5177839 0.3077026 0.44768548
0.1290223 0.21972927 0.24722712 0.3077476 1.0482566 0.1162414 0.23278289 0.030085884
0.31179592 0.0774715 0.37653774 0.11196421 0.23388414 0.576936 0.0626182 0.33557937
0.10510132 1.0000333 0.1269545 0.13759667 0.14248154 0.008980318 0.78691584 0.32934418
0.22060728 0.6699362 0.17027391 0.06508708 0.26884452 0.640916 0.36265853 0.26646566
0.32030603 0.65907997 0.06914422 0.49707624 0.39449885 0.036514826 0.07754636 0.26998928
0.09898942 0.4784768 0.6592077 0.8063482 0.1543264 0.1967391 0.43529394 0.015782205
0.8737348 0.10403338 0.0058558392 0.29394788 0.3817783 0.10346875 0.10615048 0.081579946
0.58759433 0.009363373 0.008618551 0.5531049 0.57699454 0.10959942 0.29630864 0.07010767
0.06396221 0.0064487294 0.1507103 0.5151456 0.20304051 0.9342749 0.13689707 0.16374229
0.103211045 0.19397059 0.266685 0.09441036 0.26758766 0.09092093 0.13520524 0.2925776
0.23027459 0.007902216 0.3079448 0.29788283 0.36465913 0.011325035 0.36317837 0.17388463
0.098994575 0.11299104 0.55820215 1.2088226 0.6866836 0.006340296 0.39329186 0.4411839
0.3199704 0.5303446 0.897942 0.10832673 0.21173209 0.3810821 0.23143145 0.65545946
0.08636467 0.011422866 0.4872374 0.86875653 0.4759067 0.5755121 0.1728693 0.003381145
0.28310814 0.30283928 0.10741714 0.2004116 0.32750565 0.059381258 0.31225407 0.010490329
0.1692354 0.19902249 0.25836748 0.28226936 0.50109977 0.51510644 1.1426308 0.13495126
0.32896593 0.061782476 0.05928746 0.4318962 0.178896 0.34304854 0.8800655 0.33496517
0.20078607 0.14865373 0.23538601 0.3716482 0.18497248 0.57368505 0.40990147 0.3316801
0.56136304 0.03422887 0.19774742 0.60482794 0.5543048 0.11100781 0.41595775 0.42433923
0.1948456 0.30694205 0.5403731 0.39824703 0.39910525 0.03749776 0.37632522 0.2792763
0.74213773 0.26830226 0.06699999 0.06192017 0.58814687 0.15154175 0.19988644 0.040105063
