models/sqa/xls-r-1b/model_1b_lay41_full.pt (torch, 425869 bytes, 67 tensors)

norm_input.weight f4 [1280]
0.7521241 0.45604366 0.61111814 -0.16224124 0.5867507 0.18213874 0.4732653 0.7394197
0.66639227 0.44535792 0.38300288 0.4142255 0.40398872 0.40850607 0.4586495 0.4436719
0.5862146 0.49155766 0.32737672 0.14942598 0.4441468 0.48517576 0.6868239 0.55162185
0.37222418 0.47394323 0.39225772 0.91030717 0.6499268 0.16735074 0.56384647 0.36847815
0.20702599 0.52787364 0.46830192 0.3532344 0.54096866 0.4789926 0.52710414 0.60613143
0.107230105 0.84377337 0.07151754 0.85275877 0.47595248 0.36295035 0.30889666 0.2985866
0.4651084 -0.12921925 0.41748065 0.45627448 0.12603304 0.54143757 0.76107997 0.4429398
0.19348003 0.29877508 0.17962813 0.5579094 0.27868864 0.73400515 0.27011275 0.81046516
0.42455053 0.48534444 0.6808945 0.77309203 0.5401656 0.16229661 0.47807217 0.39813522
0.5560357 0.25651124 -0.24192356 0.6918129 0.5337737 0.29536724 0.37760803 0.5645584
0.80278283 0.8086164 0.5384619 0.5833601 0.183755 0.94122636 0.5759991 -0.24568509
-0.089368634 0.43126073 0.5870291 0.34757075 0.45998266 0.10117305 0.66420573 0.4486609
-0.105045244 0.16476738 0.42148465 0.3400567 0.27444136 0.618608 0.29295895 0.4425301
0.10077394 0.5144406 -0.22195491 0.22996633 0.6729948 0.5238939 1.0457315 0.532471
0.2998687 0.8421612 0.39372456 0.50892186 0.44417405 0.09148481 0.5383289 0.74002784
0.31777483 0.4899008 0.46699855 0.5290036 -0.14034507 0.19064425 0.24912618 0.48713714
-0.13874695 0.6411355 0.73466015 0.69000995 0.42220744 0.33552173 0.59050065 0.2953775
0.6481197 0.7294585 0.19677676 0.35688597 0.23670156 0.58196104 0.7460276 0.41081846
0.55830836 0.4539745 0.25715145 0.40520862 0.32975686 0.25820935 0.3378265 0.45017692
0.3997024 0.1136937 0.2478067 0.67839146 0.2689279 0.7252895 0.39051285 0.32078332
0.7785895 -0.09416213 0.75386024 0.38179532 0.6772423 0.33517545 0.28947672 0.47054443
0.64963216 -0.31329975 0.46320894 0.5051227 0.38864902 0.15992533 0.643353 -0.10603428
0.4491963 0.36391246 0.38560724 0.64824075 0.81366193 0.44413158 0.44862962 0.4029976
0.5837004 0.44283834 0.3468662 0.3103762 0.3957833 0.180144 0.5617733 0.1280981
0.35362247 0.09526476 0.5341797 0.91926134 0.406671 0.77558035 0.39772564 0.6086833
0.3740692 0.430979 0.28594512 0.57666695 0.42870507 0.5649438 0.3087536 0.5260067
0.46924022 0.4935005 0.49358276 0.59173733 0.5879621 0.7051444 0.44021758 0.63698757
0.22109547 0.32720727 0.2715177 0.46605206 0.42146644 0.371131 0.49931255 0.47484803
0.51280266 0.119628415 0.24145569 0.50641304 0.3789976 0.28619337 0.60958594 0.5121369
0.860934 0.5048385 0.37833533 0.3460877 0.16301085 0.53594553 0.64648545 0.1887449
0.14311083 0.39077464 0.3411096 0.80698866 0.06268555 0.6074326 0.17927627 -0.1793781
0.43187088 0.408244 0.8464169 0.652202 0.46392277 0.6347589 0.5610386 1.0696621
00000000: 348b 403f 8e7e e93e 3d72 1c3f 9122 26be
00000010: 4b35 163f 9482 3a3e d44f f23e 9c4a 3d3f
00000020: af98 2a3f f405 e43e f418 c43e 5d15 d43e
00000030: 9cd7 ce3e b527 d13e 1bd4 ea3e f728 e33e
00000040: 2912 163f 72ad fb3e ec9d a73e 2003 193e
00000050: 3667 e33e f568 f83e b1d3 2f3f 1737 0d3f
00000060: 2b94 be3e b0a8 f23e 01d6 c83e e409 693f
00000070: 9a61 263f fe5d 2b3e 3e58 103f 2ba9 bc3e
00000080: 9ffe 533e ba22 073f 45c5 ef3e 24db b43e
00000090: ec7c 0a3f 853e f53e 4cf0 063f 6e2b 1b3f
000000a0: 759b db3d 8801 583f ca77 923d 664e 5a3f
000000b0: 0bb0 f33e a1d4 b93e b427 9e3e 58e0 983e
000000c0: b022 ee3e 0d52 04be 06c0 d53e cf9c e93e
000000d0: ce0e 013e a79b 0a3f 23d6 423f 01c9 e23e
000000e0: a11f 463e 0cf9 983e 70f0 373e 27d3 0e3f
000000f0: 47b0 8e3e c3e7 3b3f 384c 8a3e a57a 4f3f
00000100: b05e d93e 117f f83e 1a4f 2e3f 5ce9 453f
00000110: 4b48 0a3f 1531 263e e0c5 f43e 61d8 cb3e
00000120: 5b58 0e3f 7155 833e cfba 77be a61a 313f
00000130: 65a5 083f 603a 973e d755 c13e e686 103f
00000140: 2d83 4d3f 7c01 4f3f a4d8 093f 1657 153f
00000150: 452a 3c3e 36f4 703f ad74 133f df94 7bbe
00000160: e706 b7bd 35ce dc3e 8a47 163f cbf4 b13e
00000170: d982 eb3e d133 cf3d 6309 2a3f e2b6 e53e
00000180: f621 d7bd c8b8 283e d6cc d73e e91b ae3e
00000190: 9483 8c3e 185d 1e3f b7fe 953e 4e93 e23e
000001a0: 9162 ce3d 61b2 033f 2648 63be 4b7c 6b3e
000001b0: 6349 2c3f e91d 063f 88da 853f 0550 083f
000001c0: 6488 993e e097 573f 4496 c93e b448 023f
000001d0: c86a e33e 635c bb3d eccf 093f 7772 3d3f
000001e0: 62b3 a23e 47d4 fa3e 6f1a ef3e c86c 073f
000001f0: 9eb6 0fbe 3f38 433e ef1a 7f3e 0a6a f93e
00000200: ae13 0ebe 7521 243f b012 3c3f 7ea4 303f
00000210: 932b d83e 81c9 ab3e 0d2b 173f b83b 973e
00000220: 2ceb 253f cbbd 3a3f d97f 493e c2b9 b63e
00000230: e561 723e 66fb 143f aafb 3e3f cc56 d23e
00000240: 4ced 0e3f 586f e83e 5ba9 833e 8177 cf3e
00000250: e4d5 a83e 0434 843e 98f7 ac3e 977d e63e
00000260: cba5 cc3e 3ed8 e83d 0ac1 7d3e 10ab 2d3f
00000270: ebb0 893e 93ac 393f 4df1 c73e b63d a43e
00000280: a451 473f 13d8 c0bd fcfc 403f ad7a c33e
00000290: c05f 2d3f 1e9c ab3e 4b36 943e 33eb f03e
000002a0: 4b4e 263f d368 a0be b929 ed3e b94f 013f
000002b0: 01fd c63e 77c3 233e c8b2 243f 8028 d9bd
000002c0: 0ffd e53e bc52 ba3e 506e c53e 1bf3 253f
000002d0: 264c 503f 3765 e33e c8b2 e53e b455 ce3e
000002e0: 646d 153f b5bb e23e 7298 b13e a1e9 9e3e
000002f0: 1ca4 ca3e ab77 383e 60d0 0f3f 262c 033e
00000300: 010e b53e 2c1a c33d 00c0 083f b654 6b3f
00000310: 2e37 d03e 6f8c 463f b2a2 cb3e abd2 1b3f
00000320: 0086 bf3e 48a9 dc3e 6667 923e 72a0 133f
00000330: 3b7f db3e 28a0 103f f414 9e3e 60a8 063f
00000340: 4140 f03e 19ac fc3e e1b6 fc3e 197c 173f
00000350: af84 163f 5884 343f 3364 e13e 9e11 233f
00000360: da66 623e b687 a73e 5e04 8b3e 609e ee3e
00000370: 73ca d73e e204 be3e e5a5 ff3e 481f f33e
00000380: 0947 033f beff f43d 2940 773e 49a4 013f
00000390: f90b c23e f087 923e d30d 1c3f 671b 033f
000003a0: 2c66 5c3f 193d 013f 2bb5 c13e 6832 b13e
000003b0: 51ec 263e ba33 093f 1280 253f 5846 413e
000003c0: a58b 123e 9d13 c83e eba5 ae3e cf96 4e3f
000003d0: 4861 803d b480 1b3f 3394 373e e5ae 37be
000003e0: 2e1e dd3e 5c05 d13e c7ae 583f b6f6 263f
000003f0: 4987 ed3e 8f7f 223f 3aa0 0f3f b0ea 883f

norm_input.bias f4 [1280]
0.003329679 -0.0024190575 0.0074275467 -0.004068613 -0.0018330718 -0.005998479 -0.014479739 -0.016283829
-0.031291652 0.014456223 -0.0026299213 -0.004011274 -0.0022986657 0.0029307706 -0.0045654844 0.005230232
0.01883786 -0.004435054 -0.010827455 -0.009791942 -0.0012721675 -0.011616369 0.020630809 -0.007847908
0.003633288 0.013955832 -0.0033172132 0.014050591 0.005626891 0.01516524 -0.0002395443 -0.0041980892
-0.003613774 -0.0007121663 -0.0025736734 -0.02367599 0.008218668 0.011343942 0.010872443 -0.03038586
0.011727248 0.009724522 -0.007735165 -0.04025249 -0.013287436 0.0032138464 0.010819223 0.01359526
0.008304806 -0.012285693 -0.00039866727 0.005217838 0.004943826 0.007626987 0.01194555 0.015370701
0.008402828 -0.008402048 -0.0045800093 -0.007045363 0.0074390434 -0.0018008148 -0.003069055 0.024816096
-0.011110929 1.8806124e-05 -0.007506203 -0.020377474 -0.040055685 -0.0028514713 -0.0052034925 -0.028087009
0.017246494 -0.011705399 -0.0001362293 0.004060202 0.015051102 0.012224975 0.0012454252 -0.0185719
0.01635543 -0.023303602 -0.010384645 0.010401425 -0.009517505 0.047073368 0.0071159736 -0.009926779
0.0045069084 -0.003056316 8.2683466e-05 -0.010749725 0.007665975 -0.0020381438 -0.007143587 0.008218071
-0.0021920507 -0.005125891 0.008660384 0.00851959 0.0056756046 -0.010858434 -0.0061886674 0.009259737
0.0112972865 0.010796245 0.001424298 0.0042027324 -0.015384753 -0.009338475 -0.014760858 0.0034751457
-0.0019759273 -0.020230021 -0.025442513 0.019897614 -0.0044217412 0.0050741527 -0.027353566 0.013423509
0.004860701 0.009675329 -0.00028957755 -0.012424518 -0.00011716397 0.011481113 -0.0017979551 -0.0032119553
0.0022592503 0.0038847337 -0.00055795227 0.0025360112 0.012451425 0.0004510145 0.007277855 -0.0040713786
-0.025614748 0.018609643 -0.011168246 0.0014334321 -0.005053233 0.004574472 0.008626393 0.010042371
-0.0013268322 -0.002883057 0.009652431 -0.007825534 -0.0024312483 -0.00806386 -0.006422131 -0.004930927
0.0034392504 0.0068144384 -0.00562893 -0.01748613 0.0017078172 0.0068182307 0.0026188286 -0.0039373497
-0.02486504 -0.0010177366 0.009582986 -0.0035089883 -0.014641949 0.0008489226 -0.002943713 -0.0036823424
-0.0040519615 -0.016858948 0.028969498 -0.011270759 0.008872127 -0.004298761 -0.007279098 -0.0067965304
-0.0032895952 0.0038763816 0.021012533 -0.01199919 -0.0024712842 -0.010331619 -0.005989726 0.0043316428
0.011409473 0.00827649 -0.0020329838 -0.003367949 0.009136908 0.00011234751 -0.02496904 0.005455874
0.0069075525 -0.00069871894 0.013660778 0.009612239 -0.00448404 -0.00029338137 0.005851558 -0.0038440384
0.00018327934 -0.003179663 0.0075352797 -0.0063887117 0.004555249 -0.005976201 0.0034131596 0.003458503
0.0018157897 0.00083645905 0.0023683647 -0.007102558 0.010746525 0.027355215 0.010714418 -0.0131756095
0.010565872 0.019770581 4.5318047e-05 -0.0059100934 0.0058751963 0.010762508 0.006828182 -0.021058688
0.005711611 -0.0041985363 -0.0017524975 -0.011081934 0.01938188 0.022113552 0.009363881 0.0068345466
0.0077447486 -0.0072442186 0.000279572 -0.015008419 0.007013811 0.013004735 0.006912294 -0.001273988
-0.001114873 0.011222107 -0.009068317 -0.02833637 -0.0013564413 0.01569903 -0.0134981405 0.00075032597
0.0054940167 -0.014541836 0.02564772 -0.0015892963 -0.001128125 -0.016710626 -0.0051168557 -0.0303263
00000000: be36 5a3b 0d89 1ebb c762 f33b 0052 85bb
00000010: af43 f0ba e48e c4bb 6d3c 6dbc aa65 85bc
00000020: ad2b 00bd cbd9 6c3c c25a 2cbb 0171 83bb
00000030: 36a5 16bb 2c12 403b 0f9a 95bb 5e62 ab3b
00000040: db51 9a3c ee53 91bb a365 31bc 626e 20bc
00000050: dcbe a6ba 9552 3ebc f101 a93c 8394 00bc
00000060: 751c 6e3b 01a7 643c 9a65 59bb 7334 663c
00000070: c861 b83b a077 783c 2f2e 7bb9 2090 89bb
00000080: 11d5 6cbb acb0 3aba 13ab 28bb 26f4 c1bc
00000090: 98a7 063c f1db 393c 5522 323c c4eb f8bc
000000a0: a523 403c 9a53 1f3c 4477 fdbb ccdf 24bd
000000b0: 8cb3 59bc 659f 523b 1c43 313c a7be 5e3c
000000c0: e210 083c ee49 49bc 3704 d1b9 66fa aa3b
000000d0: d1ff a13b ceeb f93b 45b7 433c 65d5 7b3c
000000e0: 04ac 093c bea8 09bc e713 96bb cadc e6bb
000000f0: 38c3 f33b 5109 ecba 3322 49bb 204b cb3c
00000100: 9d0a 36bc d8c1 9d37 98f6 f5bb a9ee a6bc
00000110: 6e11 24bd c0df 3abb 0f82 aabb ba16 e6bc
00000120: 8548 8d3c 00c8 3fbc c6d8 0eb9 710b 853b
00000130: e698 763c 434b 483c 893d a33a 1924 98bc
00000140: d3fb 853c 32e7 bebc 5c24 2abc bd6a 2a3c
00000150: 4fef 1bbc 01d0 403d 1d2d e93b eea3 22bc
00000160: b0ae 933b 794c 48bb 5966 ad38 9d1f 30bc
00000170: dc32 fb3b 6192 05bb c014 eabb 17a5 063c
00000180: 82a8 0fbb 17f7 a7bb 49e4 0d3c c095 0b3c
00000190: 6cfa b93b 93e7 31bc 4eca cabb 27b6 173c
000001a0: 4118 393c bce2 303c 83af ba3a 13b7 893b
000001b0: 5510 7cbc 6700 19bc 87d7 71bc 45bf 633b
000001c0: 8f7e 01bb 6eb9 a5bc d16c d0bc 5200 a33c
000001d0: 41e4 90bb 1445 a63b 9614 e0bc 47ee 5b3c
000001e0: 8446 9f3b 4585 1e3c 71d2 97b9 3590 4bbc
000001f0: edb5 f5b8 471b 3c3c 5da9 ebba ab7f 52bb
00000200: ee0f 143b 0497 7e3b 8b43 12ba 3533 263b
00000210: 1001 4c3c 2476 ec39 137b ee3b 3369 85bb
00000220: 05d6 d1bc 4073 983c 05fb 36bc 00e2 bb3a
00000230: 9795 a5bb 74e5 953b b755 0d3c c288 243c
00000240: 1ae9 adba acf1 3cbb 3b25 1e3c ab36 00bc
00000250: 9455 1fbb 481e 04bc bd70 d2bb 9d93 a1bb
00000260: 0c65 613b a74b df3b e372 b8bb 133f 8fbc
00000270: d6d8 df3a 776b df3b a7a0 2b3b e204 81bb
00000280: c5b1 cbbc 9365 85ba f501 1d3c 0ef7 65bb
00000290: c9e4 6fbc 3b8a 5e3a 4feb 40bb 7453 71bb
000002a0: 51c6 84bb c71b 8abc 7151 ed3c fda8 38bc
000002b0: 665c 113c 9fdc 8cbb 8085 eebb 6eb5 debb
000002c0: 4096 57bb e40a 7e3b 7a22 ac3c 4098 44bc
000002d0: 45f5 21bb f345 29bc 7745 c4bb 74f0 8d3b
000002e0: ccee 3a3c 1d9a 073c cf3b 05bb cfb8 5cbb
000002f0: f8b2 153c 1c9c eb38 df8b ccbc 30c7 b23b
00000300: c058 e23b 3c2a 37ba 75d1 5f3c a77c 1d3c
00000310: dbee 92bb fbd0 99b9 6dbe bf3b 43ec 7bbb
00000320: ac2e 4039 e561 50bb 82ea f63b 6658 d1bb
00000330: 3344 953b 02d4 c3bb 51af 5f3b 0da8 623b
00000340: cbff ed3a d145 5b3a 9136 1b3b 93bc e8bb
00000350: 3112 303c 0b18 e03c 878b 2f3c 83de 57bc
00000360: 7b1c 2d3c eaf5 a13c e213 3e38 75a9 c1bb
00000370: b884 c03b 3b55 303c f1be df3b 4583 acbc
00000380: 7728 bb3b e093 89bb 0fb4 e5ba 0091 35bc
00000390: c0c6 9e3c 7b27 b53c f76a 193c 55f4 df3b
000003a0: a9c7 fd3b e960 edbb 8593 9239 dfe5 75bc
000003b0: 1cd4 e53b d011 553c 8680 e23b f2fb a6ba
000003c0: ee20 92ba eedc 373c 4793 14bc ad21 e8bc
000003d0: 9eca b1ba 419b 803c 4e27 5dbc 86b1 443a
000003e0: 2707 b43b e240 6ebc 2b1b d23c ef4f d0ba
000003f0: 98dd 93ba b9e4 88bc 4cab a7bb dc6e f8bc

norm_input.running_mean f4 [1280]
-0.18042561 -0.39994308 -0.101181574 0.63820404 -0.4311403 0.14987555 0.96396154 -0.50571924
0.19048849 0.10548524 0.7536442 0.11639827 0.28925335 -1.0588646 0.25603235 0.8820594
-0.48245922 0.97713536 0.7022169 0.35931498 0.51275915 -0.008725584 0.85072666 0.29730994
0.040790386 0.17951821 -0.31032327 0.38609317 -0.25122276 -0.28298905 -0.4960852 1.0187973
-0.8027272 -1.1464952 -0.13089526 -0.59072846 0.24097054 0.8026067 -0.94042474 0.028377226
-0.22964455 -0.59397185 -0.26899314 -0.62280256 -0.2031381 0.0035799884 0.04187257 -1.0941662
-0.760195 1.0816733 -0.183871 1.1245017 0.10031931 0.2005408 0.5972063 0.8225724
-0.6005058 -0.62309587 1.2068968 -0.13812742 -1.4428868 -0.2796267 -0.9447216 -0.20975713
-0.2618674 0.7435428 0.83812505 -0.21621434 -0.47575462 0.40955064 1.1370994 0.25362724
0.6558894 0.9499673 2.8662868 -0.27099058 -0.15078689 -0.1010408 -0.18845458 0.54359615
0.0453543 -0.52375996 -0.2954687 0.21229571 1.1247239 0.31435868 -0.26753554 3.2722883
0.1418415 -0.49564236 -0.45153028 0.62276906 -0.30318627 -1.4458607 0.4349065 0.4089819
0.21570176 -0.32875243 -0.3111698 0.79142976 -0.875601 -0.43789247 -0.5042988 0.8736577
0.3377699 0.61769116 0.42273402 -0.50483686 0.11224766 -1.2724284 0.23919894 -1.1855298
0.56922024 1.1212701 0.4133324 0.052150164 0.56656057 -1.4837782 0.5375674 0.74859434
-0.43984833 -0.12176044 -0.65357506 -0.75687385 0.0322363 0.79043436 -3.4423754 -0.16009328
-2.2163458 0.2563303 -1.0146391 -0.354785 0.45282504 0.1020862 0.43166143 0.34309915
0.33018947 0.13640776 -0.15811259 0.4871975 0.30335557 -0.31610435 -0.38800797 0.9295426
0.6224377 0.07765396 -0.31660983 0.44452947 -0.2607776 -0.52957255 -0.67986655 0.3709816
-0.94253343 0.19826397 0.13482304 0.74714714 0.043135263 -0.28465927 -1.2496425 -0.1485933
0.5741363 0.115947396 -0.5964941 1.1718619 -0.70267504 -0.45649308 0.8815097 1.5823715
0.37311047 -0.08564933 0.009885976 0.30523762 -0.4306891 -0.1593768 0.72784036 0.9122877
0.8735469 0.17897683 -0.39629585 0.16817632 -0.33929706 0.19710456 -0.4429901 -0.63610667
-1.7872779 0.05836606 -0.4248558 0.8392241 -1.5567639 1.0049325 0.3851068 0.5427296
-0.18108998 0.26135054 0.80769545 -0.9356985 -0.7881853 0.20708518 -0.10358367 -1.1565301
0.36336082 -0.26966417 0.3301207 0.9121098 -0.030942824 -0.25421664 -0.24186267 -0.77914476
0.4987464 0.29969016 -0.08583386 -0.020990754 0.41236556 0.4012602 0.22470386 0.9976902
-0.15243505 0.29208547 0.15741162 0.30341333 -0.29588896 0.4627881 -1.150778 0.23179571
0.12151589 -0.6186939 1.1859266 1.4265494 0.3583363 0.31387907 -0.19764653 -0.004342225
-0.16471076 1.376789 2.0411744 0.19568071 -0.1942567 0.026479816 -0.3872987 0.2384208
0.82974756 0.8827614 0.99948716 -0.85362434 -0.02280614 0.3085912 -0.9378133 0.55659866
0.2159061 -0.13638334 0.5187222 0.015256319 -0.36455548 0.28481686 -0.43260202 -0.61437565
00000000: 7ec1 38be 57c5 ccbe 4938 cfbd 5761 233f
00000010: 6cbe dcbe fa78 193e 2fc6 763f d176 01bf
00000020: 6a0f 433e a508 d83d d4ee 403f 3762 ee3d
00000030: 0419 943e e088 87bf ac16 833e a5ce 613f
00000040: e504 f7be 8b25 7a3f 7dc4 333f 22f8 b73e
00000050: 2f44 033f c0f5 0ebc 39c9 593f 0239 983e
00000060: d213 273d 9fd3 373e b1e2 9ebe 01ae c53e
00000070: 45a0 80be f1e3 90be e1fe fdbe f367 823f
00000080: 887f 4dbf 5bc0 92bf 6809 06be fb39 17bf
00000090: fbc0 763e a277 4d3f adbf 70bf 5b77 e83c
000000a0: f127 6bbe 8a0e 18bf 78b9 89be fd6f 1fbf
000000b0: 6f03 50be 3d9e 6a3b 9282 2b3d a30d 8cbf
000000c0: 249c 42bf 4574 8a3f ae48 3cbe acef 8f3f
000000d0: 3674 cd3d 915a 4d3e 83e2 183f 1b94 523f
000000e0: c0ba 19bf 3683 1fbf 987b 9a3f 4671 0dbe
000000f0: 84b0 b8bf 3b2b 8fbe 46d9 71bf 93ca 56be
00000100: 7c13 86be d258 3e3f 5d8f 563f 4b67 5dbe
00000110: 1c96 f3be 9fb0 d13e 798c 913f 6edb 813e
00000120: 5ee8 273f 0f31 733f 3e71 3740 47bf 8abe
00000130: e167 1abe 7bee cebd 3dfa 40be 1e29 0b3f
00000140: 6ec5 393d 2215 06bf ac47 97be 0c64 593e
00000150: f4f6 8f3f 9ff3 a03e 6bfa 88be 2c6d 5140
00000160: e63e 113e d6c4 fdbe fa2e e7be cb6d 1f3f
00000170: 3b3b 9bbe f711 b9bf 11ac de3e 1366 d13e
00000180: ece0 5c3e 3d52 a8be a651 9fbe 249b 4a3f
00000190: 6327 60bf 7133 e0be ba19 01bf 08a8 5f3f
000001a0: 2df0 ac3e 0221 1e3f 9870 d83e fd3c 01bf
000001b0: 1ae2 e53d efde a2bf 91f0 743e 71bf 97bf
000001c0: 6bb8 113f c785 8f3f 4ea0 d33e 699b 553d
000001d0: 1d0a 113f 72ec bdbf 049e 093f e1a3 3f3f
000001e0: cd33 e1be 8a5d f9bd b250 27bf 7cc2 41bf
000001f0: 360a 043d e859 4a3f e14f 5cc0 7eef 23be
00000200: 9cd8 0dc0 ba3d 833e b2df 81bf 61a6 b5be
00000210: afd8 e73e 9212 d13d ba02 dd3e b1aa af3e
00000220: 980e a93e 7aae 0b3e 44e8 21be f371 f93e
00000230: 6c51 9b3e 6ed8 a1be fba8 c6be 81f6 6d3f
00000240: 1458 1f3f 0a09 9f3d af1a a2be 5e99 e33e
00000250: a484 85be 1192 07bf bc0b 2ebf 4df1 bd3e
00000260: df49 71bf b605 4b3e 0d0f 0a3e 0945 3f3f
00000270: 9aae 303d dcbe 91be 49f4 9fbf d828 18be
00000280: 99fa 123f d475 ed3d d6b3 18bf 92ff 953f
00000290: 83e2 33bf 76b9 e9be 9faa 613f 268b ca3f
000002a0: 5608 bf3e ea68 afbd caf8 213c 1b48 9c3e
000002b0: 4883 dcbe ac33 23be bf53 3a3f b08b 693f
000002c0: c5a0 5f3f b445 373e 4ae7 cabe 6a36 2c3e
000002d0: 58b8 adbe c7d5 493e 99cf e2be e3d7 22bf
000002e0: 86c5 e4bf 4011 6f3d b386 d9be 64d7 563f
000002f0: 0a44 c7bf a1a1 803f b82c c53e 54f0 0a3f
00000300: a76f 39be bdcf 853e 21c5 4e3f f089 6fbf
00000310: 83c6 49bf 230e 543e ad23 d4bd 2e09 94bf
00000320: 6e0a ba3e 6c11 8abe 9505 a93e 0780 693f
00000330: ce7b fdbc af28 82be d9aa 77be 0876 47bf
00000340: b05b ff3e fd70 993e aac9 afbd cdf4 abbc
00000350: 9421 d33e fa71 cd3e c518 663e a068 7f3f
00000360: ef17 1cbe 3a8c 953e 8330 213e fe58 9b3e
00000370: c27e 97be 90f2 ec3e b24c 93bf db5b 6d3e
00000380: 53dd f83d b962 1ebf 71cc 973f 2c99 b63f
00000390: db77 b73e c2b4 a03e da63 4abe 3949 8ebb
000003a0: f0a9 28be 9f3a b03f 9aa2 0240 8660 483e
000003b0: 3aeb 46be 33ec d83c 044c c6be 9524 743e
000003c0: 566a 543f a7fc 613f 64de 7f3f 2087 5abf
000003d0: f1d3 babc aaff 9d3e 8814 70bf 407d 0e3f
000003e0: 7d16 5d3e 13a8 0bbe faca 043f a4f5 793c
000003f0: 04a7 babe 84d3 913e 037e ddbe b947 1dbf

norm_input.running_var f4 [1280]
2.1697342 2.2020478 2.0121753 2.3597543 2.8010294 2.0272384 4.048155 2.1078246
1.8908892 1.8440676 1.9144871 2.456203 3.7746582 3.780903 1.7202338 1.949927
2.395506 4.2856216 2.8806756 2.3770978 2.89217 1.5552655 2.7372763 2.6759245
2.0455592 8.567023 9.125035 1.660522 1.6820638 2.053722 11.503836 3.0820987
3.538438 2.328121 2.2664256 2.2054458 3.9755113 2.2347145 2.6065207 1.9362468
3.3826988 2.945249 2.2556498 1.7644111 1.799791 1.7088803 2.7832866 2.1435695
3.4877002 2.1394095 2.929661 2.4651523 1.7393944 3.24162 3.5545957 2.5439541
2.11833 2.6151106 2.0692058 1.8870908 3.071099 2.6653752 2.5213418 2.1305785
2.406664 2.833978 1.9732324 2.6296883 1.9383223 3.645154 2.9974728 2.9898992
4.5307326 1.9589117 20.252178 2.0318182 2.7126384 1.9391247 1.5754505 2.2962506
2.7314074 2.3446095 1.6444606 2.5647693 3.024765 1.8136783 2.1847048 4.8749514
3.006206 2.2374282 2.1675186 2.144362 2.9192853 2.6026075 2.2680278 1.8991206
3.2760906 2.0467231 5.0532413 1.7902523 1.6765596 2.6109452 1.8185711 3.0077763
2.67289 2.7673674 1.6878583 2.9649277 2.1466672 2.621388 2.1023395 2.405941
3.45592 4.6885233 2.1433556 2.021312 2.4534383 3.5056777 2.3976943 1.5749269
2.25602 1.6999673 2.2590115 1.550252 1.4551791 1.8938646 10.443005 1.8746651
36.83882 1.4805089 4.8319497 2.9572797 1.9035339 2.6450496 2.9500349 2.764711
2.0468864 1.9969326 1.847036 1.7206693 1.7663269 1.8218851 2.3101637 3.1555645
1.7837621 2.6287737 2.6289368 1.7562498 1.5815176 3.8115058 1.9117856 1.9782159
2.050031 2.5799725 2.1273127 2.4536152 1.7791468 2.1396787 2.1498296 2.1618524
2.0025053 2.1032505 6.7129927 2.3815267 1.5927514 2.0756612 1.9294903 2.487281
2.080156 2.362423 1.7902529 2.8915117 2.0790744 2.556866 3.198574 4.022565
1.9840692 2.1568456 2.7654095 2.4524803 2.3254905 2.4144573 2.5462542 2.9499903
2.864851 1.6438789 2.1763349 3.0984035 1.8655691 3.8999972 2.0116138 2.8928812
1.9723256 2.4206147 2.27374 1.9361765 2.2188914 2.5497541 2.430128 1.8420913
2.433287 1.9267 1.883149 1.8624446 2.7080035 1.7363927 2.0447423 2.2802415
2.112856 2.0928347 1.7230625 1.9114696 1.8233776 2.1695626 1.6126275 2.0084178
1.6621082 2.341517 3.5340204 2.2823784 1.8960054 2.1895835 2.3018813 1.9863232
1.3854756 3.150215 2.2501776 1.978358 3.7765539 1.8750612 2.058697 2.0611756
2.0576465 3.189418 3.99409 1.6923003 2.4367404 2.1546438 3.6372523 1.8065875
4.0032988 3.755074 2.8594656 2.2048838 1.5197257 9.197019 1.8180804 1.5019001
1.9162885 2.0507631 2.285693 2.6658053 3.3842137 4.037778 2.2726645 2.3553154
00000000: eddc 0a40 5aee 0c40 7bc7 0040 3706 1740
00000010: 1144 3340 46be 0140 7c8a 8140 99e6 0640
00000020: a808 f23f 680a ec3f ea0d f53f 6e32 1d40
00000030: 0094 7140 51fa 7140 9f30 dc3f 3597 f93f
00000040: f84f 1940 d023 8940 fd5c 3840 5f22 1840
00000050: 5019 3940 f112 c73f 892f 2f40 5942 2b40
00000060: 71ea 0240 8712 0941 2500 1241 fc8b d43f
00000070: de4d d73f 2e70 0340 b60f 3841 1b41 4540
00000080: c575 6240 efff 1440 1e0d 1140 0626 0d40
00000090: c76e 7e40 9005 0f40 3cd1 2640 efd6 f73f
000000a0: 237e 5840 f67e 3c40 915c 1040 39d8 e13f
000000b0: 8d5f e63f 97bc da3f 5e21 3240 3e30 0940
000000c0: 7b36 5f40 16ec 0840 917f 3b40 0ec5 1d40
000000d0: 7aa4 de3f b476 4f40 7f7e 6340 25d0 2240
000000e0: b892 0740 f95d 2740 de6d 0440 318c f13f
000000f0: e38c 4440 8295 2a40 aa5d 2140 665b 0840
00000100: c806 1a40 e55f 3540 e192 fc3f d04c 2840
00000110: f21a f83f 344a 6940 98d6 3f40 825a 3f40
00000120: c3fb 9040 9ebd fa3f 7604 a241 4f09 0240
00000130: de9b 2d40 3d35 f83f 5da8 c93f c5f5 1240
00000140: 61cf 2e40 150e 1640 af7d d23f 2e25 2440
00000150: c095 4140 9c26 e83f 34d2 0b40 9aff 9b40
00000160: ae65 4040 0632 0f40 a0b8 0a40 3a3d 0940
00000170: 92d5 3a40 1f91 2640 5e27 1140 6216 f33f
00000180: 78ab 5140 83fd 0240 27b4 a140 fd26 e53f
00000190: 8199 d63f ba19 2740 f0c6 e83f 687f 4040
000001a0: a110 2b40 8c1c 3140 be0b d83f 60c1 3d40
000001b0: ff62 0940 d2c4 2740 bb8c 0640 f0fa 1940
000001c0: cb2d 5d40 6208 9640 bd2c 0940 2d5d 0140
000001d0: 2205 1d40 065d 6040 d373 1940 3497 c93f
000001e0: a262 1040 8798 d93f a593 1040 a86e c63f
000001f0: 4f43 ba3f 286a f23f 8c16 2741 07f5 ef3f
00000200: f45a 1342 5181 bd3f 559f 9a40 1244 3d40
00000210: 00a7 f33f 7e48 2940 5fcd 3c40 06f1 3040
00000220: 3000 0340 7d9b ff3f ad6b ec3f e43e dc3f
00000230: 0017 e23f 8833 e93f b9d9 1340 c5f4 4940
00000240: 5152 e43f d43d 2840 8040 2840 cbcc e03f
00000250: 2b6f ca3f b6ef 7340 64b5 f43f 2e36 fd3f
00000260: b533 0340 451e 2540 e425 0840 0808 1d40
00000270: 15bb e33f 7ff0 0840 cf96 0940 ca5b 0a40
00000280: 0c29 0040 a89b 0640 d6d0 d640 ef6a 1840
00000290: 47df cb3f a2d7 0440 8af9 f63f 9d2f 1f40
000002a0: 4721 0540 f031 1740 0227 e53f 870e 3940
000002b0: 8e0f 0540 b1a3 2340 70b5 4c40 dab8 8040
000002c0: fbf5 fd3f c209 0a40 78fc 3040 70f5 1c40
000002d0: d6d4 1440 7886 1a40 d4f5 2240 a4cc 3c40
000002e0: b859 3740 a06a d23f 1249 0b40 3e4c 4640
000002f0: f8ca ee3f 8e99 7940 48be 0040 f724 3940
00000300: 2a75 fc3f 5aeb 1a40 f584 1140 a2d4 f73f
00000310: 5102 0e40 2c2f 2340 3887 1b40 a6c9 eb3f
00000320: f9ba 1b40 1b9e f63f 070b f13f 9664 ee3f
00000330: ee4f 2d40 1e42 de3f 0fdd 0240 7aef 1140
00000340: 0839 0740 01f1 0540 508d dc3f 09ab f43f
00000350: 7064 e93f 1dda 0a40 946a ce3f eb89 0040
00000360: f6bf d43f 6adb 1540 642d 6240 7d12 1240
00000370: 4eb0 f23f 2322 0c40 0652 1340 d73f fe3f
00000380: 4457 b13f 1f9d 4940 e902 1040 d63a fd3f
00000390: 0fb3 7140 0102 f03f b1c1 0340 4dea 0340
000003a0: 7bb0 0340 6d1f 4c40 2c9f 7f40 4c9d d83f
000003b0: 8ef3 1b40 afe5 0940 bec8 6840 423e e73f
000003c0: 061b 8040 2253 7040 7c01 3740 d11c 0d40
000003d0: 5f86 c23f fd26 1341 dcb6 e83f 433e c03f
000003e0: f148 f53f b43f 0340 cb48 1240 8e9c 2a40
000003f0: f596 5840 7a35 8140 5673 1140 7dbd 1640

transformer.norm.weight f4 [1280]
0.6978893 0.39138547 0.5725028 -0.2096786 0.5220538 -0.15307967 0.44630927 0.7214427
0.69734365 0.38955906 0.24403286 0.3822566 0.34333467 0.3015501 0.33483046 0.35196874
0.6915393 0.48763242 0.2266246 0.2096538 0.3439764 0.3941323 0.78072786 0.54654866
0.32847196 0.43409014 0.4329092 0.9138742 0.5776712 0.22758135 0.49574447 0.43870872
0.08982915 0.41148752 0.42751986 0.2298866 0.5557929 0.46617258 0.5102094 0.62829214
0.030306805 0.8685004 -0.035996802 0.8723526 0.42386764 0.29262424 0.18715188 0.13928717
0.4843509 0.061239205 0.27948007 0.42318633 0.003396955 0.45568627 0.7574467 0.3937751
0.18058279 0.14889698 0.08965766 0.43547732 0.28801256 0.68302524 0.23799944 0.8695127
0.32382315 0.3821283 0.6690158 0.7328408 0.59910107 0.054854322 0.5090086 0.3356707
-0.51140153 0.155858 0.351874 0.6955535 0.42307124 -0.28649366 0.28718385 0.60125995
0.82950425 0.86814266 0.5389406 0.49164394 -0.10295068 1.0979878 0.54624814 -0.19279534
-0.042989165 0.3507077 0.61215264 0.23476014 0.3346675 -0.042710483 0.6443042 0.3558497
-0.11800242 0.10148648 0.40461683 0.20555359 0.18652354 0.5700118 0.15117529 0.3739619
0.09000311 0.4276544 -0.1566725 0.10543885 0.7258219 0.43030065 1.1303563 0.50518113
0.246181 0.86812985 0.29311377 0.4169744 0.29745474 -0.06707662 0.58248675 0.6892555
0.27951786 0.38923034 0.44076076 0.4335674 -0.14114419 0.2071994 0.24399991 0.4043161
0.040799055 0.5430484 0.7539866 0.798873 0.31465414 0.20149717 0.6546955 0.22294363
0.7059306 0.8042096 0.27635974 0.28620994 0.11701511 0.6550702 0.7436112 0.4142526
0.5529883 0.3603268 0.21682923 0.27004164 0.2671478 0.14024548 0.2147974 0.38281524
0.28643683 0.22460432 0.18742129 0.72932357 0.2083344 0.7731834 0.2722112 0.24678741
0.7928502 0.014162873 0.782516 0.25259182 0.7005733 0.22734258 0.17498942 0.41020036
0.613558 -0.23569168 0.41844857 0.41459984 0.31528178 0.033386946 0.5866418 -0.062239222
0.40966237 -0.43373978 0.3031074 0.7257101 0.76194257 0.36623928 0.3426067 0.3037369
0.62079835 0.32592708 0.20597044 0.38725114 0.34060574 0.053255856 0.4913248 0.034435786
0.29261652 0.08472545 0.56638676 0.95209944 0.26825315 0.85294515 0.328466 0.53755367
0.383291 0.35206133 -0.12781133 0.47953984 0.31664342 0.55626625 0.1974245 0.4320153
0.37804756 0.47200677 0.4290858 0.5615611 0.57393813 0.7362535 0.4295161 0.6002555
0.10055993 0.20469636 0.12140406 0.39105406 0.3356499 0.31168795 0.52316827 0.50704503
0.53822875 0.073904425 0.120789796 0.47307917 0.26270294 0.33188385 0.5274907 0.5031029
0.8969082 0.4739801 0.34641045 0.36080703 0.15593149 0.48057315 0.6853109 0.47275382
0.0796735 0.32002345 0.25464007 0.8949299 0.03471235 0.56474066 0.09416193 -0.1817298
0.4050855 0.32645386 0.86049783 0.5988929 0.37997973 0.64025575 0.5011568 1.1400363
00000000: e0a8 323f ad63 c83e 8b8f 123f fdb5 56be
00000010: 51a5 053f ebc0 1cbe a682 e43e 78b0 383f
00000020: 1d85 323f 4974 c73e c0e3 793e 23b7 c33e
00000030: 90c9 af3e c664 9a3e e66e ab3e 3f35 b43e
00000040: b808 313f f5aa f93e 4710 683e 7caf 563e
00000050: ad1d b03e b5cb c93e c8dd 473f 9dea 0b3f
00000060: 7a2d a83e 1041 de3e 46a6 dd3e a9f3 693f
00000070: 42e2 133f 160b 693e 38d2 fd3e 6e9e e03e
00000080: 58f8 b73d 7eae d23e e2e3 da3e 6567 6b3e
00000090: 7248 0e3f 2cae ee3e 159d 023f c1d7 203f
000000a0: fa45 f83c 0b56 5e3f 6271 13bd 8052 5f3f
000000b0: 2e05 d93e d8d2 953e bea4 3f3e 4ca1 0e3e
000000c0: d7fc f73e f6d5 7a3d 0318 8f3e e1ab d83e
000000d0: 739f 5e3b b64f e93e 07e8 413f e49c c93e
000000e0: b2ea 383e 7378 183e 6f9e b73d e2f6 de3e
000000f0: 6276 933e beda 2e3f 20b6 733e 6298 5e3f
00000100: 26cc a53e 52a6 c33e 9f44 2b3f 749b 3b3f
00000110: b05e 193f edae 603d 634e 023f 08dd ab3e
00000120: 36eb 02bf 3d99 1f3e d428 b43e cb0f 323f
00000130: cb9c d83e 4caf 92be c309 933e 2cec 193f
00000140: 645a 543f 993e 5e3f 03f8 093f c1b8 fb3e
00000150: ced7 d2bd dd8a 8c3f ebd6 0b3f 246c 45be
00000160: 6815 30bd f68f b33e 09b6 1c3f f664 703e
00000170: 8a59 ab3e 30f1 2ebd 1ff1 243f ef31 b63e
00000180: 41ab f1bd 25d8 cf3d f029 cf3e a47c 523e
00000190: 0700 3f3e 4bec 113f b2cd 1a3e ef77 bf3e
000001a0: 8d53 b83d 84f5 da3e c16e 20be 53f0 d73d
000001b0: 77cf 393f 5e50 dc3e 84af 903f 8d53 013f
000001c0: df16 7c3e c23d 5e3f 0213 963e ab7d d53e
000001d0: fd4b 983e 785f 89bd da1d 153f 0c73 303f
000001e0: f71c 8f3e 3349 c73e 65ab e13e 8cfc dd3e
000001f0: 1a88 10be 142c 543e 1ddb 793e 8502 cf3e
00000200: e91c 273d 3805 0b3f 4405 413f f182 4c3f
00000210: 591a a13e 4655 4e3e 209a 273f 564b 643e
00000220: deb7 343f aee0 4d3f 067f 8d3e 1c8a 923e
00000230: 9ea5 ef3d aeb2 273f 4e5d 3e3f eb18 d43e
00000240: a490 0d3f c17c b83e 7b08 5e3e e642 8a3e
00000250: 99c7 883e 839c 0f3e daf3 5b3e 5c00 c43e
00000260: d9a7 923e adfe 653e 5eeb 3f3e f3b4 3a3f
00000270: 9d55 553e 59ef 453f 445f 8b3e d7b5 7c3e
00000280: 3bf8 4a3f 650b 683c f852 483f b753 813e
00000290: c658 333f 7ecc 683e 6d30 333e c805 d23e
000002a0: 2312 1d3f 2959 71be e43e d63e 6e46 d43e
000002b0: 9d6c a13e c0c0 083d 282e 163f 8eee 7ebd
000002c0: 44bf d13e 2413 debe e530 9b3e 23c8 393f
000002d0: ab0e 433f b783 bb3e 256a af3e 6783 9b3e
000002e0: a4ec 1e3f eadf a63e eae9 523e c845 c63e
000002f0: e063 ae3e d022 5a3d ed8e fb3e 8a0c 0d3d
00000300: d5d1 953e 8984 ad3d b9fe 103f cabc 733f
00000310: 7a58 893e 9d5a 5a3f b22c a83e 1e9d 093f
00000320: b83e c43e 6241 b43e f9e0 02be 3f86 f53e
00000330: 161f a23e 7767 0e3f a629 4a3e 1c31 dd3e
00000340: 738f c13e dfaa f13e 22b1 db3e 78c2 0f3f
00000350: 9ced 123f 1c7b 3c3f 89e9 db3e 58aa 193f
00000360: 5df2 cd3d ec9b 513e b1a2 f83d 3d38 c83e
00000370: 4eda ab3e 9095 9f3e 5bee 053f b4cd 013f
00000380: 5cc9 093f 345b 973d a460 f73d 6f37 f23e
00000390: 0081 863e aeec a93e a109 073f 5acb 003f
000003a0: c79b 653f 85ad f23e b65c b13e b3bb b83e
000003b0: 81ac 1f3e af0d f63e 8970 2f3f ca0c f23e
000003c0: dc2b a33d 1dda a33e 2f60 823e 201a 653f
000003d0: 8a2e 0e3d d892 103f f8d7 c03d 6017 3abe
000003e0: 5e67 cf3e f624 a73e 9649 5c3f 0c51 193f
000003f0: b48c c23e cde7 233f d04b 003f b6ec 913f

transformer.norm.bias f4 [1280]
-0.084542215 -0.015967613 -0.043093998 -0.32128835 -0.22673823 0.11184283 -0.19956057 0.07086249
0.106059335 -0.090396546 0.10967633 0.15207036 -0.02719875 0.16918744 -0.32932964 0.11591524
0.500785 0.1162325 0.25552586 -0.15050077 -0.048774064 0.4529284 -0.23888598 -0.19259244
0.107969485 -0.21109891 0.3358465 -0.09745326 0.2453961 -0.26432127 -0.12361204 -0.019701188
-0.047730595 -0.16450074 -0.18097463 -0.08538279 -0.087586276 -0.097928934 0.3950259 0.067692064
0.03254377 0.07502282 0.006288762 -0.015722416 0.104328826 -0.26018304 0.05068371 -0.022304613
-0.12483589 -0.105359994 -0.006041963 0.119197726 0.24141653 0.12055734 0.05547902 0.016103854
0.020749105 -0.1924148 -0.0769959 0.19136596 -0.17754228 0.11125631 -0.13526899 -0.028347665
-0.096377626 0.085152015 -0.05086597 0.16235341 -0.020254942 -0.0027532943 -0.02279717 0.114210136
0.31515732 0.1551686 -0.21602295 0.23548788 -0.24230534 -0.30792594 0.17462236 -0.12080608
0.13480169 0.064453624 -0.0029439155 0.19053514 -0.21800148 0.13298127 0.108107075 -0.20917076
0.08853832 0.51658094 0.3743902 0.21409714 0.36031187 -0.20512478 -0.31225643 -0.0595335
0.09043376 -0.16223493 -0.35384256 -0.06879017 0.009494613 -0.05858101 0.1727728 -0.07984234
0.1949021 -0.015400404 -0.1107272 -0.20212856 -0.046105348 -0.043995123 -0.16686307 0.23843585
-0.069586806 0.044706423 -0.013072849 -0.13588533 0.16839314 0.14815879 0.018589249 -0.103598915
0.1800273 -0.099178925 -0.046035435 -0.21316943 -0.14090379 -0.09518884 0.22321977 0.07708148
0.24802756 -0.27848354 0.115218855 0.14642775 0.098096855 0.16676125 0.1637386 -0.05277611
0.054293133 -0.18580225 -0.029494472 -0.0055127754 0.24839301 -0.20569906 -0.18435048 0.27003142
-0.31117573 -0.14749756 -0.08197888 0.13990192 0.04789715 -0.12633699 0.36526334 0.121010385
-0.20424533 0.115570635 0.37380186 0.23974885 -0.044699177 0.042067055 0.28175896 0.08687995
0.03175683 -0.12235972 0.2237299 0.061522737 -0.0050441744 0.042895086 -0.15163666 -0.25521824
0.010401433 -0.107338056 -0.19098412 -0.12896629 0.33923593 0.19165903 0.03307891 0.15480791
0.071908444 -0.094457924 0.007960782 -0.028232604 0.06451926 0.11879574 -0.16755386 0.051863275
0.15736105 0.21389832 -0.11655458 -0.18977901 -0.19694062 -0.22157532 -0.122917674 0.08478149
-0.3952515 -0.23789373 -0.08321146 -0.08927857 0.11541354 0.12186437 0.0509564 -0.19628136
0.15713114 -0.0036682761 0.02984143 -0.042112216 -0.025582397 -0.020294536 0.25313565 -0.018871065
-0.33839068 -0.05012388 -0.26751888 -0.19982173 -0.43478584 -0.040338326 0.22292408 0.0556344
-0.25300464 -0.1751613 -0.14810403 -0.08400854 0.17422758 -0.18802987 0.11569358 0.11111579
-0.030103538 -0.15896413 -0.14136536 0.20133343 0.30548128 -0.12196618 -0.18055987 -0.51992106
-0.14916873 0.19643047 -0.0036594938 0.13699839 -0.14871757 0.15515186 0.29830828 -0.1579427
-0.26367268 0.22876541 0.070469245 0.14274684 0.10874133 -0.10530541 0.030350955 0.07493778
-0.08380514 0.14547388 -0.026232684 0.13883911 0.1802431 0.23416424 0.1791518 -0.07534263
00000000: 7824 adbd 83ce 82bc 5583 30bd e87f a4be
00000010: 112e 68be db0d e53d 9b59 4cbe 5a20 913d
00000020: a335 d93d d321 b9bd fc9d e03d 55b8 1b3e
00000030: eacf debc 793f 2d3e e59d a8be f864 ed3d
00000040: 7233 003f 4e0b ee3d 49d4 823e e01c 1abe
00000050: 50c7 47bd 3be6 e73e 879e 74be f436 45be
00000060: 1b1f dd3d 502a 58be 13f4 ab3e 9395 c7bd
00000070: 1e49 7b3e 1e55 87be 4f28 fdbd 6364 a1bc
00000080: 2881 43bd e272 28be 6a51 39be 2cdd aebd
00000090: 6f60 b3bd f78e c8bd d640 ca3e 23a2 8a3d
000000a0: 9e4c 053d 90a5 993d f611 ce3b 4ccc 80bc
000000b0: 5aaa d53d b636 85be b999 4f3d 2ab8 b6bc
000000c0: f6a9 ffbd fbc6 d7bd a9fb c5bb f01d f43d
000000d0: e535 773e c4e6 f63d f83d 633d 3bec 833c
000000e0: 07fa a93c 6308 45be 07b0 9dbd 70f5 433e
000000f0: a5cd 35be 59da e33d f483 0abe 5d39 e8bc
00000100: a261 c5bd 2e64 ae3d d658 50bd f93f 263e
00000110: b1ed a5bc 9d70 34bb 21c1 babc 01e7 e93d
00000120: 4d5c a13e 84e4 1e3e 1f35 5dbe bc23 713e
00000130: e41e 78be 78a8 9dbe 34d0 323e 2e69 f7bd
00000140: 7409 0a3e 4300 843d b5ee 40bb a51b 433e
00000150: c83b 5fbe 3e2c 083e 3e67 dd3d dc30 56be
00000160: 9453 b53d a63e 043f 13b0 bf3e 483c 5b3e
00000170: cc7a b83e 3b0c 52be 13e0 9fbe 66d9 73bd
00000180: 5635 b93d ea20 26be da2a b5be dce1 8cbd
00000190: 4b8f 1b3c a4f2 6fbd 5aeb 303e 6184 a3bd
000001a0: 6b94 473e fa51 7cbc f1c4 e2bd cafa 4ebe
000001b0: f6d8 3cbd 3b34 34bd 27de 2abe 8728 743e
000001c0: 8783 8ebd 151e 373d 812f 56bc 8625 0bbe
000001d0: 406f 2c3e f0b6 173e 7b48 983c ab2b d4bd
000001e0: 1459 383e 521e cbbd a78f 3cbd 1649 5abe
000001f0: 1549 10be 5ef2 c2bd b993 643e e5dc 9d3d
00000200: f0fa 7d3e 6595 8ebe ddf7 eb3d 28f1 153e
00000210: 01e7 c83d 76c3 2a3e 17ab 273e c32b 58bd
00000220: 7a62 5e3d f242 3ebe 649e f1bc 83a4 b4bb
00000230: bd5a 7e3e c6a2 52be 5fc6 3cbe 8f41 8a3e
00000240: 6d52 9fbe 9a09 17be 8be4 a7bd 7342 0f3e
00000250: cd2f 443d 7c5e 01be cc03 bb3e 4bd4 f73d
00000260: b025 51be 4cb0 ec3d f562 bf3e b980 753e
00000270: 7c16 37bd 814e 2c3d b642 903e 1dee b13d
00000280: 7313 023d bc97 fabd 7319 653e 44ff 7b3d
00000290: 9a49 a5bb c2b2 2f3d a446 1bbe f7ab 82be
000002a0: c66a 2a3c 0ed4 dbbd 5791 43be bd0f 04be
000002b0: 55b0 ad3e 4442 443e c07d 073d f785 1e3e
000002c0: bc44 933d 2873 c1bd f16d 023c 1048 e7bc
000002d0: ac22 843d 2e4b f33d 3d93 2bbe 966e 543d
000002e0: 4123 213e 2908 5b3e 2bb4 eebd 6e55 42be
000002f0: cdaa 49be a4e4 62be 43bc fbbd eba1 ad3d
00000300: 685e cabe 6a9a 73be c56a aabd afd7 b6bd
00000310: ef5d ec3d 0794 f93d a8b7 503d fbfd 48be
00000320: fce6 203e 7667 70bb 0476 f43c dc7d 2cbd
00000330: 2d92 d1bc ba40 a6bc ff9a 813e 7e97 9abc
00000340: 8b41 adbe b34e 4dbd 3cf8 88be 119e 4cbe
00000350: 409c debe cd39 25bd 3646 643e e6e0 633d
00000360: d389 81be 7c5d 33be 95a8 17be ab0c acbd
00000370: b768 323e e78a 40be c1f0 ec3d ad90 e33d
00000380: b29b f6bc 7ec7 22be 15c2 10be 5a2a 4e3e
00000390: 0b68 9c3e 68c9 f9bd b0e4 38be 8c19 05bf
000003a0: b0bf 18be 1225 493e 1ed4 6fbb 4e49 0c3e
000003b0: 6b49 18be 21e0 1e3e ddbb 983e bbbb 21be
000003c0: 1b00 87be 7b41 6a3e 2e52 903d 3a2c 123e
000003d0: c6b3 de3d 5daa d7bd 91a2 f83c fb78 993d
000003e0: 07a2 abbd 1bf7 143e ede5 d6bc d72b 0e3e
000003f0: a691 383e c0c8 6f3e 9273 373e 3d4d 9abd

transformer.norm.running_mean f4 [1280]
0.003344998 -0.0024168957 0.00745259 -0.0041022026 -0.0018549134 -0.0060031908 -0.01448658 -0.016336327
-0.03128826 0.014472448 -0.0026217252 -0.004014857 -0.0022976229 0.002947244 -0.0045328187 0.0052350387
0.018864222 -0.004456256 -0.0108475555 -0.009797663 -0.0012529943 -0.011625994 0.020615065 -0.007832543
0.0035941077 0.013930283 -0.0033077067 0.014087729 0.005623661 0.015164354 -0.0002517302 -0.004154338
-0.0036111686 -0.00070634106 -0.0025601343 -0.023669327 0.008209896 0.011322108 0.010859992 -0.030382209
0.011727797 0.0096848 -0.007736271 -0.040250763 -0.013288468 0.0031914131 0.010822807 0.013593112
0.008328057 -0.0122979665 -0.00040495812 0.005198972 0.004944037 0.007648313 0.011899997 0.015364189
0.008395018 -0.008407038 -0.004580493 -0.0070361 0.0074370774 -0.0017847432 -0.0030699417 0.024795022
-0.011097597 1.06341195e-05 -0.0074920123 -0.020334143 -0.04004606 -0.0028541132 -0.005217047 -0.028078059
0.017234134 -0.011715192 -0.00010820153 0.00407156 0.015037159 0.012206115 0.001247237 -0.018568695
0.016306316 -0.023295274 -0.010402393 0.01037916 -0.009519452 0.0470987 0.0071156994 -0.0099206325
0.0045064734 -0.0030743924 7.063189e-05 -0.010754056 0.007657095 -0.0020400027 -0.007150617 0.00820923
-0.0022003872 -0.0051265815 0.008664444 0.008526867 0.005678062 -0.010853535 -0.006192341 0.009238003
0.011305203 0.010801769 0.001414329 0.004203427 -0.015395046 -0.009339863 -0.014755065 0.003496376
-0.0019982283 -0.020247411 -0.02542756 0.019903084 -0.0044039544 0.005065586 -0.02738072 0.0134134395
0.0048551513 0.009703703 -0.00028102647 -0.012400973 -9.7353855e-05 0.011458736 -0.0018129277 -0.0032048977
0.0022611325 0.0038673016 -0.0005145896 0.0025858204 0.012469558 0.0004471943 0.007281628 -0.00409222
-0.02563597 0.01858582 -0.011221136 0.0014168872 -0.0050526597 0.0045744567 0.008621208 0.010044825
-0.0013343723 -0.002880876 0.009674111 -0.007824594 -0.0024265982 -0.008054255 -0.0064064083 -0.0049338397
0.0034494172 0.00678889 -0.0056361635 -0.017477084 0.0016952578 0.006778338 0.0026171738 -0.0039289584
-0.024790926 -0.0010191102 0.009609358 -0.0034960152 -0.014625355 0.0008516844 -0.0029454255 -0.0037019483
-0.004106839 -0.016849019 0.028989004 -0.011313894 0.008859014 -0.00429617 -0.0072262543 -0.0068074903
-0.003269411 0.0038599814 0.02103675 -0.012005282 -0.002460165 -0.01033579 -0.0059679695 0.004334817
0.011458246 0.008290076 -0.002035474 -0.0033700808 0.009135071 0.00011564677 -0.025010098 0.0054572695
0.006900679 -0.0007254385 0.013647781 0.009639568 -0.004487138 -0.0002931561 0.0058518904 -0.003832138
0.00019969368 -0.003213725 0.007533851 -0.006381229 0.0045660427 -0.0059910384 0.003421972 0.0034209085
0.0018247429 0.00083704427 0.0023706604 -0.007133705 0.0107735675 0.02741256 0.010727291 -0.013143717
0.010564173 0.019779785 5.259985e-05 -0.00589579 0.005850975 0.010745842 0.00680384 -0.02106178
0.0057119043 -0.0041916827 -0.0017549341 -0.011095849 0.019386163 0.022100989 0.009351899 0.006851494
0.0077881957 -0.0072352407 0.00025930887 -0.015002724 0.0070133004 0.013007375 0.0069310553 -0.0012226938
-0.0011063246 0.011228678 -0.009069133 -0.028361516 -0.0013548319 0.015666112 -0.013500212 0.0007490236
0.0054800697 -0.014551239 0.02558188 -0.0016070656 -0.0011553909 -0.016770942 -0.0051756175 -0.030321172
00000000: c137 5b3b c864 1ebb db34 f43b c56b 86bb
00000010: 9120 f3ba 6ab6 c4bb 1f59 6dbc c3d3 85bc
00000020: 1e28 00bd d91d 6d3c 40d1 2bbb 108f 83bb
00000030: b793 16bb 8d26 413b 0a88 94bb b08a ab3b
00000040: 2489 9a3c c905 92bb f2b9 31bc 6186 20bc
00000050: 833b a4ba f47a 3ebc ede0 a83c 1154 00bc
00000060: 1f8b 6b3b d73b 643c 1cc6 58bb 38d0 663c
00000070: b046 b83b e973 783c a8fa 83b9 1d21 88bb
00000080: 5ba9 6cbb bf29 39ba edc7 27bb 2de6 c1bc
00000090: cd82 063c 5d80 393c 1cee 313c 1ce4 f8bc
000000a0: f225 403c ffac 1e3c 8b80 fdbb fcdd 24bd
000000b0: e0b7 59bc 0727 513b 2552 313c a5b5 5e3c
000000c0: 6772 083c 697d 49bc 8f50 d4b9 235c aa3b
000000d0: 9701 a23b b39e fa3b 34f8 423c 14ba 7b3c
000000e0: 428b 093c acbd 09bc f617 96bb 168f e6bb
000000f0: bab2 f33b 0bee e9ba 1331 49bb ee1e cb3c
00000100: b2d2 35bc 3269 3237 8e7f f5bb ca93 a6bc
00000110: 5607 24bd 130c 3bbb c3f3 aabb f503 e6bc
00000120: 992e 8d3c 14f1 3fbc 41ea e2b8 b96a 853b
00000130: 6b5e 763c 28fc 473c 547a a33a 601d 98bc
00000140: d394 853c bbd5 bebc cc6e 2abc 5a0d 2a3c
00000150: 7af7 1bbc 91ea 403d d02a e93b 268a 22bc
00000160: 0aab 933b bf7b 49bb 3520 9438 c831 30bc
00000170: 5ee8 fa3b 91b1 05bb b94f eabb 0280 063c
00000180: 5f34 10bb e2fc a7bb 50f5 0d3c 46b4 0b3c
00000190: 090f ba3b 06d3 31bc 1fe9 cabb fe5a 173c
000001a0: 7539 393c e7f9 303c 0261 b93a e7bc 893b
000001b0: 813b 7cbc 3a06 19bc 3abf 71bc 7523 653b
000001c0: b5f4 02bb e6dd a5bc 754d d0bc cb0b a33c
000001d0: 0c4f 90bb 37fd a53b 884d e0bc 0bc4 5b3c
000001e0: f617 9f3b 48fc 1e3c bc56 93b9 732d 4bbc
000001f0: 742a ccb8 6cbd 3b3c c29f edba 4309 52bb
00000200: 822f 143b 8e72 7d3b 86e5 06ba de76 293b
00000210: 1e4d 4c3c 6775 ea39 b99a ee3b 0818 86bb
00000220: 8702 d2bc 4a41 983c dbd8 37bc d8b6 b93a
00000230: c890 a5bb 53e5 953b f83f 0d3c 0d93 243c
00000240: 1be6 aeba 14cd 3cbb 2a80 1e3c ba32 00bc
00000250: 9007 1fbb fef5 03bc d9ec d1bb 0cac a1bb
00000260: 9e0f 623b 5675 de3b 91af b8bb 1a2c 8fbc
00000270: 6a33 de3a d21c de3b e484 2b3b 7ebe 80bb
00000280: 5716 cbbc aa93 85ba 9270 1d3c 671d 65bb
00000290: 2f9f 6fbc 9343 5f3a 0a08 41bb 639c 72bb
000002a0: aa92 86bb f406 8abc 597a ed3c e95d 39bc
000002b0: 6625 113c e3c6 8cbb 37ca ecbb 5e11 dfbb
000002c0: 9d43 56bb bef7 7c3b 4355 ac3c cdb1 44bc
000002d0: b83a 21bb 7257 29bc f58e c3bb 150b 8e3b
000002e0: 5ebb 3b3c 19d3 073c 9665 05bb 93dc 5cbb
000002f0: 44ab 153c 6387 f238 fae1 ccbc e5d2 b23b
00000300: 171f e23b 5b2b 3eba f19a 5f3c 47ef 1d3c
00000310: d708 93bb bfb2 99b9 37c1 bf3b 9b24 7bbb
00000320: dd64 5139 5c9d 52bb 86de f63b a119 d1bb
00000330: be9e 953b 7950 c4bb 2a43 603b 5231 603b
00000340: 362c ef3a 176d 5b3a 155d 1b3b dbc1 e9bb
00000350: 9e83 303c 4e90 e03c 85c1 2f3c bf58 57bc
00000360: 5a15 2d3c 3709 a23c a99e 5c38 7931 c1bb
00000370: 89b9 bf3b 540f 303c bff2 de3b c189 acbc
00000380: ed2a bb3b 625a 89bb d105 e6ba 5dcb 35bc
00000390: bbcf 9e3c 220d b53c b538 193c 7f82 e03b
000003a0: 1f34 ff3b 9915 edbb d9f3 8739 fccd 75bc
000003b0: d4cf e53b e31c 553c e81d e33b cc42 a0ba
000003c0: 1802 91ba 7df8 373c b396 14bc 6956 e8bc
000003d0: 9d94 b1ba 3856 803c fe2f 5dbc 1f5a 443a
000003e0: 2892 b33b 5268 6ebc 1791 d13c 2ca4 d2ba
000003f0: 7c70 97ba 3763 89bc 3a98 a9bb 1b64 f8bc

transformer.norm.running_var f4 [1280]
0.56564194 0.20777835 0.37333477 0.026250225 0.3448925 0.033445925 0.22409213 0.54738724
0.44474652 0.1979664 0.14690883 0.17131713 0.16358337 0.16588114 0.2100878 0.19684485
0.3441681 0.24282609 0.107751586 0.022385404 0.1980654 0.23561612 0.4723355 0.30509955
0.13925163 0.22501177 0.15409437 0.8279016 0.42269364 0.02799135 0.31773564 0.13574302
0.04302696 0.27876267 0.21979915 0.12521945 0.29270518 0.229445 0.27825055 0.36715025
0.011497157 0.7131971 0.0051270616 0.72794974 0.22662747 0.13136481 0.09553107 0.089566275
0.21631408 0.01696881 0.17419215 0.20759742 0.015876805 0.29413512 0.57912654 0.1959752
0.037400156 0.089419894 0.032280225 0.31189218 0.077715434 0.5386998 0.07325138 0.6569436
0.18105984 0.23462963 0.4633397 0.5970857 0.29194355 0.026442315 0.22950126 0.15888128
0.30891243 0.06597877 0.05846436 0.47849888 0.285246 0.087847546 0.14226167 0.31876585
0.64519924 0.6544047 0.29021803 0.3402067 0.0334952 0.8865182 0.33203113 0.060412668
0.00796767 0.1867118 0.34457117 0.12076544 0.21185379 0.010252898 0.44171524 0.20040989
0.011058497 0.027292961 0.17804633 0.11529176 0.075043775 0.38372084 0.08586521 0.19526082
0.010164968 0.26380622 0.049168985 0.052549016 0.452722 0.27397552 1.0947753 0.28405315
0.089545704 0.7087926 0.15585212 0.25966144 0.1980181 0.008354219 0.2902348 0.5479692
0.10129725 0.24006663 0.21866508 0.27972797 0.019691326 0.036325235 0.061634973 0.23702106
0.0194317 0.41150576 0.5403211 0.47687483 0.17819951 0.11322688 0.34757477 0.087467365
0.42010272 0.53098303 0.03887113 0.12723984 0.055885956 0.3391377 0.55673015 0.16822614
0.3119712 0.20593289 0.06602829 0.16419181 0.1088842 0.06626802 0.11409716 0.20244992
0.15957661 0.012926353 0.06168697 0.4591145 0.07246639 0.52652866 0.15257877 0.102962695
0.6053932 0.008869816 0.5676613 0.144913 0.4587606 0.11206217 0.08411702 0.22110607
0.42337206 0.0983607 0.21444884 0.25553775 0.15181327 0.025657257 0.4151829 0.011250985
0.202171 0.13246341 0.14810653 0.41964075 0.6626638 0.19744962 0.20125195 0.16206655
0.3409457 0.19604188 0.12077506 0.09616012 0.15665828 0.032211155 0.31499156 0.016515546
0.12565543 0.009039448 0.28545377 0.8448911 0.1660143 0.6023812 0.1580454 0.37011892
0.1404204 0.18655257 0.081833936 0.33275694 0.18408424 0.3193036 0.09553321 0.2762572
0.21989933 0.24404752 0.24409729 0.3512938 0.34673503 0.4966345 0.19307105 0.4055236
0.048776485 0.10713021 0.073732 0.21735828 0.17799652 0.1382405 0.24878126 0.22479872
0.2633262 0.014283268 0.058349267 0.25605777 0.14315695 0.08189808 0.3729817 0.26234102
0.7416376 0.25509182 0.14363664 0.119681686 0.026494244 0.28762433 0.41812748 0.035665408
0.020597488 0.1531396 0.116422065 0.6504826 0.00393149 0.3683119 0.03242228 0.0321308
0.1865625 0.16600807 0.7172151 0.42485866 0.21525824 0.40204826 0.31579795 1.1447655
00000000: e9cd 103f d9c3 543e bc25 bf3e b60a d73c
00000010: c095 b03e 98fe 083d 6878 653e 9221 0c3f
00000020: d1b5 e33e b4b7 4a3e 456f 163e c26d 2f3e
00000030: 6682 273e bfdc 293e 4221 573e b291 493e
00000040: cd36 b03e 67a7 783e ddac dc3d 9861 b73c
00000050: a8d1 4a3e 5a45 713e f5d5 f13e 0236 9c3e
00000060: fb97 0e3e 7c69 663e eaca 1d3e 5cf1 533f
00000070: 4d6b d83e 1e4e e53c 3fae a23e 3800 0b3e
00000080: 0a3d 303d fbb9 8e3e 0713 613e 8739 003e
00000090: 74dd 953e a1f3 6a3e db76 8e3e 1efb bb3e
000000a0: 925e 3c3c 1694 363f e900 a83b ea5a 3a3f
000000b0: 0811 683e 7f84 063e cba5 c33d 866e b73d
000000c0: 7081 5d3e 2d02 8b3c 6d5f 323e 6b94 543e
000000d0: 1310 823c e198 963e a341 143f b9ad 483e
000000e0: e830 193d c721 b73d 4538 043d 55b0 9f3e
000000f0: 4529 9f3d 3be8 093f d204 963d 752d 283f
00000100: c067 393e c042 703e dc3a ed3e 9cda 183f
00000110: a079 953e 8e9d d83c 6102 6b3e c6b1 223e
00000120: c529 9e3e e11f 873d 5378 6f3d cefd f43e
00000130: c40b 923e 6ae9 b33d 0bad 113e 4735 a33e
00000140: c72b 253f 1187 273f 7597 943e 932f ae3e
00000150: 4332 093d dbf2 623f fcff a93e 4673 773d
00000160: d58a 023c 6131 3f3e a26b b03e df53 f73d
00000170: 33f0 583e c5fb 273c 8028 e23e 4038 4d3e
00000180: b32e 353c 7d95 df3c c751 363e 161e ec3d
00000190: 8db0 993d 0f77 c43e 19da af3d 74f2 473e
000001a0: f78a 263c 9c11 873e 6b65 493d a33d 573d
000001b0: 2ecb e73e 8546 8c3e 9921 8c3f 6a6f 913e
000001c0: bd63 b73d 6f73 353f b397 1f3e 58f2 843e
000001d0: 42c5 4a3e 22e0 083c a899 943e b647 0c3f
000001e0: ef74 cf3d 07d4 753e bde9 5f3e 8138 8f3e
000001f0: b44f a13c c5c9 143d f474 7c3d a6b5 723e
00000200: 3b2f 9f3c e2b0 d23e 7c52 0a3f f028 f43e
00000210: ef79 363e 7fe3 e73d 52f5 b13e 1722 b33d
00000220: b417 d73e 81ee 073f 5637 1f3d 294b 023e
00000230: ace8 643d 75a3 ad3e de85 0e3f 7943 2c3e
00000240: b0ba 9f3e 12e0 523e d739 873d e621 283e
00000250: aefe de3d 87b7 873d c6ab e93d 084f 4f3e
00000260: 0d68 233e 0ec9 533c 7aab 7c3d 0e11 eb3e
00000270: 4269 943d 95ca 063f 9c3d 1c3e 1bde d23d
00000280: 0cfb 1a3f b452 113c 4052 113f 1364 143e
00000290: abe2 ea3e da80 e53d 8b45 ac3d a169 623e
000002a0: 39c4 d83e 5671 c93d 7a98 5b3e d8d5 823e
000002b0: f074 1b3e 2b2f d23c da92 d43e 0d56 383c
000002c0: ea05 4f3e 7da4 073e 3da9 173e 27db d63e
000002d0: 56a4 293f 3c30 4a3e fe14 4e3e c6f4 253e
000002e0: 6f90 ae3e 34bf 483e ea58 f73d 99ef c43d
000002f0: 076b 203e d8ef 033d 9346 a13e 9c4b 873c
00000300: d1ab 003e 311a 143c ff26 923e c84a 583f
00000310: a7ff 293e a835 1a3f a7d6 213e 3a80 bd3e
00000320: 5eca 0f3e a307 3f3e 8d98 a73d 1e5f aa3e
00000330: 9480 3c3e c37b a33e eaa6 c33d 9571 8d3e
00000340: 4a2d 613e 98e7 793e a4f4 793e c8dc b33e
00000350: 4187 b13e e146 fe3e 6bb4 453e caa0 cf3e
00000360: dac9 473d 1567 db3d ce00 973d 2b93 5e3e
00000370: b844 363e eb8e 0d3e 84c0 7e3e a331 663e
00000380: b1d2 863e 5e04 6a3c a4ff 6e3d 011a 833e
00000390: bc97 123e 2eba a73d 75f7 be3e 9051 863e
000003a0: f6db 3d3f 659b 823e 7c15 133e ac1b f53d
000003b0: 750a d93c 7f43 933e ce14 d63e e415 123d
000003c0: 10bc a83c a1d0 1c3e b16e ee3d 0786 263f
000003d0: bad3 803b 6193 bc3e 3acd 043d 969b 033d
000003e0: 3d0a 3f3e 05fe 293e 699b 373f 1387 d93e
000003f0: a86c 5c3e 45d9 cd3e 45b0 a13e ad87 923f
