xls_r_sqa/models/sqa-v2/xls-r-2b/model_2b_lay10_subset.pt (torch, 528269 bytes, 67 tensors)

norm_input.weight f4 [1920]
000000 2a af 49 3f 64 67 52 3f 68 38 45 3f c2 ab 5a 3f
       0.78782904 0.8218901 0.77039194 0.8541833
000010 58 f2 3e 3f f8 76 56 3f 61 dd 44 3f 86 00 4a 3f
       0.7458854 0.8377528 0.769003 0.7890705
000020 92 1a 47 3f 39 d1 46 3f 94 0a 5c 3f ca 5f 52 3f
       0.7777492 0.77663 0.8595364 0.8217741
000030 48 68 6a 3f 23 dd 5c 3f 50 2c 46 3f 2b 61 48 3f
       0.9156537 0.8627493 0.77411366 0.78273267
000040 64 7a 47 3f 73 33 52 3f af d9 50 3f 7f 34 58 3f
       0.7792113 0.82109755 0.8158216 0.844551
000050 6e 31 73 3f dc d9 4d 3f 82 1b 46 3f 81 5f 4b 3f
       0.949973 0.8041055 0.77385724 0.794426
000060 a3 92 59 3f f9 85 4e 3f 80 30 48 3f ae f8 4d 3f
       0.84989375 0.80673176 0.78199005 0.8045758
000070 86 99 6f 3f 9b 00 60 3f 2e 92 45 3f 00 5a 4e 3f
       0.93593633 0.87500924 0.7717618 0.8060608
000080 e9 b0 57 3f 9d 7c 44 3f e2 a2 4c 3f fa 54 5b 3f
       0.8425432 0.76752645 0.7993604 0.8567654
000090 e6 22 5c 3f 56 e0 47 3f 81 85 54 3f ef c2 4e 3f
       0.8599075 0.78076684 0.8301621 0.80766195
0000a0 db b1 5d 3f 74 52 4a 3f d9 04 57 3f 93 5c 45 3f
       0.8659951 0.79032063 0.8399177 0.7709438
0000b0 55 34 53 3f e4 25 54 3f e4 2d 59 3f c4 b7 55 3f
       0.8250173 0.82870317 0.8483565 0.8348353
0000c0 47 30 4c 3f fb be 54 3f 5e 93 53 3f 77 15 65 3f
       0.79761165 0.83103913 0.8264674 0.8948588
0000d0 be 91 49 3f ec 59 52 3f 97 1c 5b 3f db 27 4f 3f
       0.7873801 0.8216846 0.855905 0.8092019
0000e0 ed 27 58 3f 69 c5 4d 3f ae 1d 6e 3f e4 12 6e 3f
       0.8443592 0.8037935 0.9301404 0.92997575
0000f0 d5 98 5f 3f 46 ab 76 3f 5e 67 55 3f 79 10 56 3f
       0.8734258 0.9635509 0.8336085 0.83618885
000100 f1 c9 5c 3f e7 70 6c 3f 22 0b 4e 3f e6 2f 70 3f
       0.8624564 0.92359775 0.8048574 0.9382309
000110 90 39 6a 3f 4b 2a 60 3f 64 9b 53 3f 70 4f 4d 3f
       0.91494083 0.87564534 0.8265898 0.80199337
000120 c9 31 50 3f 74 79 52 3f fa 9a 59 3f 0d fd 5c 3f
       0.81325966 0.8221657 0.850021 0.86323625
000130 0c b8 5e 3f b3 bc 57 3f 17 b2 48 3f 33 17 60 3f
       0.86999583 0.8427231 0.78396744 0.875354
000140 d1 2b 4f 3f ef 66 58 3f cf 09 5d 3f ac fb 59 3f
       0.80926234 0.84532064 0.8634309 0.85149646
000150 97 35 4a 3f a2 6b 5c 3f 81 7e 58 3f 36 75 64 3f
       0.7898802 0.86101735 0.8456803 0.8924135
000160 a7 46 70 3f 4a 7f 5e 3f 33 d4 4d 3f 95 29 4a 3f
       0.93857807 0.8691298 0.80401915 0.789697
000170 ea 61 66 3f 2d 69 57 3f c0 3e 5a 3f 3d 4e 4a 3f
       0.89993155 0.8414486 0.85252 0.7902563
000180 e0 43 6e 3f 88 6c 68 3f d7 69 50 3f e8 f9 50 3f
       0.9307232 0.90790606 0.814115 0.81631327
000190 ea 1f 53 3f 4d 2d 60 3f b9 49 48 3f 6e 5b 53 3f
       0.8247057 0.87569124 0.7823749 0.82561386
0001a0 4c 36 53 3f d3 62 4b 3f 9d fb 58 3f 0c c6 50 3f
       0.82504725 0.7944767 0.8475893 0.81552196
0001b0 f3 fa 69 3f 1b f2 66 3f 89 8a 44 3f dd 0b 44 3f
       0.91398543 0.90213174 0.7677389 0.765806
0001c0 cb 64 49 3f a3 09 6c 3f 8d 5a 5a 3f 94 d3 64 3f
       0.7866942 0.92202204 0.8529442 0.8938534
0001d0 2b 94 4d 3f cb 78 67 3f 6d da 58 3f bf aa 52 3f
       0.8030421 0.9041869 0.8470829 0.8229179
0001e0 f1 04 4f 3f 14 11 54 3f 8b c1 4c 3f bd 58 53 3f
       0.80866915 0.8283856 0.79982823 0.8255728
0001f0 38 7b 44 3f 60 a0 54 3f 2a d8 48 3f 79 54 49 3f
       0.76750517 0.8305721 0.7845484 0.7864452
000200 20 f2 47 3f 44 10 51 3f d8 0d 5e 3f 8e 31 4a 3f
       0.7810383 0.81665444 0.86739874 0.78981864
000210 ca 00 58 3f 29 4e 4b 3f 8b 0b 4f 3f 13 72 56 3f
       0.84376204 0.7941614 0.8087699 0.83767813
000220 ed 85 69 3f e3 eb 79 3f bb 58 4b 3f 3e 63 49 3f
       0.9121998 0.9762556 0.79432267 0.78667057
000230 29 06 4f 3f 17 ef 67 3f a0 99 54 3f 83 f2 46 3f
       0.80868775 0.905992 0.83046913 0.77713794
000240 c2 77 4e 3f a8 84 4d 3f a3 9b 49 3f ac 95 5c 3f
       0.80651486 0.8028054 0.7875311 0.8616588
000250 89 02 5e 3f d1 c7 61 3f 0d 95 56 3f b8 d9 47 3f
       0.8672262 0.8819552 0.83821183 0.7806659
000260 a6 36 5a 3f 8c 69 4e 3f 7d 99 4b 3f a6 76 6d 3f
       0.85239637 0.806298 0.7953108 0.9275917
000270 c3 7a 49 3f 31 82 46 3f c4 7b 58 3f 12 ed 53 3f
       0.78702945 0.77542406 0.8456385 0.82783616
000280 6c d7 4f 3f 1c dd 56 3f 91 c1 49 3f 9f 1b 4a 3f
       0.8118808 0.83931136 0.78810984 0.78948396
000290 7b 14 50 3f b7 84 4f 3f 49 0e 65 3f f4 6f 66 3f
       0.8128125 0.8106188 0.8947492 0.90014577
0002a0 b6 8a 49 3f 0b 61 3e 3f fd 06 73 3f 8c 1d 67 3f
       0.7872728 0.74366826 0.9493254 0.9027946
0002b0 10 da 44 3f 25 cf 5d 3f 84 c4 52 3f 36 ea 6a 3f
       0.76895237 0.866442 0.8233111 0.9176363
0002c0 71 27 4a 3f 90 a2 5d 3f 57 d2 68 3f 5e 71 65 3f
       0.7896643 0.86576176 0.90945953 0.8962611
0002d0 0b df 4c 3f 62 53 4b 3f 1f b3 4e 3f 3e 59 6c 3f
       0.80027837 0.7942411 0.8074207 0.9232367
0002e0 14 64 49 3f c5 16 47 3f 8f ee 73 3f cb d0 4e 3f
       0.7866833 0.7776912 0.95285887 0.8078734
0002f0 de ee 4e 3f e5 dc 71 3f 0e 61 45 3f 91 26 58 3f
       0.8083323 0.94477683 0.7710122 0.8443385
000300 75 a9 5c 3f da 71 63 3f b3 f7 53 3f c6 62 53 3f
       0.8619607 0.888456 0.82799834 0.8257259
000310 64 c0 4c 3f 0c 3b 55 3f 3b 21 50 3f 8d 72 47 3f
       0.79981065 0.83293223 0.81300706 0.77909166
000320 6b 9d 47 3f bd eb 48 3f 91 23 6e 3f 86 c0 4a 3f
       0.77974576 0.7848471 0.9302302 0.7920002
000330 3c a9 4a 3f 46 7d 5d 3f 32 74 46 3f 97 2a 5c 3f
       0.7916448 0.8651928 0.7752105 0.86002487
000340 18 65 59 3f b2 5c 5b 3f bb 0a 63 3f f3 2e 4d 3f
       0.8491988 0.85688317 0.8868825 0.80149764
000350 5c f9 4e 3f fc d8 48 3f a1 7f 5b 3f f4 d4 49 3f
       0.8084924 0.7845609 0.8574162 0.78840566
000360 f5 91 4c 3f 3a 19 50 3f 0e ed 44 3f 0b 8d 5c 3f
       0.7991021 0.8128849 0.76924217 0.86152714
000370 c6 e1 67 3f 5b e4 55 3f 0a d1 5c 3f ce b0 40 3f
       0.9057888 0.8355157 0.8625647 0.7526978
000380 75 bc 56 3f f5 08 47 3f a5 8c 4c 3f f4 b7 45 3f
       0.8388131 0.7774804 0.79902107 0.77233815
000390 d9 37 58 3f 12 a4 4a 3f 59 64 46 3f bb a9 49 3f
       0.84460217 0.791566 0.7749687 0.78774613
0003a0 ef 7d 5e 3f c7 8e 4c 3f 11 90 6a 3f 9b f8 5d 3f
       0.8691091 0.7990536 0.9162608 0.86707467
0003b0 13 b7 54 3f 8a 2f 44 3f 0a 60 52 3f ce 39 59 3f
       0.8309185 0.7663504 0.82177794 0.8485383
0003c0 19 21 4f 3f c3 41 4f 3f df 9c 5a 3f 11 fd 48 3f
       0.8090988 0.8095972 0.85395616 0.7851115
0003d0 15 86 44 3f 82 20 4a 3f c9 0f 62 3f d9 8d 4d 3f
       0.7676709 0.78955853 0.88305336 0.8029457
0003e0 17 ba 60 3f 2c 8c 6c 3f 96 5b 64 3f 13 c5 63 3f
       0.8778395 0.92401385 0.8920225 0.88972586
0003f0 b0 8e 45 3f eb de 49 3f e6 d0 4e 3f 0e db 4a 3f
       0.7717085 0.7885577 0.80787504 0.792405

norm_input.bias f4 [1920]
000000 5a 50 e2 b9 36 a4 96 b9 ce d0 bc 39 d6 10 c8 ba
       -0.00043165946 -0.00028732576 0.00036013726 -0.0015263807
000010 0e 8f f4 39 38 28 45 b8 ca 1e f1 39 8b 00 1c 39
       0.0004664589 -4.7005917e-05 0.00045990042 0.00014877522
000020 62 5e 48 b9 c7 b0 7e ba 43 17 50 ba 63 31 47 39
       -0.00019108647 -0.0009715673 -0.00079380366 0.00018996517
000030 61 99 21 3a 90 9c 4d 39 6c e4 3a ba 9a ce 16 ba
       0.0006164518 0.00019608648 -0.00071293744 -0.0005752832
000040 e3 09 03 3a 9d 05 01 b8 09 2b b0 b8 ba a5 14 ba
       0.00049987267 -3.0761224e-05 -8.40035e-05 -0.0005670447
000050 e1 56 b0 ba c6 90 87 39 f9 7a 4d b9 a7 e5 f1 b9
       -0.0013453626 0.0002585707 -0.00019596134 -0.00046138206
000060 a6 e8 f1 39 fa 22 ee b9 cb 68 c7 b7 b5 16 16 38
       0.0004614044 -0.00045420957 -2.3771447e-05 3.5783934e-05
000070 d4 77 e5 39 3f dc 2f 39 5e 6d 9a b9 3c 1f 8a 39
       0.00043767563 0.00016771349 -0.00029454654 0.00026344683
000080 ac 92 91 b9 f0 af 15 37 96 27 8a b9 50 a5 c0 3a
       -0.00027765834 8.922056e-06 -0.00026350905 0.0014697704
000090 7c fd b5 3a b1 f2 61 38 e6 f2 ab 3a ed 06 03 ba
       0.0013884748 5.3870204e-05 0.0013118654 -0.00049982854
0000a0 08 a3 8f b9 2d 32 26 3a 6a 3e c4 ba 35 11 06 ba
       -0.00027396553 0.0006339874 -0.0014972214 -0.00051142584
0000b0 e1 9a 34 3a 6a b7 47 3a 0d ec 2a 3b 35 f8 b4 ba
       0.0006889534 0.00076185784 0.0026080639 -0.0013806882
0000c0 dc 9e 70 3a 64 b8 35 3a 2a 5c 6c 39 11 14 fb b9
       0.00091789453 0.00069320784 0.00022541048 -0.000478894
0000d0 01 64 02 ba d4 d1 40 3a 91 13 eb b9 72 9c 80 39
       -0.0004974008 0.00073554856 -0.0004483727 0.00024530623
0000e0 64 99 8b 39 2e b9 d4 b9 ff ed 15 bb 79 eb e8 b8
       0.0002662643 -0.0004057376 -0.0022877452 -0.00011106482
0000f0 4a c5 fe 39 a1 a6 bb 3a 80 f1 5d b8 1b 4b 71 ba
       0.00048593647 0.0014316627 -5.291542e-05 -0.0009204612
000100 e0 5b 5a 3a b0 95 88 3a a9 67 27 39 fd c6 68 ba
       0.00083297305 0.0010420587 0.00015964978 -0.0008879749
000110 f1 f0 94 3a 3a 6f a9 b9 5b 68 6d 3a dc 42 2c ba
       0.001136331 -0.00032317062 0.00090563827 -0.0006571242
000120 08 43 9b b8 2f d3 ae 3a 17 3e 93 3a 73 a0 1d 3a
       -7.4034615e-05 0.0013338084 0.0011233714 0.00060129835
000130 06 2c 3e 3a 7e 29 3f 3a 5b b0 1c 35 04 1c 34 3a
       0.0007254485 0.00072922546 5.837116e-07 0.000687063
000140 46 3b 9d 39 3e 5b 28 ba fc bf a4 3a db 81 e9 b9
       0.00029989536 -0.00064222876 0.0012569423 -0.00044537973
000150 14 20 07 ba 90 c6 63 b9 5c 55 30 39 65 56 0b 3a
       -0.00051546213 -0.00021722377 0.00016816467 0.0005315303
000160 11 0f db 38 ca 78 d3 ba 7d 2d dc b9 bd 93 0f 39
       0.0001044554 -0.001613402 -0.0004199556 0.0001369258
000170 bf 56 59 ba 33 4e f1 ba 90 9a 96 39 b2 c0 13 ba
       -0.0008290819 -0.0018410146 0.00028725388 -0.0005636319
000180 d9 69 2f b9 4b b8 d6 39 42 fd ec 39 d1 00 1e b9
       -0.00016728732 0.0004095457 0.0004520212 -0.00015068358
000190 1a ec 9a b8 2b 79 00 3a 60 a1 eb b8 51 da 66 b8
       -7.3872696e-05 0.0004900868 -0.00011235732 -5.5039596e-05
0001a0 43 2a 30 ba af 32 2b ba 2b 33 d6 36 fe 34 4d 39
       -0.00067201647 -0.0006530685 6.3836537e-06 0.00019570065
0001b0 cb 4c 2b ba 70 b3 61 39 83 18 1b 3a 3c e9 9c b9
       -0.00065345754 0.00021524518 0.00059164333 -0.00029928412
0001c0 a9 d8 90 ba af e8 3e 3a 08 92 a5 3a b7 39 01 bb
       -0.0011050898 0.00072825974 0.0012632022 -0.0019718239
0001d0 bd f2 cc b7 53 c5 e1 b9 87 91 6a bb 5b 36 5d b9
       -2.4431729e-05 -0.00043062362 -0.0035792307 -0.00021096451
0001e0 ca 22 0d 37 df 40 01 3a 45 f9 14 ba b6 2f 01 3a
       8.412355e-06 0.0004930626 -0.0005682896 0.0004928069
0001f0 0c 97 ac 38 6a 4c 6d 39 af 9e 84 b9 03 87 b1 b8
       8.229734e-05 0.00022630548 -0.0002529523 -8.4651656e-05
000200 ee 21 1a ba ce 23 01 38 8c 87 8f 38 a5 88 f1 b9
       -0.00058796897 3.0789342e-05 6.844019e-05 -0.0004606891
000210 72 96 67 ba 66 da 82 b9 80 66 2d ba 12 cd 4b 39
       -0.0008834369 -0.00024958252 -0.00066147 0.00019435983
000220 0b 30 73 39 17 98 2d 3b fe da ab 39 47 14 00 b9
       0.00023192183 0.0026488358 0.00032778824 -0.00012214585
000230 77 78 8e b9 94 fa 07 3b 2d 62 94 ba ef d0 71 3a
       -0.00027174104 0.0020748721 -0.0011320763 0.0009224554
000240 b7 f9 1a 39 f9 a3 c0 39 39 34 a7 39 d8 11 25 ba
       0.0001477961 0.00036743263 0.0003189163 -0.00062969094
000250 5c 8f ed 37 3c 1c 34 39 e4 d7 fe 39 f4 b2 52 3a
       2.8319359e-05 0.00017176656 0.00048607506 0.00080375304
000260 a5 05 12 b9 76 64 88 ba 97 04 36 ba 92 50 df ba
       -0.00013925748 -0.0010405916 -0.0006943433 -0.0017037562
000270 b6 d5 07 3a 7d 1a 3d ba 97 2b 82 ba 9d 41 42 ba
       0.0005181687 -0.0007213725 -0.0009931204 -0.000741029
000280 8e 96 9c ba 98 b8 19 ba 3a dd eb b7 06 93 a9 b9
       -0.0011946724 -0.00058639934 -2.81172e-05 -0.00032343733
000290 e4 eb 3e ba fa d3 a0 39 f0 dc f1 b9 61 f7 23 3a
       -0.0007283075 0.00030675513 -0.00046131713 0.0006254819
0002a0 dc 1e a1 39 01 c8 88 ba 94 08 95 ba fd 49 77 39
       0.00030731305 -0.0010435582 -0.0011370354 0.00023583318
0002b0 79 d3 09 38 84 5a 22 3a f8 4f 23 3a d0 ff be 39
       3.2860295e-05 0.00061932974 0.0006229873 0.0003643022
0002c0 a7 c5 fb 38 76 cf 12 3b b4 41 f9 38 15 db 20 3b
       0.00012005428 0.0022401488 0.000118854834 0.0024544646
0002d0 92 16 b7 38 7a a8 18 3a ed 93 84 b9 15 e2 51 b9
       8.730324e-05 0.0005823445 -0.00025287215 -0.00020016015
0002e0 b7 dd a7 b8 56 47 83 b8 6f 70 89 ba e6 19 4a 39
       -8.004478e-05 -6.259854e-05 -0.0010485778 0.00019273869
0002f0 4e 0a 22 ba 66 5e 05 ba 89 86 26 3a 25 03 f5 b8
       -0.0006181345 -0.0005087614 0.0006352445 -0.00011683096
000300 a7 78 89 b9 d5 6a 27 ba 4e b2 8a 39 76 85 6c 39
       -0.0002622057 -0.00063864636 0.00026454258 0.00022556432
000310 e6 7d c2 b9 23 0a 8a 3a b8 b4 d4 38 54 b4 c7 b8
       -0.00037096365 0.0010531585 0.00010142609 -9.522648e-05
000320 d7 df 02 b8 2c 26 26 39 7b 35 e1 3a 72 0b 32 39
       -3.1202882e-05 0.00015845214 0.0017182076 0.00016979667
000330 5a 6b 02 3a cd 0f f1 b9 46 45 c5 37 f2 41 fd b9
       0.0004975103 -0.00045978875 2.3516488e-05 -0.00048305053
000340 b2 66 77 ba f2 83 7e ba 37 6e da ba 62 c3 c9 b9
       -0.0009437605 -0.00097089924 -0.0016664927 -0.0003848328
000350 f0 c8 9c 3a f2 16 03 3a a6 f3 7a b9 ac b6 43 ba
       0.001196174 0.00050006725 -0.00023932624 -0.000746588
000360 fc 80 54 b8 68 4b f0 38 a8 cf d3 b8 50 d9 0a ba
       -5.0664865e-05 0.00011458137 -0.00010099943 -0.00052966643
000370 17 f2 a1 ba 1d 6c cd 39 8c 7f 01 35 f8 ed 26 b9
       -0.0012355474 0.00039181198 4.824185e-07 -0.00015919644
000380 18 39 d6 b9 4d a6 2e 39 65 5d ba b9 16 df 88 b9
       -0.000408598 0.00016655885 -0.0003554627 -0.00026106153
000390 aa 8f da b9 f9 e1 23 39 02 81 8c 39 c9 66 03 b9
       -0.00041687238 0.00015629073 0.00026799 -0.00012531424
0003a0 06 b7 a6 ba c0 37 55 ba fa e6 eb 38 e7 25 8a 3a
       -0.001271934 -0.00081336126 0.00011248696 0.001053986
0003b0 e7 55 89 b9 65 e4 1b ba 28 e7 0c b9 72 34 8d ba
       -0.00026194679 -0.0005946814 -0.00013437553 -0.0010773076
0003c0 da 30 5b b9 f7 14 0d ba 73 db db ba ef 54 39 b8
       -0.00020903666 -0.0005381847 -0.0016773775 -4.4186538e-05
0003d0 f0 42 de b7 aa dc a7 b9 62 91 8c 39 69 25 ea b8
       -2.6495632e-05 -0.0003201713 0.000268112 -0.00011164958
0003e0 4d 0b a2 39 4f d7 bd 3a c9 4f 8e ba 45 f4 90 b9
       0.00030907468 0.0014483723 -0.0010857518 -0.00027647815
0003f0 5d 88 3b 3a 81 3d 0e ba 77 5c 38 3a d0 e4 d6 39
       0.00071538036 -0.0005426035 0.00070328213 0.0004098774

norm_input.running_mean f4 [1920]
000000 da 60 a4 bd 62 83 b2 bd cc 0d 89 3e 29 7c bd be
       -0.080262855 -0.087164655 0.2676834 -0.3700879
000010 a3 d6 65 3e 18 a8 4f 3d e9 b4 7e be 6e 5c 10 bf
       0.22445159 0.050697416 -0.24873699 -0.56391037
000020 42 ac a6 bd f0 aa 8f be 3d 4c 98 be 82 74 86 be
       -0.08138324 -0.28060102 -0.29745665 -0.26260763
000030 1b e4 0f 3f 32 53 33 3e 3f 15 80 3e 55 aa 21 bf
       0.56207436 0.17512205 0.2501621 -0.6315053
000040 e8 74 01 be 39 3d 04 3f 71 61 d5 3e eb da 5e 3c
       -0.12642252 0.5165592 0.41675904 0.013601999
000050 da 6f 40 bf 2b 43 fa 3a 44 e9 39 bd f0 ba d0 3e
       -0.7517067 0.0019093504 -0.045388475 0.40767622
000060 9f 05 55 be da 62 a8 bc 76 d6 04 3f 98 06 24 3e
       -0.20802926 -0.020554949 0.5188974 0.1601814
000070 22 c9 11 be 49 d9 02 bd 91 21 dc be f9 ed 10 3e
       -0.14236882 -0.0319455 -0.4299436 0.1415328
000080 a1 15 66 3d 3b e2 45 be 96 2c 05 bd 78 9a 9e be
       0.05617297 -0.19324581 -0.032513224 -0.30977225
000090 fc fe 58 bd 8e a4 3d bd 40 86 00 bc b2 bc c9 be
       -0.052977547 -0.04629951 -0.007844508 -0.39401776
0000a0 9c c0 65 3e 4a 50 33 3e 68 57 35 be bb 26 97 42
       0.22436756 0.17511097 -0.17709124 75.575645
0000b0 06 83 9d 3e 42 73 81 be e6 e1 d0 3e cf 84 6a 3d
       0.30764025 -0.25283247 0.40797347 0.057255562
0000c0 26 48 07 3f 8a 6a 1c bd 19 96 50 be 2b 56 1f bd
       0.52844465 -0.03818754 -0.20369758 -0.038900536
0000d0 dc aa df 3d 83 65 2d 3f d6 27 c7 3c 72 6b 9b 3d
       0.10921261 0.6773302 0.024310987 0.07588853
0000e0 75 59 83 3e 58 2f 18 bf 5d ff 14 bf 96 59 06 3e
       0.25654188 -0.5944724 -0.58202153 0.13120112
0000f0 18 21 14 3f 01 cb 99 bb a1 ef c8 be fb cd 0e 3e
       0.57863 -0.0046933894 -0.39245322 0.13945763
000100 e1 c3 0f 3f 16 40 cb 3d 57 55 ad bc 22 3c 36 bf
       0.5615826 0.09924333 -0.021158857 -0.71185505
000110 cb af 52 3d 29 75 15 3e 2d 99 b9 3e 2b a4 0b 3f
       0.05143718 0.14595474 0.36249676 0.54547375
000120 a4 ca bb 3e 32 1a ab 3e df 62 f6 be a7 d9 b3 3d
       0.3667804 0.33418423 -0.48122308 0.08781748
000130 a9 79 7e 3d 83 5b 7f 3f 2d ff 93 3f 6c aa 58 be
       0.062127743 0.9974901 1.1562248 -0.21158761
000140 e4 74 6b be 5e 3d 61 3f 0f a6 ae be 6a d5 32 3e
       -0.22993809 0.87984264 -0.34111068 0.17464224
000150 33 a1 03 bf bc 4d e1 bc 44 f6 37 3e 49 49 ed be
       -0.51417845 -0.027502887 0.17965037 -0.46344975
000160 2e 09 16 3f 3d 91 fc 3e 14 63 84 3e de 8f 1b bf
       0.5860776 0.49329558 0.2585684 -0.607664
000170 d0 6e bf 3b 38 9e d8 3e 52 87 03 be fd a6 d9 3d
       0.0058420673 0.4230821 -0.1284459 0.106275536
000180 15 2d c1 be ce b3 20 3f b5 87 97 bd 69 98 81 3e
       -0.37729707 0.6277436 -0.07398931 0.25311592
000190 e7 ff 3b 3d f2 be 1b bd d1 7b 13 be b5 5c 0c bf
       0.045898344 -0.038023897 -0.14402701 -0.5482896
0001a0 b8 95 83 be 31 1f 5c 3a 76 dd d6 bd 99 c6 7d be
       -0.25700164 0.0008396982 -0.10491459 -0.2478279
0001b0 04 b4 bf be 45 0b 45 bf 24 72 60 bd 5e 03 fd 3e
       -0.3744203 -0.7697032 -0.054796353 0.4941663
0001c0 58 fa 07 be a0 d1 34 3f a5 c2 11 bf d9 30 3b bd
       -0.13279092 0.7063236 -0.5693763 -0.04570088
0001d0 50 69 8b 3d 0c ae cf be 19 0e aa be 57 5e e9 be
       0.06807196 -0.40562475 -0.3321388 -0.45579788
0001e0 d2 cd 3b 3e 7f 2b f4 bc 81 31 51 bf 7d e9 0e 3f
       0.18340233 -0.029805897 -0.8171616 0.55825025
0001f0 c3 3e 7e 3e 3e f5 8f be 23 18 5f be 4b d0 91 bb
       0.24828629 -0.28116792 -0.21786551 -0.0044498793
000200 33 e9 30 3d e7 64 a5 3e 9c f9 be be 87 c6 ca bd
       0.043191146 0.32303545 -0.37299812 -0.09901147
000210 5d 66 83 3d 7c 88 a6 be c9 fa b7 3d 3e e3 2a 3f
       0.064160086 -0.32526004 0.0898338 0.66752994
000220 93 94 97 3c d1 ee a4 3e 68 3d 00 bf cb 8d 91 3d
       0.018503463 0.32213452 -0.500937 0.07107123
000230 4c ce c6 be 69 0c 91 bd 7d 6a 69 bf 04 12 80 be
       -0.38829267 -0.07082445 -0.91178113 -0.25013745
000240 2c 90 a5 be 79 35 f3 bd 6d 18 a8 bd 34 60 26 bf
       -0.32336557 -0.118754335 -0.08207784 -0.64990544
000250 5c f3 0d 3e 55 48 79 3e 2e f5 46 bf a0 e0 f8 3e
       0.13862365 0.24343999 -0.77717865 0.48608875
000260 0e f3 6a bf 6a 46 8a be 1c 89 ef 3e 50 b4 e2 3c
       -0.9177712 -0.27006847 0.46784294 0.02767387
000270 de 0c 02 bf 38 10 01 bd 54 a0 0f bf fb a6 88 bf
       -0.50800884 -0.031509608 -0.56104016 -1.0675958
000280 a0 c7 69 3f f4 1e 47 3f 26 5f 36 3e 6a 2e 61 3e
       0.9132023 0.77781606 0.17809734 0.21990362
000290 f7 a8 ef 3e 17 93 16 bf 67 f7 6b 3e 03 7a f2 3c
       0.46808597 -0.5881819 0.23043595 0.029599195
0002a0 05 7f e6 bd 1c e5 a8 be 73 84 40 3f 03 43 56 3e
       -0.11254696 -0.32987297 0.752021 0.20924
0002b0 1b 1a db 3e 10 e9 46 3f d3 2f 37 bf a3 ad 2e be
       0.42793354 0.77699375 -0.7155735 -0.17058425
0002c0 62 df 4f 3d a9 b2 01 be 31 ec cd bc 0f 53 67 3e
       0.050750144 -0.1266581 -0.025137039 0.22590278
0002d0 c3 6c 51 3e f4 60 81 3e c1 05 22 bf c3 a6 98 3e
       0.20451646 0.25269282 -0.6329003 0.2981473
0002e0 cd 8f 98 3e c1 2e f8 be be 1a ee be 4d d9 9c 3e
       0.2979721 -0.4847317 -0.46504778 0.30634537
0002f0 75 4c 21 bf 55 90 03 be b0 8e 5a 3f 33 cb a5 bc
       -0.6300729 -0.12848027 0.85373974 -0.020238495
000300 40 70 09 3f 9c cd ca bd 41 a0 f0 3e 59 e6 d5 3e
       0.53686905 -0.09902498 0.46997264 0.41777304
000310 f3 49 9c be c9 fa 25 3f 87 42 8a 3e 6c 11 38 be
       -0.3052517 0.6483579 0.2700388 -0.17975396
000320 97 57 dc 3e 8e 9f 26 be 6f f3 df 3e c3 ce a9 be
       0.43035576 -0.16271803 0.43740413 -0.3316556
000330 0c 8e 88 3e 75 f3 bc 3e ed 55 1e 3d f5 63 7a be
       0.26670873 0.36904493 0.038656164 -0.24452193
000340 38 6f 32 bd 9d 96 45 bf b4 b1 32 be 2d 30 63 3e
       -0.043563098 -0.7718294 -0.17450601 0.22186346
000350 23 ac e2 be 6e 34 68 3d 16 88 fb 3d ea 86 bd be
       -0.44271955 0.056690626 0.12281816 -0.37016994
000360 3f c6 f2 bd 37 7e 82 3e 9a ef 24 be 41 9d 5c bd
       -0.11854219 0.2548692 -0.16107026 -0.053860907
000370 a6 8b 78 be 6f d9 fd 3e d6 ce 0d 3f d9 26 0c 3e
       -0.24272022 0.4957995 0.5539373 0.13686694
000380 1d 01 8d be bf 17 1f bf d8 80 3d 3e 4c 2d 1f bf
       -0.27539912 -0.6214561 0.18506181 -0.6217849
000390 10 b6 a2 3e f9 26 a7 be b3 ab 53 3e 8f f0 f2 3c
       0.31779528 -0.3264692 0.20670967 0.029655723
0003a0 57 50 b3 be 05 13 5d 3c 94 45 e5 3d 54 24 44 3e
       -0.35022232 0.013493304 0.111949116 0.19154483
0003b0 6b ea df be 84 4e fb be 1b ae a2 3e 1c d3 65 3e
       -0.43733534 -0.4908334 0.31773457 0.22443813
0003c0 2a 1a 69 3d 2b b1 00 bf 5c 3a 31 be 08 bb 14 3d
       0.056909718 -0.50270337 -0.17307419 0.03631118
0003d0 90 7f 0d 3e 32 05 86 3e 89 4a b6 bc ce 01 8a bf
       0.13818192 0.2617584 -0.022252338 -1.0781801
0003e0 93 1e 29 be ba 66 b8 be 8e 83 f9 3c 26 e7 12 3e
       -0.1651557 -0.36015874 0.030458238 0.14345989
0003f0 6b 19 28 be ef e8 65 bf 85 b9 28 3e d7 3d b0 bc
       -0.16415946 -0.89808553 0.1647702 -0.021513863

norm_input.running_var f4 [1920]
000000 78 a9 ea 3f 0d 63 eb 3f 7a 71 ef 3f bd a8 da 3f
       1.8332968 1.8389603 1.8706505 1.7082745
000010 c8 d3 25 40 b2 b9 00 40 83 fe 00 40 cd 97 fc 3f
       2.591051 2.011334 2.0155342 1.9733826
000020 e0 90 06 40 3e 43 0b 40 3f 26 1d 40 af 5f 2f 40
       2.1025925 2.1759791 2.4554594 2.740215
000030 4f 71 f7 3f f0 7e 13 40 8c 78 22 40 b6 39 0e 40
       1.9331454 2.3046227 2.5386076 2.2222724
000040 77 e1 3d 40 c6 70 1c 40 e8 97 1a 40 e8 7b 22 40
       2.9668863 2.4443831 2.4155216 2.5388126
000050 5f 86 1e 40 bc 32 43 40 a6 f7 24 40 02 d7 0c 40
       2.4769514 3.0499716 2.5776153 2.200623
000060 0a bf 0e 40 f1 7a 10 40 6c 3e 47 40 23 dd 11 40
       2.23041 2.2575037 3.113185 2.279122
000070 19 f7 03 40 b3 93 3e 40 0f 68 ed 3f e7 4d 18 40
       2.0619566 2.9777648 1.8547381 2.3797548
000080 ff d2 02 40 93 54 1e 40 4c 1f 0a 40 df c5 13 40
       2.0441282 2.473912 2.1581602 2.308952
000090 79 91 3b 40 dd f2 06 40 c9 79 0c 40 db ec 1e 40
       2.930754 2.1085732 2.1949332 2.4832065
0000a0 91 76 da 3f ee 18 1f 40 74 cb 06 40 a9 7c 5b 43
       1.7067434 2.4858966 2.1061678 219.48695
0000b0 04 83 17 40 4b 4d 15 40 b7 be 15 40 98 38 fa 3f
       2.3673716 2.3328426 2.3397653 1.9548521
0000c0 32 d4 0c 40 83 8e 12 40 dd b8 06 40 58 d4 00 40
       2.2004514 2.2899482 2.1050332 2.0129604
0000d0 e6 3e 08 40 c3 15 21 40 f5 91 f3 3f ad 92 08 40
       2.128839 2.5169532 1.9028918 2.1339524
0000e0 b2 f1 13 40 24 8c 17 40 3d e9 05 40 22 0a e5 3f
       2.311627 2.3679285 2.0923607 1.7893717
0000f0 7a 11 40 40 1e 84 e1 3f 92 91 05 40 c3 0d 08 40
       3.0010667 1.7618444 2.08701 2.12584
000100 55 af 23 40 47 fd e6 3f 2c b6 10 40 56 1c 30 40
       2.5575764 1.8046044 2.261119 2.7517295
000110 0b 6b 22 40 de b8 db 3f fb f0 01 40 db c2 1d 40
       2.5377834 1.7165792 2.0303333 2.465018
000120 0c 92 3b 40 93 40 e3 3f 39 a9 0d 40 99 77 0b 40
       2.930789 1.7754081 2.2134535 2.1791747
000130 41 79 15 40 bd 9b 3a 40 5a f1 14 41 3d 57 36 40
       2.3355258 2.9157555 9.308924 2.8490746
000140 c4 6a 03 40 57 8a 6f 40 45 f3 0c 40 ea 7c 09 40
       2.0533915 3.7428186 2.202348 2.1482491
000150 3c 2e 24 40 95 b5 08 40 6e 47 04 40 0b 7a 17 40
       2.565322 2.136083 2.0668597 2.366824
000160 37 59 13 40 46 b7 05 40 0f c4 05 40 b1 fc 3e 40
       2.3023202 2.0893111 2.0900915 2.984173
000170 d3 72 26 40 ce 90 0f 40 d2 1e 1b 40 e5 e9 1d 40
       2.6007583 2.2432132 2.4237561 2.4674008
000180 c5 20 0b 40 da 72 2a 40 6f 53 f9 3f c2 b8 11 40
       2.173875 2.66326 1.9478587 2.2769017
000190 d3 37 19 40 35 0c 16 40 d2 4c 15 40 55 33 f1 3f
       2.3940322 2.344495 2.3328137 1.884379
0001a0 b0 57 02 40 64 53 fe 3f 4f bf 15 40 39 43 05 40
       2.036602 1.9869199 2.3398015 2.082228
0001b0 02 ef 0e 40 ee 63 63 40 54 75 06 40 c3 c1 0d 40
       2.2333379 3.5529742 2.1009111 2.2149513
0001c0 8b 6a 05 40 eb e4 12 40 b5 c8 03 40 83 34 0d 40
       2.0846279 2.295222 2.0591252 2.20633
0001d0 c1 43 0d 40 8b dc 02 40 94 a0 0c 40 ae c0 0c 40
       2.2072604 2.0447109 2.197301 2.1992602
0001e0 47 fc 3c 40 16 3f e1 3f 8b 88 16 40 25 64 06 40
       2.9528978 1.7597377 2.352084 2.0998623
0001f0 7f 9b 08 40 83 2e 04 40 09 a1 11 40 a3 e5 16 40
       2.1344907 2.0653389 2.2754538 2.357766
000200 1c 78 2b 40 a5 03 0f 40 f2 11 07 40 82 99 07 40
       2.679206 2.2345974 2.1104703 2.1187444
000210 9d 85 21 40 c8 18 01 40 5e 11 29 40 97 8c 01 40
       2.52378 2.0171375 2.641685 2.024206
000220 cd 44 1c 40 16 0a 2e 40 2d c1 1c 40 35 fe 04 40
       2.4416993 2.7193656 2.4492905 2.0780156
000230 d9 20 10 40 a0 68 1f 40 69 6c 2d 40 9e 44 86 40
       2.2520049 2.4907608 2.7097418 4.195876
000240 73 ff 1c 40 38 ba ee 3f e7 ce 23 40 c0 b7 fd 3f
       2.4530914 1.865058 2.5595033 1.9821701
000250 27 0b 08 40 8b 47 1f 40 6e 4a 10 40 aa 0a f6 3f
       2.1256807 2.4887416 2.2545428 1.9222004
000260 89 64 21 40 d1 03 02 40 98 53 56 40 73 ba 18 40
       2.5217612 2.031483 3.3488522 2.38638
000270 ef 22 0a 40 e8 52 0a 40 af 03 0a 40 a7 4c 25 40
       2.1583822 2.1613102 2.1564748 2.5828035
000280 8b 69 ff 3f d6 6b 2d 40 7d f5 17 40 fe df 25 40
       1.9954084 2.7097068 2.3743584 2.5917964
000290 ce 84 01 40 34 5e 15 40 67 f7 f9 3f 9f a8 eb 3f
       2.0237308 2.3338747 1.9528626 1.8410834
0002a0 3e 16 fb 3f f0 db 3c 40 17 b9 e7 3f b9 fc 1f 40
       1.9616163 2.950924 1.810336 2.4998
0002b0 5e 47 05 40 9d ec 14 40 3a 8d 00 40 e7 d6 1d 40
       2.082481 2.3269417 2.0086198 2.4662416
0002c0 15 54 01 40 81 85 0c 40 7c 20 31 40 7a 40 eb 3f
       2.020757 2.1956484 2.7676077 1.8379052
0002d0 3e 03 0c 40 8c a5 0c 40 53 30 08 40 e2 d1 2a 40
       2.187698 2.1976042 2.1279495 2.6690602
0002e0 70 c2 a5 40 2c b1 14 40 69 b5 ff 3f eb 60 1a 40
       5.179985 2.3233137 1.9977237 2.4121654
0002f0 42 ff 09 40 ba 31 ed 3f 52 b4 2e 40 a5 af 01 40
       2.1562047 1.85308 2.7297559 2.0263455
000300 dd 86 2e 40 1b 64 0c 40 a7 e1 1c 40 b0 fc 0c 40
       2.7269814 2.19361 2.4512727 2.2029228
000310 56 32 0a 40 09 55 e1 3f a2 53 19 40 03 64 fc 3f
       2.1593223 1.7604076 2.3957295 1.9718021
000320 e8 14 ea 3f a1 e1 1e 40 1d 34 00 40 40 e0 e2 3f
       1.828763 2.4825213 2.0031807 1.7724686
000330 4a f7 2b 40 0c 8c 0c 40 f2 a6 e2 3f 9c 76 02 40
       2.6869683 2.1960478 1.7707198 2.0384893
000340 14 82 eb 3f c2 a6 0a 40 f9 35 12 40 1a 32 03 40
       1.8399072 2.166428 2.2845442 2.049933
000350 66 1a 0b 40 c1 f0 13 40 1e 46 05 40 6c 69 1c 40
       2.1734862 2.3115695 2.0824046 2.4439344
000360 33 c1 21 40 d3 3b 13 40 a9 bd 19 40 60 33 3a 40
       2.527417 2.3005264 2.402201 2.9093857
000370 a3 49 fc 3f 7d 60 39 40 f0 a4 08 40 97 63 03 40
       1.9709972 2.8965142 2.135067 2.0529535
000380 98 aa f6 3f e1 9d 30 40 28 f7 f9 3f 82 ac 9e 40
       1.9270811 2.7596362 1.9528551 4.958558
000390 0a 27 31 40 e2 b3 22 40 1d cf 02 40 c9 c3 07 40
       2.7680078 2.5422292 2.0438912 2.1213248
0003a0 77 72 02 40 86 7f 17 40 94 30 f5 3f c7 5a f1 3f
       2.0382364 2.3671584 1.915545 1.8855828
0003b0 23 cf 0c 40 9e 04 1a 40 6c 60 fc 3f a9 0b 03 40
       2.2001426 2.4065318 1.9716926 2.0475867
0003c0 14 cf f3 3f 65 5d 08 40 d0 8d 0c 40 79 c2 e4 3f
       1.904757 2.1307003 2.1961555 1.7871848
0003d0 6b 73 01 40 5f f9 39 40 da 90 0d 40 bf 1a 31 40
       2.0226696 2.9058454 2.211966 2.7672575
0003e0 46 37 ee 3f 8a 4e e3 3f 3a 16 02 40 c4 62 13 40
       1.8610618 1.7758343 2.0326066 2.3029032
0003f0 dd dc 1e 40 34 94 36 40 ca 7b 10 40 d2 5c 28 40
       2.4822304 2.8527956 2.2575555 2.6306653

transformer.norm.weight f4 [1920]
000000 20 cf 2f 3f ee c1 53 3f c1 94 9a 3e 45 59 67 3f
       0.6867542 0.8271779 0.30191615 0.9037059
000010 7e f4 b8 3e 55 e6 36 3f 9c 9f f7 3e 13 d4 21 3f
       0.36124033 0.7144521 0.4836396 0.63214225
000020 c3 d6 10 3f a5 be 22 3f 5d d9 70 3f dd 9a 46 3f
       0.565777 0.6357215 0.9408167 0.7758005
000030 c2 90 90 3f 38 2b 6e 3f 3c 80 13 3f 58 95 28 3f
       1.1294177 0.93034697 0.57617545 0.6585288
000040 7b 4f eb 3e aa 13 47 3f 3f 8f 60 3f 89 f6 59 3f
       0.45959076 0.7776438 0.87718576 0.8514181
000050 c5 bb 98 3f 03 2b 3c 3f 78 17 d1 3e 65 c5 0c 3f
       1.1932303 0.7350313 0.40838218 0.549887
000060 3d bd 66 3f 4e 52 42 3f f2 47 cd 3e 90 0d 30 3f
       0.90132505 0.75906837 0.40093952 0.68770695
000070 1e 36 99 3f 21 ec 80 3f 7a 4f 12 3f fe bc 2f 3f
       1.196964 1.0072061 0.5715252 0.68647754
000080 93 cf 58 3f e5 03 ac 3e 47 2c 3a 3f 7f bb 6c 3f
       0.84691733 0.3359672 0.7272381 0.92473596
000090 61 d8 6d 3f e5 64 05 3f e0 ba 5b 3f 0c b4 3b 3f
       0.92908293 0.5210708 0.85832024 0.73321605
0000a0 8b a4 79 3f 86 e1 25 3f d9 1a 6d 3f 71 d2 10 3f
       0.975167 0.64797246 0.9261909 0.5657111
0000b0 a2 98 40 3f 0b 6b 47 3f 01 f8 6f 3f ee 39 59 3f
       0.752329 0.7789771 0.937378 0.8485402
0000c0 45 be 1d 3f 24 46 69 3f c8 2f 34 3f 9c da 82 3f
       0.61618453 0.9112265 0.7038541 1.0222964
0000d0 64 20 fd 3e 9d ea 49 3f 54 cc 6c 3f 6b 8c 4c 3f
       0.49438775 0.78873616 0.9249928 0.7990176
0000e0 2d 8b 6b 3f 9e 60 10 3f 67 e1 93 3f 9e e4 93 3f
       0.9200924 0.56397426 1.1553162 1.1554143
0000f0 99 b0 74 3f 52 c8 9d 3f eb 8b 5a 3f e7 06 7b 3f
       0.95581967 1.2326758 0.8536975 0.9805741
000100 06 83 70 3f 24 ac 90 3f bf f4 0c 3f 03 51 98 3f
       0.93949926 1.1302533 0.5506095 1.1899723
000110 2f 5f 8e 3f 17 40 85 3f 3a ef 46 3f cd 9e 3f 3f
       1.1122798 1.0410184 0.7770878 0.74851686
000120 bb 7a 26 3f 98 4f 42 3f 6b 1c 84 3f 97 a3 71 3f
       0.6503102 0.759027 1.0321172 0.94390243
000130 90 27 7a 3f 0e e6 5d 3f 20 46 bd 3e 8b c5 81 3f
       0.9771662 0.8667916 0.36967564 1.013841
000140 7c 97 31 3f 03 9f 68 3f a6 0d 70 3f 17 cb 6f 3f
       0.6937177 0.9086763 0.93770826 0.93669266
000150 0f 87 30 3f 22 9c 6d 3f 1b 17 5b 3f d5 2f 88 3f
       0.68956083 0.92816365 0.8558213 1.0639597
000160 32 2f a1 3f 6a e0 83 3f 07 fb 2b 3f 64 3a 2e 3f
       1.2592528 1.0302861 0.6717991 0.6805785
000170 77 dd 89 3f 92 bb 67 3f cc ed 5e 3f 32 ce 0e 3f
       1.0770711 0.90520585 0.870816 0.5578338
000180 48 18 8f 3f 8e cd 8a 3f 3e 18 2d 3f ae 01 52 3f
       1.1179285 1.084398 0.67615116 0.82033813
000190 f7 94 46 3f 7c d0 6b 3f 8a 52 38 3f 17 a1 4f 3f
       0.7757105 0.92114997 0.72000945 0.8110518
0001a0 3f 86 4e 3f 3b 4f 12 3f ec 61 62 3f 96 65 33 3f
       0.80673593 0.57152146 0.88430667 0.7007688
0001b0 dd 32 98 3f 8b 30 86 3f ce 82 19 3f 40 ad 13 3f
       1.1890522 1.0483564 0.5996522 0.57686234
0001c0 b0 57 33 3f 8c 4a 92 3f 16 9f 6b 3f fe d9 8c 3f
       0.70055676 1.1429 0.9203962 1.1004026
0001d0 1e 5f 48 3f 66 5c 8d 3f c9 59 73 3f a5 17 39 3f
       0.7827014 1.1043823 0.95058876 0.72301704
0001e0 09 69 22 3f 62 5e 5b 3f 8f 47 2e 3f 45 cb 42 3f
       0.6344152 0.8569089 0.6807794 0.76091415
0001f0 d6 86 b6 3e 2f f3 5a 3f 9e c3 23 3f 12 cb 1b 3f
       0.35649747 0.8552732 0.63970363 0.60856736
000200 21 12 29 3f d3 7f 3d 3f 4a 73 78 3f 04 da e0 3e
       0.6604329 0.7402317 0.9705092 0.43916333
000210 7f 35 6f 3f 6f ac 2a 3f 2f 5a 45 3f 83 ed 4e 3f
       0.93441004 0.6666936 0.77090734 0.80831164
000220 ae 3a 90 3f 2d 8d a4 3f d1 ee 1f 3f d9 b9 a8 3e
       1.1267908 1.2855583 0.6247378 0.3295429
000230 4a fc 3b 3f 0b cb 8d 3f eb 90 4a 3f d9 73 18 3f
       0.7343184 1.1077589 0.7912738 0.5955177
000240 95 4a 46 3f c7 b5 25 3f 5a 05 1a 3f 7f 94 7d 3f
       0.77457553 0.64730495 0.60164416 0.9905471
000250 6d e6 7e 3f 5d 08 83 3f d0 5f 60 3f 84 dd 15 3f
       0.9957035 1.0236927 0.876462 0.5854113
000260 95 a8 77 3f e0 35 44 3f 54 ac 21 3f c3 22 88 3f
       0.9674161 0.76644707 0.63153577 1.0635608
000270 8e e4 28 3f f2 c4 00 3f b7 a3 6b 3f 2a b1 46 3f
       0.65973747 0.50300515 0.92046684 0.7761408
000280 79 c7 49 3f b6 98 64 3f 3f 16 23 3f 6a eb d1 3e
       0.78819996 0.8929552 0.6370582 0.4099992
000290 83 ff 4b 3f bf 88 41 3f 5c d3 88 3f 44 42 86 3f
       0.79686755 0.7559928 1.0689502 1.0488973
0002a0 78 50 08 3f b7 16 00 3f e5 60 a3 3f 26 4d 87 3f
       0.53247786 0.5003466 1.2763945 1.0570419
0002b0 4d 2b a9 3e 9b a5 68 3f 5b 47 39 3f 79 19 8a 3f
       0.33040848 0.90877694 0.72374505 1.0789024
0002c0 4b db b9 3e 80 8f 7b 3f c3 49 8b 3f 75 16 8d 3f
       0.3630012 0.9826584 1.0881885 1.1022478
0002d0 7f bd 32 3f 8e a5 19 3f e5 2d 54 3f 4d 8a 97 3f
       0.698204 0.6001824 0.8288253 1.1839081
0002e0 57 13 ec 3e 1f 81 f3 3e a1 b5 94 3f 97 99 44 3f
       0.46108505 0.4755945 1.1617929 0.7679686
0002f0 55 0a 35 3f 7e 16 9c 3f 9d 91 1d 3f da e4 68 3f
       0.7071889 1.2194364 0.61550313 0.909742
000300 26 a6 6d 3f ac ef 83 3f a3 2a 6a 3f b0 f8 44 3f
       0.9283165 1.0307517 0.9147131 0.76941967
000310 af 92 22 3f 14 1e 5a 3f da 00 1c 3f a7 41 00 3f
       0.6350507 0.85202146 0.609388 0.5010018
000320 b4 eb 10 3f 1e a5 1f 3f 08 f0 96 3f a7 28 0c 3f
       0.56609654 0.62361324 1.1792002 0.5474953
000330 a8 6c 03 3f ff 52 78 3f 49 f3 1b 3f d3 83 6d 3f
       0.5133767 0.9700164 0.609181 0.9277927
000340 26 3a 58 3f aa 25 77 3f ef 7f 85 3f 97 5f 11 3f
       0.8446373 0.96541846 1.0429667 0.56786484
000350 8b 76 42 3f 47 c6 3a 3f c9 e9 71 3f 8f 0a 22 3f
       0.7596213 0.729588 0.9449735 0.6329736
000360 94 b6 26 3f c1 92 3b 3f 0e 6d ec 3e e1 3d 68 3f
       0.6512234 0.73270804 0.46176952 0.9071942
000370 54 2a 8e 3f 1d ab 68 3f 6a 5f 70 3f ac 0e 9f 3e
       1.1106668 0.908861 0.9389559 0.3106588
000380 f1 4a 60 3f 0e ce a1 3e 86 80 13 3f 70 44 d5 3e
       0.8761435 0.3160252 0.57617986 0.41653776
000390 28 bc 5a 3f 66 e3 1a 3f 6e 08 eb 3e 0c 2e 1d 3f
       0.85443354 0.6050323 0.4590487 0.61398387
0003a0 09 95 7c 3f 87 3f 39 3f 9f 74 8b 3f a8 c3 80 3f
       0.9866491 0.7236256 1.0894965 1.005971
0003b0 7e 24 5e 3f e6 1c 09 3f 5a 5d 4b 3f 74 50 71 3f
       0.8677443 0.5355972 0.7943932 0.94263387
0003c0 26 78 31 3f 82 40 48 3f ce c6 66 3f 86 54 0a 3f
       0.69323957 0.7822343 0.901471 0.5403522
0003d0 d3 07 81 3e 63 9d 1b 3f a8 6d 76 3f cf f1 38 3f
       0.25201282 0.6078703 0.9626107 0.7224397
0003e0 8d 8a 7d 3f 61 9b 91 3f bb ea 82 3f 46 2c 81 3f
       0.99039537 1.1375543 1.0227884 1.0091636
0003f0 8e 74 0f 3f e7 7a 2d 3f f1 40 3b 3f 60 8d 22 3f
       0.56037223 0.6776566 0.7314597 0.6349697

transformer.norm.bias f4 [1920]
000000 e0 6d 1b bd 60 24 33 bd 55 27 89 bd 5b e3 5a 3d
       -0.03794658 -0.04373586 -0.06696955 0.05343948
000010 fc 09 55 3d 31 24 98 bd f7 a5 ac bd a3 6b 01 be
       0.052011475 -0.07428778 -0.08430093 -0.12638716
000020 cf c6 50 3c 3a 33 36 3e dd 01 81 bd 54 ab 25 3d
       0.012742712 0.17792979 -0.062991835 0.040446594
000030 3c 41 98 bc 04 c3 59 3c ab fa 44 bd 6f c0 17 bd
       -0.018585794 0.013291124 -0.048090618 -0.037048753
000040 93 64 c4 3d 4a 83 23 bd 5b 1b a3 bc 4d e3 86 3b
       0.095894955 -0.03992013 -0.019910505 0.004116452
000050 47 48 92 bc e7 a5 cc 3c 56 5b 4b bd ba 02 00 bc
       -0.01785673 0.024981452 -0.04964765 -0.00781315
000060 2a 79 80 3d a6 be b0 3d 33 5d 5b 3d 39 f9 fb bc
       0.0627311 0.08630113 0.05355568 -0.030758487
000070 df c0 03 bc 3c 2f e9 bd cd 4d c1 3d 04 0d 8c 3c
       -0.0080415895 -0.11385962 0.094386674 0.01709605
000080 11 0c 3e be 27 e4 8b bc be 31 75 bd ce fa 35 bd
       -0.1855929 -0.017076565 -0.05986189 -0.04442864
000090 52 01 31 3c d4 71 0c be 56 60 93 3d 02 ea c4 3d
       0.010803537 -0.13715297 0.07196109 0.09614946
0000a0 2d 47 b6 bd 84 97 aa 3b 15 c9 cd 3d 6d d5 79 bd
       -0.089002945 0.0052060504 0.10048119 -0.060994554
0000b0 7f a1 db 3d ac bc 3f bc d5 c4 a0 3d 7b c3 5c 3d
       0.10724162 -0.011702698 0.07850043 0.053897362
0000c0 08 83 d0 bd ac 9a eb 3c 77 dc 10 3e e6 d2 e8 3d
       -0.10181242 0.028760277 0.141466 0.11368351
0000d0 63 5f 98 bd 28 bb 46 bd 56 4c c6 be 02 cd 84 bc
       -0.074400686 -0.04851833 -0.38730115 -0.016211037
0000e0 aa 85 63 3d d9 5a 99 3d 03 77 24 3d d9 87 07 be
       0.055547394 0.07488031 0.04015256 -0.13235416
0000f0 e5 76 c2 3d bc d9 30 bd 12 20 9e bd cf 46 02 be
       0.094953336 -0.043176398 -0.07720961 -0.12722324
000100 51 50 33 3e 37 d9 1d 3d 3d e0 35 be 11 12 14 3e
       0.17511107 0.03853723 -0.17761321 0.14460017
000110 db 67 79 3d 70 2b ef bd 6f 06 41 3d 34 f0 1a bd
       0.06089006 -0.11678207 0.047125276 -0.03782673
000120 88 21 23 be 27 a8 c2 3c a6 5e 2f be 25 2a 38 3d
       -0.1593076 0.023761822 -0.1712595 0.044962067
000130 bc a3 b3 3c d1 6e b8 3d f7 2d 40 3e df b4 a6 bd
       0.02192866 0.090055116 0.18767534 -0.08139967
000140 af 10 17 3d 2d 5e df bc 76 0d b8 3b 38 55 0a bd
       0.036881145 -0.027266586 0.005616839 -0.033772677
000150 c1 e6 61 bc b1 cd 3f bd 84 b4 b7 3c c7 9f d6 3d
       -0.013787926 -0.046827022 0.022424944 0.10479694
000160 d9 e4 dc bc a1 c8 69 3c 9c 8d a4 bd 1b 6a 10 3d
       -0.026964592 0.014269025 -0.08034822 0.03525744
000170 14 8e 5b 3b e8 ea 04 3e 47 77 0d bd 98 79 25 3d
       0.0033501433 0.12980235 -0.03453758 0.040399164
000180 56 74 fe ba 0e 78 94 3c 37 18 df 3c a5 34 9e bc
       -0.0019413333 0.018123653 0.027233226 -0.019312212
000190 53 0e 2c bd 30 3a c1 3c 5a f6 e3 3d 88 73 39 3e
       -0.04200585 0.023587316 0.11130972 0.18110478
0001a0 05 65 e0 3c 09 b9 ab 3d a0 99 4f 3d 4a 1c 1e be
       0.02739192 0.08384902 0.050683618 -0.15440479
0001b0 a8 37 1a bd 1d df 4d 3d 38 cc a8 bc 59 c8 92 bc
       -0.037650734 0.050261606 -0.020605192 -0.017917799
0001c0 0a 10 2d bd 6c 54 b5 3d 6d bb 39 bd 09 f5 c7 bd
       -0.042251624 0.08853993 -0.04534476 -0.097635336
0001d0 b8 6c 81 3d 8b 4e 07 b9 9f 48 12 3e 99 88 36 bd
       0.063195646 -0.00012903863 0.14285515 -0.044563863
0001e0 01 21 3d be 63 bf e6 bd 7f 23 58 3e 09 73 d0 3d
       -0.18469621 -0.11266973 0.2110729 0.10178191
0001f0 ad 9f ab 3d 27 ca 00 be 5f fa a2 bc 41 b0 91 3e
       0.08380065 -0.12577115 -0.019894777 0.28454784
000200 ea 9c 9c bd b2 ae 0d 3d 9d 01 bb bd dd ba 19 3d
       -0.076471165 0.03459043 -0.09131167 0.037531722
000210 4d 55 54 bd 7f 5a ce 3d ef a9 91 bd 41 2f 8a bd
       -0.05183916 0.100758545 -0.071124904 -0.06747294
000220 d9 0c 0c 3c 2b 08 22 bd 6a 3a 29 bb af cc 55 bc
       0.008547985 -0.03955857 -0.002582217 -0.013049289
000230 cd e9 93 3c d0 e1 32 3d 5e 2a c8 3d 31 de 65 3d
       0.01805582 0.043672383 0.09773706 0.0561201
000240 54 f7 fe 3d 49 9f 43 3d 66 15 b2 3d cd 4f c1 3c
       0.12449518 0.047759328 0.08695488 0.023597622
000250 16 5c 41 bd 87 fc 8c bd 3e 18 ae 3d 98 c7 02 3e
       -0.04720696 -0.06884103 0.085007176 0.12771451
000260 ef 92 90 3c 71 a1 2c 3d 22 e4 5e 3e 10 4f 44 bd
       0.017648188 0.04214615 0.21766713 -0.047926962
000270 bd 7a 13 be 50 bb 28 bc 14 89 9f bd 51 c2 a4 3c
       -0.1440229 -0.010298565 -0.077898175 0.020112189
000280 50 98 c8 3d 69 66 5d 38 48 b2 27 3e 24 05 2e bd
       0.09794676 5.2785883e-05 0.16376603 -0.04248537
000290 9a 67 1c 3d 1e a9 e3 bd 27 b6 49 be 3b 96 3c 3e
       0.03818474 -0.11116241 -0.19698392 0.18416683
0002a0 f8 1b 94 3d 2a 8f 0e bd e9 18 a5 3d 91 2b 30 bc
       0.07231897 -0.0348045 0.08061392 -0.010752575
0002b0 22 17 08 3c c0 29 35 3e bd 7c 31 3d 92 0b b9 3c
       0.008306297 0.17691708 0.04333185 0.022588525
0002c0 d7 51 24 be 1f 0d 19 bd 56 90 9f 3d ce c1 d5 3d
       -0.16046844 -0.03736603 0.07791202 0.10437356
0002d0 b5 e9 7f bd f8 cb 0f 3c 84 03 19 3e 62 e4 06 3e
       -0.06247874 0.008776657 0.14942747 0.13173059
0002e0 e9 d4 d0 3b 4e 44 e7 3d 8a 4d 84 bd a9 ae fb bb
       0.006373037 0.11292325 -0.06460102 -0.007680733
0002f0 d9 5c ce 3d 55 dc 87 3d 22 f9 47 3d af ba 76 3d
       0.10076303 0.06633822 0.048821576 0.06023663
000300 1d a9 cb bc 24 54 87 3d 1b 2f 89 bc a4 ef b6 3c
       -0.024860913 0.066078454 -0.016746094 0.022331066
000310 0a 74 5f bc 28 8a 82 3d 32 c9 08 3e d9 98 d2 bd
       -0.013638506 0.063740075 0.13358 -0.102830596
000320 ef c9 10 bd 68 ae 14 be be 45 04 be d1 fc fc bd
       -0.03534883 -0.14519656 -0.1291723 -0.123529084
000330 00 63 df 3c e1 51 77 3d 2d f5 e3 3c 9d fc 88 be
       0.027268887 0.06038082 0.02782687 -0.2675523
000340 7f 34 fc bc e4 97 5d bd e8 8e fa bc f2 5b 3e be
       -0.03078675 -0.054099932 -0.030585721 -0.18589762
000350 32 98 77 bd cd f6 31 3e 27 3f 91 bd 64 d6 02 bd
       -0.06044788 0.17379303 -0.070921235 -0.03194274
000360 ed f4 f3 bd 92 42 48 bd e7 6f 27 3e c5 6f 11 3c
       -0.1191195 -0.04889161 0.16351281 0.008876746
000370 af de 3a bd 3a 91 8a 3d c9 9b 99 3a 09 53 80 bb
       -0.045622524 0.06765981 0.0011719401 -0.0039161486
000380 20 be 56 3d 41 a8 99 3c d1 39 89 3d 93 d4 60 bc
       0.05242741 0.018756988 0.06700481 -0.013722557
000390 b6 2b 25 3d f2 84 4f 3d dd 88 ff bc f9 57 d4 bd
       0.04032489 0.050663896 -0.031193191 -0.10368342
0003a0 6d fe 6e bd 79 0d 54 3d 49 74 0a 3e 0f 5a 9f bc
       -0.058348108 0.05177066 0.13520922 -0.019452123
0003b0 3c ac 81 be 2f e7 1f bd 62 f6 98 3c 11 53 a0 3c
       -0.25326717 -0.039038833 0.018672172 0.01957086
0003c0 8c c4 17 3d c2 59 fb bd ff bf 53 bd 26 eb 97 bd
       0.037052676 -0.12272979 -0.051696774 -0.07417898
0003d0 f5 5f 15 bd 4a 51 0f 3e 06 b1 9c 3c b0 1f a7 3b
       -0.036468465 0.13995853 0.01912738 0.005100213
0003e0 f2 57 45 3d f8 4f a9 3d 2f 72 c6 bb 6a 5d 1f 3d
       0.048179574 0.08267206 -0.006056092 0.038907446
0003f0 a4 2c 00 3e 22 10 a8 3c 80 77 8e bb c0 00 f3 3d
       0.12517029 0.020515505 -0.0043477416 0.118653774

transformer.norm.running_mean f4 [1920]
000000 6a 54 e1 b9 13 ea 96 b9 65 d6 bc 39 68 26 c8 ba
       -0.00042978238 -0.00028784628 0.0003601789 -0.0015270235
000010 77 92 f4 39 83 ac 41 b8 6e 4f f0 39 fb 05 1d 39
       0.0004664843 -4.617545e-05 0.00045835547 0.00014974915
000020 e9 31 48 b9 02 81 7e ba 0b 75 50 ba c9 81 49 39
       -0.0001909208 -0.0009708555 -0.0007952011 0.00019217202
000030 5c 2d 21 3a 50 62 4c 39 46 c7 3b ba 9c 48 17 ba
       0.00061484217 0.0001949158 -0.0007163178 -0.00057710125
000040 d7 fe 02 3a b8 49 f4 b7 1d 81 b2 b8 37 98 14 ba
       0.00049970805 -2.9121395e-05 -8.511751e-05 -0.0005668434
000050 96 f9 ae ba 66 14 88 39 79 cc 4d b9 99 c2 f0 b9
       -0.0013349529 0.0002595514 -0.00019626495 -0.00045921354
000060 07 98 f2 39 38 1c eb b9 4b 65 cc b7 86 ae 0c 38
       0.00046271106 -0.00044843717 -2.4365863e-05 3.354114e-05
000070 64 4c e5 39 93 ff 31 39 11 a3 9a b9 a1 58 8c 39
       0.000437352 0.00016975244 -0.00029494663 0.00026768915
000080 d9 81 91 b9 76 38 1f 37 95 66 89 b9 ac 71 c1 3a
       -0.000277533 9.490284e-06 -0.00026207106 0.0014758608
000090 c1 7f b6 3a 83 0d 6b 38 06 a8 ab 3a 81 cd 02 ba
       0.0013923572 5.604095e-05 0.001309634 -0.0004989729
0000a0 4d 98 8e b9 fd 6d 26 3a f6 85 c4 ba 01 25 06 ba
       -0.00027197824 0.0006348787 -0.0014993537 -0.00051172083
0000b0 c1 5e 35 3a c8 4c 48 3a 08 cd 2a 3b 05 01 b5 ba
       0.00069187215 0.0007640836 0.002606215 -0.0013809508
0000c0 69 ad 70 3a 92 ef 35 3a c0 0d 6f 39 08 f3 fc b9
       0.00091811136 0.0006940301 0.00022797938 -0.00048246258
0000d0 2f f9 01 ba e9 71 41 3a 32 46 eb b9 48 49 7f 39
       -0.0004958091 0.00073793397 -0.00044874992 0.00024345994
0000e0 9e 81 89 39 d9 65 d5 b9 f3 b3 15 bb 57 8f e2 b8
       0.0002622725 -0.00040702408 -0.0022842854 -0.00010803219
0000f0 ef 5f fe 39 31 a4 bb 3a b6 80 61 b8 8d a7 71 ba
       0.0004851813 0.0014315901 -5.376405e-05 -0.00092183874
000100 b9 3f 5a 3a 7f 69 89 3a b5 68 2a 39 c7 41 69 ba
       0.00083255355 0.0010483711 0.0001625147 -0.0008898046
000110 e5 6f 94 3a 4f f8 ac b9 ad 71 6c 3a 98 75 2c ba
       0.0011324851 -0.000329914 0.00090196246 -0.0006578802
000120 07 5b 96 b8 5b 9a ae 3a c5 40 93 3a 3c 13 1d 3a
       -7.1695125e-05 0.0013321148 0.0011234513 0.0005991941
000130 b0 ed 3c 3a ec 24 3f 3a 94 db 5c 35 34 ed 34 3a
       0.0007207049 0.00072915736 8.2275915e-07 0.0006901801
000140 7e be 9d 39 2b 65 27 ba c4 84 a4 3a 31 34 e9 b9
       0.000300873 -0.00063856196 0.0012551774 -0.0004448011
000150 6f ff 07 ba 6a 2d 68 b9 85 b9 31 39 97 f4 09 3a
       -0.0005187904 -0.00022142162 0.00016949147 0.0005262582
000160 29 2d e8 38 d1 83 d3 ba 54 1c db b9 b9 2a 0d 39
       0.00011071034 -0.0016137307 -0.0004179204 0.00013462723
000170 a4 f4 5a ba 36 86 f1 ba c9 e6 97 39 98 c0 13 ba
       -0.00083524943 -0.0018426839 0.00028972913 -0.00056363037
000180 0d 2c 30 b9 d1 45 d3 39 17 28 ec 39 c6 7b 1e b9
       -0.00016801078 0.00040297073 0.00045043297 -0.00015114163
000190 40 cb 9c b8 ec f2 ff 39 18 20 eb b8 f2 09 79 b8
       -7.476518e-05 0.0004881838 -0.00011211651 -5.937549e-05
0001a0 77 cb 2e ba fd e8 2a ba b9 36 86 36 64 5e 4f 39
       -0.0006667892 -0.00065197033 3.9998818e-06 0.00019776222
0001b0 f7 4a 29 ba 31 f8 65 39 2f c7 1a 3a 63 93 9c b9
       -0.0006458009 0.000219316 0.00059043145 -0.0002986445
0001c0 25 87 91 ba 43 95 3f 3a 37 15 a6 3a 6c db 00 bb
       -0.0011102898 0.00073083135 0.0012671117 -0.0019662036
0001d0 9a 8a e4 b7 3d 1d e2 b9 dc 52 6a bb 1e 8d 60 b9
       -2.724426e-05 -0.00043127863 -0.0035754954 -0.00021414875
0001e0 e2 7f 0b 37 6b 78 ff 39 4c b7 15 ba 26 c3 00 3a
       8.314821e-06 0.00048727109 -0.0005711212 0.0004911892
0001f0 9a 82 ac 38 63 2b 70 39 52 97 84 b9 c5 03 af b8
       8.2259256e-05 0.00022904346 -0.00025289744 -8.3453524e-05
000200 95 40 1a ba c2 15 f8 37 92 8a 8d 38 39 5b f1 b9
       -0.0005884257 2.9574036e-05 6.749215e-05 -0.00046035068
000210 1d a5 66 ba 19 87 82 b9 0f ff 2c ba 8c 8e 4d 39
       -0.00087984075 -0.00024896188 -0.0006599286 0.00019603426
000220 b9 ce 70 39 e2 88 2d 3b 78 4a ac 39 06 50 00 b9
       0.00022965194 0.0026479294 0.0003286188 -0.00012236842
000230 b1 70 8e b9 ac ed 07 3b eb ed 93 ba 6b c9 71 3a
       -0.00027168312 0.0020741029 -0.0011286115 0.0009223434
000240 5d b0 1d 39 98 5a c0 39 ce cb a6 39 5c 98 26 ba
       0.00015038387 0.0003668859 0.00031813834 -0.0006355101
000250 49 bc 01 38 6d 6f 2e 39 db 04 00 3a 80 35 52 3a
       3.093135e-05 0.00016635442 0.0004883536 0.00080188364
000260 41 55 10 b9 94 78 88 ba b9 96 36 ba d9 d6 de ba
       -0.0001376467 -0.0010411912 -0.00069652084 -0.0017001285
000270 32 e8 07 3a 99 1f 3d ba 18 50 82 ba 2e 13 43 ba
       0.0005184441 -0.0007214486 -0.0009942083 -0.00074415177
000280 4c fd 9c ba 3a 27 19 ba 94 26 e5 b7 4c 6e a9 b9
       -0.0011977344 -0.0005842332 -2.7316892e-05 -0.0003231637
000290 d2 a5 3e ba 33 ee 9f 39 eb 21 f2 b9 55 87 24 3a
       -0.0007272634 0.00030504316 -0.00046183108 0.00062762696
0002a0 c6 dc a0 39 f8 c8 88 ba 6e 0c 95 ba eb 2d 70 39
       0.00030682067 -0.001043587 -0.0011371502 0.0002290529
0002b0 7b fb 07 38 39 c0 22 3a 67 15 24 3a 29 1b c3 39
       3.2420718e-05 0.0006208453 0.0006259293 0.00037213534
0002c0 9c 2b fd 38 eb 08 13 3b 04 b2 01 39 a8 d5 20 3b
       0.00012072103 0.0022435735 0.00012368715 0.0024541412
0002d0 86 fe bb 38 b1 0c 19 3a 25 99 85 b9 24 e1 55 b9
       8.9642635e-05 0.0005838378 -0.00025481838 -0.00020397134
0002e0 c1 b0 a4 b8 18 f3 83 b8 f3 c9 89 ba 89 c4 4a 39
       -7.8530524e-05 -6.2918465e-05 -0.0010512456 0.00019337436
0002f0 a1 c6 22 ba 25 59 04 ba 13 0f 26 3a 53 37 fb b8
       -0.00062094076 -0.0005048684 0.00063346437 -0.000119789176
000300 b3 25 89 b9 87 60 27 ba 7e a1 89 39 12 af 71 39
       -0.00026158764 -0.0006384928 0.00026250997 0.0002304877
000310 29 24 c2 b9 f6 e2 8a 3a 87 54 d3 38 da 6c c8 b8
       -0.00037029505 0.0010596204 0.000100770085 -9.557018e-05
000320 a0 92 fc b7 89 5e 27 39 93 76 e1 3a 0f fc 31 39
       -3.0109019e-05 0.00015961578 0.0017201476 0.00016973935
000330 ba a9 02 3a cf 52 f2 b9 41 21 bf 37 db 43 fb b9
       0.00049843977 -0.00046219534 2.278446e-05 -0.00047925007
000340 c4 df 76 ba 4b 00 7d ba 44 e2 d9 ba f2 69 cb b9
       -0.0009417499 -0.0009651228 -0.0016623219 -0.00038798113
000350 f9 e6 9c 3a d3 76 03 3a 42 9c 78 b9 2a 13 44 ba
       0.0011970691 0.00050149596 -0.00023709334 -0.00074796623
000360 28 43 51 b8 64 ba f1 38 fe 16 d3 b8 09 75 0a ba
       -4.9892027e-05 0.000115264935 -0.00010065547 -0.0005281722
000370 87 68 a2 ba 99 38 cc 39 8b 63 42 36 44 a4 26 b9
       -0.0012390771 0.0003895208 2.8966194e-06 -0.00015892187
000380 3d ca d4 b9 56 2c 2e 39 b2 e1 bb b9 6d 36 88 b9
       -0.0004058647 0.0001661045 -0.00035835576 -0.00025980492
000390 d0 7d dc b9 80 ed 23 39 ff a9 8b 39 17 ac 05 b9
       -0.00042055408 0.00015633367 0.00026638803 -0.00012747977
0003a0 f7 c6 a5 ba 2e 38 56 ba 64 0f f2 38 30 d0 8a 3a
       -0.0012647797 -0.00081718236 0.00011542326 0.0010590609
0003b0 37 28 87 b9 75 46 1c ba 49 e7 0b b9 19 8f 8c ba
       -0.0002577917 -0.00059614267 -0.00013342233 -0.0010723799
0003c0 08 ac 5b b9 a3 2a 0e ba 02 b8 db ba bf 14 3c b8
       -0.00020949554 -0.00054232235 -0.0016763213 -4.4842014e-05
0003d0 2d 22 e0 b7 88 64 a8 b9 e7 ef 8b 39 b7 75 ea b8
       -2.6718795e-05 -0.0003211836 0.00026690887 -0.000111799156
0003e0 d6 5e a2 39 28 ff bc 3a 8a f3 8e ba c7 eb 8f b9
       0.00030969706 0.0014419304 -0.001090632 -0.00027450753
0003f0 4f 63 3b 3a 54 49 0f ba 7d ff 38 3a 47 68 d6 39
       0.0007148282 -0.0005465944 0.00070571137 0.00040894953
