xls_r_sqa/models/sqa-v2/xls-r-2b/model_2b_lay41_subset.pt (torch, 528269 bytes, 67 tensors)

norm_input.weight f4 [1920]
0	0x3f5b1c1c	0.85589767
1	0x3f44aa7f	0.76822656
2	0x3f5ce28d	0.8628319
3	0x3f4eadc6	0.8073391
4	0x3f5adf4c	0.85496974
5	0x3f6ded70	0.92940426
6	0x3f42701e	0.7595233
7	0x3f48fce8	0.78510904
8	0x3f4f95f0	0.8108816
9	0x3f485958	0.7826133
10	0x3f46651e	0.7749804
11	0x3f563784	0.8367846
12	0x3f5ef83b	0.8709752
13	0x3f47457d	0.77840406
14	0x3f5419b1	0.828517
15	0x3f5a19d7	0.8519568
16	0x3f7a5e48	0.9780011
17	0x3f585fa9	0.84520966
18	0x3f53c766	0.8272613
19	0x3f4a3ebe	0.79001987
20	0x3f57bcde	0.84272563
21	0x3f4ed262	0.8078977
22	0x3f485fe3	0.7827131
23	0x3f4ae5fe	0.7925719
24	0x3f605944	0.8763621
25	0x3f6a44f3	0.9151146
26	0x3f55131d	0.8323229
27	0x3f459a59	0.7718864
28	0x3f651438	0.89483976
29	0x3f549527	0.8304009
30	0x3f5c4fa3	0.86059016
31	0x3f4734c6	0.778149
32	0x3f457081	0.7712479
33	0x3f49a33b	0.78764695
34	0x3f4611f6	0.77371156
35	0x3f72def5	0.94871455
36	0x3f52eb95	0.8239072
37	0x3f6f867e	0.93564594
38	0x3f41b40d	0.7566536
39	0x3f540355	0.82817584
40	0x3f450cc8	0.7697263
41	0x3f4cb1e2	0.7995893
42	0x3f5e2a3a	0.8678318
43	0x3f49e93c	0.7887151
44	0x3f7c5c18	0.98578024
45	0x3f78020d	0.9687813
46	0x3f53ed85	0.827843
47	0x3f679e82	0.9047624
48	0x3f4cf285	0.80057555
49	0x3f51f84a	0.82019484
50	0x3f5df0f2	0.8669578
51	0x3f54d8ad	0.8314312
52	0x3f6ca82a	0.924441
53	0x3f8471fe	1.0347288
54	0x3f6323f7	0.88726753
55	0x3f726d9f	0.9469852
56	0x3f4e3376	0.80547273
57	0x3f562e4d	0.836644
58	0x3f476603	0.7789003
59	0x3f4431c7	0.76638454
60	0x3f648770	0.8926916
61	0x3f72f053	0.94897956
62	0x3f5a512b	0.852801
63	0x3f571587	0.84017223
64	0x3f4c56d7	0.7982001
65	0x3f5ec66a	0.87021506
66	0x3f631a79	0.8871227
67	0x3f48e183	0.78469104
68	0x3f54a671	0.8306647
69	0x3f46c59e	0.7764529
70	0x3f79a3a7	0.9751534
71	0x3f56c9d6	0.8390173
72	0x3f62ebec	0.8864124
73	0x3f4f9293	0.8108303
74	0x3f49f01b	0.78881997
75	0x3f580f85	0.8439868
76	0x3f55f8d2	0.83582795
77	0x3f4ca8bd	0.79944974
78	0x3f51491e	0.8175219
79	0x3f6aa773	0.9166176
80	0x3f58523a	0.8450047
81	0x3f675f33	0.9037964
82	0x3f684bbc	0.9074056
83	0x3f4f30db	0.8093392
84	0x3f517647	0.818211
85	0x3f4d943e	0.80304325
86	0x3f4c4175	0.7978738
87	0x3f59d1bb	0.8508565
88	0x3f4a376b	0.7899081
89	0x3f574527	0.84089893
90	0x3f4c02c4	0.7969172
91	0x3f58bacd	0.84660035
92	0x3f650ed6	0.8947576
93	0x3f57406f	0.8408269
94	0x3f5bcad7	0.85856384
95	0x3f5a1f2f	0.8520383
96	0x3f700179	0.9375225
97	0x3f511d90	0.81685734
98	0x3f516445	0.81793624
99	0x3f4908d9	0.78529125
100	0x3f47566e	0.77866256
101	0x3f459dbb	0.771938
102	0x3f64e5d6	0.894132
103	0x3f50b38f	0.81523985
104	0x3f4338ae	0.7625836
105	0x3f624c6a	0.8839785
106	0x3f4e8635	0.80673534
107	0x3f5059b2	0.81386864
108	0x3f50ebd9	0.81609875
109	0x3f44463c	0.7666967
110	0x3f591c55	0.84808856
111	0x3f5031af	0.8132581
112	0x3f55edfe	0.8356627
113	0x3f616166	0.88039243
114	0x3f4988cc	0.7872436
115	0x3f6fe923	0.93715113
116	0x3f65bb86	0.89739263
117	0x3f57cfae	0.8430127
118	0x3f66dd81	0.9018174
119	0x3f5148a6	0.8175148
120	0x3f54e3af	0.8315992
121	0x3f433611	0.76254374
122	0x3f49c79f	0.7882022
123	0x3f479918	0.7796798
124	0x3f4024e0	0.75056267
125	0x3f519abc	0.8187673
126	0x3f44407b	0.7666089
127	0x3f4c7317	0.79863113
128	0x3f5809e6	0.84390104
129	0x3f573fec	0.8408191
130	0x3f6b53a6	0.9192451
131	0x3f61c46b	0.88190335
132	0x3f5684f2	0.8379661
133	0x3f5edb37	0.87053245
134	0x3f4b152e	0.7932919
135	0x3f4ebc75	0.8075631
136	0x3f63b52a	0.8894831
137	0x3f603724	0.8758414
138	0x3f4c1831	0.79724413
139	0x3f4bb5fc	0.7957456
140	0x3f45eeb5	0.77317363
141	0x3f53d41c	0.8274553
142	0x3f69af15	0.9128278
143	0x3f7f895e	0.9981898
144	0x3f738753	0.95128363
145	0x3f44a4c0	0.7681389
146	0x3f480443	0.781315
147	0x3f6b16f3	0.9183189
148	0x3f5606d0	0.83604145
149	0x3f5839cf	0.8446321
150	0x3f778114	0.9668133
151	0x3f72bc75	0.9481881
152	0x3f72a3ed	0.9478138
153	0x3f57c9fe	0.8429259
154	0x3f505241	0.8137551
155	0x3f41d1de	0.75710857
156	0x3f79a900	0.975235
157	0x3f5b2af3	0.8561241
158	0x3f62d595	0.8860715
159	0x3f508162	0.8144742
160	0x3f759b50	0.95940113
161	0x3f4e8683	0.80674
162	0x3f58ac3e	0.8463782
163	0x3f5ae20c	0.8550117
164	0x3f56fa31	0.8397551
165	0x3f61f47f	0.88263696
166	0x3f60a569	0.87752396
167	0x3f5a70f0	0.8532858
168	0x3f5fe77b	0.87462586
169	0x3f486314	0.7827618
170	0x3f484fe2	0.7824689
171	0x3f581755	0.844106
172	0x3f4d49a5	0.801905
173	0x3f45bf33	0.7724487
174	0x3f49b244	0.78787637
175	0x3f4ff9e1	0.8124066
176	0x3f4a5171	0.7903052
177	0x3f908434	1.1290345
178	0x3f622d12	0.8835002
179	0x3f7b8807	0.98254436
180	0x3f47ec5d	0.78095037
181	0x3f4f5cbd	0.8100088
182	0x3f4801b1	0.7812758
183	0x3f4c54c0	0.7981682
184	0x3f7bf307	0.98417705
185	0x3f5cf37b	0.8630902
186	0x3f541833	0.82849425
187	0x3f60bf5c	0.8779199
188	0x3f50a8d7	0.8150763
189	0x3f439f6c	0.76415133
190	0x3f50d673	0.81577224
191	0x3f4489a5	0.7677253
192	0x3f462267	0.77396244
193	0x3f4ec545	0.8076976
194	0x3f461d33	0.77388304
195	0x3f46d54c	0.77669215
196	0x3f544598	0.8291869
197	0x3f539194	0.8264401
198	0x3f6c29ed	0.92251474
199	0x3f5c4603	0.8604433
200	0x3f5163eb	0.8179309
201	0x3f6f03b8	0.9336505
202	0x3f441a14	0.7660229
203	0x3f520d9b	0.8205201
204	0x3f705638	0.9388156
205	0x3f56ecb0	0.83954906
206	0x3f462738	0.77403593
207	0x3f5bb5ca	0.85824263
208	0x3f54a841	0.83069235
209	0x3f647c3c	0.89252067
210	0x3f6ba61e	0.9205035
211	0x3f4ffa56	0.8124136
212	0x3f4cce14	0.8000195
213	0x3f49efb3	0.78881377
214	0x3f75901c	0.9592302
215	0x3f57c18d	0.8427971
216	0x3f4888e4	0.7833388
217	0x3f55b9de	0.83486736
218	0x3f4e790a	0.8065344
219	0x3f59e941	0.8512154
220	0x3f57a537	0.8423647
221	0x3f55f171	0.83571535
222	0x3f66ccc2	0.90156186
223	0x3f4000f0	0.7500143
224	0x3f60060f	0.87509245
225	0x3f7142ce	0.9424256
226	0x3f4c1a2a	0.79727423
227	0x3f46cb4c	0.77653956
228	0x3f4e2add	0.80534154
229	0x3f4486e2	0.76768315
230	0x3f4ad6f1	0.79234225
231	0x3f64f91d	0.89442617
232	0x3f540e63	0.8283445
233	0x3f515214	0.81765866
234	0x3f52ded8	0.8237128
235	0x3f5db5c0	0.86605453
236	0x3f4fa2a1	0.81107527
237	0x3f8150ca	1.010278
238	0x3f785657	0.97006744
239	0x3f494e03	0.7863466
240	0x3f54ad8a	0.830773
241	0x3f566590	0.8374872
242	0x3f4de44d	0.80426484
243	0x3f455b15	0.77092105
244	0x3f5b9f09	0.85789543
245	0x3f71a70c	0.9439552
246	0x3f4c52d0	0.7981386
247	0x3f687d8a	0.9081656
248	0x3f46f0ee	0.7771138
249	0x3f49d93b	0.7884709
250	0x3f7bee97	0.98410934
251	0x3f62281e	0.88342464
252	0x3f4f0a72	0.80875313
253	0x3f498aef	0.7872762
254	0x3f6c36a3	0.9227087
255	0x3f60b6f3	0.8777916

norm_input.bias f4 [1920]
0	0x3a7323a2	0.0009275024
1	0xb7b05949	-2.1022412e-05
2	0xba3120bd	-0.00067568925
3	0xb983edb1	-0.0002516336
4	0x3a39c9d2	0.00070872635
5	0xba65b9da	-0.0008763351
6	0x39a62e12	0.00031696312
7	0xb9eef71e	-0.00045579014
8	0xba82d965	-0.0009983002
9	0xba6266cc	-0.0008636534
10	0xba0ca338	-0.00053648977
11	0x3a8409df	0.0010073743
12	0x3a951db4	0.001137665
13	0xba2a5308	-0.0006497358
14	0x39e12318	0.0004294149
15	0xbaa9052c	-0.0012895218
16	0x3a18b5af	0.0005825413
17	0xba49d06a	-0.00076985976
18	0x386af6ec	5.601991e-05
19	0x398d17d2	0.00026911363
20	0xb992c4e2	-0.0002799398
21	0x39fd8b38	0.00048359646
22	0xb96a1d68	-0.00022326934
23	0x38d95d7e	0.000103647806
24	0x388ea31c	6.801469e-05
25	0x39a433f6	0.00031319231
26	0xb7eeba31	-2.8458513e-05
27	0xb7f2f216	-2.8961378e-05
28	0xb9ce34f7	-0.00039330844
29	0x3a238bf0	0.0006238809
30	0xb96603d9	-0.00021935943
31	0xb97bc3ca	-0.00024010162
32	0x3897ad7e	7.2325565e-05
33	0x3990d41c	0.00027623854
34	0xb9815e61	-0.00024675115
35	0x3abe6985	0.0014527297
36	0xb9ce84ea	-0.0003939041
37	0x38ac5ebe	8.219246e-05
38	0xb98ac96b	-0.0002647148
39	0xb99c08d3	-0.00029761213
40	0xb83ef2c8	-4.5525638e-05
41	0xb994ebf1	-0.0002840455
42	0x39c99b07	0.00038453212
43	0xb9f01f04	-0.00045799476
44	0xba807c9a	-0.0009802759
45	0x3b7ffed7	0.0039061808
46	0xb9a36f4b	-0.00031172702
47	0x39525665	0.00020059345
48	0xb9b19f86	-0.00033878925
49	0x39e922b9	0.00044467094
50	0x3a9afb1c	0.0011824104
51	0xb9c39a1d	-0.00037308122
52	0x3a05d53c	0.0005105322
53	0xb9f6edae	-0.00047097862
54	0xba597146	-0.0008294772
55	0xb94f5e1c	-0.00019776117
56	0xb9f5e38c	-0.00046899577
57	0xb89836e7	-7.258151e-05
58	0xba3db946	-0.0007237386
59	0x39820345	0.00024797968
60	0x3994fcf7	0.00028417233
61	0x39b924e3	0.00035313432
62	0x3a3f9342	0.0007308015
63	0x3a47408a	0.00076008646
64	0x3a152edb	0.0005690881
65	0x3ad9e8de	0.0016625186
66	0xba8634d6	-0.0010239135
67	0x389eef72	7.578627e-05
68	0x39078a9e	0.00012926242
69	0x3883bf66	6.2822175e-05
70	0x388d6aed	6.7433204e-05
71	0x3aa47475	0.0012546914
72	0x3b3c755d	0.0028756477
73	0x3918bf30	0.00014567073
74	0xb9943497	-0.00028267942
75	0x38d3e49c	0.00010103846
76	0xb8a55b89	-7.884863e-05
77	0x39b1612d	0.00033832472
78	0xb9861c54	-0.00025579578
79	0x3a59d263	0.0008309243
80	0xb92f4274	-0.00016714056
81	0x3b920e64	0.004457282
82	0x3b14bae3	0.00226944
83	0x393057c4	0.00016817363
84	0x39c03675	0.00036661667
85	0x38d0f43b	9.963704e-05
86	0xb94c2828	-0.00019469915
87	0x3aeced80	0.0018076152
88	0xb9bf6ede	-0.0003651296
89	0xba6cf3c3	-0.0009039009
90	0x39c7ca28	0.00038106856
91	0x38cfd13d	9.909503e-05
92	0xba18c152	-0.0005827147
93	0x3a3d8145	0.00072290405
94	0xb9934c2e	-0.00028094783
95	0xba026ca0	-0.0004975293
96	0xbb0e2b2b	-0.002169321
97	0x39154efb	0.0001423917
98	0x3884f568	6.339961e-05
99	0x3a0ad3f9	0.00052958686
100	0x39f32997	0.0004637956
101	0xb93b00dd	-0.00017834031
102	0x388fe6b7	6.861745e-05
103	0xba23a801	-0.0006242991
104	0x399887e3	0.00029092943
105	0xb88e5ec3	-6.7887384e-05
106	0x38c12985	9.210691e-05
107	0xb9ed4681	-0.00045256692
108	0x3845e228	4.7179085e-05
109	0xb9745006	-0.00023299464
110	0xb80b9380	-3.3277553e-05
111	0xba02d4b2	-0.00049908005
112	0x36c50304	5.8714086e-06
113	0xba203293	-0.0006111052
114	0x3a9723fe	0.0011531112
115	0xbae04c27	-0.0017112539
116	0x39d1b197	0.000399959
117	0x39d002c1	0.00039674903
118	0x393caf42	0.00017994366
119	0xba03f992	-0.00050344423
120	0xb9de589c	-0.0004240916
121	0x39aafed7	0.00032614797
122	0xb75b6fdb	-1.3079461e-05
123	0xb9c57b7c	-0.0003766677
124	0x3a1d8108	0.0006008302
125	0x3aa76850	0.0012772176
126	0xb9197b3e	-0.00014637128
127	0x39dd6f12	0.0004223516
128	0x39f2ecfd	0.00046334407
129	0xbaa4f621	-0.0012585559
130	0xb7a197ad	-1.9263325e-05
131	0xbacbd24d	-0.0015550345
132	0xb9a4562e	-0.00031344726
133	0x39f976af	0.00047581407
134	0x39c40741	0.00037389438
135	0xba38ab3c	-0.0007044559
136	0xbae61257	-0.0017553073
137	0xb7e78c5f	-2.7602711e-05
138	0x39df7038	0.00042617484
139	0x3aba3fbb	0.0014209667
140	0x384b3d96	4.8456328e-05
141	0xb9ed87f5	-0.00045305458
142	0xba5f9bda	-0.00085299986
143	0x3b41a2ff	0.0029546616
144	0x3b38788a	0.0028148019
145	0xb9410ffe	-0.00018411872
146	0xba847f1e	-0.0010108685
147	0xbadc1c84	-0.0016793166
148	0x3a078c53	0.0005170751
149	0xba22ff31	-0.0006217836
150	0xba92b493	-0.0011192731
151	0xbaf841c2	-0.0018940496
152	0x3a3d1be1	0.0007213932
153	0xb8652275	-5.4629945e-05
154	0x3957242f	0.00020517477
155	0x38cbbde2	9.715163e-05
156	0xba8b3b77	-0.001062258
157	0xb95aac15	-0.00020854206
158	0x3b511219	0.0031901656
159	0xbaed275f	-0.0018093399
160	0x3a963e46	0.0011462651
161	0xb9cee6ea	-0.00039463426
162	0xb927cb47	-0.00016002088
163	0x39be03d0	0.00036242465
164	0x3a3359e4	0.0006841703
165	0x3a93b2b1	0.0011268464
166	0x3a0ab85c	0.0005291754
167	0x39a139c6	0.00030751358
168	0xb948fa35	-0.00019166696
169	0xb8079604	-3.232622e-05
170	0xb92bba5f	-0.0001637726
171	0x38e89b73	0.00011091577
172	0x39d92777	0.0004141887
173	0x39ad3f1f	0.0003304416
174	0xb7e8bcab	-2.774441e-05
175	0x3a257aee	0.00063125684
176	0x3a3821a2	0.00070240546
177	0xbb576acf	-0.003287006
178	0x3a7ce4fa	0.0009647157
179	0xba9a0f96	-0.0011753913
180	0xb903ee00	-0.00012581795
181	0x393dc0be	0.00018096247
182	0x365cd475	3.290622e-06
183	0x39d4717a	0.00040520338
184	0x3b21f594	0.0024713026
185	0x3a4075c2	0.0007341766
186	0xb8b33d66	-8.5468215e-05
187	0x3a12f571	0.00056060316
188	0xb95af99a	-0.00020883084
189	0x395cbd5e	0.0002105138
190	0xba234084	-0.000622757
191	0xb99f199f	-0.00030345932
192	0xb8ad8381	-8.273777e-05
193	0x3986ed75	0.0002573539
194	0x3a56a6b2	0.00081882917
195	0x39538d66	0.00020175203
196	0xb8f58237	-0.00011706765
197	0x38b4737e	8.604581e-05
198	0x3a233865	0.000622636
199	0xbb1d539f	-0.002400614
200	0x3a1cfe3d	0.0005988812
201	0x3a48dde9	0.0007662462
202	0xba6fe96f	-0.0009151911
203	0x389fd45f	7.621268e-05
204	0x3b3df2d0	0.002898384
205	0xba3683b0	-0.0006962372
206	0x3a6af0a2	0.00089622487
207	0xba0567de	-0.0005089025
208	0x3a8c85e0	0.001072105
209	0x3a689935	0.0008872927
210	0x3a7577f2	0.00093638815
211	0x39130d58	0.00014023983
212	0x385638de	5.1074538e-05
213	0x3a5fa84c	0.0008531853
214	0xba468f11	-0.0007574419
215	0x3adbc568	0.0016767206
216	0xbab726fd	-0.0013973411
217	0x38d38c8f	0.00010087445
218	0xb93ce601	-0.0001801476
219	0x3aae16ff	0.0013282
220	0xba46dde2	-0.00075861637
221	0xb9327ac5	-0.00017021138
222	0xb924287e	-0.00015655343
223	0xb9fa2bac	-0.00047716254
224	0xb91a8ba5	-0.00014738606
225	0x3a9c55ae	0.001192739
226	0xb9ae5b18	-0.00033255736
227	0x3a4e98cc	0.0007881045
228	0x384f1dd6	4.9380433e-05
229	0x3a268f2a	0.00063537306
230	0xba0ac416	-0.00052935013
231	0xb88cf47c	-6.721259e-05
232	0x3992944c	0.0002795778
233	0xb90593a0	-0.00012738863
234	0x383edec0	4.5506982e-05
235	0x3a63497f	0.00086703146
236	0x3a886ab2	0.0010407774
237	0xb68df767	-4.230929e-06
238	0x3b098e44	0.0020989338
239	0x3a2b2d8c	0.00065299193
240	0xba4b5319	-0.0007756218
241	0x39cc5a31	0.0003897711
242	0x3a57f19d	0.00082376023
243	0xb9ba460c	-0.00035528874
244	0xb91ad3dd	-0.0001476551
245	0x3847709a	4.7550166e-05
246	0xbaf0b6ea	-0.001836506
247	0xbaa6d872	-0.0012729301
248	0xb7d4ad60	-2.5353103e-05
249	0x3903a147	0.00012553214
250	0x39e5eb70	0.00043853698
251	0x39b67055	0.0003479744
252	0x39f401cf	0.00046540654
253	0x398da894	0.00027019216
254	0xba15feb2	-0.00057218515
255	0xba66fa0a	-0.00088110624

norm_input.running_mean f4 [1920]
0	0xc0188cc1	-2.383591
1	0xbfa92337	-1.3213872
2	0x3f87ab4f	1.0599154
3	0xbd7d9df6	-0.06191822
4	0x3f8faf25	1.1225325
5	0xbd6bbf12	-0.057555266
6	0x3ec02ec1	0.3753567
7	0xbebde0dd	-0.3708562
8	0x3faafaa9	1.3357745
9	0x3fa56159	1.2920333
10	0x3fea7dc2	1.8319628
11	0xbf698cab	-0.9123027
12	0x3f3095c0	0.689785
13	0xc0115d17	-2.2713068
14	0x3e4b4757	0.19851433
15	0x3eed5ea2	0.46361262
16	0x3e975ae8	0.29561543
17	0xbf8ddc24	-1.1082807
18	0xba6bc343	-0.0008993635
19	0x4000d5c6	2.0130477
20	0xbeb09f52	-0.34496552
21	0x3e1c1a45	0.15244396
22	0x3e810837	0.2520158
23	0x401647eb	2.3481395
24	0xbda5818e	-0.08081351
25	0xbf92e2be	-1.1475446
26	0xbef6e05a	-0.48218042
27	0xbe8212bb	-0.25404915
28	0xbcb20ef0	-0.021735638
29	0xc008fd7d	-2.1404717
30	0x3eda7c1a	0.42672807
31	0x40194303	2.394715
32	0x400e6622	2.2249837
33	0xbfded104	-1.7407537
34	0xc012c575	-2.2933018
35	0xbf982e02	-1.188904
36	0xc068d459	-3.6379607
37	0xbe419e9b	-0.1890816
38	0xbf8c8528	-1.0978136
39	0xc0016cd5	-2.0222676
40	0x3e590d67	0.21196519
41	0xbfc8a8d9	-1.5676528
42	0xc02cf9dc	-2.7027502
43	0x426cd6d3	59.20979
44	0xbfdba358	-1.7159224
45	0x404a182a	3.1577249
46	0xbf4789f5	-0.7794488
47	0x3faec05c	1.3652453
48	0x3f7ccc21	0.98748976
49	0xbfe79ad0	-1.809412
50	0xbe980686	-0.29692477
51	0x3c6463c1	0.013939799
52	0x3e18f50c	0.14937228
53	0xbf1ee81c	-0.6207292
54	0xbfeb8dd9	-1.8402663
55	0xbf59d536	-0.8509096
56	0xbf574a1c	-0.84097457
57	0x3fb9d1a5	1.4517103
58	0xbc60c6bb	-0.013719256
59	0xbff89094	-1.9419122
60	0xbec739a5	-0.38911167
61	0x3fc4df48	1.538064
62	0xbd1b6003	-0.03793336
63	0x3fae7740	1.3630142
64	0xbf31a212	-0.69387925
65	0xbfcd550a	-1.6041577
66	0xbfc7b233	-1.5601257
67	0x3fcbe96b	1.5930609
68	0x3f39be05	0.7255557
69	0x3dc7d737	0.09757846
70	0xbcd2ae2d	-0.02571782
71	0x3fc00653	1.500193
72	0xc04931ff	-3.1436765
73	0xc0122652	-2.283589
74	0xbf82a5b6	-1.0206821
75	0x4028237a	2.6271653
76	0xbc785cb9	-0.015158826
77	0xbf0e2459	-0.5552421
78	0xbf744b31	-0.95427233
79	0xbe73df56	-0.23815665
80	0xbffab791	-1.958727
81	0xc060a560	-3.5100937
82	0x3f5d1dc6	0.86373556
83	0x3f937afa	1.1521904
84	0x3f79400e	0.97363365
85	0xbffa3dd3	-1.9550117
86	0x40106fe9	2.2568305
87	0xbda2bd50	-0.07946265
88	0xbe875fce	-0.2644028
89	0xbfe2662f	-1.7687434
90	0x3ff153ac	1.885366
91	0xbf889bd7	-1.0672559
92	0x3dfee22a	0.12445481
93	0x3ef6edda	0.4822834
94	0x4001c9d0	2.0279427
95	0x3f2191dc	0.6311319
96	0xbec4cc55	-0.38437143
97	0xbf8097be	-1.0046308
98	0x3ed07c6c	0.40719926
99	0xbfa60898	-1.2971373
100	0x3f5aa648	0.85409975
101	0xc083dcb6	-4.1206923
102	0xbdedf46b	-0.11618885
103	0xc02dcd3e	-2.715652
104	0x3fa659b6	1.2996128
105	0xbf9e47ee	-1.2365701
106	0x3fec687a	1.8469384
107	0xbf98a4c2	-1.192528
108	0xbe905c44	-0.28195393
109	0xbfab1fa8	-1.3369036
110	0xbfc56e8d	-1.5424362
111	0x3f10d498	0.5657439
112	0x3f5c4634	0.8604462
113	0x3f8f33f8	1.1187735
114	0xbf24179f	-0.6409854
115	0x3f37934f	0.7170915
116	0x3b06c3aa	0.0020563402
117	0x3fa05cca	1.2528317
118	0xbeceb6fb	-0.40373978
119	0xbf9ac290	-1.2090626
120	0x3fa78709	1.3088084
121	0xbed8fc49	-0.42379978
122	0xc00bc59c	-2.183936
123	0xc00de729	-2.217234
124	0x3fac0847	1.3440026
125	0xbfdead63	-1.7396663
126	0xbc82e7b6	-0.015979629
127	0x3f4bdf4a	0.7963759
128	0x3f715c47	0.9428143
129	0x3fbf4400	1.4942627
130	0xbf0f6a08	-0.56021166
131	0xbeb81581	-0.35953906
132	0x3fc7136a	1.55528
133	0xbe85e408	-0.26150537
134	0xc0176b1c	-2.3659124
135	0xbf360a97	-0.7110991
136	0x3f83e935	1.0305544
137	0x3e156c73	0.14592151
138	0x3fab81af	1.3398951
139	0xbf39279f	-0.7232608
140	0x3f0dc9c5	0.55386
141	0xbf997f97	-1.1992062
142	0x41dea671	27.83127
143	0xbe849bb0	-0.2590003
144	0xbf9e10ba	-1.2348855
145	0xc02dd461	-2.7160876
146	0x400b8c96	2.1804557
147	0x3e22b693	0.15889959
148	0xbeaede9f	-0.3415422
149	0xc02bf0be	-2.6865687
150	0xbfc9f995	-1.5779291
151	0xc01cadbc	-2.448104
152	0x3fb6a16f	1.4268016
153	0xbc2ab6ac	-0.010419529
154	0xbff266ef	-1.8937663
155	0x3ffe1d98	1.9852781
156	0x4040d248	3.0128345
157	0xbf8bc5d7	-1.0919751
158	0xbee02702	-0.4377976
159	0x40481e40	3.1268463
160	0xbf66c362	-0.9014188
161	0x3e9c669f	0.30547044
162	0xbfcb7415	-1.58948
163	0xbcac29db	-0.021016052
164	0xbf412dff	-0.7546081
165	0xbf70d1ea	-0.94070303
166	0x3ffa7b86	1.9568946
167	0x3fabf0fe	1.343292
168	0x3ea5ee3a	0.32408315
169	0xbede51a0	-0.4342165
170	0xbe1ef760	-0.15524054
171	0x3e89669e	0.26836103
172	0xbf132b99	-0.574884
173	0x40d85fed	6.7617097
174	0xbebde2ad	-0.37087002
175	0x3e625d9b	0.2210602
176	0xbf312a2a	-0.6920496
177	0xbe4fd3ae	-0.20295593
178	0x4038eeb2	2.8895688
179	0xbef87293	-0.48524913
180	0xc06dcef1	-3.7157557
181	0xbf5b6733	-0.85704345
182	0xbff11ae2	-1.8836329
183	0x3f81236e	1.0088937
184	0x3f8fca43	1.12336
185	0x3e3bc519	0.18336906
186	0x3ecab221	0.39589027
187	0x3e255500	0.16145706
188	0x3ab7d381	0.0014024825
189	0x3f41633e	0.75542057
190	0x3fbb5c67	1.4637574
191	0xbfc46a3b	-1.5344919
192	0x403a1745	2.9076703
193	0xbf94284b	-1.1574796
194	0x3f8d2f41	1.1030046
195	0x3f8d0655	1.1017557
196	0xc04227a5	-3.0336697
197	0x3fb9f9e9	1.4529392
198	0x3ff6d9e4	1.9285245
199	0xbf49a895	-0.7877286
200	0x3fed81a1	1.8555185
201	0x3d8b933d	0.06815193
202	0x3fcdec75	1.6087786
203	0x4042a72e	3.0414538
204	0x3f5a44e6	0.8526138
205	0x3f189816	0.59607065
206	0xbedff582	-0.43741995
207	0x3faa3ca6	1.3299758
208	0x4003272d	2.049266
209	0x3ef30457	0.4746425
210	0xbe36eac7	-0.17862998
211	0x40268a6f	2.6021993
212	0xc0399560	-2.8997421
213	0x3ea92761	0.33037856
214	0xbf2e2bc6	-0.6803554
215	0x3f319540	0.6936836
216	0x3bcd52ff	0.0062659974
217	0xbf855be9	-1.0418674
218	0xbeba2e44	-0.36363423
219	0x3ebc7237	0.3680589
220	0xbf2e615e	-0.6811732
221	0x3f2b363c	0.6687963
222	0x3d438a51	0.04773933
223	0xbe987e59	-0.29783896
224	0xbe985f49	-0.29760197
225	0x3f5721c0	0.84035873
226	0x3dc807d4	0.09767118
227	0x3fae24a1	1.3604928
228	0xbfecc414	-1.8497338
229	0xbc45c597	-0.012071035
230	0xbebc68e6	-0.3679878
231	0xbe907e37	-0.28221294
232	0xc0002080	-2.0019836
233	0xc057fd09	-3.374819
234	0x3e922522	0.28543955
235	0xc0492a0d	-3.1431916
236	0x3ef7aa63	0.48372182
237	0xbda83946	-0.08214049
238	0x3fbfcbe1	1.4984094
239	0x3f01d5e4	0.50716996
240	0x3f2e9b40	0.6820564
241	0x3f0f57e5	0.5599349
242	0x3f587b98	0.8456359
243	0x3fa11d9e	1.2587163
244	0x3f0a3f68	0.54003
245	0x3f20d07f	0.6281814
246	0xbe8d0d0f	-0.27549025
247	0x400fab18	2.2448177
248	0x3f79acd9	0.9752937
249	0xc03d0c4e	-2.953876
250	0xbf1e1792	-0.61754715
251	0xc08b4bdc	-4.35301
252	0x3f59c521	0.8506642
253	0xbf012e18	-0.5046096
254	0x3f75a7ea	0.9595934
255	0xc00bbd18	-2.1834164

norm_input.running_var f4 [1920]
0	0x40a2b8e2	5.0850687
1	0x40e7227f	7.222961
2	0x4103dde5	8.241673
3	0x409562db	4.6683173
4	0x40cfe7a7	6.497028
5	0x40b2eb6d	5.5912385
6	0x40e3db9e	7.1205587
7	0x4098c2ef	4.7737956
8	0x4086ff4e	4.218665
9	0x409307b9	4.5946927
10	0x40f8d518	7.7760124
11	0x4093be4d	4.61698
12	0x407704f0	3.8596764
13	0x40a248fd	5.0714097
14	0x40a09ae3	5.018907
15	0x40b7841b	5.734876
16	0x40ea889e	7.329177
17	0x40d6d1ee	6.713126
18	0x40dc7ddb	6.890363
19	0x40b16e9d	5.5447526
20	0x40c4db36	6.151759
21	0x40b20bc1	5.563935
22	0x41026f7d	8.152219
23	0x41005f62	8.023287
24	0x40ba9192	5.83027
25	0x40a71058	5.220745
26	0x40b752ea	5.7288713
27	0x40e9f8ec	7.311636
28	0x409b1d43	4.847322
29	0x40b50d46	5.6578703
30	0x40c560de	6.1680746
31	0x40abc6fa	5.368039
32	0x40de74b2	6.951745
33	0x40b897fa	5.768552
34	0x40ac6e1c	5.388441
35	0x40c26ee2	6.0760355
36	0x40f56389	7.6684003
37	0x40c217a9	6.065388
38	0x40acc376	5.39886
39	0x410772f5	8.465566
40	0x40e6a3d9	7.207501
41	0x40c7672c	6.231344
42	0x409dc77b	4.9306006
43	0x44010e3b	516.22235
44	0x409c564a	4.8855333
45	0x40d92a55	6.7864175
46	0x40efcbad	7.493613
47	0x40a8e301	5.2777104
48	0x40a0136c	5.002371
49	0x40d22a5f	6.5676723
50	0x40ccef4d	6.4042115
51	0x40c1c9ba	6.055875
52	0x41087ec9	8.530953
53	0x41042562	8.259127
54	0x40af8387	5.4848056
55	0x409d2a29	4.9113965
56	0x40ad1c75	5.4097238
57	0x40a679cb	5.2023673
58	0x40c9f718	6.311413
59	0x40bb0be8	5.8452034
60	0x40e0a59f	7.0202174
61	0x40a6e560	5.2155
62	0x40e8b73f	7.272369
63	0x40f17a27	7.546161
64	0x410f1316	8.94216
65	0x40bd666d	5.918753
66	0x40c66ffb	6.2011695
67	0x413a9cd8	11.663292
68	0x40cb22eb	6.3480124
69	0x40bc90fd	5.892699
70	0x40b96060	5.7930145
71	0x40acb5cc	5.397192
72	0x40d9d8af	6.8077006
73	0x40b89596	5.76826
74	0x409b2579	4.8483243
75	0x40e2333b	7.0687537
76	0x40979519	4.7369504
77	0x40ad492c	5.415182
78	0x40fed11b	7.9630256
79	0x40f6b896	7.7100325
80	0x409aea82	4.8411264
81	0x40af81d5	5.4845986
82	0x40bdec1b	5.9350715
83	0x40c86fea	6.2636614
84	0x40e6e988	7.216007
85	0x409e9c60	4.9565887
86	0x40950641	4.6570134
87	0x40ad4ca6	5.4156065
88	0x40b6a5d1	5.7077413
89	0x40b3c352	5.617593
90	0x4081e822	4.0595865
91	0x40f467fd	7.637694
92	0x40bb14b0	5.8462753
93	0x40876549	4.231114
94	0x40831fc1	4.097626
95	0x40c294ad	6.080649
96	0x40b87880	5.7647095
97	0x41334f93	11.206927
98	0x418557e7	16.667921
99	0x40b014bd	5.5025315
100	0x410ef620	8.935089
101	0x40caffcc	6.343725
102	0x40cfda76	6.4954176
103	0x40978175	4.734553
104	0x40f6990e	7.7061834
105	0x40a2869e	5.078933
106	0x408f0981	4.46991
107	0x40adc4a0	5.430252
108	0x40b21e93	5.566232
109	0x412e0a29	10.8774805
110	0x40aa6dc0	5.325897
111	0x41173ae0	9.451874
112	0x41090a90	8.565079
113	0x40ced13e	6.4630423
114	0x408955d7	4.2917285
115	0x41078461	8.469819
116	0x409df000	4.935547
117	0x40a5311f	5.162246
118	0x408eef38	4.4667015
119	0x40b88888	5.7666664
120	0x4092eb78	4.5912437
121	0x40bf374e	5.975501
122	0x41161dca	9.382273
123	0x41101674	9.005482
124	0x40c1f406	6.061038
125	0x40b6126e	5.6897497
126	0x40fa026a	7.8127947
127	0x40d431da	6.6310854
128	0x40cba2d0	6.3636246
129	0x40ea8ebc	7.3299236
130	0x40c2c4b5	6.086512
131	0x40df4042	6.976594
132	0x40b399c8	5.612522
133	0x40e455e0	7.135483
134	0x40a446d1	5.1336446
135	0x40b70c58	5.720257
136	0x40f055d1	7.5104756
137	0x40c31707	6.096561
138	0x41166b48	9.401192
139	0x40a8eb99	5.2787595
140	0x40fd627d	7.9182725
141	0x4095b83b	4.678739
142	0x42c84695	100.137856
143	0x40ba0536	5.813136
144	0x4086b53e	4.2096243
145	0x40ccdc04	6.4018574
146	0x40a28b74	5.079523
147	0x40d0cb98	6.5248528
148	0x412c6a92	10.776018
149	0x4104ee3d	8.308164
150	0x40a98f6e	5.2987585
151	0x409dfb26	4.936908
152	0x40e3ee21	7.1228185
153	0x40ffb8e9	7.991322
154	0x40c54728	6.164936
155	0x40aec186	5.4611235
156	0x40cdf5e7	6.4362674
157	0x40a235fd	5.0690904
158	0x40b9194f	5.7843394
159	0x40ea4e97	7.3220935
160	0x40d3c02b	6.617208
161	0x40d0cbec	6.524893
162	0x40993e10	4.788826
163	0x409ff0c2	4.9981394
164	0x40d34da9	6.60323
165	0x40a9ad7e	5.3024282
166	0x409b9a2c	4.86257
167	0x40b88c59	5.7671323
168	0x40af15be	5.471404
169	0x40ae5931	5.4483876
170	0x40d88d7f	6.7672725
171	0x40c3c158	6.1173515
172	0x40a52aaf	5.1614604
173	0x41aa66b2	21.300144
174	0x40928957	4.579265
175	0x40b7b938	5.7413597
176	0x4135d103	11.363528
177	0x4091fdc1	4.562226
178	0x40c33454	6.1001377
179	0x4101c191	8.109757
180	0x40b872d8	5.764019
181	0x40fa277d	7.8173203
182	0x40dab8a4	6.835039
183	0x40b89449	5.768101
184	0x40a8631f	5.2620997
185	0x409baea5	4.865069
186	0x40b50465	5.6567864
187	0x41068f06	8.409918
188	0x40b78ee1	5.7361913
189	0x40ba2f84	5.8183002
190	0x40ae5c85	5.448794
191	0x40a792c2	5.236665
192	0x40cb30ed	6.3497224
193	0x40c077d0	6.0146255
194	0x406bcf33	3.6845214
195	0x40a501c4	5.1564655
196	0x40ae338f	5.443794
197	0x40cff67f	6.49884
198	0x40dd0dc2	6.9079294
199	0x4080bb0a	4.022832
200	0x40ca0844	6.313509
201	0x41119878	9.099724
202	0x40a3aa7d	5.1145616
203	0x40d904a4	6.7818165
204	0x4092420e	4.5705633
205	0x40b855de	5.760482
206	0x40b78d8f	5.73603
207	0x40c5f3b2	6.185998
208	0x40a255be	5.0729666
209	0x408c9f28	4.3944283
210	0x40a4ed76	5.153987
211	0x40950d27	4.6578555
212	0x40f4ce8a	7.6502123
213	0x40a2a64a	5.082799
214	0x40d15073	6.5410705
215	0x40aff326	5.498431
216	0x408ec991	4.4621053
217	0x411d21eb	9.820781
218	0x40abba45	5.366488
219	0x40de5c89	6.948796
220	0x40e88f66	7.2675047
221	0x41726139	15.148736
222	0x40bc52d1	5.8851094
223	0x40b59d31	5.6754384
224	0x409a5282	4.8225718
225	0x4111684a	9.087961
226	0x40d7a97e	6.73944
227	0x41035975	8.20934
228	0x40b4fd53	5.6559234
229	0x40e4290b	7.13001
230	0x40dda851	6.9267964
231	0x40b20403	5.5629897
232	0x4093a391	4.6137166
233	0x40c4ac98	6.1460686
234	0x40b1abac	5.552206
235	0x409cb971	4.897637
236	0x40cc03a0	6.3754425
237	0x40ef1181	7.4708867
238	0x40b2f26f	5.592094
239	0x40d1a64f	6.5515513
240	0x410552ce	8.332716
241	0x40b83b48	5.7572365
242	0x40b4dce1	5.6519628
243	0x40bf4ee4	5.97838
244	0x40aef505	5.4674096
245	0x40b00bcb	5.5014396
246	0x40dedf9a	6.964795
247	0x40b31375	5.596125
248	0x408328bb	4.098722
249	0x40a34f8e	5.1034613
250	0x408b7ad7	4.358745
251	0x40bf28ff	5.9737544
252	0x4071aabf	3.7760465
253	0x41125793	9.14638
254	0x40f529fc	7.661375
255	0x40d51411	6.6586995

transformer.norm.weight f4 [1920]
0	0x3f6c641c	0.92340255
1	0x3ed9c5db	0.42533764
2	0x3f7dd0fe	0.9914702
3	0x3f4e31f2	0.8054496
4	0x3f6dec8f	0.92939085
5	0x3f99378d	1.1970078
6	0x3ecbeec0	0.3983059
7	0x3f28635c	0.6577661
8	0x3f48b5ad	0.78402215
9	0x3f1ede30	0.6205778
10	0x3f1c6a6f	0.61099905
11	0x3f5b1b36	0.85588396
12	0x3f74932b	0.9553706
13	0x3f1d1591	0.6136103
14	0x3f5ab62d	0.8543423
15	0x3f682639	0.90683323
16	0x3fa2b847	1.2712487
17	0x3f686603	0.9078066
18	0x3f56dc6c	0.8393009
19	0x3f31956d	0.6936863
20	0x3f5cd677	0.8626475
21	0x3f3b087b	0.73059815
22	0x3f0115c0	0.5042381
23	0x3f2d6798	0.67736197
24	0x3f803c5b	1.0018419
25	0x3f8c2d6c	1.0951362
26	0x3f40cf66	0.75316465
27	0x3f18d36a	0.5969759
28	0x3f8b1bb0	1.0867825
29	0x3f550a87	0.8321919
30	0x3f67198a	0.90273345
31	0x3ef70fac	0.48254144
32	0x3eb31511	0.3497701
33	0x3f27224d	0.65286714
34	0x3ecfff8a	0.40624648
35	0x3f9425b1	1.1574003
36	0x3f46daf0	0.7767782
37	0x3f910b2a	1.1331532
38	0x3ea2c81b	0.31793293
39	0x3f3a2b55	0.7272237
40	0x3ef3ecab	0.476415
41	0x3f1434b2	0.57892907
42	0x3f757d26	0.95894086
43	0x3f367c42	0.7128335
44	0x3faedb9a	1.3660767
45	0x3f9faa9e	1.2473943
46	0x3f542761	0.8287259
47	0x3f85ccb7	1.0453099
48	0x3f319139	0.6936222
49	0x3f515b40	0.8177986
50	0x3f7199e9	0.94375473
51	0x3f515f4e	0.8178605
52	0x3f8f47ec	1.1193824
53	0x3fb2da48	1.3972864
54	0x3f7c6284	0.9858782
55	0x3f991fcb	1.1962827
56	0x3f06fb96	0.5272764
57	0x3f61e24c	0.88235927
58	0x3f46cbba	0.7765461
59	0x3eee4976	0.4654042
60	0x3f7fb571	0.9988623
61	0x3f92d1ba	1.1470253
62	0x3f771892	0.96521866
63	0x3f5b3794	0.8563168
64	0x3f1cc47a	0.612373
65	0x3f720093	0.94532126
66	0x3f85151d	1.0397068
67	0x3edc68b8	0.43048644
68	0x3f588ecd	0.84592897
69	0x3f09b345	0.5378917
70	0x3f9cf19f	1.2261237
71	0x3f5bada6	0.8581184
72	0x3f6fe31b	0.9370591
73	0x3f30cef7	0.69065803
74	0x3f0e9eb4	0.5571091
75	0x3f55d4dc	0.8352792
76	0x3f4dcbd3	0.80389136
77	0x3f379b77	0.71721596
78	0x3f4d7f68	0.8027253
79	0x3f9151b7	1.1353062
80	0x3f6244ff	0.8838653
81	0x3f8ec4ab	1.1153768
82	0x3f7e0fce	0.99242866
83	0x3f345155	0.704366
84	0x3f122e89	0.57102257
85	0x3f259a3a	0.64688456
86	0x3f12b492	0.5730678
87	0x3f6988b7	0.91224235
88	0x3f1b43e7	0.60650486
89	0x3f6b19d9	0.91836315
90	0x3f2fd6ee	0.6868733
91	0x3f5eee38	0.8708224
92	0x3f8a930c	1.0826125
93	0x3f7205f1	0.94540316
94	0x3f6848f0	0.90736294
95	0x3f69f8f7	0.91395515
96	0x3f8f46d6	1.1193492
97	0x3f384993	0.71987265
98	0x3f3323bb	0.69976395
99	0x3ecbb418	0.39785838
100	0x3f16dd65	0.5893157
101	0x3e5852b4	0.21125299
102	0x3f8b0408	1.0860605
103	0x3f47b5a2	0.78011525
104	0x3ed6daa4	0.41963685
105	0x3f7d39e6	0.9891647
106	0x3f399f1a	0.72508395
107	0x3f3570a7	0.7087502
108	0x3f416d11	0.7555705
109	0x3f0beb91	0.5465632
110	0x3f5e5e83	0.86862963
111	0x3f37a1c1	0.7173119
112	0x3f2ff707	0.6873631
113	0x3f81c29d	1.0137516
114	0x3f1ae900	0.6051178
115	0x3f8c89e7	1.0979584
116	0x3f84de97	1.0380429
117	0x3f717b22	0.9432851
118	0x3f8cadaa	1.0990498
119	0x3f4d3ea0	0.80173683
120	0x3f5899bb	0.84609574
121	0x3f032bc4	0.51238656
122	0x3efc98bf	0.49335286
123	0x3ea6ab85	0.32552734
124	0x3ee71d91	0.45139745
125	0x3f5df1ab	0.8669688
126	0x3eaaeee2	0.33385378
127	0x3f127b67	0.5721955
128	0x3f6f8907	0.9356846
129	0x3f51d95d	0.81972295
130	0x3f875289	1.0572063
131	0x3f8729a4	1.0559583
132	0x3f4a943f	0.79132456
133	0x3f7b3fcc	0.9814422
134	0x3f1d8b9e	0.61541164
135	0x3f37e59c	0.7183473
136	0x3f84d658	1.0377913
137	0x3f6fb710	0.93638706
138	0x3f3d6856	0.7398733
139	0x3f4285cd	0.75985414
140	0x3e86263f	0.26201054
141	0x3f5054b5	0.8137925
142	0x3f83cd23	1.0296978
143	0x3fb19f42	1.3876727
144	0x3f99fbec	1.2030005
145	0x3f04feab	0.5195109
146	0x3f3bf023	0.73413295
147	0x3f89e5cf	1.0773257
148	0x3f5c5b50	0.8607683
149	0x3f6354e2	0.88801396
150	0x3f956f06	1.1674507
151	0x3f99eb72	1.2024977
152	0x3f9e2419	1.2354766
153	0x3f5ca689	0.8619161
154	0x3f317239	0.69314915
155	0x3ef031af	0.46912906
156	0x3fa1c176	1.2637165
157	0x3f6f83c5	0.9356044
158	0x3f8a81c7	1.0820855
159	0x3f472f99	0.77807003
160	0x3f98ebcd	1.1946961
161	0x3f3bba3b	0.7333104
162	0x3f700e13	0.93771476
163	0x3f685ae4	0.9076369
164	0x3f32bed6	0.6982244
165	0x3f72a1f5	0.94778377
166	0x3f7fb672	0.99887764
167	0x3f6a5984	0.9154284
168	0x3f6a1675	0.91440517
169	0x3f35435b	0.708059
170	0x3f215f0f	0.6303567
171	0x3f6320bf	0.8872184
172	0x3f26cda4	0.6515753
173	0x3f06cc20	0.5265522
174	0x3e755212	0.23957089
175	0x3f3a9bc2	0.7289392
176	0x3f368e93	0.713113
177	0x3fd7cf99	1.6860229
178	0x3f7c66bb	0.98594254
179	0x3f99a0c4	1.2002187
180	0x3f22fd6f	0.6366796
181	0x3f32cbd3	0.6984226
182	0x3f1176de	0.56822
183	0x3f1895e6	0.59603727
184	0x3fa42d28	1.282628
185	0x3f737d4d	0.9511307
186	0x3f580cea	0.84394705
187	0x3f79629d	0.97416097
188	0x3f3ffc79	0.7499462
189	0x3ecc7c87	0.39938757
190	0x3f179320	0.5920887
191	0x3ec322a2	0.3811236
192	0x3ee1d5a6	0.44108313
193	0x3f43fd54	0.76558423
194	0x3ee3ca86	0.4449045
195	0x3ee823d9	0.4533985
196	0x3f411d2e	0.7543515
197	0x3f5e0af8	0.86735487
198	0x3f913299	1.1343566
199	0x3f853ad5	1.0408579
200	0x3f30c0a0	0.6904392
201	0x3f944117	1.1582364
202	0x3f10573d	0.56383115
203	0x3f349f58	0.7055564
204	0x3fa07a58	1.2537336
205	0x3f560909	0.83607537
206	0x3f23eafc	0.6403043
207	0x3f69b62e	0.9129361
208	0x3f565099	0.8371673
209	0x3f860ec5	1.0473257
210	0x3f8e9135	1.1138064
211	0x3f47ceaf	0.7804975
212	0x3f0dc3f4	0.55377126
213	0x3f38fc00	0.7225952
214	0x3f98e30d	1.194429
215	0x3f758278	0.95902205
216	0x3f337476	0.7009958
217	0x3f5cf2c0	0.8630791
218	0x3f35482a	0.7081324
219	0x3f501383	0.8127977
220	0x3f6bd822	0.9212667
221	0x3f5a90e9	0.85377365
222	0x3f884930	1.0647335
223	0x3e5c337d	0.21504016
224	0x3f7084af	0.9395246
225	0x3f9ef2b1	1.2417814
226	0x3f1338c2	0.5750848
227	0x3f0776fb	0.52915925
228	0x3f25b440	0.64728165
229	0x3f01358d	0.50472337
230	0x3f354b65	0.7081817
231	0x3f81eeb7	1.0150975
232	0x3f4789b5	0.779445
233	0x3f36fa7f	0.71475977
234	0x3f31d509	0.6946569
235	0x3f7120bc	0.94190574
236	0x3f541d9e	0.8285769
237	0x3fa2faa9	1.2732745
238	0x3f983a17	1.1892728
239	0x3f2f3937	0.6844668
240	0x3f4c88c9	0.7989622
241	0x3f4e1600	0.8050232
242	0x3f3dbba8	0.74114466
243	0x3ecdd1be	0.40199083
244	0x3f6ae3d9	0.9175392
245	0x3f98bc1c	1.1932406
246	0x3f486fd0	0.7829561
247	0x3f8ca4d0	1.0987797
248	0x3f227287	0.63456005
249	0x3f1cba52	0.612218
250	0x3fa64bbe	1.2991865
251	0x3f7e315b	0.9929406
252	0x3f2940dd	0.661146
253	0x3e819310	0.25307512
254	0x3f8abed4	1.0839486
255	0x3f836bfe	1.0267332

transformer.norm.bias f4 [1920]
0	0x3c79ec9d	0.015254167
1	0x3d8f30c8	0.06991726
2	0x3ccece31	0.025244804
3	0x3d41ca03	0.047311794
4	0x3dfe229f	0.12408947
5	0xbe47099f	-0.19437264
6	0xbe859c53	-0.26095828
7	0x3ca91dfa	0.020644177
8	0x3cca89bb	0.024723878
9	0x3e0db16c	0.13837212
10	0xbe37cc13	-0.17948942
11	0xbd0f896d	-0.03504317
12	0x3c16805c	0.009185877
13	0xbdafaac6	-0.08577494
14	0xbde2d1af	-0.1107515
15	0xbc154524	-0.009110723
16	0xbd5f5bad	-0.05453079
17	0xbdf03769	-0.11729319
18	0xbe21a70f	-0.15786384
19	0x3bc98ab0	0.006150566
20	0x3c1cdad0	0.009573653
21	0x3dd90e93	0.10598483
22	0xbc0ee784	-0.00872219
23	0x3d9f9fa2	0.077941194
24	0x3bdeef22	0.006803409
25	0xbd592667	-0.05301514
26	0xbd3fcecf	-0.046828087
27	0x3e2dcaad	0.16971846
28	0xbe5b2bb1	-0.21403386
29	0xbcff4186	-0.031159174
30	0x3cb0480c	0.02151873
31	0x3e352fa1	0.1769395
32	0xbeaab72d	-0.33342877
33	0xbd29e7b1	-0.041480724
34	0xbe47efc0	-0.19525051
35	0xbd3c7b2c	-0.046015903
36	0xbe67bba0	-0.22630167
37	0xbcac9bdf	-0.021070419
38	0xbbd074dd	-0.0063615874
39	0xbdabb04e	-0.08383237
40	0xbd828f5e	-0.06375001
41	0xbecf1cf9	-0.40451792
42	0x3d3bc26e	0.04583972
43	0x3e1facd4	0.15593272
44	0xbe95385b	-0.29144558
45	0xbda65208	-0.08121115
46	0xbd90150d	-0.07035265
47	0x3d90d2b9	0.07071442
48	0xbcfb64ce	-0.030687716
49	0xbcd3868a	-0.02582099
50	0xbde5816b	-0.11206325
51	0x3ea56d38	0.3230989
52	0xbe0a8db9	-0.13530625
53	0x3dbe8979	0.093035646
54	0xbdc7d843	-0.097580455
55	0x3e02a9cf	0.1276009
56	0xbd6eba9c	-0.058283433
57	0x3e5da30d	0.2164423
58	0x3dc0aaf4	0.09407607
59	0x3e075e1f	0.13219498
60	0xbde95100	-0.11392403
61	0x3d7b8687	0.061407592
62	0xbe2334a5	-0.15938051
63	0x3d498fe2	0.049209483
64	0xbdb067fe	-0.08613585
65	0x3d140c42	0.036144502
66	0xbd097f7c	-0.033568844
67	0x3cac6298	0.021043107
68	0x3d99e714	0.07514778
69	0x3dc22242	0.094791904
70	0xbd9647de	-0.07337926
71	0xbc9abb7c	-0.018888228
72	0xbe550f81	-0.20806696
73	0x3c5974f8	0.013272516
74	0x3d0a8c81	0.0338254
75	0x3e6b68b7	0.22989164
76	0x3d8bb860	0.06822276
77	0x3dfadea9	0.122495
78	0xbe4e35bf	-0.2013769
79	0x3c706659	0.014672839
80	0x3d82a566	0.063792035
81	0xbe8da600	-0.2766571
82	0x3d0a4b61	0.033763293
83	0x3d60c02c	0.05487077
84	0x3d8d925a	0.0691268
85	0x3d73aca9	0.059490833
86	0x3d752d23	0.0598575
87	0x3e0c69d3	0.13712244
88	0x3cd9c3d1	0.02658263
89	0xbe009efb	-0.12560646
90	0xbe1d07b7	-0.15334974
91	0xbc4ba758	-0.012430035
92	0x3e178571	0.14796998
93	0x3dca554f	0.098795526
94	0x3d8cf794	0.06883159
95	0x3cfa6f86	0.030570757
96	0x3e43c323	0.19117408
97	0xbc7962ce	-0.015221311
98	0x3d32293c	0.043496355
99	0xbe92164c	-0.28532636
100	0x3e92d752	0.286799
101	0xbdbb5ca1	-0.09148527
102	0xbe21d327	-0.15803204
103	0x3d96b889	0.07359416
104	0x3d89d55d	0.06730149
105	0xbe4213ab	-0.18952815
106	0xbdc10112	-0.09424032
107	0xbd150797	-0.03638419
108	0x3c738594	0.0148633905
109	0xbdd7bd80	-0.10534191
110	0xbc0d7883	-0.008634689
111	0xbdea3a0c	-0.11436853
112	0x3c83b764	0.016078658
113	0xbe0b1ff8	-0.13586414
114	0xbe3c0f24	-0.1836515
115	0x3dd37344	0.103247195
116	0x3de35dc9	0.111018725
117	0xbdd27612	-0.102764264
118	0xbc62c802	-0.013841631
119	0x3d7073d6	0.05870422
120	0xbe2a8d79	-0.1665553
121	0x3c92c516	0.017916244
122	0x3e5e1e30	0.21691203
123	0xbe64b22a	-0.22333589
124	0x3e83f63a	0.25773793
125	0xbdb45b9c	-0.088065356
126	0xbe3694e5	-0.17830236
127	0x3e28dc77	0.1649035
128	0x3e05f1fa	0.13080588
129	0x3dd28177	0.102786
130	0xbce6a805	-0.02815629
131	0x3dd43d4e	0.103632554
132	0x3d94581c	0.07243368
133	0xbd0eb47e	-0.0348401
134	0xbdcb1ae2	-0.09917237
135	0x3d1e42cf	0.038637932
136	0xbe155d22	-0.14586309
137	0x3cd49717	0.025950952
138	0x3dc2bdd2	0.095088616
139	0xbe614477	-0.21998774
140	0x3d6f8932	0.05848045
141	0xbe453ba4	-0.19261032
142	0xbb570fc8	-0.0032815803
143	0x3de40bd6	0.1113507
144	0x3cd63ea0	0.026152909
145	0xbe719707	-0.23592769
146	0x3d26e8f5	0.04074951
147	0x3c9df40b	0.019281408
148	0x3c819b39	0.015821086
149	0xbdaeebe9	-0.0854109
150	0x3e027e1f	0.12743424
151	0xbd2a1d1f	-0.04153168
152	0x3d4647f8	0.04840848
153	0xbcd43c5f	-0.025907693
154	0xbe94b354	-0.29043067
155	0xbdb6ac72	-0.0891961
156	0xbd6eac8a	-0.058270015
157	0xbc0c1f6e	-0.008552415
158	0x3d5f29a8	0.054483086
159	0xbd709a6e	-0.058741026
160	0xbe327125	-0.17425974
161	0xbc763511	-0.0150273
162	0xbd75b876	-0.05999037
163	0xbe138bc5	-0.14408787
164	0xbdc758af	-0.09733712
165	0xbdfe9110	-0.12430012
166	0xbda9b443	-0.08286335
167	0x3e103da9	0.14086021
168	0x3db1286d	0.08650289
169	0xbc62d9bd	-0.013845858
170	0x3d7c0d4d	0.061536122
171	0xbdee93a3	-0.11649253
172	0xbd939e4e	-0.072079286
173	0x3e0588fa	0.13040534
174	0x3a739c25	0.00092929817
175	0xbd32f144	-0.04368712
176	0xbd4143a8	-0.047183663
177	0xbd291865	-0.04128303
178	0x3d823c44	0.06359151
179	0x3de333e2	0.1109388
180	0xbdcc74a0	-0.09983182
181	0xbe197962	-0.1498771
182	0xbc9c5a0a	-0.019085903
183	0xbd9897af	-0.07450806
184	0x3c99362c	0.018702589
185	0xbe044ace	-0.1291916
186	0xbba72114	-0.0051003788
187	0x3d7260dc	0.059174404
188	0x3e06e681	0.13173868
189	0x3d896b39	0.06709904
190	0x3dc87b59	0.09789152
191	0x3c4f455f	0.012650817
192	0xbdb527fe	-0.088455185
193	0x3e39d2be	0.18146798
194	0x3d12fad2	0.035883732
195	0xbe1f344e	-0.15547296
196	0xbd82fe44	-0.063961536
197	0x3e06e308	0.13172543
198	0xbc160b40	-0.009157956
199	0xbdbb59e8	-0.09148008
200	0x3d2b5e91	0.041838232
201	0xbc7b29a2	-0.01532975
202	0x3cc15df1	0.023604365
203	0xbe53a639	-0.20668878
204	0xbdaa29ca	-0.08308752
205	0xbe196593	-0.14980154
206	0xbdd3c258	-0.103398025
207	0x3da8e6d6	0.082471535
208	0xbb86ed61	-0.0041176532
209	0x3e944814	0.2896124
210	0xbe553d2d	-0.20824118
211	0xbdcab534	-0.09897843
212	0x3e7442ec	0.23853654
213	0x3c9fb70b	0.019496461
214	0x3e29523c	0.16535276
215	0xbd5bce5f	-0.053663608
216	0xbdbd7c26	-0.09252195
217	0x3e1daf7a	0.1539897
218	0xbe002a11	-0.12516047
219	0xbda080fd	-0.078371026
220	0xbe188286	-0.1489354
221	0x3dd78987	0.10524278
222	0xbdcd3c94	-0.1002132
223	0xbe2ea9f9	-0.17057027
224	0x3db8390c	0.08995256
225	0xbc9d9c3c	-0.019239537
226	0xbd02a820	-0.031898618
227	0xbe25359d	-0.16133733
228	0x3e9c8873	0.30572852
229	0x3cc1f3fb	0.02367591
230	0xbdafb725	-0.08579854
231	0x3d84ec07	0.06490331
232	0xbc84b1df	-0.016198097
233	0xbd703401	-0.058643345
234	0xbdaa2249	-0.083073206
235	0xbe7b8d3f	-0.245656
236	0x3c897e3b	0.016783824
237	0x3d329c0b	0.043605845
238	0x3c2ec817	0.010667822
239	0x3e010bc8	0.1260215
240	0x3edcf084	0.4315225
241	0x3e1dd036	0.15411457
242	0x3d45af10	0.048262656
243	0xbe3fae5f	-0.18718861
244	0xbdcf0d8d	-0.101100065
245	0xbd43cb64	-0.04780139
246	0xbe54cede	-0.20782039
247	0x3d494cd0	0.04914552
248	0xbc898833	-0.016788578
249	0xbd7eb2e7	-0.062182333
250	0xbd2c17fd	-0.042015065
251	0xbe5d0488	-0.2158376
252	0xbe3555a3	-0.17708449
253	0x3d7b5266	0.06135788
254	0x3bb8beb6	0.005637969
255	0xbd89cd44	-0.067286044

transformer.norm.running_mean f4 [1920]
0	0x3a723ed5	0.000924093
1	0xb7b413fe	-2.1466982e-05
2	0xba3127e8	-0.00067579607
3	0xb98255cb	-0.00024859453
4	0x3a3a20cb	0.00071002234
5	0xba668c30	-0.0008794693
6	0x39a5b449	0.00031605575
7	0xb9efbeb2	-0.0004572771
8	0xba83377b	-0.0010011041
9	0xba61ffd5	-0.0008621191
10	0xba0c9cec	-0.00053639594
11	0x3a8406f0	0.0010072868
12	0x3a954da5	0.0011390938
13	0xba2a29fb	-0.0006491241
14	0x39e1d39a	0.00043073
15	0xbaa8de6d	-0.0012883671
16	0x3a18d9b2	0.0005830779
17	0xba4935fe	-0.0007675587
18	0x38613a99	5.3698754e-05
19	0x398d8b96	0.00026997615
20	0xb991b45d	-0.00027790936
21	0x39fdebbf	0.00048431565
22	0xb96a116c	-0.00022322469
23	0x38d9fa70	0.00010394014
24	0x38953f86	7.116706e-05
25	0x39a21a76	0.00030918763
26	0xb7f800c1	-2.9564255e-05
27	0xb7ee93d2	-2.8440645e-05
28	0xb9ce6993	-0.0003937004
29	0x3a23c927	0.00062479306
30	0xb9639e47	-0.0002170737
31	0xb978930d	-0.00023705904
32	0x38975743	7.216495e-05
33	0x39911368	0.00027671014
34	0xb980e6a9	-0.00024585918
35	0x3abefb1d	0.0014570687
36	0xb9ccec6b	-0.00039086057
37	0x38ade82a	8.292527e-05
38	0xb98aaaba	-0.00026448612
39	0xb99bd6ca	-0.00029723934
40	0xb83895b2	-4.4008433e-05
41	0xb9944bb9	-0.00028285178
42	0x39cb18a8	0.00038737548
43	0xb9efd6d9	-0.00045745706
44	0xba7f1622	-0.0009730776
45	0x3b80072d	0.0039071054
46	0xb9a32636	-0.00031118252
47	0x3959ade2	0.00020759509
48	0xb9b1353d	-0.00033799736
49	0x39e9c5be	0.00044588553
50	0x3a9af91d	0.0011823509
51	0xb9c47f89	-0.00037479054
52	0x3a073da3	0.0005159026
53	0xb9f1f266	-0.00046147703
54	0xba592ec7	-0.00082848634
55	0xb94a066c	-0.00019266614
56	0xb9f63c7d	-0.00046965844
57	0xb8952fc8	-7.1137736e-05
58	0xba3dad53	-0.0007235605
59	0x3982e1af	0.0002496368
60	0x3995175e	0.00028436905
61	0x39b76cda	0.0003498558
62	0x3a40f53e	0.00073607627
63	0x3a45c5aa	0.0007544408
64	0x3a155e4e	0.00056979514
65	0x3ad987b6	0.0016596231
66	0xba86372a	-0.0010239829
67	0x389ef78a	7.580135e-05
68	0x390267c6	0.00012436425
69	0x3884d8b0	6.334612e-05
70	0x386d038d	5.650851e-05
71	0x3aa4111d	0.0012517307
72	0x3b3cc9b6	0.0028806753
73	0x391ac313	0.00014759255
74	0xb994d707	-0.00028388968
75	0x38d85a6f	0.00010316527
76	0xb8a012a8	-7.6328695e-05
77	0x39b14103	0.00033808508
78	0xb98537ac	-0.00025409216
79	0x3a5a7857	0.0008333972
80	0xb92aec85	-0.00016300574
81	0x3b922b69	0.0044607413
82	0x3b1546ef	0.0022777875
83	0x393058c1	0.00016817731
84	0x39c0f465	0.00036803182
85	0x38d0193f	9.922915e-05
86	0xb94bed49	-0.00019447984
87	0x3aec7483	0.0018040094
88	0xb9c0014b	-0.00036622057
89	0xba6b1f55	-0.00089692074
90	0x39c6d163	0.00037921508
91	0x38d06cd9	9.938487e-05
92	0xba178633	-0.000578019
93	0x3a3e425b	0.00072578125
94	0xb992a8a8	-0.0002797295
95	0xba026ef6	-0.0004975641
96	0xbb0e3d6b	-0.0021704088
97	0x39175693	0.00014432734
98	0x38864c03	6.403776e-05
99	0x3a0af35d	0.0005300546
100	0x39f34194	0.0004639743
101	0xb93a2497	-0.00017751973
102	0x3891d3de	6.953602e-05
103	0xba23d535	-0.0006249727
104	0x3998e9ec	0.00029165985
105	0xb8959dcb	-7.134265e-05
106	0x38c17d8c	9.226342e-05
107	0xb9ed0367	-0.00045206698
108	0x384ac173	4.8340717e-05
109	0xb9732c8c	-0.00023190881
110	0xb8137559	-3.515682e-05
111	0xba031dee	-0.0005001713
112	0x36f25aad	7.222718e-06
113	0xba1f005a	-0.0006065421
114	0x3a96fcdc	0.001151945
115	0xbae08e62	-0.0017132277
116	0x39d1b24e	0.00039996434
117	0x39d0708a	0.000397567
118	0x393a02fa	0.00017739451
119	0xba044811	-0.0005046139
120	0xb9dd9cf7	-0.00042269353
121	0x39aafd30	0.00032613566
122	0xb754ea85	-1.2690788e-05
123	0xb9c51853	-0.0003759289
124	0x3a1d2c3f	0.0005995668
125	0x3aa7544b	0.001276621
126	0xb9198242	-0.00014639742
127	0x39dda1a6	0.00042272842
128	0x39f4dedb	0.00046705347
129	0xbaa4fb38	-0.0012587076
130	0xb7bf9f4d	-2.2843155e-05
131	0xbacc043a	-0.0015565224
132	0xb9a48df8	-0.00031386293
133	0x39f73d04	0.0004715697
134	0x39c3d19b	0.00037349467
135	0xba38af5c	-0.00070451736
136	0xbae61209	-0.0017552982
137	0xb7a1555d	-1.9232446e-05
138	0x39de4654	0.00042395538
139	0x3aba504c	0.0014214604
140	0x384afb46	4.839457e-05
141	0xb9ed273a	-0.0004523339
142	0xba60020e	-0.0008545228
143	0x3b415f77	0.0029506364
144	0x3b381060	0.0028085932
145	0xb93f3667	-0.00018235446
146	0xba84fa9a	-0.0010145486
147	0xbadbea48	-0.0016778195
148	0x3a0766ac	0.00051651406
149	0xba23180d	-0.00062215404
150	0xba927153	-0.0011172689
151	0xbaf816e0	-0.0018927716
152	0x3a3c0c99	0.0007173508
153	0xb859976b	-5.187785e-05
154	0x3959cb1b	0.00020770395
155	0x38cd23cc	9.7818294e-05
156	0xba89f481	-0.0010525138
157	0xb9598735	-0.00020745101
158	0x3b5127f9	0.0031914695
159	0xbaec6d1d	-0.0018037889
160	0x3a96330d	0.0011459306
161	0xb9cfac4b	-0.00039610485
162	0xb92c4b77	-0.00016431311
163	0x39beaebb	0.00036369808
164	0x3a32c1cc	0.0006819039
165	0x3a940ff3	0.0011296257
166	0x3a0bde0a	0.00053355156
167	0x39a0434c	0.00030567718
168	0xb948e09c	-0.0001915716
169	0xb80eb552	-3.4024306e-05
170	0xb92c8af3	-0.00016454961
171	0x38e9a94d	0.000111418405
172	0x39da305b	0.00041616228
173	0x39adbec4	0.00033139263
174	0xb7eb5b62	-2.8056736e-05
175	0x3a2608ae	0.0006333691
176	0x3a38df53	0.0007052321
177	0xbb57dc72	-0.0032937792
178	0x3a7bfa98	0.00096122315
179	0xba99b3b7	-0.0011726533
180	0xb9033cfe	-0.00012515855
181	0x393c95d7	0.00017984897
182	0x333fb481	4.463482e-08
183	0x39d400de	0.00040436437
184	0x3b21dff6	0.0024700142
185	0x3a401645	0.0007327537
186	0xb8b6e94f	-8.7218934e-05
187	0x3a122e92	0.00055763975
188	0xb959697b	-0.00020734027
189	0x395baeef	0.00020950635
190	0xba23a560	-0.00062425993
191	0xb99f44bc	-0.00030378054
192	0xb8ae0127	-8.297181e-05
193	0x3984eba3	0.00025352565
194	0x3a56c232	0.00081923895
195	0x3954286e	0.00020232957
196	0xb8f1382a	-0.00011502237
197	0x38bcb46d	8.9981455e-05
198	0x3a2213af	0.00061827427
199	0xbb1dbcfc	-0.0024068942
200	0x3a1da960	0.00060143135
201	0x3a47f4a6	0.0007627703
202	0xba6fea5c	-0.0009152049
203	0x38a6ee4b	7.959882e-05
204	0x3b3e132d	0.002900313
205	0xba3670ad	-0.0006959539
206	0x3a6b6f1d	0.0008981096
207	0xba05f076	-0.0005109379
208	0x3a8c1cfe	0.0010689793
209	0x3a69bdee	0.00089165464
210	0x3a766dfe	0.00094005454
211	0x39144851	0.0001414132
212	0x385e3a72	5.2983356e-05
213	0x3a5f5125	0.00085188664
214	0xba451d35	-0.0007519306
215	0x3adba3aa	0.001675715
216	0xbab7211e	-0.0013971662
217	0x38d3fa8e	0.000101079335
218	0xb93bf417	-0.0001792464
219	0x3aada670	0.0013248455
220	0xba468800	-0.0007573366
221	0xb9312878	-0.00016895111
222	0xb9271450	-0.00015933928
223	0xb9f9f700	-0.0004767701
224	0xb91cce11	-0.00014954085
225	0x3a9bcffd	0.0011887547
226	0xb9af1351	-0.00033392993
227	0x3a4e7ce9	0.00078768894
228	0x3845bc21	4.714367e-05
229	0x3a267e77	0.0006351242
230	0xba0af4dd	-0.00053007697
231	0xb8797c5e	-5.9482052e-05
232	0x39948b40	0.0002833251
233	0xb9033d5a	-0.00012515989
234	0x38337280	4.2783562e-05
235	0x3a630fa8	0.0008661696
236	0x3a87fd06	0.001037509
237	0x35fd29ae	1.8862099e-06
238	0x3b093c1e	0.0020940374
239	0x3a2bc2e1	0.00065521715
240	0xba4ba510	-0.00077684317
241	0x39cb5ccd	0.0003878832
242	0x3a56c764	0.00081931637
243	0xb9ba92b9	-0.00035586001
244	0xb919760c	-0.00014635193
245	0x3852fd49	5.030379e-05
246	0xbaf0e2e2	-0.0018378163
247	0xbaa6ebee	-0.0012735107
248	0xb7ddec64	-2.6455331e-05
249	0x3904dcd8	0.00012670772
250	0x39e6d464	0.00044027262
251	0x39b5a28b	0.00034644114
252	0x39f41ddd	0.00046561557
253	0x398da5a1	0.0002701702
254	0xba1582d1	-0.0005703392
255	0xba679f42	-0.0008835682
