xls_r_sqa/models/sqa-v2/xls-r-2b/model_2b_lay41_full.pt (torch, 528269 bytes, 67 tensors)

norm_input.weight f4 [1920]
000000 78 28 4a 3f 48 f9 26 3f 11 6e 5f 3f 27 a0 1e 3f
       0.78968 0.65224123 0.87277323 0.61963123
000010 a8 f4 3e 3f db a2 26 3f 1c eb 25 3f c0 c6 22 3f
       0.74592066 0.6509225 0.64811873 0.6358452
000020 e5 c1 59 3f 72 a4 5a 3f 8f 58 43 3f 90 a0 57 3f
       0.85061485 0.85407174 0.76307005 0.84229374
000030 37 7c 1c 3f b2 0f 40 3f 4d 5d 49 3f b4 b9 26 3f
       0.61127037 0.7502395 0.7865799 0.6512711
000040 a4 f1 50 3f fb 19 59 3f f0 b0 15 3f 6e 2e 53 3f
       0.81618714 0.8480527 0.5847311 0.8249272
000050 c7 e8 3f 3f b1 ff 2d 3f 5e 57 27 3f 22 bb 3d 3f
       0.74964565 0.6796828 0.65367687 0.74113667
000060 f6 a3 2f 3f 3d 2e 38 3f f4 64 17 3f 10 4f 24 3f
       0.6860956 0.71945554 0.5913842 0.6418314
000070 50 97 51 3f 13 1d 43 3f c3 ce 2e 3f ed ca 2a 3f
       0.8187151 0.7621624 0.68284243 0.6671589
000080 67 6a 1c 3f 97 e5 1c 3f f7 8e 42 3f 77 6e 4f 3f
       0.6109986 0.61287826 0.759994 0.8102793
000090 48 fe 21 3f 80 fe 67 3f 5b e4 2f 3f 51 d1 5c 3f
       0.6327863 0.9062271 0.6870782 0.8625689
0000a0 cf fc 1d 3f 7b 44 3e 3f bb 6d 55 3f 25 6a 32 3f
       0.6171388 0.7432324 0.8337056 0.69693214
0000b0 8e d3 66 3f 4b 17 8c 3f e1 5e 3a 3f 74 01 34 3f
       0.90166557 1.0944608 0.72801024 0.7031472
0000c0 c8 bb 5b 3f fd 7a 47 3f 20 51 49 3f 84 7b 41 3f
       0.85833406 0.7792204 0.7863941 0.75579095
0000d0 eb ba 13 3f d1 72 82 3f db 5e 2a 3f c5 2b 53 3f
       0.5770709 1.0191289 0.6655099 0.8248866
0000e0 ad 21 4a 3f 01 98 57 3f 2e e3 55 3f 2d cd 4c 3f
       0.78957635 0.84216315 0.83549774 0.80000573
0000f0 ac 3d 32 3f d8 37 3f 3f 84 f7 36 3f 76 d8 4d 3f
       0.69625354 0.74694586 0.7147143 0.8040842
000100 43 e8 41 3f a4 5a 2a 3f 74 46 6e 3f 05 e9 25 3f
       0.7574503 0.66544557 0.9307625 0.64808685
000110 37 26 56 3f e5 79 3a 3f fb 6e 28 3f d9 46 49 3f
       0.8365206 0.72842246 0.6579434 0.7862373
000120 b9 94 53 3f 62 e5 3c 3f a5 a2 3b 3f 25 12 18 3f
       0.8264881 0.7378751 0.7329505 0.59402686
000130 29 85 4f 3f b7 d6 3e 3f ea 54 5e 3f c8 bb 4e 3f
       0.8106256 0.7454638 0.8684832 0.8075528
000140 e9 1c 3b 3f a9 5f 48 3f b1 d7 1d 3f 13 46 25 3f
       0.7309099 0.78270966 0.61657244 0.6456005
000150 21 43 30 3f c0 a7 24 3f b9 05 21 3f 65 8b 2e 3f
       0.6885243 0.64318466 0.6289936 0.6818145
000160 d3 a0 3b 3f 48 7b 2b 3f c7 23 4c 3f 35 8e 21 3f
       0.73292273 0.6698499 0.7974209 0.63107616
000170 b0 b1 2a 3f 17 70 2f 3f 52 c7 53 3f 05 cb 18 3f
       0.6667738 0.6853041 0.82726014 0.59684783
000180 11 48 5d 3f 69 64 4d 3f 49 8e 20 3f 18 93 33 3f
       0.8643809 0.8023134 0.6271711 0.7014632
000190 0c d5 51 3f ea 02 26 3f 1f 1f 51 3f 75 e3 2b 3f
       0.8196571 0.64848197 0.8168811 0.67143947
0001a0 5e 65 2f 3f c1 1f 31 3f 8b d3 32 3f f3 38 32 3f
       0.6851405 0.6918908 0.6985404 0.6961815
0001b0 22 dc 7b 3f 18 83 47 3f 39 ed 5c 3f 98 ee 23 3f
       0.9838277 0.7793441 0.86299473 0.6403594
0001c0 a8 1e 27 3f 06 f6 31 3f 95 31 3e 3f 31 ed 3d 3f
       0.6528115 0.69516027 0.74294406 0.7419005
0001d0 fe ee 53 3f 9b fd 3a 3f 6d 6a 20 3f 50 4c 3f 3f
       0.8278655 0.7304322 0.6266239 0.7472582
0001e0 9d bf 46 3f 7d 87 4d 3f 14 63 4d 3f be 64 23 3f
       0.7763613 0.80284864 0.80229306 0.63825595
0001f0 5b bd 46 3f dd 08 2d 3f 84 49 2a 3f 97 3b 17 3f
       0.77632684 0.6759165 0.66518426 0.590753
000200 77 26 51 3f f3 2e 41 3f fc 87 45 3f 62 30 48 3f
       0.8169932 0.75462264 0.7716062 0.78198826
000210 8c 5d 31 3f 8d 77 49 3f 17 04 3e 3f a6 da 21 3f
       0.69283366 0.78698045 0.7422499 0.63224256
000220 05 5b 4d 3f 27 68 54 3f 16 e1 50 3f 27 fc 45 3f
       0.8021701 0.82971424 0.81593454 0.7733788
000230 c1 19 25 3f 5c 49 39 3f 97 f3 34 3f e9 76 4e 3f
       0.6449242 0.7237756 0.7068419 0.8065019
000240 1a 3f 53 3f 2a 9d 21 3f 74 1a 21 3f a9 49 4d 3f
       0.8251816 0.6313044 0.6293099 0.8019052
000250 fe 60 52 3f 39 d1 22 3f 43 dd 3f 3f 90 43 25 3f
       0.8217925 0.636005 0.74946994 0.6455622
000260 28 19 51 3f 1b 63 4f 3f af 38 36 3f bf f7 21 3f
       0.8167901 0.810106 0.7118024 0.63268656
000270 60 62 25 3f 99 2b 43 3f 4b 36 66 3f b0 14 17 3f
       0.64603233 0.762384 0.89926594 0.5901594
000280 42 03 54 3f 37 b5 45 3f a6 d9 4c 3f a0 26 3c 3f
       0.8281747 0.77229637 0.80019605 0.7349644
000290 c8 b9 1f 3f 38 5b 31 3f 79 0b 40 3f 4b 6b 51 3f
       0.62392855 0.69279814 0.75017506 0.8180434
0002a0 db 33 22 3f 82 11 3d 3f c3 50 43 3f a3 f4 4e 3f
       0.63360375 0.7385484 0.7629511 0.80842036
0002b0 95 03 2d 3f b7 26 3c 3f dc aa 35 3f 94 ec 23 3f
       0.6758359 0.73496574 0.70963836 0.64032865
0002c0 e0 c5 54 3f 70 59 85 3f 32 d4 39 3f a7 3a 69 3f
       0.83114433 1.0417919 0.7258941 0.9110512
0002d0 f3 04 63 3f 08 63 44 3f b8 ab 2d 3f ff 95 2f 3f
       0.88679427 0.7671361 0.67840147 0.6858825
0002e0 a2 b7 32 3f 98 c4 6a 3f fb 2e 5e 3f 7c 60 34 3f
       0.6981145 0.9170623 0.86790437 0.70459723
0002f0 ae 4a 37 3f d9 35 2f 3f b1 69 62 3f 3d 2e 32 3f
       0.7159833 0.6844154 0.8844252 0.69601804
000300 42 b9 31 3f 09 e0 3b 3f 88 16 1b 3f 1e 64 24 3f
       0.69423306 0.73388726 0.60581255 0.64215267
000310 f3 bb 31 3f ce 7d 2c 3f 76 bf 1b 3f 9b da 3b 3f
       0.6942741 0.6737946 0.6083902 0.7338044
000320 88 62 3c 3f 84 75 45 3f 59 9f 2f 3f 5f 1a 3f 3f
       0.73587847 0.7713244 0.6860252 0.74649614
000330 30 98 41 3f f1 99 2e 3f 32 5e 1f 3f 09 82 28 3f
       0.75622845 0.68203646 0.62253106 0.6582342
000340 ae a4 32 3f 92 d8 71 3f 3f c4 43 3f dd be 3c 3f
       0.6978253 0.94471085 0.7647132 0.73728734
000350 9a a0 35 3f 05 3f 20 3f 4b 34 29 3f 96 33 43 3f
       0.70948184 0.6259616 0.6609542 0.7625059
000360 84 1b 33 3f eb 3f 2e 3f c5 77 22 3f 33 14 52 3f
       0.6996386 0.6806628 0.63464004 0.8206207
000370 75 53 6a 3f 9f 64 4a 3f d8 45 3a 3f 8e 97 19 3f
       0.91533595 0.79059786 0.72762823 0.5999688
000380 00 df 32 3f ed c5 66 3f 45 99 4e 3f 41 4a 33 3f
       0.6987152 0.9014576 0.8070262 0.7003518
000390 31 f5 42 3f b1 bc 2e 3f 40 6b 23 3f 5b 7f 48 3f
       0.7615538 0.6825667 0.63835526 0.7831933
0003a0 27 86 24 3f f1 09 29 3f 56 dc 3b 3f 98 0b 64 3f
       0.642672 0.66030794 0.7338308 0.8908019
0003b0 1d 95 41 3f d8 ca 48 3f 0b 63 4a 3f 2c 61 1c 3f
       0.75618154 0.78434515 0.7905738 0.6108577
0003c0 68 84 10 3f e1 c9 21 3f f2 40 30 3f f1 eb 48 3f
       0.56452036 0.6319867 0.688491 0.7848502
0003d0 e5 fe 4f 3f 37 68 3f 3f c3 8f 85 3f a8 1f 49 3f
       0.81248313 0.74768394 1.0434498 0.7856393
0003e0 8d b7 39 3f b4 03 2e 3f d3 cc 57 3f c6 1d 41 3f
       0.725457 0.679744 0.8429691 0.75436056
0003f0 d3 7d 46 3f 4f df 42 3f 46 f8 47 3f 82 31 16 3f
       0.7753574 0.7612199 0.7811321 0.5866929

norm_input.bias f4 [1920]
000000 d5 bf 8d ba be 31 51 3a 73 8c ac ba 20 94 47 ba
       -0.0010814617 0.00079801294 -0.0013164416 -0.000761332
000010 90 00 d1 b9 14 f5 53 ba cd 40 16 b7 18 2c 96 ba
       -0.00039864006 -0.0008085531 -8.955784e-06 -0.0011457233
000020 87 e2 b7 3a f1 1c 43 bb 70 60 90 38 dd f5 ad ba
       0.0014029302 -0.002977189 6.884418e-05 -0.0013272126
000030 91 9b 91 ba c7 a8 4f 3b 1e 0b 82 bb ca 32 98 39
       -0.0011108984 0.0031686292 -0.0039686104 0.0002902954
000040 bc 4a b3 38 97 ee 23 bb 82 c6 75 ba b7 01 0b 3b
       8.5493055e-05 -0.0025014037 -0.0009375588 0.002121074
000050 46 b9 c7 3a d9 cb 8f 39 88 f2 2d 39 c9 91 a8 ba
       0.0015237711 0.00027426964 0.00016588916 -0.001286083
000060 c0 4d 34 ba 07 cb 12 ba 8a f2 e6 39 2f ab ab 3a
       -0.0006878041 -0.00055997114 0.00044049724 0.0013097281
000070 b1 cd 8f b8 02 17 ae 39 4e 8f bf b9 f9 65 01 b9
       -6.8570844e-05 0.00033205008 -0.0003653713 -0.00012340386
000080 34 28 b4 38 af 5f 16 3a 5d df 2d 39 95 f2 59 38
       8.590557e-05 0.0005736304 0.00016581775 5.1962754e-05
000090 0b 6f 1e ba ad 46 b6 ba 3e db f2 38 07 ee 32 3b
       -0.00060437684 -0.0013906561 0.00011580296 0.002730252
0000a0 c5 89 0b ba 21 a8 48 3a ac b7 43 3b f1 12 23 3a
       -0.00053229585 0.00076544477 0.0029864116 0.0006220779
0000b0 08 85 26 bb f4 ff 65 bb 12 0d b6 b9 10 f5 90 b9
       -0.0025408883 -0.0035095187 -0.00034723483 -0.00027648406
0000c0 a2 63 80 b9 fa 28 23 3a 7f 0e 0d 3b 45 a7 e1 b9
       -0.00024488295 0.00062240625 0.0021523533 -0.0004303997
0000d0 d1 23 48 ba bf a4 e4 39 17 67 ec 3a 2c 4a 84 3b
       -0.00076347316 0.00043610294 0.0018036094 0.0040371623
0000e0 36 62 39 3a e9 d6 96 3b 22 f9 0e b7 d3 6e 87 39
       0.00070718245 0.004603256 -8.521865e-06 0.00025831777
0000f0 fb 6b 35 ba 5c 43 5f 3a 87 76 23 3b 5f 64 f3 39
       -0.00069206924 0.0008516812 0.0024942474 0.00046423354
000100 e2 34 30 b7 73 eb 01 3a b9 db d7 3a df 9d 84 ba
       -1.050273e-05 0.0004956044 0.0016468681 -0.001011785
000110 16 c4 32 ba 64 ae cd 38 54 da 83 ba e4 0b 65 39
       -0.000681938 9.8076445e-05 -0.0010059574 0.00021843571
000120 c3 27 29 ba dc 59 ed b9 8a 0a 95 b9 11 47 70 ba
       -0.00064527633 -0.00045271113 -0.00028427347 -0.0009165863
000130 38 ab 78 3b 76 ea 73 ba 05 67 bb 36 ee 11 be ba
       0.0037943851 -0.0009304652 5.5850273e-06 -0.0014501193
000140 af 12 b0 3a 01 f2 a3 3a 2f af e8 39 30 aa ba 39
       0.0013433303 0.0012508036 0.0004438101 0.00035603484
000150 67 7d 5e ba c8 b3 a6 ba 7c 30 80 ba 90 38 2f 3a
       -0.00084873143 -0.0012718374 -0.0009780074 0.00066841487
000160 db f0 15 bb b7 a2 cf 39 65 5a 8d ba 15 bf 13 3a
       -0.0022879157 0.0003960335 -0.0010784386 0.00056360784
000170 41 11 1c 3a cd b8 65 3a ec a8 e0 ba 71 76 f7 b9
       0.0005953499 0.0008763194 -0.0017140186 -0.00047199757
000180 52 cb 63 3a f5 6f c0 ba 76 64 e0 38 36 a4 fe 39
       0.000868966 -0.0014681803 0.00010699865 0.00048569002
000190 0d 7c c2 b9 39 d8 72 39 13 53 98 b8 a5 d3 36 b9
       -0.00037094989 0.00023159468 -7.2633986e-05 -0.00017435716
0001a0 d4 b5 c0 39 ef df 80 b9 74 7d b7 b9 4c 6c c7 ba
       0.00036756566 -0.00024580906 -0.0003499795 -0.001521477
0001b0 58 f4 28 b9 e3 73 65 ba 44 f6 86 ba 91 5d 3c 39
       -0.00016112754 -0.0008752925 -0.0010296782 0.00017963933
0001c0 ca ef ca b8 57 0f 7e ba c7 8e cd ba 7a 9a 4a ba
       -9.676775e-05 -0.0009691617 -0.001568281 -0.0007728707
0001d0 b8 1d da ba 72 b5 93 ba a5 ba cd b9 3a 73 64 3b
       -0.0016640937 -0.0011269285 -0.00039239708 0.003485872
0001e0 80 f1 7d ba 70 77 24 39 26 b9 12 3b 62 4c c1 39
       -0.00096871704 0.00015684753 0.002238819 0.00036868738
0001f0 ef c5 5c 39 1f ff a4 ba cc cd 2d 3a 0d 88 b7 39
       0.00021054571 -0.0012588239 0.00066300924 0.00035005846
000200 7e 0d af 3a a9 bc 2a 3b 0c 1c 6a bb d4 33 35 3a
       0.0013355461 0.0026052392 -0.0035722284 0.0006912325
000210 66 70 0f 3a 90 ad 05 ba c3 3e 6d ba 64 7e 3d 39
       0.0005471766 -0.000509941 -0.0009050185 0.00018071529
000220 e7 e7 6e 39 71 f7 16 3b e8 01 c0 ba 0b 49 71 ba
       0.00022783839 0.002303567 -0.0014649006 -0.00092043047
000230 ad 4f f9 38 92 c9 c1 b9 ec 4f 37 3a f8 c0 0d bb
       0.00011888086 -0.0003696201 0.0006992805 -0.002162991
000240 8c b4 94 38 95 78 ab b9 c7 a6 1f b9 be 5a 8d ba
       7.0908194e-05 -0.00032705502 -0.00015225551 -0.001078449
000250 b9 6d 81 ba 42 31 ab b8 99 13 a3 ba 33 55 2a ba
       -0.0009874619 -8.1630904e-05 -0.0012441754 -0.0006497681
000260 53 01 2c 3b a4 e8 52 3a e0 62 3b 3a 6b 6e cc ba
       0.0026245906 0.00080455304 0.00071482174 -0.0015596872
000270 96 34 01 3a 21 5a 8f 3a f6 7f 50 3b 01 c9 76 b8
       0.00049287954 0.0010936895 0.0031814552 -5.883817e-05
000280 1a 6c 9a 39 a1 03 4b 3a 28 fc 88 36 30 bb 85 39
       0.0002945371 0.0007744376 4.0824707e-06 0.00025507202
000290 01 92 bc 39 66 98 4c 3a 6e 0b 10 bb 0a f7 e7 ba
       0.00035966936 0.00078046916 -0.002197947 -0.0017697525
0002a0 5d 5b 3e 3a 95 fb 84 b8 52 2d bd 3a 7b 34 25 b8
       0.0007261539 -6.341111e-05 0.0014433062 -3.938794e-05
0002b0 2e 3b 0f ba fa 75 34 39 8a 4b fb b9 51 aa 0b 3a
       -0.00054638356 0.00017210087 -0.00047930732 0.00053278083
0002c0 2e 22 03 3a 02 ea 0a bb 28 b8 e8 b7 5a 7f 83 3a
       0.00050023466 -0.0021196608 -2.774231e-05 0.001003246
0002d0 53 6a b2 ba b5 37 3a 3a 5b c8 e2 b9 e7 b4 17 b9
       -0.0013612009 0.0007103638 -0.00043255356 -0.00014467874
0002e0 c7 0f 18 ba 14 08 81 3a cd 90 2c 39 1f 06 63 b8
       -0.0005800691 0.0009844326 0.00016457141 -5.4126718e-05
0002f0 d8 38 48 b9 d5 59 d6 ba 5b c6 c3 ba 8f 25 90 3a
       -0.00019094662 -0.0016353676 -0.0014936434 0.0010997521
000300 33 9a a0 ba ad f7 70 3b ff de 88 3a 8d 49 33 39
       -0.0012252986 0.003676872 0.0010442435 0.0001709817
000310 cb ea 79 ba 39 0d 32 3a e6 f1 67 3a f4 23 28 ba
       -0.0009533583 0.00067921315 0.00088479964 -0.0006414049
000320 63 2a e2 3a 29 8c 8a 3a 3e f5 ec b9 bc 1c 6b 3a
       0.0017255064 0.0010570335 -0.00045196147 0.00089688203
000330 4e f1 0d bb 42 8f fc 39 14 3c 74 ba fe 30 e1 39
       -0.0021658721 0.0004817192 -0.00093168137 0.00042951846
000340 9f 40 ae ba d5 8a bd ba a7 a4 a1 ba 13 5b c5 b9
       -0.0013294405 -0.0014460931 -0.0012332395 -0.00037642624
000350 7f 1b a7 b8 7c 5c 9e 39 a3 36 5e 3a f6 fe b0 ba
       -7.968302e-05 0.00030205015 0.00084767694 -0.0013503719
000360 44 f7 5a 3a 48 ac 86 b9 d6 b9 b5 b9 1b 31 d8 39
       0.00083528855 -0.0002568683 -0.0003466147 0.00041235317
000370 24 8d 35 3a be 5f e7 39 f6 43 92 b8 05 11 42 38
       0.00069256336 0.00044131087 -6.974481e-05 4.6269055e-05
000380 25 cf d1 b9 f6 b4 ad 3a a8 91 b3 39 02 1b 06 39
       -0.0004001792 0.0013252783 0.00034250063 0.00012789297
000390 98 10 ea 3a 6e a1 e8 39 ba f0 f1 39 0d 7b 96 3b
       0.0017857729 0.00044370763 0.00046146457 0.0045923055
0003a0 50 95 f6 37 1d fa c3 37 02 4a b7 3a 3d da ea ba
       2.9395014e-05 2.336228e-05 0.0013983848 -0.0017917823
0003b0 b0 19 04 3b 94 2c bd ba 0d 45 df 3a a9 f4 2c b8
       0.0020156913 -0.0014432841 0.0017034129 -4.1235853e-05
0003c0 61 3b 42 3a 07 db f0 b9 67 52 6d ba ef 6a 03 3a
       0.0007409361 -0.00045939555 -0.00090531114 0.0005013188
0003d0 1b ef 05 3a 79 08 3b 3a e1 3d 52 ba 46 08 ba ba
       0.0005109177 0.00071347464 -0.0008020085 -0.001419314
0003e0 c4 48 c4 3a 12 39 d2 39 8d 4c 9e bb 22 23 d2 39
       0.0014975299 0.00040096842 -0.004830903 0.00040080497
0003f0 f0 0b 88 ba 16 b1 b7 ba 95 2f 4a ba 99 04 1e ba
       -0.0010379534 -0.0014014568 -0.0007712779 -0.0006027907

norm_input.running_mean f4 [1920]
000000 49 49 f9 bf 83 e6 81 bf 12 75 89 3f 7f 82 56 bd
       -1.947549 -1.0148472 1.0738852 -0.052370545
000010 22 f5 61 3f 28 e5 10 be da 85 3b 3e a5 7e 9f be
       0.8826467 -0.14149916 0.18312779 -0.3115131
000020 c3 79 96 3f f7 19 9d 3f 7a 1c ae 3f 95 3c 5e bf
       1.1755909 1.2273549 1.360244 -0.8681119
000030 9f 69 2f 3f 3c b1 fa bf 08 73 6f 3e 65 dc 0e 3f
       0.6852054 -1.9585338 0.23383725 0.55805045
000040 8e 8d 30 3e 07 10 68 bf c2 3b 47 bc b4 33 ea 3f
       0.17241499 -0.90649456 -0.0121602435 1.8297029
000050 b7 75 b3 be f1 c1 93 3e 21 6e 98 3e 27 9d f1 3f
       -0.35050747 0.28858903 0.29771522 1.8876084
000060 4a 66 08 be 71 b6 84 bf 64 79 c7 be b8 47 b6 be
       -0.1332027 -1.0368177 -0.389598 -0.35601592
000070 ec b6 d9 bc cf 16 e2 bf 1f 92 dd 3e 5e 3d 03 40
       -0.026576482 -1.7663211 0.43275544 2.0506206
000080 88 7a ec 3f db aa c5 bf a0 82 f3 bf b5 ad 76 bf
       1.8474894 -1.5442766 -1.9024239 -0.96358806
000090 84 4d 41 c0 e0 04 45 bd e6 e3 66 bf 3f 31 e1 bf
       -3.0203562 -0.048100352 -0.90191495 -1.7593154
0000a0 a4 5d bd bc 90 eb c0 bf 68 4a 18 c0 b1 ea 51 42
       -0.02311594 -1.5071888 -2.3795414 52.47919
0000b0 c2 7d bb bf b5 6f 28 40 7a 49 09 bf 5b cc 85 3f
       -1.4647753 2.631818 -0.5362774 1.0452989
0000c0 7a d8 59 3f 60 b7 db bf 3c 6f 68 be fb 9c 2d 3e
       0.8509594 -1.7165337 -0.22698683 0.16954415
0000d0 cf 03 7e 3d 96 7a eb be 72 69 c4 bf b1 b0 28 bf
       0.06201535 -0.45991963 -1.5344679 -0.6589461
0000e0 6c 65 52 bf e6 02 9b 3f ba 83 8e bd 46 62 dd bf
       -0.8218601 1.211026 -0.069587186 -1.7295616
0000f0 66 8c 8e bc 8c 5b 9d 3f a9 54 83 bd 7d 4c 89 3f
       -0.017400932 1.2293563 -0.06412632 1.0726467
000100 d4 cf 28 bf f7 f4 a8 bf a1 17 95 bf 65 7b 99 3f
       -0.6594212 -1.3199757 -1.1647836 1.1990782
000110 9d 84 24 3f dc bb fd bc 79 b7 0e 3d 71 ad 9b 3f
       0.6426485 -0.030973367 0.034842942 1.2162305
000120 3e cd 28 c0 92 f2 e9 bf 35 c8 39 bf 8b 79 09 40
       -2.637527 -1.8277152 -0.72571117 2.1480434
000130 5a e4 c7 bd 8b 33 c3 be ea d2 83 bf 44 3e f2 bd
       -0.097603515 -0.38125262 -1.0298741 -0.118282825
000140 db dd d0 bf d5 31 50 c0 55 1a 38 3f 34 e4 83 3f
       -1.6317705 -3.2530415 0.7191518 1.0304017
000150 53 25 5d 3f d6 af e7 bf 77 a8 f0 3f 06 65 42 be
       0.8638508 -1.8100536 1.8801411 -0.1898385
000160 d6 c6 b6 be 6a d1 ae bf f9 10 cf 3f 6a da 55 bf
       -0.35698575 -1.3657658 1.6177055 -0.835364
000170 ee 57 7f 3e 27 42 c9 3e 8f 34 dc 3f 53 cf 20 3f
       0.24935886 0.39308283 1.720354 0.6281635
000180 7e 89 b0 be 34 41 86 bf fb fd e5 3e 6e 4b 92 bf
       -0.34479898 -1.0488648 0.44920334 -1.1429269
000190 39 45 2c 3f c1 15 59 c0 67 79 bf 3c 8c 86 12 c0
       0.67293125 -3.3919528 0.023373319 -2.289462
0001a0 d5 5f 94 3f 37 04 99 bf 99 ec c0 3f 80 85 96 bf
       1.1591746 -1.1954411 1.5072204 -1.1759491
0001b0 3e 45 a0 be 39 50 8c bf 7a 78 aa bf c5 c9 b2 3e
       -0.31302828 -1.0961982 -1.3318017 0.34919563
0001c0 29 31 61 3f 0a 69 75 3f bd 4b fd be 64 fb 43 3f
       0.8796564 0.958634 -0.49471846 0.76555467
0001d0 fe 06 b1 3c 59 14 89 3f 7d 63 dc be 19 49 6b bf
       0.02160978 1.0709335 -0.43044654 -0.91908413
0001e0 73 0d 92 3f ea fc 91 be 9a 70 e9 bf 28 84 f6 bf
       1.1410354 -0.2851327 -1.8237488 -1.9259081
0001f0 f6 67 a8 3f d7 87 bc bf 48 9f 6a 3c ec ef 2b 3f
       1.3156726 -1.4728955 0.014320202 0.67162967
000200 fd 9e 1e 3f ba 2d ac 3f 44 c5 ee be 87 db c2 be
       0.61961347 1.3451455 -0.46634877 -0.3805811
000210 71 73 b1 3f 55 b3 54 be 56 5b 01 c0 ad 20 1b bf
       1.3863355 -0.20771535 -2.0211997 -0.60596734
000220 86 70 57 3f 0f 87 9c 3e 9b 3e 88 3f cf 1a 2d bf
       0.8415607 0.30571792 1.0644106 -0.6761903
000230 6b 31 0a 3f 51 5a 81 bf a8 af c4 41 0c 0f 28 be
       0.53981656 -1.0105687 24.58577 -0.1641199
000240 2b ea 9c bf 7b 1f 14 c0 60 f4 e2 3f aa 23 86 3d
       -1.2258962 -2.3144214 1.7730827 0.06549771
000250 78 5c af be 20 9e 20 c0 9f 00 a2 bf 88 26 01 c0
       -0.34250236 -2.5096512 -1.265644 -2.0179768
000260 32 ab aa 3f 15 78 db bb fb c3 d5 bf 93 8c d4 3f
       1.3333495 -0.0066976645 -1.6700433 1.66054
000270 b4 fc 25 40 84 92 65 bf 5b 8c bc be bd 7c 2d 40
       2.5935488 -0.8967669 -0.36825833 2.7107384
000280 fa 66 45 bf 7d c5 92 3e 94 92 9f bf dd fe a2 bd
       -0.77110255 0.28666297 -1.2466607 -0.079587676
000290 75 5a 2b bf 34 3a 4d bf b4 f9 d2 3f ad a0 99 3f
       -0.669349 -0.80166936 1.6482453 1.2002159
0002a0 b9 94 7e 3e 70 b5 c8 be 89 f1 1d be e0 8c 6d 3e
       0.2486142 -0.39200926 -0.1542417 0.23198271
0002b0 7f 8b 13 bf 8e 47 c6 40 bd c4 b9 be 3b 90 51 3e
       -0.5763473 6.1962347 -0.36282912 0.20465176
0002c0 98 4f 35 bf 41 ac 7a be 5e 57 20 40 5c 1c d9 be
       -0.70824575 -0.24479772 2.5053325 -0.4240445
0002d0 8a cf 4c c0 75 ed 46 bf 7e fe cb bf 10 30 3a 3f
       -3.2001672 -0.7770608 -1.593704 0.7272959
0002e0 fb 6d 83 3f 87 37 37 3e 90 5a 86 3e fa 75 da 3b
       1.0267938 0.17892276 0.2624097 0.006666896
0002f0 59 03 34 be 00 da 06 3f e7 a8 a0 3f 66 95 ac bf
       -0.17579402 0.5267639 1.2551545 -1.3483093
000300 9b 49 1c 40 89 6f 6f bf cd 65 6c 3f 28 f9 67 3f
       2.4419925 -0.93529564 0.92342836 0.9061456
000310 67 75 24 c0 64 84 80 3f 2e 77 c0 3f 6b 7c 49 bf
       -2.5696657 1.0040402 1.5036371 -0.7870547
000320 1e f5 dd 3f 8d 2a f8 bb 4a 30 c0 3f ce 0e 24 40
       1.7340429 -0.007573432 1.5014737 2.5634036
000330 73 30 37 3f 23 77 ee 3e ce 5e 13 bf fb ff 7e 3f
       0.715583 0.4657527 -0.57566535 0.99609345
000340 fb 6f e3 3f 47 43 ae 3e b6 c6 f0 bd e4 84 06 40
       1.7768549 0.34035704 -0.11756651 2.101861
000350 9b 94 10 c0 31 44 72 3e f2 e0 07 bf 1b f5 fa 3e
       -2.2590702 0.23658825 -0.53077614 0.49015126
000360 3d 81 c9 3d 6e 1a 79 bf 75 a7 84 be f7 3e b6 3e
       0.09839103 -0.97305954 -0.2590901 0.35594913
000370 51 f6 06 bf 65 f1 eb 3e a6 3c f7 bd fe 23 64 be
       -0.527196 0.46082607 -0.12072115 -0.22279355
000380 2f 48 5d be 39 c3 41 3f 2b 40 91 3d af 2e a8 3f
       -0.21609567 0.7568851 0.07092317 1.3139247
000390 96 1c c2 bf 75 8f 00 3e 08 4d 97 be e7 6f 33 be
       -1.5164974 0.12554725 -0.29550958 -0.17523156
0003a0 dd 0c e4 bf 3c 2b 38 c0 78 9c 8e 3e 5b dc 2d c0
       -1.7816426 -2.8776388 0.2785375 -2.7165744
0003b0 ff f0 ee 3e 87 a5 31 3e bd a7 b1 3f bb 47 db 3e
       0.4666824 0.173483 1.3879315 0.42828164
0003c0 83 30 10 3f 9a 2c d8 3e 0d 1e 42 3f 7d 8e 76 3f
       0.56324023 0.42221528 0.75827104 0.9631117
0003d0 ea 96 e7 3e 7a bf 2e 3f 3a f6 ad bd f2 84 ee 3f
       0.45232326 0.6826092 -0.084942296 1.8634322
0003e0 94 e2 65 3f 59 1b 23 c0 88 45 12 bf d4 ee 73 c0
       0.89798856 -2.5485442 -0.57137346 -3.811452
0003f0 34 b2 17 3f 05 ee c5 be e2 4a 6b 3f 9b fd fe bf
       0.5925629 -0.38658157 0.9191114 -1.9921144

norm_input.running_var f4 [1920]
000000 d0 b9 99 40 18 5a b8 40 b7 c2 e8 40 5a e5 76 40
       4.803932 5.760998 7.273769 3.8577485
000010 91 98 b1 40 18 3f 97 40 98 35 c9 40 ab 62 7d 40
       5.549874 4.726452 6.287792 3.9591472
000020 71 48 70 40 2e 77 85 40 a4 28 d5 40 60 b0 81 40
       3.7544215 4.1707983 6.661211 4.05278
000030 5e 34 52 40 5a b5 9c 40 6c 4d 83 40 e3 0e a3 40
       3.2844462 4.8971376 4.103201 5.095567
000040 28 38 c9 40 8c 8d be 40 8c 7a b6 40 b5 e0 a5 40
       6.288105 5.9547787 5.7024593 5.18368
000050 01 88 a4 40 45 ae 99 40 7a 24 df 40 a3 f3 e7 40
       5.141602 4.802523 6.9732027 7.248491
000060 61 86 97 40 da 79 8f 40 30 d3 96 40 f7 49 c8 40
       4.7351537 4.4836245 4.7132797 6.259029
000070 5a 49 80 40 f1 dc a9 40 fe bd a4 40 14 e0 a5 40
       4.008954 5.3082204 5.1481924 5.1836033
000080 f3 8e c6 40 38 0e ad 40 4f ca a1 40 a5 ed a5 40
       6.20495 5.4079857 5.055946 5.1852593
000090 b6 9a 01 41 41 56 a2 40 96 c8 94 40 15 ef ee 40
       8.100271 5.073029 4.6494856 7.466685
0000a0 64 5b c5 40 05 79 b6 40 4c bf a8 40 b3 c1 6c 44
       6.167406 5.702273 5.2733517 947.02655
0000b0 b7 bd 91 40 f8 38 de 40 d3 ba c7 40 7b 21 92 40
       4.5544086 6.944454 6.2415557 4.566587
0000c0 fe 84 87 40 63 15 c6 40 a5 a6 ac 40 12 35 9e 40
       4.2349844 6.1901107 5.3953424 4.9439783
0000d0 1d 14 e1 40 d7 7d dd 40 0d 97 a7 40 f9 f4 85 40
       7.033705 6.9216113 5.237189 4.186154
0000e0 30 21 98 40 15 3b 9e 40 e9 60 af 40 31 f9 ae 40
       4.754051 4.944712 5.48058 5.467919
0000f0 d7 04 c6 40 d2 0b 91 40 2c fd c1 40 5b 0e cb 40
       6.188091 4.532693 6.062155 6.3455024
000100 b0 4b eb 40 69 c5 a4 40 b0 15 ae 40 cb 29 1b 41
       7.352989 5.149098 5.4401474 9.697703
000110 4a 23 ab 40 e0 a9 9b 40 e9 df 99 40 8c 60 9a 40
       5.3480577 4.8644867 4.808583 4.8242855
000120 cb 53 db 40 9c 85 ae 40 a8 72 82 40 ba a4 da 40
       6.8539786 5.4538097 4.076496 6.832608
000130 24 14 83 40 ea 2a 8f 40 74 19 d9 40 dc 74 ca 40
       4.0962086 4.4739885 6.784357 6.326765
000140 e0 89 8f 40 82 89 dc 40 0f 7b a0 40 76 2f ac 40
       4.4855804 6.8917856 5.015022 5.3807936
000150 93 9d c8 40 30 48 9e 40 ab be 93 40 63 22 8d 40
       6.269235 4.946312 4.617025 4.4104476
000160 6a d3 99 40 6f 19 9c 40 77 a5 77 40 fd cd cb 40
       4.8070574 4.8781047 3.8694742 6.368895
000170 1c 21 98 40 f0 26 65 40 4d c5 78 40 bb 46 a0 40
       4.7540417 3.5805016 3.8870423 5.008634
000180 be 02 9d 40 b6 95 1f 41 9b d7 63 41 82 8c 9b 40
       4.9065847 9.9740505 14.240138 4.860902
000190 f2 e3 f5 40 8a 9e e5 40 99 17 ab 40 20 78 9e 40
       7.6840754 7.175603 5.3466306 4.9521637
0001a0 82 ad d7 40 30 ae 91 40 be 56 85 40 93 26 9a 40
       6.73993 4.552513 4.1668386 4.817209
0001b0 42 24 97 40 ef 93 14 41 ef 85 96 40 5c a9 f6 40
       4.723176 9.286117 4.7038493 7.7081738
0001c0 81 ae f2 40 87 c7 b0 40 99 4c 6b 40 89 75 ec 40
       7.5838017 5.5243564 3.6765501 7.3893476
0001d0 04 de 81 40 4a 6e 93 40 bd 3a 6e 40 2a be 9d 40
       4.0583515 4.607213 3.722335 4.9294634
0001e0 28 27 7e 40 f2 bf a2 40 63 4e 00 41 cf b5 01 41
       3.97114 5.085931 8.019137 8.106887
0001f0 a4 49 b1 40 5f 2a a4 40 c6 0e d6 40 d1 35 af 40
       5.5402393 5.1301723 6.6893034 5.4753194
000200 12 f7 ac 40 f1 f3 cf 40 1a 64 a7 40 8b 55 b2 40
       5.40516 6.498528 5.2309694 5.5729423
000210 95 e4 a6 40 3e c1 b8 40 7f af a2 40 b8 e5 98 40
       5.215403 5.773589 5.083923 4.778042
000220 36 8a cc 40 3e c5 a3 40 c5 33 00 41 33 0e 8d 40
       6.3918715 5.1178274 8.012639 4.4079833
000230 5e ce cc 40 8b d6 86 40 f3 f1 48 43 82 d4 9b 40
       6.4001913 4.2136893 200.94511 4.869691
000240 1a e9 73 40 68 f0 c7 40 3e 3c 94 40 e5 48 aa 40
       3.8111024 6.2480965 4.632354 5.3213983
000250 31 20 16 41 aa 56 04 41 c1 69 91 40 5a 92 9d 40
       9.382859 8.271158 4.5441594 4.924115
000260 c9 5c c6 40 aa d7 ce 40 7e 39 b1 40 9a 6e 9f 40
       6.1988263 6.463826 5.538268 4.982251
000270 a2 3b ce 40 33 03 8d 40 9d 04 9c 40 73 29 eb 40
       6.4447794 4.4066405 4.875563 7.3488097
000280 c8 92 b2 40 82 98 b2 40 6d 3a 88 40 51 8b 83 40
       5.5804176 5.5811167 4.257132 4.1107564
000290 f1 44 b2 40 96 4f 89 40 74 92 8d 40 c7 50 a0 40
       5.5709157 4.290965 4.4241276 5.0098605
0002a0 b2 af 96 40 58 f2 90 40 71 e7 b0 40 f6 98 a5 40
       4.708947 4.529583 5.528252 5.174922
0002b0 ad ae 8c 40 61 78 d0 41 aa 64 7c 40 03 3b a3 40
       4.3963227 26.058779 3.943644 5.1009536
0002c0 21 be 20 41 68 3f 6e 40 cc 8c c0 40 84 43 ce 40
       10.046418 3.72262 6.017187 6.4457417
0002d0 69 f8 d9 40 6a 78 d0 40 49 40 ca 40 7e 6d 9b 40
       6.8115735 6.514699 6.3203473 4.8571157
0002e0 50 66 92 40 ab de 81 40 fa 67 93 40 48 29 d6 40
       4.5749893 4.058431 4.6064425 6.692539
0002f0 c3 75 99 40 d2 15 9b 40 3c bc 99 40 0e 47 9a 40
       4.795625 4.8464136 4.804228 4.8211737
000300 1f 8e d4 40 de ce a4 40 06 b1 4d 40 e7 f4 89 40
       6.642349 5.1502523 3.2139297 4.3111453
000310 9a 55 b6 40 07 71 b3 40 6c 53 cd 40 4a cd 70 40
       5.6979494 5.6075473 6.4164333 3.7625299
000320 9f 4a b4 40 42 d2 f2 40 29 dd 94 40 aa 1d d4 40
       5.634109 7.588166 4.651997 6.628621
000330 f8 76 7a 40 bf 5d 9c 40 3a b5 9f 40 85 3a a5 40
       3.9135113 4.8864436 4.9908724 5.1633935
000340 c6 cf 9b 40 a7 9e 65 40 f1 4c 85 40 05 61 92 40
       4.869113 3.5878084 4.1656423 4.574343
000350 8d 6d e2 40 d0 31 8a 40 d1 6f ae 40 5e b7 9b 40
       7.075873 4.3185806 5.4511495 4.8661337
000360 68 b2 6a 40 9e 11 03 41 97 58 8d 40 98 3e b6 40
       3.667139 8.191801 4.417064 5.695141
000370 9b d7 c1 40 3c 47 46 41 ee db a5 40 4d 23 94 40
       6.057569 12.392391 5.183097 4.629309
000380 57 9c 7a 40 7e 1d fd 40 f5 32 b3 40 d6 a7 e9 40
       3.9157922 7.90985 5.5999703 7.301738
000390 44 4a ac 40 08 51 b7 40 33 57 b3 40 9c ea 97 40
       5.3840656 5.7286415 5.6043944 4.747389
0003a0 1c 8f 8e 40 cf 08 d5 40 20 c0 95 40 94 ce a9 40
       4.4549694 6.6573253 4.6797028 5.306467
0003b0 67 e5 a1 40 2b 64 c6 40 2c b4 a0 40 78 af ae 40
       5.059253 6.1997275 5.0219936 5.4589195
0003c0 f1 48 e2 40 d9 43 96 40 7b bc 9c 40 a0 77 a4 40
       7.071404 4.695782 4.898008 5.1396027
0003d0 99 6d 94 40 31 8e 98 40 a9 5b bd 40 85 e4 a5 40
       4.6383786 4.7673573 5.917439 5.1841455
0003e0 8a 4f 67 40 58 77 af 40 23 d1 6a 40 a3 45 f3 40
       3.6142297 5.4833183 3.6690147 7.6022506
0003f0 8b 31 53 40 59 a2 f1 40 f0 f8 d0 40 05 00 ca 40
       3.2998989 7.551068 6.530388 6.3125024

transformer.norm.weight f4 [1920]
000000 f7 30 66 3f 4d 96 01 3f e6 3a 8a 3f 50 f0 9f 3e
       0.89918464 0.50619966 1.0799224 0.3123803
000010 f5 4f 42 3f cd 24 ef 3e d9 e3 01 3e 86 91 17 3f
       0.75903255 0.46707764 0.12684573 0.59206426
000020 55 36 6d 3f a5 81 7c 3f cc d1 55 3f d2 a3 84 3f
       0.9266103 0.9863532 0.8352325 1.0362494
000030 d9 86 dc 3e 8a 91 44 3f a3 fe 56 3f 80 f3 fe 3e
       0.4307163 0.76784575 0.83982295 0.4979515
000040 d1 2e 7d 3f c7 e0 65 3f 7d 0f 64 3e de 34 68 3f
       0.9889956 0.8979611 0.22271533 0.9070567
000050 8e 51 4f 3f 4e f3 13 3f a0 20 fe 3e 47 93 42 3f
       0.8098382 0.5779313 0.49634266 0.7600598
000060 c9 b3 14 3f f5 13 1d 3f 85 25 fa 3e e1 e4 6f 3e
       0.5808683 0.61358577 0.4885675 0.23427154
000070 bc 5b 88 3f d2 d6 4c 3f 09 f9 26 3f 2d 0a 02 3f
       1.0652995 0.8001529 0.6522375 0.50796777
000080 d8 5d e4 3e db 9e 85 3e 10 75 3b 3f 98 d3 6c 3f
       0.44602847 0.2609776 0.732255 0.92510366
000090 78 6c bd 3e 4d 57 9b 3f d2 e2 d8 3e b4 db 8b 3f
       0.36996818 1.2136017 0.4236055 1.0926423
0000a0 50 58 45 3e 27 69 2d 3f a2 3b 7a 3f 79 c8 04 3f
       0.1927197 0.67738575 0.9774724 0.51868397
0000b0 9c 9d 8f 3f a2 e6 c6 3f 38 27 3d 3f d5 a5 0e 3f
       1.1219974 1.5539134 0.7388797 0.5572179
0000c0 aa 8f 8d 3f 5c fd 40 3f f3 1d 69 3f 34 bc 57 3f
       1.1059468 0.75386596 0.91061324 0.8427155
0000d0 e3 e6 6a 3e fe 9f b5 3f 29 00 26 3f f2 b0 72 3f
       0.22939639 1.4189451 0.64843994 0.9480125
0000e0 05 6b 53 3f 99 93 71 3f 76 25 81 3f 47 61 50 3f
       0.82585174 0.9436584 1.0089557 0.81398433
0000f0 b7 47 2d 3f 5a 3d 45 3f cf 83 20 3f d3 60 75 3f
       0.67687553 0.7704674 0.62701124 0.9585087
000100 b4 98 34 3f 20 b7 0f 3f a3 bd 99 3f 10 35 d5 3e
       0.70545506 0.561388 1.2010998 0.41642046
000110 91 5e 76 3f 92 e6 26 3f 06 23 af 3e f4 cc 67 3f
       0.96238047 0.6519557 0.34206408 0.9054711
000120 72 06 68 3f 23 01 36 3f 87 91 13 3f bd 2f c3 3e
       0.90634835 0.71095484 0.5764393 0.3812236
000130 0b 54 61 3f 3e e1 40 3f fb c1 8f 3f 95 24 61 3f
       0.88018864 0.7534369 1.1231073 0.87946445
000140 8d 05 2d 3f 05 53 69 3f 22 66 cb 3e 67 e9 b3 3e
       0.67586595 0.911423 0.3972636 0.3513901
000150 98 e2 18 3f 2e da d6 3e a0 b6 51 3e 5d b3 27 3f
       0.59720755 0.41963333 0.20479822 0.6550806
000160 f9 ab 2a 3f 5d 12 0b 3f e6 0f 71 3f d0 5e d8 3e
       0.6666866 0.54324895 0.94164884 0.42259836
000170 9c ed 15 3f 45 7f 29 3f 53 4a 82 3f 45 d1 e4 3e
       0.5856569 0.6620982 1.0178932 0.4469091
000180 52 e6 83 3f de 2f 57 3f ed 88 0b 3e 8a 0c cf be
       1.0304663 0.84057415 0.13626452 -0.40439254
000190 82 a1 5d 3f fe 1e 78 3e cd f1 76 3f 79 bc a2 3e
       0.86574566 0.24230573 0.9646271 0.31784418
0001a0 c7 88 17 3f 7e ea 26 3f bf 6a 1e 3f da dd 35 3f
       0.5919308 0.65201557 0.6188163 0.71041644
0001b0 9e 51 ac 3f 16 17 51 3f b4 4a 83 3f e8 fb fa 3d
       1.3462408 0.8167585 1.0257173 0.122550786
0001c0 e4 8b af 3e 0f 80 12 3f 5c 1e 4b 3f dd 9b 47 3f
       0.34286416 0.5722665 0.793432 0.77972203
0001d0 10 5c 6b 3f a9 74 46 3f e3 c8 e7 3e 3c 21 43 3f
       0.9193735 0.7752176 0.45270452 0.76222587
0001e0 aa 07 6f 3f 29 97 57 3f ef 98 6e 3f a9 9c c7 3d
       0.9337107 0.8421503 0.9320211 0.097466774
0001f0 e3 ea 54 3f 7e 15 11 3f 50 c1 10 3f 8c 36 83 3e
       0.8317091 0.5667342 0.5654497 0.25627553
000200 a2 7f 6e 3f df 76 3a 3f d3 f5 6f 3f c1 89 5f 3f
       0.931635 0.7283763 0.93734473 0.8731957
000210 4b eb 40 3f ed cf 74 3f bd 31 2f 3f 00 24 f7 3e
       0.7535903 0.9562977 0.6843527 0.48269653
000220 58 52 7a 3f 38 eb 68 3f d2 9a 78 3f 84 4d 6b 3f
       0.97781897 0.90983915 0.9711124 0.91915154
000230 a7 6a d5 3d 8d df 00 3f 94 59 21 3f 29 56 78 3f
       0.10420733 0.5034111 0.6302731 0.9700647
000240 7a f5 7b 3f ed 8a 84 3e ac 56 bb 3e ed 5a 69 3f
       0.9842144 0.25887242 0.36589563 0.91154367
000250 3e 1b 80 3f a4 0e 96 3e 42 16 52 3f d2 33 c2 3e
       1.0008314 0.29308045 0.8206521 0.3793016
000260 40 7d 83 3f 59 24 6b 3f 8e ec 01 3f b5 a9 0d 3f
       1.0272598 0.9185234 0.5075158 0.5533708
000270 14 73 a9 3e 54 80 4c 3f 89 d1 93 3f c1 7c a4 3e
       0.3309561 0.79883313 1.154832 0.3212643
000280 3a 05 4a 3f f6 5c 4f 3f d3 44 6e 3f 83 87 18 3f
       0.78914225 0.8100122 0.9307377 0.59581774
000290 c3 7e f5 3e 78 8a 28 3f 64 00 50 3f 70 76 68 3f
       0.47948274 0.65836287 0.81250596 0.9080572
0002a0 b8 e9 af 3e 9a 66 50 3f 2e 31 4d 3f fa 90 76 3f
       0.34358 0.8140656 0.8015317 0.96314967
0002b0 a8 67 05 3f 71 33 38 3f 93 5b 44 3f cb 6f 8b 3e
       0.5211129 0.71953493 0.7670223 0.2723373
0002c0 50 7f 7a 3f 2b 91 b4 3f d4 dc 22 3f 37 f2 88 3f
       0.97850513 1.4106802 0.63618207 1.0698918
0002d0 0b 87 85 3f 1b 46 4b 3f a7 ee f1 3e 25 b1 07 3f
       1.0431837 0.7940385 0.4725239 0.53004676
0002e0 14 15 37 3f 44 f2 99 3f 79 77 79 3f f9 bd 28 3f
       0.7151654 1.2027059 0.97447926 0.65914875
0002f0 80 59 0a 3f 1d 74 16 3f fc 46 87 3f 3c e0 21 3f
       0.54042816 0.58770925 1.0568538 0.6323278
000300 d5 62 01 3f 4f 9f 4e 3f 6f cb 42 3d 96 43 81 3d
       0.5054143 0.80711836 0.04755729 0.06311719
000310 85 86 dd 3e d6 96 e9 3e 15 3b 08 3f 9d 74 2c 3f
       0.43266693 0.4562289 0.5321515 0.6736544
000320 2e c0 44 3f c8 be 59 3f 29 5f 15 3f 1a 64 3a 3f
       0.7685574 0.85056734 0.5834833 0.7280899
000330 12 a4 43 3f d6 20 a7 3e c2 ff 8d 3e fa f4 e1 3e
       0.76422226 0.3264224 0.2773419 0.44132215
000340 44 8e 25 3f 87 bc 9c 3f f4 2d 4e 3f 87 e1 42 3f
       0.64670205 1.2245034 0.8053887 0.7612538
000350 2c de 0c 3f f3 2c 61 3d f8 82 19 3f 1a 76 54 3f
       0.5502651 0.054974508 0.5996547 0.8299271
000360 54 d1 2f 3f ec 7f 13 3f 6d c0 06 3f f8 a8 48 3f
       0.68678784 0.5761707 0.5263737 0.78382826
000370 27 4d 97 3f 8b 8b 33 3f 49 17 3f 3f 6e a2 b7 3e
       1.182042 0.701348 0.74644905 0.35866112
000380 e6 f9 24 3f df 6d 90 3f de 2a 6d 3f fb d1 3c 3f
       0.64443815 1.128353 0.92643535 0.73757905
000390 93 6e 4f 3f 9b 1d 26 3f 61 98 cd 3e dc d1 52 3f
       0.810281 0.64888924 0.40155318 0.8235147
0003a0 e3 25 d7 3e fb 5c 01 3f c1 7e 47 3f 2b 54 98 3f
       0.42021093 0.505325 0.77927786 1.1900686
0003b0 ca 5b 4e 3f 6f d2 58 3f 0c 83 67 3f 26 77 a0 3e
       0.8060881 0.84696096 0.90434337 0.31340903
0003c0 5c 5b 86 3e fd f3 f9 3e 47 28 1c 3f c1 71 5d 3f
       0.26241577 0.4881896 0.6099896 0.865017
0003d0 7d 59 6b 3f 56 f9 4d 3f f1 b4 b6 3f 41 82 58 3f
       0.91933423 0.8045858 1.4273969 0.8457375
0003e0 69 0a 42 3f b8 6f e1 3e 6e 85 83 3f bd 9e 3e 3f
       0.75797135 0.44030547 1.0275095 0.74460965
0003f0 79 c1 6a 3f ac 5b 56 3f eb 94 53 3f a7 19 97 3e
       0.91701466 0.8373363 0.82649106 0.2951176

transformer.norm.bias f4 [1920]
000000 ee d0 8e 3e 20 82 dc bc cb 3f 70 be 13 f4 96 3d
       0.27893776 -0.026917517 -0.23461835 0.07370772
000010 2f e6 86 3e da 36 63 3d db f6 c4 3c d7 91 ca bb
       0.2634749 0.055472232 0.024043491 -0.0061819362
000020 46 08 2e be 6d f1 20 3d 80 43 40 be 54 30 cf 3c
       -0.16995344 0.03929274 -0.18775749 0.0252916
000030 94 ef 42 be de 2c 29 be 6c fe 07 3d b0 a2 e7 3d
       -0.19036704 -0.16521022 0.03320162 0.11310327
000040 92 09 9c 3d a5 c0 1c 3e 15 4c 75 be 7e 5a 56 be
       0.07619013 0.15307863 -0.23954804 -0.20932958
000050 77 c0 75 3d ed cc 87 3d 65 77 ac bd 76 f6 e9 bd
       0.059998002 0.06630883 -0.0842121 -0.11423962
000060 a8 8b ab 3e dd be 11 bd d8 32 68 bd b3 13 54 bd
       0.33504987 -0.035582412 -0.056689113 -0.0517766
000070 2b a8 d9 3d 24 14 78 3e 6b b3 96 3d a6 7a 22 3e
       0.106277786 0.24226433 0.0735844 0.15867099
000080 48 cf 91 bd ef 0d cd bd 7c 5c c4 3d 24 58 3b 3e
       -0.07119614 -0.10012423 0.095879525 0.18295342
000090 8f 16 41 bd c8 ce 8d 3d 52 97 11 3e 5b b4 f0 3d
       -0.047140654 0.06924206 0.1421788 0.1175315
0000a0 b3 f1 13 be 01 b8 19 be 09 1c 39 be e3 d8 51 3d
       -0.1444767 -0.15011598 -0.18077101 0.05123223
0000b0 3f c7 25 3e f6 f1 90 be 7b 46 44 3b 7b 75 ae bd
       0.16189288 -0.28309602 0.0029949236 -0.08518501
0000c0 c7 e1 61 3e 2a ec 3b be 74 8c 0a be 33 c0 43 bb
       0.22058783 -0.18351808 -0.13530141 -0.0029869198
0000d0 2f 73 00 be 86 9b 01 be f2 13 64 be da b9 32 be
       -0.12543939 -0.12656984 -0.22273234 -0.17453709
0000e0 18 d4 5f 3e 15 76 95 be 2e 30 40 3e 6b fc 64 3e
       0.21858251 -0.29191652 0.18768379 0.22361915
0000f0 e1 df 78 be b3 b3 78 3e c2 3c 73 3e 5b 90 63 3e
       -0.24304153 0.242873 0.23753646 0.22223036
000100 c4 b9 75 3e ea 21 21 bd e1 a0 75 3e 92 3e af be
       0.23996645 -0.039338984 0.23987152 -0.34227425
000110 88 a0 dd 3c e8 95 0d 3e f7 ba 99 3e e5 ad 14 3d
       0.027054086 0.13826716 0.30025455 0.03629865
000120 08 fd c3 3d 7c 61 b5 3d dd cc 84 3e f7 a4 1e 3e
       0.09569746 0.08856484 0.25937548 0.15492617
000130 7c 65 96 3e 23 6f 51 be 1d 41 cd bd 53 b2 fb 3b
       0.293743 -0.20452552 -0.10022185 0.00768117
000140 b3 3f 4b be 12 48 a1 bd 07 e0 08 3d 37 01 c3 bd
       -0.19848518 -0.078750744 0.033416774 -0.09521716
000150 b3 9b 1a be ef 90 d3 3c 78 ba ac bd fb 4b f8 bb
       -0.15098457 0.025825946 -0.084340036 -0.007577417
000160 85 6a 58 3e 97 17 86 bd a8 94 27 be df 4d 93 bc
       0.21134384 -0.06547468 -0.16365302 -0.017981468
000170 d5 36 1b bd 01 9e 8c bc ba 61 64 3e 9f a4 e5 3d
       -0.03789409 -0.017165186 0.22302905 0.112130396
000180 fe 70 a2 3d 86 44 54 be 55 26 4e 3e ea bb a1 be
       0.07931708 -0.20729265 0.2013181 -0.3158868
000190 98 89 91 3e 9d 2a 8a 3e 11 e0 dc 3b b2 ec 5b 3d
       0.28425288 0.26985636 0.006740578 0.053692527
0001a0 d2 c7 fd 3c 50 00 1a 3d f8 e9 ac be 40 75 22 3e
       0.03097907 0.037597954 -0.33772254 0.1586504
0001b0 90 c2 d4 3d f7 33 49 be f2 61 f7 3d eb 67 d0 bd
       0.10388672 -0.1964873 0.120792285 -0.10176071
0001c0 9e bd 92 be f0 07 37 3d ad 07 98 bd 57 c6 42 be
       -0.2866029 0.044685304 -0.07423339 -0.19020973
0001d0 9f eb 15 3e d0 37 b8 be 78 77 00 be f6 ec e4 3d
       0.14640664 -0.35980082 -0.12545574 0.11178009
0001e0 64 19 bf be 16 32 75 3e c3 94 a5 3e 56 3e 88 3d
       -0.3732406 0.23944888 0.3234006 0.06652515
0001f0 af 37 4e 3d 3e d0 fa 3c d1 77 ac bd d0 6d 3a bd
       0.050346073 0.030616876 -0.08421291 -0.04551488
000200 90 cd 09 be 95 85 46 be 6b 3e 0b bd f4 5b a5 3d
       -0.13457322 -0.19386895 -0.033995073 0.08074179
000210 e0 c2 55 be 4d 50 6f bd ac bc 4c bc 04 45 e7 bd
       -0.2087512 -0.05842619 -0.012496155 -0.112924606
000220 ec d0 98 bd 7b c5 a7 be 77 7b 03 3e 02 8c 1d bd
       -0.07461724 -0.32767853 0.12840067 -0.0384636
000230 0e a8 97 bd 00 b3 8e be ab ee 3b be 78 38 da bd
       -0.07405101 -0.2787094 -0.18352763 -0.10655302
000240 e4 1e 55 3e 05 18 4a bd 0a 91 4e 3e ab 49 0c be
       0.20812565 -0.049339313 0.20172516 -0.13699977
000250 01 b1 2b bd 49 a2 1b 3e 4e 1a cc 3e 5e 6d f4 bd
       -0.04191685 0.15198626 0.3986382 -0.11934923
000260 76 88 f5 bd ee 43 0a bd 10 cb f2 3c d8 7f 48 3e
       -0.119889185 -0.03375619 0.029637843 0.19580019
000270 db 95 4d bb 90 0c b6 3b c4 2f 35 bd 39 22 10 bd
       -0.0031369838 0.005555697 -0.044235006 -0.035188887
000280 18 f0 ac bc 4d 1e 41 3d a6 ed dd 3d 94 eb 8c be
       -0.02111058 0.047148038 0.108363435 -0.27523482
000290 04 ff 91 3c 10 a9 6c 3d 9f 26 11 bd f4 7c 5e 3d
       0.017821796 0.057778418 -0.035437223 0.054318383
0002a0 0f 06 36 3e cb e8 ee 3d b0 45 56 bd 46 fa 5b be
       0.17775749 0.116654955 -0.052312553 -0.2148219
0002b0 28 f7 c7 3d ea e8 bc bc 49 24 25 be ab 9a c4 3d
       0.09763938 -0.02306028 -0.16127123 0.09599813
0002c0 ce 31 b4 bd 86 03 07 bd 4f 56 87 bc 58 7f 5f 3d
       -0.08798562 -0.032962345 -0.016520647 0.054564804
0002d0 dc df 8e be 57 4b 9a bd 32 8f 27 bd 82 e1 8d be
       -0.27905166 -0.07533901 -0.040908046 -0.2771111
0002e0 8a 00 94 be 5d 30 8c bc 09 1c 95 3e a2 74 34 3d
       -0.2890666 -0.017112905 0.29122952 0.044056542
0002f0 fa a8 16 be fc cd 4c 3e ec d4 e0 bd e9 e5 bf 3e
       -0.14712897 0.20000452 -0.109781116 0.37480095
000300 86 fe 9e bd 18 1b da 3d 38 60 26 be 84 c6 70 bd
       -0.0776339 0.10649699 -0.16247642 -0.05878307
000310 03 10 4b be 8b 2b 7d be 5a 58 44 be 0c dc 47 3e
       -0.19830327 -0.24723642 -0.19174328 0.19517535
000320 5c bd 05 be 56 9b 0e bc e0 d9 d2 bd a1 5e 97 be
       -0.13060516 -0.008704027 -0.102954626 -0.29564384
000330 96 d6 1b 3c e7 16 37 3e 09 4a e2 bc 27 10 3e bd
       0.0095116105 0.1787983 -0.027623193 -0.046402123
000340 98 5e 9f bd d6 19 8c 3e c6 db 97 be 81 91 89 bd
       -0.07781714 0.2736346 -0.2965986 -0.06717206
000350 b9 e6 52 3e d0 1b ce bd bd 87 c3 3c c3 2e ab bd
       0.20595826 -0.100638986 0.023868436 -0.083585285
000360 aa 62 6c bc 31 39 62 bc c5 88 13 be cb 1f 88 3d
       -0.01442782 -0.013807581 -0.14407642 0.06646689
000370 2d 15 b4 3c f3 c4 2f bd 70 74 6d be 10 51 f4 bc
       0.021982754 -0.042912435 -0.23188949 -0.02982381
000380 e1 3e 8f 3e 5b 53 2f 3e a3 ac c7 bd 57 31 1d be
       0.2797766 0.17121641 -0.09749725 -0.15350853
000390 f4 41 49 3e 58 6c 3b 3e f6 26 af bd 1c 50 27 be
       0.19654065 0.18303049 -0.08552353 -0.16339153
0003a0 95 d2 9a 3d 71 fc cb 3d 1e 0d 09 be b7 af 6e 3d
       0.075596966 0.09960259 -0.1338391 0.058273043
0003b0 4d 14 3f be 89 47 0e 3e 45 44 fd bd f7 20 fc 3d
       -0.18660088 0.13894476 -0.12366537 0.12310975
0003c0 fd 7e 5d 3e 6b 4e 56 3e 4c 1d 68 3d c6 44 25 be
       0.21630473 0.20928352 0.056668565 -0.16139516
0003d0 30 1b 47 be b2 30 22 be a0 02 1c bd 7c 4a 2f be
       -0.19443965 -0.15838888 -0.03808844 -0.17118257
0003e0 d0 71 4e 3a f7 51 9b 3e da 08 ff bb d6 e4 85 3d
       0.0007875236 0.30335972 -0.0077830376 0.065377876
0003f0 ee c0 67 be e1 7e 2f 3e 81 ee 80 bd 79 05 8e 3d
       -0.2263219 0.17138244 -0.06295491 0.069346376

transformer.norm.running_mean f4 [1920]
000000 12 dc 8d ba 25 7c 51 3a 14 9d ab ba f8 d9 47 ba
       -0.0010823032 0.0007991216 -0.0013093078 -0.00076237274
000010 86 5c cd b9 26 48 54 ba a0 b3 19 b7 41 4d 96 ba
       -0.00039169582 -0.0008097909 -9.161333e-06 -0.0011467115
000020 c0 f0 b7 3a b6 d6 42 bb 28 12 8a 38 04 b4 ad ba
       0.0014033541 -0.0029730028 6.583735e-05 -0.0013252501
000030 d3 cc 91 ba c8 62 50 3b 3a da 81 bb 8d c3 97 39
       -0.0011123664 0.003179716 -0.003962782 0.0002894666
000040 df d5 bd 38 fe b3 23 bb ac d2 75 ba 16 9c 0b 3b
       9.052059e-05 -0.002497911 -0.0009377401 0.0021302751
000050 a9 2b c8 3a db 2c 8f 39 7a 94 2f 39 8e dc a8 ba
       0.0015271801 0.00027308505 0.00016744612 -0.0012883113
000060 eb d9 34 ba ab 36 13 ba c5 bd e7 39 46 58 ab 3a
       -0.00068989274 -0.0005615751 0.00044201143 0.0013072572
000070 dc c4 a7 b8 22 5d af 39 97 24 bf b9 8c 4f fe b8
       -7.9998485e-05 0.0003344799 -0.0003645762 -0.000121264806
000080 a9 37 b2 38 00 92 16 3a a8 67 39 39 42 93 4e 38
       8.498069e-05 0.00057438016 0.0001768159 4.9251372e-05
000090 7c 5e 1e ba 60 2d b6 ba bd b5 f0 38 ce cb 32 3b
       -0.0006041301 -0.0013899021 0.00011477943 0.0027282122
0000a0 82 3a 0b ba 68 f1 48 3a a6 3d 43 3b 41 d3 23 3a
       -0.00053111475 0.0007665367 0.0029791384 0.0006249436
0000b0 ca e2 26 bb ac db 64 bb 1a 08 b1 b9 6d 42 90 b9
       -0.0025464767 -0.0034920974 -0.00033766107 -0.0002751531
0000c0 5b e1 7c b9 6b 76 21 3a 15 00 0d 3b 5c 91 dd b9
       -0.00024116544 0.0006159308 0.0021514941 -0.00042260706
0000d0 c8 31 48 ba e3 d7 e7 39 8f 45 ec 3a 10 c8 83 3b
       -0.00076368125 0.00044220602 0.0018026101 0.004021652
0000e0 ca 44 35 3a 63 5e 96 3b 88 ad 90 b7 e7 02 86 39
       0.00069148524 0.0045888885 -1.7246944e-05 0.00025560634
0000f0 8f ae 35 ba bf 1e 60 3a 85 35 23 3b a5 ea f4 39
       -0.00069306133 0.00085495034 0.0024903726 0.0004671413
000100 c8 a6 0d b7 5b e5 01 3a 75 11 d5 3a 08 f9 84 ba
       -8.443087e-06 0.0004955136 0.0016255813 -0.0010145018
000110 f0 b3 33 ba 3a d2 ca 38 13 9b 83 ba f9 b5 66 39
       -0.0006855121 9.671268e-05 -0.0010040723 0.000220023
000120 7a c8 28 ba b9 a9 ee b9 eb cd 91 b9 a2 87 70 ba
       -0.0006438565 -0.0004552135 -0.00027809976 -0.00091754843
000130 06 d8 78 3b 5a ef 72 ba f0 23 4a 36 20 bd be ba
       0.0037970557 -0.00092672335 3.0121264e-06 -0.0014552213
000140 2b e3 ae 3a 85 74 a4 3a c2 1f e8 39 f3 cf ba 39
       0.0013342848 0.0012546933 0.0004427415 0.0003563162
000150 d0 5b 5e ba 1a bf a6 ba e1 2c 80 ba 72 31 2d 3a
       -0.0008482309 -0.0012721748 -0.0009779 0.0006606794
000160 0e cf 15 bb 41 a1 cf 39 78 70 8c ba d4 0e 14 3a
       -0.002285901 0.0003960226 -0.0010714671 0.00056479615
000170 08 d4 1a 3a da 3f 66 3a 7c 89 df ba ff 70 f8 b9
       0.0005906229 0.00087833183 -0.0017054523 -0.00047386435
000180 cc bf 64 3a 53 7b c0 ba 96 47 e5 38 8f 3a fe 39
       0.000872609 -0.0014685191 0.00010932905 0.00048490285
000190 57 b0 c3 b9 92 5f 73 39 b3 0e 96 b8 c7 8d 34 b9
       -0.00037324682 0.00023209889 -7.155295e-05 -0.00017218954
0001a0 86 4e c0 39 d5 06 7e b9 2f 53 b5 b9 2d bc c7 ba
       0.00036679598 -0.00024225873 -0.00034584987 -0.0015238576
0001b0 17 86 29 b9 ac aa 64 ba 95 84 86 ba 62 d4 3c 39
       -0.00016167048 -0.0008722942 -0.0010262901 0.00018008196
0001c0 6a 2c cd b8 81 bf 7d ba aa b2 cc ba 1c fa 4a ba
       -9.7834345e-05 -0.00096797204 -0.0015617211 -0.00077429577
0001d0 90 1c d9 ba 64 9a 92 ba 70 c5 cd b9 1c 41 64 3b
       -0.0016564298 -0.0011184928 -0.0003924775 0.0034828847
0001e0 20 85 7d ba 01 29 22 39 bf fb 11 3b db 31 c1 39
       -0.0009671021 0.00015464799 0.0022275297 0.00036848974
0001f0 57 16 60 39 27 9a a4 ba 55 b8 2e 3a 53 34 b7 39
       0.00021370627 -0.0012558148 0.0006665041 0.00034943465
000200 30 b0 ae 3a 19 bd 2a 3b 39 2c 6a bb 06 ae 35 3a
       0.0013327654 0.0026052652 -0.0035731925 0.00069305336
000210 5f 6c 0f 3a 5c 48 07 ba 93 68 6d ba e7 a8 3b 39
       0.00054711656 -0.00051606237 -0.00090564153 0.00017896631
000220 22 4f 67 39 a2 d8 16 3b f8 2e c1 ba 74 72 71 ba
       0.00022059356 0.0023017307 -0.0014738729 -0.0009210475
000230 f8 34 f8 38 ca 7a c1 b9 80 a7 36 3a 70 e8 0c bb
       0.00011835428 -0.00036903314 0.00069677085 -0.0021500848
000240 39 9c 95 38 38 c0 aa b9 30 c3 1f b9 ad bb 8c ba
       7.1339724e-05 -0.0003256814 -0.00015236135 -0.0010737084
000250 a0 1c 82 ba 16 84 aa b8 2b 25 a2 ba f1 9b 29 ba
       -0.0009926744 -8.1308346e-05 -0.0012370696 -0.00064700755
000260 55 94 2c 3b 90 99 53 3a be 66 3a 3a 9f f5 cb ba
       0.002633353 0.0008071894 0.00071106467 -0.0015560872
000270 88 dc 01 3a 77 e4 90 3a cd 66 50 3b 4f ec 75 b8
       0.0004953821 0.0011054416 0.0031799555 -5.863263e-05
000280 f1 5b 9a 39 00 6b 48 3a a2 0a 0d 37 92 5f 86 39
       0.0002944167 0.0007645339 8.406731e-06 0.00025629677
000290 41 1f bc 39 5b d4 4c 3a d3 14 10 bb 76 d1 e8 ba
       0.0003588144 0.0007813626 -0.0021985068 -0.001776262
0002a0 b8 1c 3e 3a f7 13 72 b8 26 1e be 3a 06 b2 1c b8
       0.0007252204 -5.771589e-05 0.0014504835 -3.7359096e-05
0002b0 33 8a 10 ba 69 87 3b 39 f6 25 fc b9 a9 99 0b 3a
       -0.00055137574 0.00017884154 -0.0004809347 0.00053253263
0002c0 df 49 05 3a d3 29 0b bb b0 8a f0 b7 39 6e 83 3a
       0.0005084555 -0.0021234646 -2.867481e-05 0.0010027356
0002d0 88 81 b1 ba a7 bf 3a 3a 2b e0 e2 b9 01 a4 1a b9
       -0.0013542632 0.00071238953 -0.00043273097 -0.0001474768
0002e0 00 19 16 ba 4b 91 82 3a 38 75 22 39 0f c5 81 b8
       -0.0005725771 0.0009961514 0.00015493191 -6.1879044e-05
0002f0 5c d3 4d b9 c2 1d d6 ba a6 80 c5 ba 2f 76 90 3a
       -0.00019629061 -0.0016335773 -0.0015068247 0.001102155
000300 63 74 a0 ba ae 02 71 3b b0 d8 88 3a 57 d0 33 39
       -0.0012241717 0.003677528 0.0010440554 0.00017148383
000310 4d 03 7a ba 24 1c 33 3a 83 65 69 3a 27 5b 28 ba
       -0.0009537235 0.00068325014 0.0008903371 -0.0006422274
000320 97 bf e2 3a 33 09 8b 3a 3e 4c ed b9 fe d9 69 3a
       0.001729953 0.00106076 -0.00045260967 0.0008920728
000330 13 d6 0d bb ce 66 fc 39 a0 84 73 ba 2e 51 e2 39
       -0.002164249 0.0004814178 -0.0009289477 0.00043166563
000340 ec dd ae ba 75 60 bd ba 68 23 a1 ba 00 8c c5 b9
       -0.0013341284 -0.0014448302 -0.0012293877 -0.00037679076
000350 2d 12 a5 b8 a6 63 9e 39 0f 8d 5f 3a 6c 60 b0 ba
       -7.8711986e-05 0.00030210352 0.0008527794 -0.001345647
000360 bf a2 5a 3a f4 62 85 b9 51 2a b7 b9 f1 24 da 39
       0.0008340291 -0.00025441463 -0.00034936008 0.00041607724
000370 2e d4 34 3a 94 43 e6 39 bd 51 99 b8 40 4d 3f 38
       0.00068980723 0.00043919368 -7.3108335e-05 4.5609893e-05
000380 0b 74 d0 b9 0f eb ac 3a 72 f5 ac 39 be 3d 08 39
       -0.0003975931 0.0013192612 0.00032989267 0.00012992971
000390 70 ab e9 3a e8 3c e8 39 e1 3b f0 39 de 1c 96 3b
       0.0017827582 0.00044295867 0.0004582098 0.004581078
0003a0 95 d5 f2 37 5e f7 b4 37 05 44 b7 3a 5f 10 ea ba
       2.8948105e-05 2.1572861e-05 0.0013982063 -0.0017857662
0003b0 fc 59 04 3b d4 05 bd ba 01 da df 3a 7f 8c 27 b8
       0.0020195236 -0.0014421293 0.001707852 -3.994675e-05
0003c0 a9 05 43 3a fd 39 f2 b9 d3 18 6c ba 45 cc 02 3a
       0.0007439503 -0.00046201042 -0.00090063846 0.0004989545
0003d0 4d 8a 06 3a 79 37 3a 3a 5c 40 50 ba b0 2e ba ba
       0.0005132303 0.0007103603 -0.00079441606 -0.0014204588
0003e0 11 2f c4 3a 40 fd d1 39 bb 79 9e bb 5a 9e d1 39
       0.001496764 0.00040052272 -0.0048362887 0.00039981568
0003f0 6c a3 89 ba 7f 3a b8 ba 53 0a 4a ba 80 03 1e ba
       -0.0010500974 -0.0014055519 -0.0007707227 -0.0006027743
