xls_r_sqa/models/sqa-v2/xls-r-2b/model_2b_lay10_full.pt (torch, 528269 bytes, 67 tensors)

norm_input.weight f4 [1920]
0.6729091 0.8747721 0.69158196 0.7272293 0.7199355 0.79369587 0.6083676 0.64487225
0.62954843 0.7305953 0.9465537 0.7800272 0.71135885 0.742245 0.73282576 0.7195125
0.6937648 0.8587987 0.73862785 0.72648096 0.8801357 0.7139006 0.6918757 0.6190064
0.6785347 0.6707726 0.6503623 0.7600946 0.66725075 0.9207374 0.62088484 0.7105809
0.7710383 0.7223698 0.6480929 0.6642729 0.6437095 0.87365514 0.7807031 0.6415019
0.7675526 0.61015296 0.7452189 0.6258129 0.8007104 0.7659466 0.745279 0.8102569
0.6820311 0.6456171 0.6428429 0.6911868 0.6446978 0.83914804 0.6311977 0.91114706
0.7538651 0.64549243 0.7979542 0.9495893 0.8733557 0.85458225 0.8205498 0.6860329
0.6886029 0.73757875 0.62274987 0.83184767 0.7284245 0.87357444 0.75043523 0.7047431
0.79701203 0.820653 0.70544684 0.66188306 0.7535584 0.8064002 0.64366376 0.765628
0.6893354 0.78976154 0.7956322 0.96177614 0.7057249 0.72096413 0.66415524 0.6971617
0.75480556 0.8473187 0.59743416 0.6373319 0.6939687 0.7784933 0.8007688 0.84758115
0.8335527 0.8502653 0.6562383 0.6926331 0.7108894 0.72054607 0.6620513 0.67486537
0.86012286 0.7981214 0.74806476 0.7211138 0.822004 0.6537466 0.8006581 0.6832338
0.6556974 0.6512332 0.83198327 0.7249122 0.7768449 0.88455874 0.8825913 0.6548958
0.6348862 0.7183476 0.81691533 0.6523954 0.8176965 0.761386 0.72655284 0.7952462
0.6129432 0.6203141 0.72371 0.64935714 0.7177807 0.8295115 0.7109644 0.6721818
0.68608016 0.74633116 0.77574915 0.7338036 0.66467744 1.039501 0.73102665 0.7884023
0.67709774 0.6978905 0.6401407 0.7606753 0.91893786 0.7691681 0.6473386 0.84335417
0.8307506 0.85775524 0.61144763 0.7863903 0.7623299 0.7191134 0.7660861 0.7494042
0.64577156 0.904116 0.68630564 0.9755006 0.7990159 0.70516765 0.7658946 0.7527386
0.66329604 0.6153691 0.82842433 0.87609535 0.6519716 0.848892 0.9022232 0.7877125
0.6835005 0.86528033 0.7663163 1.0936483 0.6853468 0.6826685 0.8800825 0.7992603
0.70514804 0.7167026 0.859712 0.662716 0.87543327 1.0898287 0.6306945 0.83348125
0.8379164 0.6737717 0.7006495 0.6105997 0.85844624 0.8125167 0.73579043 0.77095646
0.6168353 0.8262034 0.7430016 0.709942 0.75333744 0.73429686 0.6945144 0.6888702
0.6165601 0.7114658 0.62810874 0.6863414 0.8271977 0.59901345 0.6660071 0.7770725
0.5966467 0.6388991 0.6420506 0.74644876 0.7331247 0.701432 0.8685178 0.62678164
1.0441471 0.7858186 0.7059373 0.64292717 0.7865792 0.73974615 0.74315315 0.67152274
0.7883392 0.6745362 0.80133104 0.69704044 0.6547648 0.83297265 1.0032839 0.78225154
0.71717775 0.65101856 0.9834644 0.68073094 0.7182329 0.7404634 0.85232574 0.79934037
0.83611643 0.74764854 0.7154945 0.8972455 0.6445294 0.7933451 0.78350765 0.8100701
00000000: c543 2c3f 10f1 5f3f 840b 313f b32b 3a3f
00000010: b14d 383f a72f 4b3f fbbd 1b3f 5916 253f
00000020: 162a 213f 4b08 3b3f 5851 723f ddaf 473f
00000030: 9d1b 363f c503 3e3f 789a 3b3f f931 383f
00000040: 929a 313f 3bda 5b3f b716 3d3f a8fa 393f
00000050: 9350 613f 31c2 363f c41e 313f 3477 1e3f
00000060: 73b4 2d3f c1b7 2b3f 257e 263f 8f95 423f
00000070: f2d0 2a3f 72b5 6b3f 4ff2 1e3f a1e8 353f
00000080: c462 453f 3aed 383f 6be9 253f ca0d 2a3f
00000090: 25ca 243f dda7 5f3f 29dc 473f 7839 243f
000000a0: 547e 443f fc32 1c3f aac6 3e3f 4635 203f
000000b0: 5bfb 4c3f 1415 443f 9bca 3e3f ff6c 4f3f
000000c0: 9799 2e3f 2a47 253f 5a91 243f 9ef1 303f
000000d0: ea0a 253f 68d2 563f 2c96 213f ef40 693f
000000e0: 4efd 403f fe3e 253f ba46 4c3f 4918 733f
000000f0: 3d94 5f3f e7c5 5a3f 8d0f 523f da9f 2f3f
00000100: 4848 303f f6d1 3c3f 896c 1f3f f8f3 543f
00000110: 077a 3a3f 93a2 5f3f 861c 403f 0b6a 343f
00000120: fb08 4c3f 5116 523f 2a98 343f 2b71 293f
00000130: 34e9 403f 3e70 4e3f 26c7 243f 3200 443f
00000140: 4978 303f d02d 4a3f 8dae 4b3f f636 763f
00000150: 63aa 343f 1b91 383f 1406 2a3f 3079 323f
00000160: f03a 413f e1e9 583f 72f1 183f 2f28 233f
00000170: efa7 313f 564b 473f 2fff 4c3f 14fb 583f
00000180: b663 553f fdaa 593f 3cff 273f 6750 313f
00000190: d9fc 353f b575 383f 327c 293f fac3 2c3f
000001a0: 0331 5c3f af51 4c3f 2c81 3f3f ea9a 383f
000001b0: db6e 523f f05b 273f eef7 4c3f 69e8 2e3f
000001c0: c9db 273f 38b7 263f dbfc 543f d993 393f
000001d0: 4fdf 463f 7172 623f 81f1 613f 40a7 273f
000001e0: e787 223f a1e5 373f 5d21 513f 6303 273f
000001f0: 8f54 513f 31ea 423f 5eff 393f 4195 4b3f
00000200: d8e9 1c3f e8cc 1e3f 0f45 393f 453c 263f
00000210: 7ac0 373f de5a 543f c301 363f 1b14 2c3f
00000220: f3a2 2f3f 8f0f 3f3f 7f97 463f 8dda 3b3f
00000230: 4d28 2a3f 5e0e 853f 9024 3b3f bcd4 493f
00000240: 4756 2d3f f4a8 323f 43e0 233f 9ebb 423f
00000250: 833f 6b3f 33e8 443f fcb7 253f 0fe6 573f
00000260: 12ac 543f d995 5b3f d587 1c3f e050 493f
00000270: 0d28 433f d117 383f 381e 443f f4d8 3f3f
00000280: 4951 253f 2574 673f bab1 2f3f 68ba 793f
00000290: 4e8c 4c3f de85 343f ab11 443f 7ab3 403f
000002a0: c5cd 293f d488 1d3f 9e13 543f c947 603f
000002b0: 9ce7 263f fc50 593f 1af8 663f 87a7 493f
000002c0: e4f9 2e3f 0383 5d3f 4e2d 443f abfc 8b3f
000002d0: e372 2f3f 5dc3 2e3f 164d 613f 539c 4c3f
000002e0: 9584 343f d279 373f 1616 5c3f c1a7 293f
000002f0: 651c 603f 827f 8b3f 3275 213f 075f 553f
00000300: b081 563f 4d7c 2c3f c45d 333f 4350 1c3f
00000310: 22c3 5b3f 1801 503f c35c 3c3f 675d 453f
00000320: ebe8 1d3f 1182 533f 5a35 3e3f c2be 353f
00000330: b9da 403f e1fa 3b3f b2cb 313f cc59 303f
00000340: e2d6 1d3f 9f22 363f bccb 203f 12b4 2f3f
00000350: 3ac3 533f f258 193f 717f 2a3f 39ee 463f
00000360: d7bd 183f e48e 233f 6e5d 243f 4417 3f3f
00000370: 0fae 3b3f 0c91 333f 2f57 5e3f c374 203f
00000380: 9da6 853f 682b 493f 4fb8 343f e096 243f
00000390: 415d 493f 0160 3d3f 493f 3e3f eae8 2b3f
000003a0: 99d0 493f 68ae 2c3f 0824 4d3f 3e71 323f
000003b0: aa9e 273f b23d 553f 9b6b 803f a341 483f
000003c0: f698 373f 27a9 263f 53c4 7b3f 6244 2e3f
000003d0: 1dde 373f 028f 3d3f 0532 5a3f 92a1 4c3f
000003e0: ba0b 563f e565 3f3f a62a 373f e2b1 653f
000003f0: e1ff 243f aa18 4b3f f593 483f c160 4f3f

norm_input.bias f4 [1920]
0.0006451041 -0.0017713052 -0.0024337051 -0.001022477 0.00012769032 -0.0008585407 -0.001231416 1.3384447e-05
0.00010088741 0.0017256675 0.00043631927 0.00065240654 -0.0005063869 -0.0020741844 -0.0017570751 -0.00034308466
5.0017796e-05 0.00042452998 -0.0022614927 -3.6927417e-05 -0.000981041 -0.00012996855 -0.00063873234 0.00095370354
-0.00020037609 0.0009961196 -0.0002184584 -4.141287e-05 0.0009910066 -0.00026857477 -0.00080037664 1.9713978e-05
-5.9372356e-05 -0.00014902285 0.00020313625 0.0007584333 0.000759239 0.001609376 -0.0008978294 -0.00023289274
0.0009100875 0.0010771955 -0.0014981944 -0.00021108729 0.0006738592 -7.448573e-05 -0.001242019 0.0014666126
-0.00047601422 -2.3201723e-05 -0.0003293053 -0.0003392722 5.4540906e-05 -0.0012916557 0.0004949244 0.003338373
0.00034106016 0.000199447 0.0012916274 0.001009707 -0.0020316597 0.00097240665 -0.0006744653 0.0024769322
-9.0264126e-05 0.0022594847 0.00030622902 -0.0013752118 0.00026583075 0.0017706492 -0.001390111 -0.00034321568
-0.0011364286 -0.001144601 -0.00044052466 0.0022313348 0.00265516 -0.00082343654 0.00042287237 -0.0008214361
-0.0024425706 0.0014519419 0.00073073595 -0.0018663004 0.0004713387 0.0008244276 0.0001550126 0.00043607125
0.0020776424 0.00091585744 0.00027776338 -0.00011502297 0.0008753951 -0.0007148748 -0.0002935013 0.00013851273
0.00046889886 -0.0015066946 -0.00039643864 -0.00023890918 0.00049212575 -0.0020084043 0.00010146487 0.00024367424
-0.0019325161 -0.00044225558 -0.0008840636 0.0010842368 0.0013501856 -1.8251292e-05 -0.0010410163 0.00026907932
0.0004970429 -0.000628637 -0.00029282394 -0.0011048963 -0.00025542406 0.00046475462 0.0008570623 0.0011901142
-6.052234e-05 -0.0011204846 0.0011093561 0.0009842481 0.00051232456 0.0014902246 -0.0009940226 -0.0010165891
7.317567e-05 0.00023569287 -0.00022227273 3.635263e-05 0.0011771068 0.00024523228 0.0036960086 0.00076904707
-0.00019486764 0.0003449355 0.0004578373 2.9166815e-05 0.0008739181 0.00026077236 -0.0013826457 -3.7630864e-05
-0.0015698323 0.0018635017 0.0010396023 0.00025848747 -0.0021569156 -0.00010702444 -0.00010143835 -0.0011469416
-0.0011297006 0.0010979633 -0.0007333495 0.0013499439 0.0016146348 0.0011518557 0.00094513077 -0.0030835504
0.00033556487 0.00069003494 -0.0006806642 -0.0005841722 0.0013289283 0.0009547877 1.3865832e-05 -0.0013534146
-0.00093076983 -0.0002281506 0.0011360899 0.0015709995 -0.0011739078 -0.0037910943 0.0008770052 -0.00042330282
0.0012311569 -0.001777313 0.00052595435 0.011051892 0.0010291864 -0.000673526 0.0007036459 -0.0016307649
0.0014760599 0.0007603831 0.00075881014 3.401802e-05 -0.0013108767 -0.0024474317 0.0011555908 0.0039750375
-0.0017722324 0.00090552727 -0.00020288203 0.0010992349 -0.0009952586 0.0014681271 -0.0020879377 -0.0006809819
0.00084686006 -0.0038929826 -0.0015360237 0.00034788647 -0.0039175283 0.001070157 0.00044437966 0.0010561754
-0.00016414016 -0.00049365096 0.00058210094 -0.00038287556 -0.0008882024 0.0010185348 0.00090119353 0.00046034626
-0.00014591115 0.00035339157 -0.0008455156 0.0007701891 -0.0013532348 0.0001745979 -0.0012480698 9.6864125e-05
-0.0011066609 -3.0039688e-05 0.0009423229 0.00022311574 0.00017035143 0.00027684378 0.0006061254 0.0019735114
0.002344841 -5.7730816e-05 0.0014725479 -0.001121892 -0.000481485 0.00069171394 0.0006674555 0.00010042082
0.00059690914 0.0008194504 0.0068640504 0.0026509217 -0.00035986854 -0.00056310167 -0.0013050131 0.0012776083
0.00035994503 -0.0016260392 -0.00033567924 -0.0011007224 -5.7208774e-05 0.001583615 -1.2841724e-05 -0.0009521319
00000000: 341c 293a 242b e8ba cc7e 1fbb a304 86ba
00000010: 9ce4 0539 b10f 61ba 7767 a1ba c38d 6037
00000020: 8493 d338 cb2f e23a c8c1 e439 4306 2b3a
00000030: 0dbf 04ba 0aef 07bb a84d e6ba 0be0 b3b9
00000040: 33ca 5138 7393 de39 8d35 14bb 83e2 1ab8
00000050: 4696 80ba 2b48 08b9 9a70 27ba f601 7a3a
00000060: 0c1c 52b9 3a90 823a fb11 65b9 bbb2 2db8
00000070: aae4 813a 7fcf 8cb9 5ed0 51ba 725f a537
00000080: 9506 79b8 0443 1cb9 f900 5539 99d1 463a
00000090: ab07 473a b3f1 d23a 505c 6bba ab34 74b9
000000a0: f092 6e3a af30 8d3a 105f c4ba 5057 5db9
000000b0: eda5 303a 3935 9cb8 3ecb a2ba 5a3b c03a
000000c0: 8c91 f9b9 52a1 c2b7 9ca6 acb9 58e0 b1b9
000000d0: dac2 6438 c64c a9ba d0bd 013a 9bc8 5a3b
000000e0: 52d0 b239 a522 5139 d34b a93a 2558 843a
000000f0: 9825 05bb 1be9 7e3a 9ace 30ba 0754 223b
00000100: 2f4c bdb8 dd13 143b 5d8d a039 7340 b4ba
00000110: 335f 8b39 2115 e83a 6334 b6ba a1f1 b3b9
00000120: 37f4 94ba 7006 96ba 38f6 e6b9 963b 123b
00000130: 3102 2e3b e4db 57ba f8b4 dd39 a555 57ba
00000140: 8913 20bb 164f be3a dc8e 3f3a a69e f4ba
00000150: 021e f739 661e 583a e18a 2239 7ea0 e439
00000160: 0e29 083b 2716 703a c5a0 9139 7d38 f1b8
00000170: c57a 653a 7066 3bba 14e1 99b9 ba3d 1139
00000180: 8ad6 f539 487c c5ba 18d9 cfb9 b283 7ab9
00000190: 0002 013a 6f9f 03bb 8ac9 d438 ce82 7f39
000001a0: 7b4c fdba 8ade e7b9 81c0 67ba f31c 8e3a
000001b0: b6f8 b03a 5a1a 99b7 b672 88ba 3713 8d39
000001c0: fc4b 023a 1dcb 24ba 2a86 99b9 2bd2 90ba
000001d0: 70ea 85b9 4faa f339 7aac 603a 9bfd 9b3a
000001e0: 5ed9 7db8 39dd 92ba d067 913a e301 813a
000001f0: 854d 063a a453 c33a dd49 82ba 123f 85ba
00000200: e475 9938 5324 7739 e211 69b9 5779 1838
00000210: 2649 9a3a 8592 8039 bc38 723b e099 493a
00000220: 6255 4cb9 76d8 b439 e209 f039 42ab f437
00000230: a717 653a 46b8 8839 e439 b5ba d5d5 1db8
00000240: d5c2 cdba be40 f43a 4443 883a 9a85 8739
00000250: 0a5b 0dbb 4f72 e0b8 4dbb d4b8 f954 96ba
00000260: 7612 94ba 89e9 8f3a 403e 40ba 9af0 b03a
00000270: 27a2 d33a ddf9 963a a7c2 773a 6415 4abb
00000280: c1ee af39 76e3 343a 9a6e 32ba 2223 19ba
00000290: 6f2f ae3a b84a 7a3a 4ca1 6837 0f65 b1ba
000002a0: e8fe 73ba b63b 6fb9 dae8 943a ffe9 cd3a
000002b0: cfdd 99ba 0274 78bb d3e6 653a beee ddb9
000002c0: c55e a13a baf4 e8ba 33e0 093a ff12 353c
000002d0: c4e5 863a 918f 30ba e174 383a 64bf d5ba
000002e0: 5a78 c13a 7254 473a e3ea 463a 92ae 0e38
000002f0: b9d1 abba 1765 20bb 3177 973a 0841 823b
00000300: 404a e8ba e860 6d3a bbbc 54b9 3414 903a
00000310: 5673 82ba 2c6e c03a c8d5 08bb ec83 32ba
00000320: d1ff 5d3a 6921 7fbb 6754 c9ba 8864 b639
00000330: 9c5e 80bb 8344 8c3a a1fb e839 5e6f 8a3a
00000340: 0a1d 2cb9 5b68 01ba 2298 183a b0bc c8b9
00000350: 41d6 68ba 5b80 853a 133e 6c3a a15a f139
00000360: baff 18b9 6a47 b939 97a5 5dba 84e6 493a
00000370: 065f b1ba 4414 3739 4696 a3ba 8823 cb38
00000380: 610d 91ba bdfd fbb7 3806 773a 2df4 6939
00000390: 5da0 3239 5825 9139 63e4 1e3a 0756 013b
000003a0: e7ab 193b fe23 72b8 8202 c13a 730c 93ba
000003b0: d36f fcb9 2354 353a 2ef8 2e3a 0499 d238
000003c0: e579 1c3a 63d0 563a d4eb e03b 16bb 2d3b
000003d0: bdac bcb9 1d9d 13ba f90c abba 6c75 a73a
000003e0: 01b7 bc39 d220 d5ba 1bfe afb9 1d46 90ba
000003f0: 74f3 6fb8 4d91 cf3a c972 57b7 7d98 79ba

norm_input.running_mean f4 [1920]
-0.13078624 -0.071316175 0.19798979 -0.27403203 0.10703767 0.035556816 -0.24755876 -0.458215
0.008650446 -0.24161524 -0.24529599 -0.24251759 0.39306343 0.06978828 0.22445345 -0.47278816
-0.1650731 0.45357612 0.31509086 0.087958254 -0.6143484 -0.05127504 -0.07128341 0.29227418
-0.19093195 -0.032192368 0.54042464 0.103398986 -0.13265704 0.03188224 -0.4019865 0.13013245
0.028554091 -0.1323045 0.00086879754 -0.20338887 -0.036721136 0.025459643 -0.03739065 -0.3426527
0.16702735 0.114821754 -0.14747298 64.75509 0.29276067 -0.13085766 0.3329494 0.051118087
0.43079042 -0.040412344 -0.19779496 -0.06930353 0.020657126 0.65792865 -0.011832802 0.025863815
0.14007822 -0.46673372 -0.522562 0.0627581 0.39981794 -0.09939551 -0.27394506 0.12319095
0.47598684 0.08156674 0.07933485 -0.6467465 0.059228927 0.12955444 0.23267971 0.37152812
0.26750308 0.2869847 -0.39623812 0.040687703 0.037500005 0.82441473 0.98088044 -0.24150483
-0.21940821 0.7703249 -0.23743857 0.12918986 -0.4559833 0.07080584 0.20357148 -0.325606
0.519166 0.4097149 0.15882984 -0.52905434 0.11894261 0.3438766 -0.07861584 0.102499254
-0.3134429 0.43572512 -0.051388655 0.27262437 0.090814814 -0.15608321 -0.11704585 -0.42733428
-0.18412168 0.02164157 -0.108207285 -0.2194888 -0.32397145 -0.51871926 -0.061204627 0.3553395
-0.13414346 0.6364858 -0.38620833 -0.06687113 0.08799093 -0.29940793 -0.25416043 -0.35486463
0.016630191 -0.09243767 -0.74543965 0.49565983 0.21684161 -0.22300407 -0.16653144 0.03547529
-0.024545042 0.3252583 -0.2847782 -0.10928308 0.05766584 -0.19570893 0.108932205 0.5017577
-0.051969517 0.19536583 -0.4504526 0.016888103 -0.28877437 -0.08055784 -0.7463086 -0.1351041
-0.20588721 -0.027054638 0.05963518 -0.5429059 0.08305481 0.15560076 -0.59275496 0.33102614
-0.7719015 -0.32511353 0.36839685 0.021533284 -0.3625531 -0.018691255 -0.43090925 -0.86658967
0.7289167 0.69865435 0.16971576 0.20241594 0.41883194 -0.59873503 0.10741893 0.002513281
0.0008063612 -0.28836718 0.626869 0.19454099 0.27427408 0.61148614 -0.5253223 -0.15721482
0.06460954 -0.14725992 -0.12601487 0.14978464 0.08895399 0.14140487 -0.6014633 0.28918362
0.26125622 -0.3784396 -0.33659452 0.3130896 -0.53234076 -0.16268311 0.695812 -0.04462116
0.355185 -0.08073748 0.30689874 0.26620245 -0.15357645 0.54189605 0.19284055 -0.18185008
0.33355144 -0.1456813 0.40564874 -0.20333739 0.24940413 0.29597965 -0.006005943 -0.18510842
-0.036187388 -0.6176743 -0.15493518 0.23006372 -0.40964118 0.038308334 0.051291484 -0.2533313
-0.12653135 0.14032236 -0.111806765 -0.07958125 -0.24538185 0.43087944 0.41750458 0.047537383
-0.26902154 -0.44930512 0.15948187 -0.6796418 0.21647012 -0.2672209 0.19772446 0.040783294
-0.22498573 0.05501765 0.037636597 0.14175805 -0.23853926 -0.45408782 0.24901274 0.24321339
0.04626241 -0.32594016 -0.1210295 0.05059239 0.076999426 0.21714053 0.066261 -0.86600226
-0.17009693 -0.2846219 -0.035208967 0.1338574 -0.043810435 -0.7327344 0.16843471 0.033885792
00000000: d4ec 05be 370e 92bd d6bd 4a3e ed4d 8cbe
00000010: 9136 db3d 06a4 113d 0b80 7dbe 289b eabe
00000020: 9aba 0d3c fc69 77be df2e 7bbe 8856 78be
00000030: 9c3f c93e 28ed 8e3d 20d7 653e 4a11 f2be
00000040: ec08 29be 213b e83e 9753 a13e 7523 b43d
00000050: f045 1dbf c705 52bd 09fd 91bd f6a4 953e
00000060: aa83 43be 25dc 03bd 4559 0a3f d9c2 d33d
00000070: 3fd7 07be f496 023d 2dd1 cdbe 7141 053e
00000080: 45ea e93c d57a 07be 04c0 633a 2c45 50be
00000090: e768 16bd be90 d03c f026 19bd 2d70 afbe
000000a0: 3809 2b3e ab27 eb3d 2803 17be 9b82 8142
000000b0: bae4 953e 8dff 05be 5878 aa3e 3361 513d
000000c0: 9090 dc3e 6a87 25bd c38a 4abe 02ef 8dbd
000000d0: 2239 a93c 036e 283f 5ede 41bc 5ae0 d33c
000000e0: aa70 0f3e b9f7 eebe a0c6 05bf 5287 803d
000000f0: f0b4 cc3e e08f cbbd 8742 8cbe 894b fc3d
00000100: 8cb4 f33e 770c a73d 4f7a a23d 2e91 25bf
00000110: 089a 723d eba9 043e 9743 6e3e ef38 be3e
00000120: 2af6 883e a9ef 923e b9df cabe 26a8 263d
00000130: 9b99 193d d80c 533f fb1a 7b3f 0b4d 77be
00000140: 8cac 60be 0334 453f 1923 73be 594a 043e
00000150: a576 e9be a702 913d 0b75 503e d4b5 a6be
00000160: 10e8 043f 27c6 d13e 4aa4 223e 1b70 07bf
00000170: 2f98 f33d 9810 b03e 5701 a1bd 21eb d13d
00000180: 967b a0be 5d17 df3e e97c 52bd 6c95 8b3e
00000190: 1efd b93d 47d4 1fbe bcb5 efbd 8fcb dabe
000001a0: 658a 3cbe a949 b13c c89b ddbd acc1 60be
000001b0: 96df a5be c9ca 04bf b4b1 7abd 0fef b53e
000001c0: e75c 09be bcf0 223f 19bd c5be bbf3 88bd
000001d0: 9734 b43d ff4b 99be 5121 82be d1b0 b5be
000001e0: 0a3c 883c f64f bdbd 22d5 3ebf 20c7 fd3e
000001f0: ba0b 5e3e 2e5b 64be 3887 2abe 8a4e 113d
00000200: af12 c9bc 4288 a63e 73ce 91be cfcf dfbd
00000210: 0433 6c3d ec67 48be d917 df3d 3173 003f
00000220: fddd 54bd fb0d 483e b9a1 e6be eb58 8a3c
00000230: 3cda 93be 82fb a4bd 150e 3fbf bb58 0abe
00000240: 19d4 52be b0a1 ddbc 0544 743d e2fb 0abf
00000250: a418 aa3d ce55 1f3e cabe 17bf 427c a93e
00000260: 569b 45bf 4875 a6be 839e bc3e 9266 b03c
00000270: 8fa0 b9be 671e 99bc 23a0 dcbe d2d8 5dbf
00000280: 499a 3a3f 03db 323f f8c9 2d3e 2046 4f3e
00000290: 2471 d63e b346 19bf 75fe db3d dcb5 243b
000002a0: fc61 533a dda4 93be 7d7a 203f c135 473e
000002b0: a76d 8c3e 5b8a 1c3f 867b 06bf ecfc 20be
000002c0: 0252 843d 4ecb 16be 0b0a 01be 2561 193e
000002d0: 822d b63d 70cc 103e 80f9 19bf e00f 943e
000002e0: 60c3 853e d6c2 c1be 1e56 acbe 484d a03e
000002f0: 7c47 08bf 6796 26be bc20 323f adc4 36bd
00000300: cfda b53e b159 a5bd d521 9d3e b04b 883e
00000310: 2543 1dbe b3b9 0a3f fe77 453e e836 3abe
00000320: 41c7 aa3e 7b2d 15be 31b1 cf3e ad37 50be
00000330: cc63 7f3e a58a 973e 80cd c4bb 108d 3dbe
00000340: 3a39 14bd e71f 1ebf 54a7 1ebe d395 6b3e
00000350: 7dbc d1be 33e9 1c3d 0517 523d a4b4 81be
00000360: 6f91 01be aab0 0f3e f2fa e4bd 7ffb a2bd
00000370: 6145 7bbe 3b9c dc3e 29c3 d53e 8fb6 423d
00000380: 31bd 89be 520b e6be 374f 233e 01fd 2dbf
00000390: 58aa 5d3e 2ed1 88be 4878 4a3e 620c 273d
000003a0: a962 66be 305a 613d d528 1a3d 0629 113e
000003b0: a343 74be 337e e8be 32fd 7e3e ee0c 793e
000003c0: a77d 3d3d a1e1 a6be 51de f7bd f739 4f3d
000003d0: e0b1 9d3d 165a 5e3e d9b3 873d 53b2 5dbf
000003e0: e42d 2ebe f6b9 91be 4737 10bd ea11 093e
000003f0: 9272 33bd 7b94 3bbf 267a 2c3e d4cb 0a3d

norm_input.running_var f4 [1920]
1.5709299 1.5211233 1.5900457 1.4723326 2.1650617 1.6964005 1.7235221 1.7486826
1.7743174 1.8136184 2.0427485 2.1234164 1.6052616 1.9018668 2.0854788 1.9422375
2.4978414 2.0216908 1.9984789 2.0898776 2.0639982 2.541883 2.1013877 1.819358
1.8378476 1.9019318 2.6024237 1.8890065 1.7295907 2.408199 1.5799717 1.949232
1.6405903 2.0040882 1.779052 1.9353795 2.4869735 1.7919697 1.8283067 2.0636272
1.4323686 1.9630382 1.7407215 931.24567 2.005689 1.9466271 1.9662912 1.6527209
1.856159 1.8792127 1.7659605 1.673447 1.83513 2.187336 1.6044048 1.7659025
1.9194888 1.9436052 1.7673937 1.5179121 2.546276 1.5451267 1.731526 1.7912626
2.1450205 1.5376196 1.8709424 2.3851845 2.1309779 1.435918 1.6703253 1.9980934
2.458593 1.5156295 1.8730274 1.8317202 1.8829163 2.4487662 8.113888 2.3964221
1.7537981 3.2088218 1.829074 1.7882324 2.143602 1.8214839 1.7666713 1.9856329
1.9857513 1.7934725 1.756622 2.5500207 2.1775599 1.83234 2.0624292 2.0113244
1.8764154 2.2456086 1.6410956 1.8496412 1.9387982 1.9009199 1.9888463 1.5484388
1.7530187 1.6751922 1.9867803 1.6850673 1.8912374 3.0379713 1.7699388 1.7958102
1.7394534 1.940866 1.7264543 1.8441781 1.937709 1.7173146 1.9381639 1.8553227
2.4777625 1.4735559 2.0947192 1.7904978 1.7731602 1.7148126 1.9693478 1.9774973
2.1436183 1.8154279 1.7715293 1.7303352 2.1071384 1.6953399 2.2328017 1.6672163
2.0568748 2.2928975 2.0748274 1.7422432 1.8319374 2.0892596 2.3209584 3.721201
1.9958018 1.5790704 2.154146 1.712398 1.8211498 2.1069162 1.8243895 1.6049109
2.1939301 1.7239124 2.763057 2.0183804 1.7918215 1.8553526 1.8031415 2.3441253
1.7091322 2.3653862 1.9278853 2.179947 1.7126346 1.9995896 1.645572 1.5780551
1.6598556 2.4251118 1.5685287 2.0504029 1.6970617 2.05284 1.6961175 2.0550003
1.7148118 1.8097211 2.2840285 1.5894953 1.8728514 1.7994505 1.8803525 2.2678082
4.829415 1.8756049 1.7310263 2.05046 1.7845254 1.5605104 2.4246702 1.6919408
2.235135 1.7887381 1.9532882 1.8247621 1.8820963 1.5100777 1.990576 1.6333057
1.4516661 2.0738719 1.7298918 1.494493 2.203137 1.8360331 1.4946926 1.7423242
1.5250022 1.8874863 1.8632 1.7123582 1.8366814 1.8884096 1.7660406 2.0290394
2.0642688 1.8950202 2.0453417 2.4187372 1.6501884 2.3968136 1.797178 1.6754277
1.6161577 2.3341753 1.6456864 4.171306 2.336483 2.185028 1.6964505 1.7746313
1.7094485 1.9644014 1.6205183 1.571056 1.8329594 2.0700064 1.6408588 1.6962522
1.5717522 1.8150196 1.784472 1.5110582 1.6436067 2.3179555 1.8263723 2.448888
1.4930897 1.5067184 1.6734034 1.8683312 2.1063595 2.484445 1.8551204 2.158382
00000000: 3b14 c93f 2bb4 c23f 9e86 cb3f 6575 bc3f
00000010: 5f90 0a40 a723 d93f 5f9c dc3f d5d4 df3f
00000020: d51c e33f a624 e83f 64bc 0240 0ee6 0740
00000030: 3679 cd3f 5f70 f33f 7c78 0540 3d9b f83f
00000040: a2dc 1f40 6263 0140 28ce ff3f 8ec0 0540
00000050: 8c18 0440 36ae 2240 237d 0640 b9e0 e83f
00000060: 973e eb3f 8072 f33f 1c8e 2640 f7ca f13f
00000070: 3a63 dd3f ef1f 1a40 833c ca3f 6f80 f93f
00000080: ddfe d13f fb42 0040 fab7 e33f 84ba f73f
00000090: 932a 1f40 435f e53f f405 ea3f 7812 0440
000000a0: db57 b73f d644 fb3f f6cf de3f b9cf 6844
000000b0: 355d 0040 142b f93f 6eaf fb3f 5c8c d33f
000000c0: 9e96 ed3f 0b8a f03f fe0a e23f 8333 d63f
000000d0: 8ae5 ea3f 50fd 0b40 235d cd3f 1809 e23f
000000e0: cfb1 f53f 0ec8 f83f f539 e23f f24a c23f
000000f0: 30f6 2240 b6c6 c53f a5a2 dd3f 1848 e53f
00000100: 0448 0940 b8d0 c43f 0a7b ef3f dda6 1840
00000110: f161 0840 29cc b73f 38cd d53f 86c1 ff3f
00000120: 9659 1d40 2600 c23f 5dbf ef3f cf75 ea3f
00000130: 6703 f13f 96b8 1c40 7cd2 0141 fb5e 1940
00000140: 757c e03f 565d 4d40 191f ea3f cde4 e43f
00000150: c630 0940 6226 e93f 4922 e23f 3829 fe3f
00000160: 192d fe3f 8290 e53f fdd8 e03f 8a33 2340
00000170: 245d 0b40 1e8a ea3f d7fe 0340 8ab9 0040
00000180: 612e f03f 0db8 0f40 6c0f d23f 0bc1 ec3f
00000190: 8a2a f83f 5851 f33f 8492 fe3f 3e33 c63f
000001a0: eb62 e03f b36c d63f d14e fe3f 49b0 d73f
000001b0: 1114 f23f 1f6e 4240 5b8d e23f 1cdd e53f
000001c0: 69a6 de3f 4c6e f83f 74fc dc3f 070e ec3f
000001d0: d906 f83f f7d0 db3f c115 f83f 377b ed3f
000001e0: a993 1e40 7b9d bc3f e10f 0640 082f e53f
000001f0: eaf6 e23f fb7e db3f 9713 fc3f a21e fd3f
00000200: 0b31 0940 f15f e83f 79c1 e23f a07b dd3f
00000210: 5bdb 0640 e600 d93f 39e6 0e40 5867 d53f
00000220: d6a3 0340 d5be 1240 f9c9 0440 d301 df3f
00000230: ed7c ea3f 6eb6 0540 958a 1440 2828 6e40
00000240: 6f76 ff3f fb1e ca3f 87dd 0940 dc2f db3f
00000250: 701b e93f b7d7 0640 9885 e93f b86d cd3f
00000260: 5a69 0c40 29a9 dc3f edd5 3040 252d 0140
00000270: 685a e53f 327c ed3f 57cd e63f 2606 1640
00000280: d8c4 da3f 7d62 1740 f2c4 f63f 4084 0b40
00000290: 9c37 db3f 8df2 ff3f 1aa2 d23f b6fd c93f
000002a0: 2676 d43f 0835 1b40 8cc5 c83f cd39 0340
000002b0: 5139 d93f bb61 0340 611a d93f 2085 0340
000002c0: f47e db3f f1a4 e73f 862d 1240 9574 cb3f
000002d0: 98b9 ef3f 6554 e63f 64af f03f c523 1140
000002e0: 918a 9a40 d213 f03f 4592 dd3f bd3a 0340
000002f0: 546b e43f cebe c73f cc2d 1b40 8491 d83f
00000300: 740c 0f40 5ff5 e43f 5905 fa3f ce91 e93f
00000310: 88e8 f03f 3a4a c13f 32cb fe3f 2910 d13f
00000320: 32d0 b93f 51ba 0440 186d dd3f 8c4b bf3f
00000330: 3200 0d40 2203 eb3f 1652 bf3f 7b04 df3f
00000340: 4633 c33f 2799 f13f 567d ee3f 8e2e db3f
00000350: 6018 eb3f 68b7 f13f 9e0d e23f c8db 0140
00000360: fb1c 0440 0690 f23f e1e6 0240 97cc 1a40
00000370: 6039 d33f 6565 1940 ee09 e63f 6a74 d63f
00000380: 41de ce3f 2163 1540 daa5 d23f 577b 8540
00000390: f088 1540 80d7 0b40 4a25 d93f 1e27 e33f
000003a0: 35cf da3f 8171 fb3f 256d cf3f 5d18 c93f
000003b0: 6a9e ea3f fc7a 0440 a907 d23f cb1e d93f
000003c0: 2d2f c93f 9052 e83f 9469 e43f 5b6a c13f
000003d0: b461 d23f 6259 1440 91c6 e93f 95ba 1c40
000003e0: 901d bf3f 26dc c03f 1532 d63f 7a25 ef3f
000003f0: 98ce 0640 2601 1f40 9674 ed3f ee22 0a40

transformer.norm.weight f4 [1920]
0.52870363 1.175959 0.73290193 0.7190642 0.58316183 0.90145475 0.24833192 0.2952242
0.065074265 0.7175912 1.2479635 0.75483114 0.7307006 0.81410784 0.73413956 0.7018494
0.5844685 1.0679456 0.6702229 0.6497791 1.1654061 0.6883535 0.55768555 0.372317
0.6145116 0.54654473 0.40009594 0.8654639 0.61231345 1.2194666 0.38586807 0.68165267
0.82299936 0.6949336 0.57863814 0.510472 0.46338564 1.0628194 0.78077316 0.24174617
0.819357 0.40324023 0.88566726 0.0736623 0.9037791 0.63557655 0.7795329 0.95861083
0.50271976 0.5308571 0.15946902 0.57716346 0.04900961 1.0235167 0.29662886 1.1178353
0.8212208 0.25255927 0.9006637 1.270953 1.1557392 1.0679868 0.99601495 0.5627248
0.5128554 0.8509161 0.28448465 1.0128368 0.6912762 1.1686827 0.7860024 0.7444673
0.9145373 0.98926926 0.6602946 0.6029667 0.78970224 0.89943415 0.4840833 0.7382317
0.6710953 0.8310003 0.8797637 1.2555482 0.56281704 0.72197115 0.36255807 0.7210426
0.8505804 1.0156314 0.31383884 0.048756666 0.7100321 1.027108 0.8770579 1.0927969
1.0011082 0.9978271 0.52582365 0.5334306 0.6724573 0.6352284 0.42627963 0.5097873
1.1383929 0.9343231 0.7363978 0.6191795 0.96572196 0.46703255 0.92919135 0.6074725
0.6174828 0.44015318 0.98171294 0.7745796 0.969243 1.1311058 1.0994232 0.5174477
0.3864885 0.61853904 0.8843465 0.4092653 0.94536316 0.8041198 0.76165813 0.8485611
0.15032907 0.5542202 0.6365012 0.3114368 0.7090456 1.0370282 0.808269 0.5458331
0.67835605 0.77814686 0.8076078 0.595383 0.44641092 1.3123063 0.76790667 0.828195
0.70170665 0.71909 0.47016102 0.7495985 1.2370288 0.8104981 0.31614363 1.0279849
0.9449678 0.9818815 0.36039487 0.87420917 0.7415342 0.71413946 0.81813854 0.79149365
0.1737172 1.1563904 0.5017506 1.146982 0.93123853 0.58922637 0.8710554 0.78114545
0.52552617 0.2770997 0.94638044 1.0341218 0.45910746 0.99676317 1.1751467 0.8718232
0.65203696 1.0241653 0.9104705 1.632271 0.5614051 0.41586247 1.011546 0.814027
0.68380225 0.6353835 1.0487654 0.42594033 1.0502208 1.6169723 0.4033678 1.1269273
0.99529785 0.67716205 0.70798784 0.39800045 1.0385867 0.8594032 0.7380296 0.78064954
0.31023344 0.9349929 0.7367093 0.657175 0.8681904 0.7573576 0.6386672 0.57554793
0.37536946 0.7457449 0.35701558 0.28295496 0.97574997 0.18995884 0.476103 0.80746526
0.3383943 0.52656955 0.3798306 0.68158364 0.8061913 0.6662938 1.0546663 0.22972868
1.4755251 0.770723 0.6695159 0.36961445 0.8781951 0.6831216 0.731922 0.49180585
0.98795855 0.61183727 0.8843575 0.6625728 0.57379323 0.943925 1.2741417 0.82325727
0.6586358 0.54389405 1.4634311 0.725556 0.60629696 0.803184 1.020228 0.85588396
1.0179461 0.85133696 0.60376364 1.0820848 0.33223417 0.84516543 0.86910385 0.996149
00000000: 1f59 073f d385 963f 769f 3b3f 9714 383f
00000010: 184a 153f bdc5 663f b94a 7e3e a027 973e
00000020: a845 853d 0fb4 373f 45bd 9f3f 9d3c 413f
00000030: 320f 3b3f 5f69 503f 92f0 3b3f 67ac 333f
00000040: ba9f 153f 71b2 883f ba93 2b3f ec57 263f
00000050: 072c 953f ef37 303f 7bc4 0e3f 55a0 be3e
00000060: a250 1d3f 5bea 0b3f 60d9 cc3e 0b8f 5d3f
00000070: 93c0 1c3f 7b17 9c3f 8090 c53e ca80 2e3f
00000080: 16b0 523f 2be7 313f a121 143f 4bae 023f
00000090: e240 ed3e 770a 883f c0e0 473f 4f8c 773e
000000a0: 61c1 513f 8175 ce3e 17bb 623f 43dc 963d
000000b0: 115e 673f 25b5 223f 788f 473f 8567 753f
000000c0: 3eb2 003f 40e6 073f d94b 233e fcc0 133f
000000d0: 4dbe 483d 9802 833f bddf 973e 3a15 8f3f
000000e0: 873b 523f 734f 813e e591 663f 97ae a23f
000000f0: 43ef 933f cbb3 883f d6fa 7e3f bc0e 103f
00000100: 7e4a 033f a3d5 593f f9a7 913e a3a4 813f
00000110: 7af7 303f 6597 953f 7437 493f 6995 3e3f
00000120: 1e1f 6a3f c040 7d3f 1109 293f 075c 1a3f
00000130: ed29 4a3f 5141 663f c4d9 f73e c1fc 3c3f
00000140: e7cc 2b3f 70bc 543f 3238 613f ceb5 a03f
00000150: c714 103f 1ad3 383f 36a1 b93e 3f96 383f
00000160: a3bf 593f 3600 823f 7caf a03e 12b5 473d
00000170: aac4 353f 4678 833f de86 603f c5e0 8b3f
00000180: 5024 803f 9971 7f3f 619c 063f e88e 083f
00000190: 2926 2c3f 549e 223f 5341 da3e 6c81 023f
000001a0: dcb6 913f cc2f 6f3f 9184 3c3f 8c82 1e3f
000001b0: 8e39 773f e41e ef3e 7cdf 6d3f 5183 1b3f
000001c0: 5a13 1e3f c25b e13e 8a51 7b3f d94a 463f
000001d0: 4f20 783f 13c8 903f e6b9 8c3f 7477 043f
000001e0: d2e1 c53e 9358 1e3f 8864 623f 398b d13e
000001f0: 5203 723f ccda 4d3f 07fc 423f 4d3b 593f
00000200: ddef 193e 60e1 0d3f bef1 223f a574 9f3e
00000210: 0384 353f 57bd 843f b8ea 4e3f b8bb 0b3f
00000220: bea8 2d3f a234 473f 63bf 4e3f 056b 183f
00000230: f98f e43e a7f9 a73f 8895 443f 9604 543f
00000240: 0ca3 333f 4816 383f f2b8 f03e b0e5 3f3f
00000250: f656 9e3f ce7c 4f3f 94dd a13e 0295 833f
00000260: 69e9 713f 965c 7b3f ad85 b83e 2ccc 5f3f
00000270: 2fd5 3d3f d8d1 363f 8771 513f 549f 4a3f
00000280: ece2 313e 9a04 943f ba72 003f 4ed0 923f
00000290: a665 6e3f 8ad7 163f 7dfd 5e3f 26f9 473f
000002a0: e288 063f 03e0 8d3e fd45 723f 1a5e 843f
000002b0: 2210 eb3e df2b 7f3f 356b 963f ce2f 5f3f
000002c0: e5eb 263f d917 833f 9814 693f 42ee d03f
000002d0: 3fb8 0f3f edeb d43e 577a 813f 1364 503f
000002e0: aa0d 2f3f 7ea8 223f f23d 863f da14 da3e
000002f0: a36d 863f f3f8 ce3f 3986 ce3e 273f 903f
00000300: d7cb 7e3f 7e5a 2d3f b13e 353f b7c6 cb3e
00000310: 69f0 843f d901 5c3f 82ef 3c3f a6d8 473f
00000320: ebd6 9e3e b25b 6f3f fb98 3c3f 9f3c 283f
00000330: ba41 5e3f 30e2 413f b27f 233f 1c57 133f
00000340: 6d30 c03e 23e9 3e3f bfca b63e 79df 903e
00000350: c0ca 793f 9284 423e c6c3 f33e 0bb6 4e3f
00000360: 0542 ad3e 43cd 063f 2879 c23e 447c 2e3f
00000370: 8e62 4e3f 3b92 2a3f 4eff 863f ff3d 6b3e
00000380: 02de bc3f 1a4e 453f 6565 2b3f 1b3e bd3e
00000390: 65d1 603f 0fe1 2e3f 3d5f 3b3f facd fb3e
000003a0: daea 7c3f 5ea1 1c3f 4165 623f 5f9e 293f
000003b0: 1de4 123f 12a5 713f 1317 a33f fdc0 523f
000003c0: 5b9c 283f a43c 0b3f b651 bb3f 0abe 393f
000003d0: 4736 1b3f 779d 4d3f d596 823f 361b 5b3f
000003e0: 0f4c 823f 38f1 593f 4190 1a3f c181 8a3f
000003f0: 991a aa3e c35c 583f 977d 5e3f 9f03 7f3f

transformer.norm.bias f4 [1920]
0.1402146 -0.033179544 0.0783095 -0.2634601 0.11494506 -0.0035943692 -0.17167269 -0.17435421
0.18979266 -0.031681787 0.009611796 -0.08573493 0.06892413 0.033667173 0.06133817 -0.10430349
0.17027885 0.010034776 0.074067995 -0.1462751 0.026497139 -0.033987083 -0.03231281 -0.020334799
0.39624536 -0.0040470692 -0.03463024 -0.12384239 0.061268605 -0.1182496 0.0897923 -0.0019912815
0.075702146 0.021692548 0.2036858 -0.33265978 0.15417026 -0.09967979 0.04377286 -0.17780596
0.10764336 0.0072159152 -0.07759162 0.23473313 0.22126763 0.07257376 0.22810365 0.07260518
0.060238346 -0.045999035 -0.015649028 -0.05666484 -0.20293719 -0.019603994 -0.03703129 0.13510206
0.10267667 -0.039746378 -0.08691646 -0.15974237 0.17048742 -0.04767236 -0.029096585 -0.12929423
-0.09532006 -0.18166846 0.039625797 0.076441675 0.15229699 0.026773755 0.071566015 -0.040496312
-0.091119066 0.08782817 -0.017874252 -0.089994356 -0.099230535 0.11356139 0.10431012 -0.09305934
-0.0123389 -0.02062482 -0.32735708 -0.1221416 -0.09385718 -0.057552192 -0.014795935 -0.003923557
-0.16320468 0.115580134 -0.14768693 -0.02957312 -0.08677655 0.24997301 -0.15803143 -0.11638874
-0.07179986 0.20117797 0.07381175 -0.13676564 -0.0014147516 -0.07197402 -0.07540266 -0.043883394
-0.18599199 0.063800186 0.07116572 -0.091721974 -0.027869442 -0.07441862 0.09393407 0.15091905
0.07875681 0.29863945 -0.17226177 -0.022665227 0.11307317 -0.05371998 0.03370114 -0.050656058
0.049633037 0.14007083 -0.08656319 0.0059279376 -0.19910298 -0.08496391 -0.0038855888 0.14162922
0.13029031 -0.05745128 -0.07858595 0.026538841 -0.14538997 0.22089806 0.0063227327 0.03294177
0.19178504 0.06000706 -0.046550523 0.18506029 0.09835215 -0.08836554 -0.21459833 0.09972838
0.17457567 0.14238846 0.18408018 -0.2263183 0.005569556 -0.0004832698 0.18578526 0.048509713
-0.11706379 0.09538812 0.28117463 0.030453585 -0.051293474 -0.15484901 0.09933225 0.060256556
0.16120933 -0.041807376 0.1804854 -0.029118381 -0.035901204 -0.14883144 -0.13615675 0.112002514
0.07213641 0.054373976 0.0486621 0.24323677 0.025922162 0.03603681 -0.057370696 -0.123712994
0.28045 0.079869315 -0.11521899 0.26834276 -0.18168524 -0.09572847 0.09094468 0.14797479
-0.047613766 -0.07321052 0.04767002 0.27073103 0.069692135 0.011628747 0.060588434 0.102691494
0.15304913 -0.05515899 0.07258054 -0.18873182 0.2368898 0.2324684 0.09465412 -0.047171578
-0.037358318 -0.031101445 0.079487324 0.08568803 0.07876895 0.013689155 -0.35859564 -0.16716918
-0.040974375 -0.07723622 0.04939989 -0.07138416 -0.09723649 -0.13101113 0.17295066 0.0015857825
-0.15742992 -0.2041606 0.07257518 -0.013745948 -0.014130922 0.096310206 -0.027010016 -0.02093962
-0.018450154 -0.12057334 0.0891659 -0.020595988 0.018467555 -0.26258516 0.10734734 -0.0035289607
-0.22392197 -0.08290335 0.13103524 0.08071415 -0.07475072 -0.103571914 0.07511791 -0.16072331
0.087281436 -0.028812217 -0.015704192 -0.10585028 0.08429486 0.12928572 0.07035979 -0.2725489
0.060764264 -0.03139598 0.031625647 0.073065095 -0.2601996 -0.09662612 0.030902594 0.18402436
00000000: 6b94 0f3e 46e7 07bd bb60 a03d 3ee4 86be
00000010: 5168 eb3d 828f 6bbb f7ca 2fbe e989 32be
00000020: 0259 423e c3c4 01bd cb7a 1d3c cc95 afbd
00000030: 1828 8d3d 97e6 093d bc3d 7b3d 119d d5bd
00000040: 945d 2e3e e768 243c f6b0 973d 24c9 15be
00000050: 8710 d93c 0a36 0bbd 705a 04bd 2a95 a6bc
00000060: ace0 ca3e 479d 84bb 70d8 0dbd 14a1 fdbd
00000070: caf4 7a3d d92c f2bd 06e5 b73d 2980 02bb
00000080: ba09 9b3d 92b4 b13c 0393 503e 6252 aabe
00000090: cfde 1d3e eb24 ccbd 2c4b 333d c412 36be
000000a0: 1f74 dc3d 7c73 ec3b 5be8 9ebd e25d 703e
000000b0: fb93 623e 8da1 943d 0194 693e 06b2 943d
000000c0: 7cbc 763d 7c69 3cbd 6432 80bc 6419 68bd
000000d0: c4ce 4fbe 8e98 a0bc 1fae 17bd 3258 0a3e
000000e0: 2548 d23d 19cd 22bd 4201 b2bd 8193 23be
000000f0: 4194 2e3e 1844 43bd f65b eebc b565 04be
00000100: 2a37 c3bd 4c07 3abe a94e 223d 748d 9c3d
00000110: bef3 1b3e a254 db3c 3491 923d 76df 25bd
00000120: a29c babd 41df b33d 066d 92bc f64e b8bd
00000130: 6139 cbbd e092 e83d 8ba0 d53d e595 bebd
00000140: 1929 4abc 62f5 a8bc 599b a7be 6025 fabd
00000150: 3138 c0bd d9bb 6bbd a66a 72bc 2e91 80bb
00000160: 211f 27be 47b5 ec3d 3e3b 17be 5443 f2bc
00000170: e7b7 b1bd edf8 7f3e fed2 21be 385d eebd
00000180: ce0b 93bd 9901 4e3e 9d2a 973d 4b0c 0cbe
00000190: 306f b9ba 1d67 93bd b66c 9abd 13bf 33bd
000001a0: af74 3ebe aca9 823d 55bf 913d bbd8 bbbd
000001b0: 754e e4bc ca68 98bd 8160 c03d 868a 1a3e
000001c0: 404b a13d 45e7 983e 6465 30be 6dac b9bc
000001d0: e892 e73d 7b09 5cbd 350a 0a3d ba7c 4fbd
000001e0: 034c 4b3d ba6e 0f3e 0b48 b1bd 253f c23b
000001f0: a7e1 4bbe 8f01 aebd 5da5 7ebb 4007 113e
00000200: d36a 053e 0952 6bbd acf1 a0bd fc67 d93c
00000210: 1ce1 14be 1a33 623e ed2e cf3b f3ed 063d
00000220: 4c63 443e f7c9 753d c3ab 3ebd 7280 3d3e
00000230: da6c c93d fef8 b4bd aabf 5bbe 653e cc3d
00000240: f7c3 323e 48ce 113e 847f 3c3e fcbf 67be
00000250: d280 b63b 605f fdb9 7e3e 3e3e 1fb2 463d
00000260: 24bf efbd d95a c33d 1ff6 8f3e cc79 f93c
00000270: 1b19 52bd bd90 1ebe b56e cb3d 94cf 763d
00000280: 0f14 253e 363e 2bbd 2ad1 383e ac89 eebc
00000290: 240d 13bd 4567 18be ad6c 0bbe 9361 e53d
000002a0: 41bc 933d 3fb7 5e3d e951 473d 0f13 793e
000002b0: b75a d43c 569b 133d 89fd 6abd 3d5d fdbd
000002c0: 2497 8f3e 8692 a33d eff7 ebbd 3964 893e
000002d0: b20b 3abe 4a0d c4bd 3441 ba3d b486 173e
000002e0: a706 43bd 66ef 95bd a441 433d 429d 8a3e
000002f0: c0ba 8e3d 8086 3e3c 942b 783d eb4f d23d
00000300: e9b8 1c3e 65ee 61bd 1ba5 943d ea42 41be
00000310: 3d93 723e 320c 6e3e 05da c13d fc36 41bd
00000320: 0905 19bd 75c8 febc 40ca a23d 357d af3d
00000330: 9e51 a13d 7a48 603c d999 b7be 662e 2bbe
00000340: bfd4 27bd 062e 9ebd 8a57 4a3d dc31 92bd
00000350: ed23 c7bd c827 06be fa19 313e 08da cf3a
00000360: 4f35 21be 7a0f 51be 4ca2 943d af36 61bc
00000370: 6285 67bc 493e c53d 1c44 ddbc 9189 abbc
00000380: c724 97bc 28ef f6bd 9d9c b63d ebb8 a8bc
00000390: 4549 973c 9071 86be ecd8 db3d 2346 67bb
000003a0: cd4b 65be 3bc9 a9bd 1a2e 063e 764d a53d
000003b0: e816 99bd 831d d4bd 6bd7 993d a794 24be
000003c0: 9cc0 b23d 9907 ecbc 14a6 80bc 08c8 d8bd
000003d0: c9a2 ac3d 7a63 043e cb18 903d 888b 8bbe
000003e0: f3e3 783d 1299 00bd e589 013d 27a3 953d
000003f0: e238 85be eae3 c5bd 7027 fd3c e270 3c3e

transformer.norm.running_mean f4 [1920]
0.0006428981 -0.0017836716 -0.0024327592 -0.0010187478 0.0001356048 -0.00085548474 -0.0012309975 1.3422466e-05
0.00010093075 0.0017254078 0.00043108658 0.00065949577 -0.0005063648 -0.0020698877 -0.0017537364 -0.00033402815
4.9172253e-05 0.00042131473 -0.0022624845 -3.2860848e-05 -0.000995028 -0.00013440762 -0.00063304766 0.0009521492
-0.00019882913 0.0009962245 -0.0002209457 -4.4530134e-05 0.000988687 -0.00026529707 -0.00080001866 1.6649448e-05
-6.438335e-05 -0.00014512232 0.00019720015 0.0007574125 0.00076491485 0.0016123051 -0.00089703244 -0.00023120425
0.0009024037 0.0010763966 -0.0015001582 -0.00021097147 0.00067704765 -7.6385404e-05 -0.0012347866 0.0014587017
-0.00047710844 -1.817807e-05 -0.00032932183 -0.00033793488 5.4584725e-05 -0.0012828885 0.0004967323 0.0033396375
0.00035246997 0.00019894801 0.0013015112 0.0010241304 -0.0020303002 0.00095998193 -0.0006858115 0.0024701387
-9.3624374e-05 0.0022597245 0.00030788407 -0.0013778621 0.00027181496 0.0017721878 -0.0013947949 -0.00034791869
-0.0011390805 -0.0011673047 -0.00044001974 0.002237842 0.0026566905 -0.0008151774 0.00042442893 -0.0008167012
-0.0024469227 0.001462086 0.0007253534 -0.0018551379 0.00047284728 0.0008154524 0.00014894038 0.00044030906
0.0020785464 0.00090995844 0.0002773115 -0.00011501915 0.0008718526 -0.00070909335 -0.00029387197 0.000138899
0.0004776632 -0.0015167441 -0.000394015 -0.00023717771 0.0004942356 -0.002011673 9.495623e-05 0.0002457804
-0.0019332749 -0.00044681813 -0.00087864144 0.0010867291 0.0013659922 -1.6145663e-05 -0.0010435836 0.00027069563
0.000502769 -0.00063332694 -0.00028908133 -0.0011011419 -0.00025853133 0.00045727164 0.0008703442 0.0011902319
-6.386205e-05 -0.0011238186 0.0011121257 0.0009876634 0.0005301052 0.0014871035 -0.000995007 -0.0010096121
7.2660885e-05 0.00023716323 -0.00022542116 3.585738e-05 0.0011673269 0.00026202432 0.003703034 0.000777417
-0.00019566187 0.00034316257 0.00045064604 3.071013e-05 0.0008756163 0.00025188716 -0.0013840062 -3.256343e-05
-0.0015600886 0.0018604783 0.0010370624 0.0002558707 -0.0021736915 -0.00011463518 -0.000101366386 -0.0011323306
-0.001125781 0.0010922682 -0.0007330551 0.0013451655 0.0016129538 0.0011450849 0.00094112457 -0.003081194
0.00033488212 0.00069469115 -0.0006770123 -0.0005809464 0.0013177864 0.000964229 1.2234765e-05 -0.0013512674
-0.0009308346 -0.00022836358 0.0011422855 0.0015775987 -0.0011762655 -0.003791434 0.0008707847 -0.00040632233
0.0012297656 -0.0017739797 0.0005261634 0.0110466005 0.0010301165 -0.00067641755 0.0007038775 -0.0016102901
0.0014825787 0.0007659157 0.00075398525 3.0686046e-05 -0.0012967845 -0.002454478 0.0011524225 0.0039763628
-0.0017802911 0.00090654974 -0.00020136572 0.0011007669 -0.0010099375 0.0014634444 -0.0020876438 -0.00068176206
0.00084624346 -0.0038902783 -0.0015312061 0.0003499003 -0.0039151837 0.001057166 0.00044406368 0.001061335
-0.0001623529 -0.00049223343 0.00058502995 -0.0003828056 -0.0008833533 0.0010181041 0.0009068423 0.00045468792
-0.00014569006 0.0003485646 -0.00084360846 0.00077180896 -0.0013644685 0.0001768091 -0.0012424767 9.6300755e-05
-0.0011014973 -2.7642727e-05 0.0009445559 0.00022002457 0.00017246256 0.00027550166 0.00059885025 0.0019732083
0.0023490859 -5.6532677e-05 0.0014641532 -0.001120946 -0.0004788113 0.00068890705 0.0006652002 0.00011314939
0.0006008456 0.0008202203 0.006864093 0.0026525257 -0.0003599588 -0.00056209194 -0.0013034579 0.001278801
0.00035487534 -0.0016201024 -0.00034123508 -0.0011050488 -5.5664856e-05 0.0015876965 -4.3180344e-06 -0.0009615998
00000000: 2988 283a 16ca e9ba ed6e 1fbb 8187 85ba
00000010: 2331 0e39 9c42 60ba 6c59 a1ba 0d31 6137
00000020: c9aa d338 1427 e23a 7603 e239 03e2 2c3a
00000030: 91bd 04ba f4a6 07bb a1dd e5ba 8020 afb9
00000040: 4e3e 4e38 e8e3 dc39 3146 14bb 11d4 09b8
00000050: 996b 82ba c5ef 0cb9 1cf3 25ba a799 793a
00000060: ca7c 50b9 bf93 823a a9ad 67b9 dec5 3ab8
00000070: d596 813a 9217 8bb9 58b8 51ba 6baa 8b37
00000080: 8c05 87b8 fa2b 18b9 83c7 4e39 188d 463a
00000090: 9184 483a fb53 d33a d426 6bba 6b6f 72b9
000000a0: 4a8f 6c3a e015 8d3a f5a0 c4ba 3938 5db9
000000b0: e67b 313a 1a31 a0b8 90d8 a1ba e831 bf3a
000000c0: 6924 fab9 1c7d 98b7 d4a8 acb9 da2c b1b9
000000d0: e7f1 6438 9826 a8ba 2437 023a d2dd 5a3b
000000e0: b8cb b839 b39c 5039 7897 aa3a 1d3c 863a
000000f0: c90e 05bb 4ca7 7b3a 08c8 33ba 0de2 213b
00000100: 3458 c4b8 e317 143b 806b a139 6199 b4ba
00000110: 6382 8e39 c148 e83a 8dd1 b6ba db68 b6b9
00000120: 334d 95ba 3f00 99ba 73b2 e6b9 c2a8 123b
00000130: df1b 2e3b a1b1 55ba e385 de39 e417 56ba
00000140: 8d5c 20bb 77a3 bf3a a525 3e3a 1928 f3ba
00000150: 7de8 f739 16c4 553a e12c 1c39 48d9 e639
00000160: 3938 083b 478a 6e3a 1f64 9139 7036 f1b8
00000170: 0a8d 643a 73e2 39ba d412 9ab9 6ba5 1139
00000180: df6e fa39 7dcd c6ba cc93 ceb9 e8b2 78b9
00000190: 978f 013a 46d6 03bb 3d23 c738 16dc 8039
000001a0: f165 fdba ea42 eab9 a154 66ba 9470 8e3a
000001b0: 180b b33a 8c70 87b7 dbc8 88ba 27ec 8d39
000001c0: 42cc 033a da05 26ba d78f 97b9 3154 90ba
000001d0: 7d8b 87b9 f6bd ef39 d027 643a 8e01 9c3a
000001e0: aded 85b8 184d 93ba bfc4 913a 7c74 813a
000001f0: c2f6 0a3a eaea c23a e56a 82ba f654 84ba
00000200: 8461 9838 05af 7839 085f 6cb9 9265 1638
00000210: fe00 993a 4f60 8939 9aae 723b 92cb 4b3a
00000220: 952a 4db9 80ea b339 b044 ec39 c0ce 0038
00000230: 9d89 653a b90f 8439 8b67 b5ba b794 08b8
00000240: e37b ccba 4bdb f33a 0aee 873a 6226 8639
00000250: 7e74 0ebb 4b68 f0b8 aa94 d4b8 b66a 94ba
00000260: f18e 93ba 702a 8f3a 7f2a 40ba 4450 b03a
00000270: c069 d33a ac16 963a cdb5 763a dbed 49bb
00000280: 1e93 af39 ef1b 363a 8779 31ba a74a 18ba
00000290: 93b9 ac3a 50c4 7c3a ea43 4d37 031d b1ba
000002a0: 4103 74ba e274 6fb9 beb8 953a 6ec7 ce3a
000002b0: ec2c 9aba b579 78bb 5f45 643a a907 d5b9
000002c0: 1630 a13a e284 e8ba 3aee 093a cdfc 343c
000002d0: f904 873a 9d51 31ba 6b84 383a 5f10 d3ba
000002e0: 1653 c23a bcc7 483a 18a7 453a e4b4 0038
000002f0: def8 a9ba 4fdb 20bb e20c 973a 264c 823b
00000300: a858 e9ba 86a5 6d3a b325 53b9 9c47 903a
00000310: e15f 84ba 0cd1 bf3a dad0 08bb 47b8 32ba
00000320: 70d6 5d3a 0af4 7ebb c0b2 c8ba d372 b739
00000330: f14a 80bb 9b90 8a3a 38d1 e839 7e1c 8b3a
00000340: 463d 2ab9 3a09 01ba b25c 193a 4cb3 c8b9
00000350: d690 67ba e871 853a 28b9 6d3a 2e63 ee39
00000360: 61c4 18b9 8cbf b639 9b25 5dba 3953 4a3a
00000370: f7d7 b2ba d565 3939 9ada a2ba 13f5 c938
00000380: 1e60 90ba 4ee2 e7b7 139c 773a 65b6 6639
00000390: 11d7 3439 3571 9039 29fc 1c3a f150 013b
000003a0: 1ff3 193b 801d 6db8 d4e8 bf3a b5ec 92ba
000003b0: f708 fbb9 c597 343a d460 2e3a 9e4a ed38
000003c0: 1182 1d3a 0d04 573a 2fec e03b ffd5 2d3b
000003d0: dab8 bcb9 5a59 13ba cad8 aaba 719d a73a
000003e0: 900e ba39 9e59 d4ba cce7 b2b9 49d7 90ba
000003f0: af79 69b8 411a d03a a2e3 90b6 df13 7cba

transformer.norm.running_var f4 [1920]
0.4534163 0.76597863 0.47960463 0.52965164 0.51799536 0.6300074 0.37012208 0.4158517
0.3965655 0.5342192 0.8961437 0.6084229 0.50632757 0.5526518 0.53691906 0.5168892
0.48264 0.7378367 0.5457819 0.5284246 0.77482384 0.51005214 0.48058 0.38322666
0.4605881 0.45036423 0.42395905 0.5788987 0.44643342 0.8459123 0.38567543 0.5055233
0.5945197 0.52285755 0.42069307 0.44180152 0.414939 0.76212496 0.6095 0.4114827
0.59016806 0.3731508 0.5548301 0.39185503 0.6399976 0.5861963 0.55597013 0.6585304
0.4656078 0.41702163 0.41364348 0.47836968 0.4158698 0.70367783 0.39780465 0.82893836
0.569 0.41664404 0.63683945 0.90046597 0.7631298 0.72915506 0.6736511 0.4700017
0.47470272 0.5443379 0.3886445 0.69199914 0.53149 0.76221186 0.56307465 0.49643254
0.6368918 0.67370725 0.4981411 0.43885505 0.56766725 0.6507586 0.4142603 0.5858684
0.47559035 0.6234014 0.63387215 0.9243512 0.4981548 0.5192642 0.44141018 0.48677623
0.56990165 0.7187002 0.35699677 0.4063874 0.48064235 0.6065955 0.6411478 0.71782106
0.6957259 0.7233892 0.43230554 0.4802731 0.50603175 0.51987547 0.43886304 0.45440468
0.74019164 0.6369689 0.5604005 0.5208094 0.67553765 0.4274313 0.6413951 0.46814263
0.4303546 0.42395905 0.6916743 0.525932 0.60244435 0.7825357 0.7793033 0.42990944
0.40244627 0.51575005 0.66793185 0.4261725 0.6688504 0.57988405 0.5278612 0.6333799
0.37579304 0.38514724 0.5238831 0.42196804 0.5164521 0.6893087 0.5053476 0.45210415
0.47038272 0.55831844 0.6001611 0.5382366 0.44165358 1.0812333 0.53499097 0.623119
0.458686 0.48731852 0.41070896 0.5788991 0.8438162 0.59109396 0.41929144 0.71020716
0.68956864 0.73665345 0.37385795 0.61948615 0.58145446 0.51703364 0.58732486 0.56244886
0.41692352 0.8176229 0.47177127 0.95235866 0.638711 0.4979913 0.58571446 0.567929
0.43997803 0.37883404 0.68677056 0.76708615 0.42580196 0.7201069 0.8146411 0.61964065
0.466266 0.74883866 0.588031 1.1969222 0.4705427 0.46645704 0.77408814 0.6388099
0.49784383 0.514249 0.73860973 0.43974563 0.766451 1.1883324 0.39879155 0.6955063
0.70243514 0.45458868 0.49129465 0.37309387 0.73580086 0.65954524 0.5425542 0.59470665
0.38041103 0.6827346 0.55259585 0.50388914 0.5686248 0.5402854 0.48266348 0.47363874
0.3812374 0.5063926 0.39423108 0.47042286 0.6845267 0.35908005 0.44329438 0.6049721
0.35599133 0.4081621 0.41244313 0.5570138 0.5377212 0.49203363 0.7542958 0.39314035
1.0914526 0.61703956 0.4995518 0.41406906 0.6179412 0.5475537 0.552317 0.45112318
0.6209819 0.45577976 0.64308345 0.48496285 0.42877057 0.693997 1.0052489 0.6126206
0.5144085 0.4243576 0.9674869 0.46336374 0.5158672 0.5490439 0.7269391 0.64076406
0.6981028 0.5591141 0.5127574 0.80590785 0.41526458 0.62916845 0.6144841 0.6558184
00000000: 2e26 e83e 2d17 443f bd8e f53e 4097 073f
00000010: 589b 043f 2a48 213f a480 bd3e 84ea d43e
00000020: a20a cb3e 97c2 083f ac69 653f 9ac1 1b3f
00000030: af9e 013f 977a 0d3f 8773 093f da52 043f
00000040: 971c f73e dee2 3c3f 5db8 0b3f d646 073f
00000050: db5a 463f c792 023f 950e f63e 4936 c43e
00000060: 34d2 eb3e 2496 e63e 2911 d93e b532 143f
00000070: ec92 e43e b58d 583f 4077 c53e fa69 013f
00000080: 7132 183f fed9 053f 1565 d73e cf33 e23e
00000090: e272 d43e 9f1a 433f 3108 1c3f dcad d23e
000000a0: 4115 173f 9f0d bf3e 5809 0e3f 39a1 c83e
000000b0: e2d6 233f f610 163f 0f54 0e3f 7395 283f
000000c0: 2564 ee3e dc83 d53e 14c9 d33e dfec f43e
000000d0: e3ec d43e 3b24 343f 0dad cb3e 4e35 543f
000000e0: fca9 113f 5e52 d53e e907 233f f084 663f
000000f0: 795c 433f e8a9 3a3f 6674 2c3f 10a4 f03e
00000100: 3c0c f33e bb59 0b3f 69fc c63e db26 313f
00000110: bb0f 083f 5120 433f a925 103f 682c fe3e
00000120: 570b 233f 1478 2c3f 5a0c ff3e 9cb1 e03e
00000130: a452 113f 1e98 263f ed19 d43e 79fb 153f
00000140: 9480 f33e 3c97 1f3f 7245 223f 48a2 6c3f
00000150: 250e ff3e 80ee 043f 8400 e23e bc3a f93e
00000160: 13e5 113f bcfc 373f 48c8 b63e 0212 d03e
00000170: c116 f63e d849 1b3f 4322 243f 1fc3 373f
00000180: 181b 323f 0930 393f 2757 dd3e 5be6 f53e
00000190: 4c8b 013f 8f16 053f a8b2 e03e bba7 e83e
000001a0: 337d 3d3f 6510 233f 6876 0f3f c453 053f
000001b0: 09f0 2c3f 46d8 da3e 7832 243f 64b0 ef3e
000001c0: 7057 dc3e 2911 d93e 9111 313f 7ba3 063f
000001d0: cb39 1a3f 4254 483f 6c80 473f 171d dc3e
000001e0: 700d ce3e 3208 043f 95fd 2a3f 4833 da3e
000001f0: c839 2b3f 4873 143f e921 073f 2f25 223f
00000200: f267 c03e 0532 c53e 341d 063f 320c d83e
00000210: 3436 043f 8976 303f 765e 013f 327a e73e
00000220: 01d6 f03e f5ed 0e3f 28a4 193f e0c9 093f
00000230: 6b20 e23e da65 8a3f 2bf5 083f ba84 1f3f
00000240: e4d8 ea3e d081 f93e 7248 d23e bb32 143f
00000250: 5704 583f ef51 173f 5ead d63e 23d0 353f
00000260: 9287 303f 5295 3c3f 4f6a bf3e a596 1e3f
00000270: 33da 143f 515c 043f ec5a 163f a6fc 0f3f
00000280: 0077 d53e bc4f 513f 018c f13e c7cd 733f
00000290: 9082 233f b7f8 fe3e 62f1 153f cc63 113f
000002a0: cd44 e13e 89f6 c13e 32d0 2f3f c25f 443f
000002b0: b702 da3e ed58 383f 528c 503f c5a0 1e3f
000002c0: 6bba ee3e e4b3 3f3f 3389 163f bf34 993f
000002d0: f9ea f03e 75d3 ee3e a42a 463f 0c89 233f
000002e0: 63e5 fe3e d3a5 033f 8715 3d3f 5726 e13e
000002f0: 2236 443f 471b 983f 682e cc3e b30c 323f
00000300: cad2 333f d9bf e83e f98a fb3e 2906 bf3e
00000310: 725d 3c3f f5d7 283f d5e4 0a3f b23e 183f
00000320: 3cc5 c23e b2c7 2e3f ec76 0d3f e1fe 003f
00000330: 6591 113f 2550 0a3f ab1f f73e c780 f23e
00000340: 8c31 c33e f2a2 013f a8d8 c93e 44db f03e
00000350: 243d 2f3f 57d9 b73e 7bf7 e23e 74df 1a3f
00000360: 7f44 b63e 9ffa d03e bf2b d33e 7598 0e3f
00000370: 19a8 093f d5eb fb3e 8819 413f b149 c93e
00000380: b8b4 8b3f 4ef6 1d3f 41c5 ff3e dc00 d43e
00000390: 6531 1e3f 7b2c 0c3f a664 0d3f 9ef9 e63e
000003a0: abf8 1e3f f75b e93e 1ea1 243f 0d4d f83e
000003b0: d187 db3e caa9 313f ffab 803f b4d4 1c3f
000003c0: 47b0 033f 6645 d93e 39ad 773f 033e ed3e
000003d0: df0f 043f 248e 0c3f ae18 3a3f 1d09 243f
000003e0: ddb6 323f 1a22 0f3f 1244 033f fa4f 4e3f
000003f0: 8f9d d43e 2f11 213f d44e 1d3f b7e3 273f
