xls_r_sqa/models/sqa-v2/xls-r-1b/model_1b_lay41_full.pt (torch, 425869 bytes, 67 tensors)

norm_input.weight f4 [1280]
0	0x3f024400	0.5088501
1	0x3f6965b8	0.91170835
2	0x3f042491	0.51618296
3	0x3e098293	0.13428716
4	0x3f422164	0.758322
5	0x3ed285c3	0.41117677
6	0x3f1732ec	0.59062076
7	0x3efdd544	0.4957677
8	0x3f3387ae	0.70128906
9	0x3f359271	0.70926577
10	0x3f2f5ae7	0.6849808
11	0x3f2ac8ae	0.6671246
12	0x3f079aa1	0.5297032
13	0x3f33a8f3	0.7017967
14	0x3f4807f0	0.7813711
15	0x3ee456b1	0.4459739
16	0x3f1a9341	0.6038094
17	0x3f6fa895	0.9361661
18	0x3f66c35d	0.9014185
19	0x3f1a1ef7	0.602035
20	0x3f33dcde	0.7025889
21	0x3f4d8aa4	0.80289674
22	0x3eccdb9a	0.40011293
23	0x3f3f5974	0.7474587
24	0x3f2c07f9	0.67199665
25	0x3f5e9f63	0.86961955
26	0x3f37501e	0.71606624
27	0x3f108b9a	0.56463015
28	0x3ee23185	0.44178405
29	0x3f124707	0.5713963
30	0x3f433d7c	0.7626569
31	0x3efeec36	0.4978959
32	0x3f2f6f67	0.6852936
33	0x3e9becf8	0.3045423
34	0x3ebaf800	0.36517334
35	0x3f45cd6d	0.7726658
36	0x3f356b98	0.708673
37	0x3ed6d46e	0.41958946
38	0x3f3f8a1a	0.748201
39	0x3f73ff59	0.95311505
40	0x3e99731d	0.29970637
41	0x3f45c8b3	0.7725937
42	0x3f1393be	0.5764731
43	0x3f4b6f38	0.7946658
44	0x3f7433ef	0.95391744
45	0x3f483e2f	0.78219885
46	0x3ef8ec08	0.48617578
47	0x3f1a5eaf	0.60300726
48	0x3ead5d01	0.3386002
49	0x3ec25d2e	0.37961715
50	0x3f070121	0.527361
51	0x3f3e9358	0.7444358
52	0x3ee65a14	0.449906
53	0x3f1ccf17	0.61253494
54	0x3ed5358d	0.41642419
55	0x3f5ba124	0.85792756
56	0x3f3c78e4	0.73621964
57	0x3f0d47b2	0.55187523
58	0x3f0b7206	0.5447086
59	0x3e775599	0.24153747
60	0x3f8d0660	1.101757
61	0x3f355c07	0.7084355
62	0x3f2889c1	0.65835196
63	0x3f13628b	0.5757224
64	0x3f4f2070	0.8090887
65	0x3f1b786d	0.6073063
66	0x3f67a0c8	0.9047971
67	0x3f128aaa	0.57242835
68	0x3f630c7b	0.8869092
69	0x3f6181cb	0.88088673
70	0x3f76fb78	0.9647746
71	0x3f073e45	0.5282939
72	0x3f01ee08	0.5075383
73	0x3f1cbc9f	0.6122531
74	0x3e8af4be	0.27139848
75	0x3eea7e26	0.4579937
76	0x3ee57fa5	0.44823948
77	0x3f0f4fab	0.5598094
78	0x3f460fe0	0.77367973
79	0x3f3609c6	0.71108663
80	0x3f1c499c	0.6104982
81	0x3f661b26	0.89885175
82	0x3f1395e4	0.5765059
83	0x3f185430	0.5950346
84	0x3f05b755	0.5223287
85	0x3f563ebc	0.83689475
86	0x3f347560	0.704916
87	0x3f31a753	0.6939594
88	0x3f284893	0.6573574
89	0x3fb1ce2d	1.3891045
90	0x3f4362ab	0.7632243
91	0x3f46d159	0.7766319
92	0x3f0462a4	0.51713014
93	0x3e8e96e0	0.27849483
94	0x3f0093eb	0.50225705
95	0x3f39a3d0	0.72515583
96	0x3ee61d8e	0.44944423
97	0x3ef09825	0.46991077
98	0x3e57fbff	0.21092223
99	0x3f2687e2	0.6505109
100	0x3f0622cc	0.52396846
101	0x3f00fc14	0.5038464
102	0x3f3e0cec	0.7423847
103	0x3f40b999	0.752832
104	0x3f804ab6	1.00228
105	0x3f0b90dd	0.5451792
106	0x3ef42239	0.4768236
107	0x3efd5aa5	0.4948322
108	0x3f6ade6e	0.9174565
109	0x3f3cc510	0.73738194
110	0x3f23f13f	0.6403999
111	0x3f6ff8ff	0.9373931
112	0x3f017e24	0.505831
113	0x3ef5a950	0.47980738
114	0x3f040c3f	0.51581186
115	0x3f138505	0.57624847
116	0x3f3522e2	0.7075635
117	0x3eb41561	0.3517256
118	0x3eedb892	0.46429878
119	0x3f15d74d	0.5853165
120	0x3f7217ce	0.94567573
121	0x3f23da45	0.6400493
122	0x3f0027d6	0.50060785
123	0x3f2afc61	0.6679135
124	0x3f189023	0.59594935
125	0x3f264af7	0.6495814
126	0x3eb57bc8	0.35446
127	0x3f1f4801	0.62219244
128	0x3ec382f0	0.38185835
129	0x3f357248	0.70877504
130	0x3f45f20b	0.77322453
131	0x3f3ed6cd	0.7454651
132	0x3f2a947d	0.66632825
133	0x3f319898	0.69373465
134	0x3f8def8a	1.1088727
135	0x3eb3e5e9	0.35136345
136	0x3f3d1a00	0.738678
137	0x3f84212f	1.0322627
138	0x3f1f1785	0.6214526
139	0x3f35860c	0.70907664
140	0x3ea92891	0.33038762
141	0x3f0efdcf	0.5585603
142	0x3f7a2c9b	0.9772431
143	0x3f082755	0.53185016
144	0x3f51a729	0.8189569
145	0x3f39d549	0.7259107
146	0x3ed1fd94	0.41013777
147	0x3f355535	0.7083314
148	0x3f7fe11f	0.9995288
149	0x3edecf44	0.43517506
150	0x3f282e3c	0.6569555
151	0x3f257e69	0.6464601
152	0x3f3482a5	0.7051185
153	0x3f1687e1	0.58801085
154	0x3f94374b	1.1579374
155	0x3f85a88a	1.0442059
156	0x3ea0ba92	0.31392342
157	0x3f760f04	0.9611666
158	0x3eda5f92	0.4265104
159	0x3efd22cd	0.49440613
160	0x3f3b5521	0.7317677
161	0x3f0421a2	0.5161382
162	0x3eddd2c8	0.43324876
163	0x3eb4a16a	0.352794
164	0x3f2edb8b	0.68303746
165	0x3f18dee7	0.5971512
166	0x3e96eb31	0.29476312
167	0x3eb1d676	0.34733933
168	0x3f20bb09	0.62785393
169	0x3f0941aa	0.5361582
170	0x3f6870c7	0.90797085
171	0x3f3d6dfe	0.7399596
172	0x3f20ad46	0.62764394
173	0x3f66a3ea	0.90093863
174	0x3e9dfca2	0.30856806
175	0x3f15b55a	0.58479846
176	0x3f36ed08	0.7145543
177	0x3eaa0646	0.3320791
178	0x3f341b72	0.7035438
179	0x3f4a867f	0.79111475
180	0x3f609b71	0.87737185
181	0x3ee840a3	0.45361814
182	0x3f215a75	0.6302865
183	0x3f1aa0eb	0.6040179
184	0x3f2024b1	0.62555987
185	0x3f66062d	0.89853173
186	0x3f33de11	0.7026072
187	0x3f2d495a	0.6769005
188	0x3eb691d9	0.35658148
189	0x3f12617d	0.57180005
190	0x3f7d6be9	0.9899278
191	0x3f12ed9f	0.5739383
192	0x3f0f0884	0.5587237
193	0x3f0dd159	0.55397564
194	0x3f0f607e	0.5600661
195	0x3eeec68d	0.46635857
196	0x3f130096	0.5742277
197	0x3efcf23e	0.49403566
198	0x3eb35478	0.35025382
199	0x3f1bc64b	0.60849446
200	0x3f29c446	0.66315114
201	0x3f577190	0.8415766
202	0x3ed58dc4	0.4170972
203	0x3f1b9dbd	0.60787565
204	0x3e94aa55	0.29036203
205	0x3f334a83	0.7003557
206	0x3f0912c4	0.5354426
207	0x3e949600	0.2902069
208	0x3f11fecf	0.5702943
209	0x3f660892	0.8985683
210	0x3efef7d1	0.49798444
211	0x3f36bfe4	0.7138655
212	0x3f193fc1	0.59862906
213	0x3f2fb029	0.68628174
214	0x3f0138ce	0.504773
215	0x3eb062c6	0.34450358
216	0x3f06fc0f	0.5272836
217	0x3f23eb54	0.6403096
218	0x3f2dd447	0.67902035
219	0x3ef0a03d	0.46997252
220	0x3f354e80	0.70822906
221	0x3f20f6ec	0.6287677
222	0x3f65a8e3	0.89710826
223	0x3f746e29	0.9548059
224	0x3f4eaa10	0.80728245
225	0x3ea880ba	0.3291071
226	0x3f7f26fa	0.9966885
227	0x3f311ae2	0.69181645
228	0x3ebeaa02	0.3723908
229	0x3f27da0d	0.65567094
230	0x3f7da629	0.99081665
231	0x3f221b33	0.6332275
232	0x3f3302de	0.6992625
233	0x3f21e77f	0.6324386
234	0x3ec4a968	0.38410497
235	0x3f24340b	0.6414191
236	0x3e9d549d	0.30728617
237	0x3f5652a6	0.8371986
238	0x3f3e6685	0.7437518
239	0x3ef2d762	0.4742995
240	0x3e9a49fd	0.30134574
241	0x3f69826b	0.9121463
242	0x3eec43c0	0.4614544
243	0x3ef728a2	0.48273188
244	0x3f53d0a0	0.8274021
245	0x3f220e15	0.6330274
246	0x3ef56909	0.47931698
247	0x3f174293	0.5908596
248	0x3ee108ec	0.4395212
249	0x3f4e205c	0.80518126
250	0x3f0972e5	0.5369094
251	0x3f1cbfe1	0.61230284
252	0x3f4a5319	0.79033047
253	0x3f4437ae	0.7664746
254	0x3f0b2041	0.5434609
255	0x3ecb9cbc	0.39768016

norm_input.bias f4 [1280]
0	0xbbe9e1d1	-0.007137515
1	0xbc22c048	-0.009933539
2	0xba4306c2	-0.00074396667
3	0x39555fb7	0.0002034892
4	0x3c244271	0.0100256065
5	0x3b1a8c7b	0.0023582268
6	0xba852c00	-0.0010160208
7	0xbbd00659	-0.006348413
8	0xbc89064f	-0.016726641
9	0xbb0d4771	-0.0021557475
10	0xbb597e6d	-0.0033186928
11	0xbbbb2763	-0.0057114824
12	0xbbd3ad16	-0.0064598424
13	0xbc45e2b5	-0.012077977
14	0xbb1abc40	-0.002361074
15	0xbb188157	-0.0023270452
16	0xbbf7eec1	-0.0075663035
17	0xbbd4e65a	-0.0064971866
18	0xbbc14b82	-0.005898894
19	0xbc119475	-0.008885493
20	0xbb67e1b7	-0.003538234
21	0xba82f55e	-0.0009991338
22	0xbbe1442f	-0.006874583
23	0xbc1f0a4b	-0.009707044
24	0x3af84349	0.0018940951
25	0x3b3e8eed	0.002907689
26	0x3b069469	0.0020535237
27	0xbb9e79c4	-0.004836293
28	0xbb375a8b	-0.0027977552
29	0x3babb3f8	0.00523996
30	0xbb9235b0	-0.0044619665
31	0x3ac78bbf	0.0015224143
32	0x3bead1ba	0.0071661146
33	0xbaa37bf8	-0.0012472859
34	0xba4eb663	-0.0007885454
35	0xbbe37f50	-0.006942667
36	0xbc0cfaf5	-0.008604755
37	0x3b242404	0.002504588
38	0x3c1ce01a	0.009574914
39	0x3b0dfedf	0.0021666808
40	0x39388042	0.00017595387
41	0xbbbfc2de	-0.0058520874
42	0x3a8193c1	0.0009885953
43	0x3a39966d	0.0007079605
44	0x3c80b8ea	0.015713174
45	0x3c01d255	0.007923682
46	0xbb50d7b9	-0.0031866862
47	0xbb7e1455	-0.0038769443
48	0xb9b089bd	-0.0003367196
49	0xbb04b848	-0.0020251442
50	0xbb330c97	-0.0027320737
51	0x3ba4a351	0.0050243516
52	0xba8354b0	-0.0010019746
53	0xbaf0cc85	-0.0018371498
54	0x3af3909b	0.0018582524
55	0x3c07ee06	0.008296495
56	0x3be224d5	0.0069013634
57	0x3b9894f4	0.0046564285
58	0xbaed361c	-0.0018097791
59	0xb953873c	-0.00020172907
60	0x3c9d95a9	0.019236403
61	0x3bbdcdc5	0.005792352
62	0xbafe3a64	-0.0019396064
63	0xba52ea68	-0.00080457935
64	0xbbe6e038	-0.007045772
65	0x3ab90be0	0.0014117919
66	0x3c1a25e4	0.009408448
67	0x3ba6030c	0.005066281
68	0x3be10ecf	0.0068682204
69	0x3c30d883	0.010793808
70	0x3c3fb7e3	0.011701557
71	0x3bc76d9d	0.006086065
72	0x3ac6fa09	0.0015180717
73	0xba3c54db	-0.00071842753
74	0x3839181a	4.4129883e-05
75	0xba802de3	-0.00097793
76	0x3a7d2382	0.0009656475
77	0x3bae960f	0.005327947
78	0x3c14995b	0.009069766
79	0xbbb21381	-0.005434454
80	0xbbfb1587	-0.0076624784
81	0xbb86cc2c	-0.0041136947
82	0xbb31308c	-0.0027036993
83	0x3c162ec8	0.009166427
84	0x3b93c737	0.0045098322
85	0x3a5b5e20	0.0008368213
86	0x3ba007b7	0.004883732
87	0xbb3fec0a	-0.0029284977
88	0xbb751c82	-0.0037401025
89	0xbd071f0b	-0.03298859
90	0x3b707040	0.0036688
91	0x3b6aec18	0.003584629
92	0x38c90ce1	9.586826e-05
93	0xba86d60e	-0.0010287182
94	0xba703f41	-0.0009164699
95	0x3b4ec62c	0.0031551225
96	0x3adef0ce	0.0017009021
97	0x3abf5ba7	0.0014599458
98	0x3a5d9472	0.0008452601
99	0xbb81a4f7	-0.003956433
100	0xb9ad2c3d	-0.0003303009
101	0xbbb65543	-0.005564363
102	0xb968b445	-0.000221924
103	0xbb1c043d	-0.0023806237
104	0xbae16ecb	-0.0017199157
105	0xb9bc07ce	-0.0003586397
106	0x38e27e06	0.000107999935
107	0x3b46d989	0.0030342063
108	0xbbc5ce5d	-0.0060365633
109	0xbcb4d08c	-0.0220721
110	0x39d15aca	0.0003993123
111	0xbba5b142	-0.005056531
112	0xbb797df7	-0.0038069466
113	0xba554605	-0.0008135739
114	0x3b9a9a9a	0.004718137
115	0xbaadaf89	-0.0013251166
116	0x3b9c7ca0	0.0047755986
117	0x3a93a298	0.0011263667
118	0xbac5209a	-0.0015039623
119	0xba591ecb	-0.00082824816
120	0xbbca913a	-0.006181863
121	0x3ad35a62	0.0016124959
122	0x3ae8a1ad	0.0017748378
123	0x3a58484c	0.0008250519
124	0x3bd4cf41	0.006494433
125	0xba381b67	-0.0007023126
126	0xb99bceb4	-0.0002971791
127	0x3c159ac4	0.009131137
128	0x391a5ab2	0.00014720371
129	0x3b28755c	0.0025704717
130	0x3b4af6c6	0.0030969842
131	0xbc9193dc	-0.0177707
132	0x3a1ba0e3	0.0005936755
133	0xb9d7dd41	-0.00041172843
134	0x3cd4ce89	0.02597739
135	0xbadb2c4e	-0.0016721578
136	0x3af36502	0.0018569531
137	0xbb08d39e	-0.0020878087
138	0xbb800bb6	-0.003907646
139	0x3a2aaf6e	0.00065111264
140	0x3acf7294	0.0015826994
141	0xbb7d8565	-0.0038684246
142	0x3a654b48	0.00087468745
143	0xba57d6b3	-0.0008233592
144	0xbb9c7752	-0.0047749663
145	0x3b066865	0.0020509001
146	0x3b0181b9	0.0019761159
147	0x3c2a94af	0.0104114255
148	0x3a782fde	0.0009467582
149	0x3acfae69	0.0015844825
150	0x3a1826d0	0.00058041234
151	0xb8d64d5b	-0.00010218724
152	0x3b5470bc	0.0032415828
153	0x3bb3db9e	0.005488827
154	0xbc192e4d	-0.009349418
155	0xbacb911d	-0.0015530918
156	0x39d7571e	0.00041072903
157	0xbb659ddb	-0.0035036716
158	0x3b4418ee	0.0029922086
159	0x3a857b4d	0.0010183841
160	0x3a9c35aa	0.0011917849
161	0xbb4ec677	-0.00315514
162	0xbb150d22	-0.0022743423
163	0x3ac247f3	0.0014822468
164	0xbbbe7beb	-0.005813112
165	0xbb1c0fc3	-0.0023813106
166	0xba8793c4	-0.001034372
167	0x3b04fc70	0.0020292066
168	0x3b839f49	0.004016791
169	0xbc84a8cf	-0.016193775
170	0xbc15ca13	-0.0091424165
171	0xbc8560a5	-0.016281435
172	0x3b2983bb	0.002586587
173	0xbc3544db	-0.01106378
174	0x39ec6624	0.00045089528
175	0x3bb3b22c	0.005483886
176	0x3a5261da	0.0008025445
177	0x3ad28e7d	0.0016064193
178	0x3c165925	0.009176527
179	0xbb1fee6e	-0.002440359
180	0xb8fafa0f	-0.00011967506
181	0xb838ffbf	-4.41072e-05
182	0xbbc57e08	-0.006026987
183	0x3b3f5480	0.0029194653
184	0xbb17d84f	-0.0023169701
185	0xbb30a86c	-0.0026955856
186	0xbacec938	-0.0015776521
187	0xbbbc32a7	-0.005743343
188	0xb9f4e594	-0.00046710356
189	0xb9e4bf76	-0.00043630198
190	0x3bdfb9eb	0.006827583
191	0xbb80f9ac	-0.003936013
192	0x3b00d1e2	0.001965635
193	0x3bc8d93c	0.006129412
194	0xba08fe80	-0.0005225912
195	0xbaf6c465	-0.0018826841
196	0xbb0ac03a	-0.0021171705
197	0x3b56b4b4	0.0032761516
198	0x3a64508e	0.00087095133
199	0xbb8ba222	-0.004261271
200	0x3be7be6e	0.0070722615
201	0xbb6b81cc	-0.003593552
202	0x3b39e752	0.0028366637
203	0x3b41bed1	0.0029563198
204	0xba3ab55a	-0.00071223604
205	0xbba6cea5	-0.005090552
206	0x39d5131a	0.00040640758
207	0x3a7a07d7	0.00095379114
208	0x3b19bc3e	0.0023458148
209	0xbb8ef84d	-0.004363096
210	0xb78af215	-1.656361e-05
211	0xbc2d3f9b	-0.010574247
212	0xbbcb7d69	-0.0062100184
213	0x3c04db24	0.008108888
214	0x3a93e111	0.0011282285
215	0x3b900b46	0.004395875
216	0x3a7edae6	0.00097219495
217	0x3c17d72d	0.0092676105
218	0xbb1b2572	-0.0023673442
219	0xb7caeff9	-2.4192022e-05
220	0xbb22bdef	-0.0024832448
221	0x3a22a53c	0.00062044314
222	0xbc1c26a3	-0.009530696
223	0x3c1cc141	0.00956756
224	0xbbedb24a	-0.0072539197
225	0x3a0d63cb	0.00053935935
226	0xbc3d00e5	-0.011535858
227	0xbb5aa37f	-0.0033361611
228	0xb9e4e201	-0.00043655935
229	0x3bdbe773	0.0067109405
230	0xbba839ea	-0.005133857
231	0x3bded82e	0.006800673
232	0xba9beaac	-0.0011895499
233	0xbb255d48	-0.0025232602
234	0xb7d8ea3f	-2.5858286e-05
235	0xbba34796	-0.004982899
236	0x3886ad69	6.421918e-05
237	0x3bdddbb4	0.0067705754
238	0xbae684ac	-0.0017587147
239	0x3ab27b83	0.0013617132
240	0xb952fbb2	-0.00020120924
241	0xbb9613c8	-0.004579995
242	0x3b843e88	0.0040357746
243	0xb98dc1ed	-0.00027038102
244	0xbb7871bf	-0.0037909595
245	0xbbf198f1	-0.0073729684
246	0xbb8ac6e8	-0.0042351373
247	0xba854223	-0.0010166805
248	0x3997f1a9	0.00028981015
249	0xb98f4324	-0.0002732511
250	0x3a31cb02	0.00067822647
251	0xbb856e19	-0.0040719626
252	0xbaf23934	-0.0018480183
253	0xb844e072	-4.6939072e-05
254	0xbb623d6d	-0.0034521476
255	0xb9f78baa	-0.0004721557

norm_input.running_mean f4 [1280]
0	0xbe5d2c73	-0.21598987
1	0xbeda34fa	-0.42618543
2	0xbdf992b9	-0.12186188
3	0x3f139ff9	0.57665974
4	0xbec1fc37	-0.37887737
5	0x3dfdafa1	0.12387014
6	0x3f75e476	0.9605173
7	0xbf072ee5	-0.5280593
8	0x3e4fea32	0.20304182
9	0x3d5164c3	0.051121484
10	0x3f3641d4	0.71194196
11	0x3d33beb6	0.043883048
12	0x3e9dfc17	0.30856392
13	0xbf8ca951	-1.0989171
14	0x3e87c48a	0.26517135
15	0x3f4f2aee	0.8092488
16	0xbef45c89	-0.4772685
17	0x3f7ea278	0.9946666
18	0x3f38c179	0.72170216
19	0x3eac3b03	0.33638772
20	0x3ee5061e	0.4473123
21	0xbcc8a55d	-0.024492914
22	0x3f5fcbea	0.87420523
23	0x3e88ea99	0.26741484
24	0x3cb10f20	0.021613657
25	0x3e682cbb	0.22673313
26	0xbe1801c0	-0.14844418
27	0x3eae364c	0.340258
28	0xbe686403	-0.22694401
29	0xbe8371c9	-0.2567275
30	0xbf0eca15	-0.557771
31	0x3f7dd6b5	0.9915574
32	0xbf37175e	-0.7152003
33	0xbf9ad989	-1.2097636
34	0xbe0e59dc	-0.13901466
35	0xbf02de0c	-0.51120067
36	0x3e692b0b	0.22770326
37	0x3f4e5cab	0.8061015
38	0xbf723355	-0.94609576
39	0xbd029973	-0.03188462
40	0xbe43894b	-0.19095342
41	0xbf133c67	-0.5751404
42	0xbe9e4317	-0.3091056
43	0xbf2227d6	-0.63342035
44	0xbe32784e	-0.17428705
45	0xbcb38002	-0.021911625
46	0x3d922d65	0.071375646
47	0xbf857894	-1.0427423
48	0xbf2268f8	-0.6344142
49	0x3f7dd1f1	0.9914847
50	0xbe140a6c	-0.144571
51	0x3f8c153e	1.0943983
52	0x3da1292a	0.078691795
53	0x3e5daaab	0.21647136
54	0x3f09b493	0.5379116
55	0x3f46e715	0.77696353
56	0xbf0372d4	-0.5134709
57	0xbf1433dc	-0.5789163
58	0x3f9acc44	1.2093587
59	0xbdb54bae	-0.088523254
60	0xbfb0b8fc	-1.3806453
61	0xbe722a05	-0.23648842
62	0xbf70e5ad	-0.9410046
63	0xbe8d88d4	-0.27643454
64	0xbe7b4e09	-0.24541487
65	0x3f3f1ac0	0.7465019
66	0x3f4c1ed5	0.79734546
67	0xbe5cafd1	-0.21551444
68	0xbefc8f8a	-0.49328262
69	0x3ef563b1	0.4792762
70	0x3f8cf623	1.1012615
71	0x3e4ed989	0.2020017
72	0x3f292fd7	0.6608862
73	0x3f5c40be	0.8603629
74	0x4026a1ff	2.6036375
75	0xbe88b57e	-0.26700968
76	0xbe1ad3fd	-0.1511993
77	0xbe31e02d	-0.17370673
78	0xbe24b5c3	-0.16084962
79	0x3f05a10b	0.5219886
80	0x3da864a2	0.08222319
81	0xbf10f1ee	-0.56619155
82	0xbe814ecb	-0.25255427
83	0x3e1e8751	0.15481307
84	0x3f916dd1	1.1361638
85	0x3eaf0a14	0.34187376
86	0xbe569c12	-0.20957974
87	0x40500196	3.2500968
88	0x3e1c9493	0.15291052
89	0xbf012f29	-0.50462586
90	0xbec49fb7	-0.38403103
91	0x3f265bd5	0.64983875
92	0xbe8c6c6c	-0.2742647
93	0xbfb1ac34	-1.3880677
94	0x3ee651b7	0.44984218
95	0x3ec59dfc	0.38597095
96	0x3e3891d0	0.18024373
97	0xbe5f5405	-0.21809395
98	0xbece71a6	-0.40321082
99	0x3f43e93a	0.7652775
100	0xbf670cc6	-0.90253866
101	0xbed801f5	-0.42188993
102	0xbefa990b	-0.48944888
103	0x3f469888	0.77576494
104	0x3e875c2f	0.26437518
105	0x3f227e35	0.63473827
106	0x3ed1186e	0.4083895
107	0xbf02a47e	-0.51032245
108	0x3dbdf517	0.09275263
109	0xbf9bb7ae	-1.216543
110	0x3e7cf9c4	0.24704653
111	0xbf91803e	-1.1367261
112	0x3f14fc3d	0.58197385
113	0x3f8af3ad	1.0855614
114	0x3ede2e3f	0.43394658
115	0x3e08773a	0.13326731
116	0x3f082b2c	0.53190875
117	0xbfbfa864	-1.4973264
118	0x3f0b76f0	0.5447836
119	0x3f492d59	0.7858482
120	0xbee4f16a	-0.44715434
121	0xbe365442	-0.1780558
122	0xbf275846	-0.6536907
123	0xbf3b19e4	-0.7308638
124	0xba6182ab	-0.000860254
125	0x3f4008ee	0.75013626
126	0xc059e857	-3.404806
127	0xbe18a997	-0.14908443
128	0xc00f219c	-2.2364264
129	0x3e8bcb82	0.27303702
130	0xbf626260	-0.8843136
131	0xbe981b19	-0.29708174
132	0x3edc75f9	0.43058756
133	0x3dc3fc70	0.09569633
134	0x3ed81bf6	0.42208833
135	0x3ea72461	0.32644942
136	0x3ea327de	0.31866354
137	0x3e27072f	0.16311334
138	0xbe293122	-0.16522649
139	0x3f00ef73	0.5036537
140	0x3e963aeb	0.29341826
141	0xbea205ad	-0.31644955
142	0xbeb845ee	-0.35990852
143	0x3f6644e7	0.89948887
144	0x3f1dadb6	0.61593187
145	0x3e127976	0.14304146
146	0xbeafbe85	-0.34325042
147	0x3ee93172	0.45545536
148	0xbe6135c4	-0.21993166
149	0xbf04a8ec	-0.51820254
150	0xbf2309c4	-0.63686776
151	0x3e9cb993	0.30610332
152	0xbf675640	-0.9036598
153	0x3e3017e9	0.17196621
154	0x3ddb37cb	0.10704001
155	0x3f2f74d7	0.6853766
156	0x3d49d66e	0.04927676
157	0xbe8e4208	-0.27784753
158	0xbf9d5863	-1.2292598
159	0xbe116aab	-0.14200847
160	0x3f0f7886	0.5604328
161	0x3e2d0c6b	0.16899268
162	0xbf0f696c	-0.56020236
163	0x3f8fae18	1.1225004
164	0xbf38321c	-0.7195146
165	0xbef392de	-0.47572988
166	0x3f5b34be	0.85627353
167	0x3fbcdc45	1.4754721
168	0x3eb8b22e	0.3607344
169	0xbd9018e4	-0.070359975
170	0x3c731b42	0.014838042
171	0x3eb0df73	0.34545478
172	0xbed48441	-0.41507152
173	0xbe070e47	-0.1318904
174	0x3f3c744e	0.73614967
175	0x3f67036c	0.90239596
176	0x3f51e0c5	0.81983596
177	0x3e4f1411	0.20222498
178	0xbeb8554b	-0.36002573
179	0x3e73cc7d	0.23808475
180	0xbeb5254b	-0.35380015
181	0x3e8191df	0.25306603
182	0xbecdd1f2	-0.40199238
183	0xbf288dbf	-0.6584129
184	0xbfdac807	-1.7092294
185	0x3da9cb6e	0.08290754
186	0xbee345fa	-0.44389325
187	0x3f5eb84e	0.86999977
188	0xbfc57328	-1.5425768
189	0x3f8074fb	1.00357
190	0x3ec07b48	0.37594056
191	0x3f0b44a1	0.54401594
192	0xbe0da9f5	-0.13834365
193	0x3e73e374	0.23817235
194	0x3f3b00a3	0.73047847
195	0xbf68a8b7	-0.9088244
196	0xbf3b5a3b	-0.73184556
197	0x3e0f7002	0.14007571
198	0xbdce171c	-0.100630015
199	0xbf872352	-1.0557654
200	0x3eae82d4	0.3408419
201	0xbe8c7b04	-0.27437603
202	0x3eb94ffd	0.3619384
203	0x3f5dfd29	0.86714417
204	0xbb7db201	-0.0038710835
205	0xbe76091b	-0.24026911
206	0xbe8f1da7	-0.2795231
207	0xbf3876d6	-0.7205633
208	0x3ef12e6f	0.4710574
209	0x3e64da3e	0.22348878
210	0xbd89750a	-0.067117766
211	0x3c345a52	0.011007862
212	0x3eec289f	0.4612474
213	0x3ebbe6eb	0.36699614
214	0x3e4ea22a	0.20179048
215	0x3f77c827	0.96789783
216	0xbe3073cf	-0.17231677
217	0x3e78e5ee	0.24306461
218	0x3d05ef5a	0.032698967
219	0x3e925b1e	0.28585142
220	0xbe8e08b9	-0.2774103
221	0x3ef67602	0.48136908
222	0xbf947f8a	-1.1601422
223	0x3e7c255c	0.24623626
224	0x3e369770	0.17831206
225	0xbf21f0ec	-0.6325824
226	0x3f952384	1.1651464
227	0x3fb2b7d0	1.3962345
228	0x3ec398a0	0.3820238
229	0x3e9d5fac	0.30737054
230	0xbe65ef64	-0.22454602
231	0xbcbc2dcb	-0.022971055
232	0xbe5afcac	-0.21385449
233	0x3fa448f1	1.283476
234	0x3ffa3a6a	1.9549077
235	0x3dfb6843	0.12275746
236	0xbda614f2	-0.08109464
237	0xbcc013bc	-0.02344691
238	0xbeded62e	-0.4352278
239	0x3e64da32	0.2234886
240	0x3f6223fb	0.8833615
241	0x3f5b4fdc	0.8566873
242	0x3f8979fc	1.0740352
243	0xbf4b8140	-0.79494095
244	0xbd300707	-0.04297545
245	0x3e821bde	0.25411886
246	0xbf774917	-0.965959
247	0x3f09d2df	0.5383739
248	0x3e93c033	0.28857574
249	0xbe417235	-0.18891223
250	0x3f074439	0.52838475
251	0xbbd4feed	-0.006500116
252	0xbe94b33d	-0.29042998
253	0x3e9336d5	0.2875277
254	0xbeccc222	-0.39991862
255	0xbf1c310b	-0.61012334

norm_input.running_var f4 [1280]
0	0x40073ac0	2.1129608
1	0x400b8836	2.1801887
2	0x4005146e	2.079372
3	0x4014e978	2.3267498
4	0x402e26df	2.7211225
5	0x3ff9ed79	1.9525596
6	0x4085fb28	4.1869087
7	0x4002db88	2.0446491
8	0x3fec821f	1.847721
9	0x3fee1e84	1.8603063
10	0x3ff7704d	1.9331146
11	0x401c62e6	2.4435363
12	0x407b1685	3.9232495
13	0x4075949d	3.8371956
14	0x3fdde7e4	1.7336392
15	0x3ff1f8f0	1.8904095
16	0x4018bc3f	2.3864896
17	0x40889980	4.268738
18	0x4037304c	2.8623228
19	0x401c1d03	2.4392707
20	0x403bd917	2.935125
21	0x3fc74fed	1.5571266
22	0x402ea635	2.7288945
23	0x402a9ea8	2.6659336
24	0x4001c700	2.027771
25	0x41091d9b	8.569728
26	0x41123737	9.13848
27	0x3fd479e0	1.6599693
28	0x3fcd91a6	1.6060073
29	0x4007a90e	2.1196933
30	0x413364d0	11.212112
31	0x4046891b	3.1021183
32	0x406b47ab	3.6762493
33	0x401b17a2	2.4233174
34	0x400ea76a	2.2289681
35	0x400966b9	2.1468947
36	0x407fa079	3.9941695
37	0x400d196f	2.2046773
38	0x402ee0ec	2.7324781
39	0x3fed0bd7	1.8519238
40	0x406494fd	3.5715935
41	0x40461540	3.095047
42	0x4014653b	2.3186786
43	0x3fe7e217	1.8115872
44	0x3fe7bc54	1.8104348
45	0x3fd73d1c	1.6815524
46	0x4033651e	2.8030467
47	0x4005c631	2.0902216
48	0x405a8145	3.41414
49	0x4009e444	2.1545572
50	0x402edf40	2.732376
51	0x40269d99	2.603369
52	0x3fdb70bf	1.7143782
53	0x405129fa	3.268187
54	0x4055abe0	3.3386154
55	0x401eb817	2.479986
56	0x400adb92	2.1696515
57	0x401f50aa	2.4892983
58	0x400730ec	2.112361
59	0x3fe90991	1.8206044
60	0x404145ea	3.0198922
61	0x4028eb4e	2.6393619
62	0x402303d3	2.5471084
63	0x4002bca1	2.042763
64	0x4012304f	2.2841985
65	0x403395dc	2.8060217
66	0x3ffc673a	1.9719002
67	0x4028e2ef	2.638851
68	0x3ff6b7d2	1.9274848
69	0x40644a8a	3.5670495
70	0x40415dc5	3.0213482
71	0x40451787	3.079561
72	0x408b920b	4.3615775
73	0x3ff43ca8	1.9081011
74	0x41a415d5	20.51066
75	0x4003412c	2.0508528
76	0x403925a9	2.8929236
77	0x3ff592c0	1.918541
78	0x3fc7ad23	1.5599712
79	0x400e4a1c	2.2232733
80	0x4039f0c0	2.9053192
81	0x40179285	2.3683178
82	0x3fce62ae	1.6123865
83	0x4023934b	2.555865
84	0x40383379	2.8781416
85	0x3fef5abf	1.8699569
86	0x40098376	2.1486487
87	0x40a0a1ec	5.019766
88	0x403c4450	2.9416695
89	0x400bdc86	2.1853347
90	0x40089a41	2.134415
91	0x40085511	2.130192
92	0x403564bc	2.8342733
93	0x402495d0	2.5716438
94	0x4013f488	2.3118
95	0x3fee27df	1.8605918
96	0x4053201e	3.2988353
97	0x3fffc8bc	1.9983134
98	0x40a1e4c6	5.0591764
99	0x3fe1078c	1.7580428
100	0x3fdb5a50	1.7136936
101	0x40279117	2.6182306
102	0x3fe7d706	1.8112495
103	0x403d1b09	2.954775
104	0x40322f99	2.7841551
105	0x4028444d	2.6291687
106	0x3fd49621	1.6608316
107	0x40378849	2.8676932
108	0x40089330	2.1339836
109	0x402f488c	2.738803
110	0x400cd240	2.2003326
111	0x401a25f4	2.4085665
112	0x405569e2	3.3345876
113	0x409431ee	4.631095
114	0x40060ce2	2.0945363
115	0x40012c5f	2.0183332
116	0x401a098a	2.4068322
117	0x405e7e8f	3.4764745
118	0x401acff8	2.4189434
119	0x3fc6f903	1.5544742
120	0x400d2365	2.2052853
121	0x3fe17f2d	1.7616936
122	0x40142a5e	2.315086
123	0x3fc79303	1.559174
124	0x3fb2180d	1.391359
125	0x3ff5ae47	1.919381
126	0x4128613b	10.523738
127	0x3ff43ee2	1.908169
128	0x420bb189	34.923374
129	0x3fc3eb04	1.5306096
130	0x409cb018	4.896496
131	0x403c1ed3	2.9393814
132	0x3fe615ff	1.7975463
133	0x402d62ae	2.709148
134	0x4037727d	2.8663628
135	0x402fef39	2.748976
136	0x40063e51	2.0975535
137	0x4006dcfa	2.1072373
138	0x3fe7c5c6	1.8107231
139	0x3fe31b24	1.7742658
140	0x3fee4f35	1.8617922
141	0x3ff4e5c3	1.9132618
142	0x40121a2e	2.282848
143	0x403e776f	2.9760396
144	0x3fe95eff	1.8232116
145	0x4027e296	2.6232047
146	0x4029528d	2.6456635
147	0x3fd87043	1.690926
148	0x3fd3f314	1.6558557
149	0x4078374f	3.8783758
150	0x3ff26b7c	1.8939052
151	0x3fff3c38	1.9940252
152	0x40068e78	2.1024456
153	0x4022145b	2.5324924
154	0x4004ae1d	2.073127
155	0x401e5b73	2.4743316
156	0x3fe048fa	1.7522271
157	0x400a5879	2.16165
158	0x400a56fd	2.1615593
159	0x40098c21	2.1491778
160	0x4000411d	2.0039742
161	0x4007175b	2.1108005
162	0x40ce9379	6.455502
163	0x4015e4dd	2.3420937
164	0x3fc885d9	1.5665847
165	0x4009dc99	2.1540892
166	0x3ff8864d	1.9415985
167	0x402097ac	2.5092573
168	0x400a9089	2.1650717
169	0x40138032	2.3046994
170	0x3fe3aa2a	1.7786305
171	0x40388270	2.8829613
172	0x4007704d	2.1162293
173	0x40283556	2.6282554
174	0x40460651	3.0941355
175	0x407c6e8a	3.9442468
176	0x4003a14f	2.0567205
177	0x400de55f	2.2171247
178	0x40318092	2.7734723
179	0x401ca1b3	2.4473693
180	0x40116278	2.271635
181	0x401a777f	2.4135435
182	0x4019d93c	2.403884
183	0x4039007e	2.890655
184	0x4032c900	2.793518
185	0x3fc684bd	1.5509259
186	0x400fae09	2.2449973
187	0x40475b8a	3.114962
188	0x3ff1d4d3	1.8893074
189	0x40739f89	3.8066123
190	0x3ff3c9ce	1.9045961
191	0x40384656	2.879293
192	0x3ffcc441	1.9747392
193	0x4016b025	2.354501
194	0x400e4f56	2.2235923
195	0x3ff395a4	1.9030042
196	0x400da00b	2.2128932
197	0x40275ae7	2.6149232
198	0x4015d09b	2.3408573
199	0x3ff037b7	1.8767003
200	0x40156ca8	2.3347569
201	0x3ff6774c	1.9255157
202	0x3fee5318	1.8619108
203	0x3ff1cfd1	1.8891546
204	0x4024df77	2.5761392
205	0x3fe2c07d	1.7714993
206	0x40040517	2.0628107
207	0x40121f0f	2.2831457
208	0x400868fc	2.1314077
209	0x40068862	2.1020741
210	0x3fd97756	1.6989543
211	0x3feb1c91	1.8368093
212	0x3fea0c2a	1.8284962
213	0x40097e00	2.1483154
214	0x3fcc5bfa	1.5965569
215	0x3fff27cf	1.9934024
216	0x3fd8cbcc	1.6937194
217	0x4014b27f	2.3233945
218	0x40635f0e	3.5526767
219	0x40150114	2.3281908
220	0x3ff72e6b	1.9311041
221	0x40074f8f	2.1142309
222	0x4014f3f7	2.3273904
223	0x3ff797db	1.9343218
224	0x3fb0d090	1.3813648
225	0x40400af8	3.0006695
226	0x400e7038	2.2255993
227	0x40034d34	2.051587
228	0x406b3cc2	3.6755834
229	0x3ff019d4	1.8757882
230	0x4002bd4c	2.0428038
231	0x40058a13	2.0865524
232	0x40059c7d	2.0876763
233	0x4041346e	3.018825
234	0x407e5db7	3.97447
235	0x3fd8aa7f	1.6927031
236	0x4012b274	2.292142
237	0x400517d0	2.0795784
238	0x406036c1	3.503342
239	0x3fead8cb	1.834741
240	0x407e992c	3.9780989
241	0x4076dcc8	3.8572254
242	0x403b688e	2.9282565
243	0x40093e2c	2.1444197
244	0x3fcaeec3	1.5854114
245	0x4113f7ae	9.247969
246	0x3fea42f8	1.8301687
247	0x3fbbbdc6	1.4667289
248	0x3fff4695	1.9943415
249	0x400a02c8	2.1564198
250	0x400f870b	2.2426174
251	0x40277c5d	2.6169655
252	0x404bfe26	3.187387
253	0x40883a00	4.25708
254	0x40167516	2.3508964
255	0x401803da	2.375235

transformer.norm.weight f4 [1280]
0	0x3f0a024e	0.53909767
1	0x3f7e8bb1	0.994319
2	0x3f02d451	0.5110522
3	0xbbd83ddd	-0.0065991716
4	0x3f427ad8	0.75968695
5	0x3e3aed28	0.1825453
6	0x3f3effce	0.74609077
7	0x3ee6e6d8	0.45097995
8	0x3f64989e	0.89295375
9	0x3f414ab9	0.7550464
10	0x3f275b62	0.65373814
11	0x3f15170e	0.58238304
12	0x3f096d33	0.5368225
13	0x3f30f34f	0.6912126
14	0x3f71cadc	0.94450164
15	0x3e8ab723	0.27092847
16	0x3f2fea09	0.68716484
17	0x3f8d373c	1.1032481
18	0x3f8e83ae	1.1133935
19	0x3f2504c0	0.6446037
20	0x3f4b614b	0.7944533
21	0x3f5671ba	0.8376728
22	0x3ed26ddf	0.4109945
23	0x3f56c5eb	0.8389575
24	0x3f31a410	0.69390965
25	0x3f89578e	1.0729845
26	0x3f547054	0.829839
27	0x3f1a43e9	0.6025987
28	0x3e6a8072	0.2290056
29	0x3f0c936d	0.54912454
30	0x3f646be8	0.8922715
31	0x3e9f7fae	0.311521
32	0x3f349831	0.70544726
33	0x3d934878	0.07191557
34	0x3e952fe2	0.29138094
35	0x3f333d49	0.7001539
36	0x3f2943e5	0.66119224
37	0x3e93b58c	0.28849447
38	0x3f47d237	0.7805514
39	0x3f876fde	1.0581014
40	0x3d525ab1	0.05135602
41	0x3f5b608b	0.8569419
42	0x3ef8397f	0.48481366
43	0x3f43b7cd	0.7645233
44	0x3f8d5930	1.1042843
45	0x3f535eac	0.8256633
46	0x3edd0c66	0.43173522
47	0x3ef40ddd	0.47666827
48	0xbc938a72	-0.018010352
49	0x3e2242c2	0.15845779
50	0x3ec0f725	0.37688556
51	0x3f4a9ee8	0.7914872
52	0x3e52d7e0	0.20590162
53	0x3f0876f9	0.5330654
54	0x3e874942	0.2642308
55	0x3f7dc1e4	0.9912398
56	0x3f4d9b52	0.80315125
57	0x3eeafad3	0.4589449
58	0x3f00098b	0.5001456
59	0xbbed130c	-0.0072349366
60	0x3fa1fe25	1.2655684
61	0x3f3356c3	0.7005426
62	0x3f2b5cc4	0.66938424
63	0x3f27ad1b	0.65498513
64	0x3f5ad81e	0.8548602
65	0x3f293809	0.6610113
66	0x3f8919f3	1.0711044
67	0x3efee51d	0.49784175
68	0x3f83b142	1.028847
69	0x3f521001	0.8205567
70	0x3f9a5439	1.2056953
71	0x3f09afc4	0.5378382
72	0x3e84cea5	0.25938907
73	0x3f0f9289	0.5608297
74	0x3ca06c6c	0.01958295
75	0x3e5fcaf5	0.21854766
76	0x3eb8c8c8	0.36090684
77	0x3eb5bd6b	0.35496077
78	0x3f628790	0.884881
79	0x3f4e6098	0.8061614
80	0x3f2b5c18	0.669374
81	0x3f8635d0	1.0485172
82	0x3f2be462	0.6714536
83	0x3f24a902	0.64320385
84	0x3ee304ca	0.4433959
85	0x3f7dfd85	0.99214965
86	0x3f2b3be4	0.6688826
87	0x3f277ee2	0.6542798
88	0x3ef7cedb	0.48400006
89	0x3fdcdf1b	1.7255586
90	0x3f495cc6	0.78657186
91	0x3f69a0b4	0.9126084
92	0x3f062c8f	0.5241174
93	0x3d9b135c	0.07572052
94	0x3e80224b	0.25026163
95	0x3f3efbc2	0.746029
96	0x3e2e07ea	0.16995206
97	0x3e82c279	0.25538996
98	0x3d6adac4	0.057337537
99	0x3f155b55	0.58342487
100	0x3eba8aae	0.3643393
101	0x3ef6d68c	0.4821056
102	0x3f51626e	0.81790817
103	0x3f5d9f95	0.8657163
104	0x3f862e2a	1.0482838
105	0x3ef6051f	0.48050782
106	0x3eae5814	0.34051573
107	0x3edebf4d	0.43505326
108	0x3f94f4f3	1.1637253
109	0x3f6b6555	0.91951495
110	0x3f285969	0.6576143
111	0x3f929eb3	1.1454681
112	0x3eca4815	0.3950812
113	0x3e96bae4	0.2943946
114	0x3ef9a62e	0.48759598
115	0x3f224d7e	0.63399494
116	0x3f4e79fe	0.80654895
117	0x3da3082d	0.07960544
118	0x3edc6d41	0.43052104
119	0x3f0bcfc8	0.54613924
120	0x3f944fb3	1.1586822
121	0x3f0eed1a	0.5583054
122	0x3ee26422	0.4421702
123	0x3f1dc6b1	0.61631304
124	0x3f1cddb1	0.61275774
125	0x3f1c2ee1	0.6100903
126	0x3d585414	0.05281456
127	0x3f291397	0.66045517
128	0xbda5d56a	-0.08097346
129	0x3f429551	0.7600909
130	0x3f618690	0.8809595
131	0x3f6667a5	0.900019
132	0x3f3d5a35	0.7396577
133	0x3f509695	0.8147977
134	0x3fabe6e0	1.3429832
135	0x3dfff216	0.12497346
136	0x3f61848c	0.88092875
137	0x3fad4eee	1.3539712
138	0x3f0b1dfa	0.54342616
139	0x3f5eb821	0.8699971
140	0x3e05b290	0.13056397
141	0x3f10ffbf	0.5664024
142	0x3f85046d	1.0391976
143	0x3f056f42	0.5212289
144	0x3f8a9833	1.0827698
145	0x3f40b9c3	0.7528345
146	0x3e2c1e37	0.16808401
147	0x3f4cf754	0.8006489
148	0x3fa31598	1.2740965
149	0x3e891f31	0.2678161
150	0x3f363940	0.71181107
151	0x3f3bc69d	0.73349935
152	0x3f35685d	0.7086237
153	0x3f10fab1	0.56632525
154	0x3fb2f03e	1.3979566
155	0x3fa39610	1.278017
156	0xbb2952f0	-0.0025836788
157	0x3f9bbb1b	1.2166475
158	0x3e932063	0.28735647
159	0x3eff6c4a	0.49887305
160	0x3f51d5b7	0.8196673
161	0x3ed9634c	0.4245857
162	0x3ea5e6ad	0.32402554
163	0x3e1ffa6e	0.15622875
164	0x3f3bd6d8	0.733747
165	0x3f127bc4	0.572201
166	0xbda21543	-0.079142116
167	0x3d4c97eb	0.049949568
168	0x3f2ba7d5	0.67052966
169	0x3f004597	0.50106186
170	0x3f86e920	1.0539894
171	0x3f419910	0.7562418
172	0x3efbc140	0.49170876
173	0x3f85e11d	1.0459324
174	0x3ceed394	0.029153623
175	0x3f0ca4f7	0.54939216
176	0x3f21685d	0.6304987
177	0x3e0a06d0	0.13479161
178	0x3f2f3d0e	0.6845254
179	0x3f754aad	0.9581707
180	0x3f831f7e	1.0243986
181	0x3e58e848	0.21182358
182	0x3f23101f	0.63696474
183	0x3f01a72a	0.506457
184	0x3f20c5c8	0.6280179
185	0x3f8176c4	1.0114369
186	0x3f3ab4f0	0.7293234
187	0x3f22fc54	0.6366627
188	0x3e80821d	0.2509927
189	0x3ed55cdd	0.41672412
190	0x3f906e42	1.1283648
191	0x3f0b3d1e	0.5439013
192	0x3f08885d	0.53333074
193	0x3ed0de1e	0.40794462
194	0x3f2e1a03	0.6800844
195	0x3ec3b3ea	0.382232
196	0x3ec53f95	0.38525072
197	0x3eee385d	0.46527377
198	0x3e2c8815	0.16848786
199	0x3ef193e6	0.4718315
200	0x3f3e08b4	0.7423203
201	0x3f78eaf0	0.97233486
202	0x3e71cab9	0.23612489
203	0x3f02efc2	0.5114709
204	0xbd9edbec	-0.077567905
205	0x3f52b89e	0.82312953
206	0x3f0288a0	0.50989723
207	0x3d212075	0.039337594
208	0x3f1be9aa	0.6090342
209	0x3f883e06	1.0643928
210	0x3ebd95df	0.37028405
211	0x3f5ef419	0.87091213
212	0x3f199b23	0.60002345
213	0x3f41ed1e	0.7575244
214	0x3ef0b052	0.47009522
215	0x3e8bfa4d	0.27339402
216	0x3ee967fa	0.4558714
217	0x3f27e3f9	0.65582234
218	0x3f337640	0.7010231
219	0x3ed0aff2	0.40759236
220	0x3f388c13	0.72088736
221	0x3f0db1bf	0.55349344
222	0x3f91c9d4	1.1389718
223	0x3f8defc3	1.1088794
224	0x3f5a9f04	0.8539889
225	0x3dfc93fb	0.123329125
226	0x3f92f9ff	1.1482543
227	0x3f5d4e4a	0.86447585
228	0x3d4fde56	0.050749145
229	0x3f20c6f3	0.6280357
230	0x3f8d8e3e	1.1059034
231	0x3f2128cf	0.62952894
232	0x3f6ea500	0.9322052
233	0x3f34dcf0	0.70649624
234	0x3d452dc6	0.048139356
235	0x3f31d604	0.69467187
236	0xbdee8e42	-0.11648227
237	0x3f733a88	0.95011187
238	0x3f60e6ea	0.87852347
239	0x3e423212	0.18964413
240	0xbc26445a	-0.010148132
241	0x3f92325d	1.142162
242	0x3ecec115	0.40381685
243	0x3e663e9b	0.2248482
244	0x3f7ced4b	0.9879958
245	0x3f277f5b	0.65428704
246	0x3eb882a8	0.36037183
247	0x3ec35664	0.38151848
248	0x3e7368e0	0.23770475
249	0x3f5c5eb4	0.86082006
250	0x3ed5d4a5	0.41763797
251	0x3f1ee437	0.6206698
252	0x3f29602b	0.66162366
253	0x3f6381f9	0.888702
254	0x3ec8510d	0.39124337
255	0x3e1047e3	0.14089923

transformer.norm.bias f4 [1280]
0	0x3daf6a3d	0.08565185
1	0xbe00401d	-0.12524457
2	0x3db508c0	0.088395596
3	0x3d74d7fd	0.059776295
4	0xbd1560d9	-0.036469314
5	0xbdeb3865	-0.11485366
6	0xbe275d55	-0.16344197
7	0x3e0f09a2	0.13968518
8	0xbd1735a9	-0.03691641
9	0xbd75b0e8	-0.059983164
10	0x3dafd8b8	0.08586258
11	0xbdab21ab	-0.08356031
12	0xbe6c14af	-0.23054765
13	0xbcaf06ee	-0.021365609
14	0x3c801343	0.015634185
15	0xbdf354c7	-0.11881404
16	0xbcd5825b	-0.026063135
17	0x3d8403eb	0.0644606
18	0x3e0beddf	0.1366496
19	0xbc6c7487	-0.014432079
20	0xbe0da6d3	-0.1383317
21	0xbe72e221	-0.23719074
22	0x3deee9bc	0.11665675
23	0xbda79030	-0.081817985
24	0xbc806aad	-0.015675867
25	0xbe6ce8c3	-0.23135667
26	0x3c9cdb6e	0.019147601
27	0x3ca99a58	0.02070348
28	0xbd2aca12	-0.041696616
29	0xbb918b9d	-0.004441692
30	0x3e054110	0.130131
31	0xbe4fac92	-0.20280674
32	0xbe8ae4cc	-0.27127683
33	0x3db63c83	0.088982604
34	0x3e412374	0.1886118
35	0xbc7c0078	-0.015380971
36	0x3e471347	0.19440947
37	0x3d12ee14	0.03587158
38	0xbda57d42	-0.08080532
39	0xbe06d5ee	-0.13167545
40	0xbe0dbe54	-0.13842136
41	0x3d13ca1b	0.036081415
42	0x3e112070	0.1417253
43	0xbd1045e1	-0.03522289
44	0x3cd7c352	0.026338253
45	0xbe06a0c6	-0.13147268
46	0xbd867a1c	-0.06566259
47	0x3dea509d	0.11441157
48	0xbc929c14	-0.01789669
49	0xbe00f844	-0.12594706
50	0xbdf0b733	-0.117536925
51	0x3b8fb266	0.0043852804
52	0xbe42e2d4	-0.1903184
53	0xbdba3c12	-0.09093489
54	0xbd322615	-0.04349335
55	0xbdad1e73	-0.08453073
56	0x3db59fcf	0.08868372
57	0x3e921df1	0.28538468
58	0xbe90ebe4	-0.2830497
59	0x3d42688b	0.04746298
60	0xbd228ba2	-0.039683945
61	0x3e41b1c7	0.18915473
62	0x3dc763b9	0.097358175
63	0xbd0fb271	-0.035082284
64	0x3dcdaa5d	0.1004226
65	0xbe116e46	-0.14202222
66	0x3dfe4a54	0.12416521
67	0xbd4c54c8	-0.04988554
68	0xbda8213e	-0.082094654
69	0x3d97f9e8	0.07420713
70	0x3c748b33	0.014925766
71	0xbe184461	-0.14869834
72	0x3d3c3a53	0.04595406
73	0x3e8f3542	0.2797032
74	0x3d7397e2	0.05947102
75	0xba6d3bb5	-0.00090497296
76	0xbe2a24fc	-0.16615671
77	0x3ce8bd27	0.028410507
78	0xbd8d3a12	-0.06895842
79	0xbe23c093	-0.1599143
80	0x3d2ea0b1	0.042633716
81	0x3df186eb	0.11793312
82	0x3dace643	0.084423564
83	0x3c38dd47	0.011283225
84	0x3d554884	0.05207111
85	0x3ebdffbc	0.37109172
86	0xbe493e3c	-0.19652647
87	0xbd8ab1cb	-0.067721926
88	0xbc902d8d	-0.017599845
89	0x3dc2b9b4	0.09508076
90	0xbe271b2f	-0.16318963
91	0xbdaa9c2a	-0.08330567
92	0x3e96344f	0.29336783
93	0x3e33721a	0.17523995
94	0x3dc1214b	0.09430178
95	0xbe600afd	-0.21879192
96	0x3daf0bce	0.085471734
97	0x3e1ebfd2	0.15502861
98	0x3d92f4b6	0.07175581
99	0x3e367c7d	0.17820926
100	0xbcebf788	-0.028804556
101	0x3e0bef14	0.1366542
102	0x3d6bf770	0.05760902
103	0x3ea4081f	0.32037446
104	0x3dadd31e	0.08487533
105	0x3d82c2a6	0.063847825
106	0x3d181f21	0.03713906
107	0xbd4bfd9e	-0.049802415
108	0x3d404e6d	0.046949793
109	0x3e6ecb81	0.23319818
110	0xbe340864	-0.17581326
111	0x3e35eb40	0.17765522
112	0x3cdefa19	0.027218865
113	0x3d58096b	0.052743357
114	0xbdcca63e	-0.09992646
115	0xbe97e3fb	-0.29666123
116	0xbdef7f2d	-0.11694179
117	0xbb767a9e	-0.0037609707
118	0xbdf03d02	-0.11730386
119	0x3d174ac5	0.03693654
120	0xbd080d7b	-0.03321598
121	0xbdf0b105	-0.11752514
122	0xbd5fd2e8	-0.054644495
123	0xbcdf7668	-0.02727814
124	0xbc2abb35	-0.01042061
125	0x3d656978	0.056008786
126	0xbd9345f7	-0.07191079
127	0x3d45740f	0.048206385
128	0xbe1ab7cf	-0.1510918
129	0xbe9def69	-0.30846718
130	0xbd317487	-0.04332402
131	0x3a34e960	0.00069012307
132	0x3a653649	0.0008743746
133	0xbdd10dea	-0.10207732
134	0xbb8aa14f	-0.0042306553
135	0x3dae5a4b	0.08513316
136	0xbe78c75c	-0.242948
137	0xbdce1cc7	-0.100640826
138	0x3c727097	0.014797351
139	0x3d841f35	0.06451265
140	0x3dcd9d2a	0.10039742
141	0x3d028743	0.031867277
142	0x3c27a453	0.010232049
143	0x3e67fc3f	0.22654818
144	0x3c860ea6	0.016364407
145	0x3e15a606	0.14614114
146	0x3e00d6bb	0.12581913
147	0x3df3502b	0.11880525
148	0xbe349a0f	-0.17636894
149	0xbd705c43	-0.058681738
150	0x3e165722	0.14681676
151	0xbe11d1b8	-0.14240158
152	0xbe4240b2	-0.18969992
153	0x3dcfb2ca	0.10141523
154	0x3ddaccf5	0.10683624
155	0x3dacad88	0.08431536
156	0xbd2d14ca	-0.042256154
157	0x3d44b5bb	0.048024874
158	0xbe323d78	-0.17406261
159	0x3e432434	0.19056779
160	0x3d9f5520	0.07779908
161	0x3ce2b7e8	0.027675584
162	0x3db0111a	0.08597012
163	0x3d304c1d	0.043041337
164	0xbdc927f0	-0.098220706
165	0x3dedffa8	0.11621028
166	0xbe64f942	-0.2236071
167	0x3c28eea0	0.010310799
168	0xbe1ff44c	-0.15620536
169	0xbd84464c	-0.064587206
170	0x3dcbaee3	0.09945466
171	0x3e4acdf7	0.19805132
172	0xbdade433	-0.08490791
173	0xbdf28f34	-0.1184372
174	0x3cf76733	0.030200576
175	0x3dc592a2	0.096471086
176	0x3c6652cf	0.014057829
177	0xbe0eabab	-0.13932674
178	0xbe386213	-0.18006162
179	0xbe21d322	-0.15803197
180	0x3d58070e	0.052741103
181	0xbd2380a0	-0.03991759
182	0x3e9028e7	0.28156206
183	0xbd357e7a	-0.04431007
184	0xbdd6c1f5	-0.10486213
185	0x3cc1a106	0.023636352
186	0x3d37d984	0.044885173
187	0x3e13a17a	0.14417067
188	0x3d1b5db3	0.037931155
189	0xbe35b926	-0.1774641
190	0x3dba5d43	0.090998195
191	0xbcdc2912	-0.026875053
192	0x3c9ec8b8	0.01938282
193	0xbc6f2287	-0.014595634
194	0x3e2326cb	0.15932767
195	0xbe86dc67	-0.2634003
196	0xbd970d02	-0.07375528
197	0xbe505667	-0.2034546
198	0x3d7814cd	0.060566712
199	0xbdb80776	-0.08985798
200	0xbd585d1d	-0.052823175
201	0xbd2d056c	-0.0422415
202	0x3c036981	0.00802076
203	0xbe1e52aa	-0.15461221
204	0xbcb89821	-0.022533478
205	0x3dc8d361	0.09805942
206	0x3d3cab5d	0.046061862
207	0xbb7b0022	-0.003829964
208	0xbe59d3c6	-0.21272191
209	0x3e8fe1a9	0.28101853
210	0x3e0b7be6	0.13621482
211	0x3ce83a1b	0.02834802
212	0xbe105caf	-0.14097856
213	0xbe809df9	-0.25120524
214	0xbd42324c	-0.047411248
215	0xbdf2eee8	-0.11861974
216	0xbd989b05	-0.07451443
217	0x3e1a9be4	0.1509853
218	0x3d055924	0.032555714
219	0x3dbe186f	0.09282004
220	0xbd14bf32	-0.03631515
221	0xbd0cdbb2	-0.034389205
222	0x3c9c1df8	0.019057259
223	0x3c687a50	0.014189318
224	0x3dcdc3c2	0.100471035
225	0x3e2ecbca	0.17069927
226	0x3dbe1d8f	0.092829816
227	0x3deb2ec9	0.11483533
228	0x3dfade51	0.12249435
229	0x3b18a419	0.002329117
230	0x3df4e7aa	0.11958249
231	0xbe08ca34	-0.13358384
232	0x3e9cf44c	0.30655134
233	0xbe1c8314	-0.15284377
234	0x3d83bf4a	0.0643297
235	0xba1c9051	-0.00059724326
236	0xbd22d693	-0.039755415
237	0x3d163054	0.036667183
238	0x3d1af34b	0.03782968
239	0x3e0c0974	0.13675481
240	0x3cb3ac8f	0.021932868
241	0xbdbc72b6	-0.09201567
242	0xbde63423	-0.11240413
243	0x3d4325ee	0.047643594
244	0xbd3267e7	-0.04355612
245	0xbe9bde59	-0.30443075
246	0xbe602ba8	-0.21891654
247	0xbca3da3f	-0.020001529
248	0xbd04ab80	-0.032390118
249	0x3dea9513	0.11454215
250	0x3d47843f	0.048710104
251	0xbed2894a	-0.41120368
252	0x3ceaffd2	0.028686438
253	0x3e8d10b7	0.27551815
254	0x3e6fe4b2	0.23427084
255	0x3b5f0315	0.0034028937

transformer.norm.running_mean f4 [1280]
0	0xbbe8f88a	-0.0071097063
1	0xbc2456d4	-0.010030467
2	0xba4ce5b1	-0.0007816209
3	0x3956e039	0.0002049216
4	0x3c206b17	0.009791157
5	0x3b1b0c16	0.0023658327
6	0xba8583d1	-0.0010186379
7	0xbbcf9feb	-0.0063362024
8	0xbc88a5cc	-0.01668062
9	0xbb0dff63	-0.0021667115
10	0xbb594574	-0.003315297
11	0xbbba281d	-0.0056810514
12	0xbbd31fa0	-0.006442979
13	0xbc44f0a2	-0.012020262
14	0xbb18ebbe	-0.0023333873
15	0xbb17c415	-0.0023157645
16	0xbbfadb97	-0.0076555717
17	0xbbcf9056	-0.006334345
18	0xbbc39f9f	-0.005969956
19	0xbc11c0e5	-0.008896087
20	0xbb680149	-0.0035401157
21	0xba755e14	-0.0009360027
22	0xbbe0cf35	-0.0068606385
23	0xbc1f4e02	-0.009723188
24	0x3af33d55	0.0018557707
25	0x3b3cfe1d	0.0028837987
26	0x3b0b7b87	0.0021283345
27	0xbb9eb91a	-0.004843843
28	0xbb36b436	-0.002787841
29	0x3bab7756	0.005232732
30	0xbb926db9	-0.0044686464
31	0x3ad7e8cb	0.0016472576
32	0x3bec8fba	0.007219282
33	0xbaa4802f	-0.0012550409
34	0xba515141	-0.0007984825
35	0xbbe04edc	-0.0068453383
36	0xbc0e0145	-0.008667295
37	0x3b25832e	0.002525519
38	0x3c1d112b	0.009586613
39	0x3b15009d	0.0022735961
40	0x3937eb22	0.00017539834
41	0xbbbf9844	-0.005847009
42	0x3a78d7a3	0.00094925816
43	0x3a240471	0.00062567653
44	0x3c819f4e	0.015823033
45	0x3c02bb5f	0.007979243
46	0xbb5098d7	-0.003182938
47	0xbb7dee33	-0.0038746714
48	0xb9b09c06	-0.00033685582
49	0xbb047db8	-0.0020216536
50	0xbb31e16e	-0.0027142423
51	0x3ba3a53c	0.0049940627
52	0xba85703a	-0.0010180541
53	0xbaf0a0f8	-0.0018358519
54	0x3af5000a	0.0018692028
55	0x3c06d92d	0.00823049
56	0x3bdff031	0.006834053
57	0x3b99806f	0.0046845
58	0xbaf0d986	-0.0018375374
59	0xb953ad49	-0.00020187082
60	0x3c9ce64e	0.019152787
61	0x3bbe6458	0.0058103018
62	0xbaf29e9c	-0.0018510404
63	0xba6134e5	-0.0008590951
64	0xbbe1b612	-0.0068881596
65	0x3ab8e9b4	0.0014107735
66	0x3c1b2e88	0.009471543
67	0x3ba715b9	0.005099025
68	0x3be2325b	0.0069029755
69	0x3c320119	0.0108645195
70	0x3c3f4b74	0.011675704
71	0x3bcac08e	0.006187505
72	0x3ac63375	0.0015121537
73	0xba3bf33d	-0.0007169729
74	0x38393f92	4.416664e-05
75	0xba7a14c1	-0.0009539836
76	0x3a7fca2a	0.0009757603
77	0x3bae7a05	0.0053246045
78	0x3c1597be	0.009130416
79	0xbbb15aff	-0.005412459
80	0xbbfb7aba	-0.0076745423
81	0xbb8952df	-0.004190787
82	0xbb312321	-0.0027028995
83	0x3c15f50c	0.009152662
84	0x3b93fc03	0.004516126
85	0x3a4cb687	0.0007809181
86	0x3b9f074d	0.0048531652
87	0xbb3ae3a6	-0.0028517037
88	0xbb7694e3	-0.0037625364
89	0xbd074f69	-0.033034716
90	0x3b68ec54	0.0035541253
91	0x3b6c242a	0.0036032298
92	0x38b6e622	8.721302e-05
93	0xba87e72e	-0.001036858
94	0xba6d20f6	-0.0009045744
95	0x3b4ef40f	0.0031578576
96	0x3adb3294	0.0016723447
97	0x3ac1a825	0.0014774842
98	0x3a5f8b91	0.0008527572
99	0xbb839850	-0.00401596
100	0xb9b09e21	-0.0003368715
101	0xbbb67108	-0.0055676736
102	0xb9256537	-0.00015773332
103	0xbb1a7636	-0.0023568994
104	0xbadba5df	-0.0016757807
105	0xb9be40ce	-0.00036287907
106	0x38dcd380	0.000105298124
107	0x3b451044	0.003006951
108	0xbbccc8ea	-0.0062495368
109	0xbcb31d72	-0.021864627
110	0x399ff3bf	0.00030508448
111	0xbba65f44	-0.0050772745
112	0xbb7aeb8f	-0.0038287377
113	0xba5872fc	-0.000825688
114	0x3b9d1c80	0.004794657
115	0xbab1242e	-0.0013514811
116	0x3b9b89a9	0.004746635
117	0x3a93abf8	0.0011266461
118	0xbac7ed2f	-0.0015253181
119	0xba578fac	-0.0008223008
120	0xbbc8afa0	-0.0061244518
121	0x3ad62f02	0.0016340914
122	0x3ae99ef0	0.0017823856
123	0x3a56a84e	0.00081885315
124	0x3bda4fa6	0.006662327
125	0xba2020a5	-0.000610838
126	0xb99a01ae	-0.0002937442
127	0x3c15601f	0.009117155
128	0x3917a86b	0.00014463223
129	0x3b26a4ad	0.0025427744
130	0x3b481347	0.0030529068
131	0xbc91cb84	-0.01779724
132	0x3a1e4cb9	0.0006038654
133	0xb9bf6bfa	-0.00036510808
134	0x3cd42f28	0.025901392
135	0xbadaa382	-0.0016680809
136	0x3af1c0c1	0.0018444286
137	0xbb12a590	-0.0022376515
138	0xbb824ff2	-0.0039768154
139	0x3a406a98	0.00073401025
140	0x3acf9b6d	0.0015839167
141	0xbb7eab6d	-0.0038859502
142	0x3a63fa17	0.0008696629
143	0xba52b65e	-0.0008038039
144	0xbb9cf9aa	-0.0047905045
145	0x3b078212	0.0020676893
146	0x3b009c32	0.001962435
147	0x3c2a6572	0.010400163
148	0x3a850c10	0.001015069
149	0x3acf7d47	0.0015830182
150	0x3a16a0d7	0.0005746013
151	0xb8bdb358	-9.045628e-05
152	0x3b54f208	0.0032492895
153	0x3bb1acf9	0.0054222313
154	0xbc190c3f	-0.009341299
155	0xbac3bd69	-0.0014933768
156	0x39d77719	0.0004109673
157	0xbb74a8f6	-0.0037332154
158	0x3b456ad4	0.003012349
159	0x3a85d7a5	0.0010211362
160	0x3aaa25fe	0.0012981293
161	0xbb4ca517	-0.003122633
162	0xbb15bff8	-0.0022850018
163	0x3ac17ad5	0.0014761338
164	0xbbbde912	-0.0057956064
165	0xbb1ca1c9	-0.0023900142
166	0xba877d42	-0.0010337012
167	0x3b051e18	0.0020312127
168	0x3b813220	0.003942743
169	0xbc83f1d1	-0.016106518
170	0xbc14c202	-0.009079458
171	0xbc84f5ba	-0.016230453
172	0x3b2e4c51	0.002659578
173	0xbc345405	-0.01100636
174	0x39ec5a78	0.00045080832
175	0x3bb3a665	0.0054824823
176	0x3a773e85	0.00094316184
177	0x3ad275ca	0.0016056832
178	0x3c15fa39	0.009153896
179	0xbb1ead88	-0.002421232
180	0xb903ad7c	-0.00012557762
181	0xb7eac117	-2.7984888e-05
182	0xbbc473e4	-0.0059952606
183	0x3b3f7035	0.0029211168
184	0xbb192803	-0.0023369796
185	0xbb2c9f05	-0.00263399
186	0xbacd251b	-0.0015651317
187	0xbbbcb307	-0.0057586464
188	0xb9f9eb95	-0.00047668503
189	0xb9d68b8b	-0.00040921228
190	0x3bd8cfbe	0.0066165617
191	0xbb803c05	-0.003913405
192	0x3af5bd68	0.0018748464
193	0x3bc8d2ca	0.0061286436
194	0xba07bc06	-0.0005177859
195	0xbaf62e32	-0.0018782078
196	0xbb0b1e23	-0.002122768
197	0x3b564049	0.0032692126
198	0x3a640bd4	0.00086992723
199	0xbb8a6dfc	-0.004224537
200	0x3be7c1a6	0.0070726452
201	0xbb6761a1	-0.0035305994
202	0x3b3a28bb	0.0028405625
203	0x3b429aa8	0.0029694233
204	0xba3a34d1	-0.0007103207
205	0xbba70f21	-0.005098239
206	0x39d19268	0.00039972668
207	0x3a7a0dd1	0.0009538802
208	0x3b1cb9dc	0.0023914492
209	0xbb90a1a0	-0.0044137985
210	0xb76207b2	-1.3472441e-05
211	0xbc2d5ad5	-0.010580738
212	0xbbcb0484	-0.0061956067
213	0x3c053a43	0.008131566
214	0x3a94052d	0.0011293046
215	0x3b8fd01e	0.004388823
216	0x3a68021b	0.00088504114
217	0x3c17e688	0.0092712715
218	0xbb2b2b94	-0.0026118504
219	0x38980ad5	7.2499424e-05
220	0xbb22e358	-0.0024854746
221	0x3a3bfbf3	0.0007171027
222	0xbc1aa2b8	-0.009438209
223	0x3c1f6506	0.009728676
224	0xbbeec1fc	-0.0072863083
225	0x3a111198	0.00055339327
226	0xbc3d0ca5	-0.011538659
227	0xbb5aee29	-0.0033406115
228	0xb9e371ab	-0.00043381503
229	0x3bd8637e	0.0066036573
230	0xbbac68e6	-0.0052615283
231	0x3bde75ef	0.006788961
232	0xba9a407a	-0.0011768483
233	0xbb27aa9e	-0.0025583874
234	0xb7dc4b68	-2.6261157e-05
235	0xbba79624	-0.0051143337
236	0x3882c1e6	6.2349995e-05
237	0x3be26d0f	0.0069099735
238	0xbae43e65	-0.0017413615
239	0x3ab3d5f0	0.0013720375
240	0xb9536b42	-0.00020162485
241	0xbb96efca	-0.004606222
242	0x3b84093b	0.0040294207
243	0xb98e57c5	-0.00027149744
244	0xbb850ae9	-0.0040601385
245	0xbbee7b3d	-0.0072778747
246	0xbb8ab645	-0.004233154
247	0xba85fcbc	-0.0010222415
248	0x398cdef9	0.00026869008
249	0xb991d835	-0.00027817642
250	0x3a2fb472	0.00067026087
251	0xbb83e624	-0.0040252376
252	0xbaeefe69	-0.0018233779
253	0xb82c9f9b	-4.115664e-05
254	0xbb65fc5a	-0.003509304
255	0xb9f2ac57	-0.0004628624
