xls_r_sqa/models/sqa-v2/xls-r-1b/model_1b_lay10_full.pt (torch, 425869 bytes, 67 tensors)

norm_input.weight f4 [1280]
0.6159382 0.6866774 0.40323266 0.6303068 0.6215659 1.0739454 0.4711158 0.6326418
0.44988418 0.78014946 0.6668873 0.39179182 0.5976232 0.49567136 0.75093806 0.7437139
0.52037305 0.9150199 0.6434331 0.50442475 0.79428965 0.66465324 0.7443559 0.7007723
0.5997638 0.55727154 0.9848183 0.7040748 0.98261714 0.66152656 0.66115785 0.72500765
0.5937982 0.7279641 0.8758242 0.4901254 0.48779562 0.6243167 0.4001607 0.6333757
0.63758636 0.40325123 0.84858817 0.6881238 0.35330006 0.71481496 0.53722 0.5995884
0.64404607 0.38412127 0.87179035 0.5794761 0.85717636 0.6383177 0.9531072 0.37512594
0.5429511 0.43978757 0.37435392 0.5396307 0.61964065 0.69235766 0.5127434 0.6413119
0.71134454 0.77259344 0.5586146 0.6751918 0.507971 0.6912821 0.48715204 0.53145707
0.598435 0.564945 0.6609672 0.2912916 0.75550765 0.6196779 0.79000926 0.7959107
0.878487 0.5746376 0.4360499 0.4575024 0.599914 0.47368252 0.78458315 0.8035598
0.6021427 0.5625871 0.7408449 0.41469514 0.51519114 0.5484812 0.71015084 0.5536472
0.71291375 0.58161396 0.41305813 0.69628525 0.5214892 0.6900974 0.59135467 0.3988227
0.8491208 0.7224699 0.85487664 0.5115598 0.5767168 0.4761074 0.5614697 0.7249029
0.5272385 0.6389745 0.59855825 0.34961197 0.5160218 0.5892932 0.7946512 0.5530859
0.5478254 0.76961297 0.8187729 0.8333053 0.56807065 0.77627444 0.7840638 0.7434485
0.86868095 0.43668 0.61943185 0.53567684 0.64363927 0.6952723 0.57184756 0.48698118
0.71272576 0.56691766 0.6871884 0.6165545 0.22976793 0.47300196 0.56622803 0.7648023
0.6463709 0.9445437 0.61781025 0.8578403 0.69105446 0.4896903 0.81398463 0.60069984
0.43702534 0.62619114 0.70619816 0.3969239 0.56364053 0.64879936 0.63275135 0.6734891
0.65810007 0.98165005 0.75594723 0.50217617 0.74527746 0.7091025 0.5661811 0.6455549
0.58692527 0.67658603 0.636478 0.6159263 0.62722534 0.386027 0.5646816 0.7086723
0.68670624 0.5200336 0.69487756 0.61686605 0.5058281 0.6746901 0.6964394 0.77388847
0.6877568 0.7052273 0.6245685 0.7992826 0.658586 0.29533398 0.5364578 0.50425565
0.7493736 0.5643239 0.4271616 0.6673356 0.69569 0.5523444 0.6722235 0.78222924
0.5912001 0.86306 0.71331435 0.71676534 0.7168376 0.6972972 0.561996 0.5015703
0.75738084 0.53498334 0.4925272 0.6900069 0.623155 0.54164773 0.52918494 0.8190567
0.7021709 0.5556428 0.41372395 0.615461 0.60643774 0.8549575 0.63176733 0.26156476
0.4934205 0.5518694 0.6727643 0.74852604 0.4073181 0.47326797 0.8424528 0.535358
0.63540053 0.32867426 0.544832 0.5946544 0.58214206 0.5194993 0.8822721 0.33347663
0.5574852 0.7162257 0.6962911 0.8795247 0.43223947 0.8139747 0.75287145 0.29125538
0.49995315 0.5517274 0.40293524 0.69781643 0.6777288 0.81311953 0.7462182 0.46546748
00000000: 20ae 1d3f 17ca 2f3f 8374 ce3e c95b 213f
00000010: f11e 1f3f 0b77 893f 1736 f13e d0f4 213f
00000020: 3857 e63e e0b7 473f 20b9 2a3f f098 c83e
00000030: d6fd 183f a3c8 fd3e 7a3d 403f 0964 3e3f
00000040: 2b37 053f bf3e 6a3f 08b8 243f fb21 013f
00000050: 9156 4b3f b726 2a3f 1c8e 3e3f d065 333f
00000060: 1f8a 193f 59a9 0e3f 0d1d 7c3f 3f3e 343f
00000070: cc8c 7b3f ce59 293f a441 293f 1a9a 393f
00000080: 2903 183f db5b 3a3f 0436 603f b7f1 fa3e
00000090: 59c0 f93e 38d3 1f3f dde1 cc3e e924 223f
000000a0: dc38 233f f276 ce3e 133d 593f e228 303f
000000b0: bfe3 b43e 1dfe 363f 4087 093f a07e 193f
000000c0: 34e0 243f 8bab c43e a72d 5f3f 8c58 143f
000000d0: e96f 5b3f ca68 233f d5fe 733f 8210 c03e
000000e0: d8fe 0a3f d62b e13e 51ab bf3e 3d25 0a3f
000000f0: c5a0 1e3f 5a3e 313f 2743 033f 042d 243f
00000100: ad1a 363f afc8 453f 5e01 0f3f 5fd9 2c3f
00000110: 630a 023f ddf7 303f fe6b f93e 920d 083f
00000120: 0933 193f 3ca0 103f 2535 293f 2c24 953e
00000130: f368 413f 36a3 1e3f 0c3e 4a3f cec0 4b3f
00000140: 86e4 603f 731b 133f ef41 df3e c13d ea3e
00000150: f793 193f 8486 f23e 71da 483f 18b6 4d3f
00000160: 0626 1a3f b505 103f 03a8 3d3f ec52 d43e
00000170: 91e3 033f 4469 0c3f 72cc 353f d3bb 0d3f
00000180: 8481 363f a7e4 143f 5b7c d33e c03f 323f
00000190: 5180 053f 39aa 303f 0563 173f 7d32 cc3e
000001a0: fb5f 593f caf3 383f 32d9 5a3f 95f5 023f
000001b0: b6a3 133f 59c4 f33e 7abc 0f3f 3d93 393f
000001c0: 1af9 063f d593 233f 1d3b 193f 5700 b33e
000001d0: 011a 043f ebdb 163f 436e 4b3f 0a97 0d3f
000001e0: 493e 0c3f 5b05 453f 1a9b 513f 7f53 553f
000001f0: 146d 113f ecb9 463f 68b8 483f a452 3e3f
00000200: e061 5e3f 8594 df3e 1693 1e3f 1e22 093f
00000210: 8bc5 243f 5efd 313f 9a64 123f 9955 f93e
00000220: 3275 363f 8421 113f 94eb 2f3f 84d6 1d3f
00000230: 4948 6b3e 502d f23e 52f4 103f 15ca 433f
00000240: 9078 253f 9ecd 713f d028 1e3f 6c9b 5b3f
00000250: f2e8 303f b0b8 fa3e 4c61 503f 77c7 193f
00000260: c9c1 df3e 104e 203f 67c9 343f 9c39 cb3e
00000270: bf4a 103f b717 263f fefb 213f c869 2c3f
00000280: 3f79 283f 6b4d 7b3f c285 413f 9e8e 003f
00000290: 81ca 3e3f be87 353f 3ff1 103f 1643 253f
000002a0: bc40 163f be34 2d3f 39f0 223f 59ad 1d3f
000002b0: d791 203f 55a5 c53e f98e 103f 8c6b 353f
000002c0: fbcb 2f3f ec20 053f 7fe3 313f efea 1d3f
000002d0: f37d 013f 7eb8 2c3f da49 323f 8e1d 463f
000002e0: d410 303f c789 343f b9e3 1f3f c99d 4c3f
000002f0: 1899 283f 0436 973e 4c55 093f e616 013f
00000300: f3d6 3f3f 8877 103f edb4 da3e 82d6 2a3f
00000310: bd18 323f 7166 0d3f d716 2c3f 2d40 483f
00000320: e458 173f 80f1 5c3f c59b 363f ef7d 373f
00000330: ab82 373f 1282 323f f8de 0f3f e966 003f
00000340: b6e3 413f abf4 083f 862c fc3e 4ba4 303f
00000350: 1687 1f3f 6da9 0a3f aa78 073f b3ad 513f
00000360: 79c1 333f 9b3e 0e3f a0d3 d33e da8e 1d3f
00000370: 813f 1b3f 7fde 5a3f 81bb 213f d1eb 853e
00000380: 9da1 fc3e 5047 0d3f 483a 2c3f 679f 3f3f
00000390: ff8b d03e 2e50 f23e fdaa 573f 390d 093f
000003a0: 9ca9 223f fe47 a83e 1c7a 0b3f 453b 183f
000003b0: 4307 153f e8fd 043f 96dc 613f 73bd aa3e
000003c0: 5ab7 0e3f 915a 373f 2240 323f 8828 613f
000003d0: 7e4e dd3e a560 503f 2fbc 403f 6d1f 953e
000003e0: dcf9 ff3e 023e 0d3f 874d ce3e 19a4 323f
000003f0: a27f 2d3f 9a28 503f 2808 3f3f c151 ee3e

norm_input.bias f4 [1280]
-0.0037422199 0.006832532 -0.005212356 -0.0014749841 0.0035918052 -0.0030748192 -0.0007948244 0.0009945721
0.0019633423 0.0038149178 0.0006240909 0.00027404286 0.002552539 0.00024808224 0.0025364945 -0.003575205
0.0022690953 0.008629256 0.001317114 -0.001698672 -0.00052808464 -9.518546e-05 -0.0018231703 -0.0008280987
-0.0018544352 0.00017635537 0.004456959 -0.0012744468 0.0023819928 -0.0005165965 -0.0017910744 0.0025079069
0.00920513 0.00064254337 -9.372844e-05 0.002601936 0.0031935468 -0.000114109585 -0.00018301234 0.005861353
0.002510021 -0.0055375546 -4.773637e-05 0.0011969435 -0.00027213217 -0.0032496804 0.0011097471 0.0021779146
-0.0039148415 0.0005941398 -0.00032276253 -0.0003451009 0.013435726 0.0055320985 -0.0029153654 0.00034679272
0.0023223308 -0.0011574195 -0.0025098997 -0.00072330027 0.00039579315 -0.0014772754 0.0021870472 0.0024711126
0.0031563395 0.00013371938 -0.0009507626 -0.0010158636 -0.002576551 -0.004438377 0.0007854851 0.0004991247
0.0018888018 0.00048049234 0.0012425331 -0.003311316 0.0037051614 -0.0037495936 -0.0028442356 -0.004786541
0.0032647573 -0.0035261412 0.00065445265 6.929036e-05 0.00030558274 -0.005908566 0.00017587592 0.0034859702
-0.000527272 0.002825043 0.0018221376 -0.0017436869 0.009127645 0.0010626242 0.0017874466 -0.002249001
-0.00079465733 -0.0003864699 0.00014161455 0.00041959126 0.0007196011 -0.0013201839 -0.00073809794 0.00087417074
-0.0009550973 -0.0039719823 -0.0070358994 -0.006627953 -0.0015567606 -0.0013442136 -0.0021233622 0.005721054
-0.003982498 -0.0010785758 -0.00043271037 0.0022928056 0.0028010851 0.0016174405 0.0032538783 -0.004373094
-0.0019897632 0.0045075333 -0.002869869 0.00084312155 -0.00085413136 0.006054552 0.0024689746 0.0009987534
-0.007136688 0.0010046402 -0.000888223 0.001187995 -0.0042670304 0.0029719246 1.3003538e-05 0.00038414478
0.0020592175 -0.0076029846 -0.0025986833 0.0011864469 0.00048359903 0.00063796836 0.004217631 0.0068436726
-0.0010749464 0.0017567792 -0.00043299588 0.01587815 0.0005806411 0.0010238754 0.0012973037 -0.0005809973
-0.0020693103 -0.0036533265 0.00074493483 -0.0027917454 -0.002596999 -0.004062676 0.0021586856 -0.0009423101
0.003241033 -0.0015777884 0.0040451516 0.00012396707 -0.00019973419 -0.00096531236 -0.00077960826 0.0020959496
-0.0015243405 -0.0031975284 0.00323786 0.0035345028 0.0034503993 6.399984e-05 0.0010844955 -0.0033756942
0.0010344399 -0.0002921378 -7.990057e-05 -0.0035847214 0.0009744167 -0.012292803 0.0018319879 -0.005253636
0.0017805205 0.00042275767 -0.00075011235 0.0058154534 0.0061391965 0.0010663227 0.0027726213 -0.0013442874
-0.003959001 0.0011081692 -0.0017891749 -0.00026312884 0.0035042355 0.0012421632 0.00041837548 0.0026292473
0.00056504074 0.006473245 0.0065487972 -0.00685882 0.00059508614 0.0006886598 -6.822387e-05 -0.0038165296
0.0070432755 -0.0044388995 -0.00024258943 -0.0039071646 0.002782458 -0.0027434241 -0.0033591625 0.0043675634
-0.0032938619 -0.00079781073 0.0011062353 -0.00025974843 0.0035023044 0.00034270863 0.004647985 0.0004910758
-0.00041931673 0.0038639712 -0.0053309235 0.0032076235 -8.405608e-05 0.00013703534 0.00088207395 -0.005314936
-0.0013633969 0.0009058146 0.004618402 -0.0021072822 -0.0066776406 0.0010490796 0.0010621137 -0.00032317563
0.0011272639 -0.0030280384 -0.00022745447 -0.0053622816 0.00038131876 -0.005911553 0.0048674913 0.000294562
-0.0013703771 0.00508503 0.0027211832 -0.0007128459 0.0022032515 0.0024593861 9.189248e-05 -0.0010527608
00000000: 0840 75bb 6fe3 df3b 69cc aabb 4154 c1ba
00000010: 7e64 6b3b e882 49bb c35b 50ba 4d5c 823a
00000020: 6bab 003b b303 7a3b 089a 233a 69ad 8f39
00000030: 8048 273b 0911 8239 513b 263b fd4d 6abb
00000040: 1ab5 143b b961 0d3c 03a3 ac3a f9a5 deba
00000050: 296f 0aba 4e9e c7b8 72f7 eeba c314 59ba
00000060: 8510 f3ba 09ec 3839 af0b 923b 570b a7ba
00000070: 351b 1c3b 346c 07ba 7cc2 eaba b25b 243b
00000080: 1dd1 163c 5b70 283a 1390 c4b8 3e85 2a3b
00000090: d34a 513b 1e4e efb8 00e7 3fb9 9810 c03b
000000a0: 2a7f 243b 6074 b5bb 8938 48b8 c2e2 9c3a
000000b0: f6ac 8eb9 97f8 54bb ef74 913a 58bb 0e3b
000000c0: 1248 80bb 0cc0 1b3a 7438 a9b9 a9ee b4b9
000000d0: 8521 5c3c 9b46 b53b b70f 3fbb bbd1 b539
000000e0: 3f32 183b 8eb4 97ba 217d 24bb dc9b 3dba
000000f0: 7582 cf39 23a1 c1ba 9054 0f3b 64f2 213b
00000100: 97da 4e3b 0637 0c39 993c 79ba ba26 85ba
00000110: 5adb 28bb ce6f 91bb 03e9 4d3a b1d7 023a
00000120: ac91 f73a 97ea fb39 7edc a23a aa02 59bb
00000130: 4bd2 723b bebb 75bb 5b66 3abb 6bd8 9cbb
00000140: 8af5 553b d516 67bb 938f 2b3a fb4f 9138
00000150: 9f36 a039 a59c c1bb 556b 3839 e074 643b
00000160: a038 0aba 5b24 393b cbd4 ee3a 6c8c e4ba
00000170: 1e8c 153c c047 8b3a c148 ea3a fa63 13bb
00000180: 8d50 50ba 1d9f cab9 5e7e 1439 96fc db39
00000190: 9da3 3c3a 050a adba ea7c 41ba 9b28 653a
000001a0: 7f5f 7aba 6727 82bb 678d e6bb 4d2f d9bb
000001b0: 380c ccba 5330 b0ba 1b28 0bbb ae77 bb3b
000001c0: 9d7f 82bb 005f 8dba 67dd e2b9 e542 163b
000001d0: 6992 373b 4c00 d43a 053f 553b 2c4c 8fbb
000001e0: b066 02bb eeb3 933b 6914 3cbb ee04 5d3a
000001f0: c9e7 5fba 4365 c63b 85ce 213b 9ae8 823a
00000200: e1da e9bb 22ae 833a a3d7 68ba 7fb6 9b3a
00000210: 72d2 8bbb 9fc4 423b c529 5a37 0a67 c939
00000220: f0f3 063b 7522 f9bb ac4e 2abb 8d82 9b3a
00000230: 908b fd39 553d 273a 0e34 8a3b e340 e03b
00000240: 37e5 8cba ba43 e63a b903 e3b9 e512 823c
00000250: 2a36 183a 8f33 863a 4a0a aa3a 124e 18ba
00000260: 449d 07bb a66c 6fbb bb47 433a b7f5 36bb
00000270: 6a32 2abb 3220 85bb bc78 0d3b 5c05 77ba
00000280: 8367 543b cbcd ceba 318d 843b 28fd 0139
00000290: bd6f 51b9 040d 7dba a05e 4cba 335c 093b
000002a0: 61cc c7ba a08d 51bb 4732 543b 1ea3 673b
000002b0: 1820 623b a737 8638 a125 8e3a c03a 5dbb
000002c0: 0b96 873a 122a 99b9 4b90 a7b8 a5ed 6abb
000002d0: ff6f 7f3a c167 49bc 501f f03a b126 acbb
000002e0: 5b60 e93a 93a5 dd39 30a3 44ba 8f8f be3b
000002f0: 502b c93b dac3 8b3a deb4 353b cd32 b0ba
00000300: 82ba 81bb fd3f 913a bf82 eaba 8ef4 89b9
00000310: 51a7 653b 15d0 a23a 6859 db39 734f 2c3b
00000320: 3e1f 143a 841d d43b 4b97 d63b f4bf e0bb
00000330: 8eff 1b3a 2d87 343a 6913 8fb8 be1e 7abb
00000340: 47cb e63b 3074 91bb 9b5f 7eb9 ac07 80bb
00000350: e659 363b 05cb 33bb 6525 5cbb c71d 8f3b
00000360: d5dd 57bb 2c24 51ba 19ff 903a d82e 88b9
00000370: eb86 653b 93ad b339 204e 983b 8abb 003a
00000380: bdd7 dbb9 ae3a 7d3b 07af aebb fe36 523b
00000390: 4447 b0b8 25b1 0f39 fb3a 673a ea28 aebb
000003a0: 02b4 b2ba 3074 6d3a f755 973b 541a 0abb
000003b0: 1cd0 dabb 4581 893a 9f36 8b3a e66f a9b9
000003c0: b3c0 933a 0e72 46bb d880 6eb9 14b6 afbb
000003d0: bdeb c739 b3b5 c1bb 7a7f 9f3b 716f 9a39
000003e0: 3a9e b3ba 53a0 a63b e155 323b 47de 3aba
000003f0: 6d64 103b a72d 213b 66b6 c038 cafc 89ba

norm_input.running_mean f4 [1280]
0.5528319 0.21066149 0.53755295 0.11573815 0.16462271 -0.27093738 0.19098745 -0.47105438
-0.27845 -0.026031522 0.0058358614 -0.010821946 0.5910325 -0.07519237 -0.15943405 -0.21954778
-0.21831766 -0.027696475 0.047736023 0.052992813 0.26614627 -0.0031147667 0.15325256 -0.3741213
-0.009503611 0.064656235 -0.053690247 -0.2026238 -0.29568046 -0.2663697 0.0063155508 0.44992727
-0.56884956 0.27481994 0.1578226 -0.26769292 0.07616767 0.34553683 -0.005505868 -0.09494081
-0.21416411 0.40015408 -0.15492381 0.037958063 -0.0702141 -0.021673052 -0.008717852 -0.19541495
0.30572855 -0.04792636 0.012042256 -0.004157979 0.08476989 -0.29646572 -0.04897594 0.05280834
-0.12778342 -0.45784748 -0.35622588 0.07311559 -0.17501046 -0.4128375 -0.425473 0.5602603
-0.24669963 0.003334184 0.012192117 0.081516236 -0.14701954 -0.39662135 -0.23945166 -0.32497406
-0.20400502 0.5934113 -0.49418586 0.005104251 -0.06160274 -0.017703235 0.21742922 -0.086131886
0.08993371 0.18891351 -0.5176219 0.007311848 0.63611364 0.3660673 0.14794828 0.10095923
0.13412766 0.32352522 0.23768108 0.22929002 -0.1578757 -0.452372 -0.19325261 -0.27116853
0.042456124 -0.85213614 0.51258534 0.01536316 -0.6421662 -0.43425435 0.24993758 -0.18694761
-0.1139261 -0.09357463 -0.1566749 0.51628864 0.12847589 0.38944542 0.006754971 -0.15819015
0.092518695 -0.025221858 -0.29193473 -0.23474059 -0.17775296 -0.31641725 0.44257417 0.3101408
-0.031699806 0.19647382 0.07388119 0.06652625 -0.15805833 -0.13289462 0.080459766 0.0075344434
-0.53177387 -0.08047988 -0.46089852 0.35023564 -0.24976747 -0.001492194 -0.013330498 -0.5531153
-0.2508951 0.41770533 -0.18544766 -0.06400256 0.13782777 0.14348039 -0.09928456 0.07119481
0.15329 -0.20123605 -0.32535723 0.18459164 -0.041040186 -0.23678666 -0.026377784 0.13439111
0.37768188 0.22590338 -0.16256757 -0.088746615 -0.26471174 -0.20202348 -0.62969273 0.20860323
0.021727381 0.08674778 0.19482133 -0.5429959 0.33743837 -0.13916989 -0.53202957 -0.039528824
-0.1110742 0.0062875813 0.2617594 -0.3961384 0.5314176 0.24544975 -0.46018547 -0.082266726
0.43791246 0.40757096 0.2257322 -0.48924187 -0.14459467 0.31246144 -0.059345834 -0.103533894
-0.065837316 0.2074042 0.2527625 -0.06319002 -0.52080625 0.071233146 0.20995367 0.2001032
0.28253144 -0.2637016 0.10469604 0.07954164 0.21210495 0.24524166 -0.38020712 -0.7827935
-0.27198645 -0.10593041 -0.32863766 0.506113 0.4885267 -0.09092433 0.1479738 -0.19237946
0.13347112 -0.07958028 0.4819603 -0.119209215 0.36596653 0.3678932 1.1086652 -0.22826149
0.13754395 0.021607729 0.101747535 0.13273335 -0.1404653 0.020513631 -0.08787725 -0.17834096
-0.04819702 0.6168557 -0.41154405 -0.7722702 0.027881166 -0.27676174 0.017102202 0.342561
-0.2278808 -0.053776637 -0.19872321 0.07861564 -0.059549503 0.08964354 0.0045527937 0.14655255
-0.17195682 -0.21144012 0.07975866 -0.26943806 -0.32318956 0.016655585 0.09178778 -0.20284061
-0.22779147 -0.028023217 -0.26822677 0.10892417 0.042610977 -0.053783942 -0.53786445 -0.041244578
00000000: 6486 0d3f a5b7 573e 129d 093f 2008 ed3d
00000010: db92 283e 4eb8 8abe 3792 433e 0a2e f1be
00000020: 0091 8ebe 0f40 d5bc c13a bf3b 884e 31bc
00000030: e84d 173f 75fe 99bd ae42 23be 22d1 60be
00000040: aa8e 5fbe b8e3 e2bc d986 433d fe0e 593d
00000050: 5344 883e 1d21 4cbb 3dee 1c3e d48c bfbe
00000060: 09b5 1bbc 7d6a 843d 4eea 5bbd 9d7c 4fbe
00000070: 6e63 97be 9c61 88be aef2 ce3b de5c e63e
00000080: 20a0 11bf 33b5 8c3e 3f9c 213e 0c0f 89be
00000090: ccfd 9b3d 34ea b03e 916a b4bb 5470 c2bd
000000a0: d64d 5bbe ffe0 cc3e 59a4 1ebe ea79 1b3d
000000b0: 69cc 8fbd af8b b1bc 52d5 0ebc db1a 48be
000000c0: 7488 9c3e 6e4e 44bd e24c 453c a83f 88bb
000000d0: d69b ad3d 5bca 97be ff9a 48bd 8f4d 583d
000000e0: a8d9 02be fc6a eabe 3d63 b6be a0bd 953d
000000f0: f135 33be 705f d3be 99d7 d9be 386d 0f3f
00000100: d49e 7cbe 5382 5a3b 72c1 473c fcf1 a63d
00000110: 4a8c 16be f411 cbbe d132 75be 0063 a6be
00000120: b1e6 50be cee9 173f ee05 fdbe 9041 a73b
00000130: 2853 7cbd 6006 91bc c4a5 5e3e ea65 b0bd
00000140: 2a2f b83d 8b72 413e de82 04bf 3a98 ef3b
00000150: 58d8 223f 2c6d bb3e c17f 173e b6c3 ce3d
00000160: c358 093e 19a5 a53e ab62 733e 01cb 6a3e
00000170: 2baa 21be 4e9d e7be 03e4 45be 9ad6 8abe
00000180: 79e6 2d3d 9825 5abf cb38 033f c3b5 7b3c
00000190: 0165 24bf 9656 debe a3ef 7f3e 326f 3fbe
000001a0: 1652 e9bd 0ea4 bfbd 636f 20be 7e2b 043f
000001b0: 2f8f 033e 6465 c73e ce58 dd3b 99fc 21be
000001c0: 717a bd3d 129e cebc 7878 95be d65f 70be
000001d0: df04 36be 7101 a2be 1599 e23e c6ca 9e3e
000001e0: a8d7 01bd 6f30 493e 054f 973d ea3e 883d
000001f0: 0bda 21be 8715 08be 17c8 a43d 7ee3 f63b
00000200: 5522 08bf a3d2 a4bd e4fa ebbe 1652 b33e
00000210: 0bc3 7fbe b995 c3ba 2968 5abc f798 0dbf
00000220: 5375 80be 79dd d53e fee5 3dbe c613 83bd
00000230: b922 0d3e 86ec 123e b455 cbbd 96ce 913d
00000240: 0ef8 1c3e d310 4ebe 3995 a6be 9705 3d3e
00000250: c119 28bd 3478 72be 3916 d8bc d39d 093e
00000260: 855f c13e 3753 673e 1d78 26be c9c0 b5bd
00000270: 4c88 87be 3edf 4ebe 8b33 21bf 169c 553e
00000280: 9ffd b13c d2a8 b13d 3e7f 473e c801 0bbf
00000290: b9c4 ac3e 8d82 0ebe 1733 08bf fae8 21bd
000002a0: df7a e3bd 0e08 ce3b 5405 863e a7d2 cabe
000002b0: fc0a 083f 2e57 7b3e 6e9d ebbe 757b a8bd
000002c0: 1036 e03e 24ad d03e 5826 673e e97d fabe
000002d0: a010 14be f2fa 9f3e 9e14 73bd 9409 d4bd
000002e0: b7d5 86bd c461 543e 166a 813e c569 81bd
000002f0: 8f53 05bf afe2 913d 18fe 563e dae7 4c3e
00000300: f6a7 903e e503 87be e16a d63d bae6 a23d
00000310: 0a32 593e a120 7b3e 82aa c2be 2865 48bf
00000320: cf41 8bbe 0bf2 d8bd 3243 a8be 9f90 013f
00000330: 2c20 fa3e 8936 babd 7286 173e 1fff 44be
00000340: a7ac 083e fcfa a2bd 80c3 f63e f623 f4bd
00000350: f75f bb3e 7f5c bc3e bee8 8d3f 61bd 69be
00000360: 52d8 0c3e b102 b13c 0361 d03d 40eb 073e
00000370: 23d6 0fbe 340c a83c fdf8 b3bd 039f 36be
00000380: 3d6a 45bd 41ea 1d3f e7b5 d2be 80b3 45bf
00000390: 0b67 e43c b7b3 8dbe eb19 8c3c 2864 af3e
000003a0: 9659 69be e444 5cbd 197e 4bbe 3d01 a13d
000003b0: 2eea 73bd 0897 b73d 9a2f 953b df11 163e
000003c0: 7315 30be c283 58be 8258 a33d c9f3 89be
000003d0: 1a79 a5be 4b71 883c 3bfb bb3d 73b5 4fbe
000003e0: 2b42 69be f290 e5bc 0555 89be a313 df3d
000003f0: d988 2e3d 8d4c 5cbd 7cb1 09bf 13f0 28bd

norm_input.running_var f4 [1280]
1.5619745 1.860162 1.6668415 1.8807757 1.974239 2.1911452 1.7637278 1.9585817
1.8508406 2.196802 1.4205513 1.291034 1.6483451 1.7201046 1.2502023 2.20849
1.3906727 1.993905 1.8108789 1.6654024 1.8512548 1.6947254 1.6696755 1.7223283
1.3925642 2.3367963 1.8941982 1.5849591 1.6326646 1.4445099 1.7743939 1.7347442
3.8906105 1.7421477 1.9714813 1.3727715 1.4137098 1.9327335 1.3771684 1.9598346
1.7927189 1.7274221 2.1280363 1.5994588 21.528555 1.4782587 1.7156472 1.7911042
1.5101787 1.7656761 1.6978978 2.020769 1.781541 1.621024 1.3561046 2.0784655
1.8309051 2.1118789 1.9417664 1.6951089 2.7307458 1.7238787 1.7105027 1.6203259
1.3144991 1.8668467 1.639231 1.9458433 1.3438432 1.6807176 2.7493732 3.8529387
1.377066 1.827642 1.7139459 2.4841526 1.8432492 1.7468637 1.6306067 2.1023278
1.6409085 1.9585189 2.6161335 1.7318211 1.5855383 1.4225135 1.6544176 2.2224157
1.5020968 1.4507024 1.8427736 1.8812771 1.6392378 3.4234645 1.493431 1.5605589
1.735979 1.8112615 1.6177908 1.6190759 2.1767864 2.113981 1.393802 2.3588047
1.5089688 1.6820115 1.7362219 2.5183103 2.7134554 2.057864 1.4105374 1.3226897
1.6395108 1.6626289 1.8755426 2.790149 1.8347629 1.7191066 1.8833578 1.6339204
1.6282643 1.7247481 1.8781952 1.8990121 1.4497049 1.3913975 1.4391415 1.6501476
1.952372 1.5177242 2.7324803 2.019918 1.6665758 1.3738639 1.4244882 1.7780104
1.5946647 1.5793185 1.5034937 1.6392269 1.5566349 1.4940406 2.032241 1.929291
1.6254044 1.4063754 1.516607 1.6980828 1.6559662 1.5563321 1.4061254 1.3907025
1.5281742 1.680107 1.6847787 1.5719092 1.7237864 1.6078172 1.8178096 1.6701784
1.9163324 1.5157427 1.4322373 1.6733998 1.7339345 1.4507958 1.7908071 1.5797765
1.7156183 1.6037054 1.5181803 2.2591455 1.8900828 1.7122847 1.7374563 3.4176054
1.509526 1.6101168 1.5517106 1.6932967 1.6423712 2.233627 1.4729351 1.4517304
1.4056778 1.4620656 1.8969464 1.6992635 1.7992415 2.3576472 1.585051 1.2620233
1.6470988 1.7557378 1.5262125 1.498157 1.4050735 1.9199009 1.6490798 1.8733579
1.8434609 1.4990188 1.7812966 1.4762806 1.5112089 1.3227584 2.2611997 1.9219686
1.4773282 1.4099565 1.657005 1.4787462 2.1893036 1.6244808 2.8473182 1.3454727
2.006632 1.5646101 1.344117 1.8129056 1.9407016 1.4370198 1.3285002 1.5361669
1.4189223 1.9067932 1.7178816 1.5531813 1.5253283 1.8149999 1.9764518 1.475409
1.2970426 1.8423917 1.5544109 1.4750874 1.3379472 1.4475726 1.5434178 1.3014646
1.6902376 1.6811906 1.5222255 2.0444336 1.8839822 1.6442871 1.9036863 1.6410904
2.3738694 2.036586 1.6456118 1.5513165 2.6001544 1.9053366 1.8727343 1.4555877
00000000: c8ee c73f ca19 ee3f 105b d53f 42bd f03f
00000010: ddb3 fc3f b93b 0c40 d5c1 e13f ceb2 fa3f
00000020: 58e8 ec3f 6798 0c40 a0d4 b53f 9a40 a53f
00000030: f9fc d23f 632c dc3f a106 a03f e657 0d40
00000040: 9001 b23f 4738 ff3f e1ca e73f e82b d53f
00000050: ebf5 ec3f c3ec d83f edb7 d53f 4175 dc3f
00000060: 8b3f b23f 128e 1540 1675 f23f f1df ca3f
00000070: 27fb d03f b3e5 b83f 571f e33f 190c de3f
00000080: c3ff 7840 b2fe de3f 8059 fc3f fab6 af3f
00000090: 71f4 b43f d063 f73f 0e47 b03f dcdb fa3f
000000a0: d077 e53f 2b1c dd3f bf31 0840 11bb cc3f
000000b0: 7b3a ac41 9537 bd3f 549a db3f e742 e53f
000000c0: 894d c13f ad01 e23f b754 d93f 4754 0140
000000d0: 8909 e43f b77d cf3f d694 ad3f 9405 0540
000000e0: 195b ea3f 0629 0740 cd8b f83f 54f9 d83f
000000f0: 8ac4 2e40 0fa8 dc3f c1f1 da3f d766 cf3f
00000100: 8241 a83f d5f4 ee3f 52d2 d13f 6511 f93f
00000110: 0e03 ac3f c121 d73f bbf5 2f40 8c96 7640
00000120: b343 b03f 2cf0 e93f 9462 db3f 5bfc 1e40
00000130: 97ef eb3f 3b99 df3f b8b7 d03f 8a8c 0640
00000140: 4a09 d23f bfb0 fa3f bb6e 2740 50ac dd3f
00000150: ebf2 ca3f ec14 b63f f5c3 d33f 0f3c 0e40
00000160: b544 c03f 9eb0 b93f 01e0 eb3f b0cd f03f
00000170: 8bd2 d13f 0b1a 5b40 bf28 bf3f 65c0 c73f
00000180: 8f34 de3f 6bd7 e73f c513 cf3f e13d cf3f
00000190: 7850 0b40 774b 0740 1b68 b23f a8f6 1640
000001a0: e425 c13f 274c d73f 853c de3f ff2b 2140
000001b0: 41a9 2d40 0bb4 0340 7d8c b43f e54d a93f
000001c0: 7ddb d13f 06d1 d43f c811 f03f cd91 3240
000001d0: 83d9 ea3f af0b dc3f de11 f13f 4e24 d13f
000001e0: f76a d03f 8cc4 dc3f b368 f03f d412 f33f
000001f0: ee8f b93f 5019 b23f ca35 b83f 0938 d33f
00000200: 53e7 f93f c944 c23f f5e0 2e40 5646 0140
00000210: 5b52 d53f c6da af3f a155 b63f d895 e33f
00000220: f91d cc3f 1c27 ca3f 7b72 c03f 30d2 d13f
00000230: d03f c73f b93c bf3f 3d10 0240 02f3 f63f
00000240: 400d d03f 1c04 b43f 2e20 c23f c75a d93f
00000250: b3f6 d33f e435 c73f ebfb b33f 8a02 b23f
00000260: 369b c33f bf0d d73f d4a6 d73f 5234 c93f
00000270: 08a5 dc3f f4cc cd3f fcad e83f 68c8 d53f
00000280: 614a f53f db03 c23f 8d53 b73f f731 d63f
00000290: 91f1 dd3f adb3 b93f 2b39 e53f 1e36 ca3f
000002a0: 6199 db3f 3846 cd3f bb53 c23f d795 1040
000002b0: 3cee f13f 252c db3f f864 de3f 0cba 5a40
000002c0: 2638 c13f 4f18 ce3f 749e c63f f2bd d83f
000002d0: 3839 d23f bff3 0e40 2389 bc3f 4dd2 b93f
000002e0: 40ed b33f f724 bb3f 24cf f23f 7781 d93f
000002f0: 8c4d e63f b1e3 1640 f3e2 ca3f fb89 a13f
00000300: 22d4 d23f 04bc e03f ee5a c33f 9cc3 bf3f
00000310: 73d9 b33f 50bf f53f 0c15 d33f 31ca ef3f
00000320: 87f6 eb3f d9df bf3f 8701 e43f c3f6 bc3f
00000330: 4b6f c13f 2650 a93f 7fb7 1040 1103 f63f
00000340: 1719 bd3f 7479 b43f bd18 d43f 8e47 bd3f
00000350: 8d1d 0c40 fdee cf3f 763a 3640 7338 ac3f
00000360: a96c 0040 2545 c83f 070c ac3f 4a0d e83f
00000370: e968 f83f 44f0 b73f 4b0c aa3f 1ea1 c43f
00000380: 3f9f b53f cd11 f43f 8be3 db3f a5ce c63f
00000390: f53d c33f eb51 e83f 5ffc fc3f 34da bc3f
000003a0: 7e05 a63f 7ed3 eb3f f0f6 c63f aacf bc3f
000003b0: db41 ab3f 0f4a b93f b78e c53f 6496 a63f
000003c0: b559 d83f 4131 d73f 49d8 c23f 00d8 0240
000003d0: 5426 f13f 0078 d23f feab f33f 400f d23f
000003e0: 7aed 1740 6d57 0240 68a3 d23f 8a91 c63f
000003f0: ee68 2640 12e2 f33f c2b5 ef3f b350 ba3f

transformer.norm.weight f4 [1280]
0.61099696 0.69114536 0.26427153 0.6247673 0.7202992 1.3638607 0.32384154 0.71763855
0.32210654 0.84772694 0.842104 -0.043673318 0.5956056 0.50038016 0.830327 0.8114808
0.5010169 0.9916225 0.6097002 0.3154703 1.0314187 0.6031612 0.8302521 0.835383
0.49427918 0.41177547 1.3360881 0.68577486 1.3094327 0.77464545 0.66291 0.7785999
0.63151735 0.7532543 0.8998686 0.50339067 0.53876394 0.67782545 -0.1372446 0.6521383
0.6556828 0.35180596 1.1084454 0.83288085 0.0075102663 0.7683662 0.6139755 0.5841868
0.68001145 0.13157713 1.0373812 0.5983361 0.973348 0.75540096 1.1667509 0.14765196
0.42795205 0.36461008 0.22759117 0.49545145 0.74954486 0.729507 0.29187128 0.6066753
0.67632836 0.91824204 0.50401115 0.63206136 0.295472 0.6791969 0.26136547 0.32100165
0.6080302 0.37230885 0.6277983 0.16001154 0.86711043 0.6143793 0.89067084 0.9447007
1.0387735 0.50445807 0.1782511 0.3637656 0.5873905 0.36052674 0.92796165 0.8875598
0.48561582 0.5509399 0.736737 0.31950754 0.5253871 0.4511577 0.71857226 0.5019625
0.8330806 0.6206682 0.15029718 0.8140393 0.31636998 0.75943756 0.6166769 0.18010779
1.0336329 0.8469745 1.0329102 0.51516795 0.559698 0.38923886 0.53597367 0.7716843
0.5172761 0.7291086 0.51781327 0.09944954 0.46878624 0.47014076 0.84463197 0.5471542
0.608313 0.932615 0.97619724 0.93066233 0.5854888 0.9646567 0.9511772 0.80800104
1.121872 0.47528058 0.5363467 0.5236865 0.73254615 0.9025392 0.61524963 0.4772322
0.7951276 0.62517667 0.6848727 0.49675363 0.017327705 0.24608254 0.56380403 0.8853581
0.74589026 1.3118939 0.6612413 1.0464166 0.8027116 0.4306937 1.0204868 0.6967162
0.3122921 0.59404427 0.68759435 0.32241678 0.48595935 0.7077085 0.50711024 0.75093067
0.5786371 1.2869521 0.8618318 0.3619269 0.8808019 0.68782043 0.572244 0.6264381
0.34850532 0.60047305 0.52264625 0.628661 0.72647756 -0.090203255 0.6436321 0.68490356
0.7186556 0.5145495 0.73559654 0.589455 0.35576382 0.76975256 0.78349173 0.9789846
0.8854792 0.8132194 0.54738724 0.84711504 0.6963501 -0.04242424 0.6225973 0.50849515
0.8392599 0.4693455 0.43329218 0.7710142 0.81389713 0.54331666 0.64750797 0.9245763
0.52134174 1.0401658 0.8117143 0.7495437 0.60989124 0.75902605 0.5198505 0.362649
0.8501118 0.51593834 0.37190327 0.82267773 0.56166923 0.47575673 0.40116823 0.91586506
0.70123875 0.4319486 0.1055859 0.5396123 0.5364806 0.96446586 0.6698294 0.000600107
0.54336417 0.44175214 0.62027967 0.84189546 0.31813484 0.41195875 0.95733494 0.61981463
0.6641748 0.029232005 0.6482105 0.7551845 0.75201756 0.4826697 0.93007886 0.07275652
0.4455787 0.7142956 0.7221513 1.058799 0.29043806 0.8854365 0.9151354 0.09588268
0.36383936 0.652257 0.22618054 0.73254836 0.71262467 1.0602702 0.8428917 0.30033758
00000000: 4c6a 1c3f e7ee 303f 994e 873e c0f0 1f3f
00000010: 8765 383f fd92 ae3f 8fce a53e 29b7 373f
00000020: 26eb a43e a204 593f 2194 573f cbe2 32bd
00000030: 9c79 183f ea18 003f 4f90 543f 35bd 4f3f
00000040: a542 003f f9da 7d3f 5015 1c3f 5385 a13e
00000050: 8705 843f c668 1a3f 678b 543f a9db 553f
00000060: 2912 fd3e 3cd4 d23e ef04 ab3f f18e 2f3f
00000070: 7e9b a73f 2a4f 463f 78b4 293f 5352 473f
00000080: 1fab 213f 46d5 403f ca5d 663f 36de 003f
00000090: 6fec 093f f885 2d3f d989 0cbe 89f2 263f
000000a0: d4da 273f e91f b43e 8ae1 8d3f ae37 553f
000000b0: ae18 f63b a6b3 443f 802d 1d3f 448d 153f
000000c0: 3b15 2e3f 28bc 063e e8c8 843f 8e2c 193f
000000d0: 562d 793f f561 413f 1858 953f 1332 173e
000000e0: 881c db3e 2cae ba3e a90d 693e d0ab fd3e
000000f0: 2ce2 3f3f f9c0 3a3f 2770 953e 134f 1b3f
00000100: db23 2d3f e911 6b3f e006 013f c6ce 213f
00000110: 1b48 973e d9df 2d3f b2d1 853e 545a a43e
00000120: dea7 1b3f 449f be3e 64b7 203f 11da 233e
00000130: f3fa 5d3f f647 1d3f 0103 643f e8d7 713f
00000140: 88f6 843f 2a24 013f 7587 363e 7c3f ba3e
00000150: 395f 163f f696 b83e e58e 6d3f 1e37 633f
00000160: a3a2 f83e 660a 0d3f cc9a 3c3f 7e96 a33e
00000170: c57f 063f 24fe e63e 5af4 373f 9d80 003f
00000180: c544 553f 1ce4 1e3f 81e7 193e e164 503f
00000190: 3ffb a13e 806a 423f 8ade 1d3f 2d6e 383e
000001a0: 154e 843f 52d3 583f 6736 843f 0ce2 033f
000001b0: 5e48 0f3f 514a c73e 9235 093f 1a8d 453f
000001c0: 356c 043f dca6 3a3f 698f 043f 33ac cb3d
000001d0: c004 f03e 4ab6 f03e cd39 583f 4c12 0c3f
000001e0: 67ba 1b3f dbbf 6e3f 10e8 793f e33f 6e3f
000001f0: 98e2 153f bef3 763f 5980 733f 28d9 4e3f
00000200: 8099 8f3f fa57 f33e 044e 093f 5210 063f
00000210: 2588 3b3f cf0c 673f 0081 1d3f c757 f43e
00000220: 7b8d 4b3f 940b 203f d153 2f3f 7e56 fe3e
00000230: d5f2 8d3c 10fd 7b3e 7655 103f d4a6 623f
00000240: aaf2 3e3f 24ec a73f 1c47 293f fbf0 853f
00000250: 827e 4d3f e283 dc3e 509f 823f fe5b 323f
00000260: c0e4 9f3e 4913 183f 2f06 303f d013 a53e
00000270: aacf f83e 622c 353f fad1 013f fe3c 403f
00000280: 9021 143f d9ba a43f 02a1 5c3f 7c4e b93e
00000290: 3c7c 613f 0015 303f 957e 123f 3f5e 203f
000002a0: 4a6f b23e 9ab8 193f 25cc 053f edef 203f
000002b0: 6ffa 393f 7cbc b8bd 13c5 243f d755 2f3f
000002c0: d0f9 373f 84b9 033f 0e50 3c3f 86e6 163f
000002d0: ad26 b63e 810e 453f ea92 483f bc9e 7a3f
000002e0: c4ae 623f 262f 503f 9221 0c3f 88dc 583f
000002f0: 0044 323f 0ac5 2dbd 8962 1f3f bd2c 023f
00000300: bdd9 563f 0e4e f03e 79d8 dd3e 3061 453f
00000310: 905b 503f cd16 0b3f 15c3 253f 08b1 6c3f
00000320: a776 053f 2724 853f 82cc 4f3f 19e2 3f3f
00000330: d521 1c3f 884f 423f ec14 053f 21ad b93e
00000340: eda0 593f 8914 043f 1b6a be3e 029b 523f
00000350: 8ec9 0f3f 6396 f33e ec65 cd3e 2276 6a3f
00000360: 6284 333f 5e28 dd3e 6c3d d83d 0824 0a3f
00000370: cb56 093f 3ce7 763f f179 2b3f 8050 1d3a
00000380: ea19 0b3f 562d e23e a6ca 1e3f 7686 573f
00000390: 92e2 a23e 42ec d23e e713 753f 2cac 1e3f
000003a0: 5c07 2a3f f577 ef3c 20f1 253f c553 413f
000003b0: 3984 403f 7c20 f73e a619 6e3f 5f01 953d
000003c0: e422 e43e 14dc 363f e8de 383f ba86 873f
000003d0: 4cb4 943e f7ab 623f 5046 6a3f 235e c43d
000003e0: 2749 ba3e 51fa 263f df9b 673e 4a88 3b3f
000003f0: 926e 363f efb6 873f c0c7 573f d9c5 993e

transformer.norm.bias f4 [1280]
0.28109145 -0.23557559 0.20350847 0.025098328 -0.106454015 0.12147878 0.3202481 0.16590463
-0.29733622 -0.16653226 -0.21647316 -0.03440599 0.1156817 -0.13041106 0.17240757 0.08878752
0.14935829 -0.12856367 0.067650095 -0.118538015 -0.13235313 0.07118764 0.21562462 -0.053171173
0.011317889 -0.011021097 -0.10876611 -0.042052455 -0.0909814 -0.17845497 0.25388163 0.08780569
-0.056178894 -0.18776222 -0.17286159 -0.094252326 0.13023387 -0.1048966 -0.113162 0.11859634
0.08451372 -0.06823775 -0.2792661 -0.0671939 -0.0998592 0.22680558 -0.13480224 -0.25006908
0.085749626 0.12847269 0.22488791 -0.04701331 -0.083021775 -0.023684625 0.1257034 -0.075170316
0.09177541 -0.10185571 -0.26504695 0.038809486 -0.010677431 -0.1886387 0.10703193 0.069132015
0.06510391 -0.100365005 0.085017435 0.14907329 0.14273879 0.00275971 -0.107607715 -0.062293664
-0.05093572 0.049343504 0.0059880246 -0.12184325 -0.18946601 -0.19154465 -0.086453654 0.037955478
-0.14342643 -0.0028053347 -0.12917504 -0.21093465 0.13136938 -0.016941324 0.12428429 0.14086759
0.26501644 -0.14081366 -0.07893917 -0.05416858 -0.11236874 -0.20009492 0.04281715 0.19332564
-0.055750787 -0.14859356 -0.047783863 0.25832218 0.09826429 -0.1091164 -0.26184264 0.025173562
0.17246082 0.13652743 -0.037827607 -0.009389835 0.10648965 -0.11907417 -0.044588704 0.21468039
-0.2083464 0.17393644 0.045999527 -0.03390186 0.12416887 -0.1028327 -0.23830868 0.036463838
-0.08114998 -0.20367362 0.00719082 -0.1253728 0.22771505 -0.095205165 0.30176193 0.067611955
-0.10354285 -0.07620763 -0.18137336 0.026693339 -0.07469479 -0.068702966 0.037470475 0.03314085
0.18787144 0.09705262 -0.020372523 -0.05174439 -0.16038413 -0.124983124 -0.18134852 -0.13136391
0.21562912 -0.022237552 -0.0659954 -0.09928815 -0.20869072 0.12168815 -0.08837299 0.13260071
0.060874034 -0.106855586 0.298755 -0.009862743 -0.113260634 -0.098335706 -0.18112592 0.09536896
-0.025439883 0.06994427 -0.10200987 -0.019003464 -0.30927402 0.02936927 -0.02224693 0.055770226
0.2313874 0.13832751 -0.29317248 -0.23316142 -0.030530399 0.18361883 0.10574004 0.028271241
0.1138065 -0.007360551 0.2548165 0.12361027 -0.01751201 0.022617428 -0.05516623 -0.029627668
-0.09637539 -0.30884302 -0.1263512 -0.21646863 -0.11948592 -0.060562897 0.07855247 0.10763948
0.10701546 0.0021921035 -0.04441111 0.073626764 -0.11464011 -0.036907032 -0.010430868 0.06387818
0.084363036 -0.11825907 -0.080087565 0.0012168718 -0.017503817 -0.2249124 -0.060329843 0.13672987
0.24553698 0.04418637 0.24474311 -0.029530194 -0.075025514 0.07099479 -0.10470287 -0.35089618
0.07030923 -0.12442265 -0.036670875 -0.028530845 -0.18755776 0.19393098 -0.028469477 0.021772623
0.05502547 0.0637961 0.096961744 -0.17902677 -0.22496523 -0.13346043 -0.1733915 -0.15090837
0.059950937 0.21324474 -0.06136044 0.1868827 0.18720067 -0.14298569 -0.18050691 0.09410144
-0.176207 -0.12400221 0.1332703 -0.0060082194 -0.21225 0.25263914 -0.11890597 -0.082662866
-0.017303228 -0.13273497 0.13079679 -0.051846005 0.09077231 -0.19870837 0.11984943 -0.095106274
00000000: 38eb 8f3e ba3a 71be 8664 503e 029b cd3c
00000010: 9004 dabd dec9 f83d 8ff7 a33e e7e2 293e
00000020: 743c 98be 6f87 2abe 24ab 5dbe 4ced 0cbd
00000030: 87ea ec3d 7a8a 05be 9c8b 303e 3bd6 b53d
00000040: 61f1 183e 32a6 03be 228c 8a3d 0fc4 f2bd
00000050: 9487 07be d3ca 913d b3cc 5c3e 04ca 59bd
00000060: ab6e 393c d591 34bc c4c0 debd 323f 2cbd
00000070: 7554 babd e6bc 36be c6fc 813e 78d3 b33d
00000080: d71b 66bd bd44 40be a102 31be 5d07 c1bd
00000090: 075c 053e 07d4 d6bd 7bc1 e7bd a3e2 f23d
000000a0: 8715 ad3d 3cc0 8bbd f7fb 8ebe f59c 89bd
000000b0: fb82 ccbd b93f 683e 9909 0abe 0e09 80be
000000c0: 809d af3d 588e 033e 0449 663e 0791 40bd
000000d0: 5207 aabd 4206 c2bc 64b8 003e e5f2 99bd
000000e0: bff4 bb3d ba99 d0bd 3cb4 87be b2f6 1e3d
000000f0: 64f0 2ebc 812a 41be 8e33 db3d 1695 8d3d
00000100: 3355 853d 2b8c cdbd 9f1d ae3d aba6 183e
00000110: 1e2a 123e 40dc 343b 6f61 dcbd a427 7fbd
00000120: f9a1 50bd 6a1c 4a3d 3137 c43b f488 f9bd
00000130: 6103 42be 4824 44be 9d0e b1bd 3477 1b3d
00000140: 61de 12be b5d9 37bb 7646 04be 41ff 57be
00000150: b285 063e 88c8 8abc c388 fe3d 983f 103e
00000160: 3cb0 873e 7531 10be dcaa a1bd dfdf 5dbd
00000170: 9521 e6bd afe5 4cbe 0961 2f3d 28f7 453e
00000180: f05a 64bd e928 18be 03b9 43bd ce42 843e
00000190: ca3e c93d 6b78 dfbd 3d10 86be c938 ce3c
000001a0: 9299 303e d9cd 0b3e 1ff1 1abd d3d7 19bc
000001b0: 3f17 da3d 29dd f3bd a5a2 36bd 2dd5 5b3e
000001c0: c258 55be 651c 323e 006a 3c3d addc 0abd
000001d0: 404c fe3d f399 d2bd 3107 74be 1b5b 153d
000001e0: f631 a6bd d18f 50be f8a0 eb3b ba61 00be
000001f0: 222e 693e edfa c2bd 8a80 9a3e 2378 8a3d
00000200: 460e d4bd bf12 9cbd f0b9 39be fdab da3c
00000210: 95f9 98bd 24b4 8cbd a47a 193d b3be 073d
00000220: 5f61 403e 86c3 c63d 47e4 a6bc edf1 53bd
00000230: bd3b 24be 27f7 ffbd 6db3 39be 4384 06be
00000240: e1cd 5c3e 872b b6bc 9928 87bd 9657 cbbd
00000250: 05b3 55be a337 f93d e6fc b4bd 7bc8 073e
00000260: 0d57 793d 1ad7 dabd 6af6 983e 5897 21bc
00000270: 31f5 e7bd 3b64 c9bd 1379 39be cd50 c33d
00000280: 4d67 d0bc f13e 8f3d 8dea d0bd 27ad 9bbc
00000290: 2a59 9ebe d397 f03c 323f b6bc 526f 643d
000002a0: d2f0 6c3e baa5 0d3e b41a 96be dec1 6ebe
000002b0: e31a fabc 9306 3c3e 3c8e d83d 1799 e73c
000002c0: 6213 e93d c730 f1bb 4f77 823e 6227 fd3d
000002d0: 5975 8fbc 2f48 b93c fcf5 61bd b9b5 f2bc
000002e0: 7660 c5bd ac20 9ebe 3562 01be f4a9 5dbe
000002f0: 09b5 f4bd cd10 78bd 1ee0 a03d 1672 dc3d
00000300: ec2a db3d 65a9 0f3b 6de8 35bd a1c9 963d
00000310: 6fc8 eabd d42b 17bd 3be6 2abc 90d2 823d
00000320: 87c6 ac3d d031 f2bd f304 a4bd 717f 9f3a
00000330: 2a64 8fbc 704f 66be 6d1c 77bd ea02 0c3e
00000340: 0c6e 7b3e c4fc 343d f09d 7a3e 4ee9 f1bc
00000350: faa6 99bd b765 913d 756e d6bd aaa8 b3be
00000360: 49fe 8f3d 4dd1 febd 3334 16bd 85b9 e9bc
00000370: 240f 40be d895 463e d238 e9bc 805c b23c
00000380: 6362 613d 88a7 823d e193 c63d cb52 37be
00000390: 495d 66be daa9 08be 8b8d 31be b987 1abe
000003a0: 1d8f 753d d45c 5a3e 1655 7bbd 2e5e 3f3e
000003b0: 88b1 3f3e d76a 12be ced6 38be 41b8 c03d
000003c0: 9c6f 34be dff4 fdbd 0278 083e 99e0 c4bb
000003d0: 1058 59be eb59 813e f984 f3bd 264b a9bd
000003e0: 80bf 8dbc adeb 07be 98ef 053e 7a5c 54bd
000003f0: d5e6 b93d 357a 4bbe 9e73 f53d 14c7 c2bd

transformer.norm.running_mean f4 [1280]
-0.0037413838 0.006822051 -0.0052169343 -0.0014919505 0.0036052824 -0.0030711866 -0.0008069224 0.0010137777
0.001961386 0.003813459 0.00061736477 0.0002748264 0.0025538995 0.0002450063 0.0025257382 -0.0035912648
0.0022632615 0.008618598 0.0013223839 -0.0016985199 -0.00049074605 -9.514166e-05 -0.0018159333 -0.0008294982
-0.0018257645 0.00017825038 0.0044492637 -0.0012645673 0.0023457094 -0.00051079533 -0.0017798254 0.0025115083
0.009210194 0.0006390907 -9.792475e-05 0.002593554 0.0032028232 -0.00010602288 -0.00019067386 0.0058812643
0.0025061867 -0.0055451966 -5.545418e-05 0.001179367 -0.0002720621 -0.0032442862 0.0011180553 0.0021760757
-0.003910367 0.0005953427 -0.00032150143 -0.0003511886 0.013433666 0.005522477 -0.0029159812 0.00034341056
0.0023214454 -0.0011710889 -0.0025126934 -0.0007139082 0.00040171287 -0.0015044992 0.0021875012 0.002476127
0.0031357738 0.0001358868 -0.0009543678 -0.0010253779 -0.0025737248 -0.0044191945 0.0007836755 0.00050057
0.0018825135 0.00048236045 0.0012387111 -0.003308226 0.0036932854 -0.003735377 -0.002843241 -0.0048039136
0.0032017785 -0.0035219027 0.000653757 5.7403697e-05 0.000309971 -0.005906763 0.0001563224 0.0034692232
-0.0005197794 0.0028222615 0.0018137348 -0.0017481757 0.009128125 0.0010557246 0.0017912698 -0.002249125
-0.0007802031 -0.00039011153 0.0001463336 0.0004329514 0.0007015112 -0.001342362 -0.0007427668 0.00087778486
-0.0009716123 -0.0039646137 -0.007031254 -0.006628183 -0.001574687 -0.0013261673 -0.0021138957 0.005723193
-0.003979359 -0.0010587559 -0.00042696804 0.0022934407 0.0028094747 0.0016116454 0.0032426047 -0.0043751807
-0.001988056 0.0044979807 -0.0028791686 0.00083514897 -0.0008637787 0.0060452437 0.0024605123 0.0009871537
-0.007145802 0.0010253307 -0.0009117761 0.0011805117 -0.0042896466 0.0029497542 2.2778375e-05 0.00038370938
0.0020688924 -0.0076018614 -0.0025998098 0.0011882017 0.0004838936 0.0006386196 0.0042232154 0.0068588387
-0.0010766707 0.0017406866 -0.00043313365 0.015891328 0.0005851219 0.0010351299 0.0012980751 -0.00056568976
-0.0020715813 -0.0036569578 0.00072902685 -0.0027949812 -0.0026061647 -0.004051431 0.0021723157 -0.0009284242
0.003221772 -0.0015927593 0.004022845 0.00013402739 -0.0001666096 -0.0009722145 -0.00078099506 0.002100112
-0.0015158812 -0.0031856983 0.0032546697 0.0035475763 0.0034676248 6.001519e-05 0.0010823357 -0.0033720348
0.0010304047 -0.0002858645 -7.962518e-05 -0.0035783637 0.0009750076 -0.012296186 0.0018391229 -0.0052360888
0.0017747153 0.00042709717 -0.0007497322 0.0058315806 0.006137405 0.0010656503 0.002776191 -0.0013477047
-0.0039991434 0.0011164312 -0.0017966558 -0.00023876941 0.0035131245 0.0012260163 0.00040438422 0.0026299236
0.0005621966 0.00643357 0.006546077 -0.0068564913 0.00060575746 0.0007008665 -8.157257e-05 -0.0038247602
0.0070268535 -0.0044153817 -0.00025326334 -0.00390865 0.0027621877 -0.002743675 -0.0033824905 0.0044054477
-0.0032839654 -0.0008050997 0.0011053741 -0.00027204363 0.0035043408 0.00037630476 0.0046503837 0.00049108156
-0.00041190986 0.0038702702 -0.0053249444 0.0031980176 -7.897874e-05 0.00013606022 0.0008979032 -0.005313672
-0.001367393 0.0009052074 0.004633834 -0.0021113085 -0.0066799014 0.0010329054 0.0010892289 -0.0003234358
0.0011310737 -0.0030330732 -0.00023167182 -0.0053609153 0.00036984557 -0.005929344 0.004866271 0.00029649917
-0.0013697158 0.0050885924 0.0027210084 -0.00070714066 0.0021863342 0.002441148 8.377441e-05 -0.0010513098
00000000: 0132 75bb 838b df3b d1f2 aabb 8d8d c3ba
00000010: 9a46 6c3b f645 49bb a587 53ba bce0 843a
00000020: 998a 003b 3aeb 793b a6d6 213a 9316 9039
00000030: 535f 273b 3074 8039 db86 253b 6d5b 6bbb
00000040: 3a53 143b 0535 0d3c d753 ad3a dfa0 deba
00000050: 69a5 00ba ca86 c7b8 9c04 eeba af72 59ba
00000060: 7e4e efba b9e8 3a39 21cb 913b d6bf a5ba
00000070: 79ba 193b e5e6 05ba 0849 e9ba 1e98 243b
00000080: 5be6 163c a788 273a f35c cdb8 9ef8 293b
00000090: 75e6 513b 9a58 deb8 a0ef 47b9 9fb7 c03b
000000a0: d63e 243b 7bb4 b5bb 7997 68b8 fd94 9a3a
000000b0: 8fa3 8eb9 179e 54bb b68b 923a 7e9c 0e3b
000000c0: 8922 80bb c610 1c3a 318f a8b9 bc1f b8b9
000000d0: e118 5c3c e5f5 b43b 0c1a 3fbb c90b b439
000000e0: 6423 183b 397f 99ba 00ac 24bb 9125 3bba
000000f0: fd9c d239 9e32 c5ba 2e5c 0f3b 8446 223b
00000100: 8e81 4d3b d67c 0e39 8a2e 7aba f965 86ba
00000110: f0ab 28bb e4ce 90bb 936f 4d3a af38 033a
00000120: acbe f63a 53e5 fc39 3f5c a23a d2ce 58bb
00000130: 0c0b 723b 3acd 74bb ab55 3abb 266a 9dbb
00000140: eed4 513b b9cf 66bb e460 2b3a c0c4 7038
00000150: 9a83 a239 858d c1bb 7aea 2339 e85b 633b
00000160: ce41 08ba b1f5 383b d7ba ed3a 0b23 e5ba
00000170: 228e 153c 3d60 8a3a 0ac9 ea3a 0e66 13bb
00000180: 8b86 4cba e287 ccb9 2071 1939 c1fd e239
00000190: 9fe5 373a 32f2 afba 3cb6 42ba 251b 663a
000001a0: ccb3 7eba 97e9 81bb 6f66 e6bb 3b31 d9bb
000001b0: ba65 ceba cad2 adba 4989 0abb 9f89 bb3b
000001c0: 4865 82bb f4c5 8aba aeda dfb9 8d4d 163b
000001d0: 2a1f 383b d93d d33a e181 543b ad5d 8fbb
000001e0: 0c4a 02bb cc63 933b 6fb0 3cbb e6ed 5a3a
000001f0: 356f 62ba 2e17 c63b 8c40 213b 6263 813a
00000200: 5527 eabb 6464 863a 4204 6fba 66bb 9a3a
00000210: 2a90 8cbb aa50 413b 3014 bf37 9a2c c939
00000220: 4196 073b 0919 f9bb 9261 2abb 6fbd 9b3a
00000230: 19b3 fd39 0969 273a e662 8a3b 1cc0 e03b
00000240: 131f 8dba c027 e43a 3716 e3b9 882e 823c
00000250: de62 193a 32ad 873a 2c24 aa3a cc4a 14ba
00000260: 5ec3 07bb 92a9 6fbb 2a1c 3f3a 012c 37bb
00000270: 30cc 2abb dec1 84bb 695d 0e3b 7e61 73ba
00000280: 5d24 533b 22c4 d0ba 12d2 833b b489 0c39
00000290: edb3 2eb9 36dc 7eba b1bb 4cba 08a2 093b
000002a0: 88b0 c6ba 26c7 50bb 4c4c 553b 747e 683b
000002b0: 1741 633b d2b8 7b38 29dd 8d3a 5bfd 5cbb
000002c0: a50e 873a 15e0 95b9 71fc a6b8 fb82 6abb
000002d0: a797 7f3a f175 49bc b90e f13a 7f93 abbb
000002e0: 909d e83a 03ec df39 ad89 44ba d816 bf3b
000002f0: 491c c93b 4aad 8b3a c2f0 353b 77a5 b0ba
00000300: 3f0b 83bb 3755 923a c47d ebba 2d5e 7ab9
00000310: 733c 663b 48b2 a03a 8803 d439 cc5a 2c3b
00000320: 6060 133a b2d0 d23b 7980 d63b 6bac e0bb
00000330: b2cb 1e3a 5bba 373a f111 abb8 d4a8 7abb
00000340: 8541 e63b e8ae 90bb 6ec8 84b9 2214 80bb
00000350: d205 353b 3acf 33bb c6ac 5dbb 935b 903b
00000360: cc37 57bb 540d 53ba 33e2 903a 14a1 8eb9
00000370: 15a9 653b c54a c539 3f62 983b edbb 003a
00000380: 9bf5 d7b9 5ca4 7d3b df7c aebb d595 513b
00000390: 63a1 a5b8 63ab 0e39 4461 6b3a 501e aebb
000003a0: 183a b3ba 714b 6d3a 6bd7 973b e15d 0abb
000003b0: 13e3 dabb 8e62 873a 75c4 8e3a d192 a9b9
000003c0: 8940 943a 86c6 46bb eeec 72b9 9eaa afbb
000003d0: d5e7 c139 f14a c2bb 3d75 9f3b 7273 9b39
000003e0: 0988 b3ba 35be a63b f252 323b 685f 39ba
000003f0: 9a48 0f3b abfb 1f3b 0bb0 af38 1acc 89ba

transformer.norm.running_var f4 [1280]
0.3795939 0.4730999 0.1637393 0.3970715 0.3871386 1.1564412 0.22138794 0.4002311
0.20264843 0.60891324 0.44492945 0.1533592 0.35613227 0.24603339 0.56466866 0.5525656
0.27027082 0.8370275 0.4144573 0.25400034 0.6319902 0.44303304 0.5557605 0.49123436
0.3605516 0.31156293 0.9700256 0.49647644 0.964444 0.4359379 0.4358201 0.52436143
0.35283148 0.5320006 0.7684016 0.24049018 0.23856136 0.3900605 0.15907104 0.40110922
0.4066323 0.16261823 0.7218868 0.4741543 0.124941885 0.5103422 0.28856227 0.35992596
0.41419393 0.14781964 0.7616385 0.33600923 0.7347163 0.40935475 0.9085163 0.14073378
0.29540542 0.193578 0.14022218 0.29192775 0.38406414 0.4794346 0.26247913 0.41135076
0.50546867 0.5963746 0.3113816 0.45722812 0.2574147 0.47676313 0.23790582 0.28166524
0.35882995 0.3195972 0.4382813 0.08465981 0.5725187 0.384968 0.6230657 0.633334
0.7727121 0.33110765 0.19029433 0.21044846 0.3599945 0.22413857 0.61495286 0.6478184
0.3634633 0.31775934 0.54920626 0.17158347 0.26484036 0.2994223 0.5042393 0.30590412
0.5071134 0.33769813 0.17131352 0.4847026 0.2718493 0.47586027 0.3503862 0.15778324
0.7233133 0.5229 0.7298147 0.2614404 0.33373547 0.2266022 0.31478208 0.5260057
0.27824146 0.40833253 0.3578574 0.12210461 0.26686734 0.3492162 0.6324372 0.30563882
0.2996035 0.5916137 0.67164314 0.6945387 0.3224226 0.6028822 0.615389 0.5537878
0.7551433 0.19072494 0.38299766 0.28583664 0.41378406 0.4832604 0.32683927 0.23724066
0.5082797 0.31922662 0.47279248 0.38090128 0.052660495 0.22254634 0.32028612 0.5848855
0.41865307 0.89314675 0.38219768 0.7357741 0.47739145 0.24012432 0.66227394 0.36007357
0.1908624 0.39218727 0.50086164 0.15750852 0.31877288 0.42047662 0.39980313 0.45285
0.43347964 0.96471107 0.57273465 0.25221756 0.5572093 0.501296 0.3217512 0.41739365
0.34434626 0.45807722 0.40492696 0.379918 0.39281756 0.14887376 0.3194116 0.5029354
0.4711934 0.26951477 0.4836475 0.38221335 0.25676134 0.45592403 0.48524624 0.599333
0.47275302 0.49799794 0.39052612 0.64021933 0.43359494 0.0876337 0.28827938 0.25476575
0.56203616 0.3182704 0.18185644 0.44583791 0.4841856 0.30508304 0.45140505 0.6126581
0.34989783 0.74540234 0.5090332 0.5128126 0.51198274 0.48558748 0.31645805 0.25125167
0.57437783 0.28628317 0.24245384 0.4761939 0.389875 0.29275367 0.28026676 0.6710677
0.49484882 0.30948183 0.17121176 0.37882096 0.3682004 0.73174137 0.39864847 0.068479225
0.24267471 0.30460447 0.4513581 0.5596727 0.16550057 0.2239894 0.7083368 0.28766355
0.40344015 0.10813733 0.29605123 0.354047 0.33831805 0.27115542 0.7791889 0.11135775
0.31168327 0.5128955 0.48511046 0.77366537 0.1867059 0.66254383 0.5696196 0.084978476
0.25062454 0.30503348 0.16251473 0.4880163 0.46014875 0.6610387 0.5559693 0.21646456
00000000: 225a c23e 263a f23e 46ab 273e f54c cb3e
00000010: 0837 c63e 4406 943f 85b3 623e 17eb cc3e
00000020: 1283 4f3e bde1 1b3f cbcd e33e 320a 1d3e
00000030: f856 b63e 2df0 7b3e 208e 103f f074 0d3f
00000040: f060 8a3e 6f47 563f bf33 d43e 550c 823e
00000050: 1cca 213f 3ad5 e23e 5246 0e3f 1283 fb3e
00000060: 389a b83e 2d85 9f3e 9953 783f 2932 fe3e
00000070: cde5 763f 4133 df3e d023 df3e 8d3c 063f
00000080: 54a6 b43e 3131 083f f8b5 443f 0f43 763e
00000090: 6e49 743e 03b6 c73e 85e3 223e 305e cd3e
000000a0: 1c32 d03e 6585 263e 93cd 383f 5ac4 f23e
000000b0: 88e1 ff3d c9a5 023f 6fbe 933e 3748 b83e
000000c0: 3a11 d43e 085e 173e befa 423f 6709 ac3e
000000d0: 5e16 3c3f f296 d13e 8694 683f 841c 103e
000000e0: 613f 973e 5039 463e 6796 0f3e 8e77 953e
000000f0: 0ea4 c43e 7478 f53e aa63 863e 919c d23e
00000100: 6566 013f 01ac 183f 696d 9f3e ce19 ea3e
00000110: dccb 833e 4c1a f43e 959d 733e 6d36 903e
00000120: 8fb8 b73e 3fa2 a33e 6866 e03e 1f62 ad3d
00000130: 9690 123f 871a c53e 3c81 1f3f 2d22 223f
00000140: 76d0 453f f186 a93e 84dc 423e cd7f 573e
00000150: 3351 b83e 9584 653e 8d6d 1d3f 6dd7 253f
00000160: dd17 ba3e 5ab1 a23e c898 0c3f 94b3 2f3e
00000170: 2899 873e e14d 993e d415 013f 779f 9c3e
00000180: 2fd2 013f c5e6 ac3e d06c 2f3e f02a f83e
00000190: d52f 8b3e f5a3 f33e d265 b33e ee91 213e
000001a0: 0f2b 393f c6dc 053f 23d5 3a3f 84db 853e
000001b0: 60df aa3e 680a 683e 1e2b a13e 4fa8 063f
000001c0: aa75 8e3e f610 d13e 1639 b73e fb11 fa3d
000001d0: d6a2 883e 77cc b23e 68e7 213f b17c 9c3e
000001e0: a165 993e ff73 173f cef0 2b3f 4acd 313f
000001f0: 9314 a53e 7d56 1a3f 228a 1d3f 0ac5 0d3f
00000200: 1251 413f 664d 433e 4518 c43e 2e59 923e
00000210: 81db d33e e86d f73e 7a57 a73e 37ef 723e
00000220: 9e1e 023f ac71 a33e db11 f23e 7e05 c33e
00000230: 88b2 573d 30e3 633e 8bfc a33e 0ebb 153f
00000240: b259 d63e 44a5 643f 6aaf c33e b15b 3c3f
00000250: a76c f43e 26e3 753e c98a 293f 905b b83e
00000260: 6f71 433e c5cc c83e 7838 003f ea49 213e
00000270: 3336 a33e b648 d73e ffb2 cc3e f5db e73e
00000280: 0bf1 dd3e 4ef7 763f bd9e 123f a922 813e
00000290: 45a5 0e3f ef54 003f 93bc a43e 9fb4 d53e
000002a0: 274e b03e 1989 ea3e 9652 cf3e 9d84 c23e
000002b0: 621f c93e 5d72 183e eb89 a33e 60c0 003f
000002c0: 4340 f13e d7fd 893e a5a0 f73e 78b1 c33e
000002d0: 3976 833e e06e e93e 3272 f83e e36d 193f
000002e0: af0c f23e 96f9 fe3e 0af3 c73e 6ae5 233f
000002f0: 2800 de3e 4c79 b33d 5b99 933e a870 823e
00000300: 9ae1 0f3f 56f4 a23e 9338 3a3e de44 e43e
00000310: 2de7 f73e d833 9c3e 901e e73e 29d7 1c3f
00000320: cf25 b33e b0d2 3e3f 0050 023f b047 033f
00000330: 4d11 033f ec9e f83e ca06 a23e 0fa4 803e
00000340: 6d0a 133f b593 923e d245 783e b0cf f33e
00000350: b29d c73e cfe3 953e 207f 8f3e 18cb 2b3f
00000360: d35c fd3e 6774 9e3e 2352 2f3e d2f4 c13e
00000370: c384 bc3e 6753 3b3f a71b cc3e d63e 8c3d
00000380: b87f 783e 1ef5 9b3e 6918 e73e b646 0f3f
00000390: fb78 293e 7a5d 653e 8f55 353f a348 933e
000003a0: b58f ce3e 1b77 dd3d 0794 973e a645 b53e
000003b0: 0638 ad3e e2d4 8a3e ec78 473f 880f e43d
000003c0: f394 9f3e 1f4d 033f 6660 f83e ef0e 463f
000003d0: d52f 3f3e 799c 293f 97d2 113f 3209 ae3d
000003e0: dc51 803e 592d 9c3e 436a 263e 46dd f93e
000003f0: 9e98 eb3e d539 293f 0154 0e3f e3a8 5d3e
