xls_r_sqa/models/sqa-v2/mfcc/model_mfcc_full.pt (torch, 227341 bytes, 67 tensors)

norm_input.weight f4 [40]
0	0x3fa8aa05	1.3176886
1	0x3fabfeea	1.3437169
2	0x3f9452d5	1.1587778
3	0x3f77066c	0.96494174
4	0x3f6e8c61	0.9318295
5	0x3f85f732	1.0466063
6	0x3f6bebff	0.92156976
7	0x3f7141a3	0.9424078
8	0x3f5ed6ee	0.87046707
9	0x3f51da18	0.8197341
10	0x3f708317	0.9395003
11	0x3f5fb99b	0.87392586
12	0x3f65436c	0.89556
13	0x3f5ea4c5	0.8697017
14	0x3f622e11	0.8835154
15	0x3f56bf6a	0.83885825
16	0x3f623aae	0.8837079
17	0x3f47358b	0.77816075
18	0x3f5cca4a	0.8624617
19	0x3f5bce2f	0.85861486
20	0x3f347bdd	0.705015
21	0x3f2adb01	0.66740423
22	0x3f33ad17	0.7018599
23	0x3f31eb75	0.69499904
24	0x3f384dfb	0.7199399
25	0x3f467928	0.7752862
26	0x3f0764d7	0.52888244
27	0x3f210c32	0.62909234
28	0x3f21f140	0.63258743
29	0x3f1127bf	0.5670127
30	0x3f0dc32c	0.55375934
31	0x3f2de0be	0.67921054
32	0x3f3afad9	0.73039013
33	0x3f2c06c6	0.67197835
34	0x3f0d2186	0.5512928
35	0x3f033109	0.51246697
36	0x3f23c3ac	0.63970447
37	0x3f22a487	0.635323
38	0x3f0f7cb8	0.5604968
39	0x3f0ca902	0.54945385

norm_input.bias f4 [40]
0	0xbdcf45a7	-0.10120707
1	0xbd5e1e1d	-0.054227937
2	0x3de1e737	0.11030429
3	0x3a8a9b4b	0.0010574845
4	0xbcfd59c9	-0.030926602
5	0xbcc2ea9c	-0.023793511
6	0x3b366494	0.0027830945
7	0xbd77efd1	-0.06053144
8	0x3d71f67e	0.059072964
9	0x3d3d8830	0.046272457
10	0xbd020d09	-0.031750713
11	0xbd6cacaa	-0.057781853
12	0x3d99b477	0.07505124
13	0x3d0648a9	0.032784138
14	0x3c2d5704	0.010579828
15	0xbd671b5f	-0.056422587
16	0xbd0f8e87	-0.035048034
17	0xbcd6730d	-0.026177907
18	0x3b22dcfc	0.0024850955
19	0xbcbe98d9	-0.023266243
20	0x3ce46000	0.027877808
21	0xbc93996d	-0.018017495
22	0x3b0d04f5	0.0021517847
23	0x3d12d123	0.03584398
24	0xbbded58a	-0.006800358
25	0x3b1e8262	0.00241866
26	0xbc9e09df	-0.019291816
27	0xbbc24069	-0.0059280884
28	0xbbf060df	-0.0073357667
29	0x3c426c7f	0.011866688
30	0xbc4bd0c6	-0.012439912
31	0xbcbb0f8d	-0.022834564
32	0xbb425377	-0.00296518
33	0x3c681e61	0.014167399
34	0x3bb5e8da	0.0055514397
35	0x3b93f756	0.0045155687
36	0x3caeac4c	0.021322392
37	0x3b87c76b	0.0041436455
38	0xbcd7fe0f	-0.026366262
39	0xbb5bf3cd	-0.0033562065

norm_input.running_mean f4 [40]
0	0xc384ac92	-265.3482
1	0x42b87fd2	92.24965
2	0xc21eb972	-39.6811
3	0x412b5179	10.707391
4	0xc1846184	-16.547615
5	0xc1f429a6	-30.520336
6	0xc0f7b4e4	-7.7408314
7	0xc16718f7	-14.443595
8	0xc13ce80d	-11.806653
9	0x408e178e	4.4403753
10	0xc1451fc3	-12.320254
11	0xbfdf3d92	-1.7440665
12	0xc034db6f	-2.8258932
13	0xc0f2bef6	-7.5858107
14	0xc068ee56	-3.6395469
15	0xc08653ae	-4.197715
16	0xc10f034a	-8.938303
17	0x3f5ab8d7	0.85438293
18	0xc0ec7dfe	-7.39038
19	0xc0324193	-2.7852523
20	0xbffcea1d	-1.9758946
21	0xc0407aec	-3.0075026
22	0xbf7efed1	-0.9960757
23	0x400e47a8	2.2231236
24	0xbf8f0c93	-1.1175712
25	0x40a55326	5.1664
26	0x3ffcf37c	1.9761806
27	0x4082ff84	4.093691
28	0x409e38f3	4.944452
29	0x405eeea9	3.4833167
30	0x3ff50547	1.9142236
31	0x4010da1f	2.263313
32	0xc0264357	-2.59786
33	0xbf672538	-0.90291166
34	0xc09ae39d	-4.840285
35	0xc0c61365	-6.1898675
36	0xc0d9b4fe	-6.803344
37	0xc0f8f4ff	-7.7799067
38	0xc105972e	-8.349409
39	0xc0cdc455	-6.4302163

norm_input.running_var f4 [40]
0	0x46e6c35d	29537.682
1	0x458c0108	4480.129
2	0x45089245	2185.1418
3	0x44652e5d	916.7244
4	0x441488ef	594.1396
5	0x444b7d09	813.9537
6	0x43f023d1	480.27982
7	0x43a2a0cb	325.2562
8	0x4377b638	247.71179
9	0x4330cd0b	176.80095
10	0x432c31b9	172.19423
11	0x4307482f	135.28197
12	0x4304400f	132.25023
13	0x432bcf58	171.80994
14	0x42fb01b2	125.50331
15	0x42db079b	109.514854
16	0x42daffd5	109.49967
17	0x42ad44ef	86.634636
18	0x42d26af9	105.20893
19	0x42c9741a	100.72676
20	0x42ba9204	93.28519
21	0x42c2fe5c	97.496796
22	0x42a40ce1	82.025154
23	0x42a13886	80.6104
24	0x42a0fb76	80.491135
25	0x42a257ff	81.17187
26	0x428bf0fa	69.97066
27	0x429130f6	72.59563
28	0x4296ece6	75.46269
29	0x42852e71	66.590706
30	0x4268e623	58.224743
31	0x425935f9	54.302708
32	0x424a4529	50.56754
33	0x4233a5f5	44.912067
34	0x4242881e	48.632927
35	0x424bb6ac	50.92839
36	0x42588103	54.125988
37	0x42501987	52.02493
38	0x4253fb89	52.99564
39	0x42307666	44.115623

transformer.norm.weight f4 [40]
0	0x3fb69526	1.4264266
1	0x3fb1ee9b	1.3900942
2	0x3f909924	1.1296735
3	0x3f608d2e	0.87715423
4	0x3f590c02	0.8478395
5	0x3f7da83e	0.9908484
6	0x3f551603	0.8323671
7	0x3f5c0a14	0.8595288
8	0x3f438dae	0.7638806
9	0x3f3384d2	0.7012454
10	0x3f5d28cc	0.86390376
11	0x3f40faef	0.75382894
12	0x3f48824d	0.78323823
13	0x3f425ee4	0.7592604
14	0x3f4a83a6	0.7910713
15	0x3f3bd79e	0.7337588
16	0x3f4c569f	0.79819673
17	0x3f2bc5cd	0.67098695
18	0x3f418955	0.7560018
19	0x3f429205	0.7600406
20	0x3f099e08	0.5375676
21	0x3f01ec2c	0.50750995
22	0x3f0e71af	0.5564222
23	0x3f093293	0.53592795
24	0x3f16dfba	0.5893513
25	0x3f24fd4f	0.6444902
26	0x3ea775fa	0.32707196
27	0x3ee9e41d	0.4568185
28	0x3ef1b465	0.47207943
29	0x3ec3d9e1	0.38252166
30	0x3ebaedae	0.3650946
31	0x3f037ac3	0.51359195
32	0x3f14fc26	0.5819725
33	0x3f01d69b	0.50718087
34	0x3ebae60f	0.36503646
35	0x3ea63b5e	0.3246717
36	0x3efe54cf	0.4967408
37	0x3ef04b5f	0.46932504
38	0x3ec0fd09	0.3769305
39	0x3eb90b08	0.3614123

transformer.norm.bias f4 [40]
0	0x3e803b68	0.25045323
1	0xbe643ae9	-0.22288097
2	0xbd390d5a	-0.04517875
3	0x3dd7b2e6	0.10532169
4	0xbb650b65	-0.0034949419
5	0x3d0c5e11	0.034269396
6	0x3e074fb7	0.13214003
7	0xbc8f7ba5	-0.017515013
8	0x3e0a1351	0.13483931
9	0x3df0cb69	0.117575474
10	0x3c8f24cb	0.017473599
11	0x3dae91f7	0.08523934
12	0x3e141a68	0.14463198
13	0xbd12dddb	-0.03585611
14	0x3de30205	0.110843696
15	0x3bb0589c	0.005381657
16	0x3dd0da22	0.101978555
17	0x3d92cd8c	0.07168111
18	0x3d50f77d	0.051017273
19	0x3d9ee881	0.0775919
20	0x3ddebe4b	0.10876139
21	0xbda536e3	-0.080671094
22	0xbcdaeeab	-0.026725134
23	0xbd98e450	-0.07465422
24	0x3ce13fb1	0.02749619
25	0xbcf55067	-0.029945565
26	0xbc32fde6	-0.010924792
27	0xbc537050	-0.012905195
28	0x3d04ab81	0.03239012
29	0x3d4ef5da	0.05052743
30	0xbd43d8f3	-0.04781432
31	0xbda48820	-0.08033776
32	0xbd09c829	-0.033638153
33	0x3d246e42	0.040144213
34	0x3d7bfa11	0.06151778
35	0x3cfa1eff	0.030532358
36	0x3e077860	0.13229513
37	0x3d94dbd8	0.07268494
38	0x3d228975	0.03968187
39	0xbcdc23a6	-0.026872467

transformer.norm.running_mean f4 [40]
0	0xbdce7694	-0.10081211
1	0xbd5c4403	-0.0537758
2	0x3de0d424	0.109779626
3	0x3a8e4297	0.0010853586
4	0xbcfd4a14	-0.030919112
5	0xbcc46f88	-0.023978963
6	0x3b2cfbb4	0.0026395144
7	0xbd77dd30	-0.060513675
8	0x3d72322d	0.059129883
9	0x3d3dde78	0.04635474
10	0xbd0278b2	-0.031853385
11	0xbd6dd455	-0.058063824
12	0x3d998573	0.074961565
13	0x3d0550c2	0.03254772
14	0x3c2aea8f	0.0104319
15	0xbd672d7e	-0.05643987
16	0xbd0f7c39	-0.035030577
17	0xbcd6362d	-0.02614888
18	0x3b1f7200	0.0024329424
19	0xbcbd0c75	-0.023077229
20	0x3ce35db8	0.02775465
21	0xbc92feea	-0.017943818
22	0x3b0f22f7	0.002184091
23	0x3d12b1c4	0.03581406
24	0xbbdb7583	-0.006697358
25	0x3b1d233b	0.0023977298
26	0xbc9d8c9e	-0.01923209
27	0xbbc48106	-0.005996826
28	0xbbf35a59	-0.0074265418
29	0x3c4372af	0.011929198
30	0xbc4ca9ad	-0.012491626
31	0xbcbad2df	-0.02280563
32	0xbb4aafb1	-0.0030927474
33	0x3c680b23	0.014162811
34	0x3bb78e7a	0.0056017013
35	0x3b938213	0.00450159
36	0x3cb0bb62	0.021573726
37	0x3b8c16ce	0.0042751795
38	0xbcd74be2	-0.026281301
39	0xbb5d5668	-0.0033773426

transformer.norm.running_var f4 [40]
0	0x3fdde9b0	1.7336941
1	0x3fe79a30	1.8093929
2	0x3facd467	1.350232
3	0x3f6f5f6b	0.9350497
4	0x3f5e4d22	0.86836445
5	0x3f8bcfd2	1.0922797
6	0x3f5a087d	0.851692
7	0x3f647572	0.8924171
8	0x3f41836e	0.7559117
9	0x3f2bff34	0.67186284
10	0x3f638d89	0.8888784
11	0x3f43455f	0.76277727
12	0x3f4b810c	0.79493785
13	0x3f41fb38	0.75773954
14	0x3f470c9d	0.7775362
15	0x3f3452ae	0.7043866
16	0x3f488ffc	0.783447
17	0x3f1afaa4	0.605387
18	0x3f3d3503	0.73909014
19	0x3f3b5cfc	0.7318876
20	0x3efd8ca6	0.4952137
21	0x3ee2c797	0.442929
22	0x3efe4864	0.49664605
23	0x3ef7946c	0.48355424
24	0x3f043075	0.5163644
25	0x3f1967bc	0.5992391
26	0x3e8ed951	0.27900174
27	0x3eca5999	0.39521483
28	0x3ecc31de	0.39881796
29	0x3ea36958	0.31916308
30	0x3e9b6c21	0.30355933
31	0x3eea7d6d	0.45798817
32	0x3f0897ab	0.53356427
33	0x3ee78406	0.45217913
34	0x3e9cdce5	0.3063728
35	0x3e88647e	0.2663917
36	0x3ed26600	0.41093445
37	0x3ed04636	0.40678567
38	0x3ea19b25	0.31563678
39	0x3e9a34f1	0.30118516

transformer.position_encoding.pe f4 [1, 384, 32]
0	0x00000000	0.0
1	0x3f800000	1.0
2	0x00000000	0.0
3	0x3f800000	1.0
4	0x00000000	0.0
5	0x3f800000	1.0
6	0x00000000	0.0
7	0x3f800000	1.0
8	0x00000000	0.0
9	0x3f800000	1.0
10	0x00000000	0.0
11	0x3f800000	1.0
12	0x00000000	0.0
13	0x3f800000	1.0
14	0x00000000	0.0
15	0x3f800000	1.0
16	0x00000000	0.0
17	0x3f800000	1.0
18	0x00000000	0.0
19	0x3f800000	1.0
20	0x00000000	0.0
21	0x3f800000	1.0
22	0x00000000	0.0
23	0x3f800000	1.0
24	0x00000000	0.0
25	0x3f800000	1.0
26	0x00000000	0.0
27	0x3f800000	1.0
28	0x00000000	0.0
29	0x3f800000	1.0
30	0x00000000	0.0
31	0x3f800000	1.0
32	0x3f576aa4	0.84147096
33	0x3f0a5141	0.54030234
34	0x3f1cfebf	0.6132621
35	0x3f4a358a	0.78987944
36	0x3ed82743	0.42217454
37	0x3f681157	0.9065146
38	0x3e914bec	0.28378236
39	0x3f7579bb	0.9588887
40	0x3e4159a6	0.18881854
41	0x3f7b6523	0.982012
42	0x3e0014ce	0.12507936
43	0x3f7dfd54	0.99214673
44	0x3da95d65	0.08269767
45	0x3f7f1f85	0.9965747
46	0x3d5fc4a3	0.054630887
47	0x3f7f9e21	0.9985066
48	0x3d13c504	0.03607656
49	0x3f7fd556	0.999349
50	0x3cc32253	0.023820078
51	0x3f7fed68	0.9997163
52	0x3c80d4ce	0.015726473
53	0x3f7ff7e5	0.9998763
54	0x3c2a1bce	0.010382606
55	0x3f7ffc78	0.9999461
56	0x3be09bb2	0.006854498
57	0x3f7ffe76	0.9999765
58	0x3b944889	0.0045252484
59	0x3f7fff54	0.99998975
60	0x3b43c9fc	0.002987503
61	0x3f7fffb5	0.9999955
62	0x3b0141c1	0.001972303
63	0x3f7fffdf	0.99999803
64	0x3f68c7b7	0.9092974
65	0xbed51133	-0.41614684
66	0x3f7803b1	0.9688063
67	0x3e7dc44c	0.24781913
68	0x3f43f238	0.7654147
69	0x3f24bedc	0.6435373
70	0x3f0b52c0	0.5442314
71	0x3f56c474	0.83893514
72	0x3ebddf49	0.37084416
73	0x3f6dbef7	0.92869514
74	0x3e7e269e	0.24819419
75	0x3f77fd66	0.9687103
76	0x3e28c8e1	0.16482879
77	0x3f7c7f9c	0.98632216
78	0x3ddf6f16	0.1090986
79	0x3f7e78d0	0.99403095
80	0x3d93ac64	0.07210615
81	0x3f7f5568	0.99739695
82	0x3d431427	0.04762664
83	0x3f7fb5a1	0.9988652
84	0x3d00d0ba	0.031449057
85	0x3f7fdf95	0.99950534
86	0x3caa1975	0.020764092
87	0x3f7ff1df	0.9997844
88	0x3c609a58	0.013708673
89	0x3f7ff9d7	0.999906
90	0x3c144825	0.009050404
91	0x3f7ffd51	0.99995905
92	0x3bc3c9c3	0.0059749796
93	0x3f7ffed5	0.9999822
94	0x3b8141b0	0.003944598
95	0x3f7fff7e	0.99999225
96	0x3e1081c3	0.14112
97	0xbf7d7026	-0.9899925
98	0x3f6aced2	0.9172183
99	0xbecbf91e	-0.398385
100	0x3f772df0	0.9655447
101	0x3e853dd2	0.26023728
102	0x3f428aee	0.7599324
103	0x3f26668a	0.6500021
104	0x3f0a1e86	0.53952825
105	0x3f578b2e	0.84196746
106	0x3ebc1d43	0.36741075
107	0x3f6e1855	0.9300588
108	0x3e7bbb0e	0.24583074
109	0x3f7824e2	0.9693128
110	0x3e272882	0.16324046
111	0x3f7c90ec	0.98658633
112	0x3ddd450e	0.10804187
113	0x3f7e8060	0.99414635
114	0x3d923d67	0.07140618
115	0x3f7f58b5	0.9974473
116	0x3d412ee5	0.047163863
117	0x3f7fb712	0.9988872
118	0x3cff2051	0.03114334
119	0x3f7fe036	0.99951494
120	0x3ca87212	0.020562205
121	0x3f7ff225	0.9997886
122	0x3c5e6b3f	0.013575374
123	0x3f7ff9f6	0.99990785
124	0x3c12d70a	0.008962402
125	0x3f7ffd5e	0.9999598
126	0x3bc1e25f	0.005916878
127	0x3f7ffeda	0.9999825
128	0xbf41bdcf	-0.7568025
129	0xbf275530	-0.6536436
130	0x3ef5d9d3	0.4801775
131	0xbf608e4d	-0.87717134
132	0x3f7c3285	0.98514587
133	0xbe2fd73b	-0.17171948
134	0x3f69c42e	0.9131497
135	0x3ed0b422	0.4076243
136	0x3f305559	0.6888023
137	0x3f399646	0.72494924
138	0x3ef632d3	0.4808565
139	0x3f6075eb	0.8767993
140	0x3ea679e1	0.3251486
141	0x3f7216f7	0.9456629
142	0x3e5e19a9	0.21689476
143	0x3f79e7ea	0.976195
144	0x3e1349fc	0.14383692
145	0x3f7d5685	0.98960143
146	0x3dc2db7b	0.09514519
147	0x3f7ed6b0	0.9954634
148	0x3d80c06a	0.062867
149	0x3f7f7e5d	0.9980219
150	0x3d2a1011	0.04151923
151	0x3f7fc77d	0.9991377
152	0x3ce094f1	0.02741477
153	0x3f7fe75e	0.99962413
154	0x3c944697	0.018100066
155	0x3f7ff544	0.9998362
156	0x3c43c8de	0.011949746
157	0x3f7ffb52	0.9999286
158	0x3c01416e	0.007889135
159	0x3f7ffdf6	0.9999689
160	0xbf757c10	-0.9589243
161	0x3e913c2c	0.2836622
162	0xbe22761a	-0.15865365
163	0xbf7cc1f1	-0.9873343
164	0x3f520fca	0.8205534
165	0xbf125266	-0.5715698
166	0x3f7dc4e4	0.99128556
167	0x3e06e45c	0.1317305
168	0x3f50342b	0.813296
169	0x3f14f422	0.5818502
170	0x3f16353b	0.58674973
171	0x3f4f4cfa	0.8097683
172	0x3ecdf245	0.402239
173	0x3f6a607c	0.91553473
174	0x3e8a3080	0.26990128
175	0x3f767fd4	0.962888
176	0x3e37c059	0.17944469
177	0x3f7bd839	0.98376805
178	0x3df35d40	0.118830204
179	0x3f7e2fa6	0.99291456
180	0x3da0e13a	0.078554586
181	0x3f7f357b	0.9969098
182	0x3d548b49	0.051890645
183	0x3f7fa7b5	0.99865276
184	0x3d0c5a8e	0.034266047
185	0x3f7fd983	0.9994127
186	0x3cb956c8	0.022624388
187	0x3f7fef3a	0.99974406
188	0x3c74ba3f	0.014936983
189	0x3f7ff8b0	0.9998884
190	0x3c21918c	0.009861361
191	0x3f7ffcd0	0.99995136
192	0xbe8f0f8c	-0.2794155
193	0x3f75cdb8	0.96017027
194	0xbf3b167f	-0.730812
195	0xbf2ebd7c	-0.6825788
196	0x3f00a68f	0.5025415
197	0xbf5d535a	-0.8645531
198	0x3f7ce805	0.98791534
199	0xbe1eb6dc	-0.15499443
200	0x3f689575	0.90853053
201	0x3ed5ec4f	0.41781852
202	0x3f2ef515	0.68342716
203	0x3f3ae281	0.7300187
204	0x3ef4017a	0.47657377
205	0x3f610ef5	0.8791345
206	0x3ea4ea81	0.32210162
207	0x3f725b44	0.9467051
208	0x3e5bf979	0.21481885
209	0x3f7a05fe	0.97665393
210	0x3e11ddd6	0.1424478
211	0x3f7d63af	0.9898023
212	0x3dc0f7dc	0.094222754
213	0x3f7edc70	0.9955511
214	0x3d7f00a3	0.062256467
215	0x3f7f80df	0.99806017
216	0x3d2868f4	0.041115716
217	0x3f7fc895	0.9991544
218	0x3cde6600	0.027148247
219	0x3f7fe7d8	0.9996314
220	0x3c92d588	0.017924085
221	0x3f7ff579	0.99983937
222	0x3c41e180	0.011833549
223	0x3f7ffb69	0.99992996
224	0x3f283046	0.6569866
225	0x3f40ffbd	0.75390226
226	0xbf7ef03b	-0.9958531
227	0xbdba5174	-0.09097567
228	0x3db97c2c	0.09056887
229	0xbf7ef2a9	-0.9958902
230	0x3f673fbb	0.9033162
231	0xbedba2a7	-0.4289753
232	0x3f7898af	0.97107977
233	0x3e747c49	0.23875536
234	0x3f44f574	0.7693703
235	0x3f238899	0.63880306
236	0x3f0c3261	0.5476437
237	0x3f5632bc	0.83671165
238	0x3ebf266a	0.37333995
239	0x3f6d7d65	0.9276946
240	0x3e7fe948	0.24991333
241	0x3f77e06d	0.9682682
242	0x3e29f7da	0.16598454
243	0x3f7c72e8	0.98612833
244	0x3de10245	0.10986761
245	0x3f7e7343	0.99394625
246	0x3d94b779	0.07261557
247	0x3f7f52fc	0.99736
248	0x3d447552	0.047963448
249	0x3f7fb493	0.9988491
250	0x3d01ba07	0.03167155
251	0x3f7fdf1f	0.9994983
252	0x3cab4d9b	0.020911029
253	0x3f7ff1ab	0.9997813
254	0x3c623143	0.01380569
255	0x3f7ff9c1	0.9999047

transformer.linear_proj.weight f4 [32, 40]
0	0xbe69bb39	-0.22825326
1	0xbf962b20	-1.1731911
2	0xbf601447	-0.8753094
3	0x3ea8840e	0.3291325
4	0xbebfe06c	-0.37475908
5	0xbf4075c2	-0.75179684
6	0xbdc58575	-0.096445955
7	0x3eec2766	0.4612381
8	0xbe6b50e4	-0.22980076
9	0x3e0255cb	0.1272804
10	0xbf62fca3	-0.88666743
11	0xbf70d2e4	-0.94071794
12	0xbf6080c6	-0.8769649
13	0x3d9e2486	0.0772181
14	0x3c65375e	0.013990251
15	0xbe608847	-0.21926986
16	0x3eb28957	0.34870407
17	0x3b2dab25	0.0026499715
18	0xbd36d1d6	-0.04463371
19	0xbe04a012	-0.12951687
20	0x3db05cde	0.08611463
21	0x3e67bcf8	0.2263068
22	0xbed5d488	-0.4176371
23	0xbeab06f0	-0.3340373
24	0x3d4e06ad	0.050299335
25	0xbf37d77a	-0.71813166
26	0xbee8bbf0	-0.45455885
27	0x3de413bf	0.11136579
28	0xbebea82d	-0.37237683
29	0x3e5b34dc	0.21406883
30	0x3f125242	0.57156765
31	0xbdcf1055	-0.10110537
32	0x3f176de4	0.59152055
33	0xbea181a6	-0.31544226
34	0x3f32bdf1	0.6982108
35	0x3f40d9fe	0.7533263
36	0xbdafbfa6	-0.08581476
37	0x3f2fd18e	0.6867913
38	0x3e45b7ca	0.19308391
39	0xbe8ce5b3	-0.27518997
40	0x3f1b3bef	0.60638326
41	0xbf0e312e	-0.5554379
42	0x3ed1616b	0.40894637
43	0xbefed42b	-0.49771246
44	0x3e40702a	0.18792787
45	0xbe6c9443	-0.23103432
46	0x3dcae752	0.09907402
47	0xbeccb458	-0.3998134
48	0xbe8d04b2	-0.27542645
49	0xbf85dc63	-1.0457882
50	0xbe5601f7	-0.20899187
51	0xbe9f5774	-0.3112141
52	0x3d859622	0.06522776
53	0x3e1e3f72	0.1545389
54	0x3ecd2b8b	0.40072283
55	0xbd65b5b5	-0.056081492
56	0x3dc0a74a	0.09406908
57	0xbeb3aef9	-0.3509443
58	0x3ece11e4	0.40248024
59	0x3f42a4fc	0.76032996
60	0xbe4e38bb	-0.20138828
61	0xbee04415	-0.43801942
62	0x3f64780d	0.8924568
63	0xbf1abd37	-0.6044497
64	0xbedf981a	-0.43670732
65	0x3f4ab3ad	0.79180413
66	0xbdbf6ad9	-0.093465514
67	0xbe86d6b5	-0.26335683
68	0x3f018d24	0.5060599
69	0xbdb50d54	-0.08840433
70	0x3ea0f8d9	0.31439856
71	0x3f20088d	0.6251305
72	0xbe105a1b	-0.14096873
73	0x3f759321	0.95927626
74	0x3e664290	0.22486329
75	0x3e34f861	0.17672874
76	0x3f529654	0.8226063
77	0x3f07f2b4	0.5310471
78	0x3ee8f412	0.4549871
79	0x3f23ff39	0.64061314
80	0x3e4e92b5	0.20173152
81	0x3f1678cc	0.5877807
82	0x3fad44ec	1.3536658
83	0x3e3ac370	0.18238616
84	0x3ef8628c	0.48512685
85	0x3ee56ad3	0.44808063
86	0x3f36479c	0.7120302
87	0x3f4759fb	0.77871674
88	0x3e28689c	0.16446155
89	0x3f3a8b57	0.72868866
90	0xbe9cf29b	-0.30653843
91	0x3d1a3ac4	0.0376537
92	0x3e837f39	0.25683
93	0xbf698e05	-0.9123233
94	0xbf4faf60	-0.81126976
95	0xbcec738f	-0.028863696
96	0xbcfd7a5f	-0.03094214
97	0xbf5e622a	-0.86868536
98	0x3e5033c5	0.20332249
99	0xbf0128d6	-0.50452936
100	0xbd2afbd5	-0.041744072
101	0xbd7fcee0	-0.06245315
102	0xbe00cb77	-0.12577616
103	0x3ef83336	0.4847657
104	0x3e3c0716	0.18362078
105	0x3f382a63	0.71939677
106	0x3d7e84d5	0.062138397
107	0x3e6c5f79	0.23083295
108	0xbf4e5b9a	-0.8060852
109	0xbee56596	-0.44804066
110	0xbf2bb52e	-0.67073333
111	0x3e6b534e	0.22980997
112	0x3f273dc0	0.653286
113	0x3d67e4a8	0.056614548
114	0x3dddd34a	0.10831316
115	0xbeb41e04	-0.3517915
116	0x3ed0d065	0.40783992
117	0x3f2a4c76	0.6652292
118	0xbe9c82a4	-0.3056842
119	0xbe445e24	-0.19176537
120	0x3d9aecd8	0.075647056
121	0xbeb37723	-0.35051832
122	0x3d960c4c	0.07326564
123	0xbeb8015a	-0.3593853
124	0xbef0aba5	-0.47005954
125	0x3f2c4b5c	0.6730249
126	0xbdbde3fb	-0.092719994
127	0xbeeea369	-0.46609047
128	0xbefebadf	-0.49751946
129	0xbe5b2962	-0.21402505
130	0x3e4995da	0.1968607
131	0x3ef792f0	0.48354292
132	0x3e4abce5	0.1979862
133	0x3dd16f18	0.102262676
134	0xbe620319	-0.22071494
135	0xbe0ffbb8	-0.14060867
136	0x3e94f948	0.29096437
137	0x3f2806da	0.65635455
138	0x3dae2470	0.08503044
139	0x3f1ec3e1	0.6201764
140	0x3f0f8c01	0.56073004
141	0x3ec3aa9c	0.38216102
142	0xbe97e327	-0.2966549
143	0x3d62879b	0.055305105
144	0xbf1d82ea	-0.61527884
145	0x3e544aa1	0.20731594
146	0xbd31bed6	-0.043394886
147	0xbd496c06	-0.049175285
148	0xbd1d510c	-0.03840737
149	0x3d85f96d	0.06541715
150	0x3ecc3b6a	0.3988908
151	0x3f5945ee	0.8487233
152	0xbde060ff	-0.109560005
153	0x3dc23e39	0.09484524
154	0xbf10a51e	-0.5650195
155	0xbddcfc04	-0.10790256
156	0x3e9dfe03	0.30857858
157	0x3e496d63	0.19670634
158	0xbf2c4717	-0.67295974
159	0xbeeb4275	-0.4594914
160	0xbf10b639	-0.5652805
161	0x3d4eeab5	0.050516803
162	0xbeb5aac3	-0.35481843
163	0xbed863a5	-0.42263523
164	0x3dba3927	0.09092932
165	0xbf5cef80	-0.8630295
166	0xbe2be2c9	-0.1678573
167	0x3e2761b9	0.16345872
168	0xbe5b2b9c	-0.21403354
169	0xbdb8d654	-0.09025255
170	0xbe3c7500	-0.18404007
171	0xbf021bf3	-0.508239
172	0x3e9a622a	0.30153018
173	0x38a64351	7.9280355e-05
174	0xbed504d3	-0.41605243
175	0x3efa8638	0.48930526
176	0x3e193e53	0.14965181
177	0x3f3f2341	0.7466317
178	0xbe869bd4	-0.26290762
179	0xbf020229	-0.50784546
180	0xbf11a22b	-0.56888074
181	0xbfa13c5c	-1.2596545
182	0xbf06d725	-0.52672035
183	0xbd393466	-0.045215987
184	0xbf142c63	-0.5788023
185	0x3e963768	0.29339147
186	0xbd3f74dd	-0.04674231
187	0xbe4eac71	-0.20182969
188	0x3efa5f75	0.48900953
189	0xbf0a8d71	-0.5412207
190	0x3ebdafc1	0.37048152
191	0x3f08d588	0.5345082
192	0xbe62fc31	-0.22166516
193	0x3ee70fba	0.45129186
194	0x3e626181	0.22107507
195	0xbee4c445	-0.44680992
196	0x3f911a90	1.1336231
197	0x3df293a2	0.11844565
198	0x3e227b07	0.15867244
199	0x3da953d1	0.0826794
200	0xbd904357	-0.07044094
201	0xbe3a6410	-0.18202233
202	0x3e483f0e	0.19555303
203	0xbed8fb84	-0.4237939
204	0x3df1b117	0.11801355
205	0xbe9427d1	-0.28936628
206	0xbe92eb61	-0.28695205
207	0xbf58d9de	-0.8470744
208	0xbee1190a	-0.43964416
209	0x3e637970	0.22214293
210	0xbf4273c3	-0.7595789
211	0x3ef4c9c1	0.47810176
212	0x3eeb2211	0.45924428
213	0x3d6143ef	0.054996427
214	0x3e402668	0.18764651
215	0x3e5c508e	0.21515104
216	0xbdade7f1	-0.08491505
217	0x3e66df7a	0.22546187
218	0xbecd9918	-0.40155864
219	0x3f1ea4ad	0.61970025
220	0x3f01fb7a	0.5077435
221	0x3ede9601	0.4347382
222	0x3f537e23	0.82614344
223	0xbeb1e289	-0.34743145
224	0x3eedaf2e	0.46422714
225	0xbcfb27d0	-0.030658633
226	0xbe464659	-0.19362773
227	0xbe68f079	-0.22747983
228	0xbe27e727	-0.16396771
229	0xbdd9c1d8	-0.10632676
230	0xbe7b72b2	-0.24555472
231	0xbf8aacb9	-1.0833961
232	0x3f0d6d05	0.55244476
233	0xbec257d3	-0.3795763
234	0xbd8b3a18	-0.0679819
235	0x3d8a7474	0.06760493
236	0x3e916bae	0.28402466
237	0xbed912e0	-0.42397213
238	0x3f453b5f	0.7704372
239	0xbe45a1ad	-0.19299956
240	0xbdd9e34f	-0.10639059
241	0xbe9843b0	-0.2973914
242	0x3e958d83	0.29209527
243	0xbea8100a	-0.32824737
244	0x3d81e854	0.06343141
245	0xbeec6633	-0.46171722
246	0x3de82dd5	0.11336867
247	0x3ec1c6a5	0.37846866
248	0xbdf75e3f	-0.12078523
249	0x3eb4606f	0.35229823
250	0x3cc2233b	0.02369844
251	0x3d9eec37	0.07759898
252	0x3d526c2b	0.05137269
253	0x3da0ccf9	0.078515954
254	0xbe96a60b	-0.29423556
255	0x3e863f4b	0.26220164

transformer.linear_proj.bias f4 [32]
0	0xbee4e44b	-0.44705424
1	0x3d78c0a4	0.06073059
2	0xbdb9ba88	-0.09068781
3	0xbeb68b80	-0.35653305
4	0x3eddab37	0.4329469
5	0xbed999ab	-0.42500052
6	0xbe964b78	-0.29354453
7	0x3c356be7	0.011073089
8	0xbd1e6d4d	-0.038678456
9	0xbeadb3c2	-0.33926207
10	0xbba48a60	-0.0050213784
11	0xbd33d5e8	-0.04390517
12	0xbe155a2a	-0.14585176
13	0x3e4eaee3	0.20183901
14	0x3da5b620	0.08091378
15	0x3c9da657	0.019244356
16	0x3e2dff8a	0.16992012
17	0xbe4c2230	-0.19934916
18	0xbe7bddf3	-0.24596386
19	0xbf1b59e7	-0.60684055
20	0xbf4589db	-0.77163476
21	0x3e1187d1	0.14211966
22	0xbe825800	-0.25457764
23	0x3dbc8bab	0.09206327
24	0x3e047f4d	0.12939186
25	0x3f089998	0.53359365
26	0x3f6edb48	0.93303347
27	0x3eb15b8f	0.34640166
28	0xbf510c44	-0.8165934
29	0x3ec83225	0.39100757
30	0x3eacb469	0.33731392
31	0x3f829c31	1.0203916

transformer.transformer_encoder.layers.0.self_attn.in_proj_weight f4 [96, 32]
0	0x3de375ab	0.11106428
1	0x3ebe3c5d	0.3715543
2	0xbd95a4df	-0.07306837
3	0x3e4ebe6f	0.20189832
4	0x3f31454a	0.6924635
5	0xbdd5361e	-0.10410713
6	0xbe94ac0d	-0.29037514
7	0xbef06409	-0.4695132
8	0x3e0c0dd8	0.13677156
9	0x3cb49d87	0.022047771
10	0x3e571c24	0.21006829
11	0xbf207dfe	-0.6269225
12	0x3ca40f65	0.020026872
13	0xbd089eac	-0.033354446
14	0xbf0f6678	-0.5601573
15	0xbee25b4e	-0.44210285
16	0xbd8a7123	-0.0675986
17	0xbf916255	-1.1358134
18	0xbe41ad6a	-0.18913808
19	0xbc912744	-0.017718919
20	0x3f000566	0.5000824
21	0x3e595d8d	0.21227093
22	0xbe842c12	-0.25814873
23	0xbe613711	-0.21993662
24	0xbe58753d	-0.21138473
25	0xbe4a02ed	-0.19727679
26	0x3ed23b04	0.4106065
27	0x3f012d7d	0.50460035
28	0xbe800b86	-0.25008792
29	0xbdecb1a5	-0.115573205
30	0xbd73c30d	-0.059512187
31	0xbf252c26	-0.6452049
32	0x3e47c237	0.19507681
33	0x3e144d6b	0.14482658
34	0x3e6176c4	0.22017962
35	0xbd92d4b2	-0.07169475
36	0x3dcf055a	0.101084426
37	0xbe862ace	-0.26204532
38	0xbeacf36c	-0.33779466
39	0x3b09dc9c	0.0021036034
40	0xbe526ba0	-0.20548868
41	0x3ed81e39	0.42210558
42	0x3da9dae2	0.08293702
43	0x3e061e7d	0.13097568
44	0xbea34bc8	-0.31893754
45	0x3e257b01	0.16160204
46	0x3e2919f3	0.16513805
47	0xbd68286d	-0.056679178
48	0x3d9d4dad	0.07680831
49	0x3f26fc31	0.65228564
50	0x3dd95ad5	0.10613028
51	0x3d816268	0.06317598
52	0xbe3dfc86	-0.18553361
53	0xbe872566	-0.2639572
54	0xbe81b06a	-0.25329906
55	0xbcf14458	-0.029451534
56	0x3e8e2a61	0.27766708
57	0xbe9f75ab	-0.3114446
58	0xbcd72854	-0.026264347
59	0xbe94841c	-0.2900704
60	0xbe9ca6ec	-0.305961
61	0x3e65fc36	0.22459492
62	0xbdf56d3b	-0.11983725
63	0x3d89dfc7	0.06732135
64	0xbe8a0e26	-0.2696392
65	0x3f21f705	0.63267547
66	0x3dd244e5	0.10267047
67	0xbe7ef977	-0.24899851
68	0xbd6abceb	-0.057309072
69	0x3e73f4f3	0.2382391
70	0xbe04b21b	-0.12958567
71	0xbd6fcbf9	-0.058544133
72	0x3ee058f6	0.43817872
73	0x3f141316	0.5784162
74	0x3f0d3bb1	0.55169207
75	0x3dd0ac14	0.10189071
76	0x3ebb1fb5	0.36547628
77	0xbdc58665	-0.09644774
78	0xbdfeb2bd	-0.12436435
79	0xbe1b1190	-0.15143418
80	0xbe091009	-0.13385023
81	0x3e86cceb	0.26328215
82	0x3d363e5b	0.04449306
83	0xbe073119	-0.13202323
84	0xbe1745b9	-0.14772691
85	0xbed9eed4	-0.42565024
86	0xbeea9a95	-0.45821062
87	0xbe0ad1c5	-0.13556583
88	0xbf0189be	-0.506008
89	0xbf0d7755	-0.5526021
90	0x3e57d09f	0.21075676
91	0xbebe275b	-0.371394
92	0x3ea6d62d	0.32585278
93	0x3d005e86	0.031340145
94	0xbd89c5ea	-0.06727202
95	0x3e37da44	0.17954355
96	0x3d9ab265	0.07553557
97	0xbf50acf3	-0.815139
98	0x3e78ddf9	0.24303426
99	0xbead2c94	-0.33823073
100	0xbee9035f	-0.45510384
101	0xbd9d01c6	-0.07666354
102	0x3ea6a516	0.32547826
103	0x3e9ebd76	0.31003922
104	0x3d88a9bc	0.06672999
105	0xbebfd1b0	-0.37464666
106	0xbdae1452	-0.084999695
107	0x3ec37ef7	0.38182804
108	0xbf10db4d	-0.56584626
109	0x3d278f71	0.04090828
110	0x3f47c30c	0.7803199
111	0x3ef4fda5	0.47849765
112	0x3da1f03b	0.079071485
113	0x3f90ca03	1.1311649
114	0x3e0fba9e	0.14036033
115	0xbe35de23	-0.1776052
116	0xbee839b4	-0.45356524
117	0x3df529f8	0.119708955
118	0xbdddcb81	-0.10829831
119	0x3eb8b910	0.3607869
120	0x3ed3815c	0.4130963
121	0x3ee402cd	0.44533387
122	0xbd92f1dd	-0.07175038
123	0xbf04472d	-0.51671106
124	0xbda8d3eb	-0.08243545
125	0x3ec87295	0.3914992
126	0x3ec1eaa7	0.37874338
127	0x3f557818	0.83386374
128	0x3d26bdff	0.04070854
129	0x3d33679f	0.043799993
130	0x3e84cdab	0.25938162
131	0xbe32f14d	-0.17474861
132	0x3dbcb088	0.09213358
133	0xbe45171c	-0.19247097
134	0x3e8ba4c0	0.27274132
135	0x3e63ea0b	0.22257249
136	0x3e8cae00	0.274765
137	0xbe754ac8	-0.23954308
138	0x3f0d0a6e	0.5509404
139	0x3e1c1afb	0.15244667
140	0xbeb12a3d	-0.34602538
141	0xbdd0556a	-0.101725414
142	0xbdbd60de	-0.092469916
143	0x3e51dcb8	0.20494354
144	0x3dfba168	0.12286645
145	0x3e695a4e	0.22788355
146	0xbe3b4439	-0.18287744
147	0xbe361f7c	-0.17785448
148	0x3e91bb20	0.28463078
149	0x3bb8fe41	0.005645544
150	0xbdbde04c	-0.09271297
151	0x3ed70eeb	0.4200357
152	0xbe49ba60	-0.19700003
153	0x3eba1d8e	0.36350673
154	0xbe0a60ab	-0.13513438
155	0x3e5b0028	0.21386778
156	0xbd942c60	-0.07235026
157	0xbe4e3e46	-0.20140943
158	0x3c2e2b33	0.010630417
159	0xbe816408	-0.2527163
160	0xbe706d61	-0.23479225
161	0x3f0aaf64	0.54173875
162	0x3e44e1b3	0.19226722
163	0x3e46935f	0.19392155
164	0x3e86bb4f	0.2631478
165	0x3f0cdbe7	0.55023044
166	0xbdc95c41	-0.09832049
167	0xbe6fe309	-0.23426451
168	0x3c82a685	0.015948543
169	0xbe380e04	-0.17974097
170	0xbe2f4367	-0.17115556
171	0xbe307b44	-0.17234522
172	0x3d66e9aa	0.056375183
173	0x3c8c8051	0.01715103
174	0xbe31ea51	-0.17374541
175	0x3ed192df	0.40932366
176	0xbea80a7a	-0.32820493
177	0xbf08ab63	-0.53386515
178	0xbd35d733	-0.044394683
179	0x3d6af960	0.05736673
180	0xbc179772	-0.009252416
181	0x3e2c50ca	0.16827694
182	0xbc8718c4	-0.016491301
183	0x3ce1585d	0.027507955
184	0xbf338c42	-0.7013589
185	0x3ebd9c31	0.37033227
186	0xbe112484	-0.14174086
187	0xbd51aa3a	-0.05118773
188	0x3dbce755	0.092238106
189	0xbe2d0fe6	-0.16900596
190	0xbd69ee0e	-0.057111792
191	0xbf4d0219	-0.80081326
192	0x3bf61eef	0.007511012
193	0xbd30ff12	-0.043212004
194	0x3e0932ea	0.13398328
195	0x3e5547cb	0.20828168
196	0xbe70d32c	-0.23518056
197	0xbe051c69	-0.12999119
198	0x3e51b11e	0.20477721
199	0xbc3d5189	-0.011555084
200	0xbec7c2e3	-0.39015874
201	0x3e8751e0	0.26429653
202	0x3e411ec3	0.18859391
203	0xbea83ba5	-0.32858005
204	0x3f054d4e	0.5207108
205	0x3e970a47	0.29500028
206	0x3e05a60e	0.13051626
207	0x3d621440	0.055195093
208	0x3df4d983	0.119555496
209	0xbe9469bd	-0.28986922
210	0xbe8f0fa4	-0.2794162
211	0x3e846c08	0.2586367
212	0x3dc19121	0.09451509
213	0x3e73f3c6	0.23823461
214	0x3e6c32c4	0.2306624
215	0x3f2cfcc1	0.6757317
216	0xbe4e63fa	-0.20155326
217	0xbcc99b9b	-0.024610331
218	0x3e039801	0.12850954
219	0x3e980f5b	0.29699215
220	0x3da53866	0.08067398
221	0xbe0ec291	-0.13941409
222	0xbdcfafa8	-0.10140926
223	0xbe6b875f	-0.23000859
224	0xbe5e2390	-0.21693254
225	0xbd14dd7a	-0.03634403
226	0xbe6789c5	-0.22611149
227	0x3d16d6d8	0.036825985
228	0xbbe64034	-0.0070266966
229	0xbe1bd3ec	-0.1521756
230	0x3b46c636	0.0030330545
231	0x3dcec3eb	0.10095962
232	0x3f44509f	0.7668552
233	0xbdce6397	-0.10077589
234	0x3e96336e	0.29336113
235	0x3e104e6d	0.14092417
236	0x3dda1a17	0.106495075
237	0xbe1b386a	-0.15158239
238	0xbe1bbb89	-0.15208258
239	0xbed70314	-0.41994536
240	0x3ca20620	0.019778311
241	0x3e4f371a	0.20235863
242	0xbe355fd7	-0.17712341
243	0xbe852c23	-0.26010236
244	0xbd2a09ce	-0.041513257
245	0xbe92c3d5	-0.28665033
246	0xbe4870ac	-0.19574231
247	0xbe9f2f65	-0.31090847
248	0xbeae7674	-0.34074748
249	0xbe321e07	-0.17394267
250	0x3e2875d2	0.16451195
251	0xbd93d4da	-0.072183326
252	0x3e1b087e	0.15139958
253	0x3e8619ce	0.26191562
254	0x3dc678a7	0.09690981
255	0x3eb1f8e7	0.3476021

transformer.transformer_encoder.layers.0.self_attn.in_proj_bias f4 [96]
0	0xbe1d47ca	-0.15359417
1	0x3bfd804e	0.0077362424
2	0xbd240b5f	-0.040049907
3	0x3f139b10	0.5765848
4	0xbb8393e9	-0.004015435
5	0xbee66e66	-0.45006102
6	0x3cfe8aac	0.031071983
7	0x3df884c1	0.12134696
8	0x3e9d3ecf	0.30711982
9	0xbedafa76	-0.42769212
10	0xbf14c625	-0.58114845
11	0xbf51ecfd	-0.8200224
12	0xbe46127c	-0.19342989
13	0x3f6dc0bf	0.9287223
14	0xbdf5f7f8	-0.12010187
15	0x3e8040ec	0.2504953
16	0xbd2a1335	-0.041522224
17	0xbde5ef9e	-0.11227344
18	0x3e1b7578	0.1518153
19	0xbde48239	-0.111576505
20	0xbeb7c23e	-0.35890383
21	0x3f10553f	0.56380075
22	0x3fc86f93	1.565905
23	0xbf368f37	-0.7131228
24	0xbf770bc1	-0.9650231
25	0x3f8baec4	1.0912709
26	0xbe651479	-0.22371091
27	0x3e3548d1	0.17703559
28	0x3e3e69a4	0.18594986
29	0x3d234889	0.039864097
30	0x3e00d843	0.12582497
31	0xbb80042f	-0.0039067487
32	0x3e58bd70	0.21166015
33	0x3e425d9b	0.1898102
34	0x3e9616df	0.29314324
35	0xbecd56e8	-0.40105367
36	0x3c0cb9d4	0.008589227
37	0x3eabe684	0.33574307
38	0xbf096429	-0.5366846
39	0xbed4f5e1	-0.4159384
40	0xbe4bbbbc	-0.19895834
41	0xbeb04aac	-0.3443197
42	0xbe8022e5	-0.25026622
43	0xbd000099	-0.03125057
44	0xbe1b5c6c	-0.15171975
45	0x3e098516	0.13429675
46	0x3d27b477	0.04094359
47	0xbd165204	-0.03669931
48	0xbf51581a	-0.8177506
49	0x3f68887b	0.9083325
50	0x3e2f34ff	0.1711006
51	0x3ee6ab6c	0.4505266
52	0xbdf3a845	-0.11897329
53	0xbee170e7	-0.4403145
54	0xbf719433	-0.9436676
55	0x3ef608b3	0.48053512
56	0xbe50f532	-0.20406035
57	0x3e103b2a	0.1408507
58	0xbec01768	-0.37517858
59	0xbf14a0c0	-0.58057785
60	0x3c12454c	0.0089276545
61	0xbf11d7bb	-0.56969804
62	0x3ee8eb8b	0.45492205
63	0x3d503c29	0.050838623
64	0xbc4402db	-0.011963571
65	0xbd94d2b6	-0.072667524
66	0xbe904b4b	-0.28182444
67	0xbd1e1546	-0.038594507
68	0x3ea0a2c4	0.3137418
69	0x3c5de059	0.013542258
70	0x3dba18c8	0.09086758
71	0x3d44fbd6	0.048091732
72	0x3c9455fa	0.018107403
73	0xbcb60a02	-0.022221569
74	0xbca830c7	-0.020531071
75	0x3a988f6d	0.0011639424
76	0x3d535f8e	0.0516048
77	0x3e724177	0.23657785
78	0xbce63d20	-0.028105319
79	0x3da04acb	0.078267656
80	0xbe737df0	-0.2377851
81	0xbc3e5e6b	-0.011619191
82	0xbd8f4381	-0.06995297
83	0x3b5e65cd	0.003393519
84	0xbc6b903c	-0.01437765
85	0x3c186b91	0.00930299
86	0x3d87bc37	0.06627696
87	0x3da8066a	0.082043484
88	0x3da54f7c	0.08071801
89	0x3e5273e9	0.20552029
90	0x3a2204c2	0.00061805185
91	0xbd294894	-0.04132898
92	0x3ce0affc	0.027427666
93	0x3cb61c2d	0.022230232
94	0x3de103a6	0.10987024
95	0xbd544471	-0.051823083

transformer.transformer_encoder.layers.0.self_attn.out_proj.weight f4 [32, 32]
0	0x3c0bebfe	0.008540152
1	0x3d201f21	0.039092187
2	0xbe6e8794	-0.23293906
3	0xbd3e8696	-0.04651507
4	0x3dd69ad7	0.10478752
5	0xbd9f8db8	-0.077907026
6	0xbd654f7c	-0.055984005
7	0x3dcfcf8e	0.1014701
8	0x3c4c5867	0.012472249
9	0x3d53fdf7	0.05175587
10	0x3d049aa3	0.032374036
11	0xbcdff5bb	-0.027338853
12	0xbd6eff82	-0.05834914
13	0xbc0dd4ab	-0.008656661
14	0xbe007cc8	-0.125476
15	0xbdb1cb04	-0.086813
16	0x3b64699e	0.0034852992
17	0xbd4775a0	-0.04869616
18	0x3d3fc5ff	0.046819683
19	0xbda16cd3	-0.07882085
20	0x3cef519f	0.029213725
21	0x3b992d35	0.0046745786
22	0xbc72e2ec	-0.01482461
23	0xbdb4618f	-0.0880767
24	0x3db2e229	0.08734543
25	0xbdc84d9e	-0.09780429
26	0x3d13b237	0.03605863
27	0x3dc12dbc	0.09432551
28	0x3b2e00e6	0.0026550828
29	0x3ba82afe	0.005132078
30	0x3de3e224	0.11127117
31	0xbd89b6e8	-0.0672434
32	0xbbfa9060	-0.0076466054
33	0xbcec8a57	-0.02887456
34	0xbe0123eb	-0.12611358
35	0xbc14db87	-0.0090855425
36	0x3c86eec6	0.016471278
37	0xbd30d7ba	-0.043174483
38	0x3ccb3d0a	0.02480938
39	0x3d63bbae	0.055598907
40	0xbdf4c66a	-0.11951907
41	0xbdd00330	-0.10156858
42	0xbcfe314e	-0.03102937
43	0xbde3dc62	-0.11126019
44	0xbd015b07	-0.03158095
45	0xbddc59a2	-0.107592836
46	0x3ccbb0ad	0.024864519
47	0x3d853fbc	0.06506297
48	0x3d846b3a	0.06465764
49	0xbcec8049	-0.028869765
50	0x3af20eaa	0.0018467505
51	0x3b295399	0.0025837182
52	0x3cdbd713	0.026835954
53	0x3c8ffb1f	0.017575799
54	0x3cc2d7c9	0.023784535
55	0xbda13da9	-0.07873089
56	0x3dbf97e5	0.093551435
57	0x3cecf6ee	0.028926339
58	0x3cff13f9	0.031137453
59	0x3c113e07	0.008864886
60	0xbd7b616c	-0.061372206
61	0x3cef0a2c	0.029179655
62	0xbd964d2a	-0.073389366
63	0xbd3bee57	-0.045881595
64	0x3d01bd8a	0.0316749
65	0x3cb976f1	0.022639723
66	0xbe416137	-0.18884741
67	0x3d00443a	0.031315066
68	0x3bb1a338	0.0054210685
69	0x3c5c66d1	0.013452248
70	0xbd05ce4f	-0.032667454
71	0xbd29b6da	-0.041434146
72	0x3d612d49	0.054974828
73	0x3c2e7da6	0.010650074
74	0xbb6cda5d	-0.0036140897
75	0x3bd229cc	0.006413674
76	0xbd2566cb	-0.040381234
77	0x3d6f682f	0.058448967
78	0x3dc147f0	0.09437549
79	0xbd390790	-0.045173228
80	0xbd7ba468	-0.061436087
81	0x3b4009ab	0.0029302638
82	0xbd02c5b8	-0.03192684
83	0xbd17ebff	-0.037090298
84	0xba8b1ba8	-0.0010613101
85	0xbd1f10c3	-0.038834345
86	0xbccbd2b6	-0.024880748
87	0x3dc1fd28	0.09472114
88	0xbd36bd6d	-0.044614244
89	0x3d78ba60	0.060724616
90	0xbc94bb2f	-0.018155662
91	0xbc05b54a	-0.008160898
92	0xbcf8f2d5	-0.030389229
93	0xba517451	-0.000799005
94	0x3dfa1d8a	0.122126654
95	0x3dc24e52	0.09487595
96	0x3d2ca7a2	0.042152055
97	0x3ddd4e60	0.108059645
98	0xbce17570	-0.027521819
99	0x3dca2333	0.09869995
100	0x3d8d4423	0.06897762
101	0x3d34d25f	0.044145938
102	0xbdb0c755	-0.086317696
103	0xbd40e89f	-0.047096845
104	0x3d33ce46	0.04389789
105	0x3cf7fa1f	0.030270634
106	0x3d0655bf	0.032796618
107	0x3ca6114d	0.020271922
108	0xbcce2f71	-0.025169106
109	0x3e3e7a0b	0.18601243
110	0xbb3c4881	-0.002872974
111	0xbd9e332b	-0.07724603
112	0xbdcd2d39	-0.10018391
113	0x3d4a85ee	0.04944413
114	0xbd94e4f6	-0.07270233
115	0x394b2174	0.00019372051
116	0x3e0cd6b7	0.13753782
117	0xbd3e22a3	-0.04641975
118	0xbd1d7204	-0.038438812
119	0x3d4ac643	0.049505483
120	0xbdcab3fb	-0.0989761
121	0x3dd6207c	0.10455415
122	0x3e027dd9	0.1274332
123	0x3d200149	0.039063726
124	0x3cf2a02d	0.029617393
125	0xbd0e9250	-0.034807503
126	0xbd9f9d10	-0.07793629
127	0x3d61d477	0.055134263
128	0xbd12ce8e	-0.035841517
129	0xbd4cbff1	-0.049987737
130	0x3e08a4cd	0.13344117
131	0xbc4a6389	-0.012352833
132	0xbcf93da0	-0.030424893
133	0x3bfcd4d4	0.007715801
134	0x3bb2116c	0.0054342058
135	0xbdc8c613	-0.09803405
136	0xbd5e4208	-0.05426219
137	0x3d7c6478	0.061619252
138	0x3d4b0ad4	0.049570873
139	0x3d4751c3	0.04866196
140	0x3d373cda	0.044735767
141	0xbd2d1c09	-0.042263065
142	0x3c457642	0.012052121
143	0xbbb9f851	-0.0056753536
144	0xbded9c5f	-0.11602091
145	0xbd1ac5dd	-0.037786353
146	0x3e205009	0.15655531
147	0x3d204657	0.03912958
148	0xbdbf1a66	-0.09331207
149	0x3b80500e	0.0039157933
150	0x3d6b7d08	0.057492286
151	0x3e79b0cb	0.24383847
152	0x3c51c2db	0.012802805
153	0x3c67224a	0.014107296
154	0x3d0b295c	0.03397499
155	0x3df433ea	0.11923964
156	0x3ccde818	0.025135085
157	0x3d8aaa96	0.06770818
158	0x3d1edc52	0.038784333
159	0x3c627839	0.013822609
160	0xbd3b226a	-0.045687117
161	0x3e19ad12	0.15007427
162	0x3ce4b262	0.02791709
163	0xbd27b75d	-0.040946353
164	0xbd7572e6	-0.05992403
165	0xbcaf9f0b	-0.021438142
166	0xbb64c5f9	-0.003490804
167	0x3e0a543e	0.13508698
168	0xbb14e527	-0.0022719593
169	0x3bcb1051	0.0061970134
170	0x3d47e1e2	0.048799403
171	0xbc7a4810	-0.01527597
172	0xbd55f1b2	-0.05223245
173	0xbe07025d	-0.13184495
174	0xbdedbb31	-0.116079696
175	0xbd3a8bf5	-0.04554363
176	0x3c79df5a	0.015251005
177	0x3b0e024a	0.0021668845
178	0x3c70e923	0.014704022
179	0x3d56e77b	0.05246685
180	0xbda611a1	-0.08108831
181	0xbdf30044	-0.11865285
182	0x3e02ffc6	0.12792882
183	0x3d8c9fc0	0.068664074
184	0x3b7e17f6	0.0038771606
185	0x3ac58ced	0.0015071906
186	0xbca80bdd	-0.02051347
187	0x3d84a77b	0.06477257
188	0xbd686d45	-0.056744833
189	0xbcc78d13	-0.024359262
190	0x3d6ed2e2	0.058306582
191	0xbcbc34bd	-0.022974366
192	0x3da1b639	0.07896084
193	0x3ddc02cd	0.10742722
194	0x3e83f3e5	0.25772014
195	0x3d285e05	0.04110529
196	0xbdc02201	-0.09381486
197	0x3df5ac90	0.11995804
198	0xbc5fda65	-0.013662909
199	0x3dbe4653	0.09290757
200	0x3d2d4585	0.042302627
201	0xbbb04556	-0.0053793592
202	0xbd2bd6b1	-0.041952793
203	0x3e0543cc	0.13014144
204	0x3d78c850	0.060737908
205	0xbccac870	-0.02475378
206	0x3bf7c0ec	0.00756084
207	0xbb349506	-0.0027554645
208	0x3da61794	0.08109966
209	0x3d1e8be0	0.038707614
210	0x3e3e8c6e	0.18608257
211	0x3d213337	0.039355483
212	0x3d1c8098	0.038208574
213	0xbd2444ea	-0.040104784
214	0x3dda179f	0.106490366
215	0x3ddfdac4	0.10930398
216	0x3d9fa5ff	0.07795333
217	0xbd038251	-0.0321067
218	0x3e0d9af6	0.13828644
219	0x3b90c299	0.004417729
220	0xbd85dcbf	-0.065362446
221	0xbd05d306	-0.03267195
222	0xbd634a5d	-0.05549084
223	0x3e19ad24	0.15007454
224	0x3db6319e	0.088961825
225	0xbd97b7c3	-0.07408097
226	0xbc5ea38d	-0.013588798
227	0xbaf59140	-0.0018735304
228	0x3eaa09fd	0.33210745
229	0x3d46b3dc	0.04851137
230	0x3e08baa0	0.13352442
231	0x3de058d3	0.10954442
232	0xbd56e1d3	-0.052461457
233	0x3a76c016	0.00094127783
234	0x3deb5de6	0.11492519
235	0x3c9d7e90	0.019225389
236	0xbdaa93f9	-0.08329005
237	0x3b55f76c	0.0032648696
238	0x3d3b8e46	0.04578998
239	0x3d67854e	0.056523614
240	0x3ce42bf8	0.027852997
241	0xbdbfaa40	-0.093586445
242	0xbe1213f2	-0.14265421
243	0xbd255920	-0.0403682
244	0x3d66c491	0.056339804
245	0xbcde43c5	-0.027131924
246	0x3c2ba15b	0.010475482
247	0xbe71e7e9	-0.23623623
248	0xbb966ccd	-0.004590607
249	0xbde4d532	-0.11173476
250	0x3c30a778	0.010782115
251	0xbd5ffa2b	-0.05468194
252	0xbdcc5fa4	-0.099791795
253	0x3cf257fe	0.029582974
254	0xbcffbf03	-0.031219011
255	0xbe24891d	-0.1606793

transformer.transformer_encoder.layers.0.self_attn.out_proj.bias f4 [32]
0	0xbf83c69f	-1.0294989
1	0xbebffe2d	-0.37498608
2	0x3a9b1060	0.0011830442
3	0xbf5100f3	-0.81642073
4	0x3f2393a3	0.6389715
5	0xbf3231fc	-0.6960752
6	0xbf439e02	-0.76412976
7	0xbf0deb55	-0.55437213
8	0xbe1a65df	-0.15077923
9	0xbf2442d3	-0.64164466
10	0xbec09179	-0.37610987
11	0x3d3b7f9e	0.045776002
12	0xbe1085e4	-0.14113575
13	0x3e936d0a	0.28794128
14	0xbd6cb96a	-0.057794012
15	0xbe028d3a	-0.12749186
16	0x3e01b31e	0.12665984
17	0xbec888d0	-0.3916688
18	0xbb65c3a8	-0.0035059247
19	0xbf03b810	-0.5145273
20	0xbf45761f	-0.77133363
21	0xbf00a44a	-0.50250685
22	0xbf14bdfe	-0.58102405
23	0xbe72e717	-0.23720966
24	0x3f4237fe	0.7586669
25	0x3f0e929e	0.5569247
26	0x3f808275	1.0039812
27	0x3f1bbea7	0.6083779
28	0xbf3f05b2	-0.74618065
29	0x3edf39d7	0.43598816
30	0x3c8dc4dc	0.017305784
31	0x3fa3a0c7	1.278344

transformer.transformer_encoder.layers.0.linear1.weight f4 [64, 32]
0	0x3e69b142	0.22821525
1	0x3dadb1e9	0.08481199
2	0xbf15921b	-0.58426064
3	0x3e872690	0.26396608
4	0x3ee250af	0.44202182
5	0x3e8e4c46	0.27792567
6	0x3f128845	0.5723918
7	0x3e1acf57	0.15118156
8	0xbe65694e	-0.22403452
9	0xbd4992ac	-0.049212143
10	0x3d108fbb	0.035293322
11	0xbec7405e	-0.38916296
12	0x3e547308	0.20747006
13	0xbeb17f42	-0.34667403
14	0xbe9cc79d	-0.30621043
15	0xbd83b942	-0.064318195
16	0x3ed248dc	0.41071212
17	0x3da49091	0.08035386
18	0x3db243d0	0.087043405
19	0xbeeaa885	-0.45831695
20	0xbeaa9ec0	-0.33324242
21	0xbec66207	-0.38746664
22	0x3cd89498	0.026438043
23	0xbc868074	-0.016418673
24	0xbd8b3620	-0.06797433
25	0x3d556a55	0.05210336
26	0xbf13f2a4	-0.57792115
27	0x3dd30507	0.10303693
28	0x3ed5128f	0.41615722
29	0x3e1fb210	0.15595269
30	0x3de1f0d1	0.1103226
31	0x3d091cda	0.03347478
32	0xbce6e84c	-0.02818694
33	0x3eb051a5	0.3443729
34	0x3d9c1b1f	0.076223604
35	0x3ed193de	0.40933126
36	0xbe3aa782	-0.18227962
37	0x3df7137e	0.12064265
38	0x3ebed2fd	0.37270346
39	0xbda0c965	-0.07850913
40	0xbeb3e13a	-0.35132772
41	0x3ee3bffe	0.44482416
42	0x3e960172	0.29297978
43	0xbd9cf863	-0.076645635
44	0x3ec3d929	0.38251618
45	0x3ce9e687	0.028552307
46	0xbe809f98	-0.2512176
47	0x3f0b861a	0.545015
48	0x3e081138	0.13287818
49	0x3e7854bd	0.24251075
50	0xbe1aab42	-0.15104392
51	0xbebd837e	-0.37014383
52	0x3bdebf9e	0.006797745
53	0xbd64cf1e	-0.055861585
54	0x3f1b061f	0.60556215
55	0xbeb6b323	-0.35683545
56	0x3debbb3b	0.11510321
57	0x3e1fd9f9	0.15610494
58	0xbfb05ac1	-1.3777696
59	0x3d864ed8	0.06558007
60	0x3ed85929	0.42255524
61	0xbf0dfefb	-0.55467194
62	0xbf450b66	-0.7697052
63	0xbe326309	-0.17420591
64	0x3e562023	0.20910697
65	0x3f095265	0.5364135
66	0xbe16b96d	-0.14719172
67	0x3d3dc736	0.04633256
68	0x3cab1e8e	0.020888593
69	0x3ef23995	0.47309557
70	0x3cbe313f	0.023216842
71	0xbd8b2638	-0.06794399
72	0x3e0a8418	0.13526952
73	0xbead845c	-0.33890045
74	0x3cccb44d	0.024988318
75	0x3d8eadf9	0.069667764
76	0xbe23a135	-0.15979464
77	0xbf3fab2b	-0.74870557
78	0x3d23c8e1	0.039986495
79	0x3bc8c66f	0.0061271708
80	0xbe7071c8	-0.23480904
81	0xbe2e8dfa	-0.17046347
82	0x3e987779	0.2977865
83	0xbe23be04	-0.15990454
84	0x3d4165b4	0.047216132
85	0x3f2839cd	0.65713197
86	0x3e113157	0.14178978
87	0xbec89515	-0.3917624
88	0x3f095d4b	0.5365798
89	0x3eb0b1e5	0.34510723
90	0xbe9bff1f	-0.3046808
91	0xbe0cc9d9	-0.13748874
92	0xbe318447	-0.17335616
93	0xbeba6174	-0.36402476
94	0xbdb9f7d2	-0.09080471
95	0xbf170cb2	-0.59003747
96	0x3eba1141	0.3634129
97	0x3f46343e	0.77423465
98	0xbee4f54a	-0.4471839
99	0xbd653feb	-0.05596916
100	0x3eb2e008	0.34936547
101	0x3e1b8a13	0.1518939
102	0x3d8105e4	0.06299952
103	0xbe2c65fd	-0.1683578
104	0xbeb97a15	-0.36225954
105	0xbd43e530	-0.047825992
106	0xbf537bf3	-0.82611006
107	0xbdda7ae6	-0.10667972
108	0x3ec11311	0.3770986
109	0x3d8ecec2	0.0697303
110	0x3f20045a	0.6250664
111	0xbe03b87a	-0.12863341
112	0x3e747b16	0.23875079
113	0x3d482902	0.048867233
114	0x3ead3cc1	0.33835414
115	0xbd76f720	-0.06029427
116	0x3edea305	0.4348375
117	0xbf380f72	-0.7189857
118	0x3cd6e275	0.02623103
119	0x3df3e542	0.11908962
120	0xbd1e72ed	-0.03868382
121	0xbefd856b	-0.49515852
122	0x3e030218	0.12793767
123	0xbd87a838	-0.06623882
124	0x3e184dc0	0.1487341
125	0xbf355ab8	-0.7084155
126	0x3e2a58af	0.16635393
127	0xbf4c04cb	-0.79694813
128	0x3e148ab4	0.14506036
129	0xbdbec606	-0.09315114
130	0xbe473a6d	-0.19455881
131	0x3f43a05f	0.7641658
132	0x3e7c744a	0.24653736
133	0xbe1b9c3d	-0.15196319
134	0x3f24e601	0.6441346
135	0xbe540881	-0.20706369
136	0xbeebd129	-0.46058014
137	0x3e041e14	0.12902099
138	0xbe878908	-0.26471734
139	0xbe29c5f4	-0.1657942
140	0x3f00906c	0.5022037
141	0x3e326527	0.17421399
142	0xbe8184de	-0.25296682
143	0xbc142b6a	-0.009043554
144	0x3e4ea5e8	0.20180476
145	0x3e5753ca	0.21028057
146	0x3eb5b0d6	0.35486478
147	0xbe98b002	-0.29821783
148	0x3eb7309e	0.3577928
149	0x3f1663e0	0.5874615
150	0x3e696ca3	0.22795348
151	0xbe0b26c1	-0.13589002
152	0x3dd94c32	0.10610236
153	0xbe81c589	-0.2534602
154	0xbe5b89f5	-0.21439345
155	0xbf535892	-0.8255702
156	0xbe57ba2d	-0.21067114
157	0xbf2d66f0	-0.67735195
158	0x3cb555b9	0.022135602
159	0xbe279e96	-0.1636909
160	0x3f06a1b0	0.52590466
161	0xbe7f2131	-0.24915005
162	0xbf08f474	-0.53498006
163	0x3d571035	0.05250569
164	0x3e313909	0.17306913
165	0xbdad5454	-0.0846335
166	0x3c769a50	0.015051439
167	0x3d601b83	0.054713737
168	0x3deec420	0.116585016
169	0xbd89e1ca	-0.06732519
170	0xbd69f095	-0.057114203
171	0xbee45a52	-0.4460016
172	0xbe232ecf	-0.15935825
173	0x3ddfe815	0.10932938
174	0x3dddd85d	0.10832284
175	0x3f143c0b	0.5790412
176	0x3e3323f3	0.17494182
177	0x3e2202dd	0.15821405
178	0x3e96aebf	0.29430196
179	0xbdd7edb2	-0.10543384
180	0x3f27c73e	0.65538394
181	0xbe2d4c46	-0.16923627
182	0xbea1382a	-0.31488162
183	0xbea24588	-0.31693673
184	0xbef4e263	-0.4782897
185	0x3e7a831b	0.24464075
186	0xbe6cae68	-0.23113406
187	0xbd8e4848	-0.0694738
188	0xbdfc2955	-0.12312571
189	0x3dc09c93	0.09404864
190	0xbe03e07b	-0.12878601
191	0xbe8ed616	-0.2789771
192	0x3d379355	0.04481824
193	0x3c4adaf4	0.012381304
194	0x3ce1a80f	0.027545957
195	0x3da41303	0.08011439
196	0xbcab8fcc	-0.020942591
197	0x3ccf5042	0.025306825
198	0xbccbf61c	-0.024897628
199	0x3ccaaa78	0.024739489
200	0x3bc8234f	0.0061077247
201	0xbc63a3cc	-0.013894033
202	0xbbd57ecd	-0.00651536
203	0x3d01f4f7	0.031727757
204	0x3d793ad0	0.060847104
205	0xbcf87083	-0.030327087
206	0xbcfc44b9	-0.030794488
207	0xbcbcdf35	-0.023055652
208	0x3cfab97f	0.03060603
209	0x3d12081c	0.035652265
210	0xbd7b971f	-0.061423417
211	0xba582348	-0.00082450034
212	0x3c432b64	0.011912201
213	0x3c6a03d3	0.014283138
214	0xbcee2a1f	-0.02907282
215	0xbb326682	-0.0027221744
216	0xbcd64ba9	-0.026159124
217	0xbd5ccf74	-0.05390878
218	0xbd722e1d	-0.05912601
219	0xbcfd33b3	-0.030908441
220	0x3d1a81ed	0.037721563
221	0xbd3bffe0	-0.04589832
222	0xbcf93740	-0.030421853
223	0xbd350d80	-0.044202328
224	0x3dc9ff6f	0.09863173
225	0x3f06b598	0.5262084
226	0xbe959e30	-0.2922225
227	0x3e90b984	0.28266537
228	0xbe74385d	-0.23849626
229	0x3e9fba7e	0.3119697
230	0xbe58b3c0	-0.21162319
231	0x3f2be6ce	0.67149055
232	0x3ee92d7b	0.4554251
233	0xbdf43236	-0.119236395
234	0x3eaee33e	0.34157747
235	0xbf1a7280	-0.60330963
236	0x3ebb89e3	0.36628637
237	0xbf0d39e7	-0.55166477
238	0xbf4ade21	-0.7924519
239	0x3ea4cbdd	0.32186785
240	0xbec1515a	-0.3775738
241	0xbd6ced89	-0.05784372
242	0xbe3a3896	-0.18185648
243	0x3e3b7c9d	0.18309255
244	0xbe642e70	-0.2228334
245	0x3f1496b8	0.5804248
246	0xbebe7feb	-0.3720697
247	0x3deb75bd	0.11497066
248	0x3e1f2e9f	0.15545128
249	0xbe242231	-0.16028668
250	0xbeb9c456	-0.36282605
251	0x3eb305da	0.34965402
252	0x3e671516	0.22566637
253	0xbc1bb3d9	-0.009503328
254	0xbdfcedcf	-0.12350046
255	0xbf0c0bd8	-0.5470557

transformer.transformer_encoder.layers.0.linear1.bias f4 [64]
0	0xbebb3837	-0.36566326
1	0xbebd91d8	-0.37025332
2	0xbe6cafce	-0.23113939
3	0xbe9a0804	-0.3008424
4	0xbed4a788	-0.41534066
5	0xbe8e5197	-0.27796623
6	0xbe0fc244	-0.1403895
7	0xbeb70fca	-0.35754234
8	0xbe95d846	-0.29266566
9	0xbedf34cc	-0.43594968
10	0xbebce93a	-0.36896688
11	0xbe804c3d	-0.25058165
12	0xbeb80fd4	-0.35949576
13	0xbeb46f06	-0.35240954
14	0xbeaf44a8	-0.34232068
15	0xbea74fc3	-0.3267804
16	0xbe86c3c0	-0.2632122
17	0xbea9ff58	-0.33202624
18	0xbeb75600	-0.358078
19	0xbeb73c62	-0.35788256
20	0xbe8ea9aa	-0.27863818
21	0xbe78734f	-0.24262737
22	0xbf03c7fa	-0.51477015
23	0xbecf1882	-0.40448385
24	0xbd8de88c	-0.069291204
25	0xbee861ae	-0.45387024
26	0xbe88b71d	-0.26702204
27	0xbe975be7	-0.29562303
28	0xbed45950	-0.4147439
29	0xbf041a6e	-0.5160283
30	0xbdddbade	-0.10826658
31	0xbeba32d7	-0.36366913
32	0xbe83c82f	-0.25738665
33	0xbec58d2e	-0.38584274
34	0xbeae5291	-0.34047368
35	0xbe844a9c	-0.25838172
36	0xbe96d22e	-0.2945723
37	0xbdffe0d1	-0.12494052
38	0xbeda626d	-0.42653218
39	0xbeb6f5d0	-0.35734415
40	0xbee83d3d	-0.4535922
41	0xbe9b4c84	-0.30331814
42	0xbf0a6586	-0.5406116
43	0xbe63c429	-0.22242798
44	0xbeda5404	-0.42642224
45	0xbeaa4e61	-0.33262923
46	0xbe7a8e2c	-0.24468297
47	0xbebcec50	-0.36899042
48	0xbedbf871	-0.42962983
49	0xbe971d6e	-0.2951464
50	0xbf006cef	-0.5016622
51	0xbeb43c6b	-0.35202345
52	0xbea1477b	-0.31499848
53	0xbe84f527	-0.25968286
54	0xbecfd5b6	-0.40592736
55	0xbe42acc2	-0.19011214
56	0xbeb77ffb	-0.3583983
57	0xbec60db4	-0.3868233
58	0xbef1453c	-0.47123134
59	0xbe625ae8	-0.2210499
60	0xbeaf9eff	-0.34300992
61	0xbedabea4	-0.42723572
62	0xbeca5636	-0.395189
63	0xbf14de8a	-0.5815207
