xls_r_sqa/models/sqa-v2/xls-r-300m/model_300m_lay5_subset.pt (torch, 384909 bytes, 67 tensors)

norm_input.weight f4 [1024]
0	0x3f3e030c	0.742234
1	0x3f238bc4	0.6388514
2	0x3efede40	0.49778938
3	0x3ea87a45	0.32905784
4	0x3ef9eef9	0.48815134
5	0x3ed1506b	0.40881667
6	0x3f0fa224	0.5610678
7	0x3e8d8177	0.27637836
8	0x3ec9582f	0.3932509
9	0x3f0d1e47	0.55124325
10	0x3f277cb4	0.65424657
11	0x3f329b55	0.6976827
12	0x3f10fe22	0.56637776
13	0x3efec801	0.49761966
14	0x3f0723a0	0.52788734
15	0x3ee3ba30	0.44477987
16	0x3e9480ba	0.2900446
17	0x3f490039	0.78515965
18	0x3f33833c	0.7012212
19	0x3f3fc30d	0.74907
20	0x3d279ef5	0.040923078
21	0x3ec78ab1	0.38973
22	0x3eb99883	0.3624917
23	0x3eab05bc	0.33402812
24	0x3efb18e9	0.49042442
25	0x3e1c5409	0.15266432
26	0x3efb9759	0.49138907
27	0x3f1844ee	0.5948018
28	0x3ee80c39	0.45321825
29	0x3ed36a28	0.41291928
30	0x3ee5c0f4	0.44873774
31	0x3f2949f7	0.66128486
32	0x3edd45ea	0.43217403
33	0x3e07cfd8	0.1326288
34	0x3f0d829a	0.5527741
35	0x3f363eef	0.7118978
36	0x3eb7f1f5	0.35926786
37	0x3f0dbc03	0.5536501
38	0x3ee2cb9d	0.4429597
39	0x3f41d18d	0.75710374
40	0x3f31da12	0.69473374
41	0x3f13eab4	0.57780004
42	0x3ef402b6	0.47658318
43	0x3f02c63e	0.51083744
44	0x3ef5dc14	0.4801947
45	0x3f1614a7	0.5862526
46	0x3f07d199	0.53054196
47	0x3f176e69	0.5915285
48	0x3ee83b98	0.45357966
49	0x3f1f602e	0.62256134
50	0x3eb99f45	0.36254326
51	0x3f38a114	0.72120786
52	0x3e8ecf87	0.27892706
53	0x3f4e4ae7	0.8058304
54	0x3ef5be36	0.47996682
55	0x3efbd794	0.4918791
56	0x3f2633b9	0.6492267
57	0x3f145d09	0.5795446
58	0x3f1ec3fd	0.62017804
59	0x3f24bf9a	0.6435486
60	0x3f1cf6c5	0.6131404
61	0x3efbb794	0.49163496
62	0x3ecbcf63	0.3980666
63	0x3f23a6d6	0.63926446
64	0x3eff361f	0.4984598
65	0x3f301afb	0.6879117
66	0x3f01bc81	0.5067826
67	0x3ea959b4	0.3307625
68	0x3f05735e	0.5212916
69	0x3f035bf1	0.51312166
70	0x3f49e887	0.78870434
71	0x3f3de164	0.74172044
72	0x3f262ea9	0.6491495
73	0x3efc1155	0.49231973
74	0x3f525398	0.82158804
75	0x3f168f41	0.5881234
76	0x3c7e85c1	0.015534819
77	0x3f194751	0.59874445
78	0x3f38ec84	0.72235894
79	0x3eabc3f8	0.3354795
80	0x3effaaad	0.49934903
81	0x3f226320	0.634325
82	0x3eaf11da	0.34193307
83	0x3edfb677	0.43693897
84	0x3f1c304d	0.610112
85	0x3efba8a7	0.4915211
86	0x3f1f251e	0.6216601
87	0x3e739da5	0.23790605
88	0x3eef7f06	0.467766
89	0x3f41c04c	0.75684047
90	0x3e8eaeb1	0.27867654
91	0x3f1adf99	0.6049743
92	0x3ed27165	0.41102138
93	0x3efb6fe7	0.49108812
94	0x3ec0a130	0.37622976
95	0x3f2b633d	0.669483
96	0x3f2dc550	0.678792
97	0x3ecea86a	0.40362865
98	0x3f3f96c2	0.74839413
99	0x3ee3d88f	0.4450116
100	0x3f36decc	0.7143371
101	0x3f5fd08c	0.8742759
102	0x3eb1c79f	0.3472261
103	0x3f204bdf	0.6261577
104	0x3f2e08df	0.67982286
105	0x3f1294d0	0.5725832
106	0x3db58704	0.08863643
107	0x3f254c78	0.6456981
108	0x3f566086	0.83741033
109	0x3ef19ef9	0.471916
110	0x3f4eae8f	0.80735105
111	0x3effdd5d	0.49973574
112	0x3f12a6a2	0.5728551
113	0x3ec1cd13	0.37851772
114	0x3f40d7d1	0.7532931
115	0x3f2a5c48	0.6654706
116	0x3ef6d25e	0.48207372
117	0x3f666dea	0.90011466
118	0x3f2c884f	0.6739549
119	0x3f1cf25c	0.6130731
120	0x3f42743e	0.7595862
121	0x3eafd3af	0.3434119
122	0x3e1f9594	0.15584403
123	0x3f168b2d	0.58806115
124	0x3f46d055	0.7766164
125	0x3f35f898	0.7108245
126	0x3f233fc5	0.6376918
127	0x3f3969f1	0.7242728
128	0x3f04fb1a	0.5194565
129	0x3ed986a0	0.42485523
130	0x3f18296f	0.5943822
131	0x3ed82068	0.42212224
132	0x3f4bbda0	0.7958622
133	0x3f1300c1	0.57423025
134	0x3f2a6776	0.6656412
135	0x3e63a32b	0.22230212
136	0x3ef3724a	0.47548133
137	0x3f3280a1	0.6972752
138	0x3ebac337	0.36477062
139	0x3ec1a23a	0.37819082
140	0x3f1e9285	0.6194232
141	0x3f0c1191	0.54714304
142	0x3f0544d3	0.5205814
143	0x3f36c711	0.713975
144	0x3ecd189e	0.40057844
145	0x3f255add	0.6459177
146	0x3eda2b65	0.42611232
147	0x3f15f89d	0.5858248
148	0x3f2d7e71	0.6777106
149	0x3f255ce1	0.64594847
150	0x3f4b7c2d	0.7948635
151	0x3ee98811	0.45611623
152	0x3f28bfb0	0.6591749
153	0x3f684e81	0.9074479
154	0x3f2312e1	0.6370068
155	0x3f13813c	0.5761907
156	0x3f3178b2	0.6932479
157	0x3ee250cc	0.44202268
158	0x3f2d9ab2	0.6781417
159	0x3f0197b4	0.50622106
160	0x3ed8be12	0.42332512
161	0x3e0a2b12	0.13492993
162	0x3efff51a	0.49991685
163	0x3f0a9df3	0.5414726
164	0x3f27123e	0.6526221
165	0x3f3033c6	0.68829
166	0x3f58262c	0.84433246
167	0x3efb923f	0.49135014
168	0x3f48f498	0.7849822
169	0x3f336e6b	0.7009036
170	0x3ef6cabb	0.48201546
171	0x3f238251	0.6387072
172	0x3f1154e1	0.5677014
173	0x3eb0506b	0.34436354
174	0x3f222753	0.63341254
175	0x3eb92f04	0.36168683
176	0x3f1d12b5	0.6135667
177	0x3f4cbe9b	0.7997834
178	0x3f142140	0.57863235
179	0x3f1183d6	0.5684179
180	0x3f48fae4	0.7850783
181	0x3e652d08	0.2238046
182	0x3f3ba638	0.73300505
183	0x3f0b3c2c	0.5438869
184	0x3f266dd3	0.6501133
185	0x3ef5e72a	0.48027927
186	0x3f063356	0.5242208
187	0x3f1361f9	0.5757137
188	0x3f1cd3bc	0.6126058
189	0x3f5f9656	0.8733877
190	0x3f1a44fd	0.6026152
191	0x3f4bd28c	0.79618144
192	0x3f2b076d	0.66808206
193	0x3f2f5b59	0.6849876
194	0x3ec47467	0.38370058
195	0x3f552a2f	0.8326749
196	0x3f07d164	0.5305388
197	0x3f09f8a4	0.5389502
198	0x3f32c64c	0.69833827
199	0x3f84bac7	1.03695
200	0x3e74ce90	0.23906922
201	0x3e2cdfe5	0.16882284
202	0x3f17468c	0.5909202
203	0x3f13cdb1	0.57735735
204	0x3ed5afdc	0.41735733
205	0x3f36a49c	0.71344924
206	0x3ee98398	0.4560821
207	0x3f579e12	0.8422557
208	0x3ee7075d	0.45122805
209	0x3f3d5aab	0.73966473
210	0x3f1142db	0.5674264
211	0x3e9bfc50	0.30465937
212	0x3ef47bdf	0.47750756
213	0x3f27aaf1	0.6549521
214	0x3f0e6f05	0.5563815
215	0x3eddd169	0.4332383
216	0x3ed44e67	0.41466066
217	0x3f0ea220	0.55716133
218	0x3f0f6d4f	0.56026167
219	0x3eacc5ba	0.33744603
220	0x3f766081	0.96241003
221	0x3f18b135	0.59645396
222	0x3eb51e99	0.35374907
223	0x3ef2caa8	0.4742024
224	0x3ef783bd	0.48342696
225	0x3e6bf446	0.23042402
226	0x3f38a03f	0.72119516
227	0x3f1d9a16	0.6156324
228	0x3f055ff7	0.52099556
229	0x3eff7cc9	0.4989989
230	0x3f202d3f	0.6256904
231	0x3f06592f	0.52479833
232	0x3f304bd9	0.68865734
233	0x3efee437	0.4978349
234	0x3f68aaa9	0.90885407
235	0x3f11a0df	0.56886095
236	0x3eef04de	0.466834
237	0x3f32083a	0.695438
238	0x3ef49b31	0.47774652
239	0x3f187fd3	0.59570044
240	0x3f494bab	0.78631085
241	0x3f019227	0.50613636
242	0x3f0ed6ea	0.5579668
243	0x3f26c886	0.65149724
244	0x3f2892a0	0.6584873
245	0x3ee30bee	0.4434504
246	0x3f22d0e1	0.63599974
247	0x3f0b4814	0.5440686
248	0x3f3a85dd	0.7286051
249	0x3f2de7fa	0.67932093
250	0x3f02c9da	0.5108925
251	0x3ed3f7a5	0.41399875
252	0x3f1954b7	0.5989489
253	0x3ee0ea1d	0.43928614
254	0x3f133002	0.5749513
255	0x3ed45366	0.41469878

norm_input.bias f4 [1024]
0	0xbc55ca90	-0.013048783
1	0x3c2f8f3c	0.010715302
2	0xbb619901	-0.0034423473
3	0x3c806fd9	0.015678333
4	0x3bf26681	0.0073974733
5	0xbb03cae6	-0.002010995
6	0x3b55b932	0.0032611606
7	0xbb22364a	-0.0024751597
8	0xbb354f2f	-0.0027665605
9	0xbc1fc60e	-0.00975181
10	0xbc0f185f	-0.008733838
11	0x3c44039c	0.011963751
12	0x3b322d1d	0.0027187534
13	0xbb6e7071	-0.0036382938
14	0xbca7da31	-0.020489784
15	0x3b3bee1a	0.0028675855
16	0x3ac5aecd	0.0015082002
17	0x3c381c55	0.011237224
18	0xbc15b5c2	-0.009137573
19	0x3af34485	0.0018559849
20	0x3ac52c65	0.0015043138
21	0xba253cf0	-0.0006303331
22	0x3ca67017	0.02031712
23	0x3a9c39a9	0.001191904
24	0x3bd2dc83	0.0064349785
25	0xba50920b	-0.00079563324
26	0xbb514653	-0.0031932786
27	0x3c1c22cf	0.009529783
28	0x3abff99e	0.0014646535
29	0x39936bdf	0.00028118395
30	0xbc8b1929	-0.01697977
31	0x3b537791	0.0032267312
32	0xbc67e027	-0.014152563
33	0x3ab83391	0.0014053454
34	0xbbaa9171	-0.0052053262
35	0xbc2b4e85	-0.010455732
36	0xba6ab02a	-0.0008952642
37	0x3bc1820e	0.0059053963
38	0xbb0a2a07	-0.002108218
39	0xbb07455c	-0.0020640707
40	0xba948f0d	-0.0011334136
41	0xbb2f75b5	-0.002677304
42	0xbb592837	-0.0033135542
43	0x3bf8e242	0.0075953314
44	0xbbb5f774	-0.0055531804
45	0x3b109f30	0.002206754
46	0x3b085f0f	0.0020808612
47	0x39a0450c	0.00030569022
48	0x3b7049cc	0.003666508
49	0xbae31a4c	-0.0017326563
50	0xbaa53967	-0.0012605608
51	0x3c06bf6b	0.008224349
52	0xbc1151eb	-0.008869628
53	0xbc4031ec	-0.011730652
54	0x3b9334ca	0.004492377
55	0xbc825ac0	-0.015912414
56	0xbb8ac762	-0.004235194
57	0x3c6c21b2	0.01441233
58	0xbbb4ed1f	-0.005521431
59	0x3bc528bb	0.0060168183
60	0x3bc413fa	0.0059838267
61	0x3b29f174	0.002593127
62	0x3c4d3f52	0.012527304
63	0x3c630a74	0.013857473
64	0xbc685508	-0.014180429
65	0x3c276f17	0.010219357
66	0xbace6d0d	-0.0015749052
67	0xbb089205	-0.0020838988
68	0x3bdd30db	0.006750209
69	0xbb15785d	-0.0022807338
70	0xbb95117d	-0.004549204
71	0xbb0ceb84	-0.0021502683
72	0xb8a2674e	-7.744004e-05
73	0xba9d5e0b	-0.0012006176
74	0xbb9d078b	-0.004792159
75	0xb8bb378c	-8.927201e-05
76	0x3a9f5384	0.0012155627
77	0xba82d8ef	-0.0009982864
78	0x3b814005	0.0039443993
79	0x3b33a915	0.0027414013
80	0x3b98d122	0.0046636024
81	0x3c0dd168	0.008655883
82	0xbb918ff6	-0.0044422103
83	0x3bb1d108	0.00542653
84	0xbbe8b20c	-0.007101303
85	0x3b7fd512	0.0039036912
86	0xbc9bd35b	-0.01902168
87	0x3b023f42	0.001987413
88	0x38128b29	3.4938716e-05
89	0xb94af6a2	-0.00019356099
90	0x39bb453b	0.00035719
91	0x3ba10738	0.0049141906
92	0x3b4e7d28	0.0031507704
93	0xb9cca62c	-0.0003903372
94	0xbad6812f	-0.0016365404
95	0x3b1f4d42	0.0024307524
96	0xbbbca952	-0.0057574892
97	0x3a8a991d	0.0010574196
98	0xbcaf404d	-0.021392966
99	0xbc28d7eb	-0.010305385
100	0xbc15e57c	-0.009148952
101	0x3b8d59b1	0.0043136706
102	0xb8e12937	-0.00010736513
103	0xbc03b230	-0.008038089
104	0xbbb7e438	-0.0056119226
105	0xbbbe4779	-0.00580686
106	0x3ad83563	0.0016495403
107	0xbc9ae0a7	-0.01890595
108	0x3c86d1ac	0.016457401
109	0xbabcf7de	-0.0014417132
110	0x3a4e133c	0.00078611425
111	0xbb7f2244	-0.0038930336
112	0x3bdd488f	0.0067530344
113	0xb98db994	-0.00027031882
114	0xbc4bb111	-0.012432353
115	0xbb29137d	-0.002579897
116	0xbb950415	-0.0045476058
117	0xbbab30d9	-0.005224329
118	0xbbbd5c6c	-0.00577884
119	0xbc048ec1	-0.008090676
120	0xbc4e72e9	-0.012600639
121	0xbbc3d517	-0.00597633
122	0xb9049a3d	-0.00012645959
123	0x3c7f36dd	0.015577045
124	0xbc0052c9	-0.0078322375
125	0x3c7e9353	0.0155380545
126	0x3c22cf34	0.009937096
127	0x3c06453a	0.008195216
128	0xbc209549	-0.009801217
129	0xbbe42006	-0.0069618253
130	0x3cbc24ff	0.02296686
131	0x3b4df83a	0.0031428472
132	0x3c05e56b	0.008172373
133	0x3b3d82c0	0.0028917044
134	0xbc5b6fa0	-0.013393313
135	0x3be08b5f	0.006852552
136	0xbb033a0c	-0.0020023612
137	0x3c794e35	0.0152164
138	0xbc108c59	-0.008822524
139	0xbbd9caa5	-0.0066464716
140	0x3ba19a17	0.004931699
141	0xbb958dad	-0.004564008
142	0x3ad4c08d	0.0016231701
143	0x3b474d52	0.0030411077
144	0x3a45eff8	0.0007550712
145	0x3be0f958	0.0068656616
146	0x3bf17025	0.007368105
147	0x3c9025b6	0.017596107
148	0x3bcdf149	0.006284867
149	0x3bce3771	0.00629323
150	0xbbea9662	-0.0071590403
151	0xbb69eacf	-0.0035692935
152	0xba82d748	-0.0009982372
153	0xbc9332a9	-0.017968493
154	0xbb0b4a2d	-0.002125393
155	0xbb208ec5	-0.002449916
156	0xbb7af7bf	-0.003829464
157	0x3b129662	0.0022367467
158	0x3b831f82	0.0040015588
159	0xbb0bfea4	-0.0021361494
160	0x3b5bff58	0.0033568945
161	0x3a393383	0.0007064866
162	0xbb173bbe	-0.002307638
163	0xbb744999	-0.0037275313
164	0xbbcae12c	-0.0061913934
165	0xbb2d5c3e	-0.0026452686
166	0x3caeb497	0.021326346
167	0x3c166736	0.009179881
168	0xbbb5e5f2	-0.0055510933
169	0xbc87c8b4	-0.016575195
170	0x3b38d34c	0.0028202115
171	0x3bb2047a	0.0054326626
172	0xbbfabb88	-0.00765175
173	0xbb095b8b	-0.0020959105
174	0xbb925406	-0.004465583
175	0xbb5d393c	-0.0033756038
176	0x3c1638c6	0.009168809
177	0x3bc7775a	0.006087226
178	0xbb0d879b	-0.002159572
179	0xbb3a47b3	-0.0028424084
180	0x3c852e51	0.016257437
181	0xbb1d55e4	-0.0024007494
182	0x3710c3a2	8.628618e-06
183	0x3b204a74	0.002445844
184	0xbc04838b	-0.008088003
185	0x3af6077c	0.0018770541
186	0x3ae53c15	0.0017489219
187	0xbbab5e77	-0.005229767
188	0x3c07bd2f	0.008284851
189	0x38c2c7dd	9.287868e-05
190	0x3ba23a3f	0.004950791
191	0xbce73bc9	-0.02822675
192	0x3c5176d0	0.012784675
193	0x3cd652df	0.026162563
194	0x3c171a3e	0.009222565
195	0xbb940f09	-0.004518394
196	0xbaee408c	-0.0018177195
197	0xbb93152d	-0.0044886083
198	0xbca89cf1	-0.020582648
199	0xbb9e0550	-0.0048224106
200	0xbb55663f	-0.0032562164
201	0xbcd635b1	-0.026148649
202	0xbc163598	-0.009168051
203	0xbb7af411	-0.0038292448
204	0xbb44b66f	-0.0030015965
205	0xba68289a	-0.0008856148
206	0x39642083	0.00021755886
207	0x3aab92ec	0.0013090051
208	0x3c511649	0.012761661
209	0xbc97e199	-0.01854019
210	0x3c85775a	0.016292263
211	0xbb334599	-0.0027354716
212	0x3b7bb720	0.0038408712
213	0xbc5e59bd	-0.0135712
214	0xbabf9c83	-0.0014618788
215	0x3bb6206c	0.005558064
216	0xbb1f56d7	-0.0024313235
217	0x3b599cf1	0.0033205117
218	0xbad8594c	-0.0016506105
219	0x3bc9e0bc	0.0061608236
220	0x3c9d9005	0.019233713
221	0x3ac7b047	0.001523503
222	0x3b1566a9	0.0022796786
223	0x3a52a8eb	0.0008036035
224	0x3b89e584	0.0042082686
225	0xbb14d23b	-0.0022708315
226	0x3c99541b	0.018716862
227	0xbbd2f893	-0.0064383238
228	0xba779a42	-0.00094452885
229	0xbc3f0ee1	-0.011661262
230	0x3bffd4e7	0.0078073624
231	0xbbceda33	-0.0063126325
232	0x3b68ee45	0.003554241
233	0xbc164f53	-0.009174186
234	0xbc8b5559	-0.01700847
235	0xb9de18cc	-0.00042361615
236	0x3a0c82e6	0.00053600816
237	0x3bab65dc	0.0052306484
238	0xbb5debf7	-0.003386257
239	0xbb1464a6	-0.0022643
240	0x3c1331f1	0.008984075
241	0xba4768ff	-0.0007606893
242	0xbbb28eaa	-0.005449136
243	0xbc0438d8	-0.008070193
244	0xbc1fe6c7	-0.009759611
245	0x3b9ee6a1	0.0048492705
246	0x3a4d9c96	0.00078434625
247	0xbb5a12d2	-0.0033275378
248	0x3cdb8a3c	0.026799314
249	0xbc6b97fb	-0.014379497
250	0x3955a15a	0.00020373371
251	0xbbca9aa4	-0.0061829854
252	0xbb11169b	-0.0022138718
253	0xbb553b3a	-0.0032536522
254	0xbb92f9a4	-0.004485326
255	0xba05a6f3	-0.0005098425

norm_input.running_mean f4 [1024]
0	0x3f4a50d8	0.7902961
1	0x3fa34c23	1.275761
2	0x3f572045	0.84033614
3	0x3f594427	0.8486962
4	0x3f26b975	0.65126735
5	0x3f52eef0	0.8239584
6	0x3e9ab954	0.3021952
7	0x3f318078	0.6933665
8	0x3f32ecd4	0.6989262
9	0x3f9fda98	1.2488585
10	0xbe43986e	-0.19101116
11	0x3fb7314f	1.4311923
12	0x3f34f0eb	0.7068011
13	0x3f6129d4	0.8795445
14	0x3f31dad6	0.6947454
15	0x3c983dcd	0.018584156
16	0x3f84fc3d	1.0389477
17	0x3f75b016	0.9597181
18	0x3f062376	0.5239786
19	0x3f3d0d26	0.7384819
20	0x3f6b3a26	0.918856
21	0x3f051d6d	0.51998025
22	0x3eff07c5	0.49810615
23	0x3f11da19	0.56973416
24	0x3f888d27	1.0668076
25	0x3eeecb86	0.4663965
26	0x3ee6305d	0.44958773
27	0x3f0f47aa	0.55968726
28	0x3f432351	0.76225764
29	0x3f542e45	0.828831
30	0x3ef0db5e	0.47042364
31	0x3f95e6b6	1.1711032
32	0xbfb64247	-1.4238976
33	0x3f72509d	0.94654256
34	0x3f24b666	0.6434082
35	0x3f641008	0.8908696
36	0x3fa15f48	1.2607203
37	0x3ee5b477	0.44864246
38	0x3e4a9e06	0.19786844
39	0x3fa6dc9a	1.3036072
40	0x3f84d5c9	1.0377742
41	0x3f2d8e2f	0.6779508
42	0x3f400aee	0.7501668
43	0x3f2a37e2	0.6649152
44	0x3f34b9a0	0.7059574
45	0x3f140486	0.578194
46	0x3f73bff8	0.95214796
47	0xbbe28d3a	-0.006913808
48	0x3f2cd03b	0.67505234
49	0x3fc171af	1.5112818
50	0x3f539dbd	0.82662565
51	0x3fa200d5	1.2656504
52	0x3f931b37	1.149268
53	0x3f2ccee9	0.6750322
54	0x3e9db779	0.3080404
55	0x3f691341	0.91045004
56	0x3f8104f7	1.007964
57	0x3fb0259f	1.3761481
58	0x3f7c14c6	0.984692
59	0x3f78826f	0.97074026
60	0x3f4883e7	0.78326267
61	0x3f75298c	0.9576652
62	0x3faa90b4	1.332541
63	0x3ee01f24	0.43773758
64	0x3f622fa9	0.88353974
65	0x3d83e8e2	0.06440903
66	0x3ee97b1c	0.45601737
67	0x3f213608	0.6297307
68	0x3f7600aa	0.96094763
69	0x3f81d936	1.0144413
70	0x3f1fe3b2	0.6245681
71	0x3e087cf3	0.13328914
72	0x3f03a031	0.5141631
73	0x3fb009fd	1.3753048
74	0xbe3f1287	-0.18659411
75	0x3f37f2a5	0.7185462
76	0x3e52097c	0.2051143
77	0x3ebf74c8	0.37393785
78	0x3f6ac4ec	0.9170673
79	0x3f8923c0	1.0714035
80	0x3e658a30	0.22415996
81	0x3e490706	0.19631585
82	0xbf295c04	-0.6615603
83	0x3f10536d	0.563773
84	0xbc8849f6	-0.01663683
85	0x3f0206bd	0.5079153
86	0x3efc4bc3	0.49276552
87	0x3f0808f8	0.53138685
88	0x3ef5233a	0.47878438
89	0x3e7db04e	0.24774286
90	0x3fb7cae7	1.4358796
91	0x3f49522b	0.78641003
92	0x3f114c68	0.5675721
93	0x3f7dff5c	0.9921777
94	0x3f86a828	1.0520067
95	0x3f1d1830	0.6136503
96	0x3f5d5c85	0.864693
97	0x3f451322	0.7698232
98	0x3eecfff9	0.46289042
99	0x3f491968	0.7855439
100	0x3f330398	0.6992736
101	0x3f3652dd	0.7122019
102	0x3e1be755	0.15224965
103	0x3fd749ab	1.6819357
104	0x3f7c4696	0.98545206
105	0x3f834b9c	1.0257449
106	0x40a953fa	5.291501
107	0x3f1fa96f	0.6236791
108	0x3eb33e16	0.35008305
109	0x3fc8459b	1.5646242
110	0x3f90531c	1.1275363
111	0x3f0a627f	0.54056543
112	0x3f6525d1	0.8951083
113	0x3fb4bc92	1.4120047
114	0xbcab7e3d	-0.020934219
115	0x3ee3f5ba	0.44523412
116	0x3fa8f1de	1.3198812
117	0x3f1093f8	0.5647578
118	0x3eb0d26c	0.3453554
119	0x3eecdc3e	0.4626178
120	0x3fe6ab60	1.802105
121	0x3fa26211	1.2686177
122	0x4003bc91	2.0583842
123	0x3f91f811	1.1403829
124	0x3f91d132	1.1391966
125	0x3fa6746b	1.3004278
126	0x3f094bcd	0.5363129
127	0x3ef9ba29	0.4877484
128	0x3e9977ea	0.299743
129	0x3ebddef6	0.37084168
130	0x3f78137f	0.9690475
131	0x3ed23820	0.41058445
132	0x3f7e52c0	0.99345016
133	0x3f34ba6b	0.7059695
134	0x3f460a2a	0.7735926
135	0x3f2a1e33	0.6645233
136	0x3f835c55	1.0262552
137	0x3f7a7c13	0.9784557
138	0x3f2e22d9	0.68021923
139	0xbd6612d7	-0.05617031
140	0x3f86cec8	1.0531855
141	0x3f6348f7	0.8878321
142	0x3f8845a1	1.0646249
143	0x3fb1d063	1.389172
144	0x3e138883	0.14407544
145	0x3f3b328a	0.7312399
146	0x3f17341d	0.59063894
147	0x3f17b66a	0.59262717
148	0x3f25cd43	0.6476633
149	0x3fdd56bd	1.7292095
150	0x3f8fba9c	1.1228824
151	0x402cefaa	2.702128
152	0x3f9c7535	1.2223269
153	0x3e202035	0.15637286
154	0xc04cbb5f	-3.1989362
155	0x3e8a832e	0.27053207
156	0x3e50831f	0.20362519
157	0x3f8d5b9c	1.1043582
158	0x3ec7e805	0.39044204
159	0x3efa86d7	0.48931
160	0x3e433653	0.19063692
161	0x3f3b585b	0.73181695
162	0x400b57e7	2.1772401
163	0x3f85ecee	1.046293
164	0x3f405aad	0.7513836
165	0x3f43689a	0.76331484
166	0x3fa5f16f	1.2964305
167	0x3f49a17b	0.78762025
168	0x3f07bf1f	0.53026
169	0x3e13d5f9	0.14437093
170	0x3f9db1f4	1.2319932
171	0x3f553728	0.83287287
172	0x3f162e92	0.5866481
173	0x3ebf60c0	0.37378502
174	0x40167d6c	2.3514051
175	0x3eac369d	0.33635417
176	0x3ea51f96	0.3225066
177	0xbe854dc1	-0.26035884
178	0x3f21aa78	0.6315074
179	0x3f8d44d6	1.1036632
180	0x3f2218ad	0.633189
181	0xc02edd28	-2.7322483
182	0x3f7ccde9	0.98751694
183	0x3efdb479	0.49551752
184	0x3f9f88ce	1.2463624
185	0x3f54a2fe	0.83061206
186	0x3f2db447	0.67853206
187	0x3f5a98d4	0.8538945
188	0x3ee1da30	0.44111776
189	0x3f250636	0.644626
190	0xbe52c961	-0.20584632
191	0x3f238eb2	0.6388961
192	0x3f35383e	0.70788944
193	0x3f2ee17f	0.6831283
194	0x3e276d39	0.16350259
195	0x3f2716e4	0.65269303
196	0x3e18418a	0.14868751
197	0xbdabfc9a	-0.08397789
198	0x3c08e448	0.008355208
199	0x3f6222ff	0.8833465
200	0x3f1a227d	0.60208875
201	0xbf1df4d4	-0.61701703
202	0x3fc1e7f0	1.5148907
203	0x3e947a7e	0.28999704
204	0x3f7843d6	0.9697851
205	0x3fa4cb96	1.287463
206	0x3ea73928	0.32660794
207	0x3f06c397	0.52642196
208	0x3fa6fe5c	1.3046374
209	0x3f98edb1	1.1947538
210	0x4011c1f0	2.277462
211	0xbda48a45	-0.08034185
212	0x3f1ab430	0.60431194
213	0x3f14bba3	0.5809881
214	0x3f5ce665	0.86289054
215	0x3ca950d6	0.020668428
216	0x3f485436	0.78253496
217	0xbdadaccf	-0.08480226
218	0x3f968639	1.1759712
219	0x3f4dfad4	0.8046086
220	0x3f6df12e	0.92946136
221	0x3faac17e	1.3340299
222	0x3f5db81c	0.86609054
223	0x3c869053	0.016426241
224	0x3f7d26e1	0.9888745
225	0xc1b09412	-22.0723
226	0x3e8d8a46	0.27644557
227	0x3f6980c7	0.91212124
228	0x3f311bb8	0.6918292
229	0x3ea458df	0.32099053
230	0x3f345427	0.70440906
231	0x3f583054	0.8444874
232	0x3faf6ad1	1.3704473
233	0x3f96d21c	1.178287
234	0x3f6d85ea	0.9278246
235	0x3f8b8bc1	1.0902025
236	0x3f9c6ce7	1.2220734
237	0x3f35aac3	0.70963687
238	0x3f5c6ff2	0.86108315
239	0x3ecf64da	0.4050663
240	0x3f18f550	0.5974932
241	0x3fcb7b91	1.5897084
242	0x3edd5d18	0.43235087
243	0x3f18edcf	0.5973787
244	0x3fa1447b	1.2599024
245	0x3e614a7e	0.22001073
246	0x3eb2103c	0.3477801
247	0x3f51c176	0.8193582
248	0x3f569dd9	0.83834606
249	0x3f1db7b1	0.61608416
250	0x3eefe43a	0.4685381
251	0x3fb7cee6	1.4360015
252	0x3f745aa4	0.95450807
253	0x3f6a9be8	0.91644144
254	0x3f50ee89	0.81613976
255	0x3fe7e83f	1.8117751

norm_input.running_var f4 [1024]
0	0x40170b67	2.360071
1	0x40e1704a	7.044957
2	0x3ff75bfd	1.9324948
3	0x4063a83d	3.5571434
4	0x400a13f6	2.1574683
5	0x3ffcc6af	1.9748133
6	0x400bc8c7	2.1841295
7	0x409a5694	4.8230686
8	0x400ffddf	2.24987
9	0x404837c6	3.1284041
10	0x4045c226	3.0899749
11	0x400f4f22	2.239205
12	0x3ff58e8d	1.9184128
13	0x4036f93b	2.8589618
14	0x4026596c	2.5992079
15	0x4002f9e5	2.0465024
16	0x3ff53ec7	1.9159783
17	0x40070421	2.109627
18	0x3fefdd9a	1.8739502
19	0x40054015	2.0820363
20	0x40067ea1	2.1014788
21	0x402e9b9e	2.7282481
22	0x4005e65a	2.0921845
23	0x4016e1c1	2.357529
24	0x406153ce	3.52074
25	0x4053cefa	3.3095078
26	0x400b503a	2.1767716
27	0x40056f3a	2.0849137
28	0x3ffaa326	1.9581039
29	0x3ffcf1cc	1.976129
30	0x3ffe86af	1.9884852
31	0x404357ae	3.0522265
32	0x4108ee78	8.55822
33	0x400fc542	2.2464147
34	0x403ed19e	2.981544
35	0x4015c6e5	2.3402646
36	0x400b4063	2.1758049
37	0x3fed92f8	1.8560476
38	0x4066fae7	3.6090639
39	0x3ffda44d	1.9815766
40	0x3ff935ff	1.9469603
41	0x40075a20	2.1148758
42	0x4007359c	2.112647
43	0x40197787	2.3979204
44	0x4020d715	2.5131276
45	0x4002e7d9	2.0454009
46	0x40232a63	2.549462
47	0x402b69cb	2.678332
48	0x3fea3945	1.8298727
49	0x4004b71c	2.073676
50	0x40052d1f	2.080879
51	0x4012aad9	2.2916777
52	0x4012969b	2.2904422
53	0x40024f0c	2.0360746
54	0x4078afe2	3.885735
55	0x3fd9dda7	1.7020768
56	0x3fefa824	1.8723187
57	0x40876530	4.231102
58	0x3ffc7154	1.9722085
59	0x40405667	3.0052736
60	0x400b4db1	2.176617
61	0x3fe12e26	1.7592208
62	0x401e48d5	2.4731953
63	0x403509ca	2.8287225
64	0x4002bd96	2.0428214
65	0x4009a7b2	2.1508603
66	0x400577d9	2.08544
67	0x4011696a	2.272059
68	0x403f85ab	2.9925334
69	0x3fe2c643	1.7716755
70	0x400ef9a5	2.233987
71	0x400123a7	2.017801
72	0x4002ea22	2.0455403
73	0x3ffc2988	1.9700174
74	0x412630f7	10.386954
75	0x3fe85e97	1.8153867
76	0x410a4fdd	8.644498
77	0x4048fec2	3.1405492
78	0x40130990	2.2974586
79	0x401b7efe	2.429626
80	0x40364dc0	2.8484955
81	0x40026f9e	2.0380626
82	0x42248efd	41.139637
83	0x400d2b58	2.2057705
84	0x401c7f8e	2.4452853
85	0x3fe78ad7	1.8089246
86	0x40b15811	5.5420003
87	0x40105ba0	2.2555923
88	0x3feac8ca	1.8342526
89	0x40882072	4.2539606
90	0x4059ac6d	3.401149
91	0x4012ae08	2.291872
92	0x3fe4a520	1.7862892
93	0x401ea9e9	2.4791205
94	0x3feb2c8d	1.8372971
95	0x400cc725	2.1996548
96	0x3fe46814	1.7844262
97	0x3ff550d1	1.9165288
98	0x4042acd3	3.0417984
99	0x3ff54989	1.9163066
100	0x401b2947	2.4243944
101	0x4005d7c7	2.091295
102	0x402d83c6	2.7111678
103	0x4023b6f3	2.5580413
104	0x3ff4b94c	1.9119048
105	0x40160926	2.3443084
106	0x42204ba2	40.07386
107	0x40117cae	2.2732348
108	0x4001167a	2.0169969
109	0x4007b7be	2.1205897
110	0x3ff309ce	1.8987367
111	0x401af94e	2.4214664
112	0x401ad951	2.419514
113	0x40198500	2.3987427
114	0x404dcf7c	3.2157888
115	0x3feed7be	1.8659589
116	0x3fed2833	1.8527893
117	0x4003597f	2.0523374
118	0x4004b729	2.0736792
119	0x40009c43	2.0095375
120	0x400dc493	2.215123
121	0x401784cd	2.3674805
122	0x432631be	166.1943
123	0x3fef9f39	1.8720466
124	0x3fed3574	1.8531938
125	0x405281f7	3.2891824
126	0x40030b45	2.0475628
127	0x40a8a682	5.2703257
128	0x4021151f	2.5169141
129	0x400d513c	2.2080832
130	0x40159443	2.3371742
131	0x40057a29	2.085581
132	0x3fd0e819	1.632083
133	0x3fe850dd	1.8149678
134	0x40116123	2.2715538
135	0x40011739	2.0170424
136	0x401f9e3e	2.4940333
137	0x3ffc047a	1.9688866
138	0x3fefab58	1.8724165
139	0x40094f21	2.1454546
140	0x3fff54b6	1.9947727
141	0x40014e4e	2.0204043
142	0x4017520f	2.3643835
143	0x401d4657	2.4574182
144	0x40276a2f	2.615856
145	0x400dac4f	2.213642
146	0x3ffe3454	1.9859719
147	0x40247b0b	2.57001
148	0x40035112	2.0518231
149	0x4017b907	2.3706682
150	0x3ffa4dd1	1.9554998
151	0x42126a5a	36.60386
152	0x3ffca0fe	1.9736631
153	0x4018b7a5	2.3862088
154	0x421a1a90	38.52594
155	0x4080b2f9	4.0218472
156	0x400e75fa	2.2259507
157	0x40113ef4	2.2694674
158	0x4001c4dc	2.0276403
159	0x3ffa8ce2	1.9574244
160	0x41836618	16.42485
161	0x402a4c7f	2.660919
162	0x40e54d29	7.165669
163	0x4014ef83	2.3271186
164	0x4000a3ed	2.0100052
165	0x400e41e2	2.2227712
166	0x40019ba3	2.0251243
167	0x405cbdf2	3.4490933
168	0x400fbac0	2.2457733
169	0x3fef2d9c	1.8685794
170	0x3ff016fb	1.8757013
171	0x4010a076	2.2597938
172	0x401b626b	2.427882
173	0x40309621	2.7591631
174	0x41fe8bbc	31.81823
175	0x40015cdb	2.0212924
176	0x4019b13d	2.4014428
177	0x403a4fbc	2.9111166
178	0x3ff418cb	1.9070066
179	0x3ffee688	1.9914103
180	0x3ffbc287	1.966874
181	0x429a65ab	77.19857
182	0x4008cd90	2.1375465
183	0x402d9d55	2.7127278
184	0x4001a34e	2.0255923
185	0x40039603	2.056031
186	0x40301c75	2.7517369
187	0x40099c24	2.150155
188	0x3ff0542a	1.8775685
189	0x40028875	2.0395787
190	0x4172e1e9	15.180154
191	0x3ffcd048	1.9751062
192	0x3fed0508	1.851716
193	0x400a41fd	2.1602776
194	0x3ffef901	1.991974
195	0x3ff73b34	1.9314942
196	0x3fecb8f3	1.8493942
197	0x40290378	2.6408367
198	0x400bf735	2.1869633
199	0x400767ec	2.115718
200	0x400bc805	2.1840832
201	0x41595045	13.582097
202	0x410a805d	8.656339
203	0x404c59f8	3.1929913
204	0x40079c05	2.1188977
205	0x3ff477a8	1.9099016
206	0x4023d017	2.5595758
207	0x4001ef8a	2.0302453
208	0x3fff1593	1.9928459
209	0x40123a2d	2.2848008
210	0x4058c816	3.3872123
211	0x41c35f0b	24.421408
212	0x4023ecbf	2.5613248
213	0x400f9de5	2.244012
214	0x408b3616	4.3503523
215	0x40281fac	2.626933
216	0x4000ba5e	2.011375
217	0x4025a340	2.588089
218	0x4006a3f0	2.103756
219	0x4006c904	2.106019
220	0x40236e43	2.5536048
221	0x4016e0e8	2.3574772
222	0x4016779d	2.3510506
223	0x402247b1	2.5356257
224	0x4004e168	2.0762577
225	0x423b6d6a	46.85685
226	0x40312b8d	2.7682831
227	0x404cb417	3.1984918
228	0x400fe690	2.2484474
229	0x401e93ff	2.477783
230	0x3fd7a102	1.6846011
231	0x400e5a54	2.2242632
232	0x400bcf25	2.184518
233	0x401a4041	2.4101717
234	0x3ffa49e6	1.9553802
235	0x3ff8bccf	1.943262
236	0x401977bb	2.3979328
237	0x402f40f6	2.73834
238	0x401af5eb	2.4212596
239	0x3fef7eb1	1.8710538
240	0x400aa9c2	2.1666112
241	0x40c80e81	6.2517705
242	0x4001bcb7	2.0271432
243	0x400e07ce	2.2192264
244	0x400d18a4	2.204629
245	0x401c87b8	2.4457836
246	0x3ff424b0	1.9073696
247	0x3ffd93fc	1.9810786
248	0x3fead623	1.8346599
249	0x4014174e	2.3139224
250	0x4003dbb1	2.060284
251	0x42601bc4	56.027115
252	0x3fdf0ac2	1.7425158
253	0x3ff5bb49	1.919778
254	0x4007bc44	2.1208658
255	0x401fab2f	2.4948232

transformer.norm.weight f4 [1024]
0	0x3f4504f5	0.7696069
1	0x3f2df680	0.67954254
2	0x3efd6c0f	0.49496505
3	0x3ea79921	0.32734016
4	0x3edcda0a	0.431351
5	0x3e9b4375	0.30324903
6	0x3f1e6831	0.61877733
7	0x3dedb0e9	0.116060086
8	0x3ec46e0a	0.38365203
9	0x3f1079ff	0.5643615
10	0x3f58d7a3	0.84704036
11	0x3f4a8a2e	0.79117095
12	0x3f0a50b4	0.54029393
13	0x3ec3b2e4	0.3822242
14	0x3f15722f	0.58377355
15	0x3eb264f1	0.34842637
16	0x3e33c4f2	0.17555597
17	0x3f5cef77	0.86302894
18	0x3f262865	0.6490539
19	0x3f57f77f	0.84362024
20	0x3b9c59d5	0.004771451
21	0x3e8975af	0.26847598
22	0x3f0b106c	0.5432193
23	0x3eba6164	0.36402428
24	0x3f0a33f5	0.5398553
25	0x3dd1b9c1	0.10240508
26	0x3f1076b2	0.56431115
27	0x3f1073fd	0.56426984
28	0x3ee02e14	0.43785155
29	0x3ed2d889	0.41180828
30	0x3ee151c6	0.440077
31	0x3f1b16d8	0.6058173
32	0x3f0388da	0.51380694
33	0xbc6e6e2a	-0.014552632
34	0x3f174078	0.59082747
35	0x3f5488c9	0.8302122
36	0x3e5a76f1	0.21334435
37	0x3f21c249	0.6318708
38	0x3ed84ccd	0.42246094
39	0x3f534a57	0.8253531
40	0x3f5128fa	0.8170315
41	0x3f1abe09	0.6044622
42	0x3ef16584	0.47147763
43	0x3f0e7a05	0.5565494
44	0x3ecd24d6	0.40067166
45	0x3f242413	0.64117545
46	0x3f02562f	0.50912756
47	0x3ef645b4	0.48100054
48	0x3ea3e668	0.32011724
49	0x3f22b1d1	0.63552576
50	0x3ebd12ec	0.369285
51	0x3f446ea4	0.76731324
52	0x3e514329	0.20435776
53	0x3f6a0f68	0.9142976
54	0x3eacd768	0.33758092
55	0x3f133bf5	0.5751336
56	0x3f1cedf8	0.6130061
57	0x3f1372fd	0.57597333
58	0x3f4401c7	0.7656521
59	0x3f38857a	0.7207867
60	0x3f2f2edc	0.68430877
61	0x3ee59233	0.44838104
62	0x3eb2f79f	0.34954545
63	0x3f248d56	0.6427816
64	0x3f086209	0.5327459
65	0x3f4dccb3	0.8039047
66	0x3edd2194	0.4318968
67	0x3e9b4416	0.30325383
68	0x3ee4e203	0.44703683
69	0x3f0c35d7	0.54769653
70	0x3f62af84	0.88549066
71	0x3f6104b0	0.8789778
72	0x3f479b34	0.77971196
73	0x3ede0e32	0.43370205
74	0x3f702362	0.9380399
75	0x3f11d875	0.5697091
76	0x3baa10c1	0.0051899855
77	0x3f0309c7	0.51186794
78	0x3f420443	0.7578775
79	0x3e35cdf2	0.17754343
80	0x3f1da718	0.6158309
81	0x3f36b128	0.7136407
82	0x3e561953	0.20908098
83	0x3ef337e8	0.4750359
84	0x3f2fcb3d	0.6866949
85	0x3ef52145	0.47876945
86	0x3f2c9fe8	0.674315
87	0x3d66825d	0.056276668
88	0x3ec51823	0.38494977
89	0x3f593613	0.84848136
90	0x3e87bb57	0.26510116
91	0x3f3d9066	0.7404846
92	0x3e9c76f6	0.3055951
93	0x3ec172d4	0.3778292
94	0x3eae2fb7	0.3402078
95	0x3f2f9bbf	0.68597025
96	0x3f3fce6b	0.74924344
97	0x3e980ac6	0.2969572
98	0x3f4e9a99	0.8070465
99	0x3efc04ba	0.49222356
100	0x3f54040e	0.82818687
101	0x3f86932b	1.0513662
102	0x3e8b6cdc	0.2723149
103	0x3f4637c5	0.7742885
104	0x3f4a675d	0.7906397
105	0x3ef0ff0d	0.47069588
106	0x3b900bba	0.004395929
107	0x3f0fa357	0.5610861
108	0x3f7e9bca	0.99456465
109	0x3ef70058	0.4824245
110	0x3f7ef6a8	0.9959512
111	0x3f09b7f5	0.5379632
112	0x3f1b9c26	0.6078514
113	0x3e73d929	0.23813309
114	0x3f4fa049	0.8110395
115	0x3f3c1946	0.73476064
116	0x3ed3ce19	0.41368178
117	0x3f92ad3d	1.1459118
118	0x3f3c2535	0.73494273
119	0x3f4a32e6	0.78983915
120	0x3f5e7ae7	0.86906284
121	0x3e87b2ed	0.26503697
122	0x3ce495e7	0.02790351
123	0x3f065f59	0.5248924
124	0x3f6d36ed	0.92661935
125	0x3f319f5f	0.69383806
126	0x3f4928d2	0.7857791
127	0x3f5b1d0a	0.85591185
128	0x3ef9173d	0.48650542
129	0x3e82d857	0.2555568
130	0x3f25071f	0.6446399
131	0x3e8d0c22	0.2754832
132	0x3f80db82	1.0066988
133	0x3f0e0904	0.55482507
134	0x3f3e4cf9	0.743362
135	0x3e17f336	0.14838871
136	0x3ecd6dea	0.4012292
137	0x3f723f8d	0.9462822
138	0x3ea5ee5a	0.3240841
139	0x3e63878c	0.22219676
140	0x3f193c49	0.5985761
141	0x3f20df63	0.6284086
142	0x3eebe67a	0.46074277
143	0x3f49b3fb	0.78790253
144	0x3e893d5d	0.2680463
145	0x3f239f25	0.6391471
146	0x3ee033dd	0.4378957
147	0x3f2191cb	0.6311309
148	0x3f44df52	0.7690326
149	0x3f29c678	0.66318464
150	0x3f5749a6	0.84096754
151	0x3eb687f2	0.35650593
152	0x3f366c5c	0.71259093
153	0x3f8a1e49	1.0790492
154	0x3f2ca705	0.6744235
155	0x3f1894f7	0.596023
156	0x3f56d679	0.8392101
157	0x3ed12c8d	0.40854302
158	0x3f56c049	0.83887154
159	0x3f0c0842	0.547001
160	0x3e99d32d	0.30043927
161	0x3e239c32	0.15977553
162	0x3ee9ffbe	0.45702928
163	0x3f056c47	0.52118343
164	0x3f288e44	0.6584208
165	0x3f3cd5c8	0.73763704
166	0x3f66a87d	0.9010084
167	0x3f08cb09	0.5343481
168	0x3f5c74ea	0.86115897
169	0x3f58274b	0.84434956
170	0x3eb8647c	0.36014163
171	0x3f23968b	0.63901585
172	0x3ef7953a	0.48356038
173	0x3e5ea6e2	0.21743348
174	0x3f2507d7	0.6446509
175	0x3e3385e3	0.17531542
176	0x3f38ed82	0.7223741
177	0x3f5aa293	0.8540432
178	0x3f2c68cd	0.67347413
179	0x3f0e87a3	0.55675715
180	0x3f52fd6d	0.8241795
181	0xbdf11064	-0.117707044
182	0x3f5cd78c	0.862664
183	0x3efd954b	0.49527964
184	0x3f2ce6e3	0.67539805
185	0x3ec69c85	0.3879129
186	0x3f070b61	0.5275174
187	0x3f00fcde	0.50385845
188	0x3f267faa	0.6503855
189	0x3f7f22a0	0.9966221
190	0x3f3b3caa	0.7313944
191	0x3f5b39a9	0.8563486
192	0x3f3f8b68	0.7482209
193	0x3f361d2c	0.7113826
194	0x3ed19671	0.4093509
195	0x3f52e564	0.8238127
196	0x3f00369d	0.50083333
197	0x3ef44dd8	0.4771564
198	0x3f63d86e	0.8900212
199	0x3fa339ef	1.2752055
200	0x3dd9a997	0.1062805
201	0xbf219e16	-0.63131845
202	0x3f0ed735	0.5579713
203	0x3f0c2bcd	0.54754335
204	0x3e92f53a	0.28702718
205	0x3f66bf4f	0.90135664
206	0x3eeb53e1	0.45962432
207	0x3f5050d8	0.8137336
208	0x3ed44fec	0.41467226
209	0x3f51d43a	0.8196446
210	0x3f0cfdf3	0.55074996
211	0x3e1e7096	0.15472636
212	0x3e9e763b	0.30949578
213	0x3f37e96d	0.71840554
214	0x3f09b953	0.5379841
215	0x3ea8173b	0.32830223
216	0x3e9d6dff	0.30747983
217	0x3f263113	0.6491863
218	0x3f1c0d87	0.6095814
219	0x3e62c10f	0.22143959
220	0x3f9f12d2	1.2427619
221	0x3f1d6653	0.6148426
222	0x3eab0d50	0.33408594
223	0x3ef154d7	0.4713504
224	0x3f0c9b82	0.54924786
225	0x3dcc1562	0.09965016
226	0x3f46a4ff	0.77595514
227	0x3f21b337	0.63164085
228	0x3edce23d	0.43141356
229	0x3f036551	0.5132647
230	0x3f4444ff	0.7666778
231	0x3f193dee	0.5986012
232	0x3f3a2c7c	0.7272413
233	0x3f0a1448	0.53937197
234	0x3f90aa10	1.1301899
235	0x3f1886a7	0.59580463
236	0x3eea1fc7	0.4572737
237	0x3f085566	0.5325531
238	0x3ec6eb59	0.3885143
239	0x3f2f391c	0.68446517
240	0x3f5e9805	0.86950713
241	0x3ea6a22f	0.3254561
242	0x3eef7783	0.46770868
243	0x3f3525e0	0.7076092
244	0x3f57917a	0.84206355
245	0x3ed3a575	0.4133717
246	0x3f34446c	0.70416903
247	0x3eed75d2	0.46378952
248	0x3f7a2552	0.97713196
249	0x3f4247a7	0.7589058
250	0x3ef22aa2	0.4729815
251	0x3ea46de0	0.32115078
252	0x3f3a897e	0.72866046
253	0x3edb10d3	0.42786273
254	0x3f256ac5	0.6461604
255	0x3eb33647	0.35002348

transformer.norm.bias f4 [1024]
0	0xbd81875e	-0.06324647
1	0xbd81a833	-0.063309096
2	0x3dc50a10	0.0962106
3	0x3ca6dfa6	0.020370316
4	0xbe8800a9	-0.26563004
5	0xbde5c47e	-0.112191185
6	0xbe46834f	-0.19386028
7	0xbcf21b81	-0.02955413
8	0x3ea90b91	0.33016637
9	0x3e71f643	0.23629098
10	0x3e54c8b8	0.20779693
11	0x3e2115b8	0.15730941
12	0xbe4af46f	-0.19819807
13	0x3d836660	0.06416011
14	0xbe374532	-0.1789749
15	0x3e2a349a	0.16621628
16	0xbe1c4988	-0.15262425
17	0xbd0708bf	-0.032967325
18	0xbde78dad	-0.113063194
19	0x3e824710	0.2544484
20	0x3e4022f5	0.18763335
21	0x3d229f9c	0.039702997
22	0xbd68b082	-0.056808956
23	0xbd2359c8	-0.039880544
24	0x3c909c6e	0.017652716
25	0x3ceb3eb0	0.028716415
26	0x3e45fd92	0.1933501
27	0x3e15158c	0.14559
28	0x3eaffbec	0.3437189
29	0x3d98931d	0.07449935
30	0xbcceff86	-0.025268327
31	0x3e1ec5ba	0.15505114
32	0x3d1c76cd	0.038199235
33	0x3e59b639	0.21260919
34	0x3d3e8b6b	0.046519678
35	0xbd90231b	-0.07037946
36	0x3e081c39	0.13292016
37	0xbd398f21	-0.045302514
38	0xbc9993eb	-0.01874729
39	0xbe867fcd	-0.2626938
40	0xbe936ef0	-0.28795576
41	0x3e211568	0.15730822
42	0xbdc009f1	-0.09376896
43	0x3e8e114b	0.27747568
44	0x3e6d630f	0.23182319
45	0xbe98b057	-0.29822037
46	0x3eac4099	0.33643034
47	0xbe91e07a	-0.28491575
48	0x3d90abe4	0.070640355
49	0xbc251ace	-0.0100771915
50	0x3e74968f	0.23885559
51	0x3a6229cf	0.0008627446
52	0x3e255e5f	0.16149281
53	0xbd517e62	-0.05114592
54	0x3e18987b	0.14901917
55	0x3d628afa	0.05530832
56	0x3e6bde24	0.23033959
57	0xbdb20f1f	-0.0869429
58	0xbea69801	-0.32537845
59	0xbd8d6f8d	-0.06906042
60	0xbe480b24	-0.195355
61	0xbd0c5207	-0.034257915
62	0x3e85229b	0.26002964
63	0x3e7bcd37	0.24590002
64	0xbe0eff50	-0.13964581
65	0x3e88cd29	0.26719025
66	0xbe5fdfd9	-0.21862735
67	0x3cde61dd	0.027146274
68	0x3da4e170	0.08050811
69	0xbd2b2880	-0.04178667
70	0xbe60005d	-0.21875139
71	0xbe812547	-0.25223753
72	0x3db216b0	0.086957335
73	0x3c713bc5	0.014723723
74	0x3dbbec53	0.09175935
75	0x3d2b2551	0.041783635
76	0xbd2fb48e	-0.0428968
77	0xbce594b8	-0.028025016
78	0xbe1a574c	-0.15072364
79	0x3e4d1739	0.2002839
80	0xbd8415fd	-0.064495064
81	0xbd6af652	-0.057363816
82	0x3de2ae3b	0.11068388
83	0xbcb7b0af	-0.022423116
84	0xbd4c4f94	-0.04988058
85	0xbe04a202	-0.12952426
86	0xbc41113d	-0.011783895
87	0xbe678b9b	-0.22611849
88	0x3e2fd32b	0.17170398
89	0x3d905097	0.07046621
90	0xbe3bc284	-0.1833592
91	0xbea61731	-0.3243957
92	0x3de09b1e	0.10967086
93	0x3e44e1bf	0.1922674
94	0x3d8883a0	0.066657305
95	0x3dfb2f9b	0.122649394
96	0x3dca0fdc	0.09866306
97	0x3e901dc7	0.28147718
98	0x3e430f51	0.19048811
99	0x3d9312f6	0.07181351
100	0x3d7bbfc5	0.061462183
101	0x3eb45f9d	0.35229197
102	0xbd5a8c47	-0.053356435
103	0xbdd533bb	-0.104102574
104	0x3da3ce08	0.07998282
105	0xbdf8ca73	-0.12147989
106	0x3df8b78b	0.12144383
107	0xbd48997e	-0.048974507
108	0xbc601f7d	-0.013679382
109	0x3d009e10	0.03140074
110	0xbeb771e0	-0.35829067
111	0xbbd29258	-0.006426137
112	0xbc936cdc	-0.017996244
113	0xbd2256bd	-0.0396335
114	0xbe08ed6a	-0.13371816
115	0x3c22b03f	0.009929716
116	0xbddca711	-0.10774053
117	0x3e9ddbc3	0.30831727
118	0x3bca3995	0.006171415
119	0x3e0cc137	0.1374558
120	0xbd2d72c6	-0.042345785
121	0x3d92c52a	0.07166512
122	0x3ddc58f6	0.107591555
123	0x3d4d42cd	0.050112534
124	0xbd4ea24a	-0.05044774
125	0xbe861ad6	-0.2619235
126	0x3e1aa2a4	0.15101105
127	0xbe542ff7	-0.20721422
128	0x3b6b880e	0.003593925
129	0xbd77c6c8	-0.060492307
130	0x3e5fab81	0.21842767
131	0x3daf22fc	0.085515946
132	0x3e1a2581	0.15053369
133	0x3d818fff	0.06326293
134	0x3d4de9ae	0.050271682
135	0xbd9da96d	-0.07698331
136	0x3e75e1d1	0.24011923
137	0x3dcca78d	0.09992895
138	0x3e0d3def	0.13793157
139	0xbda83b74	-0.08214465
140	0x3d3793ce	0.044818692
141	0x3cf7d430	0.030252546
142	0xbe8ca0da	-0.2746647
143	0xbd7c9a1a	-0.0616704
144	0xbe1ea4ff	-0.15492629
145	0xbd8961ed	-0.06708131
146	0x3df8e9fa	0.121540025
147	0xbe7f6452	-0.24940613
148	0xbd311cd8	-0.0432404
149	0x3d80e17e	0.06293009
150	0x3dbc4152	0.09192146
151	0x3c7ddc95	0.015494485
152	0x3b2a7935	0.0026012186
153	0xbe11de71	-0.14245011
154	0xbe843e58	-0.25828815
155	0xbe71e9b0	-0.23624301
156	0xbd0bef16	-0.034163557
157	0xbe557f7f	-0.20849417
158	0xbd418903	-0.047249805
159	0x3e099ade	0.13437983
160	0xbadcf862	-0.0016858692
161	0xbe08bffc	-0.13354486
162	0xbd9e31c9	-0.077243395
163	0x3e25246d	0.16127177
164	0x3e6b1816	0.22958407
165	0x3d00ed97	0.031476583
166	0xbe027802	-0.12741092
167	0x3b1a031e	0.0023500393
168	0x3e16e80e	0.1473696
169	0xbcc0b6ea	-0.02352472
170	0xbc99b977	-0.018765194
171	0xbbfcc75a	-0.0077141942
172	0xbe4364c5	-0.1908141
173	0x3c5f864e	0.013642861
174	0xbc368505	-0.011140113
175	0xbe2e1ff9	-0.17004384
176	0xbdbdc515	-0.09266106
177	0x3e1f2463	0.15541224
178	0x3d83a2cd	0.06427536
179	0x3c452cc6	0.012034601
180	0xbdce521e	-0.10074256
181	0xbe61f204	-0.22064978
182	0x3c2a9dfe	0.010413645
183	0xbe70072c	-0.23440236
184	0x3e19c3a4	0.15016037
185	0xbdfe9e92	-0.12432589
186	0x3cf9e704	0.030505665
187	0x3e2ccd61	0.16875221
188	0xbe44d56c	-0.19222039
189	0xbc9748f5	-0.018467406
190	0x3afcdbcd	0.001929158
191	0xbca3e5fa	-0.020007122
192	0x3ce6d9f0	0.028180093
193	0x3d9ea3b9	0.07746071
194	0xbe4c2ee5	-0.19939764
195	0x3e113ef5	0.14184172
196	0x3d8d3e12	0.068966046
197	0x39efcf3c	0.00045740034
198	0xbd37bb74	-0.044856504
199	0x3e072e04	0.13201147
200	0x3e0e2fad	0.13885374
201	0x3e8f687c	0.28009403
202	0xbe21e91b	-0.15811579
203	0x3e11569b	0.14193194
204	0x3dd6d47f	0.10489749
205	0x3de0df16	0.1098005
206	0x3dece293	0.11566653
207	0x3c4771c9	0.012173125
208	0xbd53d6d8	-0.051718563
209	0xbc86285d	-0.016376669
210	0x3de9bf99	0.114134975
211	0xbd1d7a91	-0.038446967
212	0x3de9357f	0.11387157
213	0x3d56722b	0.052354973
214	0x3d4e0774	0.050300077
215	0xbe45b10a	-0.19305816
216	0x3e4a9bcd	0.19785996
217	0xbee82b89	-0.45345715
218	0xbd9b51b4	-0.07583943
219	0x3e2c2b9c	0.1681351
220	0x3deb6f09	0.11495788
221	0xbd696390	-0.056979716
222	0xbdeaec58	-0.1147086
223	0x3dac94ef	0.08426844
224	0xbe70cb18	-0.23514974
225	0x3bd73fd9	0.0065688905
226	0x3d819318	0.06326884
227	0x3e4ba6c5	0.19887836
228	0x3e5267c8	0.20547402
229	0x3da7afa1	0.081877954
230	0x3e24f868	0.16110384
231	0xbddaa1eb	-0.10675415
232	0xbe02c284	-0.12769514
233	0xbc52f80b	-0.012876521
234	0xbd45662d	-0.048193146
235	0xbd9fa21d	-0.077945925
236	0xbdc80aba	-0.09767671
237	0x3e06242f	0.1309974
238	0xbe030ef1	-0.12798668
239	0xbd32bb08	-0.0436354
240	0x3c488b8b	0.012240301
241	0xbdf4f5ff	-0.119609825
242	0x3c0d7b93	0.008635419
243	0x3e389f51	0.18029524
244	0xbe0e7f5a	-0.13915768
245	0x3ddaf54d	0.10691319
246	0xbe58d300	-0.2117424
247	0xbe08ad04	-0.1334725
248	0x3e3ef809	0.18649305
249	0x3e9f8614	0.3115698
250	0xbe075691	-0.13216616
251	0xbe511fa2	-0.20422223
252	0x3e3aadeb	0.18230407
253	0x3e40ae39	0.1881646
254	0xbe9a9108	-0.30188775
255	0xbe4a2339	-0.19739999

transformer.norm.running_mean f4 [1024]
0	0xbc5584e8	-0.013032176
1	0x3c2f94ba	0.0107166115
2	0xbb62bdad	-0.003459792
3	0x3c805bdd	0.015668804
4	0x3bf17566	0.0073687313
5	0xbb0533e0	-0.002032511
6	0x3b54f253	0.003249307
7	0xbb2233ce	-0.0024750116
8	0xbb36b345	-0.002787785
9	0xbc1f3fd3	-0.009719807
10	0xbc0fba1f	-0.008772402
11	0x3c43c72d	0.011949343
12	0x3b31f969	0.0027156717
13	0xbb6deee5	-0.0036305722
14	0xbca7c424	-0.02047927
15	0x3b3c53e6	0.002873653
16	0x3ac73da7	0.0015200869
17	0x3c381982	0.01123655
18	0xbc15414b	-0.009109805
19	0x3aef6ca3	0.0018266629
20	0x3ac5313a	0.0015044578
21	0xba27c422	-0.00063997705
22	0x3ca67b47	0.020322455
23	0x3a99dc0f	0.0011738556
24	0x3bd2c285	0.00643188
25	0xba4d521e	-0.0007832366
26	0xbb530639	-0.0032199754
27	0x3c1c84e3	0.009553167
28	0x3ac190bd	0.0014767867
29	0x3983f48e	0.00025168475
30	0xbc8b3de0	-0.016997278
31	0x3b51c14a	0.0032006078
32	0xbc6805e2	-0.014161559
33	0x3ab83837	0.0014054839
34	0xbbaa1989	-0.0051910323
35	0xbc2c5038	-0.0105171725
36	0xba6c2ddb	-0.00090095185
37	0x3bc0d023	0.005884187
38	0xbb0a7c7e	-0.0021131332
39	0xbb074947	-0.0020643042
40	0xba9aaccc	-0.0011800765
41	0xbb304840	-0.0026898533
42	0xbb5978a1	-0.0033183473
43	0x3bf96ba2	0.007611708
44	0xbbb5b646	-0.0055454103
45	0x3b0e92a8	0.0021754894
46	0x3b07a668	0.002069855
47	0x3987efd3	0.0002592789
48	0x3b6f3855	0.0036502082
49	0xbae41bd0	-0.0017403308
50	0xbaa7c343	-0.0012799281
51	0x3c0615f5	0.008183946
52	0xbc116799	-0.008874797
53	0xbc40e071	-0.011772261
54	0x3b936d64	0.0044991244
55	0xbc828d9c	-0.015936665
56	0xbb8ae8e0	-0.0042391866
57	0x3c6c3263	0.01441631
58	0xbbb534be	-0.005529969
59	0x3bc61d21	0.006045953
60	0x3bc4e8ac	0.006009182
61	0x3b298b9a	0.0025870563
62	0x3c4d32ec	0.012524348
63	0x3c62be5f	0.013839333
64	0xbc6861ac	-0.014183443
65	0x3c281792	0.010259526
66	0xbad291ec	-0.0016065217
67	0xbb084658	-0.0020793881
68	0x3bddb5f8	0.006766077
69	0xbb158122	-0.0022812565
70	0xbb94772c	-0.004530808
71	0xbb0c915c	-0.0021448946
72	0xb8a51c14	-7.873043e-05
73	0xba9fe7b2	-0.0012199788
74	0xbb9d34af	-0.00479754
75	0xb87a77e9	-5.971632e-05
76	0x3a9f5ae0	0.001215782
77	0xba83c038	-0.0010051792
78	0x3b8078f5	0.003920669
79	0x3b338a36	0.0027395613
80	0x3b9843b2	0.004646742
81	0x3c0e0828	0.008668937
82	0xbb919f11	-0.004444011
83	0x3bb1743d	0.005415468
84	0xbbe992fa	-0.0071281167
85	0x3b7e662d	0.0038818226
86	0xbc9bb0a1	-0.019005122
87	0x3b02246e	0.001985814
88	0x3752a639	1.2555677e-05
89	0xb90051fb	-0.00012237571
90	0x39ba6494	0.0003555162
91	0x3ba2b62e	0.004965565
92	0x3b4df209	0.0031424782
93	0xb9bf9460	-0.00036540907
94	0xbad66fd4	-0.0016360232
95	0x3b1dc42c	0.0024073226
96	0xbbbc0130	-0.0057374462
97	0x3a8b5a27	0.0010631726
98	0xbcaf6add	-0.021413261
99	0xbc292388	-0.010323413
100	0xbc14eb1b	-0.009089257
101	0x3b8f2f49	0.0043696505
102	0xb8ec0ac2	-0.00011255361
103	0xbc03fb60	-0.008055538
104	0xbbb6bd61	-0.005576775
105	0xbbbe2fb6	-0.0058040274
106	0x3ad84564	0.0016500172
107	0xbc9b2e51	-0.018942984
108	0x3c86faec	0.01647707
109	0xbabe243e	-0.0014506651
110	0x3a4b8808	0.00077641057
111	0xbb7fce0b	-0.0039032723
112	0x3bdd7fd9	0.0067596254
113	0xb98fc3df	-0.0002742102
114	0xbc4c3c09	-0.012465485
115	0xbb2a61e7	-0.0025998296
116	0xbb95ec8f	-0.004575319
117	0xbbaaddd0	-0.0052144304
118	0xbbbce59d	-0.0057646767
119	0xbc0505c3	-0.0081190495
120	0xbc4e811c	-0.012604024
121	0xbbc435e8	-0.0059878714
122	0xb901610e	-0.00012338554
123	0x3c7f6bee	0.015589697
124	0xbbffdad8	-0.0078080706
125	0x3c7c8781	0.015413166
126	0x3c2373ea	0.009976367
127	0x3c05edd0	0.008174375
128	0xbc208974	-0.009798396
129	0xbbe341c8	-0.006935332
130	0x3cbc0fa8	0.022956684
131	0x3b4dadae	0.0031384039
132	0x3c05a599	0.008157157
133	0x3b3c0308	0.002868833
134	0xbc5aeb16	-0.013361713
135	0x3be05209	0.006845717
136	0xbb03c6dc	-0.0020107543
137	0x3c7967de	0.015222518
138	0xbc107ccb	-0.008818815
139	0xbbd9dc11	-0.0066485484
140	0x3ba13fd5	0.0049209394
141	0xbb95dd09	-0.0045734686
142	0x3ad7a760	0.001645308
143	0x3b45d6f1	0.003018793
144	0x3a486fd3	0.00076460576
145	0x3be09661	0.006853864
146	0x3bf09790	0.0073422864
147	0x3c8ff427	0.017572476
148	0x3bce309a	0.006292415
149	0x3bce6a86	0.0062993197
150	0xbbec0818	-0.0072031133
151	0xbb69c137	-0.0035668144
152	0xba84a04c	-0.0010118573
153	0xbc92bfbe	-0.017913695
154	0xbb0bdc3b	-0.0021340984
155	0xbb2004bb	-0.0024416882
156	0xbb7b7588	-0.0038369615
157	0x3b115894	0.002217804
158	0x3b838fc1	0.0040149395
159	0xbb0b0963	-0.0021215312
160	0x3b5bce4e	0.0033539715
161	0x3a3b3311	0.00071410934
162	0xbb16e547	-0.0023024844
163	0xbb740c37	-0.0037238726
164	0xbbcb783a	-0.0062094005
165	0xbb2d5702	-0.0026449566
166	0x3cae69e5	0.021290729
167	0x3c168e10	0.009189144
168	0xbbb66552	-0.0055662775
169	0xbc882bf6	-0.016622525
170	0x3b37f725	0.0028070894
171	0x3bb2c26b	0.0054553053
172	0xbbfae3f2	-0.0076565677
173	0xbb089b3b	-0.0020844478
174	0xbb921b74	-0.004458839
175	0xbb5d3c52	-0.0033757878
176	0x3c169a8f	0.009192123
177	0x3bc7e7f7	0.0061006504
178	0xbb0c8dc4	-0.0021446804
179	0xbb393867	-0.0028262378
180	0x3c854e0e	0.016272571
181	0xbb1da593	-0.0024054989
182	0x3706c2e6	8.032401e-06
183	0x3b1f8c3a	0.0024345056
184	0xbc053802	-0.008131029
185	0x3af67ff1	0.001880644
186	0x3ae76875	0.0017655032
187	0xbbab89e4	-0.0052349437
188	0x3c07f4b9	0.0082980925
189	0x389a8e48	7.369794e-05
190	0x3ba1e13d	0.0049401806
191	0xbce793fb	-0.028268805
192	0x3c515a92	0.012777941
193	0x3cd64180	0.02615428
194	0x3c16a7aa	0.009195248
195	0xbb91abb2	-0.0044455165
196	0xbaef5bb7	-0.0018261586
197	0xbb93adf3	-0.0045068203
198	0xbca8c730	-0.020602793
199	0xbb9a434e	-0.0047077304
200	0xbb54ebee	-0.0032489258
201	0xbcd9c58c	-0.026583456
202	0xbc158880	-0.009126782
203	0xbb7b81a4	-0.0038376832
204	0xbb45417f	-0.0030098853
205	0xba694686	-0.00088987534
206	0x3975855e	0.00023414704
207	0x3ab0af20	0.0013479926
208	0x3c511d3d	0.012763319
209	0xbc97a504	-0.018511303
210	0x3c8597b9	0.016307699
211	0xbb33b6bb	-0.0027422148
212	0x3b7c3032	0.0038480875
213	0xbc5e4e58	-0.013568483
214	0xbabce300	-0.0014410913
215	0x3bb528fd	0.005528568
216	0xbb1e5190	-0.0024157502
217	0x3b592d35	0.0033138518
218	0xbad3d56c	-0.0016161627
219	0x3bc9d536	0.00615945
220	0x3c9d626e	0.019211974
221	0x3acb00c0	0.0015487894
222	0x3b160c73	0.0022895604
223	0x3a5a8219	0.0008335426
224	0x3b893e8c	0.0041883644
225	0xbb147e09	-0.002265813
226	0x3c992a2b	0.018696865
227	0xbbd21b79	-0.0064119664
228	0xba772aa4	-0.0009428656
229	0xbc3ed07e	-0.011646388
230	0x3bff5635	0.007792259
231	0xbbcf60f6	-0.0063286973
232	0x3b665234	0.0035144212
233	0xbc1612fc	-0.0091598
234	0xbc8b4607	-0.017001165
235	0xb9da6d9e	-0.0004166187
236	0x3a0f6fdd	0.0005471686
237	0x3babcc91	0.005242892
238	0xbb6025e9	-0.0034202284
239	0xbb11f2ae	-0.0022269893
240	0x3c13594c	0.008993458
241	0xba4a0098	-0.0007705777
242	0xbbb2e6a2	-0.0054596225
243	0xbc03ee25	-0.008052384
244	0xbc204a62	-0.009783359
245	0x3b9e9018	0.0048389547
246	0x3a4c7194	0.0007798907
247	0xbb58511a	-0.0033007325
248	0x3cdb701d	0.026786858
249	0xbc6b9bc1	-0.014380396
250	0x3939e682	0.00017728846
251	0xbbcadcf3	-0.00619089
252	0xbb0d8302	-0.002159298
253	0xbb530608	-0.003219964
254	0xbb927e4d	-0.0044706226
255	0xba08b285	-0.000521459
