xls_r_sqa/models/sqa-v2/xls-r-300m/model_300m_lay21_subset.pt (torch, 384909 bytes, 67 tensors)

norm_input.weight f4 [1024]
00000000: 8eb4 3e3f 21c8 173f feb9 c63e 7fab 203f
00000010: 3253 2f3f 7a8b 963e 8f90 113f 8a3d 1b3f
00000020: 6749 e13e 3377 d63e 663f 393f 3460 9d3e
00000030: a694 e13d bc80 f23e 3627 ed3e 7806 2b3f
00000040: 1943 2f3f e756 9a3e 6275 363f 821c e43e
00000050: 8ea7 e03e 42be 243f 535a fd3e 6346 353f
00000060: 484a 4a3f 88c0 2a3f c39c 433f 5d6b 143f
00000070: 3fcd 103f a2be a13e ef4d 043f 8f50 bf3e
00000080: 41d9 b33e 7ff6 033f eb04 d03e 7f76 493f
00000090: c57e 1e3f e64c 063f 8b71 493f cd00 b33e
000000a0: 6f05 303f 8341 0d3f 63f9 0b3f 8e01 0d3f
000000b0: d50a ce3e f8ea 053f df0e a83e e996 f33e
000000c0: 3260 4f3f a3cf 1a3f 1625 1c3f bfee 333e
000000d0: f310 313e 7005 153f ad09 e23e dbbe e43d
000000e0: 0e2b 043f 5348 1b3f 1038 cb3e 9754 413f
000000f0: 5ee7 4e3f 40cb 233f 56b3 093f 3eba d23e
00000100: e0b7 d33e 2b72 f03e 719e bf3e 84f4 d23e
00000110: f0c3 833e b03d 9c3e 51ed ec3e 9588 363f
00000120: eb7a 533f 81cc c53e 357e 133f 0d6e 0f3f
00000130: f688 673f f57e 173f 880b 4e3f 6ed7 383f
00000140: 3451 be3e 6c6c 043f 0e2d 063e ad03 153f
00000150: f617 f03e bb05 ee3e 7db0 d13e c647 0f3f
00000160: 49ad 6a3f 68e6 0e3f baa1 bd3e 73c8 333f
00000170: 9225 c93e def5 123f 7eab 1b3f 9ee5 9e3e
00000180: fe41 a83e 58dc 013f 6a17 0b3f 9754 023f
00000190: fcbd e43e 8da4 603f 5f79 d93e a695 8c3e
000001a0: d58b 843e 0e37 333f 4b6c 103f 0cda 173f
000001b0: 106e 203f 15d6 203f eb1f 2d3f 68c4 083f
000001c0: 2a73 4c3f 4dfe 0c3f c974 263f 6ac8 223f
000001d0: 7e8e e63e 6279 f73e 5877 aa3d 85eb 1d3f
000001e0: 8c5e c03e 0a03 403f 2f56 d8bd 3d25 043f
000001f0: 0ad8 b23e e264 123f 4600 3c3f 83e7 d93e
00000200: 36df 023f c81b 5e3f a6a1 1d3f 1672 f63e
00000210: 010c c63e 884c 033f 8e8c e83e 63ec 1a3f
00000220: 4994 2f3f 8b71 983e 11eb 143f 3690 9b3e
00000230: 7541 293f 71b7 043f 3306 063f 2d39 cd3d
00000240: d24b 1a3f 032a 423f ff65 693f 50a8 4e3f
00000250: ea03 f53e 5c89 173f ee0d 063f bb91 803d
00000260: 3fcf 103f 9b96 353f 1122 a63e ad86 113f
00000270: 19ec 363f 6402 c83e ffce 0f3f 3849 443f
00000280: 762b b63e 2f59 913e 6af6 cd3e 4806 183e
00000290: cf78 653d b438 073f ddc5 ef3e 510d d33e
000002a0: 5b71 e73e e3b4 eb3e 32ec d23e 84c1 143f
000002b0: d7c1 6b3d cb16 d13e 0d0b 933e b876 db3e
000002c0: 3744 503f 18dc 263f cc0b 113f 43b7 313f
000002d0: c109 063f 04bb a53e 97ce 0a3f ddd7 f23e
000002e0: a9a6 b53e a56e 913e 20f7 2e3f f436 1b3f
000002f0: b1e2 013f f97b 6c3e a947 8b3d 05d1 b93e
00000300: 6587 c63e 633d d43e 91a2 2c3f 28c2 ca3e
00000310: ead6 2f3f 3e9c 363f b485 fa3e eae3 163f
00000320: d8b5 6c3f 1576 2a3f 5987 1e3f 8e63 443f
00000330: f33e d73e fd72 f33e 5959 073f b198 803e
00000340: a694 293f 5f96 933e 9767 9c3e 63de 633f
00000350: f34d 163f 154c 363f fbdf 023f 1487 bf3e
00000360: d111 113f 73b2 c23e 6ab7 633f 60f1 263f
00000370: 29a8 d63e bd6a 523f 0334 2b3f a3db 083f
00000380: afb0 e33e a7e3 c13e 104e a33e 8415 fb3e
00000390: 6487 cc3e f7e6 f13e 38d5 143f b7fc 3e3f
000003a0: 968f b33e 1b4f 073f ea88 1a3f 229b e63e
000003b0: d739 ba3e 43d1 143f 6ba2 1e3f ca83 ad3d
000003c0: 53d2 babd 3562 0a3f 6789 203f 54e3 163f
000003d0: 7eb8 a23e bb50 d53e 6a9d e73e 91d0 d33e
000003e0: 48bd e83e 4d6e 203f 52ab 2c3f e40f f43e
000003f0: 69bc fd3e 4199 333f 80d9 283f 5d6d 113f
0.74494255 0.5928975 0.38813776 0.6276168 0.6848632 0.29403287 0.56861204 0.60640776
0.44001314 0.41887817 0.72362363 0.3073746 0.110146806 0.47363842 0.46318978 0.66806746
0.6846176 0.30144426 0.7127286 0.44553 0.43877834 0.6435281 0.49482974 0.70810527
0.79019594 0.6670003 0.76411074 0.57976323 0.5656318 0.31590754 0.5168142 0.3736615
0.3512669 0.51548 0.40628752 0.78696436 0.61912185 0.5246109 0.7868888 0.34961548
0.6875829 0.5517809 0.5467741 0.550805 0.4024264 0.5231166 0.32823846 0.47576073
0.8100616 0.6047308 0.6099409 0.17571543 0.17291622 0.5821142 0.44148007 0.11169215
0.51628196 0.60657233 0.3969121 0.755197 0.8082179 0.6398201 0.5378927 0.41157717
0.41351223 0.46962103 0.3742557 0.41202176 0.25735426 0.30515814 0.46274808 0.7130216
0.8260943 0.38632587 0.5761445 0.560273 0.9044336 0.59178096 0.80486345 0.7220372
0.37171328 0.5172794 0.13103124 0.58208734 0.4689328 0.46488747 0.40954962 0.5596889
0.9167066 0.5582032 0.3703745 0.70227736 0.39286476 0.57406414 0.6080855 0.3103456
0.32862848 0.5072684 0.543326 0.50910324 0.44676197 0.87751085 0.4247541 0.27457923
0.25887933 0.7000588 0.5641524 0.5931709 0.6266794 0.62826663 0.6762683 0.5342469
0.79863226 0.5507553 0.6502195 0.6358706 0.45030588 0.48334795 0.08323544 0.616875
0.37572134 0.7500464 -0.10563313 0.5161932 0.3493045 0.57185185 0.7343792 0.42559442
0.5112184 0.8676114 0.6157478 0.48133916 0.38681033 0.5128865 0.45419735 0.6051695
0.6858564 0.29774126 0.5817118 0.30383462 0.66115505 0.5184241 0.5235321 0.10020671
0.6027194 0.75845355 0.9117126 0.80725574 0.4785455 0.5919397 0.52365005 0.06277796
0.5656623 0.7093293 0.32447866 0.56846124 0.71454006 0.39064324 0.56175226 0.7667422
0.35580033 0.28388354 0.40227062 0.14846146 0.056023415 0.528209 0.46830645 0.41221097
0.4520367 0.46036443 0.41195828 0.5810778 0.057557907 0.40837702 0.2871937 0.42864013
0.8135409 0.65179586 0.56658626 0.6942026 0.52358633 0.32369244 0.5422148 0.47430316
0.35478714 0.28404728 0.6834583 0.60630727 0.5073653 0.23094167 0.068007775 0.36292282
0.38775173 0.41453084 0.67435557 0.39601254 0.6868731 0.71332157 0.48930132 0.5894152
0.9246497 0.6658643 0.61925274 0.7671441 0.42040214 0.47548667 0.5287071 0.25116494
0.66242445 0.28825662 0.30547783 0.8901121 0.5871269 0.7120984 0.5112302 0.37407744
0.5666781 0.3802677 0.8895174 0.6521206 0.4192517 0.8219412 0.6687624 0.5346014
0.44470736 0.37868997 0.31895494 0.49039853 0.39947045 0.47246525 0.58137846 0.7460436
0.35070485 0.5285508 0.60365164 0.45040232 0.36372253 0.5813181 0.6196658 0.084724024
-0.091221474 0.540561 0.6270966 0.58940625 0.3178138 0.41663155 0.45237285 0.4137006
0.4545691 0.62668306 0.67448914 0.47668374 0.49557808 0.7015572 0.6595688 0.568075

norm_input.bias f4 [1024]
00000000: 1ad8 523b a5b7 5e3b ac23 5eb9 8743 b63b
00000010: 3de0 36bc 0f2f f839 5bb0 bb38 1694 0abc
00000020: a8bf 87ba 894d f2ba be23 c53a f1ad 69ba
00000030: ba3c e2b9 988a fe36 a103 f6bb c9f8 263a
00000040: b227 41bb 4116 79ba 8a04 9c3a 0bd8 5bbb
00000050: 2acc 25bb 4bfc d93b 935b e6b9 343f d0bc
00000060: 801f 86ba abc2 bbba e34a 2d3a b13b 173c
00000070: 0e00 03bc 2136 503b 3ec1 89b9 c0c2 59ba
00000080: 8cb0 98ba d1fd f1bb 921c faba 6397 29bb
00000090: 1cff 3fbc 6ebc 8c3b 7a84 233c 885a f7ba
000000a0: aad6 54bb 01c1 f8bb 5ba7 e939 1c77 ceba
000000b0: 522a 3b3b bfce 8cba 9cb3 d2b8 94a7 8539
000000c0: 4d5e 2d3c a773 dcbb 870a 09bc 10c4 1c3a
000000d0: e854 ca3a 8b9c 3a3a 2144 f9bb 864d bbb9
000000e0: c858 a4bb a18c 85ba 3879 8bbb 86e4 a6bb
000000f0: 6e95 733b 3e17 36b9 a07e 98bb a517 173b
00000100: 5f97 a83b 71a5 31bb b0b2 093b 37c6 84bb
00000110: 8b4c 7d3b 719c f4ba f6d1 92bb d3c1 0cb8
00000120: 59dd 143b b431 b4bb b646 283c 4f63 a33b
00000130: 919e edbb 8d96 14bb 7d64 61ba 5213 c03a
00000140: 4db8 c3ba 1e54 15bb a168 22b9 e0df a23b
00000150: 9d6d 14ba 416f 07ba e39a bd3a 6baf 83ba
00000160: 886b ca3c 7b14 d4bb bf89 f53a 69af a1bb
00000170: 7b6d 803a 93a8 52bb d188 91b9 5aee ccbb
00000180: a22a 713b d683 9eba f6fd 423b 10a9 11ba
00000190: 9e49 6ebb fe0a 373c e9f7 7dba 926a 4abb
000001a0: fe44 1dba 1749 863b 127c a3bb e1fe 1f3c
000001b0: fa6f 9d39 4bcb 6d3b 56ca 37bc 2401 053c
000001c0: 291f 2ebb 8eb8 0e3c e60f 983c 313a a43a
000001d0: fd63 a03b b658 88bb d9bd 96b8 8e5f bd3b
000001e0: 9250 05ba a379 5c3b 057b 083a 7a26 cfbb
000001f0: 265e 843b 986e eb39 f189 23bb d0ec 7ebb
00000200: 0ede 77bb e583 693b 8a5e 11bc 152d 6cba
00000210: 096d d2ba 7379 ac39 54d8 c6ba 4418 03bc
00000220: 8e29 c03a 9f8f a43b 1f26 dcba e432 8d3a
00000230: a658 f03b e131 acba 06be 3dba a06a 0d3a
00000240: d21f 02ba 7fcd 1e3a 4742 f8ba 70f9 233c
00000250: 9066 72bb b708 eb3a 0c51 163b b755 2ab9
00000260: 8885 a53b 0d15 e7bb 27fe a7b9 58a4 9bbb
00000270: 6164 c4ba 8115 903b c755 8e3b bf0d 283b
00000280: 15e4 99b7 1aa5 e6ba eb02 e438 fb69 3ebb
00000290: 0840 e9b9 3025 823b 98c3 163a e359 04bc
000002a0: 4f58 783b 8bd3 383b 0cf4 4c3b 693f e83a
000002b0: 17c7 ce39 e1e2 533b 26c7 c9ba 28cb c0b9
000002c0: 020c cd3b 1700 013b 5124 fcba 01c0 013b
000002d0: 5714 74bb 1313 17ba 7176 063b ffe5 a5ba
000002e0: 5f74 efb9 077b 8f3a 0f6a 1d3b 7774 e5ba
000002f0: 5c67 19b9 5253 9c3b 2e64 8ab9 e23a 963b
00000300: 4aef 9e3a 0b5f 9dba 6613 1a3b 1965 c4b9
00000310: d1db 5e3b ac12 603b 76e2 c03a 3c09 033b
00000320: 02f7 c9ba 96fc 0abc 52ff 743b 0bbd 97bb
00000330: 28d3 d5ba 57cc d1bb 6465 993b 0a1d cb39
00000340: bf06 d5bb 6f24 993b b7e2 ee3b db0a 5ebc
00000350: a3c6 863a f47c 613b 47f4 8d3b 48de 1fbb
00000360: 594b 9d3b c535 09ba f63e 833c 4122 473c
00000370: 2a83 0e3c 1caf 623c d232 323a f5ff c63a
00000380: c70e c039 985b 253b 3a2d 803a 814f a1ba
00000390: 1c0d 2dbb dc9f 83bb b05a cdbb 97e9 f73b
000003a0: f79d d9ba f3a1 d23b ff01 d1ba 154e ccba
000003b0: c581 0d3c b670 7eba 0cc8 7a3a 7ed2 f6ba
000003c0: 8740 92b9 24e0 d6bb 94d5 ec39 50b8 a6bb
000003d0: c80a ab3a f464 a5bb 24fa d9b9 bdc4 5dba
000003e0: ad34 a2b9 2824 b939 24aa b039 b674 1d3b
000003f0: d295 bfba 2610 d0bb db74 613b 4ab0 d539
0.0032172264 0.0033983972 -0.00021184859 0.005562249 -0.011161861 0.00047337307 8.9497036e-05 -0.008458158
-0.0010356801 -0.0018486242 0.0015040559 -0.0008914164 -0.00043151324 7.5859243e-06 -0.007507757 0.00063694693
-0.0029473123 -0.0009501912 0.0011903208 -0.003354552 -0.0025298693 0.00665239 -0.00043937247 -0.025420763
-0.0010232776 -0.0014324983 0.0006610585 0.00923054 -0.0079956185 0.0031770545 -0.00026274653 -0.0008306913
-0.0011649295 -0.0073849936 -0.0019082001 -0.0025877587 -0.011718538 0.0042949235 0.009980315 -0.0018871585
-0.0032476583 -0.0075913672 0.00044565913 -0.001575205 0.002855916 -0.0010742767 -0.00010047035 0.00025492592
0.010581565 -0.006727654 -0.008364326 0.00059801433 0.0015436681 0.00071186636 -0.0076069986 -0.0003572518
-0.0050154664 -0.0010189005 -0.0042563938 -0.00509316 0.0037167924 -0.00017365531 -0.0046537668 0.0023054865
0.005144998 -0.0027106667 0.0021011047 -0.0040519494 0.003865036 -0.0018662346 -0.0044805957 -3.3559114e-05
0.0022714941 -0.005499089 0.010270765 0.0049862037 -0.0072515686 -0.0022672743 -0.0008598043 0.0014654195
-0.0014932245 -0.0022785733 -0.00015488501 0.0049705356 -0.00056620856 -0.00051664194 0.0014465716 -0.0010046785
0.024709478 -0.006472168 0.0018733068 -0.0049342406 0.0009798253 -0.0032143935 -0.0002775849 -0.0062539997
0.0036799093 -0.0012093734 0.0029753423 -0.00055565033 -0.0036359797 0.011172054 -0.00096881256 -0.0030886275
-0.00059993553 0.0040980685 -0.0049891556 0.009765358 0.00030028803 0.0036284502 -0.011217674 0.008117948
-0.0026568866 0.008710993 0.018562268 0.001252955 0.004894732 -0.004160966 -7.187919e-05 0.0057792133
-0.0005085553 0.0033641837 0.00052063196 -0.0063217254 0.0040395437 0.00044905092 -0.0024954046 -0.0038898475
-0.0037821564 0.0035631594 -0.0088726375 -0.00090094033 -0.0016054224 0.00032896883 -0.0015170672 -0.008001391
0.0014660822 0.005022004 -0.0016796029 0.0010772613 0.0073347865 -0.0013137424 -0.00072380935 0.00053946115
-0.0004963848 0.0006057843 -0.0018940651 0.010008201 -0.0036987402 0.0017931674 0.0022936491 -0.00016244395
0.0050513186 -0.00705207 -0.0003204208 -0.004749816 -0.0014983529 0.0043970947 0.0043437215 0.002564296
-1.834523e-05 -0.0017596812 0.00010872431 -0.0029054869 -0.0004448893 0.0039717183 0.00057511916 -0.008078071
0.0037894433 0.0028202261 0.0031273393 0.0017719093 0.00039439715 0.0032331275 -0.0015394434 -0.00036772457
0.006257535 0.0019683891 -0.0019236897 0.001979828 -0.0037243569 -0.0005763035 0.0020517374 -0.0012657045
-0.00045672336 0.0010946699 0.0024019515 -0.0017506023 -0.00014629721 0.0047706747 -0.0002639605 0.004584656
0.0012125757 -0.0012006474 0.0023510098 -0.00037459357 0.0034005533 0.0034190817 0.0014715928 0.0019994518
-0.0015408697 -0.008483073 0.0037383628 -0.00463069 -0.001631354 -0.006402533 0.004681276 0.00038740813
-0.0065010483 0.0046735327 0.00729021 -0.013552393 0.0010282587 0.0034406753 0.0043320986 -0.0024393965
0.004800242 -0.00052341475 0.016021233 0.012154163 0.008698264 0.013835695 0.0006797734 0.0015182482
0.00036632104 0.0025231596 0.0009779104 -0.0012307019 -0.002640552 -0.0040168595 -0.0062669143 0.007565688
-0.0016602863 0.0064279973 -0.001594603 -0.0015587235 0.0086368965 -0.00097061263 0.00095665525 -0.0018831042
-0.00027895367 -0.0065574814 0.00045172556 -0.0050878897 0.0013049478 -0.005047435 -0.00041575835 -0.0008459797
-0.00030938294 0.00035312888 0.000336961 0.0024025864 -0.0014616793 -0.0063495813 0.0034401927 0.00040757871

norm_input.running_mean f4 [1024]
00000000: 1775 933f 4b98 5bc0 5631 f13f 7401 5d3f
00000010: a54b 6a40 5a09 3cc0 d36c 8dbf fd08 e33f
00000020: 765a 2240 3eaa acbf 3e5e 0f40 4505 1fbf
00000030: 6169 bd40 4cdc b3bf e267 2140 c25e ca3f
00000040: 0ce3 c33f 2189 81bf 5fe5 35c0 7497 8740
00000050: 8c3f 6cbe 8d68 be40 31b9 4d40 541a 80bd
00000060: f2b1 7bbe f3c3 b940 36c4 debf d926 39c0
00000070: 71df 6dbf 83cf 91bf 127d 21c0 fcfa e2bf
00000080: ed19 34bf c06f b83e 36ed ab40 91ca fcbf
00000090: e4f8 eabf 491c 2fc0 c6cb a1c0 2998 32c0
000000a0: ee5d a7be e0e6 c93f a25f 0cc0 cccd febd
000000b0: b492 8f3f cfa6 8040 88d0 7140 d9d8 0840
000000c0: 5391 9540 ed4d c43e 9d6b 4d40 fc4b 7ebc
000000d0: cb7b 733f 57b0 8d40 ca2e 2040 0e65 bec0
000000e0: 4432 5ac0 b2f7 613f 1882 8440 774c 65bf
000000f0: dca6 99bf f80c 00c0 37b6 babf 9d82 1f40
00000100: 11a3 3b3f ba8f 9fbf 7b9f be3f 5e14 4b40
00000110: e88c 6ebf d70d ac40 5d56 59c0 f4a0 f03f
00000120: 1799 993f 1166 ff3e 273c 05bf eeea 1e40
00000130: 8b70 a240 e727 5640 5876 9bc0 6556 9b3e
00000140: 84d4 3d40 f903 513f aac2 d83e 03e6 92be
00000150: d933 5140 663a 95bf 0b35 993f 41fb a33f
00000160: c1cf 7040 6d70 54c0 41b6 c13f 57bf 8a3f
00000170: 6991 cb3f 3807 4b40 06eb c3be 1c6e 9e3f
00000180: bb0b 84bf 3524 c73f 8dfe 6640 186c 1dbe
00000190: 0f5a 3340 43d8 d240 7c34 4a3f d37f 563f
000001a0: 3d35 cf3f e71c 813f 122e 86c0 6496 42c0
000001b0: c0dc 173f 1402 c53f 523b 2b40 2a3e 453e
000001c0: 77d5 4a40 7324 583d d40a d03f bd6e 44c0
000001d0: 7a4a c040 2926 d8be fad4 b63f 1614 8a40
000001e0: c801 a53f 14be 3d3d 673b f53f c26a f0be
000001f0: 1af4 b7bf feac 93bf ad02 e03f b82b 2cbf
00000200: 09e7 fc3e d9f5 803f 81bd 8440 4a9f b33e
00000210: f633 c53f 3fcc 6140 26bb 52bf 94eb 33c0
00000220: 2da1 3a40 59d9 1440 e753 8cbf 05b4 bb3e
00000230: 942f 3f40 d4d6 c93e 5aaf 343f f4b5 dd3f
00000240: 215d 893e e9af 3dc0 1eb4 6740 5183 8640
00000250: 6214 aa3f 9f4b 1dbf 7a30 6140 2e19 96bf
00000260: b7fb 1c40 e2e5 f93f 5982 d0c0 eef2 0440
00000270: bedf 1b40 166c bcc0 d52d 383f f7a8 5abe
00000280: 2192 3240 ee2d 6540 4331 5b3e f455 1740
00000290: cf0c d340 1c50 d83f cf59 0bc0 b0c2 823f
000002a0: 2580 7140 952e 613f c82b 3dbe 5e43 b3bf
000002b0: bdb4 2740 6a69 bbbf 6f39 5e40 a858 d140
000002c0: cc44 0b3c 14a6 b2be 61b5 9440 c97b a43e
000002d0: b046 62bf 0564 d7c0 68ed a1c0 96ab 193f
000002e0: 0f06 ce3e 31ab d83f 3424 3bc0 540b 04c0
000002f0: 24eb f1be d80b b63f a78f 57c0 2c2d 713f
00000300: 47e5 0abf a891 9d40 4794 9e40 42e9 3140
00000310: 6af8 4e40 f839 0fbf aad7 be40 e226 26c0
00000320: b620 8b3f 889e 643f 47bf 38c0 0f49 c5bf
00000330: 8d40 59bf 48d0 9dbf 1920 0340 7421 b1bd
00000340: aed2 0f40 17fa 8b3f 0a4f 0440 1856 f2be
00000350: cfc7 a940 cd35 dc3f 40f4 90bd 2c1f 8340
00000360: e4f6 2840 51fe 26c0 e448 31c0 70ae 0f3f
00000370: 5e93 2740 be2f a8bf da4c f240 4a1e e7bf
00000380: 2f10 ccbe 6d9f afc2 1469 503f 3b78 7440
00000390: ff48 6240 34bf 933f 6fcb f9bf 4665 ac40
000003a0: 0b8e 2c40 6362 85bf 15a0 1b40 827b 1f40
000003b0: 93c5 913f 4f42 1c40 ae24 843f 5471 afbf
000003c0: 27d3 4f3e faff 6f40 7c7e d13f d298 763c
000003d0: 5fde 1241 44e2 60c0 c366 85bf 3b7e c6c0
000003e0: f0db a73f 0c60 14bf 114a 1840 db37 913f
000003f0: 061b 533f f951 2f3f a252 4c3f ce0e 0a40
1.1520108 -3.4311702 1.8843181 0.8633034 3.660867 -2.9380708 -1.1048836 1.7737118
2.5367713 -1.3489454 2.240127 -0.62117416 5.9191136 -1.4051604 2.5219655 1.5810168
1.5303664 -1.0119973 -2.8421247 4.237238 -0.23071116 5.9502625 3.2144282 -0.06255022
-0.245796 5.8051696 -1.7403629 -2.892996 -0.9291907 -1.1391453 -2.5232587 -1.7732844
-0.7035206 0.36022758 5.3727064 -1.9749318 -1.8357205 -2.7361014 -5.0561247 -2.790537
-0.3268885 1.5773582 -2.193337 -0.124415964 1.1216645 4.0203624 3.7783527 2.1382353
4.67399 0.38340703 3.2096932 -0.015521046 0.9511077 4.427776 2.5028558 -5.949836
-3.409318 0.8826858 4.1408806 -0.895698 -1.2004046 -2.0007915 -1.4586858 2.492347
0.73295695 -1.2465737 1.489242 3.173118 -0.93183756 5.3766894 -3.3958962 1.8799119
1.1999844 0.49882558 -0.5204491 2.483089 5.076238 3.3461854 -4.8581963 0.3033935
2.966096 0.81646687 0.42336017 -0.2869111 3.2687895 -1.1658447 1.1969312 1.2811052
3.7626803 -3.319362 1.5133744 1.0839642 1.5903751 3.1723156 -0.38265246 1.2377353
-1.031608 1.5557925 3.6092865 -0.15373266 2.8023717 6.588899 0.78986335 0.83788794
1.6188122 1.0086945 -4.193124 -3.040429 0.5932121 1.5391259 2.6754956 0.19261995
3.1692789 0.052769136 1.6253304 -3.069259 6.0090914 -0.42216614 1.4283745 4.314952
1.2891169 0.04632385 1.9158753 -0.4695645 -1.4371369 -1.1537168 1.7500817 -0.6725421
0.49395016 1.0075027 4.148133 0.35082465 1.5406482 3.5280912 -0.82316816 -2.8112535
2.9160874 2.3257658 -1.0963105 0.36660782 2.987279 0.39421713 0.70580065 1.7321153
0.26828864 -2.9638617 3.6203685 4.20353 1.328747 -0.61443514 3.5185838 -1.1726434
2.4528635 1.952328 -6.5159116 2.0773273 2.4355311 -5.888194 0.71944934 -0.21353517
2.790169 3.5809283 0.2140551 2.3646212 6.5953135 1.6899447 -2.1773565 1.0215664
3.7734463 0.87961704 -0.18473732 -1.4004934 2.6204064 -1.4641545 3.4722555 6.5420723
0.008500289 -0.34892333 4.647141 0.3212569 -0.8838911 -6.7309594 -5.0602303 0.60027444
0.40238997 1.6927243 -2.9240847 -2.0631914 -0.4724971 1.4222364 -3.3681428 0.9420955
-0.542561 4.9240303 4.9556003 2.779862 3.233912 -0.5594783 5.963826 -2.5961232
1.0869358 0.893044 -2.8866746 -1.5412921 -0.8486412 -1.2329187 2.048834 -0.08648959
2.2472339 1.0935696 2.0673242 -0.4733131 5.3056407 1.7203919 -0.07077837 4.097555
2.640069 -2.6092722 -2.770074 0.56125546 2.6183696 -1.313957 7.5718813 -1.8056118
-0.39856097 -87.81138 0.81410336 3.8198383 3.5357053 1.1542726 -1.9515208 5.3873625
2.6961696 -1.042065 2.4316456 2.4919133 1.138842 2.4415472 1.0323694 -1.370646
0.20295392 3.7499986 1.6366725 0.015051084 9.17929 -3.5138102 -1.0421985 -6.202909
1.3113995 -0.57959056 2.3795207 1.1345171 0.8246311 0.68484455 0.7981359 2.1571536

norm_input.running_var f4 [1024]
00000000: 0feb e940 fad0 d440 a5c8 9640 7b5c 6041
00000010: bd32 ad40 4339 c840 6ed2 e740 c7e5 a741
00000020: 36d6 2a41 a4b6 b240 dd50 2241 8219 3541
00000030: cfd0 4141 9097 d340 223b 8341 9e49 8140
00000040: 5512 d740 af70 fa41 dd00 5f40 3949 9340
00000050: bb37 3541 2cef c241 32e6 3241 7eef 6f41
00000060: ace7 b340 3fb2 e640 c0e4 bf40 e454 fc40
00000070: 1177 c040 5af5 f040 7c78 3041 4588 2542
00000080: 55e9 2e41 93cf 9140 4a07 1241 bc19 5441
00000090: 0250 5441 28d4 0b41 dcd2 3242 0ca4 f640
000000a0: ef69 5641 0198 1d41 d34b 4e41 f4b2 4140
000000b0: 4d52 4c41 48f7 5d41 fb13 1b41 0a96 8a40
000000c0: 7d75 f440 16d9 ff40 bbf3 0841 b45e 0441
000000d0: 8b44 8540 9855 9240 5fb5 4641 dc48 7a42
000000e0: 581b bc40 4d3d 0c41 b542 8f40 3e4f dc40
000000f0: eb96 b840 6023 0b41 c84a c540 7913 2241
00000100: 1394 8540 58c4 9940 045d b040 dc73 1641
00000110: 07eb cf41 5202 a440 895f 0341 549d 3040
00000120: ea08 9640 44d5 e740 1655 3b42 3508 0a41
00000130: d483 bd40 09ee d340 9e5c 5041 1fc5 2342
00000140: 7989 a041 9e88 8140 9c8a f841 65a5 fc40
00000150: f828 3541 5316 0e41 065a e441 f454 3b40
00000160: c27d aa40 90bb df40 0e6d 9940 9ef0 ca40
00000170: ebaa d840 52e9 a440 ddb6 c240 20bb 9a40
00000180: f8a5 a340 c7e3 7140 1153 b140 66e8 1e41
00000190: 4009 c140 4bcd ef40 a8bf c840 44da 2f41
000001a0: 79b6 8340 c73a f440 7d10 5942 269c 1142
000001b0: 4925 0341 9463 1341 f18e 2441 cff4 0a41
000001c0: 943c 3441 61a5 1d41 273a 0441 bc2b 9040
000001d0: 78f4 fc40 a807 4841 a332 a940 4b5c 8d40
000001e0: 4220 9140 dd47 0c41 e272 df42 e6f7 6b41
000001f0: d5f2 2141 c366 ea40 4106 bf40 6149 d140
00000200: 75c0 f140 41c5 dc40 a0a7 b741 035e 6c41
00000210: 3b51 3041 38eb 8440 9d4a b240 2a55 9440
00000220: bfcf 0441 d88b fb40 e622 b540 3cbc c040
00000230: 86a8 0241 f41c 5b40 7322 2a42 7922 0a41
00000240: 799c 4641 de7e 4141 f50d a440 3f85 9141
00000250: 404e 8341 dc6e 7041 97c4 7041 b06c c441
00000260: 9757 4941 5d9a 4641 bb5f cf41 4327 0a41
00000270: ff34 2741 4137 0b41 8f00 a641 8436 a540
00000280: c4c4 9a40 41af 8b40 e72c 9741 9bea 1641
00000290: 96b7 0e41 06f8 ab40 0cba 9f40 a551 3942
000002a0: 098e 1841 f922 a340 3968 c240 1b3b a840
000002b0: 3121 d042 497d da40 b41a 8341 8c74 8841
000002c0: f188 be40 d566 c140 8fa8 8840 2d31 9640
000002d0: 6ef2 0441 defd 0842 6ed7 cf40 2178 d340
000002e0: 8caf 0f41 073c f740 1a2b ec40 a955 d440
000002f0: b00f b840 2175 1141 6dcd 6342 11e6 3341
00000300: 2771 a540 0fee 5c41 d6b3 5141 edbc de40
00000310: 6b6c 9840 fa6c f040 1ea5 c740 ff3f 2e42
00000320: 38ea a340 2a33 0d41 1f70 d941 587f 1e42
00000330: 4416 b840 652f e440 490c db40 1aba b840
00000340: ff3c e440 53b2 2d41 1118 3e41 5422 7941
00000350: a86a c940 2685 0141 5a5f 4e41 1156 2241
00000360: 90a1 ae40 3382 d141 69f4 de40 87fc e340
00000370: 85b5 a740 cc70 ed40 97a6 8441 fd2b f240
00000380: 3bf6 1241 95a3 2544 a443 8640 d309 1441
00000390: 3a6b a440 c4d9 9240 ecdf f240 690d ae40
000003a0: 23b3 c040 50df 0c41 e22f 2941 885e 7740
000003b0: de69 7e40 fad0 b241 d7b9 de40 cc22 1241
000003c0: 008d 6a41 e53f 8f40 91e5 eb40 0d96 1041
000003d0: 9230 2841 2569 2b41 be8f 1041 575c 1141
000003e0: 196b 9d40 124a 3b41 2d90 9540 b7aa 9a41
000003f0: 10f4 8a40 6795 ee40 65bc e340 2199 0f41
7.3099437 6.65051 4.7119927 14.022578 5.4124436 6.25699 7.244437 20.987196
10.677298 5.584795 10.144742 11.3187275 12.113479 6.6122513 16.403873 4.0402365
6.720988 31.305021 3.4844277 4.6026883 11.326106 24.366783 11.1812 14.99597
5.6220303 7.2092586 5.9966736 7.8853626 6.0145345 7.52995 11.029415 41.383076
10.931966 4.5565886 9.12678 13.256283 13.269533 8.739296 44.705917 7.7075253
13.400863 9.84961 12.893512 3.0265474 12.770093 13.872871 9.692378 4.3308153
7.639342 7.9952497 8.5595045 8.273121 4.164617 4.5729485 12.41928 62.57115
5.878338 8.764966 4.476893 6.884673 5.7684226 8.696136 6.1653786 10.129754
4.1743255 4.8052177 5.5113544 9.403286 25.98976 5.1252832 8.210824 2.7596025
4.688588 7.2447834 46.83309 8.627004 5.9223423 6.622807 13.022612 40.9425
20.067125 4.047927 31.06768 7.89519 11.322502 8.88045 28.543957 2.9270601
5.3278513 6.991646 4.7945623 6.341872 6.770864 5.1534815 6.084822 4.8353424
5.11401 3.7795274 5.54139 9.931738 6.032379 7.49381 6.2733955 10.9907875
4.1160245 7.632175 54.2661 36.40249 8.196603 9.211811 10.284898 8.684768
11.26479 9.852876 8.264197 4.5053387 7.9048424 12.501869 5.2874312 4.417516
4.5351877 8.767545 111.72438 14.748022 10.121785 7.325044 5.9695134 6.5402074
7.5547433 6.899079 22.956848 14.772952 11.019832 4.153713 5.571608 4.635396
8.300719 7.860821 5.66051 6.022978 8.166143 3.4236422 42.53364 8.633416
12.413201 12.093473 5.1267037 18.190062 16.413208 15.027065 15.047996 24.55307
12.583884 12.412686 25.921743 8.634585 10.4504385 8.70099 20.750273 5.1629047
4.8365192 4.3651433 18.896925 9.432277 8.919821 5.3740263 4.991461 46.32973
9.534677 5.098019 6.0752225 5.257215 104.06483 6.8277936 16.388039 17.056908
5.9542165 6.0438027 4.270576 4.693503 8.309187 34.247917 6.4950476 6.608414
8.980358 7.7260776 7.3802614 6.6354566 5.751915 9.091096 56.95061 11.243669
5.1700625 13.80812 13.106405 6.960562 4.7632346 7.513303 6.238906 43.562496
5.122341 8.824991 27.179747 39.62436 5.752718 7.1307855 6.8452497 5.7727175
7.132446 10.856036 11.880876 15.570881 6.2942696 8.095007 12.898279 10.146012
5.457222 26.188574 6.967335 7.124576 5.240908 7.420019 16.581343 7.5678697
9.185115 662.55597 4.195757 9.2523985 5.138089 4.5890827 7.589834 5.439137
6.0218673 8.80452 10.57419 3.8651447 3.9752116 22.35204 6.9601855 9.133495
14.659424 4.4765496 7.3717732 9.0366335 10.511858 10.71317 9.035093 9.085044
4.9193234 11.705584 4.6738496 19.333357 4.342293 7.4557376 7.1167474 8.974885

transformer.norm.weight f4 [1024]
00000000: 96d9 653f ad82 2d3f 52e1 a63e 2218 1b3f
00000010: 8788 393f 4965 473e 1808 113f 751a 483f
00000020: cab0 df3e 0256 e43e df71 593f a4e3 0d3e
00000030: d230 e1bc bd73 d33e 2f23 0d3f 0f2f 5b3f
00000040: 560d 2d3f ed5a 3f3e a3f3 4f3f 4e82 c23e
00000050: 78c5 b03e 45df 313f 9bd2 af3e f5cb 6a3f
00000060: 6ea1 883f 8d87 643f 68a8 803f f050 2c3f
00000070: 8287 063f 3dd8 533e 5801 123f ce60 8a3e
00000080: 9acb 243e 6388 023f 56de 893e acc1 833f
00000090: 895c 423f ecae 003f a6ed 653f 9737 6d3e
000000a0: 760b 533f 5dc6 473f bbff 023f 683d 033f
000000b0: 38b0 b03e 4a1d 153f b44c 363e dd13 eb3e
000000c0: 0e12 853f c350 293f 0544 3f3f 1825 b13b
000000d0: 8522 413e 71e6 3b3f 6169 dc3e 93bf 86bc
000000e0: 50b7 203f fba2 193f d50d 8f3e 9d9d 7c3f
000000f0: d70b 763f 601a 203f ad1a 003f 0dea d83e
00000100: a9e4 973e 0942 e13e cab4 833e f1ce 9e3e
00000110: 19db 8e3e 6b8a 113e a0e0 b03e 5337 573f
00000120: 49ee 7f3f ee0a 983e 4b64 133f d0a8 1c3f
00000130: 010e 8b3f 39cd 083f 985d 803f 77f2 433f
00000140: c5b0 d73e 6626 ec3e 2cd5 a33c 3fa3 2b3f
00000150: d109 d83e 778e d13e 2b91 873e 4e83 153f
00000160: 33a8 a23f a5c6 0a3f 1248 b93e b332 2c3f
00000170: 86d0 5f3e c8f6 273f 1442 3d3f 7f59 683e
00000180: 034d 3f3e c3ab ea3e 4fc7 063f 287e fb3e
00000190: f8e8 c03e f843 8c3f c7aa ab3e 692d 7a3e
000001a0: 2fd9 003e 449e 503f 7ae5 0b3f 5c79 1b3f
000001b0: bc4f 343f 46f9 543f bfdb 583f b9e6 0a3f
000001c0: c2c6 853f ddb1 183f 9780 663f 0bcb 253f
000001d0: c421 d63e c964 0d3f 3bfd b3bc fd5f 303f
000001e0: 7e4b 863e e4a0 493f acdf 24bd dd7d d73e
000001f0: 4860 633e bb79 0c3f f492 673f ab15 ab3e
00000200: 1e5e 103f 2102 9b3f 2641 353f 5705 d73e
00000210: 6dc1 833e dd29 fc3e 0754 d43e c3a4 303f
00000220: 8db5 463f 165d e23d 57ca 263f a9f0 073e
00000230: bfb9 433f e442 083f b946 ec3e 4097 4e3d
00000240: b63a 1b3f cd94 5e3f cc7e 9e3f 1381 883f
00000250: e341 043f 8d16 123f ea9b 1d3f fe8a 3d3c
00000260: 3ea6 143f 1c83 6c3f 5a69 523e 0ce0 0f3f
00000270: 0236 533f 18eb 6b3e f650 e43e 98e2 683f
00000280: 86a3 4e3e 6869 073e d31a 8f3e 76f0 833d
00000290: ef34 873b 1490 d43e eba3 b03e d43e dc3e
000002a0: cf1a e53e ab82 f53e 2ab0 9f3e 9093 273f
000002b0: fabc 393c 01ae 913e 7134 913e 058f b43e
000002c0: 48ea 8b3f a499 163f de84 323f 52f7 3f3f
000002d0: 60fe fd3e 51f3 523e c8b0 0a3f 28d2 013f
000002e0: c76a 423e d8a5 833e 14c2 283f b7b5 143f
000002f0: 9bf9 b83e a594 dc3d 3c85 2b3c 3fc2 883e
00000300: 0e6b 823e 2476 b73e 50c4 4b3f 84ce 803e
00000310: 23ef 6f3f a821 663f d6c2 0d3f 90cc 2b3f
00000320: 2c14 a03f 06ba 513f 07e3 1d3f 0197 713f
00000330: b710 d03e 3463 f13e 6d14 eb3e 8328 973d
00000340: 0b6a 433f 7e81 2c3e 274c b93e a877 953f
00000350: ce0b 333f e0de 6d3f f908 c53e 8e5a 953e
00000360: 4efa 0d3f 6296 943e 46a4 933f ad8c 453f
00000370: 4ecf ee3e c898 863f 4476 3d3f 71e1 033f
00000380: aa25 be3e 127f 733e 3a19 eb3d f790 eb3e
00000390: a691 943e 9cbd d13e 0b81 2c3f 0980 683f
000003a0: d9bb ef3e 2ee2 413f 443a 2e3f bbb1 d63e
000003b0: a074 d33e 2dc3 233f 2d22 4a3f ca04 1f3c
000003c0: 02cc 86b9 0848 f63e 44cc 453f 1275 153f
000003d0: 9d5c 12be 2206 b33e ee19 c03e 9f60 cc3e
000003e0: 0bfe c13e b393 3f3f 8230 353f c2cf f73e
000003f0: 71cc cb3e 2db6 573f 87bf 393f 89ce 0d3f
0.89785135 0.6777752 0.3259378 0.605837 0.7247395 0.19472231 0.56652975 0.7816537
0.43689567 0.4459687 0.8493938 0.1385637 -0.0274891 0.4129924 0.5513181 0.8561868
0.67598474 0.18687029 0.81231135 0.3799004 0.34525657 0.6948131 0.34340367 0.91717464
1.0674264 0.89269334 1.0051394 0.67311 0.5255052 0.20687957 0.570333 0.2702698
0.16093293 0.5098936 0.2692744 1.0293479 0.7592245 0.5026691 0.8981575 0.23165737
0.82439363 0.78037053 0.51171464 0.51265574 0.34509444 0.58247817 0.17802697 0.45913592
1.0396135 0.6613886 0.74713165 0.0054060332 0.18860824 0.733985 0.43049148 -0.016448772
0.6277971 0.60014313 0.2794024 0.98678 0.96111816 0.62540245 0.50040704 0.42366067
0.2966664 0.43995693 0.2572387 0.3101726 0.27901533 0.14212959 0.34546375 0.84068793
0.9997297 0.2969584 0.5757491 0.6119509 1.0863649 0.53438145 1.0028563 0.76541847
0.42127052 0.46123046 0.01999911 0.6704597 0.4219499 0.40929005 0.26477942 0.5840348
1.270758 0.5420936 0.36187798 0.6726486 0.21856889 0.65610933 0.7392895 0.2269039
0.18681721 0.4583417 0.5264787 0.49119687 0.3767774 1.0958242 0.3352873 0.24431385
0.12582849 0.81491494 0.5464703 0.60732055 0.70434165 0.8319286 0.84710306 0.54258305
1.0451281 0.596464 0.9003996 0.64762944 0.41822636 0.5523191 -0.021971336 0.68896466
0.2622947 0.78761125 -0.040252373 0.42088214 0.22204697 0.54873246 0.9045861 0.3341497
0.5639361 1.2110025 0.70802534 0.4199626 0.2573351 0.4925069 0.41470358 0.69001406
0.77620775 0.11052911 0.65152496 0.13275398 0.764553 0.53227067 0.46147707 0.050437212
0.6063646 0.869458 1.2382445 1.066439 0.51663035 0.5706566 0.6156603 0.011568783
0.58066165 0.9238756 0.20548001 0.56201243 0.82504284 0.230389 0.44593018 0.90970755
0.20179567 0.13223803 0.27950153 0.06442349 0.004126183 0.41516173 0.3450006 0.43016684
0.44747016 0.47951254 0.3118909 0.6545954 0.011336559 0.28453067 0.28360322 0.35265365
1.0930872 0.58828187 0.6973399 0.74986756 0.49608135 0.2060063 0.54175997 0.507113
0.18986045 0.25712466 0.6592114 0.58089775 0.36127934 0.10770539 0.010468777 0.26710698
0.254723 0.35832322 0.79596424 0.2515756 0.9372427 0.89895105 0.5537542 0.6710901
1.2506156 0.81924474 0.6167454 0.9437104 0.40637752 0.47145998 0.4591402 0.07380774
0.76333684 0.16846272 0.36190912 1.1677141 0.6993989 0.92918205 0.38483408 0.2917065
0.5546006 0.29020983 1.1534507 0.7716778 0.46642536 1.0515375 0.74008584 0.5151587
0.3713811 0.23778942 0.11479421 0.46009037 0.2901737 0.40964973 0.67384404 0.90820366
0.46823004 0.7573575 0.68057656 0.41932473 0.41299915 0.6396969 0.789584 0.009705732
-0.0002571047 0.4810183 0.7726481 0.5838176 -0.14293142 0.34965616 0.37519783 0.39917466
0.37889132 0.74834746 0.7077714 0.48400694 0.39804414 0.84262353 0.7255787 0.5539327

transformer.norm.bias f4 [1024]
00000000: cae4 acbd 9569 7fbd 6d09 5c3d 3a03 b13c
00000010: 4bd4 5d3d 42a9 913d 8b61 07be 2fd7 ad3e
00000020: 254c 013e 79fa 543e ee30 913d c181 233b
00000030: 68da 83bc 8d26 353e 933e 1cbe 166f dbbd
00000040: 0fb0 fb3d 010d 55bd fd18 3b3d f0bc 603d
00000050: 64a5 0bbc 66de 95be b59c 493c 2f58 b13d
00000060: be03 74bd 3919 ac3d 8f3a 933d fe9a 52be
00000070: 3421 66be 1ec2 5c3d 8753 90bc 92ef 943e
00000080: 99e8 7ebd fd98 28bd def0 b6bd 2fe4 a73e
00000090: 00af 1b3e c4b6 9e3d 4046 3d3e ed8c a43c
000000a0: ae8e bbbd 8316 83bd 19d7 57be 44d2 30be
000000b0: 3445 8bbe 36f9 783e c736 a83d da4d dcbd
000000c0: 0965 623e 23a6 963e 63ac cd3c f78d c2bd
000000d0: b60a c03d e993 aebd c7c2 773d dd51 e8bb
000000e0: 3fd3 393e 9c9c d3bd 2448 7c3e c424 6d3e
000000f0: a10b b6bd 9795 e03c 12d4 1d3d a07d 86bd
00000100: a247 74be 273b ae3d a857 403e a719 523d
00000110: 6788 57bd 6f75 1b3d 21a7 b0bc c9df 0cbe
00000120: 4d92 763c 9f8b 543d 8336 a7be 6574 e2bb
00000130: c156 193d d6fd f83d e4b9 3bbe 636a ba3d
00000140: f163 b73d 0a5a c8bc 8c24 1cbd c4a3 16be
00000150: 51b5 253e f2ce 753d 59fc b3bd af25 45be
00000160: c084 ed3b f9ff 6d3d 8bc0 113e 9513 f8bb
00000170: 4bac e83c ebf6 f8bd 8dca 173b 550f e33d
00000180: f19d 153d b772 df3d ca0d 98be 6a6e 1d3e
00000190: 245f 2ebe c810 86bc cff5 873e 0fa4 643d
000001a0: d57d cbbd 9474 3fbd 8de2 53be 8654 ba3e
000001b0: 3f50 2fbe dad1 abbd 3b5a 1c3e b273 153e
000001c0: 144b abbb d038 913d e61a 143e 7d23 233d
000001d0: dd51 a6bd 42f5 1b3e 1f69 05bb d012 a9ba
000001e0: a3d7 3c3d 23af 0e3e 3344 ec3d 6889 943d
000001f0: 1291 c5bb 0e04 b03b e3d1 4e3c b72b 16bc
00000200: 9c63 8fbe 9d8c 72be a975 a03d 9350 febd
00000210: f113 a8bd 26de 5fbd c4e3 b93d 8d5f fabd
00000220: 6554 b2bd 53f6 f13a 9ebc e63d 7725 a23d
00000230: 7d95 713d 68ae 0dbe 0155 913d f86a af3c
00000240: f92b b13d a771 28bd d30b afbd 1125 94be
00000250: ab3b 253e 08fe 68bc cff9 153e 6117 133c
00000260: 7951 943e 22fb 19bd 8e68 a0bd bbb9 5cbd
00000270: 39ee 613e 4264 11be 2437 043e dea8 323a
00000280: be78 6e3d 77a0 a63c 3ddc 603e 2c20 023d
00000290: f554 823b c35c f6bd bf8d 293d ead7 80bd
000002a0: a6e9 bdbd 048a 8dbe bf84 b5bd d3c0 093e
000002b0: f979 393c 20ee c9bd 21b4 2dbe 6cfc 1c3d
000002c0: 8b9f 17be 07da 123c daf8 123d 10b4 403e
000002d0: 9d6d 163e b332 853d bdd4 1c3b 8e75 d9bd
000002e0: ba93 173b 65bd 843e c1f1 40be b497 083e
000002f0: 17e0 503e 7c2e eb3b 2141 9bbb 8fa2 ca3d
00000300: c5b8 233e ffa6 f5bc 70f9 5d3e 1554 42bd
00000310: 1287 183d 6e7e 91be 3b44 81bd cc4a 003e
00000320: a6be 09be c554 8d3e bb54 5cbd 6c58 2f3e
00000330: 972b c8bd d91a 203d 8a86 9cbd a5b8 5d3e
00000340: f90e 063d db0f 10be ad37 ccbe 0d13 fe3d
00000350: 482d 0cbd 8044 803e 8ef1 bd3d 404f 0cbc
00000360: f30a 83be a06b 853e d2d8 b6bd 7baa f1bd
00000370: e8ce 583e 06ae 3a3d 8ffd 3abe 1ae1 53bd
00000380: 0de5 923c 08b4 babd fb7e 13bc 69c6 b2be
00000390: a8e3 bd3d 24e3 893d 276f 423e 3fad 453e
000003a0: 41da 573e 5537 94bd 723d b3bd 1e37 4e3d
000003b0: 130f 62bd ac48 a53d e3c7 943d 8d19 8f3b
000003c0: 6c08 99bc e0e4 5f3e fc98 143e 90d4 2fbc
000003d0: 1353 70bd 1e19 2a3c fa3d 053e f674 413e
000003e0: 86ca 6d3e 1db7 4e3d b9aa 7a3d de34 1f3e
000003f0: 2129 613e 3033 03be 9e65 4d3e 7d9e 9a3c
-0.084420756 -0.06235655 0.053719927 0.021607984 0.054157536 0.071123615 -0.13220803 0.33953235
0.12626703 0.20798673 0.07089411 0.0024949166 -0.016095355 0.17690487 -0.15258245 -0.10714547
0.1228944 -0.052014355 0.045678128 0.054867685 -0.008523319 -0.2927124 0.012305428 0.08659398
-0.05957388 0.08403248 0.071889035 -0.20566937 -0.22473603 0.053896062 -0.017617954 0.29089028
-0.06223354 -0.041161526 -0.089326605 0.32791278 0.15203476 0.077497035 0.1848383 0.02008673
-0.09158073 -0.06400778 -0.21078147 -0.1726771 -0.27201235 0.24313816 0.08213573 -0.107570365
0.22108854 0.29423627 0.025106614 -0.09499734 0.09377043 -0.085243054 0.06048849 -0.007089837
0.1814699 -0.10332605 0.24636894 0.23158556 -0.08888937 0.02741508 0.038532324 -0.0656693
-0.23855451 0.08507376 0.18783438 0.051293995 -0.052620318 0.03795379 -0.021564068 -0.13757242
0.015049529 0.051890966 -0.32658777 -0.006910848 0.03743625 0.1215779 -0.1833263 0.09102323
0.08954609 -0.024456996 -0.03812079 -0.14710909 0.16182448 0.06001181 -0.08788366 -0.19252656
0.007248491 0.058105443 0.14233606 -0.0075706937 0.028402468 -0.12156471 0.00231615 0.11086909
0.036527578 0.10910552 -0.2969802 0.15374151 -0.17028481 -0.016365424 0.26554725 0.05582052
-0.0993611 -0.046742037 -0.20691891 0.3639261 -0.17120455 -0.083896354 0.15268795 0.14594916
-0.005227456 0.07090914 0.14463386 0.039828766 -0.08121083 0.15230277 -0.0020356847 -0.0012899283
0.046104085 0.13933997 0.115364455 0.07252771 -0.0060292566 0.005371577 0.012623283 -0.009165696
-0.28005683 -0.23686452 0.07834942 -0.12417712 -0.082069285 -0.054655217 0.09076646 -0.12225256
-0.08707503 0.0018460251 0.112664446 0.07917302 0.058980454 -0.13836062 0.07096291 0.021413311
0.08650965 -0.041124012 -0.08547177 -0.2893453 0.16136043 -0.014220722 0.14646076 0.008977742
0.2896841 -0.037593015 -0.07832442 -0.053888064 0.22063531 -0.14198402 0.1291166 0.00068153243
0.058220617 0.020340187 0.21959014 0.031768963 0.003977413 -0.12029412 0.041394945 -0.06291182
-0.092730805 -0.2764436 -0.0886321 0.13452463 0.011320584 -0.09859872 -0.16963245 0.038326666
-0.14806955 0.008963115 0.035881855 0.18818688 0.14690252 0.06503811 0.0023930513 -0.10618125
0.0023128823 0.25925747 -0.18842222 0.1333912 0.20397983 0.007177172 -0.0047379886 0.09894287
0.15988453 -0.029986857 0.21677184 -0.047443468 0.037238188 -0.2841677 -0.06311842 0.12528533
-0.13451633 0.27603737 -0.053791743 0.17123574 -0.09773939 0.039088104 -0.07642849 0.21652468
0.032729123 -0.14068548 -0.39886227 0.124059774 -0.03422287 0.2505226 0.092745885 -0.008563817
-0.2559429 0.26058674 -0.08928074 -0.11800095 0.21172678 0.045576118 -0.18260787 -0.051728345
0.017931486 -0.091163695 -0.0090024425 -0.34917 0.092719376 0.06732777 0.18987714 0.1930437
0.21079351 -0.07237116 -0.08751954 0.050345533 -0.055190157 0.08070502 0.07264688 0.0043670596
-0.018680774 0.21864653 0.14511484 -0.010731831 -0.058672976 0.010381965 0.13011923 0.18892273
0.23221788 0.0504676 0.06119797 0.15547511 0.21988346 -0.12812495 0.20058295 0.018874401

transformer.norm.running_mean f4 [1024]
00000000: f804 533b 7619 5e3b 0711 53b9 e575 b53b
00000010: b91a 37bc a29e f339 17c2 a338 b28f 0abc
00000020: f8ef 87ba 7cde f4ba 70a9 c63a e0c2 6bba
00000030: 6232 e2b9 1d4e a136 e83c f6bb f4c4 283a
00000040: c233 3fbb d206 78ba e548 993a f40c 5bbb
00000050: 703f 26bb ba6d d93b c8e3 deb9 eb03 d0bc
00000060: 4103 89ba 0b09 bcba ea6f 2d3a c855 173c
00000070: e9e7 02bc e830 503b d122 8fb9 7e6f 5aba
00000080: 8919 98ba 32f4 f1bb ecda f9ba 365d 28bb
00000090: a0bf 3fbc 10c1 8c3b cb11 233c 6f57 f7ba
000000a0: d8c5 54bb 367c f8bb 5fbe ef39 0617 ccba
000000b0: 0c45 3c3b e6c3 8bba 4905 d2b8 00e7 8539
000000c0: b40a 2e3c 059a dcbb 173c 09bc fbca 1c3a
000000d0: 4ae5 ca3a 7605 3d3a 5488 f9bb 83fc bab9
000000e0: 12b9 a4bb a6df 85ba 0080 8bbb a2b0 a6bb
000000f0: 8ea0 723b 238e 06b9 5357 98bb 9a59 173b
00000100: 51a8 a83b 67d7 30bb d250 093b 49bd 84bb
00000110: 8319 7d3b 5bc1 f4ba 8f8e 92bb 59f6 f3b7
00000120: 62e4 143b a67c b4bb 664b 283c 90a2 a33b
00000130: 3ff1 eebb 4579 13bb 9c5a 69ba 9fa4 c23a
00000140: 91a1 c1ba f6e0 14bb 41d7 21b9 931d a33b
00000150: 3872 16ba ee2a 07ba ae8e bc3a 6ee9 84ba
00000160: 7481 ca3c f7f2 d3bb a85f f53a e43c a1bb
00000170: a525 803a ca96 52bb 223c 9bb9 9119 cdbb
00000180: f3ed 703b 7abc 9dba fd46 433b c9f2 15ba
00000190: 64b6 6ebb d409 363c 8326 7eba 96f3 4abb
000001a0: baab 1dba 0188 853b 7466 a3bb ef36 203c
000001b0: 7761 a839 f973 6e3b 9532 38bc aefa 043c
000001c0: 7621 2ebb d5ca 0e3c c702 983c 1d3e a43a
000001d0: c7d6 9f3b 9959 88bb ac64 9ab8 53d6 bd3b
000001e0: a7d8 06ba 4c6f 5c3b e827 093a 2808 cfbb
000001f0: b05d 843b b1fc e939 5b4e 25bb 34c6 7fbb
00000200: 45c7 77bb 337b 683b f35d 11bc 9c9d 70ba
00000210: b798 d2ba b4b8 ab39 652b c5ba 8b01 03bc
00000220: 5d54 bd3a b184 a43b 3189 daba 022b 8d3a
00000230: eb7e f03b a0f1 abba a707 3eba c45d 0d3a
00000240: 0666 03ba 6623 213a e422 f2ba b2c6 233c
00000250: aa8d 71bb bcc3 ea3a 98a4 163b b45b 2ab9
00000260: 6b6f a53b 2b38 e7bb e6ac a0b9 83b5 9bbb
00000270: 4d15 c8ba 208d 903b b1ce 8e3b c04e 293b
00000280: 64a4 87b7 d9c2 e6ba 92a0 e438 ef99 3ebb
00000290: f740 e9b9 1e3e 823b dfc6 143a 0738 04bc
000002a0: 8e56 773b 02ee 383b 9281 4c3b da77 e73a
000002b0: 68a7 ce39 a0f4 523b bcf7 caba 6b35 c5b9
000002c0: 232b cd3b b105 013b db41 f9ba 34ec 013b
000002d0: 970a 74bb e506 17ba b278 073b 8773 a3ba
000002e0: 21b0 edb9 ee8d 8f3a c190 1d3b 821f e6ba
000002f0: 498b 22b9 475c 9c3b 0cdc 8ab9 8922 963b
00000300: de1c 9f3a 7908 9eba a747 193b f609 bfb9
00000310: 355e 5d3b 7761 5f3b 9de3 c03a be3b 033b
00000320: 15af c7ba 5672 0bbc dbf4 733b c588 98bb
00000330: 6b80 d4ba 64e4 d1bb 8f5a 993b 7e6c cb39
00000340: 7cae d4bb 261f 993b 144f ef3b 60e1 5dbc
00000350: 068c 8a3a a1d6 603b f0fc 8d3b f8b3 1fbb
00000360: bf16 9d3b bbe2 0bba fb89 833c 653b 473c
00000370: c46f 0e3c 8ecd 623c 2028 393a cf0b ca3a
00000380: 0233 bf39 b758 253b 4bb6 7f3a bfce a1ba
00000390: 4b83 2dbb 3cdb 83bb 00dd cdbb 8446 f83b
000003a0: b9a9 d9ba e2b5 d13b e5ed d0ba 1abe ccba
000003b0: 36b1 0d3c c3cc 7eba 4ea9 7c3a d3ba f6ba
000003c0: 6d43 92b9 e077 d7bb bc9e f539 c5dc a6bb
000003d0: 6f6e aa3a 64f8 a4bb 09ec d5b9 fa73 5eba
000003e0: 8fd2 a2b9 488d b539 7987 a939 400d 1c3b
000003f0: 4042 c0ba 2058 d0bb 1ff7 613b 2762 c939
0.0032199007 0.0033889688 -0.00020128871 0.0055377358 -0.011175805 0.00046466762 7.808598e-05 -0.008457111
-0.0010371199 -0.0018682028 0.0015156697 -0.0008993577 -0.00043143617 4.8072675e-06 -0.007514585 0.00064380397
-0.0029175137 -0.00094614655 0.0011694698 -0.0033424469 -0.0025367402 0.006635395 -0.0004251285 -0.025392493
-0.001045324 -0.0014345957 0.0006616103 0.00923676 -0.007989862 0.0031767432 -0.00027301026 -0.00083326537
-0.001160429 -0.0073838467 -0.0019062436 -0.0025690324 -0.011703402 0.004295476 0.009952973 -0.0018870662
-0.0032466557 -0.0075831665 0.0004572747 -0.0015570826 0.0028727679 -0.0010663241 -0.00010014565 0.00025539845
0.010622669 -0.0067322277 -0.008376143 0.0005981174 0.001547971 0.00072105916 -0.0076151285 -0.0003566482
-0.005026945 -0.0010213747 -0.004257202 -0.0050869742 0.0037021968 -0.00012832186 -0.0046490817 0.0023094178
0.005147018 -0.0026983859 0.0020952714 -0.004050885 0.0038619942 -0.0018673347 -0.0044725607 -2.9082572e-05
0.0022719135 -0.0055080233 0.010271883 0.004993744 -0.0072919424 -0.0022502702 -0.00089017465 0.0014850086
-0.0014772882 -0.0022717095 -0.00015434345 0.0049778908 -0.0005739066 -0.00051562383 0.0014385784 -0.0010140368
0.024719931 -0.0064681727 0.0018720524 -0.004920589 0.0009776844 -0.0032133334 -0.00029608706 -0.0062591513
0.0036762923 -0.001203432 0.002979695 -0.0005720077 -0.0036424631 0.011110742 -0.000969507 -0.0030967942
-0.0006014664 0.004075051 -0.0049865786 0.009778722 0.00032116074 0.0036385043 -0.011242528 0.008116407
-0.0026570237 0.008715351 0.018556012 0.0012530718 0.0048778984 -0.0041610715 -7.362044e-05 0.0057933717
-0.0005143978 0.0033635674 0.0005232082 -0.006318111 0.0040394887 0.00044629493 -0.0025223705 -0.003902805
-0.0037807983 0.0035473823 -0.008872497 -0.0009178759 -0.0016067241 0.00032753276 -0.001504284 -0.007995973
0.0014444698 0.005020701 -0.0016672966 0.0010770264 0.0073393486 -0.0013118275 -0.0007249065 0.00053926953
-0.0005012456 0.00061469374 -0.0018473533 0.009996103 -0.003685812 0.0017911117 0.002298629 -0.00016246625
0.0050486824 -0.0070562563 -0.00030646397 -0.0047518625 -0.0015265137 0.0044113547 0.0043581356 0.0025834292
-1.6169804e-05 -0.0017605677 0.00010901796 -0.002908345 -0.00044489626 0.00397469 0.0005675386 -0.008069999
0.00377408 0.0028218036 0.003120516 0.001765962 0.0003941611 0.0032189265 -0.0015485208 -0.00037614568
0.006261246 0.001968723 -0.0019016819 0.0019824626 -0.0037237757 -0.000576122 0.0020671305 -0.0012470343
-0.0004533539 0.0010952333 0.002404258 -0.0017556997 -0.00015501412 0.0047717425 -0.0002648536 0.0045817536
0.001213934 -0.0012056968 0.0023388655 -0.0003643778 0.0033778076 0.0034085193 0.0014716272 0.0020024623
-0.0015234674 -0.0085111465 0.0037224803 -0.004654976 -0.0016212588 -0.0064054 0.004679985 0.0003880001
-0.0064905267 0.0046729026 0.007303128 -0.013542503 0.0010570295 0.0034307616 0.004333131 -0.0024368744
0.0047939713 -0.00053362147 0.016057005 0.012160157 0.008693639 0.013842953 0.0007063169 0.0015414896
0.00036468363 0.002522988 0.0009754642 -0.001234494 -0.0026475962 -0.0040239375 -0.006282449 0.0075767655
-0.0016606367 0.006399856 -0.0015940039 -0.001562062 0.008648207 -0.0009719843 0.00096382655 -0.0018823989
-0.00027897526 -0.0065755695 0.00046848308 -0.0050922357 0.0013002882 -0.0050344933 -0.00040802386 -0.000848591
-0.00031055926 0.00034628273 0.00032335127 0.0023811609 -0.0014668182 -0.0063581616 0.003447957 0.00038410837

transformer.norm.running_var f4 [1024]
00000000: 6440 0e3f 2047 b33e 49bf 1a3e 31c0 c93e
00000010: d45f ef3e 3f1f b13d ae5c a53e d307 bc3e
00000020: 9026 463e 8154 343e b3ca 053f f56c c13d
00000030: 1e7f 3f3c da15 653e b86a 5c3e eb71 e43e
00000040: 5c08 f03e f31f ba3d ff01 023f e868 4b3e
00000050: 92b4 443e 4d3a d43e d994 7a3e 173e 003f
00000060: ff22 203f 3406 e33e 8057 153f bcb1 ab3e
00000070: 1c43 a33e 133d cb3d 67a0 883e b9f7 0e3e
00000080: 4609 fc3d 128b 883e 12ac 283e af70 1e3f
00000090: 3439 c43e 8a2a 8d3e d687 1e3f 9a72 f93d
000000a0: c825 f23e a652 9c3e ba00 993e 9a6c 9b3e
000000b0: 96a9 253e 2d72 8b3e 1ce8 dc3d 79bf 673e
000000c0: e63c 283f 97b9 ba3e 51ca be3e 8a36 fd3c
000000d0: 2adb f33c 59b8 ad3e 521d 483e 3655 4d3c
000000e0: b3bd 883e 417e bc3e 361f 213e 452f 123f
000000f0: 4e43 273f 1b42 d23e 0a7c 943e 69d2 2c3e
00000100: 80a4 2f3e 3afa 603e bcd4 0e3e 6340 2d3e
00000110: c7d8 853d ac6a be3d 4429 5b3e d66a 023f
00000120: 7499 2e3f fb05 193e 0b72 aa3e 7211 a13e
00000130: d766 513f 5718 b43e 394d 253f c3c6 053f
00000140: b8f9 0d3e 3938 893e c0a4 8f3c 1f47 ad3e
00000150: 0496 603e 8e3a 5d3e c6eb 2b3e b44d a03e
00000160: 1031 573f 5d51 9f3e ea16 0c3e 12ab fc3e
00000170: 476c 1d3e 16b4 a83e bf37 bd3e 72f5 c63d
00000180: 4ec8 dd3d 9c6e 833e ed4b 973e 18e8 843e
00000190: d557 4c3e 6932 453f de1c 383e 98c2 9a3d
000001a0: 1f31 8a3d aa25 fb3e d6d0 a23e 5a63 b43e
000001b0: 64e9 c83e 83b0 c93e fe21 ea3e 5860 923e
000001c0: 82a2 233f 5025 9c3e cf16 d93e 6be5 ce3e
000001d0: d2e0 4f3e d930 6f3e 1835 e83b a263 c23e
000001e0: 8487 103e a924 103f 00e5 363c d8c9 883e
000001f0: f801 f93d 4162 a73e cf44 0a3f 2c75 393e
00000200: c21f 863e b3d4 403f 5580 c23e 6aec 6c3e
00000210: b9ca 183e 4cc9 863e 1f71 533e 8bf6 ba3e
00000220: aea0 f03e be1f b53d a523 ad3e 7f64 bb3d
00000230: 3e7d e03e cbc3 893e 6dd9 8b3e 5295 243c
00000240: 59e9 b93e 8560 133f f53e 553f 1956 273f
00000250: 336f 693e 266c b43e a995 8c3e 12d0 7f3b
00000260: 41d4 a33e 4bbe 003f 9ee8 d73d 2bd4 a43e
00000270: c5dc 023f c980 1b3e 8064 a13e 55bf 163f
00000280: 9cb6 013e 3410 a63d 2f53 253e 31b1 b33c
00000290: 6f8a 543b a757 8f3e c133 603e 34e3 2d3e
000002a0: 9e07 513e 6cf9 583e 3596 2d3e b6fa ac3e
000002b0: d8bd 373b 7ba6 2b3e 41cb a73d ec07 3c3e
000002c0: 1a9e 293f 3b80 d93e 687b a43e dcef f63e
000002d0: 2eee 8b3e 3b9c d63d 8913 973e edd2 653e
000002e0: d47d 003e da5a a63d 6dfc ee3e 8e74 bc3e
000002f0: 88a0 833e 8c27 5c3d f209 943b ad2e 073e
00000300: 6548 193e 7d2c 313e 9066 e83e 7e28 203e
00000310: d43f f13e 2c45 023f b7f6 753e e3a9 b23e
00000320: 05b9 5a3f 41af e23e d13f c43e 2ab7 163f
00000330: 8a2c 343e d06e 683e 4055 8f3e bc82 813d
00000340: 0dff e03e dd5b ab3d 2731 c13d a000 4b3f
00000350: 7d9e b03e 48e8 013f 1b69 853e 7cb0 0f3e
00000360: 3b7b a43e d8ed 133e b2af 4a3f afb4 d93e
00000370: b713 343e d7ea 2c3f 624c e53e 3c26 933e
00000380: 8e05 4a3e d616 133e 0ce8 d03d 8076 763e
00000390: 3089 233e 6fc8 643e 3dd0 ad3e b396 0e3f
000003a0: 7b00 fd3d ea94 8e3e ba5b ba3e dbd9 4f3e
000003b0: 6e75 073e 95e5 ac3e 9978 c43e 157a ed3b
000003c0: 9667 083c ac20 963e 7793 c93e 3e4a b23e
000003d0: 1b60 ce3d 073f 313e 7049 523e e0bd 2f3e
000003e0: c1de 533e 4bad c83e a821 e93e 967b 683e
000003f0: 6ffd 7a3e ee57 fc3e a623 df3e 7544 a53e
0.55567 0.35015202 0.15112032 0.39404443 0.467528 0.08648538 0.3229727 0.3672472
0.19350648 0.1761036 0.5226242 0.0944461 0.011688022 0.22371617 0.21525085 0.44618163
0.46881378 0.09088125 0.50784296 0.19864237 0.19209507 0.4145073 0.24470843 0.5009474
0.625534 0.4434067 0.5833664 0.33534038 0.31887138 0.09923758 0.26684877 0.13961686
0.12306456 0.26668602 0.1647189 0.6189069 0.38324893 0.27571517 0.6192602 0.12180062
0.4729445 0.30531806 0.29883367 0.30356294 0.16177973 0.27235547 0.10786459 0.22631635
0.65717924 0.3646972 0.3726373 0.030909795 0.029767592 0.3392971 0.19542435 0.012532523
0.2670723 0.36815074 0.15734562 0.5710338 0.65337074 0.4106606 0.29000884 0.1687714
0.17152596 0.21970454 0.13948339 0.16919093 0.065354876 0.0929769 0.2140246 0.5094427
0.682029 0.14943688 0.33290133 0.31458622 0.81797546 0.3517482 0.6457096 0.5225641
0.13864791 0.26800707 0.017534614 0.33843324 0.21932226 0.21604368 0.16789159 0.31309283
0.8405924 0.31116763 0.13680616 0.49349266 0.15373336 0.32949895 0.36956593 0.09714784
0.10829221 0.25670326 0.29550114 0.25958323 0.1995538 0.77030045 0.17979762 0.07556647
0.0674765 0.49052173 0.31799954 0.3523205 0.39240563 0.3939248 0.4572906 0.2858913
0.6391984 0.30497217 0.42400214 0.40409407 0.20300606 0.23358478 0.0070864074 0.3796664
0.14114195 0.5630594 0.011162996 0.26716495 0.12158579 0.3269215 0.54011244 0.18111104
0.26196104 0.75324553 0.37988535 0.2313706 0.14921083 0.26325452 0.20648621 0.36516222
0.4699759 0.08843945 0.33816257 0.091500275 0.43845552 0.2690719 0.2731432 0.010045366
0.36310843 0.5756915 0.8329919 0.6536575 0.22796325 0.3523876 0.27457932 0.0039033932
0.31997874 0.50290364 0.10542415 0.3219312 0.5111812 0.15185846 0.31521988 0.588857
0.12667316 0.08108559 0.16145013 0.021935077 0.0032431146 0.2799656 0.21894743 0.16981202
0.20413062 0.21188897 0.1695183 0.33785027 0.002803674 0.16762726 0.081930645 0.18362397
0.6625687 0.42480645 0.32125401 0.48229873 0.27330154 0.10479017 0.29507092 0.22443743
0.12548 0.08122797 0.4667696 0.36807674 0.25708413 0.053748652 0.004517787 0.13201399
0.14969023 0.17302127 0.4539075 0.15640447 0.4711901 0.508868 0.24019895 0.34895238
0.8543857 0.44274333 0.38329938 0.58873236 0.17595115 0.22698522 0.27994728 0.06323764
0.43944588 0.08367131 0.09433203 0.7929783 0.34495917 0.5074506 0.26056752 0.14032167
0.32125267 0.14446199 0.7917434 0.42520663 0.17585646 0.6754584 0.44784838 0.28740108
0.19728681 0.1436418 0.102005094 0.24068642 0.15970302 0.22342084 0.33947936 0.556987
0.12353607 0.27847987 0.36398107 0.20297949 0.1322839 0.33768907 0.3837326 0.0072472193
0.008325478 0.29321802 0.3937032 0.34822267 0.100769244 0.173092 0.20535827 0.17162275
0.20690443 0.39194712 0.4553349 0.22703394 0.2451074 0.49285835 0.43581885 0.3227879
