xls_r_sqa/models/sqa-v2/xls-r-300m/model_300m_lay5_full.pt (torch, 384909 bytes, 67 tensors)

norm_input.weight f4 [1024]
0	0x3f18f6eb	0.59751767
1	0x3ee15517	0.4401023
2	0x3ef952f9	0.48696116
3	0x3f075bac	0.52874255
4	0x3ece9ce7	0.40354082
5	0x3ec0548c	0.37564504
6	0x3efae227	0.49000666
7	0x3e95a407	0.29226705
8	0x3f149c7b	0.5805127
9	0x3f439385	0.7639697
10	0x3f272cd0	0.65302753
11	0x3ee50649	0.44731358
12	0x3f11895c	0.5685022
13	0x3ee82afd	0.45345297
14	0x3f1c8d6b	0.61153287
15	0x3f17fe47	0.5937237
16	0x3edc8220	0.43068027
17	0x3ebc87ea	0.36822444
18	0x3f0f747e	0.5603713
19	0x3f0fd387	0.5618214
20	0x3f291e51	0.66061884
21	0x3f09286e	0.53577316
22	0x3f26f65b	0.6521966
23	0x3f000353	0.5000507
24	0x3eace681	0.3376961
25	0x3eeb921f	0.4600992
26	0x3f1420ea	0.5786272
27	0x3f01bdf0	0.50680447
28	0x3f21a0f9	0.6313625
29	0x3f20ee5b	0.628637
30	0x3eb62c54	0.35580695
31	0x3e933821	0.2875376
32	0x3e0aa944	0.13541132
33	0x3ed44799	0.41460875
34	0x3ec45e33	0.38353118
35	0x3f04fc85	0.51947814
36	0x3e892720	0.26787663
37	0x3e3d286e	0.18472454
38	0x3f0a3bad	0.5399731
39	0x3f1a3419	0.60235745
40	0x3f00744d	0.5017746
41	0x3f14d36a	0.5813509
42	0x3e9d7ccf	0.30759284
43	0x3f1185a9	0.56844574
44	0x3f376e45	0.7165263
45	0x3f27b47c	0.6550977
46	0x3f2f3787	0.68444103
47	0x3ee1997d	0.44062415
48	0x3f1ba25b	0.6079461
49	0x3f114215	0.5674146
50	0x3f447251	0.76736933
51	0x3f082b6b	0.5319125
52	0x3eafaacd	0.34309998
53	0x3f256385	0.6460498
54	0xbec3e823	-0.38263044
55	0x3f015447	0.5051922
56	0x3ef60ad1	0.48055127
57	0x3eef8b3b	0.46785912
58	0x3ed466cf	0.41484687
59	0x3f2b3e15	0.66891605
60	0x3ee33c05	0.4438173
61	0x3efcdaf9	0.49385813
62	0x3ef6f0fd	0.48230734
63	0x3e6ed428	0.23323119
64	0x3f05c08f	0.52246946
65	0x3f108944	0.5645945
66	0x3e92519b	0.28577885
67	0x3f2e7797	0.6815123
68	0x3e3884c6	0.18019399
69	0x3f430f83	0.76195544
70	0x3f34cb32	0.7062255
71	0x3f1efb5e	0.62102306
72	0x3f30f1e5	0.691191
73	0x3edda040	0.43286324
74	0x3f2d5480	0.6770706
75	0x3ec43c26	0.3832714
76	0x3e9e74fe	0.30948633
77	0x3ece1408	0.40249658
78	0x3e4ce247	0.20008193
79	0x3f0090d1	0.5022097
80	0x3f4aa0da	0.7915169
81	0x3e955f9e	0.29174513
82	0x3e9acb77	0.30233356
83	0x3f099e55	0.5375722
84	0x3ee03db4	0.43797076
85	0x3f097923	0.53700465
86	0xbd99fadb	-0.0751855
87	0x3f0ef9aa	0.5584971
88	0x3f519505	0.8186801
89	0x3f0f5b01	0.55998236
90	0x3f0abc0c	0.54193187
91	0x3ea1155c	0.31461608
92	0x3ea212ed	0.31655064
93	0x3f3df16f	0.74196523
94	0x3eea50f3	0.45764884
95	0x3f155d7b	0.58345765
96	0x3f34364b	0.70395344
97	0x3ee5e15d	0.448985
98	0x3e8fd41c	0.28091514
99	0x3eca73fb	0.3954161
100	0x3f2d3bb0	0.676692
101	0x3f1a0dd4	0.6017735
102	0x3e98d883	0.29852685
103	0x3f0bc8c5	0.54603225
104	0x3efae9dd	0.4900655
105	0x3f200f85	0.6252368
106	0x3ec9f7cc	0.39446867
107	0x3ecbbda9	0.39793137
108	0x3eefa682	0.46806723
109	0x3efc1a4f	0.49238822
110	0x3ee32df6	0.44371003
111	0x3ef8e4db	0.48612103
112	0x3f391ce2	0.72309697
113	0x3e953c30	0.29147482
114	0x3f135632	0.575534
115	0x3f349f88	0.70555925
116	0x3f579306	0.84208715
117	0x3e3d070b	0.18459718
118	0x3f21f6f7	0.63267463
119	0x3f0f73d2	0.560361
120	0x3ee3ee48	0.44517732
121	0x3f2c4ef0	0.6730795
122	0x3ee4fa3e	0.4472217
123	0x3f10f039	0.5661655
124	0x3f0515e9	0.5198656
125	0x3e999935	0.299997
126	0x3e995d07	0.29953787
127	0x3ed70ee5	0.4200355
128	0x3f3157fc	0.6927488
129	0x3f396948	0.7242627
130	0x3f0c3ff5	0.5478509
131	0x3f99134b	1.1959013
132	0x3f383c96	0.71967447
133	0x3f0be4f9	0.5464626
134	0x3f6fc7b3	0.9366409
135	0x3f0a69e5	0.5406783
136	0x3f188d34	0.5959046
137	0x3f2f0405	0.6836551
138	0x3f36a454	0.71344495
139	0x3f181fca	0.59423506
140	0xbde65060	-0.11245799
141	0x3e5fbd21	0.2184949
142	0x3ed6ee17	0.41978523
143	0x3f453232	0.77029717
144	0x3f24444a	0.641667
145	0x3ec3c03b	0.38232598
146	0x3ebdf0c5	0.37097755
147	0x3f209009	0.6271978
148	0x3f06867a	0.52548945
149	0x3ee5856c	0.44828355
150	0x3f103d4a	0.5634352
151	0x3f214617	0.62997574
152	0x3ec473b1	0.38369516
153	0x3f4d4b83	0.80193347
154	0x3f3e94a7	0.74445575
155	0x3f3371da	0.700956
156	0x3f0a6ede	0.5407542
157	0x3ee44fce	0.44592136
158	0x3f2bd400	0.6712036
159	0x3e3d943e	0.18513581
160	0xbe845112	-0.25843102
161	0x3f02857b	0.50984925
162	0x3cdd4177	0.027008755
163	0x3f139fd4	0.57665753
164	0x3f4be291	0.7964259
165	0x3f017d25	0.5058158
166	0x3f0e5bf1	0.5560904
167	0x3da9abda	0.08284731
168	0x3ea27552	0.31730133
169	0x3f238a0a	0.63882506
170	0x3f0a1e88	0.53952837
171	0x3f17fdf8	0.593719
172	0x3f29db6d	0.6635044
173	0x3f20c26b	0.6279666
174	0x3f040f52	0.51585877
175	0x3f110e5a	0.56662524
176	0x3f088a12	0.5333568
177	0x3ee17c51	0.44040158
178	0x3f133107	0.57496685
179	0x3f310f55	0.6916402
180	0x3e9286c2	0.28618437
181	0x3ef5a4e5	0.47977367
182	0x3f138ad5	0.57633716
183	0x3eeae9cd	0.458815
184	0x3f273716	0.6531843
185	0x3f09332e	0.5359372
186	0x3ea44707	0.3208544
187	0x3ecd2c52	0.40072876
188	0x3f44632e	0.76713836
189	0x3ece0fc5	0.40246406
190	0x3f34ad4c	0.7057693
191	0x3e2cc2ba	0.16871157
192	0x3ed36b38	0.4129274
193	0x3eabcd8c	0.33555257
194	0x3f165379	0.5872112
195	0x3ef31f6d	0.47484913
196	0x3ee5e390	0.4490018
197	0x3eea8815	0.45806947
198	0x3f3a99d7	0.7289099
199	0x3dcf2d70	0.101160884
200	0x3e6ff1f4	0.23432142
201	0x3f09ddae	0.5385388
202	0x3f03e69c	0.51523757
203	0x3eebf4d5	0.4608523
204	0x3e7ea740	0.24868488
205	0x3f5498a0	0.8304539
206	0x3f3d073c	0.73839164
207	0x3ef63278	0.4808538
208	0x3f3bb958	0.7332969
209	0x3f35ee72	0.71066964
210	0x3f0bb85a	0.54578173
211	0x3ecc11ce	0.39857334
212	0x3f01d038	0.5070834
213	0x3f07ae57	0.53000396
214	0x3eddd746	0.43328303
215	0x3f17ae65	0.5925048
216	0x3e2d7815	0.16940339
217	0x3f004c0c	0.5011604
218	0x3f2a7724	0.66588044
219	0x3ef61f12	0.4807058
220	0x3f417bfd	0.75579816
221	0x3e7607e5	0.24026449
222	0x3ef250ed	0.47327366
223	0x3efebbac	0.49752557
224	0x3f0d5220	0.5520344
225	0xbdbd0b7e	-0.092307076
226	0x3f382d44	0.7194407
227	0x3f06aac8	0.5260434
228	0x3f0703cb	0.5274016
229	0x3ed574e8	0.41690755
230	0x3f0d4e9d	0.5519808
231	0x3ec67d40	0.38767433
232	0x3f17ff3e	0.59373844
233	0x3dba6720	0.09101701
234	0x3e9adf4c	0.30248487
235	0x3edc2f17	0.43004677
236	0x3f3ab458	0.7293143
237	0x3f50a68e	0.8150414
238	0x3f10b65a	0.56528246
239	0x3f07d996	0.53066385
240	0x3ef9e8f9	0.48810557
241	0x3f160a57	0.5860953
242	0x3efbe922	0.49201304
243	0x3f0da6b3	0.5533249
244	0x3f5300da	0.82423174
245	0x3dcfe1f7	0.10150521
246	0x3f164250	0.58694935
247	0x3ea3c738	0.3198793
248	0x3f1496e6	0.5804275
249	0x3e9a2f8d	0.30114403
250	0x3f209120	0.62721443
251	0x3f067382	0.5252
252	0x3ec526f0	0.3850627
253	0x3f1b90c6	0.6076778
254	0x3eb01899	0.34393767
255	0x3ea7278d	0.32647362

norm_input.bias f4 [1024]
0	0x3c8f79c5	0.017514119
1	0x3c80eaa6	0.01573689
2	0xba68fe49	-0.0008887989
3	0xbc452fdd	-0.012035337
4	0xbb072666	-0.0020622252
5	0xbc9e76dd	-0.019343788
6	0x3a179b0a	0.00057832955
7	0xbc0bd11f	-0.008533745
8	0xbb7cacc4	-0.0038555125
9	0x3c72a390	0.014809504
10	0x3c0be1e1	0.00853774
11	0x3989930a	0.0002624023
12	0xbb667a7e	-0.0035168226
13	0xbb012817	-0.0019707733
14	0x3a4f8102	0.0007915647
15	0x3c4d0dea	0.012515524
16	0xbba53649	-0.0050418717
17	0x3be2616e	0.006908587
18	0xbbccd446	-0.006250891
19	0xbb0c8894	-0.0021443712
20	0xbbeab3bb	-0.007162539
21	0x3b45b1f6	0.0030165887
22	0x3c4a02de	0.012329785
23	0xbafdd386	-0.0019365407
24	0xbbb50d3f	-0.0055252607
25	0x3bbf929e	0.0058463356
26	0xb994e6bd	-0.00028400673
27	0x3b8df269	0.004331876
28	0x3b0790d6	0.0020685694
29	0x3b0db8bc	0.0021625003
30	0x3b280b66	0.002564156
31	0xbb0ad6a1	-0.0021185058
32	0xbb8f6f2e	-0.0043772673
33	0x3b9cf564	0.004789995
34	0xbb886376	-0.0041622473
35	0xbbe63b8f	-0.007026143
36	0x3b743ff7	0.0037269571
37	0x3bba74bb	0.005690185
38	0x3b39ce48	0.0028351713
39	0xbb8ff146	-0.0043927757
40	0xbb103f09	-0.0022010228
41	0xbb203f6a	-0.002445186
42	0x3b9028fb	0.0043994165
43	0x3b1c4545	0.0023844999
44	0x3b362019	0.0027790128
45	0x3c83cc72	0.016088698
46	0x3b10fcbe	0.0022123302
47	0x3b9cf327	0.004789728
48	0xbc1fd551	-0.009755448
49	0x3c746167	0.014915801
50	0xbc63f68d	-0.013913763
51	0xbb941e80	-0.0045202374
52	0x3c1df1a8	0.009640135
53	0xba82a2b2	-0.00099667
54	0x38b56b42	8.650731e-05
55	0xbb7f8b51	-0.003899295
56	0x3c6b2175	0.0143512385
57	0xbc13cc62	-0.009020897
58	0x3a9e15c0	0.0012060925
59	0xbc2237fc	-0.009901043
60	0x3aaddd5a	0.001326482
61	0xbbf3a15d	-0.0074350075
62	0x3b6a9c5a	0.003579876
63	0xbb6f88d3	-0.003655006
64	0xba486871	-0.00076449575
65	0xbc538df3	-0.012912261
66	0xbb1212e4	-0.0022289092
67	0xbad94b9b	-0.0016578318
68	0xbb2990c7	-0.0025873648
69	0xbbfacc58	-0.007653754
70	0xbc811ca6	-0.015760731
71	0xbb87ef24	-0.004148381
72	0xbb458f24	-0.0030145133
73	0xbb769706	-0.0037626638
74	0x3bf49a31	0.00746467
75	0x3c8b0a3e	0.016972657
76	0xbb6a032c	-0.0035707457
77	0x3b4c376d	0.0031160966
78	0xbb937304	-0.004499795
79	0xbbcedf7d	-0.006313263
80	0xbb562bee	-0.0032679993
81	0xbc242e2e	-0.010020776
82	0xbbdbd338	-0.006708529
83	0x3b869acc	0.0041078087
84	0x3c301cc0	0.010749042
85	0xbc1f6556	-0.00972875
86	0xbab10448	-0.0013505304
87	0xb9f9062d	-0.00047497582
88	0xbb00e6b6	-0.0019668764
89	0x39f54f1c	0.00046788983
90	0xbc17a851	-0.009256438
91	0xbb3307fd	-0.0027317994
92	0xbb11e0b1	-0.002225917
93	0x3b266c0c	0.002539399
94	0x3b999e35	0.004688049
95	0x3c36ad9f	0.011149793
96	0x3bed9158	0.0072499923
97	0x3b4a24d8	0.0030844714
98	0x3bcd22cd	0.006260252
99	0xb83c8fba	-4.495655e-05
100	0x3c326d87	0.010890371
101	0x394f70cb	0.00019783077
102	0xbaa3192c	-0.0012443415
103	0xbc523a86	-0.012831336
104	0xbbdd6fa4	-0.0067576934
105	0xba56dc4d	-0.00081962795
106	0xbafd17fd	-0.0019309517
107	0x3c479bf4	0.012183178
108	0xb992e908	-0.00028020912
109	0xba06f9d5	-0.0005148922
110	0x3bafb5e1	0.005362258
111	0x3b516f5d	0.0031957247
112	0xbc86cf72	-0.01645634
113	0x3b7e31af	0.0038786938
114	0x3bb242ae	0.0054400777
115	0xba9e9d14	-0.0012101256
116	0x3c62d7fa	0.013845438
117	0xbb0506d2	-0.0020298255
118	0xbbe9750d	-0.0071245492
119	0xbc4a76cb	-0.012357424
120	0xbbc84fc6	-0.0061130254
121	0x3b50d567	0.003186548
122	0x3b3ffae2	0.0029293825
123	0xbc7c4d38	-0.01539927
124	0x3b446047	0.0029964612
125	0x3b4281a4	0.0029679323
126	0xbba2b9b0	-0.0049659833
127	0xbb68851f	-0.0035479737
128	0xbb035ed7	-0.0020045543
129	0x3b9f123d	0.004854469
130	0xbb1c08c2	-0.002380893
131	0x3bd450da	0.006479365
132	0x3c15ff81	0.009155155
133	0x3c819249	0.015816825
134	0x3b674ca9	0.0035293496
135	0x38ef686c	0.00011415858
136	0xbac884d5	-0.0015298376
137	0x3bc2f16d	0.0059491904
138	0x3b84f750	0.0040578023
139	0xbc1a23e2	-0.009407969
140	0x3ccec9ef	0.025242774
141	0x3bb18156	0.0054170294
142	0xbab78d81	-0.0014003963
143	0xbc3dc57c	-0.0115827285
144	0x3c037a74	0.008024801
145	0x3c074c2d	0.008257908
146	0x3a54f401	0.00081235176
147	0xbbf9f8e2	-0.007628546
148	0x3ac72549	0.0015193607
149	0xbbc17a43	-0.0059044673
150	0xbc41fc19	-0.01183989
151	0xba945adf	-0.0011318586
152	0x3be247b8	0.006905522
153	0xbc3426f5	-0.010995616
154	0xbb36c9da	-0.002789131
155	0xbc9e957c	-0.01935839
156	0xbbe7341b	-0.007055772
157	0xb971e722	-0.00023069655
158	0xbaaac2ef	-0.0013028065
159	0x399f8d62	0.00030432182
160	0x3c50104c	0.012699198
161	0xb96f16cb	-0.00022801307
162	0xbab353e4	-0.0013681618
163	0x3c513c72	0.012770759
164	0xbcaf3fbe	-0.0213927
165	0xbb1fb412	-0.0024368805
166	0x3b60c5e6	0.0034297644
167	0xb923d121	-0.00015622798
168	0xba2c9410	-0.00065833423
169	0x3bbb3adc	0.0057138037
170	0x3c05163a	0.008122975
171	0x3c86e6af	0.01646742
172	0x3c50c558	0.012742363
173	0xbabecfc2	-0.0014557766
174	0xb8f22fe5	-0.0001154838
175	0xbc2b5b7a	-0.010458821
176	0x3bc18375	0.0059055635
177	0xbc140f22	-0.009036811
178	0xba5fe948	-0.00085415365
179	0xbaaa67ef	-0.0013000945
180	0xbab9a95b	-0.0014164852
181	0xbb937421	-0.0044999276
182	0x3a4b8bc3	0.00077646616
183	0xbb413407	-0.0029480474
184	0x3c213a1c	0.0098405145
185	0xbbcffcf1	-0.0063472916
186	0x3b35c290	0.0027734376
187	0x399996a2	0.00029294664
188	0xbcb7456e	-0.022371974
189	0x3c0ea304	0.008705858
190	0xbc980e20	-0.018561423
191	0xbc26472a	-0.010148803
192	0xbb44350a	-0.002993884
193	0xbbbe4354	-0.005806366
194	0x3b1020b0	0.002199214
195	0xb8a99c05	-8.087609e-05
196	0x3af780c6	0.0018882982
197	0xbc040626	-0.0080581065
198	0x3c665246	0.014057701
199	0xbb9dd640	-0.0048168004
200	0x3b9cb81b	0.0047826893
201	0xbbcdd9a9	-0.0062820506
202	0xbb8ec4a2	-0.0043569366
203	0x3b7c2126	0.0038471906
204	0xb8d1fe60	-0.00010013278
205	0x3c1513ce	0.00909896
206	0xba29c9cf	-0.000647691
207	0xbafaef1a	-0.0019144744
208	0x3ac5ba1c	0.0015085372
209	0x3c7cb389	0.015423664
210	0xbbb11a40	-0.0054047406
211	0xb99d0f41	-0.0002995674
212	0xbbbd2597	-0.0057723033
213	0x3bc437ac	0.005988082
214	0x3a216d4a	0.0006157948
215	0xbc66e7eb	-0.0140933795
216	0x3b7e9cd1	0.0038850794
217	0x3b2f627e	0.0026761587
218	0xba900008	-0.0010986337
219	0x3b8c1c95	0.004275868
220	0x3cc98d06	0.024603378
221	0x3c31037b	0.010804052
222	0xbbb3b2a5	-0.0054839426
223	0x3ba8614a	0.005138551
224	0x3c26e192	0.010185616
225	0x3bc6e61d	0.006069912
226	0xbc1305bf	-0.008973538
227	0x3b4412f3	0.0029918521
228	0xbb559199	-0.0032588004
229	0xbbdd0eb4	-0.0067461375
230	0xbc059f2a	-0.008155623
231	0xbb1826cf	-0.002321649
232	0xbc02299d	-0.007944492
233	0x3b11ec87	0.0022266225
234	0x3bb61f28	0.0055579133
235	0xb7fd649a	-3.0206797e-05
236	0xbb862433	-0.0040936708
237	0x3b9c84c7	0.0047765705
238	0xbbfec71b	-0.0077752
239	0xbb483891	-0.0030551294
240	0xbb1eaed0	-0.0024213083
241	0x39e3e77a	0.00043469277
242	0xbb7e51a4	-0.0038805986
243	0xba07ea77	-0.00051847793
244	0xbb192f0b	-0.0023373987
245	0xb993c7f0	-0.0002818699
246	0x3a533bf9	0.0008057948
247	0xbac27a9d	-0.0014837567
248	0xbc3678aa	-0.011137167
249	0x3c1a5991	0.009420768
250	0xbb86b245	-0.004110607
251	0xbab3f624	-0.0013729972
252	0xbbe555ad	-0.0069987387
253	0xbbe9bd02	-0.007133127
254	0xba25ab58	-0.00063197827
255	0xbb2a9f41	-0.0026034864

norm_input.running_mean f4 [1024]
0	0x3f288872	0.658332
1	0x3f65a8ba	0.8971058
2	0x3f3be824	0.73401093
3	0x3f3f7cde	0.7479991
4	0x3ef88c6b	0.4854463
5	0x3f33e623	0.70273036
6	0x3e885621	0.2662821
7	0x3f01d6e5	0.5071853
8	0x3f22d945	0.63612777
9	0x3f874cf1	1.0570356
10	0xbe153faa	-0.14575067
11	0x3f997e2d	1.1991631
12	0x3f165383	0.5872118
13	0x3f296b69	0.6617952
14	0x3f11d3be	0.5696372
15	0x3d60d3f1	0.054889623
16	0x3f491ab1	0.7855635
17	0x3f5bf88d	0.85926133
18	0x3f0383d1	0.5137301
19	0x3f251d06	0.6449741
20	0x3f333a30	0.7001066
21	0x3eecd573	0.462566
22	0x3ebfbd30	0.37449026
23	0x3f131b79	0.57463795
24	0x3f6bbf98	0.92089224
25	0x3e9e6f52	0.30944306
26	0x3ebaaf05	0.36461654
27	0x3f02bb61	0.5106717
28	0x3f1209c0	0.5704613
29	0x3f2dcef4	0.6789391
30	0x3ecc1300	0.39858246
31	0x3f5cb4c5	0.8621333
32	0xbf9f3900	-1.243927
33	0x3f4bd0e1	0.796156
34	0x3f038e62	0.51389134
35	0x3f381a14	0.7191479
36	0x3f84ef32	1.0385497
37	0x3eaed944	0.34150136
38	0x3e6a6bfe	0.22892758
39	0x3f9085ba	1.129081
40	0x3f5aab92	0.85418046
41	0x3f29ab58	0.66277075
42	0x3f34595e	0.70448864
43	0x3f04f41f	0.51935
44	0x3f250861	0.6446591
45	0x3efa1dc8	0.48850846
46	0x3f3af3b5	0.7302812
47	0xbce0ceaa	-0.027442295
48	0x3f0f6fd4	0.5603001
49	0x3f9e4d51	1.2367345
50	0x3f23a653	0.63925666
51	0x3f90ea3d	1.1321484
52	0x3f71d019	0.94458157
53	0x3f13cf90	0.5773859
54	0x3e972fd7	0.29528686
55	0x3f4c1f42	0.79735196
56	0x3f59e6e6	0.8511795
57	0x3f8abc72	1.0838759
58	0x3f56f10e	0.8396157
59	0x3f4dcd65	0.8039153
60	0x3f2a8c00	0.66619873
61	0x3f52f47c	0.82404304
62	0x3f89b9d8	1.075984
63	0x3ec68252	0.38771302
64	0x3f37463b	0.7159154
65	0x3d4bd55e	0.04976403
66	0x3ed4f2da	0.4159153
67	0x3ef4a8f7	0.4778516
68	0x3f5a3e72	0.85251534
69	0x3f5f1926	0.8714775
70	0x3ef4c322	0.47805125
71	0x3da7d2ab	0.081944786
72	0x3ecf044a	0.4043296
73	0x3f92c0f7	1.1465138
74	0xbe5be434	-0.21473771
75	0x3f2c8d5f	0.67403215
76	0x3ed016b5	0.40642324
77	0x3ecd946e	0.40152305
78	0x3f52d58d	0.823571
79	0x3f5b46ee	0.85655105
80	0x3e4850ee	0.19562122
81	0x3e263999	0.1623291
82	0xbf6414a6	-0.89094007
83	0x3ec6c977	0.3882558
84	0x3c475d61	0.012168259
85	0x3efa8319	0.48928145
86	0x3ef8cf78	0.48595786
87	0x3eefae54	0.4681269
88	0x3ec826d0	0.39092112
89	0x3e6fe537	0.23427282
90	0x3f980a69	1.1878177
91	0x3f294996	0.6612791
92	0x3eeb3562	0.45939165
93	0x3f56785d	0.8377741
94	0x3f5a2cba	0.852245
95	0x3f05853a	0.5215641
96	0x3f2b8d6a	0.67012656
97	0x3f1944c4	0.59870553
98	0x3eb9e493	0.363072
99	0x3f24e895	0.6441739
100	0x3f1be746	0.6089977
101	0x3f18c976	0.59682405
102	0x3e895917	0.26825783
103	0x3fab3b87	1.3377541
104	0x3f4e938f	0.80693907
105	0x3f4d01ba	0.8008076
106	0x409fbc10	4.991707
107	0x3f06f260	0.52713585
108	0x3e9243b1	0.2856727
109	0x3f9f30a4	1.2436719
110	0x3f81e4fc	1.0148005
111	0x3eec6664	0.46171868
112	0x3f5800b8	0.84376097
113	0x3fa1c6c0	1.2638779
114	0xbd31a0f6	-0.043366395
115	0x3ed02ca9	0.40659073
116	0x3f8ffe57	1.1249493
117	0x3eefdf26	0.46849936
118	0x3eb0b202	0.3451081
119	0x3ee55dd7	0.44798157
120	0x3fc98401	1.5743409
121	0x3f85e515	1.0460535
122	0x3fd107c1	1.6330491
123	0x3f7522c6	0.95756185
124	0x3f64e33a	0.8940922
125	0x3f8d9559	1.1061202
126	0x3f0413e0	0.51592827
127	0x3ec907f2	0.39263874
128	0x3eccd93f	0.40009496
129	0x3e9cf2ed	0.30654088
130	0x3f4efea4	0.808573
131	0x3ed8e083	0.4235879
132	0x3f51382e	0.8172635
133	0x3f234568	0.6377778
134	0x3f20c24e	0.62796485
135	0x3f21c7d7	0.63195556
136	0x3f5c97b2	0.8616897
137	0x3f4ecd7e	0.80782306
138	0x3f1abbc4	0.6044276
139	0xbdb76957	-0.08955639
140	0x3f58fe1e	0.8476275
141	0x3f39e153	0.7260944
142	0x3f5aee5a	0.85519946
143	0x3f9c9be2	1.2235072
144	0x3e19a813	0.15005521
145	0x3f2f7043	0.6853067
146	0x3ee711b0	0.45130682
147	0x3ed91025	0.4239513
148	0x3f159dea	0.5844408
149	0x3fb68d1b	1.4261812
150	0x3f644079	0.8916088
151	0x40299cda	2.6501985
152	0x3f718919	0.9434982
153	0x3eba3eb4	0.36375964
154	0xc021eaca	-2.5299554
155	0x3e88129a	0.26576692
156	0x3e4ceb78	0.20011699
157	0x3f786b5e	0.9703883
158	0x3ec020c0	0.37524986
159	0x3ec79d7e	0.38987345
160	0x3d6fe45f	0.0585674
161	0x3f16b4b7	0.588695
162	0x3fd08322	1.6290019
163	0x3f6e9717	0.93199295
164	0x3f330e95	0.69944125
165	0x3f097b72	0.5370399
166	0x3f904716	1.1271694
167	0x3f373d0e	0.7157754
168	0x3ee58249	0.44825962
169	0x3e4aecbc	0.1981687
170	0x3f69db79	0.91350514
171	0x3f3a8688	0.7286153
172	0x3f108e96	0.5646757
173	0x3e8f091e	0.27936643
174	0x3fb29bac	1.3953757
175	0x3e9fa1e1	0.3117819
176	0x3ea0da9f	0.31416795
177	0xbdf18336	-0.117926046
178	0x3f0e45ab	0.55575055
179	0x3f78bf61	0.9716702
180	0x3f09022d	0.53518945
181	0xc01ea5c4	-2.4788675
182	0x3f43df50	0.7651262
183	0x3eeaed69	0.45884255
184	0x3f8559c7	1.0418023
185	0x3f271d03	0.65278643
186	0x3f1d3c3f	0.61420053
187	0x3f3f1433	0.74640197
188	0x3ec1de46	0.37864894
189	0x3f077b86	0.52922857
190	0xbf34e176	-0.70656526
191	0x3f14d784	0.5814135
192	0x3f16186a	0.58631
193	0x3f248788	0.64269304
194	0x3e33bf96	0.17553553
195	0x3f039184	0.51393914
196	0x3ddbd5de	0.10734151
197	0xbd95e350	-0.07318747
198	0x3dd88a77	0.10573285
199	0x3f3aabbe	0.7291831
200	0x3f05753f	0.5213203
201	0xbec90de6	-0.39268416
202	0x3fbe098a	1.4846661
203	0x3e85029d	0.25978556
204	0x3f622cb2	0.8834945
205	0x3f6e924b	0.93191975
206	0x3e9806c1	0.29692653
207	0x3f0ddec3	0.5541803
208	0x3f8fc64d	1.1232392
209	0x3f78f2b0	0.9724531
210	0x3ff44221	1.9082681
211	0xbd90dfce	-0.07073937
212	0x3ef05cb8	0.4694574
213	0x3f057afd	0.5214079
214	0x3f366d27	0.71260303
215	0x3d1f85ec	0.038946077
216	0x3f2746f3	0.65342635
217	0x3d055536	0.032551967
218	0x3f783792	0.96959794
219	0x3f2d5859	0.6771293
220	0x3f49ecde	0.78877056
221	0x3f949394	1.1607537
222	0x3f419e88	0.75632524
223	0xbb00c3ca	-0.001964795
224	0x3f56e100	0.8393707
225	0xc19fb64b	-19.96401
226	0x3e4cb2ff	0.19990157
227	0x3f41f2d4	0.7576115
228	0x3f24d98b	0.64394444
229	0x3e7a4739	0.24441232
230	0x3f216a8c	0.630532
231	0x3f27df93	0.6557552
232	0x3f8fba41	1.1228715
233	0x3f7fb1ff	0.99880975
234	0x3f390175	0.7226785
235	0x3f6ae38a	0.9175345
236	0x3f7c27ea	0.98498404
237	0x3f30b219	0.69021755
238	0x3f4429ee	0.7662648
239	0x3ec0e710	0.37676287
240	0x3f0caf22	0.5495473
241	0x3fb351a5	1.4009291
242	0x3ec880f9	0.39160898
243	0x3f00bcaf	0.5028791
244	0x3f896a55	1.0735575
245	0x3e0a7ef8	0.13524997
246	0x3eabc507	0.33548757
247	0x3f1a219e	0.60207546
248	0x3f21b143	0.63161105
249	0x3f014671	0.5049811
250	0x3eda0c05	0.42587295
251	0x3fa0b769	1.2555972
252	0x3f5a84ec	0.8535907
253	0x3f547f91	0.8300715
254	0x3f3a8bf2	0.7286979
255	0x3fcf80bc	1.6211162

norm_input.running_var f4 [1024]
0	0x400605ab	2.094096
1	0x40c18db6	6.0485487
2	0x3fdcbd37	1.7245244
3	0x404610b6	3.09477
4	0x3ff7201b	1.9306673
5	0x3fe866d1	1.8156377
6	0x3fee3207	1.8609017
7	0x40842f5c	4.130781
8	0x3fffde6b	1.9989752
9	0x40393283	2.893708
10	0x40259a41	2.58754
11	0x400d93db	2.2121494
12	0x3fdaca21	1.7092935
13	0x401a5c69	2.4118903
14	0x4011d800	2.2788086
15	0x3fdec34e	1.7403352
16	0x3fe7bd80	1.8104706
17	0x3ffeacdd	1.9896504
18	0x3fd54bf0	1.6663799
19	0x3fed429f	1.8535956
20	0x3fef58b7	1.8698949
21	0x40187b48	2.3825245
22	0x3fe749aa	1.8069355
23	0x4008375f	2.1283796
24	0x404e90e2	3.227593
25	0x40394fab	2.8954875
26	0x3ff428dc	1.9074969
27	0x3fea4da4	1.8304944
28	0x3fda9f20	1.7079811
29	0x3fe56723	1.79221
30	0x3fdd8024	1.730473
31	0x4027dd5e	2.6228862
32	0x40ef6568	7.4811287
33	0x40007b18	2.007513
34	0x4023ab12	2.5573163
35	0x4009459c	2.1448736
36	0x40043dde	2.066276
37	0x3fcde2b9	1.6084815
38	0x4042b4a9	3.0422766
39	0x3ff3a342	1.9034197
40	0x3fe78637	1.8087834
41	0x3ffae4c0	1.9601059
42	0x3ff1ee89	1.890092
43	0x40076d44	2.116044
44	0x400ca9f8	2.197874
45	0x3fe8d1ce	1.8189027
46	0x400d7339	2.2101576
47	0x400faea6	2.2450347
48	0x3fd4131a	1.6568329
49	0x40020275	2.0314
50	0x3fee3f1d	1.8613011
51	0x400cba77	2.198881
52	0x40051488	2.0793781
53	0x3fe60b50	1.7972202
54	0x40521b15	3.282903
55	0x3fcdf270	1.6089611
56	0x3fe344e5	1.77554
57	0x40718408	3.7736835
58	0x3fe884c7	1.816552
59	0x402c746e	2.6946063
60	0x3ffcbd46	1.9745262
61	0x3fcee72e	1.61643
62	0x40133642	2.3001866
63	0x402305fa	2.5472398
64	0x3ff02e4e	1.8764131
65	0x3fe9ae4b	1.8256315
66	0x3fe7adc1	1.80999
67	0x400100fa	2.0156846
68	0x402b213c	2.6739035
69	0x3fd88c22	1.6917765
70	0x3ff6c9f3	1.928038
71	0x3fda44be	1.7052228
72	0x3fe8ec53	1.819712
73	0x3ff3492f	1.9006709
74	0x4103661c	8.212429
75	0x3fcdb538	1.6070929
76	0x40f9621a	7.7932253
77	0x4023abb3	2.5573547
78	0x4002b17f	2.0420835
79	0x4009e6a6	2.1547027
80	0x401cf257	2.4522913
81	0x3fdb851b	1.7149996
82	0x420dacda	35.4188
83	0x3ff8d344	1.9439473
84	0x40054ba8	2.0827427
85	0x3fd029d1	1.6262761
86	0x4097ac5c	4.73979
87	0x40020705	2.0316784
88	0x3fca9c28	1.5828905
89	0x406eb0e7	3.7295473
90	0x4044182b	3.063975
91	0x400060be	2.0059047
92	0x3fc9364b	1.5719694
93	0x400cd480	2.20047
94	0x3fd6e9e2	1.6790125
95	0x3ffe53ff	1.9869384
96	0x3fcfade9	1.6224948
97	0x3fd7cf10	1.6860065
98	0x40217e16	2.5233207
99	0x3fdabf1e	1.7089574
100	0x400a0584	2.1565866
101	0x3fee02dd	1.8594624
102	0x401b0ae9	2.422541
103	0x4020968d	2.509189
104	0x3fe061ad	1.7529808
105	0x4008c530	2.1370354
106	0x42182bca	38.042763
107	0x3fff2629	1.993352
108	0x3fde0c4a	1.73475
109	0x40051883	2.079621
110	0x3fed5a79	1.8543235
111	0x40032148	2.0489063
112	0x40104d66	2.254724
113	0x401478ed	2.3198807
114	0x402ff67c	2.7494192
115	0x3fd4f72a	1.6637928
116	0x3fe99ef3	1.8251632
117	0x3fe85e82	1.8153841
118	0x3fe85522	1.815098
119	0x3fe3b54c	1.7789702
120	0x40154a74	2.3326693
121	0x400cee71	2.2020533
122	0x430a812e	138.50461
123	0x3fd98a8c	1.6995406
124	0x3fd92b4f	1.6966342
125	0x4037f561	2.8743517
126	0x3fe40fce	1.7817323
127	0x40922637	4.567165
128	0x400964f6	2.1467872
129	0x3feff341	1.874611
130	0x4007fd04	2.1248178
131	0x3fe87b48	1.8162622
132	0x3fc01ddb	1.5009111
133	0x3fcfdf6a	1.6240056
134	0x3ffe874f	1.9885043
135	0x3fea653d	1.8312145
136	0x400fd512	2.2473798
137	0x3feb6088	1.8388834
138	0x3fd900bd	1.695335
139	0x3fea0417	1.8282498
140	0x3fead144	1.8345113
141	0x3fe731c4	1.8062062
142	0x4008a475	2.1350377
143	0x401ab455	2.4172566
144	0x400dfc3a	2.2185197
145	0x3ff5e9c6	1.9211967
146	0x3fdd46e4	1.7287259
147	0x400c4ee7	2.1923158
148	0x3fe78a68	1.8089113
149	0x40173724	2.3627405
150	0x3fe7e125	1.8115584
151	0x41fe9fe3	31.82807
152	0x3feb63dd	1.8389851
153	0x4008e149	2.1387503
154	0x420f2f10	35.79596
155	0x4065f5a1	3.593117
156	0x3ff37e52	1.9022925
157	0x400749e1	2.1138842
158	0x3fe0f0f1	1.757353
159	0x3fdf6c87	1.7454995
160	0x415e833c	13.90704
161	0x4018d976	2.3882728
162	0x40d0bcc7	6.523044
163	0x4009b606	2.1517348
164	0x3fea5fcc	1.8310485
165	0x3fefb9a2	1.8728526
166	0x3ff85be9	1.9403049
167	0x403c6465	2.9436276
168	0x3ffd0a2a	1.9768727
169	0x3fd5fa02	1.6716921
170	0x3fe0cda8	1.7562761
171	0x40010def	2.0164754
172	0x40072e45	2.112199
173	0x40180d0c	2.3757963
174	0x41e039d3	28.028234
175	0x3fe5b029	1.7944385
176	0x4004449d	2.0666878
177	0x40210df1	2.516476
178	0x3fd45dcf	1.6591128
179	0x3feeee5c	1.8666492
180	0x3fe1cfb2	1.7641509
181	0x428986b1	68.76307
182	0x3ff7884d	1.9338471
183	0x4016d7dd	2.3569252
184	0x3ffc06ff	1.9689635
185	0x3feea436	1.8643863
186	0x4017ada2	2.3699727
187	0x3ff8daea	1.9441807
188	0x3fd04025	1.6269575
189	0x3fdd7e4f	1.7304171
190	0x4173110b	15.191661
191	0x3fe06c3b	1.7533029
192	0x3fd3bb89	1.6541606
193	0x3ff6b4bc	1.9273906
194	0x3fe0e956	1.7571208
195	0x3fd71983	1.680466
196	0x3fca4c06	1.580445
197	0x400e2184	2.2207956
198	0x3ffbe9b2	1.9680693
199	0x3ff68ffb	1.9262689
200	0x3ff0ad66	1.8802917
201	0x41303bb7	11.014579
202	0x40f6b6a6	7.709796
203	0x402ee350	2.732624
204	0x3ff5b052	1.9194434
205	0x3fe602fc	1.7969661
206	0x400afa3c	2.171523
207	0x3feb82cc	1.8399291
208	0x3ff95649	1.9479457
209	0x40079806	2.1186538
210	0x40604904	3.5044565
211	0x41a56f1f	20.679258
212	0x401086a0	2.2582169
213	0x40012de7	2.0184267
214	0x40763dfb	3.847533
215	0x400ee4bf	2.2327116
216	0x3fe50fa1	1.7895395
217	0x400d4edf	2.207939
218	0x3ff9a9c2	1.9504931
219	0x3feb039d	1.8360478
220	0x40137647	2.304094
221	0x400efb79	2.2340987
222	0x40064131	2.097729
223	0x400a7992	2.16367
224	0x3ff3c28a	1.9043744
225	0x42ed67a4	118.70242
226	0x401a37b4	2.4096498
227	0x4035b6eb	2.8392894
228	0x40016bd2	2.0222058
229	0x4007c656	2.1214805
230	0x3fc6f9d3	1.554499
231	0x3fffca0b	1.9983534
232	0x40081ddc	2.1268225
233	0x400b9d88	2.18149
234	0x3fdf0a6b	1.7425054
235	0x3feb9f78	1.8408041
236	0x40100326	2.2501922
237	0x4015b5f9	2.3392317
238	0x4009aad2	2.151051
239	0x3fcc2d66	1.5951355
240	0x3ff6240b	1.922975
241	0x40b785c6	5.73508
242	0x3fe35b29	1.7762195
243	0x40025895	2.0366566
244	0x400524c1	2.0803683
245	0x4002b31a	2.0421815
246	0x3fd92a2a	1.6965992
247	0x3fe18ae0	1.7620506
248	0x3fd1b5fc	1.6383662
249	0x4003e442	2.0608068
250	0x3fe5972c	1.7936759
251	0x423b8a8f	46.88531
252	0x3fd637d4	1.6735787
253	0x3fde0488	1.7345133
254	0x3ff1bac3	1.888512
255	0x40270bd5	2.6100972

transformer.norm.weight f4 [1024]
0	0x3f3d3ea7	0.73923725
1	0x3eee0021	0.46484473
2	0x3ee2c582	0.44291312
3	0x3ef53480	0.47891617
4	0x3ebab907	0.3646929
5	0x3eb68d8d	0.3565487
6	0x3ecb74ec	0.39737642
7	0x3ea05365	0.31313625
8	0x3f1d778a	0.6151053
9	0x3f62a735	0.8853639
10	0x3f2fa01c	0.6860368
11	0x3f003f28	0.5009637
12	0x3f05f16d	0.5232151
13	0x3eb44c12	0.35214287
14	0x3f15a8e0	0.5846081
15	0x3f1106a7	0.56650776
16	0x3ebc24df	0.3674688
17	0x3eb5fb9f	0.35543534
18	0x3f0760dc	0.5288217
19	0x3f16caeb	0.5890338
20	0x3f2cb44c	0.6746261
21	0x3f02bf9d	0.5107363
22	0x3f425ada	0.7591988
23	0x3f05deab	0.5229289
24	0x3e511a44	0.20420176
25	0x3eded1ed	0.43519536
26	0x3f09827a	0.53714716
27	0x3ed581e5	0.41700664
28	0x3f3c1b8e	0.73479545
29	0x3f296635	0.6617158
30	0x3e6219cb	0.22080152
31	0x3e195b2c	0.14976186
32	0xbe33751b	-0.17525141
33	0x3ebd03b3	0.36916885
34	0x3ebc9744	0.36834157
35	0x3efe976c	0.497249
36	0xbe1a0300	-0.15040207
37	0x3dd07acd	0.101796724
38	0x3f0ce0ee	0.55030715
39	0x3f1f3603	0.6219179
40	0x3f0aaacf	0.54166883
41	0x3f21eaa0	0.63248634
42	0x3e6f7d7b	0.23387711
43	0x3f1f5021	0.6223164
44	0x3f444a0c	0.76675487
45	0x3f3a1b10	0.72697544
46	0x3f38040c	0.71881175
47	0x3ee356db	0.44402203
48	0x3f225aab	0.634196
49	0x3f056dc0	0.5212059
50	0x3f877fe8	1.0585909
51	0x3edd7673	0.43254432
52	0x3eab3858	0.33441424
53	0x3f37960d	0.71713334
54	0x3f01dab9	0.5072437
55	0x3ee0c466	0.4389984
56	0x3f1753bd	0.5911215
57	0x3ebb3bd9	0.36569098
58	0x3efb1088	0.4903605
59	0x3f2dc936	0.6788515
60	0x3eb03104	0.34412396
61	0x3ee7ad2f	0.45249316
62	0x3ee938eb	0.45551237
63	0x3df59579	0.119914
64	0x3efb6697	0.49101707
65	0x3f286f53	0.6579487
66	0x3e1ea835	0.15493853
67	0x3f2bba5b	0.6708123
68	0x3e39da36	0.18149647
69	0x3f60653a	0.8765446
70	0x3f43c906	0.7647861
71	0x3f399909	0.7249914
72	0x3f51ff65	0.82030326
73	0x3ea40018	0.32031322
74	0x3f4b95fe	0.79525745
75	0x3eba1605	0.36344925
76	0x3e7643e6	0.24049339
77	0x3eab00fa	0.33399183
78	0x3da5ca7e	0.08095263
79	0x3eef36e2	0.4672156
80	0x3f5dd03a	0.86645854
81	0x3e6227a1	0.2208543
82	0x3e312c92	0.17302158
83	0x3ef4e21d	0.4782876
84	0x3edbe0b3	0.4294487
85	0x3f1b4050	0.6064501
86	0xbd24c8be	-0.040230505
87	0x3f0e111f	0.55494875
88	0x3f81e65b	1.0148424
89	0x3f2632ab	0.64921063
90	0x3ef4d738	0.4782045
91	0x3e3aa512	0.18227032
92	0x3e526a1f	0.20548294
93	0x3f5f068a	0.8711935
94	0x3eb78c82	0.35849386
95	0x3f12e325	0.57377845
96	0x3f56930a	0.83818114
97	0x3efc39f6	0.4926297
98	0x3e6d143c	0.2315225
99	0x3eb16e2c	0.34654367
100	0x3f36aaba	0.7135426
101	0x3f1dc7cc	0.6163299
102	0x3e724d16	0.23662218
103	0x3f108e72	0.56467354
104	0x3efdd53d	0.4957675
105	0x3f13f92f	0.578021
106	0x3eadccf7	0.33945438
107	0x3eaae118	0.33374858
108	0x3ec942d8	0.3930881
109	0x3ec5cd14	0.38633025
110	0x3eb257f5	0.3483273
111	0x3eddf520	0.43351078
112	0x3f62d303	0.8860323
113	0x3e369392	0.17829731
114	0x3f1abd85	0.60445434
115	0x3f465742	0.77476895
116	0x3f5a03cf	0.8516206
117	0x3d82e700	0.06391716
118	0x3f31a38e	0.6939019
119	0x3f1d1300	0.61357117
120	0x3eb6991f	0.35663697
121	0x3f38f883	0.722542
122	0x3eb0cf31	0.34533074
123	0x3f0f3a65	0.5594848
124	0x3ef1b1af	0.47205874
125	0x3eb64de9	0.35606316
126	0x3eabe5d3	0.3357378
127	0x3eba9d53	0.36448154
128	0x3f36751c	0.71272445
129	0x3f51c7b6	0.8194536
130	0x3f2c7527	0.6736626
131	0x3fb6046c	1.42201
132	0x3f46447f	0.77448267
133	0x3f01cb25	0.507006
134	0x3f89aabc	1.0755229
135	0x3f10bf25	0.56541663
136	0x3f1b0423	0.6055319
137	0x3f3bbf46	0.73338735
138	0x3f4adc8c	0.7924278
139	0x3f259ab3	0.6468918
140	0xbe4cc9cf	-0.19998859
141	0xbe0c57b5	-0.13705333
142	0x3eb8c152	0.36084992
143	0x3f6e7c27	0.9315819
144	0x3f2ff89d	0.6873873
145	0x3e9e2f4b	0.30895457
146	0x3e94c456	0.29056042
147	0x3f3d8fdc	0.74047637
148	0x3f09faa9	0.538981
149	0x3ec78b27	0.38973352
150	0x3f21eaa2	0.63248646
151	0x3f162d64	0.5866301
152	0x3efc1346	0.49233454
153	0x3f72cf61	0.94847685
154	0x3f54643e	0.8296546
155	0x3f4e1985	0.8050769
156	0x3efe7082	0.49695212
157	0x3eacd15b	0.33753476
158	0x3f2e91a4	0.6819098
159	0x3e0742f0	0.13209128
160	0xbee221f0	-0.44166517
161	0x3ee30b02	0.44344336
162	0x3bf81a61	0.007571504
163	0x3f1317c3	0.5745813
164	0x3f6fdc56	0.9369558
165	0x3edc9100	0.43079376
166	0x3f03cb44	0.51482034
167	0x3d59b3b0	0.05314988
168	0x3e683567	0.22676621
169	0x3f1daa05	0.61587554
170	0x3f1f0249	0.6211286
171	0x3f27e281	0.6557999
172	0x3f3bdc2a	0.7338282
173	0x3f22142a	0.6331202
174	0x3edc44f0	0.43021345
175	0x3ef5bf1d	0.4799737
176	0x3f0e13e6	0.5549911
177	0x3ecf506f	0.40491053
178	0x3f3ac26e	0.72952926
179	0x3f3b2519	0.7310348
180	0x3e4c2895	0.19937356
181	0x3ed501fc	0.41603076
182	0x3f1806d7	0.59385437
183	0x3ee5f235	0.44911352
184	0x3f24654a	0.64217055
185	0x3f063c83	0.52436084
186	0x3e665105	0.22491844
187	0x3e9579c8	0.29194474
188	0x3f6e82cc	0.9316833
189	0x3f0f8830	0.5606718
190	0x3f5cc2f4	0.86234975
191	0x3e3fbe10	0.18724847
192	0x3eb89619	0.36052015
193	0x3eb4ba62	0.3529845
194	0x3f095088	0.53638506
195	0x3ef03abd	0.46919814
196	0x3eb8bc3e	0.36081117
197	0x3eaf0b52	0.34188324
198	0x3f57d493	0.8430874
199	0xbd87bce4	-0.06627825
200	0x3ded73e7	0.11594372
201	0x3f01a5ff	0.50643915
202	0x3f0a5663	0.54038066
203	0x3ee5c22e	0.4487471
204	0x3dff5acd	0.12468491
205	0x3f8110ab	1.0083212
206	0x3f4779de	0.7792033
207	0x3eba8728	0.3643124
208	0x3f54ac8f	0.83075804
209	0x3f4cec80	0.8004837
210	0x3f293ae8	0.6610551
211	0xbeb29187	-0.34876654
212	0x3efe1514	0.49625456
213	0x3f220579	0.632896
214	0x3ed4bd49	0.41550663
215	0x3f2f117f	0.6838607
216	0x3daabf1c	0.083372325
217	0x3f0e475d	0.5557764
218	0x3f2971cf	0.66189283
219	0x3ec6102a	0.38684207
220	0x3f6a11bd	0.91433316
221	0x3e5f7288	0.21821034
222	0x3ee4853e	0.44632906
223	0x3eeb4f76	0.4595906
224	0x3f2530d0	0.64527607
225	0xbd3b5df6	-0.045743905
226	0x3f3034fe	0.6883086
227	0x3f07ba5b	0.5301873
228	0x3ef538f9	0.4789503
229	0x3ee623b0	0.44949102
230	0x3f156133	0.5835144
231	0x3e939d16	0.28830785
232	0x3f1c548a	0.61066496
233	0x3d95b21d	0.07309363
234	0xbeedaecf	-0.4642243
235	0x3ea88f9d	0.32922068
236	0x3f529786	0.82262456
237	0x3f514c96	0.81757486
238	0x3f11b60e	0.5691842
239	0x3f0d32e4	0.5515578
240	0x3ec1c1cc	0.37843168
241	0x3f060637	0.52353233
242	0x3eca3a91	0.39497808
243	0x3f19841e	0.5996722
244	0x3f62b88c	0.88562846
245	0xbd759040	-0.05995202
246	0x3f230cfa	0.63691676
247	0x3e9cae0f	0.30601546
248	0x3f2624c9	0.6489988
249	0x3e4639f1	0.1935804
250	0x3f2bd65e	0.67123973
251	0x3eefa9a9	0.46809128
252	0x3ea30235	0.3183762
253	0x3f1f833a	0.6230961
254	0x3e861336	0.26186532
255	0x3e9d721a	0.30751115

transformer.norm.bias f4 [1024]
0	0xbe9e083b	-0.30865654
1	0x3e05b72b	0.13058154
2	0xbdbb0988	-0.09132677
3	0x3d1c0a1f	0.03809559
4	0x3e38d791	0.18050982
5	0x3c85aca2	0.01631767
6	0x3d1ea913	0.03873546
7	0x3dc5dea6	0.096616074
8	0xbde30d01	-0.11086465
9	0x3e95c8c0	0.29254723
10	0x3e08e8f5	0.13370116
11	0x3c314d77	0.010821692
12	0xbc76ae23	-0.015056166
13	0x3dd4819f	0.10376286
14	0xbd70f83b	-0.05883048
15	0xbcab60c1	-0.02092016
16	0xbdfa8ea2	-0.12234236
17	0xbe582eaf	-0.21111558
18	0xbdd4cf4f	-0.103911035
19	0xbe30316b	-0.17206351
20	0xbdaeb4be	-0.085305676
21	0xbe02a5a8	-0.12758505
22	0xbe566a16	-0.20938906
23	0x3c3c679c	0.011499312
24	0xbdafb035	-0.08578531
25	0xbd7263ef	-0.059177335
26	0x3e862ae8	0.2620461
27	0xbd053b1a	-0.032527067
28	0x3d9a76d6	0.075421974
29	0xbd8bc228	-0.06824142
30	0xbdf5c195	-0.119998135
31	0xbe4ed2cc	-0.201976
32	0x3dfeaafc	0.124349564
33	0x3d0541f6	0.03253361
34	0xbdbf7e74	-0.09350291
35	0x3da44ce1	0.08022476
36	0xbe03f0f2	-0.12884882
37	0xbcad2651	-0.021136435
38	0x3c9f20d7	0.019424839
39	0xbe6e3ffe	-0.23266599
40	0xbe18a798	-0.14907682
41	0xbe71dcfa	-0.23619452
42	0x3cf6c41d	0.030122811
43	0xbe165795	-0.14681847
44	0xbe30e69f	-0.17275475
45	0x3e1948fc	0.14969248
46	0x3c80b78d	0.015712524
47	0xbdd81e91	-0.10552705
48	0xbd4d6cca	-0.050152577
49	0xbd0cf930	-0.03441733
50	0x3df33ea4	0.11877182
51	0x3d7cef2d	0.061751533
52	0xbcf8c19a	-0.030365754
53	0xbe009c79	-0.1255969
54	0x3d810fcc	0.06301841
55	0x3d8b7efe	0.06811331
56	0x3d8d108c	0.06887922
57	0xbdcd9e2e	-0.10039936
58	0x3dbb57ec	0.09147629
59	0xbd73ef24	-0.059554234
60	0x3dbc4024	0.09191921
61	0xbd0fdc52	-0.035122223
62	0xbcc3854d	-0.023867274
63	0x3d5261c4	0.051362768
64	0xbe8dcbaa	-0.27694446
65	0xbe208b44	-0.15678126
66	0xbd5620dd	-0.052277435
67	0x3acb2137	0.001549757
68	0x3ba9036e	0.0051578796
69	0x3e48418c	0.19556254
70	0xbd3a299d	-0.04544984
71	0xbde1dfac	-0.1102899
72	0xbd62e024	-0.05538954
73	0x3e007709	0.12545408
74	0x3cf40499	0.029787349
75	0xbe7b942a	-0.24568239
76	0x3d1fde8f	0.039030608
77	0xbebcdabc	-0.3688563
78	0xbca6ffa2	-0.020385567
79	0x3e1d5848	0.15365708
80	0x3d35ee88	0.044416934
81	0xbe79277e	-0.24331471
82	0xbe201784	-0.1563397
83	0x3d2daea3	0.042402875
84	0xbea115d5	-0.3146197
85	0x3e971f65	0.2951614
86	0xbd775585	-0.060384292
87	0x3e4eb3fe	0.20185849
88	0x3dcc5c1b	0.09978505
89	0x3d8b18f2	0.06791867
90	0xbd0febe3	-0.03513707
91	0xbd275132	-0.04084892
92	0x3db0a34e	0.08624898
93	0xbdac2d8e	-0.08407126
94	0x3d5c16fc	0.053732857
95	0xbe58113a	-0.21100321
96	0xbdb2e3a4	-0.08734825
97	0xbca8994c	-0.02058091
98	0x3d8de1ac	0.06927809
99	0x3c6ee143	0.014580074
100	0xbe01d6ce	-0.12679598
101	0x3e53e7f3	0.2069395
102	0x39a0983e	0.00030631007
103	0xbd9fc238	-0.07800716
104	0xbd6a8138	-0.05725214
105	0x3dfb425d	0.12268517
106	0xbe39918c	-0.18121928
107	0x3a6f6d55	0.0009133418
108	0x3e1273cd	0.14301987
109	0x3dc4993a	0.09599538
110	0x3defeb1f	0.11714768
111	0xbca830e1	-0.02053112
112	0xbe945c80	-0.28976822
113	0xbe050dff	-0.1299362
114	0x3ca3d7df	0.020000396
115	0xbe45d704	-0.19320303
116	0xbc2a94d4	-0.01041146
117	0x3dad30d4	0.08456579
118	0x3d94134f	0.07230245
119	0x3d902534	0.07038346
120	0xbd2ddb77	-0.042445626
121	0x3e9685c7	0.2939894
122	0xbd3440ff	-0.044007298
123	0xbd6e38e7	-0.058159735
124	0xbe240885	-0.16018875
125	0x3e9ac9e4	0.30232155
126	0xbddc56fa	-0.10758777
127	0xbe43cd6a	-0.19121328
128	0xbdc66051	-0.0968634
129	0xbdd36f48	-0.103239596
130	0x3e40348c	0.18770045
131	0xbe0b8804	-0.13626105
132	0x3d8b9210	0.068149686
133	0xbc3910b2	-0.011295484
134	0xbcebfb13	-0.028806245
135	0xbd687b64	-0.0567583
136	0xbe0eddea	-0.13951841
137	0xbdd6f933	-0.1049675
138	0xbe0766f9	-0.13222875
139	0x3ddd98ee	0.10820185
140	0x3d97d640	0.07413912
141	0xbe850feb	-0.25988707
142	0x3e00b2bd	0.12568183
143	0x3dfab5a4	0.122416764
144	0x3dbee709	0.0932141
145	0x3db0673b	0.0861344
146	0xbb1cd74a	-0.0023932033
147	0xbd3dc1dc	-0.046327457
148	0x3e877518	0.26456523
149	0x3e17e0c4	0.14831835
150	0xbd2fce7f	-0.04292154
151	0xbdcb0c89	-0.099145
152	0x3da4e38a	0.08051212
153	0xbda2265a	-0.07917471
154	0x3d13c168	0.03607312
155	0xbd1960f7	-0.03744599
156	0xbd6e78a3	-0.058220517
157	0x3d3ac37c	0.045596585
158	0xbd148c9e	-0.036266916
159	0x3cee43c0	0.02908504
160	0xbdb6abf2	-0.08919515
161	0x3d89a9c9	0.06721837
162	0x3ce8779e	0.02837735
163	0x3c6b2a1e	0.014353303
164	0x3daa352a	0.083109215
165	0x3e5865de	0.21132609
166	0x3d6a7679	0.05724189
167	0x3d007739	0.0313637
168	0x3d62eae7	0.0553998
169	0xbc87adbf	-0.01656234
170	0x3d361d87	0.044461753
171	0xbe08fe09	-0.13378157
172	0x3d58c91a	0.05292616
173	0xbe334206	-0.17505655
174	0xbdb4fe27	-0.08837538
175	0xbcef2a7d	-0.029195065
176	0x3e0244aa	0.12721506
177	0x3e2c2e55	0.1681455
178	0x3d8e08de	0.06935285
179	0xbe557b74	-0.20847875
180	0xbdcc2c0b	-0.09969338
181	0xbc4d926c	-0.012547117
182	0xbd206e28	-0.039167553
183	0xbc824ca8	-0.015905693
184	0x3ea23224	0.3167888
185	0x3e09ee1d	0.1346974
186	0x3d34b94a	0.044122018
187	0xbe4b667f	-0.19863318
188	0xbdee983f	-0.116501324
189	0xbd1bc759	-0.03803191
190	0x3d17be40	0.03704667
191	0xbd0dae0f	-0.034589823
192	0x3e542284	0.20716292
193	0xbe57ee7c	-0.21087068
194	0xbe4994fb	-0.19685738
195	0xbe05b2ca	-0.13056484
196	0xbcf80ae9	-0.03027864
197	0xbdcaf57c	-0.09910104
198	0x3e4995ad	0.19686003
199	0xbe911aef	-0.2834086
200	0x3d870bfe	0.06594084
201	0x3e69531c	0.2278561
202	0xbe055bac	-0.13023251
203	0xbdc07449	-0.0939718
204	0xbd89d892	-0.06730761
205	0xbd9bd419	-0.07608814
206	0xbe9c5d74	-0.3054005
207	0x3c9b3dc8	0.018950358
208	0xbe80fec0	-0.2519436
209	0xbc92a9e3	-0.017903274
210	0x3e1692a9	0.14704384
211	0x3de9bb45	0.11412672
212	0xbe436326	-0.19080791
213	0xbedcf28d	-0.43153802
214	0x3e2501e4	0.16114002
215	0x3afab750	0.0019128118
216	0xbc476339	-0.012169653
217	0x3cfa4afe	0.030553337
218	0xbc5c544e	-0.013447834
219	0x3e1f0594	0.15529472
220	0x3e863ba5	0.2621738
221	0x3d6301f1	0.055421773
222	0x3b0e0ebb	0.002167626
223	0x3be4770c	0.0069721993
224	0x3e6bdef7	0.23034273
225	0x3d2dd2fa	0.04243753
226	0xbe27f818	-0.16403234
227	0x3cc167b0	0.023609012
228	0xbc9fbe1d	-0.019499833
229	0xbe0c798c	-0.13718241
230	0xbe1d0081	-0.15332223
231	0x3e8fbfa7	0.28075907
232	0xbdb813eb	-0.08988174
233	0x3d82fe23	0.06396129
234	0xbd07b78f	-0.03313404
235	0x3df69be5	0.12041453
236	0xbddc7ce6	-0.1076601
237	0xbdaa4f14	-0.08315864
238	0xbb9200a8	-0.0044556446
239	0x3e2e84a5	0.17042787
240	0x3d6ecf20	0.058303
241	0x3e68f30d	0.22748967
242	0x3dccdd44	0.100031406
243	0x3dc32ad4	0.09529653
244	0xbd8cbbb8	-0.06871742
245	0xbdb1a277	-0.08673566
246	0x3d7868dd	0.06064688
247	0xbe1140a8	-0.1418482
248	0xbe9d6544	-0.30741322
249	0xbda77384	-0.0817633
250	0xbdfc6695	-0.123242535
251	0x3e97a6cd	0.29619446
252	0xbda7f99a	-0.082019046
253	0x3d46de34	0.048551753
254	0x3c9dbaa9	0.019254046
255	0x3e28a631	0.16469647

transformer.norm.running_mean f4 [1024]
0	0x3c8fac92	0.017538343
1	0x3c80f4ee	0.015741792
2	0xba62181e	-0.00086248096
3	0xbc46070d	-0.012086642
4	0xbb0ed729	-0.0021795726
5	0xbc9e2919	-0.019306706
6	0x3a163796	0.0005730329
7	0xbc0adc54	-0.008475382
8	0xbb8022aa	-0.0039103823
9	0x3c73b1a2	0.014873894
10	0x3c0d712c	0.008632939
11	0x3921334f	0.0001537327
12	0xbb6d6839	-0.0036225452
13	0xbaf62bdc	-0.0018781382
14	0x3a5ac9d0	0.00083461124
15	0x3c4c9915	0.0124876695
16	0xbb9e3aeb	-0.004828801
17	0x3be23251	0.006902971
18	0xbbcd1a0a	-0.0062592076
19	0xbb076721	-0.0020660835
20	0xbbe5ccef	-0.0070129554
21	0x3b4911f1	0.003068086
22	0x3c463072	0.012096511
23	0xbaffbd75	-0.0019511419
24	0xbbb33d45	-0.0054699504
25	0x3bbfa0e3	0.0058480366
26	0xb99f34c8	-0.00030366168
27	0x3b8e89d3	0.004349926
28	0x3b07d42e	0.0020725834
29	0x3b10908a	0.0022058808
30	0x3b23f894	0.002501999
31	0xbb0bc007	-0.0021324174
32	0xbb8f17a4	-0.004366832
33	0x3b9cdd7d	0.0047871456
34	0xbb8b2807	-0.004246715
35	0xbbe6ee52	-0.007047453
36	0x3b7306ea	0.0037082979
37	0x3bbb20ed	0.005710712
38	0x3b49f326	0.0030815094
39	0xbb936f08	-0.00449932
40	0xbb0af7bf	-0.0021204797
41	0xbb1cadf1	-0.0023907388
42	0x3b8fd3b8	0.0043892525
43	0x3b1878e8	0.0023265425
44	0x3b384d97	0.002812242
45	0x3c831af1	0.016004058
46	0x3b10ed89	0.0022114238
47	0x3b9f2156	0.004856269
48	0xbc1c700a	-0.009548197
49	0x3c7511da	0.014957869
50	0xbc611396	-0.01373758
51	0xbb93a566	-0.004505801
52	0x3c1ed9e0	0.0096955
53	0xba5cd46a	-0.0008423986
54	0x394a866d	0.00019314299
55	0xbb7f250f	-0.0038932
56	0x3c6b649c	0.014367249
57	0xbc151aef	-0.00910066
58	0x3a98b887	0.0011651673
59	0xbc20ffc5	-0.009826605
60	0x3ab0049b	0.0013429107
61	0xbbf6656e	-0.0075194156
62	0x3b76a6ac	0.0037635965
63	0xbb6f42a0	-0.0036508217
64	0xba45acb3	-0.0007540688
65	0xbc558247	-0.013031549
66	0xbb11a742	-0.0022224938
67	0xbac62e98	-0.0015120087
68	0xbb2b11b5	-0.0026103084
69	0xbbfeb2de	-0.0077727875
70	0xbc808e6d	-0.015692914
71	0xbb86caa5	-0.0041135126
72	0xbb41fb9c	-0.0029599434
73	0xbb73c0ac	-0.0037193699
74	0x3bf685c5	0.007523271
75	0x3c8af71e	0.016963538
76	0xbb69ffbb	-0.0035705406
77	0x3b4ee320	0.0031568483
78	0xbb9314dd	-0.004488571
79	0xbbc8eaad	-0.006131491
80	0xbb55ea0a	-0.003264072
81	0xbc241b94	-0.010016341
82	0xbbdcb4f4	-0.0067354385
83	0x3b800915	0.0039073327
84	0x3c300269	0.010742762
85	0xbc1fc459	-0.009751403
86	0xbab2c910	-0.0013640244
87	0xb9f44b0b	-0.00046595218
88	0xbae40f8f	-0.0017399656
89	0x39e1455f	0.0004296703
90	0xbc199a41	-0.009375156
91	0xbb3282d3	-0.0027238622
92	0xbb10e83f	-0.0022111086
93	0x3b28d7aa	0.0025763311
94	0x3b9aef36	0.004728223
95	0x3c36b43d	0.011151371
96	0x3befe184	0.0073205847
97	0x3b4730b6	0.0030394024
98	0x3bcca24e	0.006244934
99	0x37845acc	1.5777907e-05
100	0x3c322b2c	0.010874551
101	0xb889aaab	-6.5644585e-05
102	0xbaa746d7	-0.0012762201
103	0xbc5098bb	-0.012731726
104	0xbbdcd5ad	-0.0067393393
105	0xba408767	-0.0007344395
106	0xbb018d7c	-0.001976817
107	0x3c47a312	0.012184875
108	0xb99c7425	-0.00029841173
109	0xba0be828	-0.0005337023
110	0x3bafdd97	0.0053669917
111	0x3b59ce4d	0.0033234537
112	0xbc87ce43	-0.016577845
113	0x3b7fe8de	0.0039048712
114	0x3bb1fd3b	0.0054317988
115	0xba9f9411	-0.0012174865
116	0x3c64d1be	0.013966022
117	0xbb0536ac	-0.0020326776
118	0xbbe8dfc4	-0.007106753
119	0xbc49720f	-0.01229526
120	0xbbc73b5d	-0.0060800747
121	0x3b4b0f43	0.0030984438
122	0x3b3e24eb	0.0029013704
123	0xbc7cd275	-0.015431036
124	0x3b44e65c	0.0030044531
125	0x3b4afabf	0.003097221
126	0xbba3d09d	-0.004999234
127	0xbb691370	-0.0035564564
128	0xbb092b07	-0.0020930187
129	0x3ba95201	0.0051672463
130	0xbb18730b	-0.002326193
131	0x3bdb7ba4	0.0066980887
132	0x3c163c00	0.009169579
133	0x3c7ff11d	0.015621451
134	0x3b679bbd	0.003534063
135	0x395860d7	0.00020635441
136	0xbad01b20	-0.0015877225
137	0x3bc4e179	0.0060083237
138	0x3b80c804	0.0039300937
139	0xbc1a9fa4	-0.009437475
140	0x3cce14e0	0.025156438
141	0x3bb2e149	0.005458985
142	0xbab7aef3	-0.0014013931
143	0xbc3c7777	-0.011503092
144	0x3c036aae	0.00802104
145	0x3c06cb81	0.00822723
146	0x3a65b534	0.0008762658
147	0xbbf88ec1	-0.007585377
148	0x3aafea18	0.0013421206
149	0xbbc10d6d	-0.005891493
150	0xbc40e4e5	-0.011773323
151	0xba978a7b	-0.0011561656
152	0x3bdf34bb	0.006811706
153	0xbc2aa448	-0.010415144
154	0xbb350dbd	-0.0027626597
155	0xbc9e02ed	-0.019288504
156	0xbbe8ee9f	-0.007108524
157	0xb99bed01	-0.00029740485
158	0xba9eaf32	-0.0012106656
159	0x39abd2c0	0.00032772683
160	0x3c53019b	0.012878801
161	0xb976e0c0	-0.00023544114
162	0xbab17450	-0.0013538692
163	0x3c4f1483	0.012639168
164	0xbcaf0b87	-0.021367801
165	0xbb1d2be2	-0.0023982455
166	0x3b5d5361	0.0033771622
167	0xb92199fd	-0.00015411522
168	0xba264567	-0.0006342739
169	0x3bbbf058	0.0057354383
170	0x3c0445bc	0.008073267
171	0x3c870d20	0.01648575
172	0x3c53ef59	0.012935483
173	0xbac20df5	-0.0014805185
174	0xb8efaf6f	-0.00011429085
175	0xbc2a695a	-0.010401094
176	0x3bc524ff	0.006016373
177	0xbc14039a	-0.009034062
178	0xba89a406	-0.0010501153
179	0xbaada22b	-0.0013247182
180	0xbab6441c	-0.0013905796
181	0xbb924adf	-0.0044644917
182	0x3a46912e	0.0007574734
183	0xbb423cc2	-0.0029638265
184	0x3c2463c5	0.010033553
185	0xbbc9635e	-0.0061458787
186	0x3b38f518	0.002822226
187	0x397f145e	0.00024326282
188	0xbcb6cc42	-0.022314195
189	0x3c0d3360	0.008618206
190	0xbc98ef64	-0.018668838
191	0xbc26adc8	-0.010173269
192	0xbb441860	-0.0029921755
193	0xbbbf1349	-0.0058311564
194	0x3b0f1e71	0.0021838213
195	0xb949bc13	-0.00019238917
196	0x3afa7dba	0.0019110956
197	0xbc0601bc	-0.008179124
198	0x3c67fad9	0.014158928
199	0xbb9ae0d2	-0.0047265077
200	0x3b9cb9f2	0.0047829086
201	0xbbd0092c	-0.0063487496
202	0xbb93dda5	-0.004512506
203	0x3b7b9ec3	0.003839419
204	0xb9107326	-0.00013775806
205	0x3c134bd0	0.008990243
206	0xba1ae88c	-0.0005909286
207	0xbaf646bb	-0.001878939
208	0x3ac08429	0.0014687824
209	0x3c7ccaa3	0.015429172
210	0xbbb1d38b	-0.005426829
211	0xb984caa7	-0.0002532799
212	0xbbbb9277	-0.005724247
213	0x3bc386c9	0.0059669954
214	0x3a28b080	0.0006434992
215	0xbc658f04	-0.014011148
216	0x3b803448	0.0039124824
217	0x3b29f5e5	0.0025933918
218	0xba899166	-0.0010495603
219	0x3b88972f	0.004168413
220	0x3cc8338d	0.024438644
221	0x3c30fe1b	0.010802771
222	0xbbb4e454	-0.005520383
223	0x3ba6f2ae	0.0050948476
224	0x3c261c8f	0.010138645
225	0x3bc64969	0.0060512316
226	0xbc10c444	-0.008835856
227	0x3b4425ee	0.0029929834
228	0xbb4d2815	-0.0031304408
229	0xbbdd8817	-0.006760608
230	0xbc057aa6	-0.008146917
231	0xbb19874f	-0.0023426597
232	0xbc025280	-0.00795424
233	0x3b10777f	0.0022043881
234	0x3bb467dc	0.005505545
235	0xb86b534d	-5.6105946e-05
236	0xbb8af9d8	-0.0042412095
237	0x3b9c31b5	0.0047666677
238	0xbbfd4ccf	-0.0077301036
239	0xbb45de2e	-0.0030192244
240	0xbb216845	-0.00246288
241	0x39ed9c36	0.0004532055
242	0xbb7f1bef	-0.0038926562
243	0xba15acbc	-0.00057096384
244	0xbb19b16a	-0.0023451694
245	0xb9913421	-0.00027695394
246	0x3a3bc589	0.0007162919
247	0xbacc5c83	-0.0015591535
248	0xbc36fe60	-0.011169046
249	0x3c1a6ff1	0.009426103
250	0xbb8ec4cc	-0.004356956
251	0xbab4f700	-0.0013806522
252	0xbbe5077a	-0.0069894167
253	0xbbecf99d	-0.0072319047
254	0xba445c1a	-0.0007490531
255	0xbb2b6bc4	-0.0026156763
