xls_r_sqa/models/sqa/xls-r-2b/model_2b_lay10_subset.pt (torch, 528269 bytes, 67 tensors)

norm_input.weight f4 [1920]
0.4869535 0.31351915 0.48884284 0.51625067 0.7566312 0.27886173 0.40051517 1.126543
0.5367504 0.18667011 0.8093523 0.43786097 0.6817146 0.6524953 0.41884866 0.8672144
0.15972522 0.65502167 0.06234759 0.2892347 0.49195296 0.4077365 0.42756662 0.44819432
0.5990876 0.7181811 0.32705835 -0.15175606 0.69795734 1.1969433 0.10213891 0.22849429
0.42697668 0.4455465 0.54088825 0.676101 0.54798 0.70534664 1.0468233 -0.16304077
0.48852286 0.69746184 0.5273847 0.27792847 0.5318276 0.31669018 0.41081864 0.7705197
0.3818886 0.34805724 0.35966945 0.48452967 0.30388942 0.95155686 0.54786086 0.5737058
0.093440205 0.5711824 0.4799701 0.5201438 0.40886223 0.94424874 0.75181997 0.18111254
0.8240442 0.23845847 0.22363752 0.39561424 0.58001065 0.5233706 0.5188072 0.49880764
0.6260452 1.3168232 0.40040675 0.6443899 0.50666976 0.5243808 0.5387757 0.30112058
0.4595738 0.57707953 0.6514195 0.72551167 0.4660055 0.72881144 0.6336342 0.28360534
0.8908376 0.5630428 0.5982807 0.61189014 0.7248469 0.4554157 0.35060653 0.21180421
0.6353491 0.47501162 0.55473524 0.33043402 0.59308267 0.51424253 0.24584119 0.5188273
0.14961688 0.5186488 0.4291007 0.3911183 0.44515678 0.4039834 0.9047288 -0.09815861
0.60612994 0.61209404 0.7637877 0.22380331 0.69544566 0.38879603 0.44491106 0.306685
0.57902527 0.5118639 0.50389516 0.5722892 0.4486163 0.67139274 0.4280417 0.38245445
0.32951275 0.8239905 0.6783384 -0.08020484 0.60426736 0.09282771 0.6770279 0.5772182
0.53039354 0.78297883 0.2256503 0.3083976 0.35693482 0.5615668 0.5768161 0.13347647
0.56180304 0.49672702 0.4930584 0.6106092 0.5924283 0.25165907 0.84219533 0.59782684
0.74052733 0.60519886 0.35412604 0.3597426 0.38603228 0.16442446 0.34999862 0.2868545
0.5813045 0.22074969 0.44019386 0.4487491 0.61310005 0.35381648 0.3682925 0.853247
0.29146114 0.37113926 0.5381014 0.4600119 0.56021035 0.29790547 0.5509492 0.34748816
0.6566629 0.67639256 0.54529285 0.5007957 0.4936651 0.3972505 0.59554315 0.85277164
0.37254506 0.6115081 0.705068 0.3696162 0.05302112 0.5102555 0.69514835 0.4453238
0.52969533 0.35623014 0.77221406 0.50766397 0.14489695 0.4856185 0.46651363 0.22406971
0.46512547 0.8410895 0.74284357 0.7479534 0.67464495 0.94171596 0.44794738 0.36738515
0.26597062 0.65854156 0.52897704 0.84743047 0.45722476 0.5367386 0.5567155 0.6670846
0.628672 0.4430221 0.21592079 0.5657423 0.9112488 0.70241475 0.8470966 0.4551276
0.46458855 0.65808606 0.37995967 0.21599643 0.69807845 0.59173715 0.19741149 0.50753677
0.57368076 0.38612077 0.34750795 0.53122306 0.8930315 0.42537227 0.4069299 -0.08203575
0.59700614 0.60402614 0.9508908 0.5918939 0.19645306 0.49817857 0.6487941 0.4838225
0.9818687 0.57021123 0.35893556 0.78756225 0.28481257 0.10530155 0.47463056 0.3628291
00000000: f851 f93e 9585 a03e 9c49 fa3e 0129 043f
00000010: 95b2 413f f7c6 8e3e 5310 cd3e 9032 903f
00000020: 7968 093f 7326 3f3e b631 4f3f 502f e03e
00000030: d984 2e3f ef09 273f 5573 d63e c301 5e3f
00000040: 028f 233e 80af 273f 3060 7f3d 9216 943e
00000050: 42e1 fb3e d7c2 d03e 03ea da3e ba79 e53e
00000060: ce5d 193f b7da 373f 3174 a73e f165 1bbe
00000070: 55ad 323f 7035 993f 342e d13d 68fa 693e
00000080: b09c da3e ac1e e43e a777 0a3f f514 2d3f
00000090: 6b48 0c3f 9991 343f 4efe 853f 29f4 26be
000000a0: ab1f fa3e dc8c 323f af02 073f a44c 8e3e
000000b0: db25 083f 3725 a23e d256 d23e c740 453f
000000c0: e786 c33e 8f34 b23e 9826 b83e 4614 f83e
000000d0: 6597 9b3e 3b99 733f 9c40 0c3f 62de 123f
000000e0: 945d bf3d 0339 123f a4be f53e 2528 053f
000000f0: 6456 d13e 49ba 713f 4677 403f 9175 393e
00000100: 90f4 523f 752e 743e 3c01 653e f38d ca3e
00000110: 947b 143f 9efb 053f 8cd0 043f b763 ff3e
00000120: 8044 203f aa8d a83f 1d02 cd3e bdf6 243f
00000130: 1cb5 013f d23d 063f 34ed 093f 7a2c 9a3e
00000140: 424d eb3e 7cbb 133f 6ec3 263f 22bb 393f
00000150: 4698 ee3e 6393 3a3f da35 223f b834 913e
00000160: ef0d 643f 9323 103f ed28 193f d5a4 1c3f
00000170: 918f 393f 3f2c e93e b382 b33e 34e3 583e
00000180: 3da6 223f b934 f33e 2103 0e3f a62e a93e
00000190: 44d4 173f 66a5 033f cbbd 7b3e ded1 043f
000001a0: 2b35 193e 2bc6 043f 16b3 db3e a840 c83e
000001b0: 97eb e33e ead6 ce3e 4e9c 673f 6207 c9bd
000001c0: 552b 1b3f 32b2 1c3f 9787 433f b22c 653e
000001d0: ba08 323f 4610 c73e 62cb e33e d105 9d3e
000001e0: 003b 143f 8309 033f 46ff 003f 8c81 123f
000001f0: 09b1 e53e 65e0 2b3f 4828 db3e 12d1 c33e
00000200: e5b5 a83e 0bf1 523f 96a7 2d3f 6f42 a4bd
00000210: 44b1 1a3f 741c be3d b351 2d3f 92c4 133f
00000220: dfc7 073f 4d71 483f df10 673e 4ae6 9d3e
00000230: 29c0 b63e d8c2 0f3f 38aa 133f 0eae 083e
00000240: 53d2 0f3f 0153 fe3e 2772 fc3e e250 1c3f
00000250: 62a9 173f 75d9 803e 1d9a 573f 2e0b 193f
00000260: 3393 3d3f 50ee 1a3f 0250 b53e 2f30 b83e
00000270: 06a6 c53e e35e 283e 0533 b33e 98de 923e
00000280: 5fd0 143f 350c 623e 1761 e13e 71c2 e53e
00000290: 20f4 1c3f 6f27 b53e d690 bc3e 656e 5a3f
000002a0: 653a 953e f705 be3e 03c1 093f ae86 eb3e
000002b0: f269 0f3f 1187 983e 020b 0d3f f8e9 b13e
000002c0: 0f1b 283f 1028 2d3f 5098 0b3f 2634 003f
000002d0: acc1 fc3e 6b64 cb3e 8475 183f 3e4f 5a3f
000002e0: 3abe be3e cb8b 1c3f 567f 343f 563e bd3e
000002f0: ad2c 593d 1ba0 023f 3ef5 313f 7b01 e43e
00000300: 1d9a 073f cc63 b63e d2af 453f 44f6 013f
00000310: de5f 143e fda2 f83e e0da ee3e 8872 653e
00000320: ed24 ee3e a451 573f ff2a 3e3f e079 3f3f
00000330: 88b5 2c3f 4c14 713f 5c59 e53e e819 bc3e
00000340: 4d2d 883e 2e96 283f 0a6b 073f 34f1 583f
00000350: 5d19 ea3e b367 093f e884 0e3f 0ec6 2a3f
00000360: a6f0 203f cbd3 e23e 571a 5d3e 7dd4 103f
00000370: 9a47 693f 74d1 333f 53db 583f 7c06 e93e
00000380: 8dde ed3e 5478 283f 138a c23e 2b2e 5d3e
00000390: 45b5 323f 167c 173f 3d26 4a3e eeed 013f
000003a0: bedc 123f 9fb1 c53e 90ec b13e 3cfe 073f
000003b0: b69d 643f 65ca d93e 1e59 d03e 5c02 a8bd
000003c0: 65d5 183f 75a1 1a3f 946d 733f 5c86 173f
000003d0: fe2a 493e 4311 ff3e 5f17 263f 95b7 f73e
000003e0: bf5b 7b3f 5df9 113f 67c6 b73e ae9d 493f
000003f0: f4d2 913e 57a8 d73d c702 f33e bcc4 b93e

norm_input.bias f4 [1920]
-0.020892791 0.00069713866 0.0028844501 -0.0056932876 -0.004316447 0.0075031994 0.0014678179 -0.010912753
0.0039066635 0.008459515 -0.00028181882 0.00030548425 -0.015303312 0.0010206752 -0.0011474673 -0.017408306
0.0028438638 0.0036055564 -0.012553921 0.0071059796 -0.0042046327 0.0044262446 0.0014379617 0.0086640315
0.005905859 0.008401832 -4.992066e-05 -0.00037526328 -0.038368937 -0.04383772 0.002652408 -0.0018999097
0.0035907486 0.00085639604 -0.023505319 0.016323026 0.02306139 0.008984039 -0.025219636 0.003036212
-0.020245941 0.013732333 -0.0045008175 0.0010047962 -0.010254956 -0.0014997836 -0.00051610416 -0.00514559
-0.006070843 -0.00757021 0.010120843 0.009037295 -0.00036347582 -0.003010638 0.011091077 -0.0018106584
0.00096240337 -0.007916287 -0.00022240006 0.0032870783 -0.0033583841 0.038701657 -0.006799748 -0.0015775602
-0.013858462 0.0041587325 0.007394484 -0.0027364092 0.004101454 -0.00045764362 0.00077691005 -0.012671283
-0.0017333226 -0.029045055 0.00036849608 0.01922848 -0.013803597 -0.003826523 -0.010032332 0.00067489373
-0.0020820769 0.0065100603 -0.0069425097 -0.020682937 -0.001125115 0.0077341152 -0.011785466 0.004263145
-0.02012076 -0.009227643 -0.0065477616 0.009630463 0.014936666 0.012095515 -0.021737004 -0.0008055582
-0.06327905 -0.0030600147 0.013519492 -0.0034380325 -0.022465646 -0.004938881 -0.0015768077 -0.0032680014
-0.0138185145 0.0030538023 0.0027340886 0.0019537653 0.013901121 0.0039181523 0.004161662 0.00014341292
0.01208872 0.002432788 -0.017984826 0.006012365 -0.008368909 -0.004992478 -0.0065485723 -0.0045737345
0.00029837215 -0.017400187 -0.0003144097 -0.011488292 0.017023014 0.005951644 -0.014549075 -0.0017987904
-0.0029671295 -0.01994925 0.0001915758 0.0020905246 -0.00033523046 0.003814172 -0.0027780002 -0.017666299
0.0044573294 0.011813694 0.0010011817 0.0045098416 0.00020824555 -0.0057692262 -0.004659508 0.0046349526
0.016848488 -0.005114319 -0.009519892 -0.0021214448 -0.00012788657 0.019028466 0.0177491 0.012855249
-0.011868604 -0.014013034 0.009308148 0.012651134 -0.006659798 -0.002770742 0.006060892 0.00033476134
-0.017035548 -0.005908299 0.0051994678 -0.0051735104 -0.004163893 0.0032634477 0.0031235563 -0.015394352
-0.002362574 0.0035835365 0.0017227143 -0.001758631 -0.0048374715 -0.0064606303 0.0053128037 -0.0027652646
-0.0032182746 0.0006975352 0.0015554584 -0.0045917914 0.0009826251 0.003941881 0.0040229806 0.011295737
0.006049242 -0.0062149623 -0.0075616483 -0.0055364757 -0.0022966198 0.0022704718 -0.005761925 -0.0046130684
0.0063798963 -0.0031398004 -0.01432298 0.011322132 -0.00032468105 0.0025393853 0.021337371 -0.00025880855
-0.005299161 0.04461886 -0.0038202503 0.0015849795 -0.0013180269 -0.0028873736 0.03133016 -0.00311741
-0.0059074387 0.00011375656 -0.00069680304 -0.009118216 0.016420176 0.014234877 0.004284344 -0.0057313573
3.7105372e-05 -0.007517162 -0.0010018926 0.00950133 -0.023269337 -0.002957071 0.0066858833 0.0047467146
0.014588245 0.020675132 0.0023230559 0.0077774823 0.0073347664 0.007735351 0.00025768948 0.007997903
-0.008445182 -8.058767e-05 -0.0047992803 0.0060335933 -0.02993242 -0.004509993 -0.0030430965 0.00080698734
0.014866477 0.018189702 -0.0008276196 -0.00509094 -0.0012268844 -0.004714967 0.004456898 0.003409152
-0.0005994042 0.011589832 0.013629844 0.013772973 -0.0067004953 0.0073492513 0.0052015074 0.009715296
00000000: 5c27 abbc 2fc0 363a 0b09 3d3b c28e babb
00000010: fb70 8dbb 66dd f53b cc63 c03a 67cb 32bc
00000020: 7803 803b c799 0a3c 15c1 93b9 6729 a039
00000030: beba 7abc 2dc8 853a 9d66 96ba dd9b 8ebc
00000040: 1e60 3a3b 334b 6c3b f6ae 4dbc 47d9 e83b
00000050: 04c7 89bb 080a 913b fd79 bc3a 95f3 0d3c
00000060: f085 c13b d6a7 093c e761 51b8 fcbe c4b9
00000070: bf28 1dbd 2e8f 33bd 06d4 2d3b 6406 f9ba
00000080: c452 6b3b c47f 603a 3a8e c0bc deb7 853c
00000090: 3deb bc3c ca31 133c 6999 cebc 2ffb 463b
000000a0: d1da a5bc 94fd 603c 987b 93bb 5eb3 833a
000000b0: 6704 28bc 6394 c4ba 2a4b 07ba 569c a8bb
000000c0: eced c6bb 860f f8bb e4d1 253c 2a11 143c
000000d0: e690 beb9 204e 45bb 59b7 353c 9d53 edba
000000e0: cc49 7c3a 50b3 01bc 1034 69b9 066c 573b
000000f0: 5618 5cbb a185 1e3d 6cd0 debb 23c6 ceba
00000100: 9a0e 63bc fa45 883b 6d4d f23b 5455 33bb
00000110: 7d65 863b e3ef efb9 8da9 4b3a 379b 4fbc
00000120: a830 e3ba e5ef edbc b532 c139 0c85 9d3c
00000130: 7b28 62bc 67c6 7abb a65e 24bc 5aeb 303a
00000140: 7473 08bb 5852 d53b fe7d e3bb 436f a9bc
00000150: 9878 93ba 766e fd3b d417 41bc dab1 8b3b
00000160: 4bd4 a4bc 8a2f 17bc 9b8e d6bb 17c9 1d3c
00000170: ebb8 743c 442c 463c cd11 b2bc 182c 53ba
00000180: 7298 81bd 878a 48bb dc80 5d3c 9d50 61bb
00000190: e009 b8bc 56d6 a1bb e3ac ceba f72b 56bb
000001a0: 0d67 62bc 4d22 483b 652e 333b be0a 003b
000001b0: 87c1 633c d863 803b 8d5e 883b 1d61 1639
000001c0: c40f 463c 696f 1f3b ea54 93bc 6003 c53b
000001d0: c01d 09bc f197 a3bb 6895 d6bb 44df 95bb
000001e0: d56e 9c39 d68a 8ebc 5bd7 a4b9 6439 3cbc
000001f0: d973 8b3c 0206 c33b 3e5f 6ebc 64c5 ebba
00000200: 2c74 42bb 9c6c a3bc bde1 4839 2f01 093b
00000210: dfc1 afb9 30f7 793b 1c0f 36bb eab8 90bc
00000220: ca0e 923b 398e 413c 153a 833a 4bc7 933b
00000230: 7d5c 5a39 c70b bdbb c9ae 98bb cde0 973b
00000240: d705 8a3c 0496 a7bb 52f9 1bbc f007 0bbb
00000250: 4a19 06b9 96e1 9b3c 9066 913c d39e 523c
00000260: 8974 42bc ed96 65bc 3481 183c b446 4f3c
00000270: 6f3a dabb 5695 35bb 729a c63b e882 af39
00000280: 228e 8bbc 679a c1bb 4c60 aa3b 8d86 a9bb
00000290: 4471 88bb 91df 553b 94b4 4c3b 9838 7cbc
000002a0: 6ad5 1abb c4d9 6a3b b3cc e13a dd81 e6ba
000002b0: a783 9ebb b2b3 d3bb 0717 ae3b 7139 35bb
000002c0: b0e9 52bb cbda 363a 86e0 cb3a bd76 96bb
000002d0: 6dcb 803a e52a 813b 35d3 833b c111 393c
000002e0: b838 c63b e2a6 cbbb b4c7 f7bb 536b b5bb
000002f0: e382 16bb 32cc 143b 88ce bcbb 3929 97bb
00000300: 730e d13b 1cc5 4dbb efaa 6abc 7780 393c
00000310: f439 aab9 d16b 263b b6cb ae3c b2b0 87b9
00000320: 96a4 adbb 44c2 363d 2a5d 7abb 16bf cf3a
00000330: a5c1 acba 173a 3dbb 0e54 003d 764d 4cbb
00000340: 3093 c1bb 9790 ee38 a9a9 36ba 9264 15bc
00000350: 9b83 863c 6739 693c af63 8c3b 1cce bbbb
00000360: 97a1 1b38 8652 f6bb f051 83ba 77ab 1b3c
00000370: 569f bebc 6bcb 41bb 4115 db3b 548a 9b3b
00000380: 8903 6f3c e55e a93c 693e 183b 40da fe3b
00000390: 7b58 f03b d478 fd3b 7f1a 8739 a309 033c
000003a0: a95d 0abc 2d01 a9b8 4843 9dbb 73b5 c53b
000003b0: d634 f5bc 90c8 93bb b06e 47bb 018c 533a
000003c0: 8692 733c 9202 953c 9cf4 58ba e6d1 a6bb
000003d0: 69cf a0ba 0380 9abb 2c0b 923b 146c 5f3b
000003e0: 5621 1dba 47e3 3d3c b64f 5f3c 09a8 613c
000003f0: d48f dbbb fdd1 f03b 6871 aa3b e82c 1f3c

norm_input.running_mean f4 [1920]
-0.092965096 -0.13218819 0.34119877 -0.3782914 0.21016781 0.0548364 -0.19878522 -0.581687
-0.07937552 -0.2794606 -0.2773017 -0.30522224 0.61149067 0.14606552 0.23497842 -0.6708481
-0.044417936 0.5448747 0.47427154 0.13194151 -0.78543067 -0.002116774 0.015145584 0.41658014
-0.22106388 -0.012299604 0.49117905 0.13794908 -0.13213234 -0.08903794 -0.42418876 0.1577627
0.08978483 -0.1975386 -0.0057929475 -0.34777066 -0.029014867 -0.029910292 0.0011230169 -0.5167366
0.20109123 0.2265338 -0.17148499 76.30071 0.36487168 -0.30212572 0.4477842 0.07066242
0.5502002 -0.041583613 -0.18868041 -0.0004967338 0.08277926 0.69970995 -0.017172609 0.07471256
0.24967296 -0.55378497 -0.5287936 0.15653701 0.63902026 0.016460668 -0.45840514 0.13157816
0.6035669 0.10980954 -0.10595901 -0.7205153 -0.014151079 0.17853476 0.39474028 0.54415643
0.37187758 0.35690805 -0.5060051 0.063580394 0.10495487 1.088374 1.4438868 -0.12079765
-0.19744255 0.8763334 -0.40153706 0.20252897 -0.48817757 -0.034481537 0.10648047 -0.46646944
0.5360034 0.56688744 0.33023754 -0.65839773 0.00081678794 0.44612494 -0.03497938 0.09690823
-0.35837257 0.62994397 -0.16141453 0.24282357 0.009613054 -0.043925688 -0.17177592 -0.51778364
-0.2691876 -0.003652904 -0.045258712 -0.1901912 -0.3651892 -0.7265038 -0.075365484 0.5895038
-0.17179285 0.6655901 -0.5847468 -0.09286045 0.06676908 -0.38854998 -0.36894897 -0.43410987
0.1951921 -0.021756757 -0.92317843 0.542671 0.32081226 -0.3521572 -0.28716916 0.027600918
0.0095905475 0.26672366 -0.3381678 -0.051497098 0.03047857 -0.35935053 0.113750756 0.65965307
-0.065673426 0.36875078 -0.52207255 0.030247578 -0.38900113 -0.08987946 -0.9350989 -0.30277604
-0.34745315 -0.12704864 -0.0720654 -0.65705127 0.06404534 0.21885075 -0.78884494 0.4223664
-0.9720803 -0.2676927 0.48096487 0.036271196 -0.47207078 -0.0633112 -0.5917185 -1.0633911
0.92250305 0.8368413 0.15961283 0.14828146 0.4532921 -0.60750115 0.18838541 -0.01800621
-0.06196082 -0.3679009 0.7605736 0.21122676 0.393329 0.7987985 -0.7596788 -0.17738605
0.039290253 -0.10966158 -0.052987944 0.17991813 0.19018008 0.21153827 -0.65293115 0.28662392
0.28168705 -0.4788234 -0.4824584 0.32008854 -0.6219727 -0.204455 0.78606707 -0.01600282
0.6630192 -0.16476771 0.477706 0.39062586 -0.31658825 0.6424019 0.39970574 -0.14743042
0.43838945 -0.1624052 0.37821475 -0.33806774 0.33680415 0.4270527 0.021985473 -0.2527698
-0.07994473 -0.7501609 -0.15886676 0.19271626 -0.39174774 0.05902189 0.15669623 -0.30152395
-0.07032495 0.23911597 -0.17254177 -0.038476728 -0.25916392 0.49229595 0.54096323 0.12868312
-0.3621252 -0.5416656 0.13787061 -0.59668255 0.32144973 -0.31013986 0.20716894 0.07694312
-0.34267855 -0.07012009 0.17212157 0.20502003 -0.486615 -0.5070416 0.2676697 0.24298383
0.0011987309 -0.47710478 -0.14111748 0.032944832 0.14240128 0.27995655 -0.06430261 -1.1381868
-0.1244704 -0.39956585 0.017895546 0.16912599 -0.19566956 -0.86173505 0.20998394 -0.11224453
00000000: 7c64 bebd 575c 07be 9bb1 ae3e 69af c1be
00000010: 3b36 573e 229c 603d 5a8e 4bbe 70e9 14bf
00000020: a28f a2bd 7615 8fbe 7dfa 8dbe 1746 9cbe
00000030: a78a 1c3f 3392 153e 2f9e 703e b3bc 2bbf
00000040: 95ef 35bd e97c 0b3f b8d3 f23e ad1b 073e
00000050: fc11 49bf 93b9 0abb 2f25 783c fe49 d53e
00000060: 925e 62be 4784 49bc d27b fb3e 8642 0d3e
00000070: b34d 07be 8659 b6bd 452f d9be 8c8c 213e
00000080: 1ce1 b73d 8f47 4abe c4d2 bdbb ff0e b2be
00000090: 96b0 edbc 6e06 f5bc 3232 933a da48 04bf
000000a0: dcea 4d3e 7af8 673e c399 2fbe f799 9842
000000b0: 76d0 ba3e 39b0 9abe f843 e53e 75b7 903d
000000c0: ecd9 0c3f 9453 2abd 7035 41be 3e37 02ba
000000d0: 2c88 a93d 3120 333f 92ad 8cbc e602 993d
000000e0: 45aa 7f3e dac4 0dbf 045f 07bf 3d4b 203e
000000f0: d596 233f 86d8 863c 14b4 eabe 6dbc 063e
00000100: 5c83 1a3f d3e3 e03d 0a01 d9bd b173 38bf
00000110: edd9 67bc d1d1 363e 661b ca3e d64d 0b3f
00000120: bd66 be3e a7bc b63e 8d89 01bf 7036 823d
00000130: 94f2 d63d d74f 8b3f 48d1 b83f c264 f7bd
00000140: 612e 4abe 6357 603f 4496 cdbe c163 4f3e
00000150: 69f2 f9be 833c 0dbd 6f12 da3d 15d5 eebe
00000160: 8537 093f 891f 113f e514 a93e c18c 28bf
00000170: b61d 563a 7d6a e43e 8a46 0fbd d277 c63d
00000180: 9c7c b7be 0244 213f da49 25be bea6 783e
00000190: 1280 1d3c 6ceb 33bd 07e6 2fbe 788d 04bf
000001a0: f5d2 89be 8f65 6fbb 3361 39bd 7bc1 42be
000001b0: 14fa babe 27fc 39bf 3859 9abd b9e9 163f
000001c0: 77ea 2fbe 1d64 2a3f f7b1 15bf 9f2d bebd
000001d0: 3abe 883d 06f0 c6be e1e6 bcbe a643 debe
000001e0: 70e0 473e 3a3b b2bc 6c55 6cbf 7dec 0a3f
000001f0: 8141 a43e f34d b4be d607 93be 521b e23c
00000200: ac21 1d3c 0190 883e 5424 adbe 9fee 52bd
00000210: 32ae f93c cbfc b7be 28f6 e83d 06df 283f
00000220: ca7f 86bd e7cc bc3e 8ca6 05bf c5c9 f73c
00000230: 282b c7be b912 b8bd a462 6fbf 7605 9bbe
00000240: 61e5 b1be 0a19 02be 0697 93bd 8334 28bf
00000250: 342a 833d 691a 603e bef1 49bf 6940 d83e
00000260: 41da 78bf 040f 89be 0741 f63e 1b91 143d
00000270: 43b3 f1be 4da9 81bd dd7a 17bf 331d 88bf
00000280: 2929 6c3f 3b3b 563f 8c71 233e 18d7 173e
00000290: e715 e83e 3285 1bbf 1be8 403e c281 93bc
000002a0: a1ca 7dbd 825d bcbe f4b4 423f d44b 583e
000002b0: 6b62 c93e 0f7e 4c3f 4f7a 42bf b0a4 35be
000002c0: d1ee 203d 4096 e0bd e309 59bd 753c 383e
000002d0: 91be 423e 7d9d 583e 7f26 27bf 5fc0 923e
000002e0: 4939 903e 5728 f5be ca04 f7be a5e2 a33e
000002f0: 9a39 1fbf a75c 51be b13b 493f 5918 83bc
00000300: a0bb 293f deb8 28be e195 f43e 1d00 c83e
00000310: db17 a2be 7374 243f 3ba6 cc3e 00f8 16be
00000320: 9574 e03e 8c4d 26be 5da5 c13e 3717 adbe
00000330: 9871 ac3e a7a6 da3e e11a b43c 0b6b 81be
00000340: 10ba a3bd 8b0a 40bf f8ad 22be 6957 453e
00000350: 2993 c8be f0c0 713d fa74 203e 5961 9abe
00000360: 8706 90bd d1da 743e caae 30be c699 1dbd
00000370: 22b1 84be 370e fc3e 917c 0a3f 82c5 033e
00000380: 7968 b9be 99aa 0abf f42d 0d3e 30c0 18bf
00000390: 0f95 a43e a7ca 9ebe 1824 543e 5b94 9d3d
000003a0: 9073 afbe 1f9b 8fbd a340 303e c5f0 513e
000003b0: 9a25 f9be 7acd 01bf 010c 893e c1d0 783e
000003c0: bc1e 9d3a 1447 f4be 1a81 10be 29f1 063d
000003d0: a4d1 113e 7756 8f3e 16b1 83bd 1bb0 91bf
000003e0: 56ea febd e593 ccbe ae99 923c 5d2f 2d3e
000003f0: 9a5d 48be ab9a 5cbf 0806 573e 76e0 e5bd

norm_input.running_var f4 [1920]
1.9025606 1.8048835 1.8672711 1.7407545 2.5486662 2.0934393 2.0384312 2.0206819
2.2145362 2.184102 2.4828136 2.819964 1.9108782 2.298344 2.5226028 2.1895208
2.9219716 2.4946182 2.419526 2.546277 2.4946153 3.0003939 2.585055 2.1724982
2.2908797 2.2172015 3.2009623 2.2850692 2.081714 2.9767368 1.8568393 2.3666265
2.095443 2.5462112 2.2297277 2.3119516 2.981639 2.202835 2.174982 2.5569675
1.6854444 2.498796 2.1170814 133.5354 2.4283936 2.310766 2.4147723 1.9816788
2.2158089 2.296194 2.150198 2.040053 2.1109293 2.5432482 1.8957076 2.107736
2.2821276 2.3716881 2.0267076 1.7851163 3.0612285 1.8165102 2.1791906 2.1397438
2.8127975 1.8821344 2.310413 2.7665942 2.567164 1.7260352 2.0466542 2.419532
3.0596304 1.7999226 2.2436175 2.1802654 2.3690948 2.9184906 9.204021 2.8636696
2.094421 3.8260891 2.2435615 2.0424175 2.637972 2.121983 1.9393679 2.4116313
2.2443662 2.2231576 2.0989387 2.9537435 2.643862 2.1918573 2.4357758 2.5113392
2.1567917 2.7178411 1.9881332 2.3291185 2.4825459 2.4194782 2.364411 1.9383166
1.9870403 1.9655687 2.2922966 2.1198974 2.2954195 3.5663006 2.0410807 2.2333539
2.1045494 2.2570689 2.0755138 2.257306 2.2157693 2.045093 2.3454401 2.0784552
3.01233 1.7706851 2.494671 2.0689704 2.2054489 2.0910954 2.278652 2.360953
2.6383262 2.189442 2.0400295 2.1695192 2.5196414 2.052246 2.5698438 2.0389845
2.4760993 2.7277515 2.5394537 2.126084 2.3338633 2.4360044 2.628201 4.293987
2.475459 1.8679985 2.6161597 1.9466302 2.1602068 2.5221274 2.208918 1.9036894
2.5737977 1.9974295 3.340497 2.3485775 2.110571 2.271154 2.171135 2.5650594
2.010075 2.8630223 2.429117 2.5259247 1.9947014 2.3588326 1.9373307 1.8642322
1.9206916 2.9451811 1.8000339 2.5540078 2.0495515 2.36081 1.9876733 2.4888337
2.0731149 2.2391574 2.6670227 1.8433417 2.159407 2.2098215 2.199344 2.675752
5.153808 2.3557067 1.9883546 2.506256 2.0881708 1.8379022 2.769151 2.0159998
2.7613592 2.101603 2.3837097 2.23124 2.146281 1.7501721 2.467942 2.015222
1.7208434 2.4618804 2.002564 1.7783927 2.6796627 2.183891 1.8516682 2.2476914
1.9205155 2.1357071 2.3381045 2.0540628 2.2216892 2.438325 2.1203501 2.4342513
2.5971508 2.4070446 2.4255295 2.8596454 1.9909437 2.8177905 2.1349144 2.0895402
1.9943187 2.75137 1.9105364 5.002113 2.8273628 2.548873 2.1010208 2.0717843
2.1526601 2.3833535 1.9662538 1.9330215 2.1654906 2.3635507 1.9860082 2.0844562
1.9289669 2.16004 2.1732726 1.8307657 2.0086353 2.903567 2.2317026 2.8500602
1.8186907 1.8083124 2.1389143 2.3600402 2.6595967 2.9251554 2.2692215 2.5497468
00000000: 1b87 f33f 6c06 e73f bd02 ef3f 0bd1 de3f
00000010: 591d 2340 e9fa 0540 a875 0240 da52 0140
00000020: f6ba 0d40 54c8 0b40 6be6 1e40 4a7a 3440
00000030: a897 f43f 1118 1340 5372 2140 1c21 0c40
00000040: 9501 3b40 d3a7 1f40 84d9 1a40 34f6 2240
00000050: c7a7 1f40 7406 4040 8b71 2540 360a 0b40
00000060: c69d 1240 a1e6 0d40 91dc 4c40 933e 1240
00000070: cd3a 0540 db82 3e40 e9ac ed3f cf76 1740
00000080: bd1b 0640 20f5 2240 dcb3 0e40 04f7 1340
00000090: 2cd3 3e40 40fb 0c40 e832 0b40 5ba5 2340
000000a0: a4bc d73f 46ec 1f40 437e 0740 1089 0543
000000b0: cd6a 1b40 97e3 1340 a18b 1a40 a7a7 fd3f
000000c0: d0cf 0d40 d8f4 1240 d89c 0940 3a90 0240
000000d0: 7719 0740 94c4 2240 8ca6 f23f 26e5 0640
000000e0: 610e 1240 bdc9 1740 94b5 0140 b17e e43f
000000f0: 2beb 4340 6883 e83f dc77 0b40 90f1 0840
00000100: e004 3440 c8e9 f03f cedd 1340 e10f 3140
00000110: 6a4c 2440 b9ee dc3f 62fc 0240 9dd9 1a40
00000120: fcd0 4340 dd63 e63f 6e97 0f40 7889 0b40
00000130: 409f 1740 8dc8 3a40 ac43 1341 5d46 3740
00000140: fe0a 0640 a5de 7440 8396 0f40 f8b6 0240
00000150: 89d4 2840 92ce 0740 353d f83f 2b58 1a40
00000160: b2a3 0f40 3748 0e40 0355 0640 220a 3d40
00000170: 0935 2940 6447 0c40 c0e3 1b40 c8b9 2040
00000180: e008 0a40 1cf1 2d40 267b fe3f 4710 1540
00000190: 08e2 1e40 bbd8 1a40 8352 1740 c21a f83f
000001a0: 5657 fe3f c197 fb3f fdb4 1240 66ac 0740
000001b0: 27e8 1240 453e 6440 11a1 0240 45ef 0e40
000001c0: f0b0 0640 d173 1040 38d5 0440 b477 1040
000001d0: 2acf 0d40 cee2 0240 b11b 1640 6905 0540
000001e0: 04ca 4040 cfa5 e23f b1a8 1f40 036a 0440
000001f0: 1326 0d40 82d4 0540 6fd5 1140 db19 1740
00000200: 56da 2840 d11f 0c40 d88f 0240 67d9 0a40
00000210: ce41 2140 0058 0340 5278 2440 b97e 0240
00000220: 6978 1e40 7b93 2e40 6986 2240 c311 0840
00000230: 045e 1540 7fe7 1b40 7234 2840 5768 8940
00000240: ec6d 1e40 931a ef3f 296f 2740 2e2b f93f
00000250: d440 0a40 896a 2140 ea5e 0d40 18ac f33f
00000260: 1ab9 2440 c5ab ff3f b4ca 5540 184f 1640
00000270: 9813 0740 965a 1140 e0f3 0a40 ef29 2440
00000280: 12a5 0040 c23b 3740 a776 1b40 c0a8 2140
00000290: 6052 ff3f 1df7 1640 74fa f73f 299f ee3f
000002a0: 39d9 f53f d97d 3c40 8367 e63f dd74 2340
000002b0: da2b 0340 8317 1740 146c fe3f 0d49 1f40
000002c0: eaad 0440 5b4e 0f40 80b0 2a40 9ff2 eb3f
000002d0: b933 0a40 b76d 0d40 0dc2 0c40 853f 2b40
000002e0: ffeb a440 e6c3 1640 6782 fe3f 8066 2040
000002f0: 97a4 0540 6140 eb3f c539 3140 2406 0140
00000300: 1cba 3040 aa80 0640 b38e 1840 a3cc 0e40
00000310: ab5c 0940 a405 e03f c3f2 1d40 66f9 0040
00000320: 9944 dc3f 738f 1d40 022a 0040 5fa2 e33f
00000330: 987f 2b40 dfc4 0b40 7703 ed3f 2dda 0f40
00000340: 74d3 f53f 6daf 0840 81a3 1540 c475 0340
00000350: 2830 0e40 840d 1c40 d1b3 0740 c6ca 1b40
00000360: b837 2640 050d 1a40 e03b 1b40 6e04 3740
00000370: 3ed7 fe3f ae56 3440 70a2 0840 07bb 0540
00000380: d645 ff3f 7216 3040 758c f43f 4f11 a040
00000390: 83f3 3440 bc20 2340 2077 0640 1d98 0440
000003a0: 2fc5 0940 dd88 1840 34ae fb3f 406d f73f
000003b0: 6697 0a40 6a44 1740 8435 fe3f bb67 0540
000003c0: 63e8 f63f 183e 0a40 e616 0b40 8856 ea3f
000003d0: 7b8d 0040 0bd4 3940 37d4 0e40 6367 3640
000003e0: dbca e83f c876 e73f f9e3 0840 e60a 1740
000003f0: d536 2a40 bf35 3b40 ed3a 1140 0d2f 2340

transformer.norm.weight f4 [1920]
0.5808785 0.14681846 0.4644558 0.6048979 0.8045438 0.10631964 0.22391325 1.2961143
0.4513206 0.13711177 0.9700584 0.3315537 0.7852585 0.7564278 0.3290281 0.92600065
0.05278347 0.63199925 -0.0026167524 0.21384017 0.50520736 -0.3218883 0.30843502 0.35882404
0.5215148 0.9095329 0.1558357 0.08176065 0.7596468 1.4414712 0.024022613 -0.115366645
0.29763272 0.45568672 0.6123544 0.6934458 0.45833218 0.6896841 1.1844419 -0.07408958
0.59854966 0.6012455 0.57721466 0.12150407 0.515208 0.16767772 0.2864261 0.84852576
0.28073052 0.26722738 0.4164703 0.42960522 0.16935223 1.0565981 0.5180481 0.4765105
0.008009346 0.49276465 0.4650316 0.6754395 0.3287459 1.2651831 0.8162395 0.062913634
0.89277565 0.20564252 0.06271916 0.47006267 0.6333022 0.5850531 0.48014238 0.46497798
0.5350578 1.5438974 0.36352497 0.6494422 0.51346743 0.49006063 0.45237544 0.15649085
0.4884056 0.5244145 0.71105343 0.8643894 0.43986523 0.71464384 0.6411691 0.19215634
1.068088 0.5124882 0.5289391 0.5568775 0.8176815 0.42037502 0.4405903 0.068425775
0.8357307 0.39194402 0.43412817 0.19319753 0.60452044 0.55253184 0.11118178 0.5759275
0.029768394 0.51116645 0.27558655 0.2280422 0.4947305 0.41963613 0.9898879 0.066419244
0.73892576 0.65667707 0.8744754 0.21461901 0.8526768 0.27256233 0.33732215 0.1573659
0.55676085 0.5799139 0.47756138 0.47258654 0.3295115 0.7546586 0.6277042 0.36197585
0.2855927 0.89297014 0.79468685 -0.016603803 0.6235354 0.0067922273 0.677374 0.565363
0.54837567 1.0883359 0.074226685 0.22317922 0.19643593 0.48997352 0.60113126 0.028911559
0.5267475 0.42445213 0.4546979 0.61603516 0.6668851 0.1637784 0.9725665 0.64460826
0.94132215 0.62007916 0.18462066 0.31069553 0.372701 0.049334876 0.30921733 0.13841532
0.5772397 0.105614856 0.3917064 0.32401624 0.69352436 0.17406262 0.27037334 1.0051292
0.17172474 0.18628098 0.7037989 0.5330758 0.45868066 0.31850594 0.53934705 0.46089083
0.5651465 0.72077507 0.4217902 0.6998276 0.3370592 0.25996855 0.5550108 1.0020449
0.23401679 0.5363983 0.7671854 0.27346793 0.02503507 0.6104196 0.65251034 0.2862064
0.47975254 0.39010796 0.7939606 0.42444906 0.027913328 0.39792913 0.51264757 0.057709012
0.39211234 0.8579424 0.9055609 0.8614901 0.6816561 1.0995272 0.65679103 0.23122205
0.15408878 0.7025271 0.48672113 0.9083351 0.45989934 0.50795645 0.5223329 0.6295591
0.6687162 0.33503073 0.09885773 0.54496753 0.7710583 0.6494219 1.0021675 0.3839232
0.38524994 0.6762451 0.2632365 0.055038273 0.65072453 0.5004735 -0.06919163 0.54239637
0.51853186 0.2844757 0.28753334 0.55455035 1.099203 0.29896998 0.33144733 -0.060926605
0.61104584 0.713113 1.0077529 0.5521949 -0.049414814 0.46628234 0.64370203 0.32730982
1.1685419 0.6057912 0.24698275 0.7957373 0.1652799 0.00784309 0.3766849 0.3044189
00000000: 74b4 143f 9457 163e 27cd ed3e 97da 1a3f
00000010: 95f6 4d3f 1dbe d93d 8449 653e 13e7 a53f
00000020: 7e13 e73e 0767 0c3e bf55 783f 68c1 a93e
00000030: b306 493f 41a5 413f 5f76 a83e 610e 6d3f
00000040: 7b33 583d b4ca 213f d27d 2bbb ebf8 5a3e
00000050: 4555 013f 8bce a4be 32eb 9d3e c9b7 b73e
00000060: fe81 053f 26d7 683f 6593 1f3e 2172 a73d
00000070: 3678 423f 2182 b83f 12cb c43c 5945 ecbd
00000080: 5163 983e c54f e93e 42c3 1c3f aa85 313f
00000090: 84aa ea3e 238f 303f cb9b 973f 47bc 97bd
000000a0: 8d3a 193f 3aeb 193f 57c4 133f 20d7 f83d
000000b0: ace4 033f b5b3 2b3e 71a6 923e fc38 593f
000000c0: e9bb 8f3e 07d2 883e 983b d53e 37f5 db3e
000000d0: ac6a 2d3e 9b3e 873f cd9e 043f 2ff9 f33e
000000e0: a239 033c a64b fc3e 9f18 ee3e 9ae9 2c3f
000000f0: 6251 a83e 85f1 a13f 12f5 503f ddd8 803d
00000100: f28c 643f f493 523e e772 803d 0eac f03e
00000110: 1820 223f 0ac6 153f 39d5 f53e 9811 ee3e
00000120: 8cf9 083f 6e9e c53f f21f ba3e d841 263f
00000130: 9a72 033f 3ae9 fa3e c19d e73e 233f 203e
00000140: 4c10 fa3e 0740 063f 9907 363f a048 5d3f
00000150: 0436 e13e e6f2 363f a823 243f a2c4 443e
00000160: 1cb7 883f 6d32 033f 8e68 073f 868f 0e3f
00000170: 9353 513f 653b d73e 0d95 e13e d022 8c3d
00000180: 72f2 553f e3ac c83e 0c46 de3e 93d5 453e
00000190: dac1 1a3f ba72 0d3f 46b3 e33d fc6f 133f
000001a0: d9dc f33c cedb 023f ae19 8d3e e583 693e
000001b0: 514d fd3e 8cda d63e 4b69 7d3f d006 883d
000001c0: 3d2a 3d3f fd1b 283f 9fdd 5f3f 16c5 5b3e
000001d0: 0749 5a3f 4a8d 8b3e 7db5 ac3e 8724 213e
000001e0: e187 0e3f 3d75 143f ed82 f43e ddf6 f13e
000001f0: bbb5 a83e 4e31 413f 39b1 203f e654 b93e
00000200: 3539 923e b199 643f 9970 4b3f b304 88bc
00000210: 04a0 1f3f 5591 de3b 6268 2d3f a1bb 103f
00000220: 5962 0c3f 974e 8b3f 2904 983d 1889 643e
00000230: 8026 493e cfdd fa3e bde3 193f efd7 ec3c
00000240: edd8 063f ca51 d93e 2ace e83e 7bb4 1d3f
00000250: fbb8 2a3f 86b5 273e 1efa 783f 0c05 253f
00000260: 7dfa 703f 82bd 1e3f 330d 3d3e 7c13 9f3e
00000270: aad2 be3e 5e13 4a3d bc51 9e3e bfbc 0d3e
00000280: fbc5 133f 9a4c d83d be8d c83e 75e5 a53e
00000290: d08a 313f 793d 323e 606e 8a3e 13a8 803f
000002a0: 9cd8 2f3e 71c0 3e3e 2a2c 343f a877 083f
000002b0: 31d8 ea3e 3613 a33e a612 0a3f e2f9 eb3e
000002c0: 71ad 103f b784 383f e3f4 d73e e727 333f
000002d0: 0693 ac3e 991a 853e 3015 0e3f 0243 803f
000002e0: 19a2 6f3e 6651 093f 4366 443f fd03 8c3e
000002f0: 5916 cd3c 7544 1c3f eb0a 273f a589 923e
00000300: 20a2 f53e 3bbc c73e 0041 4b3f 6351 d93e
00000310: 7eaa e43c 5ebd cb3e df3c 033f 4960 6c3d
00000320: f3c2 c83e 1da2 5b3f d7d2 673f 9d8a 5c3f
00000330: 0481 2e3f 4fbd 8c3f 7523 283f 79c5 6c3e
00000340: 73c9 1d3e d1d8 333f 8333 f93e a688 683f
00000350: ed77 eb3e 6f09 023f 9cb7 053f c92a 213f
00000360: fc30 2b3f 2689 ab3e ec75 ca3d fe82 0b3f
00000370: 1464 453f 8340 263f 0647 803f 9591 c43e
00000380: 7b3f c53e 661e 2d3f efc6 863e d06f 613d
00000390: e295 263f 081f 003f 57b4 8dbd 7dda 0a3f
000003a0: 81be 043f cda6 913e 9237 933e 03f7 0d3f
000003b0: afb2 8c3f 9812 993e 77b3 a93e 2d8e 79bd
000003c0: 806d 1c3f 938e 363f 0cfe 803f a55c 0d3f
000003d0: 3067 4abd 8fbc ee3e a8c9 243f 2795 a73e
000003e0: c892 953f 2215 1b3f 0ce9 7c3e 71b5 4b3f
000003f0: 223f 293e 4e80 003c d8dc c03e cbdc 9b3e

transformer.norm.bias f4 [1920]
0.17355657 0.19361542 -0.098653995 0.12733124 -0.20409991 0.14774342 0.027369995 -0.08724972
0.46874118 0.053038318 0.21579924 0.05379514 -0.12786072 -0.22567536 0.09560754 -0.23266073
0.11834199 0.17615068 -0.09325208 -0.19669954 -0.35391334 0.16122532 0.18198536 0.267855
-0.23959446 0.058371563 -0.13463669 0.06090801 0.2414237 0.2826593 -0.17384043 0.19543396
0.36896616 0.19860715 -0.14098443 -0.082801856 -0.2680531 0.1880139 0.120007135 -0.014161053
0.23937356 0.1987836 0.19633484 -0.05428075 0.19954972 -0.040284667 -0.06968617 0.31555974
-0.05867152 0.19994289 -0.047766633 -0.06656902 0.027904069 0.045630146 -0.29671425 -0.09295052
0.020894114 0.33358917 -0.2975191 0.054084882 -0.09858488 0.24226876 -0.028127704 0.1381343
0.25680935 0.05762321 -0.05173279 0.1387344 -0.08452734 -0.0025303527 0.07448661 -0.04089177
0.053397875 -0.1814 -0.042589467 -0.0055823755 -0.21700944 -0.22425535 -0.20134558 0.19703455
0.106273845 0.038739644 -0.16236342 0.40708587 -0.007743559 0.042337537 -0.022619007 0.3359349
-0.2282756 -0.4075374 0.04576695 0.30216876 0.033453725 -0.035951313 -0.027386736 0.056101386
-0.3541034 -0.2511494 -0.35486796 -0.29769158 -0.29526186 -0.06101672 -0.03699347 -0.1810283
0.014949904 -0.26107627 0.08426202 -0.23752962 -0.034127507 0.16287325 0.030008247 -0.10344877
-0.13600837 0.31277496 -0.09261866 -0.061682448 0.08235679 -0.052214786 0.13472229 0.28996903
-0.11651679 0.35145664 0.070996866 0.17721099 0.07244476 -0.11583081 -0.35711956 0.3305027
0.08126317 0.23689057 -0.30132142 -0.10016387 -0.04503332 0.18976474 0.08423147 -0.072036214
0.25323123 -0.38958594 -0.2384322 0.007707924 -0.2177022 -0.19668128 -0.012561445 -0.057812996
-0.22143127 -0.18008672 -0.23572104 -0.07363179 0.13380657 -0.061836015 -0.06376764 -0.29195216
-0.26961628 0.15941517 0.061624978 0.23618926 0.25858393 -0.077241555 0.1919773 0.016797414
0.10834006 -0.29740945 -0.274537 -0.122641526 0.015895616 -0.026092643 -0.34800774 0.12878054
-0.13781899 0.1410546 -0.12442633 0.31870425 0.16871506 -0.0859364 0.04460009 -0.23185898
0.4591835 0.15449984 0.08575535 0.14433236 0.024769643 -0.088619225 0.26419455 0.28354198
0.24396521 -0.060442686 -0.040087953 -0.28232488 -0.12999935 0.07450068 -0.25976828 -0.030664437
-0.36788663 0.14198771 0.1636306 0.10827236 0.12421394 0.006638796 0.053852648 0.047076125
-0.18929592 -0.141689 -0.0867003 -0.15261862 -0.010010733 0.11617916 0.1774671 -0.35022062
-0.3108928 -0.081592515 -0.067641005 0.3671134 -0.20133355 -0.04905614 0.03995047 -0.03503901
-0.23327588 0.031372502 0.06906423 0.0038787182 -0.34352118 0.23765409 0.080862075 -0.13723414
0.34404662 -0.07174444 0.063617535 0.14474426 0.16427383 -0.24615745 0.075072154 -0.3975987
-0.07402534 0.089524224 0.12590134 0.29418936 0.2523546 0.023879396 0.27697366 0.07994534
0.42737353 -0.011089201 0.081969135 -0.17040402 0.015909957 -0.08000975 0.07650989 0.127747
-0.4555097 0.187402 0.30446404 0.2501698 0.12061363 0.057320133 0.30255908 -0.17598604
00000000: d0b8 313e 1f43 463e 1b0b cabd 1f63 023e
00000010: 91ff 50be 0d4a 173e 0a37 e03c fbaf b2bd
00000020: d8fe ef3e b53e 593d 7afa 5c3e 4b58 5c3d
00000030: eced 02be 7117 67be e3cd c33d 9d3e 6ebe
00000040: 495d f23d d860 343e f2fa bebd 9b6b 49be
00000050: 2134 b5be 4018 253e 5f5a 3a3e 4a24 893e
00000060: 4058 75be 0517 6f3d 33de 09be ad7a 793d
00000070: c637 773e b8b8 903e 3a03 32be d71f 483e
00000080: 22e9 bc3e ac5f 4b3e 395e 10be 0594 a9bd
00000090: 423e 89be b786 403e 4dc6 f53d c303 68bc
000000a0: 581e 753e ee8d 4b3e 000c 493e 7e55 5ebd
000000b0: c356 4c3e 8901 25bd 9fb7 8ebd 0c91 a13e
000000c0: 8c51 70bd d4bd 4c3e f2a6 43bd 5755 88bd
000000d0: 1397 e43c ade6 3a3d eeea 97be d85c bebd
000000e0: 222a ab3c 33cc aa3e 6c54 98be 1c88 5d3d
000000f0: dfe6 c9bd 4d15 783e 126c e6bc 1473 0d3e
00000100: 847c 833e 5106 6c3d c3e5 53bd 6410 0e3e
00000110: ac1c adbd 46d4 25bb 708c 983d 217e 27bd
00000120: bbb7 5a3d ecc0 39be 4b72 2ebd 5cec b6bb
00000130: b937 5ebe 32a3 65be 892d 4ebe 6dc3 493e
00000140: 1aa6 d93d 76ad 1e3d 9942 26be 8f6d d03e
00000150: aebd fdbb 206a 2d3d 7f4b b9bc a9ff ab3e
00000160: 14c1 69be bea8 d0be 2076 3b3d ddb5 9a3e
00000170: c606 093d af41 13bd 265a e0bc 91ca 653d
00000180: 0a4d b5be a796 80be 41b1 b5be 086b 98be
00000190: 902c 97be abec 79bd 7786 17bd 7c5f 39be
000001a0: 71f0 743c caab 85be 9191 ac3d f73a 73be
000001b0: 49c9 0bbd 3fc8 263e dbd3 f53c f3dc d3bd
000001c0: c745 0bbe 0a24 a03e daae bdbd bca6 7cbd
000001d0: adaa a83d 2cdf 55bd a4f4 093e d276 943e
000001e0: 5ba0 eebd 20f2 b33e ce66 913d cc76 353e
000001f0: eb5d 943d b438 edbd 60d8 b6be a637 a93e
00000200: 4e6d a63d 7193 723e cd46 9abe b722 cdbd
00000210: dc74 38bd b051 423e 8d81 ac3d b987 93bd
00000220: 86a7 813e cf77 c7be 9227 74be c192 fc3b
00000230: 53ed 5ebe d166 49be 85ce 4dbc 52cd 6cbd
00000240: e1be 62be a768 38be db60 71be 44cc 96bd
00000250: 9704 093e c347 7dbd 9c98 82bd c17a 95be
00000260: 250b 8abe bb3d 233e 796a 7c3d 99db 713e
00000270: 1d65 843e d230 9ebd b395 443e bb9a 893c
00000280: 65e1 dd3d 0d46 98be 1d90 8cbe 7b2b fbbd
00000290: 8637 823c 3dc0 d5bc 122e b2be 0cdf 033e
000002a0: 6c20 0dbe 9e70 103e 3bd3 febd 342d a33e
000002b0: a4c3 2c3e 6cff afbd 95ae 363d 716c 6dbe
000002c0: 1a1a eb3e 3535 1e3e 80a0 af3d ddcb 133e
000002d0: b5e9 ca3c ff7d b5bd 8244 873e 6a2c 913e
000002e0: 04d2 793e c092 77bd 4433 24bd e38c 90be
000002f0: 8d1e 05be d093 983d 5900 85be fc33 fbbc
00000300: a35b bcbe 3a65 113e c88e 273e e6bd dd3d
00000310: e163 fe3d 428a d93b 9894 5c3d e5d2 403d
00000320: cad6 41be ec16 11be ed8f b1bd 0e48 1cbe
00000330: 0f04 24bc 57ef ed3d efb9 353e 1e50 b3be
00000340: 572d 9fbe fa19 a7bd 5e87 8abd 4af6 bb3e
00000350: 622a 4ebe 17ef 48bd 1ba3 233d 1185 0fbd
00000360: dfdf 6ebe 7480 003d 8c71 8d3d 1832 7e3b
00000370: 02e2 afbe 985b 733e 049b a53d 1b87 0cbe
00000380: e126 b03e c0ee 92bd e949 823d d737 143e
00000390: 6637 283e b310 7cbe 6ebf 993d 0f92 cbbe
000003a0: 999a 97bd 7a58 b73d 48ec 003e fd9f 963e
000003b0: 9f34 813e b99e c33c 7ecf 8d3e 62ba a33d
000003c0: b4d0 da3e 7baf 35bc 6fdf a73d 647e 2ebe
000003d0: 9955 823c 27dc a3bd 38b1 9c3d 1cd0 023e
000003e0: 9138 e9be 4fe6 3f3e b6e2 9b3e 4216 803e
000003f0: 4704 f73d 84c8 6a3d 06e9 9a3e af35 34be

transformer.norm.running_mean f4 [1920]
-0.020886911 0.00070087117 0.0028868816 -0.0057038865 -0.0043305974 0.007506772 0.0014675374 -0.010935062
0.0039043503 0.008455699 -0.000245947 0.00030290708 -0.015309961 0.0010245466 -0.0011407385 -0.017422797
0.0028423872 0.0035949824 -0.0125541715 0.0071052862 -0.004205194 0.004443659 0.0014346133 0.008660575
0.005914904 0.008441445 -5.318697e-05 -0.00037626183 -0.038368803 -0.04381585 0.002652587 -0.0019009545
0.0035922115 0.00085055607 -0.023505725 0.016328607 0.023052536 0.00899187 -0.0251999 0.003033405
-0.020246083 0.013737272 -0.0045090346 0.0010041218 -0.010275657 -0.0015019244 -0.00053325697 -0.0051521678
-0.0060685533 -0.00756897 0.010118226 0.009033543 -0.00036501908 -0.0029882563 0.011099593 -0.0018094034
0.0009630983 -0.007918663 -0.00021766993 0.003282719 -0.003363262 0.038699716 -0.006801041 -0.0015762238
-0.01387794 0.0041606543 0.007390679 -0.0027417545 0.004097388 -0.00044633675 0.0007689143 -0.012674091
-0.0017233259 -0.029052237 0.00037804007 0.019232323 -0.01381471 -0.0038504868 -0.010028282 0.00067655917
-0.0020748535 0.00652121 -0.0069547375 -0.020636398 -0.001122042 0.007740288 -0.011771641 0.0042546876
-0.020133212 -0.009231765 -0.006542843 0.009623359 0.014919653 0.012091435 -0.02173821 -0.0008069302
-0.06326859 -0.0030643598 0.013516126 -0.0034367626 -0.022487111 -0.004938601 -0.0015782737 -0.0032685685
-0.0138195865 0.0030557853 0.002738073 0.0019514681 0.013920417 0.003925616 0.0041362853 0.00014663923
0.012082768 0.0024363683 -0.017990734 0.006016071 -0.008359001 -0.0049843006 -0.006547447 -0.00457873
0.0003037663 -0.017399164 -0.00033159606 -0.011484411 0.017020838 0.0059519173 -0.014548545 -0.0018111034
-0.0029644163 -0.019958664 0.00020432919 0.002091404 -0.00034487824 0.0038142942 -0.0027747932 -0.017657427
0.0044552186 0.011806308 0.0010020923 0.004507379 0.00021533405 -0.0057767434 -0.004681898 0.0046352493
0.016850319 -0.0051118117 -0.009517629 -0.0021267005 -0.000120272045 0.019027203 0.01775962 0.012859929
-0.011899534 -0.014006124 0.00930568 0.012650334 -0.006660352 -0.0027719857 0.0060512973 0.00033562377
-0.0170347 -0.00591133 0.0051930165 -0.0051734047 -0.004167167 0.0032558788 0.003124058 -0.015395949
-0.0023547495 0.0035885817 0.0017233702 -0.0017501905 -0.004855826 -0.0064662704 0.005316424 -0.0027596152
-0.003223335 0.000687649 0.001545265 -0.0045757173 0.0009798729 0.003932881 0.0040283445 0.011315223
0.0060442383 -0.006217951 -0.007568427 -0.0055198427 -0.0022987705 0.002273387 -0.005765171 -0.0046060462
0.0063746185 -0.0031319465 -0.014302254 0.011317815 -0.0003245998 0.002532026 0.02135265 -0.00025800947
-0.00528906 0.044602115 -0.0038356348 0.0015839455 -0.0013167548 -0.002875923 0.031316526 -0.0031170135
-0.0059097735 0.00012756101 -0.0006856195 -0.009120975 0.016408807 0.014240365 0.004279553 -0.0057330993
3.5034525e-05 -0.007505789 -0.0010014081 0.009496604 -0.02324267 -0.0029411842 0.006730924 0.0047389283
0.014590118 0.020676065 0.0023249576 0.0077733295 0.0073296325 0.0077228723 0.00025899554 0.008006163
-0.008453462 -7.797179e-05 -0.0047951527 0.0060492656 -0.029945768 -0.0045230505 -0.0030346706 0.0008084365
0.014855523 0.018173823 -0.00085364 -0.0050877472 -0.0012279982 -0.004708776 0.0044547864 0.0033986242
-0.0006006281 0.011595294 0.013629904 0.01376339 -0.0066973884 0.0073501556 0.0052003856 0.009717929
00000000: 071b abbc abba 373a d631 3d3b abe7 babb
00000010: afe7 8dbb 5efb f53b 625a c03a f928 33bc
00000020: 21e0 7f3b c689 0a3c 73f2 80b9 80cf 9e39
00000030: a1d6 7abc 144a 863a d584 95ba 41ba 8ebc
00000040: 5847 3a3b cc99 6b3b 03b0 4dbc 76d3 e83b
00000050: b9cb 89bb 1d9c 913b a209 bc3a 16e5 0d3c
00000060: d0d1 c13b fd4d 0a3c 1315 5fb8 0245 c5b9
00000070: 9b28 1dbd 4078 33bd 06d7 2d3b 7329 f9ba
00000080: 4f6b 6b3b daf7 5e3a 148f c0bc 92c3 853c
00000090: acd8 bc3c a352 133c 0570 cebc 17cc 463b
000000a0: 1ddb a5bc 4b12 613c 86c0 93bb bd9c 833a
000000b0: 3b5b 28bc 38dc c4ba 45ca 0bba 84d3 a8bb
000000c0: b7da c6bb 1f05 f8bb eac6 253c 6d01 143c
000000d0: 0860 bfb9 9fd6 43bb 11db 353c 8129 edba
000000e0: 6f78 7c3a 48bd 01bc 543e 64b9 e322 573b
000000f0: 2c6a 5cbb 9883 1e3d 44db debb 4b99 ceba
00000100: 4d60 63bc 1956 883b 822d f23b 02af 33bb
00000110: 6243 863b 4e02 eab9 f790 493a fea6 4fbc
00000120: 39e1 e1ba f5fe edbc ae33 c639 1b8d 9d3c
00000130: 1857 62bc 7358 7cbb aa4d 24bc 1e5b 313a
00000140: 44fa 07bb e0af d53b 91e4 e3bb aa0d a9bc
00000150: 7b11 93ba 3ea2 fd3b d7dd 40bc e86a 8b3b
00000160: 68ee a4bc d440 17bc 5865 d6bb 4bab 1d3c
00000170: 8f71 743c 271b 463c 5514 b2bc 2b88 53ba
00000180: f692 81bd 6dd3 48bb be72 5d3c 4f3b 61bb
00000190: e436 b8bc fdd3 a1bb 14de ceba 7b35 56bb
000001a0: 8c6b 62bc 9243 483b 3e71 333b 67c8 ff3a
000001b0: 7612 643c 74a2 803b ad89 873b 2bc3 1939
000001c0: cdf6 453c 7aab 1f3b 4e61 93bc 7622 c53b
000001d0: 31f4 08bc 5853 a3bb f78b d6bb 2c09 96bb
000001e0: d342 9f39 b188 8ebc 12da adb9 1c29 3cbc
000001f0: 496f 8b3c 4d08 c33b 055d 6ebc 8c62 edba
00000200: a746 42bb 5a80 a3bc 3341 5639 f00f 093b
00000210: c6d0 b4b9 3df9 793b 4ed9 35bb 4fa6 90bc
00000220: 15fd 913b 3f6f 413c a358 833a a3b2 933b
00000230: 4bcb 6139 d64a bdbb 9b6a 99bb 4ae3 973b
00000240: ae09 8a3c fc80 a7bb d4ef 1bbc 1d60 0bbb
00000250: 903a fcb8 f0de 9b3c 9f7c 913c 74b2 523c
00000260: 43f6 42bc f179 65bc da76 183c 5943 4f3c
00000270: 153f dabb 34aa 35bb f649 c63b a9f6 af39
00000280: 5b8c 8bbc d5b3 c1bb 2e2a aa3b aa85 a9bb
00000290: bb8c 88bb 9560 553b ffbc 4c3b 4a3f 7cbc
000002a0: 2452 1abb 692e 6b3b b5e2 e13a a666 e5ba
000002b0: 9f1d 9fbb 02e3 d3bb 6635 ae3b a9da 34bb
000002c0: 963e 53bb 5843 343a 7d8a ca3a e6ef 95bb
000002d0: 146f 803a 66df 803b 3400 843b 7c63 393c
000002e0: bf0e c63b f4bf cbbb 9100 f8bb ccdf b4bb
000002f0: f8a6 16bb 1bfd 143b c2e9 bcbb 51ee 96bb
00000300: 2de2 d03b 5841 4dbb 0054 6abc 5b6e 393c
00000310: 0c2f aab9 59f0 253b c1eb ae3c 7245 87b9
00000320: da4f adbb b5b0 363d 465f 7bbb 649c cf3a
00000330: f696 acba fb79 3cbb c245 003d cf46 4cbb
00000340: c6a6 c1bb e6c1 0539 25bb 33ba 2470 15bc
00000350: c36b 863c 6b50 693c 7e3b 8c3b b9dc bbbb
00000360: 09f2 1238 1ff3 f5bb ae41 83ba a597 1b3c
00000370: 6967 bebc e2c0 40bb 158f dc3b 0349 9b3b
00000380: 640b 6f3c da60 a93c 515e 183b 6ab7 fe3b
00000390: 6a2d f03b 2610 fd3b cbc9 8739 482c 033c
000003a0: 6480 0abc c984 a3b8 a820 9dbb eb38 c63b
000003b0: d450 f5bc 1936 94bb 53e1 46bb 41ed 533a
000003c0: 9464 733c 45e1 943c d0c6 5fba 1eb7 a6bb
000003d0: c8f4 a0ba 134c 9abb 75f9 913b 74bb 5e3b
000003e0: 7873 1dba 30fa 3d3c f64f 5f3c d77f 613c
000003f0: c475 dbbb 93d9 f03b ff67 aa3b f337 1f3c

transformer.norm.running_var f4 [1920]
0.23743229 0.09838489 0.23855636 0.2664844 0.5725374 0.07790702 0.16066487 1.2702945
0.28802645 0.034927238 0.6556519 0.19155626 0.4645612 0.42596778 0.17535548 0.7522686
0.025408577 0.42955136 0.0038960227 0.08405962 0.2417554 0.16622186 0.18295205 0.20089091
0.35900304 0.51641 0.1073419 0.023043258 0.48711157 1.4340053 0.0104557695 0.052014295
0.18226326 0.19851276 0.29287043 0.45742917 0.3002326 0.49758947 1.0967773 0.026679222
0.23913352 0.48679367 0.27829236 0.076873966 0.28296682 0.100133754 0.16902831 0.59400326
0.14602432 0.12121084 0.1292641 0.23495613 0.09267091 0.90586925 0.29993254 0.32893953
0.008749094 0.3264154 0.23081128 0.27060628 0.16708964 0.89224213 0.5655421 0.03278463
0.6795743 0.056745943 0.05011079 0.15654232 0.3365559 0.2738728 0.26927516 0.24921943
0.39233527 1.7359124 0.16008447 0.41588265 0.25690272 0.27490678 0.29009503 0.09020414
0.2112659 0.33301377 0.42403975 0.52629614 0.21745555 0.53111553 0.40157172 0.08047398
0.7937831 0.3169452 0.35831186 0.3749751 0.52615607 0.20711689 0.12284387 0.04506013
0.40436995 0.22645216 0.3073659 0.10922284 0.35170785 0.26440045 0.060691785 0.26907533
0.02229474 0.26881865 0.18445894 0.1531185 0.19853711 0.16331477 0.81927276 0.009714214
0.36800337 0.37472516 0.5830143 0.05020675 0.48400024 0.15119718 0.19799124 0.09412427
0.3360175 0.2623337 0.2540994 0.32770813 0.20118561 0.45111096 0.18291365 0.14633185
0.108711414 0.6792668 0.4601539 0.006442386 0.36502376 0.008631439 0.4584924 0.33316287
0.2811543 0.61352646 0.050596938 0.09534063 0.12740046 0.31560367 0.33320165 0.01782211
0.31650886 0.24722096 0.24327417 0.37300852 0.3506802 0.063617535 0.7094821 0.35781446
0.54850876 0.36622837 0.12554164 0.12951732 0.14880735 0.02708914 0.12254738 0.082295455
0.33865413 0.048668373 0.19392127 0.20162843 0.37564868 0.12505306 0.13562375 0.72814894
0.0848333 0.13805158 0.28971937 0.21205272 0.31424424 0.08864144 0.30336148 0.12076459
0.43170822 0.4577287 0.29783615 0.25125992 0.24422051 0.15810612 0.35491684 0.7273314
0.13906947 0.37420142 0.49682558 0.13677014 0.0028342318 0.26037058 0.48329097 0.1984098
0.2804386 0.12713964 0.59657 0.25770256 0.021065954 0.23623616 0.21770066 0.050153922
0.21664168 0.7082376 0.55174214 0.5597431 0.45539582 0.8876502 0.20092955 0.13466063
0.070730865 0.4338994 0.2802677 0.7182507 0.20878899 0.2886474 0.30995044 0.44601077
0.39560604 0.19667254 0.04658202 0.31985912 0.83129907 0.49364844 0.7181058 0.20728388
0.21621662 0.43364534 0.14448982 0.046658687 0.48782378 0.35037386 0.038845282 0.2580873
0.32866436 0.14923647 0.120468594 0.282922 0.79768306 0.18140137 0.1655958 0.006761106
0.35624203 0.36515695 0.9049355 0.35044298 0.038819153 0.2478315 0.42144585 0.2336399
0.9642849 0.32573584 0.12888339 0.62000036 0.080704175 0.011137026 0.22538888 0.13174249
00000000: 7321 733e 047e c93d 1e48 743e a570 883e
00000010: d091 123f b78d 9f3d 5585 243e 0399 a23f
00000020: 3478 933e dd0f 0f3d ced8 273f 5327 443e
00000030: f7da ed3e 7318 da3e 6390 333e ad94 403f
00000040: a625 d03c 28ee db3e 6a54 7f3b 7327 ac3d
00000050: ba8e 773e 1036 2a3e c857 3b3e 59b6 4d3e
00000060: 3fcf b73e 7233 043f 12d6 db3d 37c5 bc3c
00000070: b066 f93e 7c8d b73f ad4e 2b3c f10c 553d
00000080: 38a3 3a3e ee46 4b3e 1df3 953e 2834 ea3e
00000090: 16b8 993e 0cc4 fe3e 3363 8c3f 628e da3c
000000a0: 6bdf 743e 053d f93e 567c 8e3e 1970 9d3d
000000b0: 07e1 903e ed12 cd3d c215 2d3e 9910 183f
000000c0: 6687 153e 643d f83d cf5d 043e 5798 703e
000000d0: 3fca bd3d 0ce7 673f c290 993e c36a a83e
000000e0: 5c58 0f3c eb1f a73e cb59 6c3e e88c 8a3e
000000f0: 8c19 2b3e fb69 643f 5ec7 103f 2d49 063d
00000100: 95f8 2d3f 6f6e 683d f940 4d3d a14c 203e
00000110: 0e51 ac3e 0e39 8c3e 6fde 893e 6133 7f3e
00000120: 2be0 c83e 6132 de3f 2fed 233e 92ee d43e
00000130: c188 833e 95c0 8c3e 5687 943e f3bc b83d
00000140: 1756 583e c880 aa3e bd1b d93e 58bb 063f
00000150: abac 5e3e 30f7 073f cf9a cd3e 8bcf a43d
00000160: 5f35 4b3f a446 a23e a774 b73e bcfc bf3e
00000170: 2ab2 063f 7316 543e 9195 fb3d f990 383d
00000180: 9409 cf3e 13e3 673e 105f 9d3e 39b0 df3d
00000190: 0d13 b43e 7f5f 873e f397 783d 3ec4 893e
000001a0: 75a3 b63c 99a2 893e cee2 3c3e 19cb 1c3e
000001b0: 504d 4b3e fd3b 273e dcbb 513f 5e28 1f3c
000001c0: f06a bc3e fadb bf3e 6d40 153f 98a5 4d3d
000001d0: e1ce f73e 6fd3 1a3e 37be 4a3e 3ac4 c03d
000001e0: 7c0a ac3e 9a50 863e 5119 823e 5cc9 a73e
000001f0: 9a03 4e3e 04f8 e63e b74d 3b3e 04d8 153e
00000200: 17a4 de3d 6ee4 2d3f 4b99 eb3e a71a d33b
00000210: 65e4 ba3e e16a 0d3c 84bf ea3e 5394 aa3e
00000220: 75f3 8f3e 1210 1d3f bc3e 4f3d f341 c33d
00000230: 4475 023e ce96 a13e 6899 aa3e acff 913c
00000240: 730d a23e 7e27 7d3e dd1c 793e f9fa be3e
00000250: 5b8c b33e e949 823d 9ea0 353f 7533 b73e
00000260: 126b 0c3f 4982 bb3e fd8d 003e 30a0 043e
00000270: f460 183e 0bea dd3c 1ffa fa3d 858a a83d
00000280: 1364 ad3e 7d58 473d 4c93 463e af77 4e3e
00000290: 0655 c03e e90d 003e f4e0 0a3e f867 3a3f
000002a0: 15bd ad3d 655d 0d3e 1956 943e 5924 593e
000002b0: 9fe4 a03e a589 b53d 3252 9b3e 6d53 f73d
000002c0: dc08 dd3e 6b5b ea3e fb7d 983e 24a5 803e
000002d0: f114 7a3e 92e6 213e a9b7 b53e 6432 3a3f
000002e0: 3a68 0e3e 5497 bf3e ec5f fe3e 790d 0c3e
000002f0: 85be 393b 4b4f 853e ea71 f73e f02b 4b3e
00000300: a695 8f3e e530 023e d0b8 183f 97f1 833e
00000310: 8292 ac3c e4e7 713e ecec 5e3e 336e 4d3d
00000320: 51d7 5d3e 0f4f 353f f93e 0d3f 534b 0f3f
00000330: a429 e93e 0b3d 633f 7ac0 4d3e 7ae4 093e
00000340: 58db 903d 1028 de3e 3f7f 8f3e 47df 373f
00000350: c8cc 553e 98c9 933e d3b1 9e3e 865b e43e
00000360: e08c ca3e 8764 493e cacc 3e3d 93c4 a33e
00000370: 04d0 543f 7dbf fc3e c8d5 373f 3a42 543e
00000380: e467 5d3e c306 de3e 24f5 133e 2e1d 3f3d
00000390: 0ac4 f93e 3464 b33e 3b1c 1f3d 0524 843e
000003a0: b246 a83e 72d1 183e 3db8 f63d 27db 903e
000003b0: f534 4c3f 48c1 393e f291 293e 458c dd3b
000003c0: 5b65 b63e daf5 ba3e daa9 673f 436d b33e
000003d0: d500 1f3d 8ac7 7d3e c0c7 d73e 4c3f 6f3e
000003e0: 60db 763f d9c6 a63e 02fa 033e 58b8 1e3f
000003f0: 3b48 a53d 1378 363c 58cc 663e 81e7 063e
