xls_r_sqa/models/sqa/xls-r-2b/model_2b_lay41_subset.pt (torch, 528269 bytes, 67 tensors)

norm_input.weight f4 [1920]
000000 bb c4 19 3f 0b 56 b5 3e 21 e2 01 3f 96 8f 81 3f
       0.6006581 0.35417208 0.5073567 1.0121944
000010 03 7b d8 3e 95 f8 13 3f d5 d4 14 3f 1b 07 f3 3e
       0.4228135 0.5780118 0.58137256 0.4746636
000020 c6 9a eb 3e 5a b3 37 3f f4 3b 9f 3e f5 82 00 3f
       0.4601652 0.71758044 0.31100428 0.50199825
000030 5b fb cd 3e 99 a3 b0 3e 41 ec 01 3f d3 ae d3 3d
       0.40230832 0.34499815 0.5075112 0.103360794
000040 de 85 59 3f 8e 88 de 3e 7b d9 49 3e 9c 56 8f 3e
       0.8496989 0.43463558 0.19711868 0.27995765
000050 ba 9a 63 3f 86 01 c9 3e 76 36 92 3e 41 ec 4d 3f
       0.8890797 0.39258975 0.28557175 0.8043862
000060 f6 b0 2a 3f 83 07 b3 3e c0 e1 d3 bd 64 22 de 3e
       0.6667627 0.34966668 -0.10345793 0.43385613
000070 fc a4 02 3f a3 ed 1b 3f 62 bb f1 3e 10 e7 00 3f
       0.51032996 0.6090948 0.47213274 0.50352573
000080 3c 3f 06 3f 2a be 2b 3f 52 7c 61 3d af 0d 1b 3f
       0.5244024 0.6708704 0.0550502 0.60567755
000090 55 89 32 3f 8b 00 3a 3f d1 1e 43 3f 72 06 9f 3e
       0.697408 0.7265708 0.762189 0.31059605
0000a0 16 e1 69 3e 4c 4f 1b 3f 5a 33 4d 3f 9c 7a 0c 3f
       0.2283977 0.6066787 0.8015648 0.5487459
0000b0 6b 41 bd 3e 05 16 0c 3f ca 26 36 3f ca 85 4f 3f
       0.36963972 0.547211 0.7115294 0.8106352
0000c0 1b b7 d5 3e 0a 6d 03 3f 1a b7 8e 3d ae ee a0 3e
       0.4174126 0.51338255 0.069685176 0.31432098
0000d0 8a 34 27 3f 41 65 22 3f 8d b7 07 3f f5 80 08 3f
       0.65314543 0.6343575 0.5301445 0.5332177
0000e0 ed 82 12 3f 49 8a 4e 3f 24 6b 19 3f 65 ba 6e 3e
       0.57231027 0.80679756 0.5992911 0.23313291
0000f0 67 79 f9 3e d3 a9 64 3e ee 59 0b 3f 8d d4 0f 3f
       0.48725435 0.22330408 0.54434097 0.561837
000100 85 ce d4 3e 30 78 c4 3e fc 49 35 3f f7 b9 02 3f
       0.41563812 0.38372946 0.70816016 0.5106501
000110 5d 4b d3 3e 8f 5d 2c 3f 29 8e 63 3f bf 4c 15 3f
       0.41268435 0.6733026 0.88888794 0.5832023
000120 b0 dc f4 3e 8a d4 22 3f 2d 25 07 3f 29 94 97 3e
       0.4782462 0.6360556 0.527911 0.29605225
000130 ca 28 06 3f da ed c2 3e 61 1d b8 3d 36 6d 01 3f
       0.5240599 0.3807209 0.089899786 0.5055727
000140 de b2 25 3f 26 2a f2 3e da 18 2c 3f 19 d3 4b 3f
       0.64726055 0.47297782 0.6722542 0.79618984
000150 f9 57 1b 3f cb 0f af 3e ca da 1a 3f 45 90 63 3f
       0.6068111 0.34191737 0.60490096 0.8889201
000160 0f a9 2d 3f 3b 16 3f 3f 9e de 26 3f 44 1e 31 3f
       0.6783609 0.74643296 0.65183437 0.69186807
000170 71 e2 a7 3e 2b fb 56 3f 39 4c 30 3f dc 51 01 3f
       0.3278995 0.83977 0.68866307 0.5051553
000180 8d 21 91 3e 66 b7 be 3e ea 8d 8c 3e 14 15 df 3e
       0.2834591 0.37249297 0.27452022 0.4357077
000190 da 28 00 3f d7 91 d5 3e 1c 10 5e 3e d2 04 fd 3e
       0.50062335 0.4171283 0.21685833 0.4941774
0001a0 ab e1 f6 3e 6c 9e a1 3e 2a 0e cf 3e 5b 65 fc 3e
       0.48219046 0.3156618 0.40440494 0.49296078
0001b0 f1 8f ce 3e 99 ea 09 3f 8b e7 1d 3f dd e1 a5 3e
       0.40344194 0.5387359 0.6168143 0.32398883
0001c0 81 b2 03 3f 8f 61 a7 3d da ac 43 3f d4 46 cf 3e
       0.5144425 0.08172905 0.76435626 0.40483725
0001d0 27 c2 99 3e 06 2d 1c 3f bb 63 c8 3e 65 97 df 3e
       0.3003094 0.610062 0.39138588 0.43670192
0001e0 ee 92 31 3f 9f eb 19 3f 5d 0b f2 3e b4 0c a4 3e
       0.6936482 0.60125154 0.47274294 0.32040942
0001f0 7e 23 01 3f 75 2f 39 3f 06 b8 d2 3e 90 c4 32 3e
       0.5044478 0.7233804 0.41156024 0.17457795
000200 45 84 68 3f fb e2 e3 3e 1c 1d 04 3f 09 23 42 3f
       0.9082683 0.4450911 0.5160692 0.7583471
000210 13 6e 9d bd ba 2f 2a 3f 55 f5 4e 3f c6 a5 a6 3e
       -0.076870106 0.66479075 0.80843097 0.3254835
000220 c0 8a 72 3f d3 2f ee 3e f5 50 0e be 5e 4f 50 3f
       0.94742966 0.46520862 -0.1389807 0.81371105
000230 39 d2 fd 3e 47 d6 bc 3e cb b3 b8 3d 1a cc 0d 3f
       0.4957445 0.3688223 0.09018668 0.5538956
000240 5d 91 f1 3e 5c 41 4c 3f d6 8b 06 3f c5 4c ee 3e
       0.47181216 0.7978723 0.5255712 0.46542946
000250 fd 82 dd 3e 32 6e c3 3e b6 dc 0f 3f af 92 0b 3f
       0.43264 0.3817001 0.56196153 0.54520696
000260 d8 ac 2b 3f f2 ef d8 3e b1 5a 6a 3e f7 70 00 3e
       0.67060614 0.42370564 0.22886159 0.12543093
000270 d5 1d 22 3f 57 d0 36 3f 20 17 59 3f 30 ee e4 3e
       0.6332677 0.7141165 0.8480091 0.44712973
000280 4e ab 43 3f d6 dc 2d 3f a0 71 6e 3f 68 6f 12 3f
       0.76433265 0.67915094 0.9314213 0.5720124
000290 85 8a 0e 3f bc 20 93 3e 68 18 19 3f 00 05 04 3f
       0.55680114 0.28735912 0.59802866 0.5157013
0002a0 62 47 47 3f 9a dc ab 3e 23 a8 06 3f 96 80 15 3f
       0.77843297 0.33566743 0.52600306 0.5839933
0002b0 4b 5e c9 3e 01 3b ab 3e 59 5e 56 3f f0 f1 15 3f
       0.39329752 0.33443454 0.83737713 0.5857229
0002c0 af 03 1a 3f 2f 95 05 3f 6b ad 28 3f 2b cf a2 3e
       0.6016187 0.5218076 0.65889615 0.31798682
0002d0 30 76 cf 3e 49 6b fa 3e 13 84 32 3f c4 3b 01 3f
       0.40519857 0.48909977 0.6973278 0.5048182
0002e0 3d 5c 21 3f 22 8c 0f 3f 7c 55 11 3f a2 17 05 3f
       0.6303137 0.560732 0.56771064 0.51989186
0002f0 52 ae 48 3f 26 41 d6 3e 72 a7 50 3e 0b d8 29 3f
       0.7839099 0.4184658 0.20376375 0.6634528
000300 4d 36 44 3f 5d 36 0e 3f 3b 15 f3 3e 71 12 b0 bd
       0.76645356 0.555517 0.47477135 -0.085972674
000310 ee 1a 7b bd a1 2c 77 3f 9f 16 28 3f 00 2a 48 3f
       -0.06130498 0.96552473 0.6565952 0.78189087
000320 19 a1 e5 3e 19 e6 25 3f 56 39 a2 3d c8 d2 a6 3e
       0.4484947 0.64804226 0.07921092 0.32582688
000330 de 43 26 3f ac 2e 03 3f 24 bd 44 3f c4 71 44 3f
       0.6494731 0.5124309 0.76851106 0.7673609
000340 37 0c 0d 3f 04 c4 a9 3e 97 12 e4 3e d7 ad 16 3f
       0.55096763 0.3315736 0.44545433 0.5885901
000350 74 ab 14 3f e5 47 af 3e e5 82 06 3f d4 14 af 3e
       0.58074117 0.3423454 0.5254348 0.34195578
000360 f9 10 28 3f 7b 04 4d 3f aa 76 05 3f 97 a7 11 3f
       0.656509 0.8008496 0.5213419 0.56896347
000370 a6 ca 47 3f ce 7b 2b 3f e0 33 3d 3f e3 85 a0 3e
       0.7804359 0.66985786 0.7390728 0.31352147
000380 9f bd 62 3f a6 d7 e0 3e a8 a1 1e 3f df 69 96 3d
       0.8857059 0.43914527 0.6196542 0.07344412
000390 b1 58 a5 3e 6b f8 33 3e 12 74 08 3f 3e 6f ef bd
       0.3229423 0.17575233 0.5330211 -0.1169114
0003a0 e7 f0 f4 bb a6 1f c7 3e ea 0c 96 3e 74 c7 d9 3e
       -0.007475007 0.38891333 0.29306728 0.42534983
0003b0 b6 82 3e 3f c1 81 11 3f 0d 79 fc 3e 44 85 f5 3e
       0.744182 0.56838614 0.49311104 0.47953236
0003c0 cc 40 26 3f a1 b7 69 3f 3c d5 83 3f f4 c6 04 3f
       0.6494262 0.9129582 1.0299449 0.5186608
0003d0 79 a2 f8 3e c8 87 bc 3e 37 91 2c 3f 0d 3c 22 3f
       0.48561457 0.36822343 0.6740908 0.6337288
0003e0 b6 e5 04 3f 06 4f fd 3d 81 c4 2a 3f 40 18 ca 3e
       0.5191301 0.12368588 0.6670609 0.39471626
0003f0 6d 93 44 3f 50 ee a4 3e f2 e2 e3 3e 2a ed 47 3f
       0.76787454 0.32213068 0.44509083 0.7809626

norm_input.bias f4 [1920]
000000 34 d9 36 bc 1c e5 55 39 e4 46 4e bb 84 0f f5 3c
       -0.011160184 0.00020398613 -0.003147536 0.029914625
000010 c5 70 86 bb 53 ca fd bc 6b c7 64 3c 97 f2 6c bc
       -0.0041027986 -0.030980265 0.013963561 -0.014462135
000020 a2 9a ba 3b 8f 93 14 3c df 32 80 b9 c1 e8 39 3c
       0.005694703 0.009068384 -0.00024451964 0.011346997
000030 0d 2b e1 ba a6 f3 5d ba 34 4b 82 3c 67 df 1e bc
       -0.0017178968 -0.00084667874 0.015905 -0.009696818
000040 ad f3 fb bb a6 ec c5 3b b5 8a 85 3b c5 9a 26 bc
       -0.0076889605 0.0060401736 0.004075373 -0.010168736
000050 8e 49 cb 3b 9b 69 6a 3c 18 af bf 3b ca 44 d5 bb
       0.0062038368 0.014307405 0.00584973 -0.0065084444
000060 66 84 0a bc 04 ab b1 ba 18 ae 7d b9 2f 5f ec ba
       -0.008454418 -0.0013554995 -0.00024192815 -0.0018033738
000070 e3 1e d4 3b 8d 6d d0 ba 11 de e6 bb 4b d5 ba 38
       0.0064734085 -0.0015901789 -0.0070455153 8.9089e-05
000080 f8 73 90 3b e8 48 71 3b bf db 1e 3b 85 7d 67 3c
       0.004408356 0.0036817137 0.0024239866 0.014129047
000090 28 b0 8a 3c 19 c3 28 bc e6 6c 06 3b a1 c1 27 bc
       0.016929701 -0.010300421 0.0020511686 -0.010239036
0000a0 77 d6 80 3b 07 71 a8 bb 84 8c ff ba 1e df f7 bb
       0.003931816 -0.005140427 -0.0019496833 -0.0075644394
0000b0 9f 62 f0 ba c1 73 2f bc 35 57 63 bb 36 f2 10 3c
       -0.0018339938 -0.01070875 -0.003468943 0.00884681
0000c0 2a 7d f7 3b 90 1d 99 3b 47 ff 91 3a 32 4d 27 3b
       0.0075527625 0.0046727136 0.0011138701 0.002552819
0000d0 f7 a2 6f bc ff 51 68 bb 86 eb b8 3a 18 51 e6 3b
       -0.014626256 -0.0035449264 0.0014108277 0.00702871
0000e0 e7 c3 84 3c e2 a4 95 b9 a6 1b 23 3c 66 fe e7 37
       0.016206695 -0.00028542342 0.009955322 2.765581e-05
0000f0 67 00 34 ba 49 00 9b 39 c5 af 31 3b d5 4b a3 bb
       -0.0006866515 0.00029564116 0.0027112823 -0.004983405
000100 db 23 03 3c e9 db b6 bb 81 ff 03 3c 17 a8 22 3b
       0.008004154 -0.0055804146 0.008056522 0.0024819428
000110 0e a6 d6 3a b6 36 39 3c a2 d8 b2 3c 9e 00 9d bb
       0.0016376392 0.011304548 0.021831814 -0.0047913333
000120 6f 6e 66 3c a9 d1 2c bc bd 5f e0 bb 07 33 62 3a
       0.014064415 -0.010548034 -0.0068473504 0.00086288195
000130 08 5c 00 3a ae e6 b8 3b 1f 77 4e 3a 1e 36 8f bc
       0.0004896526 0.0056427335 0.0007876027 -0.01748186
000140 80 cc 3a 3b ed 64 c2 bc a1 87 0b 3b 50 ac f0 3c
       0.002850324 -0.023729766 0.0021290558 0.02937904
000150 67 1a 20 3c 34 b6 b0 3b 1a 18 c7 bb 4c b7 49 bc
       0.00977192 0.005392814 -0.006075871 -0.012311768
000160 c7 b4 df 3a 3f 77 76 3b d7 38 bc 3b 62 61 01 3c
       0.0017067426 0.0037607697 0.0057440805 0.007896753
000170 cb c9 db 3a 8b c1 1e bb f1 9e 94 3b 34 cf 84 39
       0.0016768513 -0.0024224247 0.004535549 0.0002533138
000180 e6 ed f0 bb 31 a8 b7 3b b0 1e 97 3b e7 04 46 3b
       -0.0073525785 0.005604767 0.0046118125 0.0030215324
000190 cd 15 f3 3b c0 f2 5b 3b 49 b4 0d 3a 65 f4 94 3b
       0.0074183703 0.0033561438 0.0005405588 0.0045457357
0001a0 23 5e 7a bb b0 c7 f9 ba 36 e2 10 bc 65 76 29 bc
       -0.0038203083 -0.0019056704 -0.008842995 -0.010343169
0001b0 f6 8c 9d 3a 8a 28 94 bb 8f f1 ca 3a 36 21 da b8
       0.0012020159 -0.004521434 0.0015483367 -0.00010401236
0001c0 b6 e3 a9 3b ef c4 08 3b d8 17 77 3a a6 3c eb bb
       0.005184616 0.0020869335 0.0009425855 -0.0071788607
0001d0 b9 93 9a bb 37 75 0c 3b 8b b5 f0 3b 47 5b 98 3a
       -0.004717317 0.002143217 0.0073458604 0.0011623882
0001e0 65 1f 51 3b 1c 9e 9a 3b 6f a1 86 b9 6a d4 ec 3b
       0.0031909582 0.004718555 -0.0002567875 0.00722747
0001f0 b4 57 b2 3c 93 9a 4c 3c a1 49 c9 bc e9 15 49 3b
       0.021770336 0.012488025 -0.024571242 0.0030683225
000200 e3 62 af 3c 66 50 1d ba 00 01 f8 3b 0a f1 80 3b
       0.021409458 -0.0006001055 0.0075684786 0.003934984
000210 c7 34 cd ba c0 41 ba ba ad e0 e3 3b f5 85 eb 3b
       -0.0015655988 -0.0014210269 0.0069542737 0.0071876
000220 8f ea 27 3c 96 74 85 ba b9 d3 74 bb c1 ff f2 bb
       0.010248794 -0.001018184 -0.0037357642 -0.007415742
000230 14 08 b2 bb 82 ed 43 bb 67 5e 55 3b 97 72 9d bb
       -0.005433092 -0.0029896204 0.003255749 -0.00480492
000240 54 7c ab bc 29 90 c9 bc c7 09 d3 3b 98 eb dc b9
       -0.020933308 -0.024604874 0.0064403745 -0.000421372
000250 98 00 27 bc fd 5b 21 3c c1 fe e5 3b f5 ac 15 bc
       -0.010193013 0.009848592 0.0070188944 -0.009135474
000260 c9 ea ac 3b 4a f7 04 bc 11 41 14 bc 5a a9 49 bb
       0.005277012 -0.008115599 -0.009048716 -0.0030771107
000270 0b 61 af bb e9 c6 76 bb 18 5f 0f 3c bd d6 4c 3b
       -0.0053521446 -0.003765518 0.008750699 0.0031255924
000280 5a 53 c4 3a 0d 15 41 3b 40 a8 e4 3b 31 49 19 bc
       0.0014978454 0.002946201 0.006978065 -0.009355829
000290 10 fd 9e ba 4e 5c f7 3b a5 5e c1 3b 7b 25 34 bc
       -0.0012129862 0.0075488454 0.005901175 -0.010995264
0002a0 0b fb dc bb cc f7 5a 3c 80 b9 16 3c 31 64 dd bb
       -0.006743794 0.013364743 0.0091995 -0.0067563285
0002b0 9d 59 2f bc 59 5c 95 3b 6c b5 b2 bc 81 1a c6 3b
       -0.010702518 0.004558128 -0.021815024 0.00604564
0002c0 6a e1 ab 3b d8 c6 dc 3b f1 1e 5b bb b5 d1 36 bb
       0.0052453773 0.006737571 -0.003343519 -0.0027895991
0002d0 b3 2a 71 ba 70 5a 95 bb bc 53 4e bc 7b f9 ba bb
       -0.0009199783 -0.0045579 -0.012593206 -0.00570601
0002e0 5a 82 54 3a f6 90 dc bb da 86 6d bc 36 76 7b bb
       0.0008106582 -0.006731148 -0.014497483 -0.003837002
0002f0 ad d5 ad 3b 5d 5e b0 bb 32 d1 d5 39 e5 fa b4 3b
       0.005305013 -0.0053823427 0.00040782389 0.005523073
000300 91 8e 88 3a 08 64 d1 bb 11 ee 08 ba 99 42 d9 3b
       0.0010418465 -0.0063900985 -0.0005223463 0.0066302535
000310 9b bd 33 bb df fb 69 3c 44 65 b9 3a b4 a0 13 bc
       -0.0027426246 0.014281242 0.0014144559 -0.009010483
000320 cc 6e 82 bb 15 cc 45 bb 76 fe ea ba de c6 3b 3b
       -0.003980493 -0.0030181457 -0.0017928618 0.002865247
000330 84 6b ed bc aa 44 04 bc c6 c5 ac ba 61 9b 11 bc
       -0.028981932 -0.008073011 -0.00131815 -0.008887143
000340 6a b8 b4 3a 93 eb d0 3b 0c 44 d7 bc 8e 8c 2b 3b
       0.001378787 0.006375739 -0.026277564 0.0026176306
000350 17 0a 39 b5 e8 ec e7 ba 5e c1 dc 3b d2 a4 42 3b
       -6.8932553e-07 -0.0017694505 0.0067369184 0.0029700291
000360 33 e1 52 bc d1 21 b1 3a 08 48 25 bb 93 8e b0 38
       -0.0128710745 0.0013514106 -0.0025219936 8.4188905e-05
000370 7f 5c 79 bc bc 44 55 bc ad a6 e9 bb 3b d4 4b bb
       -0.015219807 -0.013016876 -0.007130465 -0.003110184
000380 c8 09 d1 bc f6 56 0f bc 37 96 99 bb 99 fe ef 3a
       -0.02551736 -0.00874876 -0.0046870965 0.0018310129
000390 32 9e 3c bb 7c 1b e9 3a 5e 76 77 3c 68 98 83 3b
       -0.0028780815 0.001778468 0.0151039045 0.004015971
0003a0 67 fe 0a bc 7b b6 84 ba 51 9d 23 bb 8b d1 bb bb
       -0.008483506 -0.0010125184 -0.0024965594 -0.0057317666
0003b0 1e 19 11 bd c4 50 d6 3b 6b ea a3 ba 2b 2b 81 ba
       -0.035424344 0.0065403897 -0.0012505775 -0.0009854784
0003c0 be 49 52 bc 77 c7 0e bc 27 cb 89 3c 84 15 84 bb
       -0.012834964 -0.008714548 0.016820503 -0.004030885
0003d0 18 81 08 bc c4 b1 e1 3b 6b f7 4b 3c 80 e8 91 bc
       -0.00833156 0.0068876464 0.012449126 -0.01781106
0003e0 2e 15 68 3a a1 c9 3b 3b 68 f4 31 3c 03 a8 d2 3b
       0.00088532537 0.0028654116 0.010861494 0.00642872
0003f0 83 3d c3 3b 44 f7 c0 bb a9 1b f0 bb 83 8e 8f 3c
       0.0059582605 -0.0058888514 -0.007327516 0.01752401

norm_input.running_mean f4 [1920]
000000 dc 4b 1f c0 49 89 b5 bf 7f f9 6e 3f e8 bc 0e bd
       -2.489005 -1.4182521 0.9334945 -0.034848124
000010 28 04 8e 3f 04 56 8f 3d af 87 d8 3e a5 15 cc be
       1.1095018 0.06998828 0.42291018 -0.39860263
000020 09 d5 a6 3f 8d 54 a7 3f 6a a9 f0 3f e1 e2 67 bf
       1.3033763 1.3072678 1.8801701 -0.90580565
000030 d0 02 23 3f a4 c4 14 c0 8c 7b 4c 3e 1f 8a e1 3e
       0.63676167 -2.324502 0.19969004 0.4405069
000040 1a 03 a3 3e dc c6 9a bf b7 d9 eb bb fd e4 fe 3f
       0.31838304 -1.2091937 -0.0071975845 1.9913632
000050 3a 21 cb be 97 a2 2c 3e 61 db b8 3e d6 9a 11 40
       -0.39673787 0.16858898 0.36104873 2.2750754
000060 af de b5 bd 15 b0 94 bf 45 f5 fc be 67 b0 82 be
       -0.08880364 -1.1616236 -0.49405876 -0.2552521
000070 8d a2 a4 3b 1f 07 0a c0 43 e5 c0 3e 46 67 1d 40
       0.0050242604 -2.1566846 0.37674913 2.4594283
000080 23 e2 12 40 5b 5c d2 bf 45 19 12 c0 49 e6 9f bf
       2.2950523 -1.6434435 -2.2827923 -1.2492152
000090 8e c4 68 c0 d8 28 47 be 96 30 8f bf 70 f0 02 c0
       -3.6369967 -0.19449174 -1.1186702 -2.0459251
0000a0 99 b2 87 3e 09 62 c9 bf 61 26 2d c0 23 0a 6d 42
       0.26503447 -1.5733043 -2.7054675 59.2599
0000b0 d4 ce d5 bf 47 50 46 40 7c 66 48 bf 2a fd a0 3f
       -1.6703744 3.0986497 -0.7828138 1.257726
0000c0 e1 db 6c 3f 13 37 de bf 97 cf 99 be ef 55 ff 3c
       0.9252301 -1.7360557 -0.3004119 0.031168906
0000d0 a7 b3 86 3e 6b 6e 22 bf 20 c5 e3 bf 8b 73 5f bf
       0.2630894 -0.63449734 -1.7794533 -0.8728568
0000e0 2c bd 40 bf be 2c b9 3f 56 fb 49 bb 94 71 f0 bf
       -0.75288653 1.4466779 -0.0030819974 -1.8784661
0000f0 ee f9 eb be db ff c6 3f 54 d4 80 bd c6 c1 b8 3f
       -0.4608912 1.5546831 -0.062904984 1.4434135
000100 a1 ff 21 bf 2d fe d4 bf bf ba cf bf 80 2c d6 3f
       -0.63280684 -1.6640068 -1.6228865 1.673233
000110 8b b5 2f 3f 5b fd e7 bc f9 33 cf bd 7f 38 c6 3f
       0.6863639 -0.028319051 -0.10117335 1.5485991
000120 76 27 49 c0 ed 5f 14 c0 43 0e 79 bf a4 1d 2a 40
       -3.1430335 -2.3183548 -0.97287387 2.6580591
000130 0f e8 12 3d 28 b7 ff be 34 9e 5a bf 05 35 3b be
       0.03586584 -0.49944425 -0.8539765 -0.18281944
000140 89 39 fb bf 56 ae 65 c0 23 38 58 3f 97 2d 90 3f
       -1.9626933 -3.5887656 0.8446066 1.1263913
000150 14 19 90 3f 68 80 ee bf 18 d0 0e 40 4c 42 a8 bc
       1.1257653 -1.8632936 2.231451 -0.020539425
000160 95 0f 89 be a1 8d f3 bf f2 44 f1 3f f5 f8 92 bf
       -0.267697 -1.9027597 1.8849165 -1.1482226
000170 5c 11 bf 3d 87 b7 f0 3e 0a 12 02 40 43 46 3b 3f
       0.09329483 0.4701502 2.032351 0.73154086
000180 4b a5 e1 be 1a 2c 68 bf dc 8d d0 3e 4d aa b7 bf
       -0.4407142 -0.90692294 0.4073323 -1.4348847
000190 93 a0 49 3f c8 ba 86 c0 c0 46 06 3b 1e 0b 35 c0
       0.7876064 -4.2103004 0.0020488948 -2.8288035
0001a0 bf 62 b2 3f c7 e1 9f bf bb 25 fc 3f 26 29 9e bf
       1.3936385 -1.2490777 1.9699014 -1.2356308
0001b0 9f 10 54 be 1a 6c ae bf c4 fc ca bf 34 8d 08 3f
       -0.20709465 -1.362674 -1.5858388 0.5334046
0001c0 5b a0 57 3f bc 40 8c 3f 53 b6 21 bf e0 9f 63 3f
       0.8422906 1.0957255 -0.6316883 0.88915825
0001d0 ef 19 ad bd d9 92 ad 3f 24 c5 b9 be b0 0e af bf
       -0.08452212 1.3560439 -0.3628322 -1.3676357
0001e0 ef 69 aa 3f 39 02 e5 be 0e 62 12 c0 54 83 12 c0
       1.3313578 -0.44728258 -2.2872348 -2.2892656
0001f0 b5 4a a8 3f 1b 1d dd bf f0 3f 76 bb 68 89 69 3f
       1.3147799 -1.7274507 -0.003757473 0.9122529
000200 b6 0c 6f 3f 84 08 bb 3f ce 8a 07 bf 4f 9b a6 be
       0.9337877 1.4611974 -0.52946174 -0.32540366
000210 d1 65 c2 3f cf da 83 be d4 33 1f c0 d1 6d 31 bf
       1.5187322 -0.25752875 -2.4875383 -0.6930819
000220 7f 26 8e 3f 59 c5 97 3c 2b b0 b5 3f 72 5a 3c bf
       1.1105498 0.01852672 1.4194387 -0.7357551
000230 c4 88 dd 3e 87 7a 8f bf 09 40 e2 41 92 13 82 be
       0.43268406 -1.1209267 28.281267 -0.25405556
000240 1e a4 94 bf 19 31 2d c0 40 d0 0c 40 e0 dc 40 3e
       -1.1612585 -2.7061217 2.2002106 0.18834257
000250 cf a8 be be 8b 36 21 c0 20 ed d3 bf 1d fd 1d c0
       -0.37238166 -2.518954 -1.655674 -2.4685738
000260 d1 83 c5 3f d3 0c f4 3c b0 20 f9 bf 45 66 fe 3f
       1.5430852 0.029791271 -1.94631 1.987496
000270 9c ed 45 40 1b ca 8b bf 26 19 f4 be d6 1d 4f 40
       3.0926275 -1.0921053 -0.47675437 3.236196
000280 d7 f2 6b bf 07 8a 5f 3e 3b d9 de bf 19 18 ea ba
       -0.9216742 0.21829997 -1.7410043 -0.0017859965
000290 c8 f8 19 bf 3b be 74 bf bf 75 e7 3f f7 e3 ab 3f
       -0.60145235 -0.9560277 1.8082808 1.3428944
0002a0 1c 88 d1 3e f8 47 bb be 59 21 88 be ab 8b 43 3e
       0.40924156 -0.36578345 -0.26587942 0.19096248
0002b0 60 c7 0c bf 21 77 d7 40 0f a0 98 be 52 cc af 3e
       -0.5499172 6.733292 -0.29809615 0.34335572
0002c0 51 ab 3a bf 4b 32 20 be db 96 3a 40 ec a5 0b bf
       -0.7291766 -0.15644185 2.9154575 -0.5455005
0002d0 67 39 6d c0 54 ee 53 bf ae 3e e9 bf 5b 68 88 3f
       -3.7066286 -0.82785535 -1.8222253 1.0656847
0002e0 62 28 95 3f e5 a1 5e 3e da 2d a2 3e 4d 4b bf 3d
       1.1652949 0.21741445 0.31675607 0.09340534
0002f0 03 0d 56 3d 24 eb 4e 3f 1a 62 c0 3f a6 02 cb bf
       0.052258503 0.80827546 1.5029938 -1.5860183
000300 43 55 3a 40 57 d6 a0 bf 48 de 93 3f 54 8f 92 3f
       2.911454 -1.2565411 1.155221 1.144999
000310 bd 10 3c c0 ce ce c5 3f cb 8f f8 3f b6 ef 55 bf
       -2.9385216 1.5453737 1.9418882 -0.83568895
000320 5e 23 ea 3f ed ae fe 3d fd fb cb 3f 79 ec 44 40
       1.8292043 0.12435708 1.5936276 3.0769331
000330 88 ff 5b 3f 8c ea 19 3f ed 2d c6 be 52 c1 a4 3f
       0.85936785 0.60123515 -0.38706914 1.2871497
000340 49 ab 05 40 26 e0 e0 3e 42 1a 4e be fa 1f 29 40
       2.0885794 0.43921012 -0.20127204 2.6425767
000350 32 12 41 c0 16 bb d7 3e ac 14 2c bf cb 58 48 3f
       -3.0167356 0.42134923 -0.6721904 0.7826049
000360 c4 7e af 3d dc 6a 8f bf df 9c c5 be 22 f6 aa 3e
       0.085691005 -1.1204486 -0.38596246 0.3339091
000370 df a2 23 bf 90 58 2a 3f b7 45 ba 3d 8e 87 32 be
       -0.63920397 0.66541386 0.09095328 -0.17434523
000380 f3 41 c7 be 04 aa 3d 3f a1 59 0b 3e 96 f2 ac 3f
       -0.38917503 0.7408755 0.1360841 1.3511531
000390 8d 4a ef bf 25 e2 1e ba dd 54 d2 be 44 d3 b8 be
       -1.8694626 -0.000606092 -0.4108037 -0.36098683
0003a0 50 9a 00 c0 36 2e 58 c0 db 66 ab 3e 98 bf 4b c0
       -2.0094185 -3.3778205 0.3347691 -3.183569
0003b0 35 17 09 3f 31 1a 08 be ae 52 bc 3f 8b 4e 0d 3f
       0.53551036 -0.13291241 1.4712732 0.5519797
0003c0 62 6a 33 3f 16 fc 25 3f 3a 34 57 3f f6 a7 ab 3f
       0.700842 0.6483778 0.84064066 1.3410633
0003d0 2c 61 19 3f 58 20 27 3f e1 73 b3 be 06 6a 11 40
       0.599139 0.6528373 -0.35049346 2.2720962
0003e0 76 ab 5b 3f 69 db 3d c0 42 ed 1e bf d0 c8 8b c0
       0.85808504 -2.9665167 -0.62080777 -4.3682632
0003f0 1b bc 5a 3f 67 ff ee be e9 9a 66 3f ad a2 0d c0
       0.85443276 -0.46679232 0.90080124 -2.213054

norm_input.running_var f4 [1920]
000000 ad f1 a3 40 48 10 e2 40 84 4e 02 41 74 67 97 40
       5.1232514 7.0644875 8.144169 4.7313786
000010 42 89 d1 40 f5 dc b4 40 2e 05 ea 40 5a 76 96 40
       6.548005 5.6519723 7.3131323 4.701947
000020 cf 7f 82 40 ac e9 98 40 34 8d fd 40 f2 79 92 40
       4.0781016 4.7785244 7.9234867 4.577386
000030 ba 8c 7b 40 f6 e4 a0 40 46 58 a1 40 ee c5 ba 40
       3.9304643 5.0279493 5.0420256 5.8366613
000040 c7 d4 ef 40 91 51 d7 40 ce 4d e1 40 e5 64 b1 40
       7.494724 6.728707 7.0407476 5.543566
000050 97 03 c4 40 20 b5 b3 40 6f 6f 03 41 1f 99 01 41
       6.125438 5.61586 8.214705 8.099883
000060 24 3d bc 40 24 0b ac 40 24 6a b6 40 e9 b7 f0 40
       5.8824635 5.37636 5.7004566 7.52245
000070 dc d5 9a 40 a5 73 b3 40 55 eb bf 40 4b d3 a8 40
       4.838606 5.607867 5.997477 5.2757926
000080 15 25 da 40 84 06 bb 40 22 11 ac 40 76 f5 c6 40
       6.8170266 5.8445454 5.3770914 6.2174635
000090 89 4f 00 41 fe da c2 40 31 1b b0 40 39 86 02 41
       8.019418 6.0892324 5.5033193 8.157769
0000a0 c3 3d ec 40 44 ff bf 40 be a6 9c 40 99 20 e9 43
       7.3825393 5.9999104 4.8953543 466.25467
0000b0 78 14 97 40 1e 13 d6 40 47 ec ee 40 1a 43 a0 40
       4.7212486 6.6898336 7.4663424 5.008191
0000c0 dc 9c 9c 40 47 b8 d2 40 0d aa d6 40 94 59 c1 40
       4.894148 6.584995 6.708258 6.042185
0000d0 ab c0 07 41 e8 d1 05 41 4e 0d ae 40 a6 78 a2 40
       8.484538 8.363747 5.439124 5.0772276
0000e0 e4 2f af 40 35 37 ac 40 b4 3d cc 40 71 82 b7 40
       5.474596 5.381739 6.382532 5.734673
0000f0 40 43 e6 40 df e0 a8 40 5a d5 e7 40 72 81 f0 40
       7.195709 5.27745 7.244794 7.5158014
000100 75 65 12 41 da e4 be 40 09 95 c8 40 ff e7 41 41
       9.14977 5.965436 6.268193 12.11914
000110 a0 f6 cc 40 7f 09 bc 40 81 47 b8 40 b9 19 ae 40
       6.4051056 5.876159 5.7587285 5.44064
000120 38 ba d3 40 4c 9d c1 40 b9 8a a0 40 6b 30 e5 40
       6.616482 6.0504513 5.016934 7.1621604
000130 c3 50 99 40 cd be af 40 2e cd f4 40 97 85 fb 40
       4.7911086 5.492041 7.6500463 7.8600574
000140 0a 35 9a 40 b4 26 aa 40 cd 79 be 40 e8 88 bf 40
       4.8189745 5.3172245 5.9523683 5.985462
000150 32 92 eb 40 61 d7 a1 40 59 8c 98 40 ad cb af 40
       7.361596 5.0575414 4.7671323 5.493613
000160 38 8e ba 40 9b bb b6 40 09 b6 74 40 1e d3 f8 40
       5.8298607 5.710401 3.8236105 7.775771
000170 fb b9 b8 40 d7 0d 87 40 ae 9f 84 40 3a 49 c4 40
       5.7727027 4.2204394 4.144492 6.133939
000180 51 34 bd 40 92 ea 34 41 6c 86 86 41 fd 05 af 40
       5.9126363 11.307268 16.815636 5.469481
000190 7a 1b 10 41 af aa c4 40 5e 60 cc 40 4f 20 9a 40
       9.006708 6.1458354 6.3867636 4.816444
0001a0 f3 02 f1 40 1e 75 a3 40 d4 bc 8d 40 90 88 ac 40
       7.53161 5.1080465 4.4293003 5.39167
0001b0 b0 48 ae 40 c7 30 34 41 d0 89 a6 40 d0 79 1b 41
       5.446373 11.261909 5.204323 9.717239
0001c0 8d 45 0c 41 0e 61 cf 40 80 7e 8c 40 7f 4b 08 41
       8.76698 6.4805975 4.390442 8.518432
0001d0 a7 aa 95 40 52 30 ae 40 39 99 8f 40 97 71 bf 40
       4.6770816 5.4433985 4.487454 5.982616
0001e0 84 6f 92 40 47 c9 c3 40 c8 a4 16 41 51 ae 0e 41
       4.5761127 6.11832 9.41523 8.917558
0001f0 b7 39 c1 40 de b8 b6 40 99 0a fc 40 f6 10 d3 40
       6.0382953 5.710067 7.8762937 6.5958204
000200 2b cc d2 40 7a 96 f0 40 52 b8 c5 40 12 e8 de 40
       6.587423 7.5183687 6.17875 6.965829
000210 71 43 af 40 1e 5f e6 40 4b 04 a9 40 c6 0e b8 40
       5.4769826 7.199111 5.281774 5.7518034
000220 9f ed fc 40 a6 08 c3 40 94 1d 15 41 f1 df a5 40
       7.9040065 6.0948057 9.319721 5.1835866
000230 5f fd 04 41 36 cc 97 40 fd 13 b5 42 f2 d2 b9 40
       8.311858 4.743678 90.53904 5.807
000240 0e 7b 83 40 4c 7a c4 40 3d c5 9d 40 45 55 d4 40
       4.1087713 6.139929 4.930327 6.635409
000250 00 24 29 41 6b 38 04 41 92 af a0 40 df 5e 9c 40
       10.571289 8.263774 5.021432 4.886581
000260 0d a8 f1 40 4c 92 03 41 10 dc ca 40 f8 6a ac 40
       7.551764 8.223217 6.339363 5.3880577
000270 91 be ce 40 51 94 9e 40 38 1f ba 40 d1 1a e8 40
       6.4607625 4.955605 5.816311 7.2532735
000280 ea b4 d4 40 f7 83 cb 40 15 a4 9c 40 dc df 9e 40
       6.647084 6.359859 4.8950295 4.9648266
000290 24 d9 d1 40 6f 33 b7 40 90 78 9d 40 42 b6 bb 40
       6.5577564 5.7250285 4.920967 5.8659983
0002a0 42 93 b4 40 0b 7c af 40 98 2e da 40 c0 dc c3 40
       5.642976 5.483892 6.8181877 6.120697
0002b0 ef 0b a7 40 68 a4 a6 41 2d a9 93 40 48 f5 b6 40
       5.2202067 20.830276 4.6144013 5.7174416
0002c0 3d 13 3a 41 8a 8b 99 40 a4 89 be 40 a2 4d 02 41
       11.629697 4.7982836 5.954302 8.143953
0002d0 49 4d b5 40 3e 75 f9 40 28 5b db 40 32 91 b8 40
       5.665684 7.795562 6.8548775 5.767724
0002e0 36 8d aa 40 09 85 9b 40 4a b6 b5 40 01 2c 0b 41
       5.3297377 4.8599896 5.678502 8.698243
0002f0 e3 05 b8 40 a4 63 b5 40 a2 1a b2 40 0a 3c a3 40
       5.7507186 5.668413 5.565751 5.101079
000300 74 d2 cd 40 0f 41 c1 40 7a 6e 6b 40 32 e9 aa 40
       6.43194 6.0391917 3.678618 5.340966
000310 f7 dc a9 40 00 03 d9 40 5c 13 dd 40 1f c4 7a 40
       5.3082232 6.781616 6.908613 3.9182203
000320 26 6b cf 40 cd 6f 0e 41 38 2a a9 40 a6 bd d8 40
       6.4818296 8.902295 5.2864037 6.7731504
000330 09 d8 94 40 f5 bf bb 40 c6 e6 b9 40 41 a0 c1 40
       4.6513715 5.8671823 5.8094206 6.0508122
000340 73 6d a2 40 34 49 8e 40 9a b1 a4 40 78 36 97 40
       5.0758605 4.446436 5.14668 4.725399
000350 8b 7c ec 40 d3 e1 a1 40 1f 94 d7 40 c6 bd b1 40
       7.390203 5.0588164 6.736831 5.5544157
000360 60 44 90 40 6c 60 1c 41 24 6b b5 40 1d 34 dd 40
       4.5083466 9.7735405 5.6693287 6.9126115
000370 22 75 ec 40 88 75 72 41 de 23 b9 40 8d 7d bb 40
       7.3892984 15.153694 5.7856283 5.859076
000380 94 08 9f 40 14 b2 12 41 12 0f d9 40 1b ed 02 41
       4.969797 9.168476 6.7830896 8.182887
000390 b9 83 b1 40 62 16 dd 40 ab b7 db 40 6b a3 b8 40
       5.5473294 6.9089823 6.8661704 5.7699485
0003a0 9b 21 92 40 36 19 c5 40 81 0a b0 40 4d fb 96 40
       4.566602 6.1593275 5.501282 4.7181764
0003b0 73 50 ca 40 05 e0 ed 40 ef 47 ae 40 6f 54 d5 40
       6.3223205 7.433596 5.446281 6.666557
0003c0 eb af 03 41 24 69 bb 40 b6 66 b6 40 27 52 c3 40
       8.230449 5.8565845 5.700038 6.1037784
0003d0 74 12 b1 40 2b f8 b6 40 b0 b7 e2 40 54 69 b0 40
       5.5335026 5.717794 7.084923 5.5128574
0003e0 13 9a 86 40 1d e9 a5 40 3b 89 89 40 a2 b9 b5 40
       4.206308 5.184706 4.298002 5.6789103
0003f0 19 54 7a 40 26 5b 11 41 f4 0d f9 40 71 71 cc 40
       3.911383 9.084753 7.7829533 6.388848

transformer.norm.weight f4 [1920]
000000 c3 d0 3a 3f b3 de 30 3e 08 55 29 3f fc 77 ac 3f
       0.72974795 0.17272453 0.6614537 1.3474116
000010 51 b4 b0 3e 5e 14 2a 3f ee b2 06 3f 68 3a 18 3f
       0.3451257 0.6643733 0.52616775 0.5946412
000020 a2 11 db 3e e7 a6 34 3f 63 4f 52 3e 5f 50 d5 3e
       0.4278689 0.7056717 0.20538096 0.4166288
000030 a9 fd 7b 3e 75 80 3d 3e 15 4d b4 3e 15 ae 2b 3e
       0.24608482 0.18506034 0.3521506 0.16765626
000040 3f 39 8a 3f a9 db ce 3e 3b 51 4d 3d 72 1a 3d 3e
       1.079872 0.40401962 0.050126296 0.1846712
000050 ab ab 84 3f f3 e2 99 3e f6 a8 06 3e 6f 5f 7c 3f
       1.0364889 0.3005596 0.13150391 0.9858312
000060 7b f5 59 3f 12 a6 94 3e 14 2b 0b 3d d3 41 83 3e
       0.851402 0.29032952 0.03397663 0.25636157
000070 4d b2 f3 3e 78 4a 1c 3f df 08 ce 3e 38 ef ce 3e
       0.4759697 0.6105113 0.40241143 0.40416884
000080 78 36 e8 3e 6f 83 23 3f 6a 44 a2 3b 8a 8c 21 3f
       0.45354056 0.63872427 0.0049520032 0.6310507
000090 a3 4f 74 3f 8f ed 56 3f 5f 80 58 3f b4 cc 4c 3e
       0.95434016 0.83956236 0.8457088 0.19999963
0000a0 db ba d1 3d 48 45 12 3f b0 4f 6a 3f b5 49 01 3f
       0.10240718 0.57136965 0.91527843 0.50503093
0000b0 14 95 84 3e e9 a2 36 3f ed a4 68 3f 07 49 58 3f
       0.25894988 0.7134233 0.90876657 0.8448643
0000c0 05 38 d2 3e 53 7b 2c 3f bc a3 ae 3c 21 94 85 3e
       0.41058365 0.6737568 0.021318309 0.26089576
0000d0 8b bd 49 3f 3a 32 59 3f 79 23 e4 3e cf 83 10 3f
       0.78804845 0.84842265 0.44558313 0.56451124
0000e0 03 2e e1 be a4 e4 85 3f c3 1e 11 3f e0 66 ea 3d
       -0.43980417 1.04604 0.56687564 0.11445403
0000f0 94 ef d3 3e 81 73 93 3d 63 be 02 3f ac 30 17 3f
       0.4139372 0.07199765 0.5107176 0.5905864
000100 28 55 bd 3e d9 d7 b6 3e 38 51 4d 3f ac 0d ad 3e
       0.36979032 0.35711554 0.80202055 0.33799493
000110 a5 97 e5 3e ac 1d 1c 3f 77 60 86 3f f5 9e 0e 3f
       0.44842258 0.60982776 1.0498189 0.557113
000120 f9 c2 ea 3e e1 35 08 3f c3 27 19 3f 5f d0 1c 3e
       0.45851877 0.5320721 0.59826297 0.15313862
000130 5f a2 ff 3e bf 43 77 3e 26 5c 81 3c db 9a 0c 3f
       0.49928567 0.24146937 0.01579101 0.5492379
000140 c7 d9 2b 3f 52 d7 23 3f a9 25 18 3f ca 98 6c 3f
       0.67129177 0.6400043 0.59432465 0.9242064
000150 d7 50 ff 3e 51 99 a1 3e f9 28 16 3f 6e f1 81 3f
       0.49866363 0.31562284 0.5865627 1.0151803
000160 0f 26 2b 3f 0e 73 55 3f de 36 36 3f 7e e1 4d 3f
       0.6685495 0.83378685 0.7117747 0.804222
000170 a2 ac 48 3e 24 47 89 3f 30 8d 4a 3f 2c e8 b9 3e
       0.19597104 1.0724835 0.79121685 0.36309946
000180 b7 2f 1d 3e 7d 3c 7a 3e 7d fc f0 3d b4 87 dd 3e
       0.15350233 0.24437137 0.11766908 0.43267596
000190 5b 46 e6 3e b3 6a 9f 3e a9 be a7 3d 19 6f f4 3e
       0.44975552 0.31136093 0.081906624 0.4774101
0001a0 81 19 c1 3e 08 c5 48 3e 07 50 08 3f 98 fa 05 3f
       0.3771477 0.19606411 0.5324711 0.523355
0001b0 04 62 89 3e 26 65 e5 3e c0 b9 18 3f e1 97 84 be
       0.26832592 0.44803733 0.5965843 -0.25897124
0001c0 c0 bb d5 3e d5 ac 5a bc a7 99 68 3f df de bd 3e
       0.41744804 -0.01334687 0.90859455 0.370841
0001d0 e9 d5 80 3e 8a 77 2d 3f 67 bd 7f 3e 08 c9 b2 3e
       0.251632 0.6776053 0.24974595 0.34919
0001e0 d8 16 2f 3f 5f e7 12 3f fa 96 b4 3e 09 de 37 3e
       0.6839423 0.57384294 0.35271436 0.17955793
0001f0 b1 a9 02 3f 4f 1e 35 3f a3 dd 78 3e 19 7a 27 bd
       0.5104018 0.7074937 0.24303298 -0.040887926
000200 75 65 90 3f 36 2f a5 3e 18 f4 d5 3e 16 e8 51 3f
       1.1280962 0.32262582 0.4178779 0.8199476
000210 ea 63 ac bc 80 a1 50 3f f3 1a 39 3f 50 8a 3c 3e
       -0.021043736 0.8149643 0.72306746 0.18412137
000220 7f f2 9d 3f 56 bf 0e 3f 69 91 86 be c1 ef 83 3f
       1.2339629 0.55760705 -0.26282814 1.0307542
000230 6f 16 ad 3e 94 fb 90 3e ec cf 02 3a d4 2a 1d 3f
       0.33806178 0.2831694 0.0004990089 0.61393476
000240 71 23 0c 3f da d4 4a 3f 5a a1 d9 3e f0 3e fa 3e
       0.5474158 0.79231036 0.42505914 0.48876143
000250 1b 6d c5 3e 51 ab c7 3e e6 1e 31 3f 72 63 0d 3f
       0.38559803 0.38997892 0.6918777 0.55229867
000260 f4 0f 40 3f 76 26 a2 3e 7c 91 13 3e 5f 3a ce 3c
       0.7502434 0.31669968 0.14410967 0.025174318
000270 93 5d 17 3f 49 c5 3e 3f 12 dd 80 3f 84 4a 01 3f
       0.5912716 0.74519783 1.0067465 0.50504327
000280 c5 e5 3e 3f 41 ce 24 3f 90 05 88 3f a4 f5 20 3f
       0.7456935 0.6437722 1.0626698 0.6287482
000290 7f 64 d9 3e 8b 99 86 3e 5e 2d 12 3f 9c da 15 3f
       0.42459485 0.2628902 0.57100475 0.58536696
0002a0 53 59 27 3f cb 3e 69 3e db 02 0f 3f 42 7b 28 3f
       0.6537067 0.2277786 0.5586373 0.65813076
0002b0 64 67 94 3e 62 fa 56 3e 21 aa 81 3f e9 42 ed 3e
       0.2898513 0.20993951 1.0130044 0.4634011
0002c0 f4 84 34 3f 9f 47 0b 3f 22 cd 2b 3f 99 9f 2c 3e
       0.7051537 0.5440616 0.6710988 0.16857757
0002d0 4c 9d 92 3e 67 66 cc 3e 4b 84 20 3f e0 e0 ab 3e
       0.28635633 0.39921877 0.62701863 0.33570004
0002e0 3a f4 46 3f da dd 15 3f b6 26 14 3f e4 63 dd 3e
       0.7771641 0.58541644 0.5787157 0.43240273
0002f0 33 19 72 3f 97 f5 b4 3e 10 33 0e 3e 1c d3 0d 3f
       0.945697 0.3534362 0.13886666 0.5540025
000300 da 75 36 3f 0a 54 1d 3f d3 c2 a3 3e e7 b1 65 3d
       0.7127358 0.6145636 0.31984577 0.056077864
000310 48 b1 a2 ba 80 ef 8d 3f 5c 89 5b 3f 53 e3 7f 3f
       -0.0012412453 1.1088715 0.8575647 0.99956244
000320 59 be df 3e bb 5f 40 3f f8 1d 5d 3d 27 84 36 be
       0.4369991 0.75146073 0.05398366 -0.1782385
000330 a1 e8 3c 3f e9 2e dc 3e 2e dd 42 3f b3 5b 57 3f
       0.73792464 0.4300454 0.76118743 0.84124297
000340 a6 ad 03 3f 7b b3 8e 3e 13 2d 14 3f fa 1f 02 3f
       0.5143684 0.27871308 0.5788128 0.5083004
000350 63 5c ff 3e 39 4a 47 3e de e1 e9 3e 1c aa c7 3e
       0.49875173 0.19461907 0.45680135 0.3899697
000360 6c 50 24 3f 9d 5c 46 3f f9 ec 01 3f 2e ca 05 3f
       0.64185214 0.77485067 0.50752217 0.52261627
000370 18 b5 49 3f a2 6f 30 3f 31 a5 6b 3f fb 82 2a 3e
       0.7879195 0.6892034 0.9204894 0.16651528
000380 b2 a0 7b 3f 88 30 0d 3f ac be 2e 3f 0c 4b 58 3d
       0.98292077 0.5515218 0.6825969 0.052805945
000390 1d ab b4 3e 67 42 ec 3d 4f 19 12 3f b1 de 9f 3c
       0.352868 0.11536103 0.5706987 0.019515367
0003a0 e2 c0 03 3a 08 6f 89 3e 26 86 52 3e fe 76 b0 3e
       0.0005025995 0.26842523 0.20558986 0.34465784
0003b0 df e5 3c 3f c5 1e 44 3f 5e c5 ec 3e 74 91 c6 3e
       0.73788255 0.7660945 0.4624433 0.38782847
0003c0 bb ca 27 3f 97 80 8a 3f 8b 72 9a 3f ef 60 06 3f
       0.6554372 1.0820493 1.2066206 0.5249166
0003d0 d7 69 d1 3e e2 1c 89 3e 34 7b 46 3f 25 b2 3f 3f
       0.40901062 0.26779848 0.77531743 0.748812
0003e0 76 2c c8 3e b2 2b 1f bc cc 41 52 3f 9e 4d 8a 3e
       0.3909642 -0.009715008 0.8213165 0.27012342
0003f0 46 1d 5b 3f 98 5c 1b 3e 79 2d b7 3e 29 70 74 3f
       0.8559154 0.1517204 0.3577688 0.9548364

transformer.norm.bias f4 [1920]
000000 ea 58 03 be 38 c8 91 bd 3b 71 69 3d e0 32 25 3e
       -0.12826887 -0.07118267 0.05699275 0.16132689
000010 94 5c 13 be 3e c7 c2 3e a5 da 8b 3e 70 09 4b be
       -0.14390785 0.38042635 0.2731525 -0.19827819
000020 b3 c6 21 ba db dc 9b 3e 86 c0 aa bd a6 d2 9c be
       -0.0006171271 0.30441937 -0.08337502 -0.30629462
000030 7d 78 59 bd 0c 50 d0 3d 68 4b 19 be ca 97 de bd
       -0.053093422 0.10171518 -0.14970171 -0.10868795
000040 ea 14 ec 3d 32 3c 0b 3d b2 23 7a bd 3c 2a 17 3e
       0.115274265 0.033992954 -0.061069198 0.14762205
000050 72 7c 14 3e 6a a4 6a be 2d 16 09 be 7c 43 fd bc
       0.14500597 -0.22914281 -0.13387366 -0.030915968
000060 ae a2 28 3c 38 ad a1 3d 15 26 f4 3a 53 c4 b1 3d
       0.010292692 0.07894367 0.0018627072 0.08680024
000070 b5 32 85 3b 22 b9 8b 3e e3 1e 80 bc 6c 7d 9a 3d
       0.0040648826 0.27289683 -0.015639728 0.075434536
000080 4b c9 28 3e 55 f3 4c be 98 10 96 be bf 9b a9 bd
       0.16483037 -0.20014699 -0.29309535 -0.08281659
000090 17 61 90 be 0a d1 ec 3d 6e 06 65 3e 6f e5 67 3d
       -0.28199074 0.115633085 0.22365734 0.05661529
0000a0 e7 02 c1 bd f0 ac 80 be 6c 2d 32 3e 02 99 00 3e
       -0.09424382 -0.2513194 0.1740014 0.12558368
0000b0 40 c8 28 be ed c9 09 bf 29 1b 47 be 71 6b a3 be
       -0.1648264 -0.5382374 -0.19443955 -0.3191791
0000c0 61 e2 50 be f8 68 30 be 81 08 83 3d df b7 e5 3d
       -0.20398857 -0.17227542 0.06398106 0.11216711
0000d0 f7 83 99 3e 91 e2 8a 3e c8 29 12 3e 46 42 95 be
       0.29983494 0.2712598 0.14273751 -0.29152125
0000e0 10 44 13 3e c3 b6 d9 3d 61 ec 38 be 1d 98 31 be
       0.14381433 0.10630562 -0.18058921 -0.17343183
0000f0 7d 34 66 be 8c 79 ee bd 67 6b c6 3d bb 15 1d bf
       -0.2248096 -0.11644277 0.09688454 -0.61361283
000100 09 d4 35 3e ea 9e 97 bd 3d 43 17 be 3e e2 51 3e
       0.17756666 -0.07403357 -0.14771743 0.20496461
000110 e4 d6 9a be e0 98 b0 be 11 f3 e1 bd 22 34 b5 be
       -0.30242074 -0.34491634 -0.11032689 -0.35391337
000120 4e 35 59 bd 8e fb ce bd 6c 6f 60 3e 3b 66 d7 bd
       -0.05302935 -0.10106574 0.21917504 -0.10517546
000130 94 ac 87 be 4e 18 62 bd d0 0d b2 bc 90 89 8e 3d
       -0.26498854 -0.05519896 -0.021735102 0.06959832
000140 2d 69 8c 3e 15 f7 d8 be 68 0c 2c 3d 35 04 e3 3d
       0.27423993 -0.4237601 0.04200402 0.11084787
000150 8d 05 d4 3d 7b 73 93 be cb 42 65 bd f9 cb f2 bc
       0.10352621 -0.28799042 -0.055971902 -0.029638277
000160 ca a1 84 be 34 65 e6 3c ce ea 35 be 5c 1e 77 be
       -0.25904685 0.02812443 -0.17765352 -0.24132675
000170 16 85 23 3c c6 2a 54 be e6 4d a0 3e cb 14 f3 bd
       0.009980461 -0.20719442 0.31309432 -0.118692
000180 6d a1 77 3e fc 84 45 3e 55 f7 23 be 9e 65 ce 3e
       0.24182673 0.19289011 -0.16012318 0.40311903
000190 26 9c b7 3e 36 13 ee 3d b4 f4 3b 3e c1 dc ff 3e
       0.3586132 0.11624758 0.18355066 0.4997311
0001a0 7a 1e 8a be fe c7 81 3e dc 30 c3 bd a3 6f 89 be
       -0.26976377 0.25347894 -0.095308036 -0.26842985
0001b0 39 05 0f bd 62 ad 84 be e5 a8 49 3e ed db 0c 3e
       -0.03491709 -0.2591353 0.19693334 0.1375577
0001c0 d1 d3 ee 3e 0b ab 7b 3e 4d 25 9c be f9 4d e0 3d
       0.46645978 0.24576966 -0.30497208 0.10952372
0001d0 a7 a9 ac be 90 c8 9e be 26 14 f7 3d a0 76 bb 3d
       -0.33723184 -0.31012392 0.1206439 0.09153485
0001e0 24 f9 a2 3d 93 7d 94 3e 31 36 68 bd a8 06 b4 bd
       0.07957676 0.29002056 -0.056692306 -0.08790332
0001f0 2d 36 83 3e 36 50 4c 3d ac d3 8d 3e 55 70 a6 b7
       0.2562727 0.049881183 0.27700555 -1.984105e-05
000200 b4 e5 95 be d3 93 61 3e ce d0 fc be 76 18 af 3d
       -0.29276812 0.22029047 -0.49378055 0.085495874
000210 02 49 52 3d 47 7f 08 3e 6c e4 bc bd 65 48 f7 bc
       0.051339157 0.13329802 -0.092232555 -0.030185888
000220 f1 1a 94 be 3d 61 d2 be 29 bf 0a bd c3 fb cd bc
       -0.28926805 -0.41089812 -0.03387371 -0.025144463
000230 e9 24 c3 3e e3 20 5b be cd 0b a2 bc dd f1 6e bc
       0.38114098 -0.21399264 -0.019781018 -0.014584032
000240 af aa eb bd 44 6b b6 3d d4 83 c2 3e e3 83 51 be
       -0.11507165 0.08907178 0.37991202 -0.20460467
000250 a9 44 1a 3e 47 e2 9b be 9a b3 22 3e 16 fe a3 bd
       0.15065254 -0.30446073 0.15888825 -0.080074474
000260 10 ee 3a be 12 44 87 3d f8 0c 91 be f0 da 1c 3d
       -0.18254876 0.0660478 -0.28330207 0.038294733
000270 b9 1a 6e 3c cf 4b 1c bd 90 42 b6 3e 19 0f 54 bd
       0.014532738 -0.038158234 0.35597658 -0.05177221
000280 4b aa 05 bd 91 75 24 3d b8 d2 08 3f 45 bb a9 be
       -0.032633107 0.040151183 0.5344653 -0.33150688
000290 9b 2c c2 be 6a 34 91 bd 2c da 90 3e 7b 1a b9 be
       -0.37924656 -0.07090075 0.28291452 -0.36153015
0002a0 44 31 d4 bd e4 b7 28 bc 4c f9 e9 3d e8 1c e4 bd
       -0.10360959 -0.010297749 0.11424503 -0.11138326
0002b0 21 52 c4 be b2 90 0b bd 44 87 4d be df d4 33 bc
       -0.3834391 -0.03407354 -0.20071131 -0.010976045
0002c0 5a 82 92 be 86 a2 26 bd c8 b9 b1 3e 39 d7 00 3d
       -0.28615075 -0.04068234 0.34712052 0.031455252
0002d0 3d 7d 7d be 1e d3 3e bd 95 c0 58 be 9a f2 78 3c
       -0.24754806 -0.046588056 -0.21167214 0.0151945595
0002e0 aa 8b 0a be 6b 4c e4 3d 88 c9 8b 3d 45 52 81 3d
       -0.1352984 0.11147388 0.068255484 0.0631452
0002f0 d1 67 8e 3a 9b 24 5d 3d e5 bd 23 3e ab b1 c5 3d
       0.001086468 0.053989988 0.15990408 0.09653028
000300 77 4b 7c be 15 fd 05 3e 54 b0 3a bd 0f ca 04 3e
       -0.24638163 0.13084824 -0.045578316 0.12967704
000310 bf b9 ac bb d0 19 a4 3e 5a b0 17 be fd 39 cd be
       -0.005271166 0.32050943 -0.14813367 -0.40083304
000320 79 4b 1c be 52 11 96 be e3 f6 45 3d d0 fd 4b 3e
       -0.15263166 -0.2931009 0.048331153 0.1992104
000330 0d bd c9 3d 27 9e 81 3d f1 ef 94 3e 01 53 70 bb
       0.09850512 0.06328993 0.2908931 -0.0036670568
000340 52 34 19 3e a7 89 a2 3d 97 8e 90 bc 42 55 37 be
       0.14961365 0.07936411 -0.017646117 -0.17903617
000350 22 60 ca 3d 26 ed f5 3d a0 0c 2a 3e ac 96 55 bd
       0.09881617 0.12008123 0.16606379 -0.052145645
000360 56 4b 28 3e ad 83 b3 3e 1d fb 02 3d 52 b2 23 3e
       0.16434988 0.35061398 0.03197776 0.15985993
000370 45 37 0d 3e 54 18 27 be 71 33 73 3d e0 63 84 3e
       0.13790615 -0.16317874 0.05937523 0.2585745
000380 cc bb d1 bd ae c0 c1 b9 fd 22 2a 3d ee 5d 3e 3d
       -0.102408975 -0.00036955386 0.041537274 0.046476297
000390 fb 5a 27 3d 58 af d4 3d 9b 04 69 3e fc 25 26 3e
       0.04085825 0.10385007 0.22755663 0.16225427
0003a0 51 78 eb 3d 05 b6 03 bd d5 e2 9e be e5 17 09 be
       0.11497558 -0.03215601 -0.31032434 -0.13388021
0003b0 ad 5f a2 be e2 c7 f6 be 45 14 97 bd 29 90 f8 bd
       -0.3171362 -0.48199373 -0.07376913 -0.12136871
0003c0 93 8d 1e be 2d 56 8a bd 44 69 3d 3d 89 ee 27 be
       -0.15483694 -0.06754718 0.046242967 -0.16399588
0003d0 d2 34 90 be 83 36 75 bd e9 59 b0 be 17 1a 81 be
       -0.281653 -0.05986644 -0.34443596 -0.25215217
0003e0 e5 ea 6a be 58 1d 6c bd 48 a8 a6 3d 01 52 57 be
       -0.22941168 -0.057645172 0.08137566 -0.21027376
0003f0 e9 8a 56 3e 44 61 2d be 38 dc 79 3e b2 a0 0a 3f
       0.20951428 -0.16931635 0.24400413 0.5415145

transformer.norm.running_mean f4 [1920]
000000 47 e4 36 bc d1 9d 56 39 86 8c 4d bb 99 de f4 3c
       -0.011162824 0.00020467422 -0.0031364276 0.0298913
000010 4d 77 86 bb 81 15 fe bc 82 e2 64 3c 38 fc 6c bc
       -0.004103577 -0.031016113 0.013970019 -0.0144644305
000020 07 ad ba 3b 05 4d 14 3c 01 a3 7d b9 ee e0 39 3c
       0.005696896 0.009051566 -0.00024188684 0.011345131
000030 ee 39 e1 ba 54 98 5e ba 2d 6b 82 3c 8b 21 1f bc
       -0.0017183402 -0.00084913266 0.015920246 -0.009712587
000040 bd ea fd bb 26 d3 c5 3b 64 8c 85 3b 7f 95 26 bc
       -0.0077489302 0.0060371337 0.0040755738 -0.010167479
000050 e9 0f cb 3b 76 92 6a 3c 2a ca bf 3b 31 29 d5 bb
       0.006196965 0.014317146 0.0058529573 -0.0065051545
000060 49 39 0a bc 02 a7 b0 ba 04 20 7d b9 95 42 ec ba
       -0.008436509 -0.0013477507 -0.00024139887 -0.0018025214
000070 7d 12 d4 3b 54 a4 cd ba 67 db e6 bb 9b 6d cc 38
       0.0064719305 -0.0015689232 -0.0070451978 9.747894e-05
000080 4b 6e 90 3b d7 ea 71 3b 8a dd 1e 3b 9c 54 67 3c
       0.004407679 0.0036913657 0.0024240934 0.014119294
000090 e7 bf 8a 3c 3c 99 28 bc 17 89 08 3b 1b c3 27 bc
       0.01693721 -0.01029044 0.0020833665 -0.010239388
0000a0 c4 f2 80 3b 36 7d a8 bb 45 1b fe ba 98 f9 f7 bb
       0.00393519 -0.0051418794 -0.0019386789 -0.0075675957
0000b0 cb 8b f0 ba cd be 2f bc d7 ef 64 bb 04 7d 10 3c
       -0.0018352208 -0.010726643 -0.0034932995 0.008818869
0000c0 c1 12 f7 3b 36 02 99 3b 69 12 92 3a dd d7 27 3b
       0.0075400774 0.004669453 0.0011144403 0.0025610842
0000d0 1b 76 6f bc 0b 74 67 bb ad 72 ba 3a e3 e8 e5 3b
       -0.014615561 -0.003531697 0.001422485 0.0070162877
0000e0 27 e6 84 3c e7 86 9b b9 1b 02 23 3c 46 00 fb 37
       0.016223026 -0.00029664414 0.009949232 2.9921659e-05
0000f0 dd a5 31 ba 7c 06 9b 39 81 9c 33 3b f3 66 a3 bb
       -0.000677673 0.00029568735 0.0027406516 -0.0049866377
000100 03 1c 03 3c 7a aa b6 bb d3 ea 03 3c 31 e0 22 3b
       0.008002284 -0.0055745216 0.008051592 0.0024852867
000110 12 97 d7 3a 9f 59 39 3c 76 b0 b2 3c 40 b3 9d bb
       0.0016448221 0.011312871 0.021812659 -0.004812628
000120 08 85 66 3c aa 91 2c bc 50 c3 e0 bb 17 1f 63 3a
       0.014069803 -0.010532776 -0.0068592206 0.00086639955
000130 eb 69 03 3a 2c 1c b9 3b 4e 36 4e 3a 49 16 8f bc
       0.00050130364 0.0056491103 0.00078663684 -0.017466681
000140 c6 b1 3a 3b df 81 c2 bc 59 c6 0b 3b 8a 07 f1 3c
       0.002848731 -0.023743568 0.0021327941 0.02942254
000150 64 0c 20 3c d3 9a b0 3b ef fd c6 bb 1e c8 49 bc
       0.009768579 0.0053895502 -0.0060727517 -0.012315778
000160 76 00 de 3a f7 77 75 3b 30 9b bb 3b 91 81 01 3c
       0.0016937393 0.0037455538 0.005725287 0.007904426
000170 4a d2 db 3a 9b 62 1e bb 67 93 96 3b 06 56 82 39
       0.0016771045 -0.002416766 0.0045952084 0.00024859625
000180 61 19 f1 bb b2 51 b7 3b 45 29 97 3b 1b 79 45 3b
       -0.0073577617 0.0055944556 0.004613074 0.0030132
000190 52 d9 f2 3b 09 4b 5c 3b 2a a5 0c 3a 91 2f 95 3b
       0.0074111605 0.003361406 0.00053651875 0.0045527895
0001a0 91 f1 79 bb 05 f4 f9 ba 80 e5 10 bc f4 7a 29 bc
       -0.003813837 -0.0019069916 -0.00884378 -0.010344256
0001b0 3c 7f 9e 3a e7 47 94 bb 2b ee ca 3a 89 d0 d1 b8
       0.0012092362 -0.004525173 0.0015482357 -0.00010004739
0001c0 c6 17 aa 3b e5 be 08 3b 25 5e 7a 3a 03 c0 eb bb
       0.0051908223 0.0020865735 0.0009550772 -0.0071945204
0001d0 8e c9 9a bb b8 68 0c 3b 54 c5 f0 3b 7b 3f 98 3a
       -0.004723734 0.0021424722 0.007347742 0.0011615598
0001e0 a2 b6 50 3b 75 4e 9a 3b ac 8c 8f b9 4f d4 ec 3b
       0.003184714 0.00470906 -0.00027379894 0.0072274576
0001f0 3c 48 b2 3c 4b 64 4c 3c 04 50 c9 bc 9e 11 49 3b
       0.02176296 0.012475084 -0.024574287 0.0030680667
000200 e4 90 af 3c 5b 96 1e ba 83 33 f8 3b 84 6c 81 3b
       0.021431394 -0.00060496264 0.0075745 0.0039497036
000210 f5 50 cd ba 74 e3 bd ba 21 be e2 3b e9 41 eb 3b
       -0.0015664386 -0.0014487342 0.006919638 0.007179488
000220 d6 9c 28 3c f0 e7 85 ba 24 44 73 bb 0b fd f2 bb
       0.010291299 -0.0010216217 -0.0037119472 -0.007415419
000230 73 49 b2 bb cc 74 43 bb 07 5f 55 3b 04 65 9d bb
       -0.0054408847 -0.0029824255 0.0032557861 -0.0048033018
000240 f7 7b ab bc 01 b0 c9 bc d0 ee d3 3b 1d 37 db b9
       -0.020933134 -0.024620058 0.0064676777 -0.00041811998
000250 7a f0 26 bc 2c 65 21 3c dc db e5 3b 62 7a 15 bc
       -0.01018917 0.009850781 0.0070147347 -0.009123417
000260 a3 5c ad 3b 19 3b 05 bc 3b 44 14 bc 92 cd 49 bb
       0.005290584 -0.008131766 -0.009049471 -0.0030792695
000270 95 7a af bb a3 32 76 bb b7 cc 0e 3c 33 d6 4c 3b
       -0.005355189 -0.0037566803 0.0087158 0.0031255602
000280 97 d7 c5 3a 00 1a 3f 3b 88 8a e5 3b c7 5c 19 bc
       0.0015094158 0.0029159784 0.0070050396 -0.009360499
000290 30 dd 9e ba 5d 54 f7 3b c8 52 c1 3b 4b 02 34 bc
       -0.0012120362 0.0075478987 0.005899761 -0.010986875
0002a0 f6 78 dd bb 7f 1c 5b 3c 30 65 16 3c 36 c6 dc bb
       -0.0067588044 0.013373493 0.009179398 -0.006737496
0002b0 c5 cf 2e bc eb 59 95 3b fa af b2 bc db 12 c6 3b
       -0.010669653 0.004557838 -0.021812428 0.006044728
0002c0 7b a1 ab 3b 6f 21 dc 3b b4 0d 5c bb fb d8 36 bb
       0.005237756 0.006717853 -0.0033577504 -0.0027900327
0002d0 6a 2d 6f ba 37 6f 95 bb 4b 28 4e bc e5 e1 ba bb
       -0.00091238937 -0.004560377 -0.012582849 -0.0057031983
0002e0 a0 ad 5c 3a de 7c dc bb b6 5f 6d bc d7 9a 7b bb
       0.0008418206 -0.0067287525 -0.014488151 -0.0038391852
0002f0 bb e2 ae 3b 16 16 b0 bb b6 a0 d8 39 95 1e b5 3b
       0.005337087 -0.0053737266 0.0004131847 0.0055273273
000300 b7 07 8c 3a f1 25 d1 bb 64 33 08 ba 62 37 d9 3b
       0.0010683452 -0.006382697 -0.0005195646 0.0066289166
000310 b4 bf 33 bb c4 fc 69 3c 14 21 b7 3a 75 f2 13 bc
       -0.0027427496 0.014281455 0.001397165 -0.009029974
000320 23 5d 82 bb 79 1e 46 bb 30 f2 ea ba e3 3a 3c 3b
       -0.003978388 -0.0030230565 -0.0017924961 0.0028721623
000330 a6 36 ed bc 8e 55 04 bc da ac ae ba 06 16 12 bc
       -0.028956722 -0.008077038 -0.001332666 -0.008916384
000340 27 20 b3 3a b7 19 d1 3b 53 3e d7 bc 76 da 2c 3b
       0.0013666198 0.0063812393 -0.026274836 0.002637533
000350 3c e4 14 36 51 e3 e9 ba d8 3c dc 3b 4c ee 42 3b
       2.2186568e-06 -0.0017844235 0.0067211203 0.0029744087
000360 36 e7 52 bc 5f 73 ab 3a 47 02 25 bb fd 33 b0 38
       -0.012872508 0.0013080648 -0.002517836 8.4020176e-05
000370 21 57 79 bc ad 7a 55 bc b7 06 eb bb f1 30 4c bb
       -0.015218527 -0.0130297365 -0.0071724313 -0.00311571
000380 a4 21 d1 bc 2d 14 0f bc 7c 31 9a bb 1e 32 f0 3a
       -0.025528736 -0.008732838 -0.004705606 0.0018325483
000390 3c ce 3c bb 1f fd e8 3a 34 06 77 3c 9a 97 83 3b
       -0.0028809449 0.0017775631 0.0150771625 0.004015875
0003a0 dd fe 0a bc 60 92 84 ba 7b 2c 24 bb 26 ce bb bb
       -0.008483616 -0.0010114424 -0.0025050926 -0.005731362
0003b0 ad 54 11 bd 1e 84 d6 3b 0f e8 a3 ba 74 46 80 ba
       -0.035481144 0.0065465113 -0.0012505072 -0.0009786622
0003c0 90 df 51 bc 2c 0a 0f bc aa b4 89 3c b4 e2 83 bb
       -0.012809649 -0.0087304525 0.01680978 -0.004024828
0003d0 29 5a 08 bc 53 df e1 3b 83 26 4c 3c a2 b8 91 bc
       -0.008322277 0.0068930774 0.012460354 -0.017788235
0003e0 76 ef 66 3a 89 c3 3b 3b 9d 69 32 3c 88 20 d3 3b
       0.0008809486 0.0028650484 0.010889438 0.006443087
0003f0 f2 8c c3 3b 53 ee c0 bb 49 3c f0 bb 26 33 8f 3c
       0.0059677297 -0.0058877855 -0.0073314053 0.017480444
