xls_r_sqa/models/sqa/xls-r-1b/model_1b_lay10_subset.pt (torch, 425869 bytes, 67 tensors)

norm_input.weight f4 [1280]
000000 bc f2 55 3f ab 23 f3 3e 86 dc 29 3f ce db 04 3f
       0.8357351 0.4748815 0.6635212 0.51897895
000010 a4 e2 f5 3e 92 27 71 3f 88 a0 a4 3e 86 a3 ec 3e
       0.48024476 0.94201005 0.32153726 0.46218508
000020 b9 91 37 3f 1f 7c 26 3f ab 3d 30 3f 56 81 34 3e
       0.7170673 0.65033144 0.688441 0.17627463
000030 28 67 00 3f 02 d3 e2 3e 81 a4 32 3f 3f 12 30 3f
       0.50157404 0.4430161 0.69782263 0.6877784
000040 30 4e b3 3e 81 aa 13 3f 46 ba 47 3f 5d e5 c7 3e
       0.3502059 0.57682043 0.78018606 0.39042178
000050 ec 1c 14 3f 88 d6 18 3f cd cd 16 3f b2 29 86 3f
       0.5785663 0.5970235 0.5890778 1.0481474
000060 71 ab e2 3e 79 95 11 3f 12 e3 7f 3f 3e 09 42 3f
       0.44271424 0.568687 0.99955857 0.7579535
000070 6a 91 88 3f 13 b8 48 3f 87 bf 3c 3f 9f 1b 3e 3f
       1.0669377 0.78405875 0.7372975 0.74260896
000080 a0 4a 35 3f 5a cf e0 3e 69 8e 21 3f 29 80 1f 3f
       0.70816994 0.43908197 0.63107926 0.6230493
000090 37 e2 8e 3f c2 5c 22 3f be 46 ad 3e 5a 27 17 3f
       1.1162785 0.6342279 0.33843035 0.5904442
0000a0 0d 02 21 3f 0c c2 2a 3f 52 d4 00 3f 83 3d 0c 3f
       0.62893754 0.6670234 0.50323975 0.5478136
0000b0 e3 4a 63 3e 13 65 70 3f 7a cc 0f 3f cc 44 6a 3f
       0.22196536 0.93904227 0.5617138 0.91511226
0000c0 04 da ae 3e 09 d0 0a 3f 2b 11 13 3f 2f 6e 39 3f
       0.34150708 0.54223686 0.5744807 0.7243375
0000d0 53 98 b0 3e e9 7f 2c 3e b1 19 48 3f 39 8e 0e 3f
       0.34491214 0.16845669 0.781642 0.55685765
0000e0 b2 7a 51 3f 9d 04 5c 3f 89 ee c9 3e cb 76 20 3f
       0.81827843 0.8594454 0.394398 0.62681264
0000f0 4c d0 54 3f 8c d2 2e 3f 09 8a 10 3f 25 61 2e 3f
       0.83130336 0.6829002 0.56460625 0.6811698
000100 18 09 93 3e 90 98 3d 3f 47 63 fc 3e af db 18 3f
       0.28717875 0.74060917 0.49294493 0.5971021
000110 9b ef 51 3f 5f 05 da 3e 8b 26 b0 3e 69 25 9e 3d
       0.82006234 0.42582223 0.34404406 0.07721979
000120 0b 65 bb 3e 00 ef 1f 3f 8f 03 12 3f b5 3a e5 3d
       0.36600527 0.6247406 0.5703668 0.11192838
000130 00 6d 22 3f 71 22 ba 3e 7e 37 16 3f 80 b5 39 3f
       0.6344757 0.36354402 0.58678424 0.7254257
000140 e3 36 8a 3e cd 80 ce 3e 7b cc 0d 3f 0a 33 5b 3e
       0.26995 0.40332642 0.5539014 0.21406189
000150 88 78 cc 3e 57 62 67 3f a6 6f 68 3f a8 95 23 3f
       0.39935708 0.9038443 0.9079536 0.6390023
000160 38 af bc 3e 65 b4 8d 3e 3e b0 10 3f d8 95 2e 3f
       0.3685243 0.27676693 0.56518924 0.68197393
000170 e9 29 23 3f 44 b3 34 3f 5b 63 0d 3f 4d 3c 3a 3f
       0.63735825 0.7058604 0.5522973 0.7274826
000180 f6 92 3a 3f 71 30 92 3f 7f da 36 3f d4 d5 00 3f
       0.72880495 1.1421033 0.7142715 0.50326276
000190 4d 33 09 3f e5 d7 16 3f b3 79 28 3f b7 f3 07 3f
       0.53593904 0.5892318 0.658107 0.53106254
0001a0 b7 e0 bf 3e c0 d5 3b 3f 8b 39 44 3f d9 6f e0 3e
       0.3747613 0.7337303 0.76650304 0.43835333
0001b0 f9 76 5e 3f 16 a9 54 3f 6c d1 f8 3e d4 f6 d7 3e
       0.8690029 0.83070505 0.48597276 0.42180502
0001c0 d8 03 14 3f f9 87 22 3f 53 50 f8 3e 9f f7 88 3e
       0.57818365 0.6348873 0.48498783 0.2675142
0001d0 93 0d aa 3d 1f 52 d6 3e 02 46 59 3f e8 c5 5d 3e
       0.0830337 0.41859528 0.8487245 0.21657526
0001e0 54 02 02 3e a8 ba 1c 3f 51 57 f4 3e ec e5 2c 3f
       0.126962 0.61222315 0.47722867 0.6753833
0001f0 62 f8 16 3f 5f 25 e0 3e f6 0e 26 3e bb a9 dc 3e
       0.5897275 0.43778512 0.16216645 0.43098244
000200 9d cf dd 3e 3f 8d 1c 3f 73 68 09 3e 4a 58 35 3f
       0.4332246 0.61153024 0.1341875 0.70837843
000210 53 fe 0d 3f 7d ee 2c 3f 2c 1e 08 3f 69 c9 00 3f
       0.5546619 0.67551404 0.5317104 0.5030733
000220 65 40 a8 3e 59 3c 35 3f ee db 80 3e c4 4d 0f 3e
       0.3286163 0.7079521 0.25167793 0.13994509
000230 f4 0e 21 3f 45 02 ec 3e 85 e4 d2 3e b5 fa 56 3f
       0.6291344 0.46095482 0.41189972 0.839763
000240 61 37 de 3e 15 55 10 3f 4a 1b 22 3f 6b 9b e0 3e
       0.43401626 0.56379825 0.6332289 0.43868575
000250 e1 f2 2d 3f e2 b3 83 3e 8f 91 1f 3f 89 63 ea 3e
       0.6794873 0.25723177 0.6233148 0.45779064
000260 5c 2e ca 3e 75 38 01 3f af 5f e0 3e c9 2a 0f 3f
       0.39488494 0.5047677 0.43823 0.5592466
000270 e3 cd 58 3e c7 2e 2d 3f b7 9d 6e 3f bc dd bd 3e
       0.2117229 0.676495 0.93209404 0.37083232
000280 37 59 02 3f cb e4 11 3f c8 03 fd 3e 69 01 0d 3f
       0.5091738 0.56989735 0.49416947 0.55080277
000290 2c e2 dd 3e d4 f4 dc 3d bd c5 a0 3e 38 c1 51 3f
       0.43336618 0.10788885 0.31400862 0.81935453
0002a0 36 9e 03 3f 7e 47 22 3f a1 91 60 3e e9 7e 4b be
       0.51413286 0.6339034 0.21930553 -0.19872631
0002b0 2e 7f 0c 3f 0f 58 06 3f 17 76 26 3f a0 1c 12 3f
       0.5488156 0.52478117 0.6502394 0.5707493
0002c0 39 33 fc 3e aa 99 36 3f 3a 4b 57 3f b0 ff b0 3e
       0.4925783 0.7132822 0.8409916 0.34570074
0002d0 3f 8e 4b 3f b3 6a 49 3f 7d 12 bd 3e 97 50 cc 3e
       0.79513925 0.78678435 0.36928168 0.39905235
0002e0 e3 3d f0 3e 5c 1f d8 3e 62 28 e7 3e 6d ed 37 3f
       0.46922216 0.42211425 0.45147997 0.7184666
0002f0 51 1c 75 3f f5 30 9b 3e 76 72 fb 3e 76 24 c1 3e
       0.9574633 0.3031079 0.49110764 0.3772313
000300 e4 80 f4 3e b3 0f ab 3e c9 a0 05 3f 28 1c 8a 3e
       0.47754586 0.33410415 0.52198464 0.26974607
000310 3f e7 3e 3f ec 53 45 3f ea 8b 25 3f ca b3 10 3f
       0.74571604 0.7708118 0.64666617 0.56524336
000320 e6 8c a5 3e 68 2f c4 3e 07 9d 56 3f a7 02 f1 3e
       0.3233406 0.38317418 0.83833355 0.47072336
000330 ac b7 0f 3f 7a 05 ef 3d cf bb 4b 3f fe 55 76 3e
       0.56139636 0.116709664 0.7958345 0.24056241
000340 39 f6 c5 3e 97 c6 d4 3e a9 ee c6 3e 56 aa ee 3e
       0.38664415 0.41557762 0.38853958 0.4661433
000350 95 fd 0a 3f 64 30 02 3f 2b 5e 24 3f 6a f1 0a 3f
       0.54293185 0.5085509 0.6420619 0.5427462
000360 d8 be 39 3f 7a e3 0f 3f 09 58 1c 3f ba b2 57 3e
       0.7255683 0.56206477 0.6107183 0.21064273
000370 7a 0a b6 3e e0 d0 23 3e 10 a8 1a 3f 29 aa f9 3d
       0.35554868 0.15997648 0.60412693 0.121906586
000380 bc b8 cb 3e 3a 3a ef 3e ea 89 03 3f a0 10 39 3f
       0.3978938 0.4672411 0.51382315 0.7229099
000390 dd dd 2f 3f 3d 84 3d 3f 5c 77 0e 3f e0 dc e6 3e
       0.6869791 0.74029905 0.5565088 0.4509039
0003a0 f0 08 2b 3f 97 f9 b8 3e f1 74 95 3e aa cb 48 3f
       0.6681051 0.36127922 0.29190782 0.78435767
0003b0 14 df b1 3e e0 88 df 3e 48 05 e2 3e 38 f7 e2 3e
       0.34740508 0.43659115 0.44144654 0.44329238
0003c0 c8 47 18 3f ee 49 db 3e f4 67 5b 3f 99 d6 1f 3f
       0.5948453 0.4282984 0.85705495 0.62436825
0003d0 d0 d8 02 3f 97 18 01 3f 89 37 0c 3f a4 ec bb 3e
       0.5111208 0.50428146 0.5477224 0.3670398
0003e0 26 8e 8a 3e 04 8f 2c 3f 7a a9 ea 3d 2b 4f 36 3f
       0.27061576 0.67405725 0.11458106 0.7121455
0003f0 7d cb e1 3e 19 bf f6 3e f8 6a d3 3e 18 53 be 3e
       0.44100562 0.4819267 0.41292548 0.3717277

norm_input.bias f4 [1280]
000000 6f ca 78 bc e7 72 93 3b b3 da f4 bb 7e 33 15 bb
       -0.015184983 0.0044997814 -0.00747236 -0.0022766287
000010 4d b2 a3 bb 45 32 10 bc 14 33 b6 3b bb 11 86 3c
       -0.0049956203 -0.008801048 0.005560288 0.016365876
000020 12 8e 82 b6 2c dc 27 b5 a0 96 f3 b9 17 ca dd bb
       -3.890841e-06 -6.253274e-07 -0.00046460796 -0.0067684758
000030 47 f4 cf b9 58 bb 23 bb 44 de 2a 3c 73 f9 b4 bc
       -0.00039664118 -0.0024983492 0.010428969 -0.022091603
000040 3b 0d f9 ba 5f 34 bf ba 15 f6 28 ba b6 46 05 bc
       -0.0019001135 -0.0014587751 -0.00064453605 -0.008134535
000050 c5 92 6f 3a 76 45 11 3b 4b 49 e7 3c 8a b5 12 bc
       0.0009138997 0.0022166646 0.028233191 -0.008954415
000060 d5 b4 15 3b 6d db f5 39 c2 00 35 3d 43 5e 91 bb
       0.002284338 0.00046893526 0.044190176 -0.0044362857
000070 5c d1 e4 bc b4 75 35 bd 96 71 8d 3b 2e c4 eb b9
       -0.027931862 -0.044301704 0.004316519 -0.00044968858
000080 9d 1f 14 bc 63 5d 71 3c fc 71 c0 bb e9 60 0a 3c
       -0.00904074 0.014731738 -0.005872963 0.008445957
000090 1f 60 4e bd e0 b9 9f 3c 83 54 2e bc f6 46 ac 39
       -0.050384637 0.019497812 -0.010640266 0.00032859267
0000a0 f7 25 a4 bc 10 40 0c 3d 80 77 a1 bb 1c 96 75 bb
       -0.020037634 0.034240782 -0.0049275756 -0.0037473505
0000b0 7c c4 3e bb 68 af 8d 3c ba 17 8b 3c 12 c4 f4 bb
       -0.0029108813 0.017295554 0.016979087 -0.0074696625
0000c0 a3 41 03 3c 71 43 2a 3c 14 74 bc bb 4a b4 c2 bc
       0.0080112545 0.010392056 -0.0057511423 -0.02376761
0000d0 21 c3 ea b8 01 30 82 bb ab 68 98 3c 2a ff 9b 3c
       -0.00011194335 -0.0039730077 0.018604597 0.01904257
0000e0 ef 69 e7 bb 36 e5 00 bc 39 d5 9a 3b fc 0b c0 bb
       -0.007062189 -0.007867148 0.004725125 -0.0058608036
0000f0 8e f8 bd ba 6e a0 c5 bb 3e 62 29 bc bd 90 7e 3b
       -0.0014493631 -0.0060310876 -0.010338364 0.0038843595
000100 66 3b 54 bb d5 8c d6 bb 8d 7b 09 3b d6 57 6e 3b
       -0.0032384037 -0.00654755 0.0020978183 0.0036368272
000110 71 4e ea 3a bb e1 c6 ba d9 13 9b bc bf b1 8f 3a
       0.001787616 -0.0015173474 -0.018930363 0.0010963007
000120 06 2f de 3b 81 66 6b ba a6 2b 70 3c 3e 7b 88 3a
       0.006780508 -0.0008979813 0.014658844 0.0010412706
000130 65 ef 15 bb 19 08 bc 3a 40 03 ab bb 89 3e 87 3b
       -0.0022878286 0.0014345675 -0.0052188933 0.004127328
000140 b2 48 93 bc ed 07 4c bc dd 91 1d bc ba 63 e5 ba
       -0.017979 -0.0124530615 -0.009617296 -0.0017501034
000150 0e 8f 4d bc ec 97 49 3c d9 07 4d bb 84 f3 aa bb
       -0.012546314 0.012304287 -0.0031285195 -0.0052170176
000160 e0 5a fa bb d7 c5 93 bb b9 a3 8b 3c 51 ec 9e bc
       -0.0076402277 -0.0045096683 0.017045842 -0.019399794
000170 69 6f d8 bb a5 5c e9 3b 41 45 95 bb 47 50 92 3c
       -0.006605078 0.00712164 -0.004555375 0.017860545
000180 2b dc b4 bb 53 c1 03 bb 05 d3 78 bc f2 7d b6 3b
       -0.00551941 -0.0020104244 -0.01518703 0.005569213
000190 d2 79 31 bb 4d 0b 14 ba 7f fe a3 bb 82 30 26 ba
       -0.0027080667 -0.0005647436 -0.0050047035 -0.00063396257
0001a0 f5 a8 a5 3c 07 13 c8 ba 5e 8f 02 3c 61 ce 52 bb
       0.020222167 -0.001526446 0.007968752 -0.0032166468
0001b0 90 bb 8b bb cf d3 17 3d 0d a1 a6 bc 54 0d 16 3c
       -0.0042643026 0.03706723 -0.020340467 0.009158451
0001c0 fe 5e 19 bc d9 d8 f4 38 4b ad ca bc 69 74 50 3b
       -0.009361027 0.00011675218 -0.024740836 0.0031807667
0001d0 a2 43 24 3a 3e a4 01 ba ee 51 8f 3b 5d ef 2d 3c
       0.00062661816 -0.00049454335 0.0043737805 0.010616151
0001e0 3d 74 01 39 ed d7 24 3c 1f ee c1 bb 10 96 1a bb
       0.00012345701 0.010061246 -0.005918279 -0.002358798
0001f0 d8 7b 33 39 c5 ef 75 bc 5d c2 b4 36 59 11 fb 3b
       0.00017116906 -0.015010779 5.387045e-06 0.00766198
000200 fb 43 4d 3c f3 14 06 3c 10 fb 7f bb 0c 84 0a 3c
       0.012528415 0.008183706 -0.0039059557 0.008454334
000210 e3 0b 68 bc 29 5e 12 3c 95 11 3c 3c 12 a9 4f bb
       -0.01416299 0.008933582 0.011478801 -0.0031686467
000220 0d cb 3d 3c 90 54 88 3b bc 8a 2d 3c df 87 56 bb
       0.011584056 0.0041604713 0.010592159 -0.0032734794
000230 2e df 18 3c 67 79 0e bb 01 3d 4d bc f2 0b 92 bc
       0.009330554 -0.0021739842 -0.0125267515 -0.017827962
000240 94 d9 09 38 b9 56 ef 3a f1 75 dc 3b dc 1c 0d bc
       3.286598e-05 0.0018260098 0.006727927 -0.008612838
000250 b8 38 b8 3b bd ed e3 bb e0 0b 56 bc 45 b1 83 bb
       0.005621996 -0.006955831 -0.013064355 -0.004018935
000260 ff 09 04 bc 19 3e 4f 3c 45 96 6d 3c aa 30 8a bb
       -0.008059024 0.012649083 0.014501159 -0.004217227
000270 2a 9b 65 ba 2c 7d d1 3a c7 3f 1a 3c 33 6f 19 ba
       -0.0008758778 0.0015982739 0.00941462 -0.0005853057
000280 9b aa 46 bc 49 11 00 bc 7b 07 b4 3b c7 c6 e2 3b
       -0.012125636 -0.007816621 0.005494056 0.0069206688
000290 48 b3 c8 39 1a 38 92 bb ee 80 25 3b a1 7b ee bc
       0.00038280548 -0.0044622542 0.002525385 -0.029111685
0002a0 70 46 2b bc be b4 89 3a fb e4 13 bc 26 69 b4 bc
       -0.010453805 0.0010506136 -0.009026761 -0.022022795
0002b0 b5 90 02 3c 6c d2 8b bc 47 74 ca ba 38 07 7c bc
       0.007969071 -0.01706811 -0.001544603 -0.01538258
0002c0 74 88 e1 bb 86 59 07 3a eb cc 94 3c 59 10 cb ba
       -0.0068827216 0.00051631813 0.018164119 -0.0015492543
0002d0 57 32 bd bc b6 f9 f7 3b e3 79 2c bc 31 9d b5 3b
       -0.023095293 0.0075676097 -0.010527107 0.0055424203
0002e0 dc 43 a5 bb 95 fa ec bb ec 9d 47 3c 8b 16 28 3c
       -0.00504349 -0.00723202 0.012183648 0.010259281
0002f0 cb 29 aa bc 19 66 72 bc 7d 5f 46 3c c6 25 d6 3a
       -0.020771882 -0.01479485 0.012107727 0.0016338162
000300 2b e5 3b 3c 9b c5 20 3c f6 a0 f0 bb 86 3f 85 bb
       0.011468212 0.009812738 -0.007343407 -0.0040664105
000310 37 21 54 3c f1 35 6a 3b 99 ff 99 3c f5 5a fa 3b
       0.012947372 0.0035737718 0.018798636 0.0076402375
000320 df 73 8d 3b f5 2c 50 3c 0f 61 a2 bb e4 9f 0b bc
       0.0043167914 0.012706031 -0.004955418 -0.008522008
000330 b5 c3 e4 3c 25 e5 ea bb 9f f0 12 3c e9 45 37 3b
       0.027925352 -0.0071684294 0.008968501 0.0027965254
000340 ae d8 a2 3b d9 21 0a 3b 46 7b b1 3a 83 9f 3b bb
       0.004969678 0.0021077304 0.0013540767 -0.0028629012
000350 4b 95 f7 bb 64 59 c3 3b 8d aa 8e 3a e9 e8 65 3c
       -0.007555639 0.005961584 0.0010884568 0.014032581
000360 d1 8f 55 bc 2b ee ee 3b a8 cc 97 3c 5a 75 57 3b
       -0.013034777 0.0072915754 0.018530205 0.0032876343
000370 e5 a4 b0 bb 4d 2d d0 b8 33 fc 79 3b 58 71 3d bb
       -0.0053907507 -9.926651e-05 0.0038144707 -0.002890667
000380 0d e5 24 3c 75 57 17 3c 59 0d 32 bd 1d fa 8d 3c
       0.010064376 0.00923716 -0.04346976 0.017331177
000390 40 5e ff ba 8c 47 1d 3b 77 53 38 b9 fa a1 22 bc
       -0.0019483045 0.0023998944 -0.000175787 -0.009926314
0003a0 12 70 25 3b 5b ea 8f 3c 17 63 22 bb 7b 06 1d bd
       0.00252438 0.017567804 -0.00247783 -0.03833626
0003b0 be 18 90 ba a2 9c 32 3c a8 65 83 bc 74 0b 2b bc
       -0.0010993702 0.010901602 -0.016039684 -0.010439742
0003c0 e3 11 85 3c 7c 0a 04 3c c8 60 00 bd 97 c7 80 3a
       0.01624388 0.00805914 -0.031342298 0.0009825107
0003d0 71 a3 d3 3b 40 69 66 3a 21 a9 2c bb d3 7a cf bb
       0.0064586927 0.0008789487 -0.0026345926 -0.0063317805
0003e0 16 db f1 3a a3 06 c8 3b 10 dc 14 3b c5 59 12 3b
       0.0018452134 0.006104307 0.0022714175 0.002233134
0003f0 8e 79 94 bb 1f c8 d8 3b 3b f9 1a bc b7 c3 c3 b9
       -0.004531092 0.006615653 -0.009458835 -0.00037339117

norm_input.running_mean f4 [1280]
000000 4e 51 23 3f 91 a0 82 3e 8b 30 0c 3f 9b 24 88 3d
       0.63795936 0.25513127 0.5476157 0.06647607
000010 27 5a 88 3e cb 9b 38 be 43 2c 8c 3e ac 51 09 bf
       0.2663128 -0.1802818 0.2737752 -0.53640246
000020 83 bc 96 be 8e 2d c8 3d 51 11 30 3d ef 86 70 bd
       -0.29440698 0.09774314 0.042985264 -0.058722433
000030 92 99 45 3f 7b 94 d1 bc 69 1c fc bd dd 83 35 be
       0.77187455 -0.025583496 -0.12310106 -0.17726083
000040 cb b6 96 be 6c f0 06 bd 23 fd 67 bd 4a 44 83 3d
       -0.29436335 -0.032944128 -0.056637894 0.064095095
000050 6a 0f 62 3e 20 06 6e bc a5 5b 00 3e 6f 40 02 bf
       0.22076192 -0.0145278275 0.1253496 -0.5087957
000060 b3 56 e1 bb 63 2a 7d 3d 24 cb a8 bd 5d 8b 3e be
       -0.0068767904 0.061808 -0.08241871 -0.1860785
000070 8f 40 b7 be f2 0c 94 be 8b b9 b5 3d ba 36 09 3f
       -0.35791442 -0.28916126 0.0887328 0.5359913
000080 72 d2 1d bf 9a 82 b0 3e 03 89 50 3e b3 56 9e be
       -0.6164924 0.3447464 0.20364766 -0.3092552
000090 16 91 35 3e 60 51 9c 3e 28 44 ad bc 5c 4b 0c be
       0.17731127 0.30530834 -0.021150663 -0.13700622
0000a0 8f 98 9e be 9c ec ec 3e dd 64 10 be 87 12 2f 3b
       -0.30975768 0.4627427 -0.14100976 0.0026713924
0000b0 fb 80 87 be 4b ff 1c bd 7c 08 df 3d 6b a8 b4 be
       -0.26465592 -0.038329404 0.1089029 -0.35284743
0000c0 69 a6 bb 3e c9 48 44 bd 72 8b 40 3d fa f3 66 3d
       0.36650398 -0.047920976 0.047007985 0.056385018
0000d0 a3 9a 76 3d 12 c2 72 be 21 12 bd bd 50 f8 d5 3c
       0.060206067 -0.23706844 -0.092319734 0.026119381
0000e0 b3 cc 9f bd 26 f4 08 bf 3e e0 de be 28 f5 a1 3d
       -0.07802715 -0.5349754 -0.43530458 0.07908088
0000f0 79 6d 10 be d9 b5 dc be cb 72 c4 be 78 c8 2d 3f
       -0.1410426 -0.4310749 -0.3836883 0.67884016
000100 4b 30 b4 be 5b b9 0d bd 8f f9 98 3c 43 cd c0 b9
       -0.35193095 -0.034600597 0.018673686 -0.00036774026
000110 c8 a7 4c be cf fa fb be c9 01 b2 be 54 b7 84 be
       -0.19985878 -0.4921479 -0.34766987 -0.25921118
000120 4d 64 69 be 6d 6f 36 3f f8 89 01 bf 41 df fe 3c
       -0.22792168 0.7126377 -0.5060115 0.031112315
000130 2a d4 b4 bd b9 6d 6e bc cd 88 5e 3e 3a 15 1f be
       -0.088295296 -0.014552527 0.21731873 -0.15535441
000140 68 f2 85 3d 3f 66 85 3e 53 45 15 bf 36 d8 4e 3d
       0.06540376 0.2605457 -0.58308905 0.050499164
000150 d1 89 43 3f cf d4 f9 3e 8b fa 58 3e fb cf 34 3e
       0.76382166 0.48795173 0.21189325 0.17657463
000160 85 8c 3c 3e ed 01 c4 3e 02 3b bd 3e ec 94 a5 3e
       0.18412979 0.3828272 0.36959082 0.3234018
000170 76 50 38 be 54 00 1d bf 23 ba 48 be 97 df ba be
       -0.17999443 -0.61328626 -0.19602256 -0.3649871
000180 34 9f 6f 3d e9 ac 77 bf 8b 07 16 3f 6c 42 e5 3d
       0.058501437 -0.96748215 0.5860526 0.111943096
000190 9e f5 4f bf 93 8b 03 bf 52 1d 67 3e 15 10 78 be
       -0.8123416 -0.5138485 0.22569779 -0.24224885
0001a0 71 5f 3f be e1 4f 5c be e9 94 db bd de 96 29 3f
       -0.18688752 -0.21514846 -0.10721762 0.6624583
0001b0 88 df 1d 3e 94 e3 18 3f 52 b4 fc ba 2d 69 18 be
       0.15417302 0.59722257 -0.0019279814 -0.14883871
0001c0 d5 50 fa 3d 21 c1 bd 3c 51 b5 e6 be 89 70 88 be
       0.12222449 0.02316338 -0.45060208 -0.26648358
0001d0 91 cd 90 bd 86 df 94 be cf 57 0f 3f 10 4d e6 3e
       -0.07070459 -0.29076785 0.5599336 0.4498067
0001e0 48 8f 8e bd 54 38 8a 3e a8 8f c9 3d 99 7f d1 3d
       -0.069609225 0.269961 0.098418534 0.102294154
0001f0 b7 89 e1 bd db 65 33 be a0 d0 c6 3d 8e bb 52 bd
       -0.11012595 -0.17519324 0.09707761 -0.051448397
000200 90 85 1a bf aa 12 5e be 81 27 f6 be eb d7 b1 3e
       -0.6036005 -0.21686807 -0.48077014 0.34735045
000210 4a ed d0 be 35 43 0a bd a7 b1 0f 3d 16 68 20 bf
       -0.40806037 -0.0337555 0.03508153 -0.6265882
000220 b3 71 a5 be 0b 37 c2 3e 1e 95 0c be b4 10 eb bd
       -0.32313308 0.3793262 -0.13728759 -0.11477795
000230 de 1e 72 3e ec 43 09 3e f0 43 06 bd 47 c0 aa 3d
       0.23644587 0.13404816 -0.032779634 0.08337455
000240 0b 11 58 3d a2 08 7d be a6 07 9f be a3 36 2a 3e
       0.05275063 -0.24710324 -0.31060523 0.16622405
000250 b9 47 08 3d 10 33 8a be fb c2 da bb 4b 0e b4 3d
       0.033271525 -0.26992083 -0.0066760755 0.08791789
000260 e3 c0 04 3f 58 14 66 3e 90 30 be bd 68 cd 50 3d
       0.5185682 0.22468698 -0.09286606 0.05097714
000270 b3 b2 9d be ec cd 5d be 88 da 34 bf 22 15 88 3e
       -0.308004 -0.21660584 -0.7064595 0.26578623
000280 04 f7 a1 bd ce 1b 05 3e e9 39 8c 3e 25 a3 1c bf
       -0.079084426 0.12998888 0.27387932 -0.6118644
000290 23 48 d0 3e c2 fe a7 bd e3 8e 11 bf 30 da 8a bb
       0.40680036 -0.08202888 -0.5685865 -0.0042374358
0002a0 66 d8 05 be 44 05 1e bd 45 fc 8d 3e 68 54 d9 be
       -0.1307083 -0.03857924 0.2773153 -0.4244721
0002b0 7c 16 08 3f 6f 2a b2 3e 5b 73 13 bf 15 8c 44 bd
       0.5315931 0.34798 -0.57597893 -0.047985155
0002c0 d6 bd d6 3e 82 01 14 3f 4a 98 6e 3e 93 7c 1c bf
       0.41941708 0.578148 0.23300281 -0.61127585
0002d0 3b 50 7a be 6f a3 b5 3e 71 61 9a bc f9 fd 5e be
       -0.24444668 0.35476252 -0.018845292 -0.2177657
0002e0 20 c4 00 be 29 9e 9c 3e 23 b9 8f 3e 30 ce 8f bd
       -0.12574816 0.30589417 0.28070936 -0.07021749
0002f0 2d 48 21 bf cf ac c7 3c e4 fa 63 3e 30 be 69 3e
       -0.63000757 0.024374394 0.22263676 0.22826457
000300 1b fb 9a 3e 9a bc 8d be 59 20 1c 3e c4 f5 2a 3e
       0.30269703 -0.27682954 0.15246715 0.16695315
000310 67 d8 af 3e 6c d8 9b 3e dd 4d a9 be 82 1f 6d bf
       0.3434479 0.30438554 -0.33067217 -0.926262
000320 32 a0 c1 be b8 65 85 be dd b9 fe be 16 79 1d 3f
       -0.37817532 -0.26054168 -0.49751177 0.6151289
000330 2c 71 0b 3f 34 9d fe bd d8 8a bb 3d 4f 6e 52 be
       0.5446956 -0.12432328 0.09157342 -0.20549892
000340 2d 4c 3b 3e 76 3e ba 3c b5 4c 16 3f aa 93 4f be
       0.18290778 0.022734862 0.58710796 -0.20271173
000350 1e 45 a4 3e f9 fe ee 3e c4 a3 98 3f 13 5e 8f be
       0.32083982 0.46678904 1.1924977 -0.2800146
000360 5e 1e 2c 3e 1b 24 96 3c 58 ac 24 3e 28 7b 3f 3e
       0.16808459 0.018327763 0.16081369 0.18699324
000370 ba 28 78 be 39 34 4f 3d 70 9e 03 bd 97 50 4b be
       -0.24234286 0.050586913 -0.03213352 -0.19854961
000380 24 a1 6c bc 7d 32 2b 3f d4 d7 af be 7a 15 70 bf
       -0.014442716 0.66873914 -0.3434435 -0.9378277
000390 63 d6 1b bc cc 01 b5 be 9f 25 2f 3c 99 0b e0 3e
       -0.009511563 -0.35352933 0.010690122 0.43758848
0003a0 cc 3a 60 be c3 41 53 bd 65 98 4a be 52 7a 07 3e
       -0.21897429 -0.051576387 -0.19784696 0.13230255
0003b0 85 90 65 bd 00 e3 c2 3d dd 91 7c 3d e9 a2 11 3e
       -0.056046028 0.09515953 0.061662544 0.14222302
0003c0 c9 e8 14 be e4 b4 77 be 55 ea 83 3d 42 7b 79 be
       -0.14541925 -0.24190098 0.0644118 -0.24363425
0003d0 6c 61 9f be 60 b2 0e 3e 0b fe 1a 3d c3 a2 3a be
       -0.31129014 0.13935232 0.03783993 -0.18226151
0003e0 e3 5a 5a be 5c 6a 76 3d 56 c5 90 be 62 9b f5 3d
       -0.21323733 0.060160026 -0.28275555 0.119925275
0003f0 f2 bf a8 3d ce 27 eb bd ed 25 19 bf a4 4d c7 bd
       0.08239736 -0.114822015 -0.59823495 -0.09731606

norm_input.running_var f4 [1280]
000000 72 11 df 3f 62 6c 02 40 71 7d e8 3f b4 48 03 40
       1.7427199 2.0378652 1.8163282 2.0513124
000010 17 f8 0b 40 4e 33 1e 40 3b 8b fb 3f 7e 1a 0d 40
       2.1870172 2.4718814 1.9651865 2.204742
000020 1c 47 fd 3f 57 fc 14 40 fb e8 c4 3f 76 e3 c5 3f
       1.9787326 2.3279016 1.53836 1.546004
000030 8a a2 ec 3f ff 94 ee 3f ca 19 b3 3f 5c 2a 21 40
       1.8487103 1.863922 1.3992245 2.5182104
000040 4d 26 cd 3f ae d2 0e 40 f1 89 00 40 fd a1 f6 3f
       1.6027313 2.2316089 2.0084193 1.9268185
000050 1c 06 fe 3f db a1 fd 3f 51 a9 ea 3f a2 bb fc 3f
       1.9845614 1.9815019 1.8332921 1.9744761
000060 80 17 cc 3f 1d 97 25 40 4e 8e 05 40 9b 38 d8 3f
       1.5944672 2.5873482 2.0868106 1.6892275
000070 f6 54 e4 3f be b1 ca 3f f9 b1 f6 3f 52 b9 f1 3f
       1.7838428 1.5835493 1.9273063 1.888468
000080 e9 ec 85 40 73 f6 f1 3f 39 6d 0c 40 c0 78 c9 3f
       4.1851697 1.8903335 2.1941664 1.5739975
000090 88 fb c7 3f de a5 05 40 bf 27 c9 3f 83 bb 0d 40
       1.5623636 2.0882487 1.5715255 2.2145698
0000a0 68 fb f3 3f 17 c8 e8 3f 7c 2c 15 40 97 5b ea 3f
       1.9061098 1.8186063 2.33084 1.8309201
0000b0 35 4f b4 41 9e a0 d3 3f f6 11 f1 3f 97 ed 03 40
       22.538675 1.6533391 1.8833606 2.0613763
0000c0 97 57 dc 3f 36 8a ff 3f 3c 5f f6 3f be 28 15 40
       1.721423 1.9964054 1.9247813 2.3306117
0000d0 50 fb fd 3f 9e 19 de 3f d3 1b c8 3f 5e a1 17 40
       1.984232 1.7351568 1.5633491 2.369224
0000e0 6f 14 01 40 e0 a5 11 40 0c 5d 05 40 52 80 f0 3f
       2.0168722 2.2757492 2.0838041 1.878916
0000f0 36 83 3f 40 53 8a f1 3f 39 74 f5 3f 51 c7 e2 3f
       2.9923835 1.8870338 1.9176093 1.7717077
000100 b7 93 b9 3f 42 55 04 40 01 48 ec 3f b0 42 0e 40
       1.4498204 2.0677037 1.8459474 2.2228203
000110 53 e3 bf 3f 5d 04 e9 3f d8 ef 47 40 85 71 88 40
       1.4991249 1.8204457 3.124014 4.2638574
000120 a5 ca c1 3f 6b 31 02 40 7d c4 f0 3f ff 9a 31 40
       1.5139967 2.0342662 1.8809963 2.7750852
000130 c1 24 03 40 4d 02 f0 3f ed 22 e3 3f 43 e4 17 40
       2.0491183 1.8750702 1.7745034 2.373307
000140 91 06 e1 3f 48 af 0b 40 aa eb 3c 40 f8 a6 fa 3f
       1.7580129 2.1825733 2.9518838 1.9582205
000150 78 b7 e2 3f fb b8 cd 3f a3 20 eb 3f 04 73 21 40
       1.771224 1.6072077 1.8369335 2.522645
000160 b4 a9 d2 3f 9b 1a d1 3f 59 97 02 40 f2 54 08 40
       1.6458039 1.6336244 2.0404875 2.1301847
000170 d7 b4 e1 3f 26 1f 74 40 22 38 e1 3f 2f d2 e1 3f
       1.7633313 3.8144011 1.7595255 1.7642268
000180 7e 3f f5 3f 4c 63 ef 3f bd 09 e9 3f 37 a2 e5 3f
       1.9160001 1.8702178 1.8206097 1.7940129
000190 cd 00 21 40 4f d0 1e 40 30 86 b8 3f 15 cb 22 40
       2.5156739 2.4814641 1.4415951 2.5436451
0001a0 7e c2 de 3f c9 c7 f0 3f 48 98 f2 3f d9 e0 34 40
       1.7403104 1.881097 1.8952723 2.8262236
0001b0 1d 8e 41 40 a2 4c 0d 40 30 69 cd 3f 86 b0 bb 3f
       3.024299 2.2078023 1.6047726 1.4663246
0001c0 3b 43 f7 3f 3d 05 ed 3f 34 07 07 40 82 61 47 40
       1.9317392 1.8517224 2.1098146 3.1153264
0001d0 36 ba 01 40 cc 04 f2 3f a3 a1 06 40 38 59 ea 3f
       2.0269904 1.8907714 2.1036155 1.8308477
0001e0 6b fa e4 3f be a4 f1 3f e0 1c 01 40 7c 1d 06 40
       1.7888921 1.88784 2.0173874 2.0955496
0001f0 fa 21 d6 3f 06 97 c4 3f b6 6d d2 3f 42 88 ed 3f
       1.6729119 1.5358589 1.6439731 1.8557208
000200 88 11 04 40 c4 f8 d3 3f 6b 72 4d 40 e7 9a 0d 40
       2.06357 1.6560292 3.2101085 2.2125795
000210 2f 72 ed 3f f5 b1 c9 3f 03 08 cd 3f 44 80 fa 3f
       1.8550471 1.5757433 1.601807 1.9570394
000220 ba 6d e2 3f 25 61 df 3f d2 64 d5 3f 68 d4 e6 3f
       1.7689736 1.7451521 1.6671393 1.8033571
000230 6f b2 dd 3f f7 f0 d3 3f 10 3f 12 40 3f 4a 07 40
       1.7320079 1.6557912 2.285099 2.1139066
000240 e3 a1 f3 3f 04 c1 c1 3f 45 84 db 3f 17 8a f8 3f
       1.9033779 1.5137029 1.714974 1.9417142
000250 52 9f ed 3f a2 72 e0 3f c9 2f c2 3f 28 a1 c6 3f
       1.8564246 1.7534983 1.5170833 1.5517931
000260 1a 6d da 3f 74 b1 ef 3f d4 fa f5 3f 54 58 db 3f
       1.7064545 1.8726029 1.9217172 1.7136331
000270 c0 9a f1 3f cf 89 ed 3f b7 1b 00 40 8b 34 ef 3f
       1.8875351 1.8557681 2.0016916 1.868791
000280 dc 80 05 40 fa 59 da 3f f3 1e ca 3f 00 5b f2 3f
       2.08599 1.7058709 1.5790695 1.8934021
000290 03 e9 f5 3f 8c 0e ca 3f b4 ca f8 3f 53 e3 db 3f
       1.9211735 1.5785689 1.943686 1.7178749
0002a0 f5 a9 f5 3f 76 9c db 3f eb 1f dc 3f 43 d5 21 40
       1.9192492 1.7157123 1.719724 2.5286415
0002b0 53 18 08 40 a9 25 f3 3f 7e 97 f7 3f 03 db 69 40
       2.1264846 1.8995868 1.9343107 3.6539924
0002c0 18 7f d2 3f 0b 12 e5 3f f5 84 df 3f 6e c8 f6 3f
       1.6445036 1.7896131 1.746245 1.9279916
0002d0 75 b2 d9 3f c2 57 1d 40 0c 03 cc 3f 49 aa d2 3f
       1.7007586 2.4584813 1.593843 1.6458217
0002e0 bb 81 bf 3f e0 29 dc 3f 82 1b 03 40 e5 04 f9 3f
       1.4961466 1.7200279 2.048554 1.9454619
0002f0 a0 36 00 40 d6 30 25 40 a9 9a eb 3f 6b 91 be 3f
       2.003334 2.5811057 1.8406574 1.4888128
000300 7a 32 e8 3f dc 39 fb 3f 06 5b d7 3f ef 54 d8 3f
       1.8140404 1.9627032 1.6824653 1.690092
000310 78 af c5 3f 33 df 09 40 2b 7f ea 3f cd 91 01 40
       1.5444174 2.154248 1.8320059 2.024524
000320 9e 82 03 40 38 9d c9 3f 9f 4b f9 3f c2 bd cf 3f
       2.0548472 1.5751104 1.9476203 1.6229784
000330 0c 7f cf 3f 42 d0 ba 3f f2 97 23 40 a3 e5 09 40
       1.6210647 1.4594805 2.556149 2.154641
000340 06 63 d3 3f 9a 48 d7 3f 6b f1 e1 3f 13 8e d1 3f
       1.6514595 1.6819031 1.76518 1.6371483
000350 21 42 1b 40 20 0b e9 3f 92 f2 40 40 eb 21 bf 3f
       2.4259112 1.820652 3.0148053 1.4932226
000360 0b 89 11 40 b5 3f e3 3f 5c 63 bc 3f 6b 7b 08 40
       2.2739894 1.7753817 1.4717822 2.1325328
000370 78 cd 04 40 78 23 c6 3f e1 fa c7 3f b5 4c dc 3f
       2.0750408 1.5479574 1.5623437 1.7210909
000380 e1 07 cc 3f 84 34 09 40 e3 be 00 40 fb 50 d2 3f
       1.5939904 2.1438303 2.0116508 1.6430963
000390 34 bd d8 3f 61 4a 03 40 27 ca 07 40 3a b0 d6 3f
       1.693274 2.0514147 2.1217134 1.677253
0003a0 91 8a b9 3f be 22 f9 3f b9 bd e5 3f 19 1d d2 3f
       1.4495412 1.9463727 1.7948524 1.641513
0003b0 50 8b c1 3f 5b 1e ce 3f 78 a8 d7 3f bd 5b b3 3f
       1.512064 1.6103014 1.6848288 1.4012371
0003c0 c8 d3 ee 3f b0 26 f7 3f 67 8e d1 3f e4 24 0f 40
       1.865838 1.9308681 1.6371583 2.2366266
0003d0 2e 96 ff 3f 3b 8d ec 3f 87 2a 07 40 26 b4 f5 3f
       1.9967706 1.84806 2.1119707 1.9195602
0003e0 9e 80 26 40 e8 32 18 40 52 03 e2 3f dc 7a de 3f
       2.6016002 2.378107 1.7657263 1.7381244
0003f0 18 4c 40 40 b7 9f 03 40 c8 18 ff 3f 9d 86 cf 3f
       3.0046444 2.0566232 1.9929438 1.6212956

transformer.norm.weight f4 [1280]
000000 b4 0f 3a 3f 85 63 b8 3e b1 0e 0c 3f a3 ee f7 3e
       0.7268021 0.36013427 0.5470992 0.48424253
000010 0f bc be 3e 0c 2c 93 3f 8f 86 87 3e c0 e2 d7 3e
       0.37252852 1.1497817 0.26469848 0.42165184
000020 1f 41 3d 3f e2 50 2b 3f 3c f9 56 3f a2 14 65 3d
       0.7392749 0.6692029 0.8397405 0.05592788
000030 86 c9 e7 3e bd cd c6 3e 75 39 3d 3f c8 e1 32 3f
       0.45270938 0.3882884 0.739158 0.69875765
000040 11 90 2d 3e 49 04 2b 3f 42 63 4e 3f 0d 30 a1 3e
       0.16949488 0.66803414 0.80620205 0.31481972
000050 30 a5 e6 3e 48 ba 13 3f 2c c5 15 3f 51 36 a1 3f
       0.45047903 0.5770612 0.58503985 1.2594701
000060 d7 78 ac 3e 6c 0d 12 3f ad 36 99 3f db 14 5a 3f
       0.33685943 0.5705173 1.1969811 0.8518807
000070 ff b5 a4 3f 78 32 67 3f b3 ce 1e 3f 43 4e 30 3f
       1.2868041 0.90311384 0.6203415 0.6886942
000080 10 02 14 3f 8b 4f c6 3e 18 c4 f8 3e ed 5a 0f 3f
       0.5781565 0.3873256 0.48587108 0.55998117
000090 87 12 b3 3f cb 9d 0f 3f 0b de 23 3e 28 ce 19 3f
       1.3990029 0.5610015 0.16002671 0.60080194
0000a0 38 86 1f 3f c6 37 44 3f ea b5 f0 3e c0 d8 1f 3f
       0.62314177 0.76647604 0.4701379 0.6244011
0000b0 2f fc 85 3d 76 66 90 3f 5e c7 0c 3f c2 c2 82 3f
       0.06542241 1.1281269 0.5499171 1.0215685
0000c0 06 2c 9f 3e 4a 20 1f 3f a4 99 1a 3f cc 00 58 3f
       0.31088275 0.62158644 0.60390687 0.84376216
0000d0 26 7c 4f 3e 2c 1a b9 3e c5 c7 3e 3f 4a a9 ec 3e
       0.20262203 0.3615278 0.74523574 0.46222907
0000e0 6f 63 57 3f 2e 9b 64 3f e7 eb 93 3e c9 f7 2d 3f
       0.841361 0.89299285 0.28890917 0.67956215
0000f0 d2 2b 55 3f 8d f4 57 3f 37 db 0f 3f 95 db 2c 3f
       0.8326999 0.8435753 0.5619387 0.67522556
000100 d6 5a 74 3e 8f eb 65 3f e3 e4 c3 3e 32 28 1b 3f
       0.23862776 0.8981256 0.38260564 0.6060821
000110 39 53 48 bf 24 23 cb 3e be 04 77 3e cf ee 3b 3c
       -0.7825199 0.39675248 0.24122903 0.011470511
000120 5d 3b d0 3e 18 54 03 3f cc a6 ed 3e f8 5f b0 bd
       0.4067029 0.5130019 0.46416318 -0.086120546
000130 69 fc 15 3f 37 97 74 3e c8 b3 0b 3f e8 4c 51 3f
       0.5858827 0.23885809 0.545712 0.81757975
000140 a0 9e 42 3e 85 7b a7 3e 45 0e d3 3e 6f cd b2 3d
       0.19005823 0.32711425 0.41221824 0.087305896
000150 cb d1 c1 3e b1 de 7a 3f 32 c6 75 3f 1b d0 28 3f
       0.37855372 0.9799605 0.9600555 0.65942544
000160 05 95 db 3e 26 e4 0a 3e 33 b3 10 3f 80 6f 3b 3f
       0.4288713 0.13563594 0.56523436 0.7321701
000170 75 e8 26 3f 50 3d 20 3f 7c 06 05 3f d4 3b 5b 3f
       0.6519845 0.62593555 0.5196302 0.85638165
000180 31 83 21 3f 4a e6 a7 3f a7 a8 2d 3f 7b 92 db 3e
       0.6309081 1.3117154 0.6783547 0.42885193
000190 df f9 bf 3e 38 53 1c 3f 0c ee 35 3f 6e 58 c8 3e
       0.37495324 0.6106448 0.71066356 0.39129966
0001a0 cb b2 da 3e fa ea 4f 3f c7 56 48 3f 6f ce a3 3e
       0.42714533 0.8121792 0.7825741 0.31993434
0001b0 1e c0 65 3f b1 7b 5e 3f e8 f7 0c 3f 6b 64 a2 3e
       0.8974627 0.8690749 0.55065775 0.31717238
0001c0 df 88 0c 3f 00 a7 3b 3f 23 28 0f 3f 11 2b aa 3d
       0.5489635 0.73301697 0.5592062 0.083089955
0001d0 ac 84 97 bc 58 31 de 3e 63 ce 57 3f c0 1e 17 3e
       -0.01849588 0.4339702 0.84299296 0.14757824
0001e0 bc 47 de 3c 4b 3b 31 3f da ea 12 3f 1c 98 2a 3f
       0.027133815 0.692311 0.57389605 0.6663835
0001f0 54 b4 06 3f 51 8a 07 3f d9 e6 08 3c 7e fb 05 3f
       0.5261891 0.5294543 0.00835582 0.5233687
000200 b3 0e dd 3e 4e 8c 23 3f a3 58 c3 bd 49 3a 35 3f
       0.43175277 0.6388596 -0.095383905 0.7079206
000210 59 f7 0c 3f 11 e1 4a 3f cb 15 f9 3e 11 9b bd 3e
       0.5506492 0.79249674 0.4864944 0.3703237
000220 7f 7f 56 3e 36 39 41 3f 1d e2 dc 3d da 9f c9 3d
       0.20947073 0.7547792 0.10785315 0.098449424
000230 1c f1 14 3f 1a 3f af 3e 6f d0 97 3e f8 7c 5e 3f
       0.58180404 0.3422783 0.2965121 0.8690944
000240 f7 e3 d6 3e 53 9f 2d 3f 48 9f 23 3f e7 34 bc 3e
       0.41970798 0.67821234 0.6391492 0.3675911
000250 99 5b 44 3f 52 c0 62 3e 30 23 34 3f 04 c3 ad 3e
       0.76702267 0.22143677 0.7036619 0.33937848
000260 7a 62 9a 3e 35 b4 ec 3e 34 60 a3 3e bf d1 16 3f
       0.30153257 0.46231237 0.31909335 0.589138
000270 e2 d7 b6 3d c9 16 51 3f c8 f9 82 3f 80 da 87 3e
       0.08927895 0.8167539 1.0232477 0.2653389
000280 6f a5 d8 3e 0d e5 18 3f 8f f4 ad 3e 9c 7f 17 3f
       0.42313716 0.59724504 0.33975646 0.5917909
000290 28 b6 a3 3e 16 47 97 bd da fc 33 3e 17 1a 41 3f
       0.31974912 -0.073866054 0.17576924 0.75430435
0002a0 a5 85 ca 3e d3 10 36 3f e3 d9 3a 3e 2d 15 7a be
       0.39555088 0.7111942 0.1824718 -0.2442214
0002b0 eb 00 08 3f b9 99 ee 3e a0 38 32 3f 1c de 10 3f
       0.531264 0.46601656 0.6961765 0.5658891
0002c0 73 8b 06 3f 4a 2d 1c 3f a7 5f 87 3f 15 3a b4 3e
       0.5255653 0.61006606 1.0576066 0.35200563
0002d0 d8 1d 6a 3f 33 23 52 3f fc 1b 95 3e eb 71 bb 3e
       0.9145179 0.8208496 0.29122913 0.3661035
0002e0 6b 15 ee 3e f4 a6 cf 3e 59 b1 c3 3e f1 49 4b 3f
       0.46500716 0.40557063 0.38221243 0.794097
0002f0 0c 86 81 3f c2 4e 52 3e 52 51 0e 3f 7c 90 54 3e
       1.0119033 0.20537856 0.55592835 0.20758241
000300 1e c2 01 3f 9f 03 6c 3e fb 37 11 3f b2 a4 3f 3e
       0.50686824 0.23048256 0.56726044 0.1871517
000310 e1 d7 4d 3f 52 63 59 3f aa b7 16 3f cb f2 15 3f
       0.8040753 0.84917176 0.58874 0.585736
000320 2b 3d 36 3e d9 fb 8b 3e 55 70 6d 3f 20 73 ca 3e
       0.17796771 0.27340582 0.9274953 0.39540958
000330 61 41 1f 3f 0b 58 1e bd bb 34 58 3f dc aa 15 3e
       0.62209135 -0.038658183 0.8445546 0.14615959
000340 cf 75 69 3e 12 13 b5 3e 72 d9 ae 3e 00 5c ca 3e
       0.22798847 0.35366112 0.34150273 0.39523315
000350 cd 1d d9 3e 36 f8 f2 3e 3d eb 28 3f d0 43 03 3f
       0.4240555 0.47454995 0.65983945 0.5127535
000360 33 30 4b 3f c7 fa f1 3e 2e 85 05 3f b5 08 b2 3d
       0.7937042 0.4726164 0.5215634 0.08693067
000370 2f ef 60 3e 00 a8 51 3c 3c 80 31 3f 12 e2 e8 3d
       0.21966241 0.012796402 0.69336295 0.113712445
000380 b3 89 dd 3e 95 15 13 3f 21 87 09 3f 44 93 5b 3f
       0.4326912 0.57454807 0.53721815 0.85771585
000390 e1 93 43 3f 61 63 29 3f 55 e4 12 3f 97 8f b1 3e
       0.7639752 0.66167265 0.5737966 0.34679863
0003a0 37 8a 2a 3f 11 13 99 3e 49 34 ee 3d 66 9a 73 3f
       0.6661715 0.2989736 0.11631066 0.9515747
0003b0 6c 76 95 3e ce 98 e7 3e 2f cd ec 3e 1b e2 c6 3e
       0.2919191 0.45233768 0.46250293 0.3884438
0003c0 64 7b 17 3f c9 41 9b 3e 0c c5 5c 3f 15 65 24 3f
       0.59172654 0.30323628 0.8623817 0.6421674
0003d0 30 4e f3 3e 78 f2 c8 3e 67 14 ec 3e 8a fa 90 3e
       0.4752059 0.3924749 0.46109316 0.28316146
0003e0 bf 66 34 3e b6 cb 41 3f 3f 07 b2 3c 1c 2c 5b 3f
       0.1761732 0.75701463 0.02173197 0.8561418
0003f0 91 05 9e 3e 57 b8 cf 3e a4 f9 a6 3e 2a 18 95 3e
       0.30863622 0.40570328 0.32612336 0.29119998

transformer.norm.bias f4 [1280]
000000 fb 60 cc 3c d1 89 9a be d5 64 42 be de 04 45 be
       0.024948588 -0.3018327 -0.18983777 -0.19240138
000010 13 8b 63 3e 65 5e 26 3e 93 43 f3 be 80 7e c9 3e
       0.22221021 0.16246946 -0.47512493 0.39354324
000020 c0 76 26 3e 6d 60 87 3c 4b b0 62 3e a2 06 6f 3d
       0.16256237 0.016525472 0.22137563 0.058355935
000030 21 58 5e 3e aa 10 e1 bd 30 52 2d 3d e2 46 06 3e
       0.21713306 -0.109895065 0.04231471 0.13112977
000040 b4 06 82 be c1 65 96 bc 9a 0d 39 3d d1 88 a6 bd
       -0.2539574 -0.018359067 0.045178987 -0.081315644
000050 8f 10 98 be c6 b1 6b 3e 21 07 75 3e b3 4b 9b 3d
       -0.29700133 0.23017034 0.239285 0.07582798
000060 9b 15 84 b7 d4 a1 c6 be 31 a5 22 be c6 2d df 3d
       -1.5745687e-05 -0.3879534 -0.15883328 0.108974025
000070 c2 6d dd 3c 8d 17 9f be 60 18 71 be 5a 2d 1b be
       0.027029876 -0.31072655 -0.23544455 -0.15154019
000080 0b 25 2e be 77 c5 0e be 70 50 91 bc 21 d9 24 3e
       -0.17006318 -0.13942514 -0.01773855 0.16098453
000090 da f5 9f 3e c0 cc 4a 3e c6 28 8e 3d 77 69 ae bd
       0.31242257 0.19804668 0.06941371 -0.085162096
0000a0 fe f1 22 be 07 ca bb bd 2a 36 b8 bd 97 c8 ff bd
       -0.15912625 -0.09169393 -0.08994706 -0.12489431
0000b0 61 1d 29 be cf ba 3e 3c ef 6b f1 bd 7e cb 51 3e
       -0.16515113 0.011641218 -0.11788165 0.20487782
0000c0 0b 27 2c 3e 5f 2b 73 bd c1 da 53 be d9 e8 90 be
       0.16811769 -0.059367534 -0.20688917 -0.2830265
0000d0 43 c3 8a be 55 a6 2a be 6d b3 79 3e eb 8b c3 bd
       -0.27102098 -0.16665013 0.24384852 -0.095481716
0000e0 53 e0 b2 3d 7f 15 f9 3d 36 1b 75 be e6 08 1d 3d
       0.08734193 0.12162303 -0.23936161 0.038338564
0000f0 ca 3e 57 be cc e5 cc 3d 43 da 3c 3e 44 d6 eb bd
       -0.21020046 0.10004768 0.18442635 -0.11515477
000100 15 29 28 3d 6a 57 61 3e a3 58 39 be 2f b5 d8 bd
       0.041054804 0.22006002 -0.18100218 -0.10581433
000110 98 d7 cf 3d 4c 14 6f 3e d5 f4 e5 bb 25 e6 ba bd
       0.10148543 0.23347586 -0.0070177116 -0.09125928
000120 4f e8 1e be 1f 0b c9 bd 76 d1 53 be 1c 0c 47 3b
       -0.15518306 -0.09816574 -0.20685372 0.0030372208
000130 e8 fd a3 be db b5 ac bd 41 14 0c be 63 3d 62 3e
       -0.32029653 -0.08433124 -0.13679601 0.2209373
000140 75 16 9e 3e 1f cb d2 bd 17 90 57 bd 4a 8a 58 be
       0.30876508 -0.102926485 -0.05262765 -0.21146503
000150 2d b5 c2 3d 01 f2 b7 bd ea cd 23 be 41 2e c3 bd
       0.09507213 -0.089817055 -0.15996519 -0.095303066
000160 71 d6 a4 3d fd f8 2b 3e 51 77 f1 3d 91 dd 72 3d
       0.08048714 0.167942 0.11790336 0.059293333
000170 f6 38 e4 3e 70 33 6a 3d aa b8 48 3c d5 d1 87 bd
       0.44574708 0.05717796 0.012251059 -0.06631819
000180 17 10 09 bd 54 e5 ca bc 86 8d 33 be e8 44 80 39
       -0.03346261 -0.024767555 -0.17534456 0.00024465402
000190 c8 6d 8a 3d 58 96 88 3d 82 9c 0c 3d ec ee 47 be
       0.0675922 0.06669301 0.034328945 -0.19524735
0001a0 0e fd 85 3c 83 7b 90 3b 3b 39 73 3e b2 96 19 bd
       0.016356017 0.004409255 0.237523 -0.03749723
0001b0 bc 3b 2d be a3 5c 0e bd 2f f8 13 be b0 5f ba bd
       -0.16917318 -0.034756314 -0.14450143 -0.09100282
0001c0 e5 72 73 3e f6 66 25 bb ca 10 1d be 6a 88 c7 3d
       0.23774298 -0.0025238371 -0.15338436 0.09742816
0001d0 e8 00 0a be dc 55 52 be 34 90 68 be 1a 1f 45 be
       -0.13476908 -0.20540565 -0.22711259 -0.19250146
0001e0 25 e6 31 bd da f9 be be a6 d2 69 3e ae fb ae be
       -0.043432374 -0.37299997 0.22834262 -0.3417639
0001f0 1e 7f f4 3c b7 d6 4a 3e 1f 29 96 bd ce 89 6b bd
       0.02984577 0.1980847 -0.07332062 -0.057504468
000200 6c 2a 0a 3d d4 ff 1c 3e e0 7f 0e 3e e3 9a a3 3e
       0.033731863 0.15331966 0.13915968 0.31954107
000210 40 23 b5 bd be 88 4d 3e 9f 50 50 bd 8f 3a 08 3e
       -0.08844614 0.20071694 -0.050858136 0.13303588
000220 63 e2 0a 3e dc 5e 2d 3d 7b b6 2a be 25 c6 fb bd
       0.13562922 0.042326793 -0.16671173 -0.122936524
000230 f1 01 c3 be 78 15 fe 3c 34 d1 df 3e ed 25 88 bb
       -0.3808742 0.031016096 0.43714297 -0.0041549117
000240 05 62 e4 3d b8 72 17 be 35 83 49 3e ce b3 e8 3c
       0.11151508 -0.14789855 0.19678958 0.02840605
000250 59 98 4c be 92 7e ab 3c fb 29 42 3e 84 25 82 3e
       -0.19979991 0.020934377 0.18961327 0.25419247
000260 0c 51 db bd b7 0e 39 3e e9 53 16 be 92 c2 40 be
       -0.10708818 0.1807202 -0.14680447 -0.18824223
000270 46 28 e1 3d fc 7f ae bd b2 41 f9 bd a5 c7 e9 3d
       0.1099401 -0.08520505 -0.121707335 0.11415032
000280 b6 65 e4 bd 39 bf 2d be 85 16 0e 3e e3 ce e6 bd
       -0.11152212 -0.16967477 0.13875778 -0.11269929
000290 24 76 45 be 87 e5 28 be e8 81 39 be a9 63 14 be
       -0.19283348 -0.16493808 -0.18115962 -0.14491142
0002a0 24 3b 7e 3e 20 3c 21 be 01 1b 0b 3d 0c 12 2d be
       0.24827248 -0.15745592 0.0339613 -0.16901416
0002b0 1f 69 49 bd 3d 9a 24 be 87 b8 6b be 7d 8e 99 bd
       -0.049172517 -0.16074462 -0.2301961 -0.074978806
0002c0 75 b7 07 be ef 65 03 3e 43 98 5a 3e 3e 8f 58 3c
       -0.13253577 0.12831853 0.21347146 0.013217745
0002d0 90 c4 c5 3c 79 d1 84 3d 5f 60 6f be 22 3c 35 be
       0.02414158 0.06485266 -0.23376606 -0.1769872
0002e0 b2 7d b5 3d 54 99 8d be 4b de 95 be b9 8d 0c 3e
       0.08861865 -0.27656043 -0.2927116 0.13725938
0002f0 02 0c 30 3e 52 a3 86 bd 19 53 19 bd b6 7e ef bc
       0.1719208 -0.0657412 -0.037432764 -0.029235225
000300 39 bd 5e be 48 c9 a9 bd 91 ff bb bd 56 55 22 bc
       -0.2175187 -0.082903445 -0.09179605 -0.009908041
000310 87 a1 05 be e4 0c d2 bd 15 31 92 3e e9 2a 19 3a
       -0.13049899 -0.10256365 0.28553072 0.0005842881
000320 6d f5 3c 3d 35 50 eb 3c 17 b2 15 bd 64 00 b8 bd
       0.046132494 0.02872477 -0.036546793 -0.089844495
000330 91 2a 1e 3d 31 7c e0 3c a2 b6 06 bf 6f a0 9d 3d
       0.038614813 0.02740297 -0.52622426 0.07696616
000340 3a 09 51 be 4f a6 36 3e 93 be 12 bc 4e d0 f8 bc
       -0.20413676 0.17836879 -0.008956569 -0.030372765
000350 35 5c 1c 3c 32 77 1b 3d 29 bc 39 3e 03 c9 9e bd
       0.009543468 0.03795547 0.18138184 -0.07753184
000360 42 77 1a 3e 29 99 6d bd 3d 18 d3 bb f1 42 68 bd
       0.15084556 -0.058007393 -0.0064420984 -0.056704465
000370 89 69 0b be 3e fe fb bd 39 e8 20 3d 7b b2 55 3e
       -0.13614477 -0.12304352 0.039283965 0.20868866
000380 89 ce d8 bd 40 18 97 3e 91 d6 72 3c ad 77 fa 3d
       -0.105862685 0.2951069 0.014821664 0.122298576
000390 e2 dd 2a 3d b9 89 35 3e 0b a6 98 bd 26 ac d2 3c
       0.04171551 0.17728318 -0.07453545 0.025716852
0003a0 e2 db ca 3e c2 4d bf 3d f3 01 20 be 85 29 ab 3d
       0.39620882 0.09341003 -0.15625744 0.083575286
0003b0 b7 eb 82 3d 3c b6 bd 3b 7a 7f 11 bd 91 53 6c 3e
       0.06392615 0.0057895463 -0.03552196 0.23078753
0003c0 54 0f 30 3e 14 0e c0 be dd ee 60 be e7 0a ac bb
       0.17193347 -0.3751074 -0.21966119 -0.005250323
0003d0 46 ab ac 3e b6 fd 2e 3e 02 39 bb bd 18 7e 5e bd
       0.3372442 0.1708897 -0.09141733 -0.05431947
0003e0 44 60 45 bd 05 0e 30 be 39 3a ad bd 2f 78 2e 3e
       -0.04818751 -0.17192848 -0.08458371 0.17038034
0003f0 20 85 a9 bd 54 2c aa bc a6 d5 8e 3e 41 13 9e bc
       -0.08277345 -0.02077309 0.27897376 -0.01929629

transformer.norm.running_mean f4 [1280]
000000 ea 45 79 bc 2e cb 92 3b 76 43 f5 bb 01 51 14 bb
       -0.015214423 0.0044797873 -0.0074848486 -0.002263129
000010 cf e9 a3 bb 6b 51 0f bc 06 0c b6 3b 21 fb 85 3c
       -0.0050022374 -0.008747439 0.0055556325 0.0163551
000020 eb fc 15 b8 93 a6 31 38 53 5b fc b9 ed b7 dd bb
       -3.5759916e-05 4.2355223e-05 -0.00048133227 -0.0067663104
000030 2c 5d d1 b9 79 08 24 bb 7f 11 2b 3c 6b e7 b4 bc
       -0.00039933005 -0.0025029464 0.010441183 -0.022083005
000040 8a 32 f8 ba dd 78 c0 ba 74 96 23 ba e0 33 05 bc
       -0.001893596 -0.0014684458 -0.0006240376 -0.008130044
000050 39 ed 6c 3a b9 1d 11 3b 98 72 e7 3c 04 5c 13 bc
       0.00090380345 0.002214296 0.028252885 -0.008994106
000060 3b fe 15 3b 03 02 f8 39 08 14 35 3d 3f 4f 91 bb
       0.002288713 0.00047303745 0.044208556 -0.0044344957
000070 83 96 e4 bc 90 55 35 bd 2a 49 8e 3b 98 a1 d6 b9
       -0.0279038 -0.044271052 0.004342218 -0.00040937657
000080 02 46 14 bc 74 87 71 3c 4a 61 c1 bb 0a 97 0a 3c
       -0.009049894 0.014741767 -0.0059014903 0.008458862
000090 a0 4c 4e bd d2 11 a0 3c 2f 31 2e bc a3 e8 b3 39
       -0.050366044 0.019539747 -0.0106318435 0.00034314868
0000a0 1e 07 a4 bc be 77 0c 3d a9 3e a1 bb 91 9d 76 bb
       -0.020022925 0.034293883 -0.0049207998 -0.0037630538
0000b0 7e a7 3e bb e3 d3 8d 3c 88 17 8b 3c e3 05 f5 bb
       -0.0029091532 0.01731295 0.016978994 -0.0074775084
0000c0 a3 43 03 3c 7d 2c 2a 3c db 60 bc bb f1 9e c2 bc
       0.008011731 0.010386583 -0.0057488508 -0.02375743
0000d0 9f 87 d0 b8 25 d2 81 bb 2b ae 98 3c a9 f8 9b 3c
       -9.943474e-05 -0.0039618188 0.018637737 0.019039469
0000e0 22 88 e6 bb f9 54 ff bb 90 63 9a 3b b6 6f c0 bb
       -0.0070352713 -0.007792112 0.004711576 -0.005872692
0000f0 5f 22 b8 ba c0 21 c6 bb a9 85 29 bc 12 10 7d 3b
       -0.0014048329 -0.006046504 -0.0103468085 0.0038614315
000100 03 04 54 bb df fc d5 bb 80 7f 08 3b bc 8a 6f 3b
       -0.0032351024 -0.0065303887 0.002082795 0.0036551198
000110 29 52 e9 3a 2e 06 c9 ba 2e 0c 9b bc 0d a4 8f 3a
       0.0017800975 -0.0015336925 -0.018926706 0.0010958925
000120 b8 7a dd 3b 66 a8 6c ba 3b 89 6f 3c 10 f9 89 3a
       0.006759014 -0.0009027779 0.014620121 0.0010526497
000130 73 1e 15 bb b4 8f bd 3a cb 0f ac bb 5e 72 88 3b
       -0.0022753745 0.0014462383 -0.005250906 0.0041640243
000140 bd 4a 93 bc a4 3e 4c bc d5 75 1d bc b8 d3 e4 ba
       -0.017979974 -0.012466107 -0.009610613 -0.0017458117
000150 55 2e 4d bc 78 d5 49 3c 2b bd 4d bb 01 8a ab bb
       -0.012523253 0.012318961 -0.003139327 -0.005234957
000160 c0 a2 fa bb 6f d5 93 bb 6f af 8b 3c 3c e3 9e bc
       -0.007648796 -0.0045115273 0.017051427 -0.019395463
000170 01 ae d8 bb 63 53 e8 3b 81 05 96 bb 83 63 92 3c
       -0.0066125398 0.0070900186 -0.004578293 0.017869717
000180 97 2b b5 bb 4b 42 06 bb d1 74 78 bc 9d 4c b6 3b
       -0.005528878 -0.002048629 -0.01516457 0.0055633322
000190 d7 53 31 bb 16 6f 16 ba cd 88 a4 bb 4f 1f 20 ba
       -0.002705803 -0.0005738599 -0.0050211907 -0.0006108181
0001a0 0c 9e a5 3c 74 48 cc ba 06 80 02 3c 89 34 50 bb
       0.020216964 -0.0015585558 0.0079650935 -0.0031769595
0001b0 da e2 8c bb f4 e4 17 3d 4c 3d a6 bc 73 02 16 3c
       -0.0042995038 0.03708358 -0.0202929 0.009155857
0001c0 e4 86 19 bc af 4f bb 38 8d b4 ca bc 53 8b 50 3b
       -0.009370539 8.931697e-05 -0.024744296 0.0031821325
0001d0 18 a5 23 3a 54 1a 02 ba a9 3c 8f 3b c7 13 2e 3c
       0.00062425574 -0.00049630296 0.004371245 0.0106248325
0001e0 ff 3d 00 39 e9 d2 24 3c 63 45 c3 bb 83 28 19 bb
       0.00012230127 0.0100600505 -0.0059591993 -0.0023370094
0001f0 a5 a3 22 39 4e 9b 75 bc 35 65 b6 36 7e 54 fa 3b
       0.00015510486 -0.014990641 5.4358047e-06 0.007639467
000200 3e 12 4d 3c 9e dd 05 3c 3e d1 7f bb a0 c1 09 3c
       0.012516556 0.008170513 -0.003903463 0.00840798
000210 c2 4d 68 bc cb 92 12 3c 3a 4d 3c 3c 52 43 50 bb
       -0.014178695 0.008946131 0.011493022 -0.0031778407
000220 8e d7 3d 3c d6 c1 87 3b 83 5b 2d 3c e7 d2 56 bb
       0.011587037 0.00414298 0.0105809 -0.0032779516
000230 62 b0 18 3c d0 1e 0f bb c1 21 4d bc f9 ee 91 bc
       0.009319397 -0.0021838434 -0.012520255 -0.017814146
000240 d4 54 33 38 b2 47 f0 3a 21 65 dd 3b fb 30 0d bc
       4.2755928e-05 0.0018331914 0.0067564403 -0.008617635
000250 10 60 b8 3b 02 38 e4 bb 03 08 56 bc 6b 0b 84 bb
       0.005626686 -0.0069646845 -0.013063434 -0.0040296814
000260 e8 dd 03 bc ec 08 4f 3c 1f 40 6d 3c 88 67 8a bb
       -0.008048512 0.0126364045 0.01448062 -0.0042237677
000270 91 0e 66 ba b7 a9 d2 3a 09 5e 19 3c 05 3c 1c ba
       -0.0008775974 0.0016072307 0.009360799 -0.00059598713
000280 8d aa 46 bc 09 3b 00 bc a6 8e b4 3b 80 91 e2 3b
       -0.012125623 -0.007826575 0.005510169 0.0069143176
000290 46 1a c4 39 94 c4 91 bb 35 46 25 3b f2 91 ee bc
       0.00037403608 -0.0044484828 0.0025218849 -0.029122327
0002a0 ac 17 2b bc 72 66 8b 3a 42 e5 13 bc b9 73 b4 bc
       -0.0104426555 0.001063539 -0.009026827 -0.022027837
0002b0 94 f3 02 3c 18 01 8c bc 10 cf c9 ba 29 0c 7c bc
       0.007992644 -0.017090365 -0.0015396792 -0.015383759
0002c0 89 61 e1 bb e1 71 0a 3a 5b 7e 94 3c 54 0c cd ba
       -0.006878082 0.00052812515 0.018126657 -0.0015643933
0002d0 50 02 bd bc ca 83 f7 3b 40 57 2c bc c7 ff b5 3b
       -0.023072392 0.0075535523 -0.010518849 0.0055541727
0002e0 3d d2 a5 bb b6 74 ec bb 19 99 47 3c ef f9 27 3c
       -0.0050604627 -0.0072160615 0.012182497 0.01025246
0002f0 a9 80 a9 bc 2e 78 72 bc e1 cd 45 3c 49 71 d6 3a
       -0.020691233 -0.014799161 0.012073011 0.0016360666
000300 b0 9e 3b 3c 39 ca 20 3c 67 5b f0 bb 86 fc 84 bb
       0.011451408 0.009813839 -0.0073351148 -0.0040584235
000310 0a 83 54 3c ab 8c 69 3b dd 0b 9a 3c 3b 69 fa 3b
       0.012970695 0.0035636823 0.018804485 0.007641939
000320 88 95 8d 3b 0a 59 50 3c 4c 4d a3 bb f2 b3 0b bc
       0.004320804 0.012716541 -0.0049835797 -0.008526789
000330 5f b8 e4 3c 45 c2 ea bb b0 33 13 3c 12 09 37 3b
       0.027919946 -0.007164272 0.008984491 0.002792899
000340 6c 32 a3 3b 5c b5 08 3b 9c 80 b2 3a 71 6f 3c bb
       0.004980376 0.0020860052 0.0013618651 -0.0028752948
000350 ad 91 f7 bb bb 43 c2 3b 76 38 8f 3a 7d ff 65 3c
       -0.0075552077 0.0059284843 0.0010926861 0.014037964
000360 2b 8a 55 bc 75 76 ee 3b 3c 01 98 3c b2 97 57 3b
       -0.01303343 0.007277305 0.018555276 0.0032896814
000370 7c e4 b0 bb e8 e0 d0 b8 ca 2f 7b 3b 76 59 3d bb
       -0.005398331 -9.960105e-05 0.0038328045 -0.0028892434
000380 89 40 25 3c 37 88 17 3c 62 fd 31 bd a7 40 8e 3c
       0.010086187 0.009248785 -0.043454535 0.017364813
000390 fc 04 01 bb 12 1f 1e 3b e4 29 3b b9 54 99 22 bc
       -0.0019686809 0.0024127406 -0.00017849315 -0.009924252
0003a0 9e af 27 3b 8f e2 8f 3c 4b d1 22 bb 8b e5 1c bd
       0.0025586854 0.017564086 -0.0024843987 -0.038304847
0003b0 f4 af 8f ba 15 c9 32 3c cf 54 83 bc 57 7a 2b bc
       -0.0010962472 0.0109121995 -0.01603165 -0.01046618
0003c0 1e 0e 85 3c dc 07 04 3c f2 5a 00 bd eb c5 85 3a
       0.016242083 0.008058514 -0.031336732 0.0010206079
0003d0 aa a6 d3 3b 68 dd 63 3a c3 7c 2c bb b8 93 cf bb
       0.006459077 0.0008692355 -0.002631948 -0.006334748
0003e0 7f be f0 3a e7 79 c7 3b a3 03 15 3b f2 ea 12 3b
       0.0018367319 0.00608753 0.0022737763 0.002241787
0003f0 64 e0 94 bb 6e c5 d8 3b 21 d0 1a bc c4 bf c3 b9
       -0.004543351 0.0066153323 -0.009449036 -0.00037336175
