models/sqa/xls-r-300m/model_300m_lay5_full.pt (torch, 384909 bytes, 67 tensors)

norm_input.weight f4 [1024]
00000000: e5fe 263f d617 273f a702 373f 7e49 e73e
00000010: d2fb 323f 5c03 ef3e 859a e13e 4ddf 7e3e
00000020: abe1 e43e ffa1 233f 8b75 ce3e c7b5 213f
00000030: 7b88 003f 2a60 f03e 211b a23e 855c ea3e
00000040: 56b1 df3e 4d60 263f 2240 0b3f 453a 0e3f
00000050: 131f 063f 5111 273f 2858 dc3e 813f c73e
00000060: 800b b23e 15b2 d43e 5faf fc3e abce 3e3f
00000070: d48a cf3e 68bc c43e 0860 c03e ef06 123f
00000080: f2c3 283f 7930 983e bf63 0c3f bcf1 e13e
00000090: e0e4 023e 80d2 e5bd 4fbc 263f 71fb 893e
000000a0: 8884 f53e 5325 df3e eaed 243f c7c6 403f
000000b0: a61a 703f 4169 193f fa26 733f 0a75 643e
000000c0: 6e86 bb3e ba1f babe af08 2d3f 579a 3a3f
000000d0: 081d d03e 4614 763e 80e3 053f 46ef 443f
000000e0: b192 163f 2256 923e 5081 2a3f dd3f e93e
000000f0: 2ac1 153f 44ac 213f 8fa8 9a3e 1541 d63e
00000100: df31 eb3e ad50 143f b149 e03e b1ae 223f
00000110: 991e 8d3e d06c cd3e ff70 113f 7279 093f
00000120: 9d17 2a3f 5c91 cd3e 336c 153f 5236 3c3f
00000130: 5db2 ee3e 0991 213f be36 973e fb2f b53e
00000140: 07fd 2c3f 97fe 2b3f e6fc 153f 87cd 173f
00000150: 1202 aabe e880 323f b408 c33e 6631 d53e
00000160: 154d 203f 735d 3e3f 9297 e03e 7105 0e3f
00000170: b981 eb3e 9d6f d93e 214a 9a3e 4a29 093f
00000180: 191b 273f fe94 233f 3d4c 0b3f c4b0 063f
00000190: 1714 4c3f 4c95 453f 2b18 113f 358b 5d3f
000001a0: 34e6 593f ee0e c13e 5631 d2bd c16c 833e
000001b0: e08a d4bd 0e47 353f 53d7 1f3f f631 b13e
000001c0: 20cb 273f 7123 213f e260 0f3f a66f 1d3f
000001d0: aba0 bc3e 3bb4 6f3e fae2 283f 9cf6 ea3e
000001e0: 4b02 d63e aad1 d03e f4aa 0e3f 140e ea3e
000001f0: 9e70 0a3f 9c24 123f a100 023f a44a c1bd
00000200: f292 2f3f b722 113f e623 0b3f 3fec 0e3e
00000210: 3d0a 163f 4020 a53e c02f 203f 9101 1c3f
00000220: 59aa 163f 685d da3e c397 f13e a4c5 043f
00000230: 7147 313e aed0 a43e 1024 0a3f 2c2e 9c3e
00000240: 4e5c c93e ffa6 2d3e 475c 263e 360e f83e
00000250: ca84 503f 5804 6a3e 73b0 5c3f 56af e83e
00000260: ab0e 213f f20f fc3e 0124 3f3f 3a1f 253f
00000270: f588 543e b93e 093f 9771 513e db01 563f
00000280: 71be 3dbe fe79 913e f610 dbbd b4a8 803e
00000290: e663 d63e 8586 f33e 33ab 393f 85c4 413e
000002a0: 7127 fb3e 859f f43e 778a 2a3e 1002 033f
000002b0: 603a f33e fbe3 1b3f 592a 093f 944e f33e
000002c0: 358a 093f a409 973e 0e3e 0d3f 8040 193f
000002d0: 5af9 193f 224c f03e 29d4 d43e b858 a73e
000002e0: ec94 b83e 2e3d 5e3f 5640 d33e ba36 d83e
000002f0: 0068 393f ff9a 0d3f 2a4c 453f 7ad0 e13e
00000300: 61a3 df3e 2b3d b23e 3dd4 a73e 6c4a 8f3e
00000310: 6434 0f3f 5fb5 923e c87b 213f 96ea 203f
00000320: 9ddf ce3e bf2b ad3e c618 e43e 7f26 d33e
00000330: 8b50 a73e a776 483f 93fa be3e cee3 db3e
00000340: 0fc9 193f b6c9 963e c882 fe3e c7dd e23e
00000350: ffd5 053f 9327 0f3f dc42 f53e 005c a33e
00000360: 9f7a 113f d82d 1b3f 998d 023f 55a3 7b3e
00000370: 5185 313f 77ce b03e f35f 093f 1718 143f
00000380: 9288 d23e 6421 603e 2f0d 533e 5b98 103f
00000390: d967 b23e e8fb 033f b3c8 e43e bfd8 3c3f
000003a0: 9c26 153f b69f 033f bd01 cf3e 6971 093f
000003b0: 2e50 f23e 133f 283f 4a9c db3e 32a8 2e3f
000003c0: ba9a 8a3e c51d f43e eae6 133f 7a57 123f
000003d0: f257 173f 9627 b23e af6c 143f d2a7 ba3e
000003e0: 2905 1d3f 7b5c 0b3f d6cd 1a3f 6c4a bb3e
000003f0: d804 1c3f 048e cc3e b1f0 a23e 3792 043f
0.6523269 0.65270746 0.7148842 0.45173258 0.699155 0.4668225 0.44063202 0.2488987
0.4470342 0.6391906 0.40324053 0.63167995 0.5020825 0.46948367 0.31661323 0.45773712
0.43689984 0.64990693 0.54394734 0.5555766 0.52391165 0.652608 0.43036008 0.38915637
0.347744 0.41542116 0.49352548 0.745341 0.40535605 0.38424993 0.37573266 0.5704183
0.6592399 0.29724482 0.548397 0.4412974 0.12782621 -0.1122179 0.65131086 0.26949647
0.47952676 0.43583164 0.6442553 0.7530331 0.9379066 0.5992623 0.9498135 0.22310272
0.36626 -0.3635233 0.67591375 0.72891754 0.4064715 0.24031171 0.5230026 0.769276
0.58817583 0.2858134 0.66603565 0.45556536 0.5849787 0.6315348 0.30206725 0.4184653
0.45936486 0.579356 0.43806222 0.6354781 0.27562407 0.4012208 0.56813043 0.53700936
0.6644228 0.40149963 0.58368224 0.73520386 0.46620455 0.6311193 0.29533952 0.3538817
0.6757359 0.6718535 0.5858902 0.59297985 -0.33204705 0.69727945 0.38092577 0.4163925
0.6261762 0.7436134 0.4386564 0.5547705 0.45997408 0.42467967 0.3013468 0.5357863
0.6527572 0.6389922 0.54413205 0.5261347 0.79718155 0.77180934 0.566775 0.8654054
0.8511689 0.37706703 -0.10263316 0.2566891 -0.10378051 0.70811546 0.62437934 0.3460843
0.6554432 0.62944704 0.56007206 0.61498487 0.3684133 0.23408596 0.6597134 0.45891273
0.41798624 0.4078496 0.55729604 0.45713866 0.5407809 0.5708711 0.5078221 -0.09438065
0.68583596 0.56693596 0.5435165 0.13957308 0.5860937 0.32251167 0.6257286 0.6093989
0.5885368 0.42649388 0.47186098 0.51864076 0.17312409 0.3219046 0.53961277 0.30503976
0.39328235 0.16958235 0.16246139 0.48448342 0.8145262 0.2285322 0.8620674 0.4544627
0.62913007 0.49230915 0.7466431 0.6450077 0.2075537 0.5361133 0.20453487 0.8359658
-0.18529679 0.28413385 -0.106965944 0.2512871 0.4187309 0.47563568 0.72526854 0.18922623
0.4905353 0.47777954 0.16654383 0.5117502 0.47505474 0.60894746 0.5358024 0.47520888
0.5372651 0.29499543 0.5517281 0.59864044 0.60146105 0.46933085 0.41568115 0.32684875
0.36051118 0.868121 0.41260022 0.42229253 0.72424316 0.5531463 0.7706934 0.44104367
0.43679336 0.34812292 0.32779112 0.27986467 0.55939317 0.28654 0.630795 0.6285795
0.40404978 0.33822438 0.4455015 0.41240308 0.32678637 0.7830605 0.37300548 0.4294724
0.60072416 0.29450768 0.49709153 0.44309828 0.5227966 0.5591976 0.47902572 0.31906128
0.5682773 0.60616827 0.5099731 0.24574025 0.6934405 0.3453252 0.5366203 0.5784926
0.4111982 0.21887738 0.20610498 0.56482476 0.34844854 0.51556253 0.4468437 0.7376823
0.5826204 0.51415575 0.40431014 0.53688675 0.47326797 0.65721244 0.42892677 0.68225396
0.27071172 0.47678962 0.5777422 0.5716473 0.5911857 0.34795827 0.5797834 0.36456162
0.61336 0.5443799 0.6047033 0.36580217 0.6094489 0.399521 0.31824258 0.51785606

norm_input.bias f4 [1024]
00000000: b618 073b d767 d43b 5207 89bb 73d9 6c3b
00000010: 8d9c 2fbc df0f fb3a 51dd daba f89c 8d3b
00000020: 38f9 c5bb afcc 53bb dd2c 163b 5d22 543c
00000030: 1c38 4bbc cf85 6b3b f977 2fbb 0089 9cbb
00000040: 5efd 0b3c 8dc1 73bc efc5 20bb fa8a 45bc
00000050: aaf0 f13b 94de 86ba ddad 5cbb 7d7b 0abb
00000060: cde3 a5b8 d71f 14bb 4e91 8c38 9ab5 c83a
00000070: 6b37 86bb 2025 7cbb ee2f 973b 2c34 dcba
00000080: 3591 fa3b d496 203b b89f c23a b733 bc3b
00000090: e406 123a 7d1a 103b 1b2f 853b 2c90 153b
000000a0: 1308 383c dbd2 b93a cbef 9fbb 203d a03a
000000b0: 7587 0fbc e91d 023b c924 53bc 4843 9d3b
000000c0: 558e b43b fd60 25bc caa5 8e3b 8e48 f13b
000000d0: 8972 eb3c d08b 523c c116 713b 5791 ccbb
000000e0: f80f 1e3b 8c6b 59bb 150c 22bc 5dd5 213b
000000f0: af6f bfbb 7387 253c 76e9 3fbb 3067 883a
00000100: 0195 98bb 9a48 b93b a139 90bb 0ce1 063c
00000110: b274 a5ba e47a 403c 1d8b 19bc 8c8e ea3a
00000120: 777d 0ebc 89fc 263b 6b09 ecba 576f c7bb
00000130: 4476 12bc 61fb de3a 8e74 dd3a ef80 2a3b
00000140: e2ac 603c af67 783b 6947 19bc 1c71 dc3b
00000150: 5647 24ba 65a0 b23b 8bb7 56b9 6a40 a6bb
00000160: e2d2 06bb 83ce 143c ae85 093c 0d49 303c
00000170: 6bf3 f23b 4d60 3ebc aeb6 60bb 83c4 60bc
00000180: 4e05 4bbc 95ae 0ebb 6dee 8abb 06ce 173c
00000190: 7781 683c f431 1bbb b63c 92b7 e53e 963c
000001a0: 96a8 09bc 8849 a83b 1eaa 1e3b 7dce 1fbc
000001b0: d52e b0bb 5aa6 293c 1b64 223c 8f00 813a
000001c0: 2e77 e33b c10b 803b 8863 f43a bf88 a4bb
000001d0: 87e3 d2bb 2472 6c3b c9b4 03bb 2983 993b
000001e0: f295 4bbb a02a 6539 3e26 6dbb c107 acba
000001f0: f11e 1abc ef4b 23ba 5b95 babb de31 113b
00000200: 9192 493b 2778 0cbc 0fa0 4cbc 999a 5fbb
00000210: 4ab2 c13b 0d96 1bbb fb32 69bb c8bd 633b
00000220: 666b 0e3c bf17 77ba 612b c5bb 01f2 133c
00000230: 384d b0b8 151c 75bb 1545 b23b ddf8 51bc
00000240: 19fd 98bb 22fa d93b 86e2 e1b9 9a34 d3bb
00000250: 64b5 d83b 05c1 463a 6b6b a83a c86d 70b8
00000260: 8ec8 65bc d3a5 52bb 1b3d 0e3c 2d8d 443b
00000270: 82b3 29bb 42ae b03a f709 beba 1f5f 1d3c
00000280: 7e57 d5b9 04e5 e1ba 70da 15ba 2c6e 86ba
00000290: 6db6 1abc 6ed6 243a 1dda 0cbb 54a3 b4b9
000002a0: 2d6b 1b3c 60dd 6e3a 5b48 d1ba cd76 273a
000002b0: 232c 823a 13f2 83bb 81ac bd3b fa6f aabb
000002c0: 7a79 ba3b d860 9f3b 7dd4 dc3b fddb f63a
000002d0: 50a2 193b 9db4 0bbb 216d c53a 374e 463c
000002e0: c5be 303b 720a a03a 5617 55bb 4b7e 62bb
000002f0: 3373 0c3c 6459 403c e494 d23b 98c7 70bb
00000300: 949d 253b 6789 edba 6951 a2bb f61b 47bb
00000310: 9d5a 87bb d719 cf3a 63b7 3b3b c28d 2a3a
00000320: 017b a33a 5cb7 353c c537 06bb bc79 2cbb
00000330: d8e5 2a3b 322f 383c 67b8 07bb 9a39 0d3c
00000340: b4e2 88bc 9397 1a3c 28cf 223b 79d3 92bb
00000350: a066 fc3b d418 8c3a 2731 2b3c 141b 823a
00000360: 672f 8abc 1522 8d3c 81ff 1ebb 0f7d 0abc
00000370: 6f2e fe3b f387 833c 1959 853c 3095 373b
00000380: 8ad4 a03b 06f8 aebb d568 d3ba 6acb 4d3a
00000390: 0d2d d33a 8944 383b 1e4c 0ebb f703 813c
000003a0: d393 e4bb 13ee f83b 4e26 103b fe55 a2bb
000003b0: d235 a7bb 1a82 0fbc 24a7 003b b028 2e39
000003c0: 288a 42bb a143 13bc 20d7 f9ba 410d 70bc
000003d0: edc5 abbb 326b afba ec53 21ba c18d f33a
000003e0: cfae 8cbc 8632 3fbc 5cbf 8e3b 1f1a 233c
000003f0: 40ac 703c ea22 17ba 4b69 473b d7ac eebb
0.0020614094 0.0064821052 -0.004181781 0.0036140352 -0.010718477 0.001915451 -0.0016698038 0.0043216906
-0.006041672 -0.0032318046 0.0022914924 0.012947646 -0.012403514 0.003593791 -0.002677439 -0.004777074
0.008544294 -0.014877689 -0.002453204 -0.01205706 0.0073834257 -0.0010289722 -0.0033672967 -0.0021130734
-7.910244e-05 -0.0022601986 6.702785e-05 0.001531291 -0.004095962 -0.0038474277 0.004613868 -0.0016800216
0.0076467046 0.0024503963 0.0014848625 0.0057434696 0.0005570485 0.0021988444 0.0040644533 0.002282153
0.011232394 0.001417722 -0.0048808805 0.0012225248 -0.008760323 0.0019854254 -0.012887188 0.0047992803
0.0055101314 -0.010093925 0.0043532597 0.0073633855 0.028741138 0.012850717 0.0036787244 -0.006242912
0.0024118405 -0.0033175675 -0.009890576 0.0024693825 -0.005842171 0.010103094 -0.002928344 0.0010406729
-0.0046564345 0.0056544067 -0.004401401 0.008232366 -0.0012623279 0.011748049 -0.009371546 0.0017895265
-0.008696905 0.0025480113 -0.0018008178 -0.006086271 -0.00893933 0.0017012173 0.0016895698 0.0026016792
0.0137130935 0.0037903597 -0.009355404 0.006727351 -0.00062667334 0.0054512494 -0.00020477005 -0.0050735967
-0.0020572473 0.009082439 0.008393688 0.010759604 0.0074142716 -0.01161964 -0.0034288573 -0.013718727
-0.012391401 -0.002177154 -0.0042398483 0.009265428 0.014191023 -0.0023680897 -1.7432827e-05 0.018340537
-0.00840201 0.0051357187 0.0024210284 -0.0097538205 -0.0053766766 0.010354603 0.009911562 0.0009842085
0.0069416976 0.003907651 0.0018645385 -0.005021184 -0.006435815 0.0036078775 -0.002009677 0.004684825
-0.0031064716 0.00021855021 -0.0036186124 -0.001312487 -0.009406791 -0.00062292715 -0.005694074 0.0022154967
0.0030757526 -0.008573568 -0.012489333 -0.0034119247 0.0059111463 -0.002374056 -0.0035583365 0.003475057
0.008692598 -0.00094258407 -0.006017134 0.009029866 -8.406717e-05 -0.0037400771 0.005440364 -0.012815681
-0.0046688435 0.0066521326 -0.00043084117 -0.0064454796 0.0066134203 0.0007581863 0.0012849396 -5.73227e-05
-0.014024867 -0.0032142296 0.008681561 0.0029991374 -0.0025894349 0.0013479667 -0.0014498819 0.009605198
-0.00040691713 -0.001723439 -0.00057164486 -0.0010256222 -0.009442908 0.0006288056 -0.002149231 -0.00034453964
0.009486002 0.0009111967 -0.0015966998 0.0006388247 0.0009931367 -0.00402666 0.0057883863 -0.005201337
0.0056907507 0.0048638396 0.0067391978 0.0018833872 0.0023442693 -0.002131737 0.001506243 0.012103609
0.0026969176 0.0012210144 -0.003251513 -0.003456014 0.0085723875 0.011740062 0.0064264406 -0.003674006
0.0025270926 -0.0018122614 -0.0049535525 -0.0030381656 -0.004130675 0.0015800548 0.0028643243 0.0006506109
0.0012472571 0.01109108 -0.0020480019 -0.0026317677 0.002607694 0.011241721 -0.0020709278 0.00861969
-0.016709663 0.009435552 0.0024842713 -0.004480776 0.0077026635 0.0010688552 0.010448731 0.0009926283
-0.016868306 0.017228166 -0.002426118 -0.008452668 0.007757 0.016056037 0.016277837 0.0028012507
0.004908149 -0.0053396253 -0.0016129265 0.00078504405 0.0016111449 0.0028117022 -0.002171285 0.01574896
-0.00697563 0.00759674 0.0021995488 -0.0049540987 -0.0051028514 -0.008759046 0.0019630874 0.0001660909
-0.0029684398 -0.008988292 -0.0019061305 -0.0146515975 -0.0052421005 -0.0013383387 -0.0006154168 0.0018581675
-0.017173199 -0.011669761 0.004356308 0.009954958 0.014689505 -0.00057653955 0.003042775 -0.0072837877

norm_input.running_mean f4 [1024]
00000000: c099 343f bb71 923f 8129 533f a481 4a3f
00000010: 28d6 0f3f ecd2 4d3f cd6c 693e b6b7 0b3f
00000020: cff9 2f3f 810f 883f 176f 3abe 8bdb 9f3f
00000030: f93c 263f 8637 313f e1a9 2b3f 1cb1 ae3d
00000040: aeed 643f 2b81 673f 4dc4 013f e67c 2a3f
00000050: ac98 433f c3bd f43e 5f4d d83e a6dd 233f
00000060: c562 733f 13ac c13e c1ed cc3e e1ad 113f
00000070: 5a4d 253f fe32 453f 3b62 c43e f3d6 623f
00000080: ad85 94bf df7d 543f 85ab 143f 0dd3 503f
00000090: f35c 893f 8c4d ca3e 7abb 793e a2df 963f
000000a0: 2906 673f 9141 243f e10d 3f3f 78e5 133f
000000b0: a682 2c3f 5eff de3e e21c 3b3f e4c3 65bd
000000c0: 9101 113f b732 b03f b63e 313f 40f4 9c3f
000000d0: 90f3 803f 1a8d 173f 33d7 bf3e 5e26 523f
000000e0: 04f0 713f a0c4 9c3f 3680 6d3f cf5f 783f
000000f0: 6616 3f3f 8eeb 523f a0a0 943f 46f7 d33e
00000100: 584c 473f f87c 163d efbf f43e 8c11 083f
00000110: 65b3 633f 3305 733f 9328 0e3f 425b 013e
00000120: 674a e33e 098e a43f d6bb 78be 691d 473f
00000130: 76a1 a83e 9847 d43e ef38 4e3f 1b3d 6e3f
00000140: afc0 463e 3de7 7e3e 046d 78bf 9973 e63e
00000150: 0a85 02bb 59cd 133f dd6f fe3e 7305 023f
00000160: 5d6f e63e 2210 973e ca20 aa3f 9b3c 393f
00000170: 2ba5 103f cbdd 743f d30d 673f 6408 143f
00000180: 7c51 463f ed92 1f3f 24fd a53e 1452 333f
00000190: 9a7c 2b3f ea37 193f 8e71 653e e52a bc3f
000001a0: dd12 673f 175b 613f c0e0 9d40 f5db 113f
000001b0: fcb8 a13e f5a4 a63f 55b3 883f 4089 063f
000001c0: eafc 603f 97e7 ae3f cbfe 8d3c 7698 ee3e
000001d0: 4154 973f 9245 053f 6e50 a73e a869 043f
000001e0: 50cf dc3f 85e8 8c3f 182e 1c40 ee75 853f
000001f0: fdc1 803f 401f 903f 3908 143f 0e3d db3e
00000200: a451 c13e 002f a23e 8069 5a3f ce93 da3e
00000210: 5591 613f 37b6 283f 06d1 293f d290 133f
00000220: f2cb 6b3f e783 653f 68e4 253f df99 c5bd
00000230: 1380 6c3f b897 513f 8eac 743f a6f4 a93f
00000240: 0532 113e d68a 303f 26b1 053f 7ce0 ff3e
00000250: 4f34 293f 8848 c53f 2c87 7d3f 6d11 2d40
00000260: ab6c 863f 81ed 953e 38a4 31c0 8fe5 793e
00000270: 2356 593e 5bff 823f b8e7 bf3e b102 c23e
00000280: 7954 75bc f0fd 263f 7b60 e73f d761 833f
00000290: d3f0 403f 485a 263f 53ea 913f 6c15 363f
000002a0: 0a08 ce3e 4830 613e 7cbc 7f3f dc2d 403f
000002b0: 23de 0b3f 8f94 993e 94dc d13f 078a b03e
000002c0: ad6c a73e 52e3 f2bd 0cf6 083f f652 7c3f
000002d0: b274 0e3f d600 2ec0 c78a 5d3f b3bb fd3e
000002e0: 8dea 863f 3d61 2f3f e9d4 193f 511f 373f
000002f0: 0a64 dc3e d21a 213f 8436 0ebf 1bf5 0f3f
00000300: b753 2b3f ef88 293f 8dfd 743e ef81 123f
00000310: 6194 d83d 7866 cfbd c85b 0e3e 40b4 4b3f
00000320: 8163 0a3f 62d6 26bf 88d6 b73f 45ab 9a3e
00000330: d3e2 673f b89e 843f ab85 983e 2439 0a3f
00000340: 3944 9b3f c79c 863f 882f 0540 42ef 1bbe
00000350: c4c0 083f 2abe 0c3f ec7f 3a3f 5658 f13d
00000360: 5f7d 3a3f 59c6 653d 46cd 883f 56e3 363f
00000370: 8d19 573f 7cb3 953f 0bf8 483f dfdc 123d
00000380: 9fa1 733f 9c09 a5c1 4b5c 3c3e 732e 4b3f
00000390: 2562 383f 6f0b 913e 201e 343f e2fe 383f
000003a0: 54be 943f b744 8f3f 6a2a 4c3f d616 7c3f
000003b0: 396b 8b3f b158 493f fdc3 4e3f 2920 e33e
000003c0: 3f81 123f c7f1 c23f 6060 e73e 6a49 fa3e
000003d0: 9db7 913f 457b 0f3e 82c0 a43e e212 303f
000003e0: 8744 353f 2ed4 083f b5f7 dc3e a7d3 5e3f
000003f0: 38d2 603f 8202 5f3f 34ed 393f b99b de3f
0.70547104 1.1440958 0.82485205 0.79104066 0.5618615 0.80399966 0.2279541 0.54577196
0.6874055 1.0629731 -0.1820644 1.2488874 0.64936787 0.6922535 0.6705609 0.08529875
0.8942517 0.9043147 0.50690156 0.6659683 0.76404834 0.47801027 0.4224653 0.64010084
0.95072585 0.37826595 0.40025142 0.56905943 0.64571154 0.7703093 0.38356194 0.88609236
-1.1603295 0.83004564 0.5807422 0.8157204 1.0731491 0.3951229 0.24387923 1.1786997
0.90243775 0.64162546 0.7463055 0.57772017 0.67386854 0.43554205 0.73090947 -0.05609502
0.56643015 1.3765477 0.69236314 1.2262039 1.0074329 0.5919968 0.3746887 0.82089794
0.9450686 1.2247505 0.9277376 0.9702119 0.7464355 0.8239068 1.1611519 0.41399592
0.77850866 0.036740273 0.47802684 0.53151774 0.8894561 0.9492981 0.5553066 0.12632468
0.44392702 1.2855846 -0.24290404 0.7777925 0.32935685 0.41460872 0.80555624 0.9306199
0.1940944 0.24892898 -0.97041345 0.4501007 -0.0019915723 0.5773521 0.4969472 0.50789565
0.45006838 0.29504496 1.3291256 0.723581 0.56502026 0.9565093 0.9025547 0.57825303
0.77468085 0.62333566 0.32419693 0.70047116 0.66987 0.59850943 0.22406599 1.470059
0.9026316 0.8802962 4.9336853 0.5697625 0.31586444 1.3019091 1.0679728 0.52553177
0.87885916 1.3664426 0.017333409 0.46600693 1.1822587 0.5205928 0.3267855 0.5172372
1.7250767 1.1008459 2.4403133 1.0426614 1.00592 1.1259537 0.57825047 0.4282002
0.377576 0.31676483 0.8531723 0.4269089 0.88112384 0.6590304 0.6633457 0.57642853
0.9210807 0.8965439 0.64801645 -0.09648489 0.92382926 0.8187213 0.955758 1.3277786
0.14179237 0.68961847 0.5222343 0.49975955 0.6609544 1.541276 0.9903438 2.7041886
1.0501913 0.29282764 -2.775648 0.24403976 0.21224265 1.0234178 0.37481475 0.37892678
-0.014973753 0.6523123 1.8076319 1.0264233 0.7536747 0.6498151 1.1399635 0.7112644
0.40240508 0.21991074 0.9989698 0.75069976 0.5463583 0.29996154 1.639544 0.34480307
0.327001 -0.11859764 0.5350044 0.9856409 0.5564681 -2.718801 0.8653988 0.49557266
1.0540329 0.6850775 0.600905 0.7153216 0.43045074 0.6293155 -0.55551934 0.56233376
0.66924614 0.6622457 0.23924847 0.5722951 0.10575176 -0.10126966 0.139022 0.79571915
0.5405808 -0.6517087 1.4362345 0.30208793 0.9058048 1.0360937 0.2978948 0.5399344
1.2130195 1.0516595 2.081026 -0.15227988 0.53419137 0.5497767 0.72851443 0.11784427
0.7284755 0.056097362 1.0687644 0.7144064 0.8402336 1.1695399 0.78503484 0.03585517
0.9516849 -20.629692 0.18394582 0.7936775 0.72024757 0.28329036 0.7035847 0.7226392
1.1620584 1.1192845 0.7975222 0.98472345 1.0892097 0.7865096 0.80767804 0.44360474
0.57228464 1.5230035 0.45190716 0.48884135 1.1384159 0.14011867 0.32178122 0.6877881
0.7080769 0.5344876 0.43157735 0.87041706 0.8782077 0.871132 0.7262757 1.7391273

norm_input.running_var f4 [1024]
00000000: 3589 0e40 17b0 cc40 a346 e53f 933d 4a40
00000010: d7ab ff3f 59a6 ee3f 77e5 f33f e721 8a40
00000020: 8515 0440 0629 3d40 8c98 3240 741a 0f40
00000030: 6550 e93f 455c 2540 17ea 1940 cf4a e63f
00000040: 5a0e f43f 736a 0640 f634 e43f d0e6 f33f
00000050: f1d5 fd3f dd72 2240 27a2 f83f def9 0b40
00000060: 1a3d 5140 640c 4040 dbaf fe3f ebdf f53f
00000070: 361d e73f f147 ee3f ec81 ea3f 783a 3740
00000080: 36bd f640 5013 0740 1f2b 2840 5492 0f40
00000090: b6df 0540 3e95 dc3f 534a 4a40 017d fd3f
000000a0: b166 f03f 6d7b 0340 1152 0040 122a 1040
000000b0: c19b 1740 24e8 f73f 48f9 1640 42ce 1740
000000c0: 7f08 e33f 7256 0640 2b7e f83f eb06 1040
000000d0: d333 0c40 9a28 ec3f 9977 5640 636a d43f
000000e0: a66f f13f 0d69 7c40 844f f23f 0db3 2d40
000000f0: 580d 0540 200f d33f 7406 1740 8328 2f40
00000100: c75e f83f e9c0 fb3f bfeb f23f d1bf 0940
00000110: 72ed 3440 4b6a e43f 6bdb 0540 1843 ec3f
00000120: 0b7e f83f 531b fb3f f770 1141 9002 dd3f
00000130: cde0 0341 e906 3740 e289 0240 4d88 1240
00000140: ac99 2440 7c7d e93f 9bd3 1442 0750 0340
00000150: 1b9e 0e40 f11e dc3f cd66 a240 13ff 0640
00000160: 89dd d63f 5dff 7a40 4327 4740 85bc 0540
00000170: b7fe da3f ee08 1540 59da e23f c9d1 0540
00000180: e8ad d93f 54fa e13f b9d5 3140 1525 e53f
00000190: 0ab7 0e40 012e ff3f a1bc 2340 74f2 1f40
000001a0: c892 ec3f ec48 1040 619b 1a42 f919 0740
000001b0: 5ce1 eb3f 4dc2 0740 952f f33f 5b5e 0b40
000001c0: 356b 1340 7a2e 1a40 9040 3d40 3908 dc3f
000001d0: e583 ea3f 45f8 f33f a42e fa3f b5a1 ed3f
000001e0: 21f3 1640 c187 1240 a680 0a43 6e01 ea3f
000001f0: ccb0 e63f b346 3e40 aa9c f23f c536 9840
00000200: 7320 1040 c7f3 0040 d7ff 1040 a425 fa3f
00000210: e548 d03f c985 e13f 0c17 0640 f5cf f33f
00000220: 2438 1840 446a fa3f 0ee3 e03f ce6b fa3f
00000230: 3243 f73f 19d2 f93f 3d8f 0c40 b0fa 1d40
00000240: ce03 1c40 f503 0240 2244 ea3f d944 1440
00000250: 626d f63f 49f7 1c40 f82a f03f 9f1e 0042
00000260: 9e5c f73f 3500 1840 ca82 1642 2b4c 7540
00000270: ed10 fa3f 036e 0940 f144 f23f 92ad ec3f
00000280: 1f3d 6841 450e 2340 1317 d940 5e08 0d40
00000290: 1ca6 f03f d6ed fb3f 55c4 ff3f 712d 4840
000002a0: b689 0240 47e3 db3f 3d18 ef3f d0cd 0540
000002b0: 068d 0a40 bf7e 2640 bcc2 e941 7899 f03f
000002c0: ac07 0e40 e4a8 2740 5f9e e63f c09c fa3f
000002d0: 3afd e63f c7ce 8642 e942 0440 c8d1 1f40
000002e0: dc9b ff3f 7ac4 f53f 1bde 2340 5ce8 0340
000002f0: 083d da3f 6242 e83f bf6f 6c41 54aa ed3f
00000300: 52a2 e13f 6e5a 0640 6fb9 e73f fd17 e93f
00000310: 1756 d93f a61b 1740 430c 0b40 c505 0440
00000320: 3170 f13f 49bb 3f41 343a 0041 ddb2 3840
00000330: ec43 0340 9367 ee3f 553e 1840 e39c f73f
00000340: 6ae4 fc3f e486 0d40 3f09 5c40 136d ac41
00000350: 3762 1440 291f 0c40 638e 7e40 b334 1740
00000360: 0509 ee3f ed78 1840 c902 0440 7c9b fc3f
00000370: 5bf2 1740 0173 1040 d036 0e40 6233 0f40
00000380: fd7a 0040 39e5 ba42 f83b 2340 59a9 4140
00000390: 8786 0940 024d 1040 ec54 d83f cbcd 0a40
000003a0: 1298 0c40 5ef1 1640 e627 ee3f 003d e73f
000003b0: 73f1 1640 a13f 1e40 7c68 0f40 0527 e43f
000003c0: 39f0 0340 8594 bd40 ee3e f33f eec8 0940
000003d0: 8224 0740 1eb8 0c40 c7a8 e43f 7519 f23f
000003e0: 5acc db3f a55e 0740 8c87 e33f 4f66 5342
000003f0: d56e dd3f 1d4b e53f 44c2 fd3f 73af 2440
2.2271245 6.3964953 1.7912182 3.1600082 1.9974316 1.8644515 1.9054402 4.3166385
2.0638134 2.9556289 2.7905607 2.2359896 1.822766 2.5837567 2.4049127 1.799158
1.906688 2.1002471 1.7828662 1.9054813 1.9830915 2.5382607 1.9424485 2.1871257
3.2693543 3.0007563 1.9897417 1.9208959 1.805579 1.8615705 1.8320899 2.8629436
7.710597 2.1105537 2.627632 2.2433062 2.0917792 1.7233045 3.1607864 1.9803773
1.8781339 2.0544083 2.005009 2.2525678 2.3688815 1.9367719 2.358965 2.371964
1.7736968 2.0990262 1.9413503 2.2504222 2.190663 1.8449891 3.3510497 1.6594967
1.8862197 3.9439118 1.8930516 2.7140534 2.0789394 1.6488991 2.3597689 2.7368476
1.9403924 1.9668247 1.8978194 2.1523325 2.8269925 1.7844938 2.0915172 1.8457975
1.9413465 1.9617714 9.090079 1.7266407 8.242383 2.8597968 2.0396657 2.2895691
2.5718794 1.824142 37.206646 2.0517595 2.2284 1.7196943 5.075049 2.1093185
1.6786357 3.9218361 3.1117713 2.0896313 1.7108983 2.32867 1.7722884 2.0909293
1.7006197 1.7654519 2.7786696 1.7901942 2.2299218 1.9935914 2.558388 2.4991732
1.8482294 2.2544508 38.651737 2.1109602 1.8428149 2.1212342 1.8998896 2.177634
2.3034184 2.4090867 2.9570656 1.7190009 1.8321501 1.9060141 1.9545484 1.8564974
2.3585894 2.2895358 138.50253 1.8281686 1.8022704 2.9730651 1.895406 4.7566857
2.2519805 2.014879 2.2656152 1.9542737 1.6272246 1.7618953 2.0951567 1.9047838
2.3784266 1.956368 1.7569292 1.9564149 1.9317381 1.9517242 2.1962426 2.4684258
2.4377322 2.0314915 1.8302042 2.3167021 1.9252131 2.452593 1.8763113 32.029903
1.932514 2.3750126 37.627724 3.832774 1.9536415 2.1473396 1.8927289 1.849047
14.514922 2.547746 6.7840667 2.2036357 1.8800693 1.9681957 1.9981791 3.1277735
2.0396552 1.7178735 1.8679272 2.0906868 2.1648574 2.601486 29.220085 1.8796835
2.2192183 2.6196833 1.8017081 1.9579086 1.8046029 67.40386 2.0665839 2.497179
1.996944 1.9200585 2.5604312 2.061057 1.7049875 1.8145258 14.777282 1.8567605
1.7627661 2.0992694 1.8103465 1.8210446 1.6979398 2.3610625 2.1726234 2.0628521
1.8862363 11.983224 8.01421 2.885917 2.0510206 1.8625358 2.3788044 1.9344753
1.9757206 2.211358 3.4380643 21.553259 2.3184946 2.1894019 3.9774406 2.3625915
1.8596503 2.3823807 2.06267 1.973495 2.3741672 2.2570193 2.2220955 2.2375112
2.0075066 93.4477 2.5505352 3.0259612 2.148836 2.2547002 1.6900916 2.1688106
2.1967816 2.358482 1.8605926 1.8065491 2.358487 2.4726336 2.2407522 1.7824408
2.061537 5.92438 1.900358 2.1528888 2.1116033 2.1987376 1.7864007 1.8914019
1.7171738 2.1151516 1.7775741 52.84991 1.7299448 1.7913548 1.982491 2.5732086

transformer.norm.weight f4 [1024]
00000000: 3a72 3f3f f505 283f f19d 4c3f 352c b63e
00000010: a2a6 3d3f bf0f c63e 6100 c83e 747c f53d
00000020: 041d c83e 7b21 2e3f c9b0 bb3e d0fe 293f
00000030: a6e3 f53e b6cd c73e 4864 573e faf4 bd3e
00000040: 94ee c03e ed7a 273f 0292 103f 4c89 163f
00000050: 0bb8 fd3e 1ba8 1e3f d68e a93e e814 9d3e
00000060: 679a 7a3e 57bd df3e 179e d73e 116c 5b3f
00000070: 98bb bb3e 3858 d33e ead2 f63e 0963 fc3e
00000080: d454 323f 4efd 663e 9502 203f 4de4 c33e
00000090: 6039 0d3e de98 49bd dca4 403f 824b 303e
000000a0: 4a74 e33e 21bf 043f 36b3 2b3f 8b7e 4d3f
000000b0: db4b 923f aa59 293f e212 963f 16f5 f03d
000000c0: 39cb 8e3e 80c8 acbe ae8e 463f 8062 413f
000000d0: 4bb5 e03e b89e 323e 9c45 df3e b068 5e3f
000000e0: 8dd2 213f bffa 2c3e 2ebf 4f3f 71f6 df3e
000000f0: 6eff 193f 792d 253f d92b 3e3e 7443 b73e
00000100: d1ac c23e 1dc8 163f c6c1 b93e 5d4e 1c3f
00000110: db75 3a3e 3f5b d13e 30ca 0c3f 4dc1 0f3f
00000120: b43c 323f 3bac 9a3e 93d5 0a3f ee43 5a3f
00000130: 0b06 d03e 70f6 1a3f 71b4 713e e1f1 713e
00000140: 3097 483f 727e 433f 2701 0c3f 01c1 173f
00000150: ceab 99be e3f8 4c3f 3b11 a33e 6d2a ad3e
00000160: b50e 1e3f 7930 573f 709e b43e 16d7 013f
00000170: 71f8 dd3e 377c d83e 0aec 9b3e 13f6 fc3e
00000180: 7113 323f d0a6 213f e0cd 003f 6d68 f73e
00000190: d4e0 7f3f 5fd2 5e3f 9b09 0b3f 8499 7f3f
000001a0: c02a 7f3f c7ca 923e 472c c43b 34ea 993e
000001b0: 8421 2ebc bf88 373f 8a3a 1f3f 4848 853e
000001c0: 95f0 343f a3f2 143f d946 073f dddb 363f
000001d0: ff0b 943e d6ee e33d 9664 303f d601 eb3e
000001e0: 2015 bc3e f285 b63e 5e3d f03e c3d3 b03e
000001f0: e2ef 073f 5c2f 053f f2dd f23e e386 a7bc
00000200: 79cb 533f 2241 153f 9834 203f c42b bd3d
00000210: d079 2e3f 5d3c 9f3e 02d8 253f 6298 2d3f
00000220: 0994 2a3f 5085 d43e a8ee eb3e 6547 0e3f
00000230: a51c aabd a9b5 063f f849 023f 4768 7f3e
00000240: 5499 ca3e a67a a13e 6bd6 133e c781 f43e
00000250: 4795 633f 1acb 183e 4f24 6e3f c3fc cd3e
00000260: 8113 273f 0801 093f ea22 553f 5b1b 273f
00000270: 3898 0a3e 6093 093f 762f acbe 5e49 653f
00000280: ada6 143e 0d71 593e 084b fbbc b3e2 8d3e
00000290: 1926 b73e 7c94 023f ffcd 3f3f 1cfb cd3d
000002a0: f087 ee3e 2d5c cb3e b1fb 863d c034 e53e
000002b0: 3279 f03e d873 203f dd56 003f 14f9 cf3e
000002c0: cf06 f23e 4140 593e c192 1e3f f649 0c3f
000002d0: 3b67 243f 32b3 be3e fe90 993e ff5e 653e
000002e0: a297 953e 4210 753f e2ff 9e3e 1ecd b23e
000002f0: f5ac 5b3f 5280 123f 576e 783f 8043 e33e
00000300: 1cb5 bf3e 26c7 b83e 60a9 8e3e 6172 2f3e
00000310: 163e 013f fda3 313e 2c6b 383f da61 213f
00000320: 208d a03e 5e6b 0c3f efa6 dc3e afc7 cf3e
00000330: 545b 863e eae8 793f cda7 953e e501 b63e
00000340: d387 393f eb6b b53e 4b14 fa3e 22f5 a63e
00000350: 7aea fe3e 7c5b 0b3f ed4e d73e 510d 813e
00000360: 2289 1e3f 0df6 403f 3928 043f 9825 333e
00000370: b150 503f e9e2 ac3e a542 103f 1119 073f
00000380: d38a b73e 0689 933e 8dc9 f03d 724a 113f
00000390: aae9 653e eaed ea3e 59ad e73e c9ad 3b3f
000003a0: 4be1 163f 390c fc3e b15f 9a3e 79f1 123f
000003b0: 6ea3 fe3e 9372 363f 205f d13e 2058 4b3f
000003c0: c3c3 033e 30a6 d13e 3790 0b3f b667 1c3f
000003d0: a412 183f 2b23 7c3e d635 183f 956c b03e
000003e0: e518 2f3f 05ad 143f 1449 1e3f 8133 853e
000003f0: ec8d 2e3f 1e9b 963e b58a 4c3e c9a0 f93e
0.7478367 0.6563409 0.799285 0.35580602 0.74082386 0.38683888 0.3906279 0.11986628
0.39084637 0.6801984 0.36658314 0.6640444 0.48025244 0.39024132 0.21034348 0.37100965
0.3768202 0.65421945 0.5647279 0.5880325 0.49554476 0.6197526 0.33116788 0.30680013
0.24472962 0.43699142 0.421128 0.8571177 0.3666656 0.41278243 0.4820779 0.49294308
0.6966069 0.22557566 0.6250394 0.38260117 0.13791418 -0.04921805 0.75251555 0.17216304
0.4442466 0.5185414 0.6707033 0.80271214 1.1429399 0.6615244 1.1724513 0.117654964
0.27889422 -0.3374672 0.7756146 0.75540924 0.43888316 0.17443359 0.43607795 0.8687849
0.632119 0.16892527 0.8115109 0.43742707 0.6015538 0.6452251 0.18571414 0.3579365
0.38022473 0.588991 0.3628065 0.6105707 0.18209021 0.40889928 0.54996014 0.5615433
0.69623876 0.30209526 0.5423214 0.852599 0.4062961 0.60532284 0.23603989 0.23627426
0.78355694 0.76364815 0.5468926 0.59278876 -0.3001389 0.8006727 0.31849083 0.3382143
0.6174119 0.8405834 0.35277128 0.5071882 0.43353608 0.42282268 0.3045352 0.4940649
0.69560915 0.6314516 0.5031414 0.48321858 0.99952435 0.8703975 0.5431153 0.9984362
0.99674606 0.28670332 0.0059867236 0.30061495 -0.010628108 0.7169303 0.621987 0.2603171
0.706796 0.58182734 0.5284248 0.71429235 0.28915402 0.11129539 0.6890348 0.45899838
0.36734867 0.35649067 0.4692182 0.3453656 0.5310041 0.5202539 0.47434956 -0.020450061
0.8273235 0.5830251 0.6258025 0.09236863 0.6815462 0.3110074 0.64782727 0.6781064
0.66632134 0.4150796 0.46080518 0.5557769 -0.08306245 0.5262094 0.5089412 0.24942122
0.39570105 0.31538886 0.14437263 0.47755262 0.88899654 0.14921227 0.9302415 0.40231904
0.65264136 0.535172 0.832564 0.65276116 0.1353463 0.537405 -0.3362996 0.89565074
0.14516707 0.21234532 -0.030675426 0.2771202 0.35771254 0.5100782 0.749237 0.10057661
0.46588087 0.39718762 0.06590975 0.44766808 0.46967465 0.62676764 0.5013254 0.4061972
0.4727082 0.21215917 0.6194268 0.54800355 0.6422002 0.3724609 0.29993433 0.2239952
0.2921725 0.9572793 0.31054598 0.34922117 0.85810786 0.5722705 0.97043365 0.44387436
0.37442863 0.36089438 0.27863598 0.17133476 0.5048536 0.17347713 0.7203853 0.63039935
0.3135767 0.5485133 0.4309611 0.40582034 0.26241553 0.97621024 0.29229584 0.3554832
0.72472876 0.35433897 0.48843607 0.32608896 0.49788266 0.5443647 0.42052403 0.25205472
0.61928 0.75375444 0.51623875 0.1749481 0.81373125 0.3376687 0.5635169 0.52772623
0.35848102 0.28815478 0.11757193 0.5675422 0.22452417 0.4588464 0.4524944 0.7331205
0.5893752 0.49228075 0.30151132 0.5739971 0.49734062 0.71268576 0.40892887 0.79431343
0.12867646 0.40947104 0.5451693 0.6109575 0.59403443 0.2462279 0.5945715 0.34457842
0.6839736 0.58076507 0.6183026 0.26015857 0.68185306 0.2941522 0.19974788 0.48755482

transformer.norm.bias f4 [1024]
00000000: 26a2 a43d e30a 10be e9e7 913c 4b37 7f3e
00000010: ca18 e13d 557b 00be 5ed8 f33d 4777 e0bd
00000020: d26f 8f3c 1d2e 0c3e 7bbf 4c3d fb53 9c3e
00000030: 46a9 51bd 8d12 5abe 8832 9a3d d27c f2bd
00000040: e933 2c3d c164 083e 4fc9 20bd 330a 9fbd
00000050: 355c 343d eb69 243e 069d 5f3b a016 b93d
00000060: dbef 0a3e 4190 f6bd 564b c33d 8974 ae3e
00000070: 1c7e 903d bb9c 84bc 3d56 3dbe 8988 393d
00000080: 65af ad3d f38a 55bd 309e 9a3d 3fb2 51be
00000090: 2f9c 47bd cd6c a2bb 1b28 20be a83a 11be
000000a0: f58a 183d c016 863d 2b29 8d3d 3e3b 19be
000000b0: 1644 8d3e 113d ad3e 76bd c1bd 6fd5 17bc
000000c0: 2e5d c3bd 74a5 e2bb 92a8 4e3e 2584 b8bd
000000d0: 424f e7bc 4d12 34bd 4267 43be 0968 33be
000000e0: 74c5 28be aada 743d fe77 96be f912 7abd
000000f0: 9088 b63d d548 183d 26c8 4d3e f1a9 90be
00000100: 9b76 60be 9170 fdbd c7fc e63d 1cfd c43d
00000110: 0d9f 62bd a1be 07bd 5ab0 4d3d 14d2 583d
00000120: 99a6 92bd 381c b93d 2bf5 29be bf82 e7bd
00000130: c608 293d cb2c 99be 0f74 33bd 3874 4b3e
00000140: e311 1fbe 8c67 46be 5bc6 f73c 5356 86be
00000150: ec66 3bbe bd53 50be d90c 0dbe 1a01 7fbd
00000160: f4c0 32bd 767d 50be bf19 e6bd 0e48 2bbe
00000170: 607c c93c 14f6 03bd 2281 55be 8def 2ebe
00000180: 9d90 683e 41c0 87bc 0c77 87bd ad11 be3d
00000190: f657 ddbe 6514 53bd be24 8cbd e1a9 f73d
000001a0: d021 903e a162 933c 6503 1b3e aa07 cd3d
000001b0: bcd4 2bbd 8798 51be 26b7 2bbe 27ce e4bc
000001c0: c05c b33d f4de f6bc 1d48 123e 08ba f0bd
000001d0: cc4f c43c 4b43 74bd d2e7 0f3d 6c14 2c3d
000001e0: 671e c2bd aa12 c33c 4757 b43d e50c d4bc
000001f0: c76a 57be 5955 0a3e 5dad 243e 6a8d 673c
00000200: 4cf0 33bc 3db9 2c3e 6a2e 5abe 6c8e 0d3e
00000210: ab65 74be cf25 4fbe 0ced f4bd 3b85 aa3c
00000220: c16d 55be bbe8 e6bd ac34 bc3d 4096 81bd
00000230: 4fef e03c 434d 2f3e 96a5 acbd 7456 8a3d
00000240: 386a b53d a4a0 4cbe f211 183e 3b70 19bd
00000250: 2be9 333e 700c 47be 1c7f 88be 1c93 a23b
00000260: 07c8 363e 2b63 87be e185 afbc f71f bdbd
00000270: 399c 423e f4af c5be 262d 9cbb 4919 213e
00000280: afac 0abe bc06 fa3d 3469 f6bb 6788 95bd
00000290: 4ab8 0bbe 2fd2 ab3e fa2d 9c3e 9fa0 cebc
000002a0: 2ae3 723e 64a6 873e a8e9 473e 9add b83d
000002b0: c7f7 8dbe aff7 86be 4d17 dbbc 3d14 cc3d
000002c0: 724e 1dbe d2e2 26be 4cd5 0d3e 6729 4d3e
000002d0: 0dcd 783d 019e 57be 07b6 153d c7b6 163e
000002e0: 04e1 1f3e 56b4 b13e 769d 1fbb 361d 8c3b
000002f0: 6cd6 04bd cd42 1a3c 7ca4 303e 643f c93d
00000300: df98 32bd 03d9 2d3e 533e 433d 8edf 6f3d
00000310: 9ed1 5bbd 1c9d f3bd 09d0 eebd 2364 443e
00000320: 6bd2 8abc 6a61 c8bd 10c9 a33c 79e7 3a3e
00000330: 1fc1 01be 4006 8c3e ca75 67be e0f1 45be
00000340: f5b9 86be 73a1 a0be f742 983e 1836 efbd
00000350: a877 26bd c90d 57bc 2d0b 5a3d df86 85be
00000360: 73fc 28ba 06c9 babc cc89 a6be bc58 60bc
00000370: ebbc 003e e269 1dbe 7358 48bd d63c 5a3d
00000380: ac99 f0bd 0b41 7d3e 8f05 17be 1ac3 163e
00000390: 7bc6 dcbd 7157 7cbe dab9 a5bd 9414 97bd
000003a0: 0e0b 93bc 0738 e8bd 58e0 773e fcb4 313d
000003b0: 27ad fabd 74da 85be cb62 98be 9379 0a3e
000003c0: e446 633e 3e9e 333e ac00 fdba 185e cebd
000003d0: ae0f 8cbd e6e6 0ebd c015 f1bd df44 d83d
000003e0: e4a6 773e 5fec a63e c0c6 efbd 6b79 87be
000003f0: e2ac 44bd 0465 c1be 5ccd cebd bfdc babd
0.0803874 -0.14066653 0.017810779 0.24923436 0.10991056 -0.12547047 0.11906503 -0.1096025
0.017509375 0.13689466 0.049987298 0.30532822 -0.051186822 -0.21296139 0.07529169 -0.11840214
0.042041693 0.13319685 -0.039254483 -0.07765617 0.044033248 0.1605603 0.0034120693 0.090375185
0.1356806 -0.12039233 0.095358536 0.34073284 0.070553035 -0.016188016 -0.18489929 0.045296226
0.084807195 -0.052134465 0.07549703 -0.20478152 -0.048732933 -0.0049568177 -0.15640299 -0.14182532
0.037241895 0.06547308 0.06892618 -0.14964005 0.27591008 0.33835652 -0.09459965 -0.009267195
-0.09539257 -0.006916696 0.20181492 -0.090095796 -0.028236035 -0.043962765 -0.19082358 -0.17520155
-0.16481572 0.059778847 -0.29388422 -0.06105325 0.08912766 0.037178833 0.20095882 -0.28254655
-0.21920244 -0.12374986 0.11278682 0.09618589 -0.055327464 -0.033140782 0.05021701 0.05293472
-0.07160682 0.090385854 -0.1659743 -0.11304235 0.041268133 -0.29916987 -0.043811854 0.19868553
-0.15534167 -0.19375437 0.03024595 -0.26237735 -0.1830098 -0.20344444 -0.13774432 -0.06225691
-0.043641046 -0.2036036 -0.112353794 -0.16726705 0.02459544 -0.0322171 -0.20850042 -0.17083569
0.22711416 -0.016571166 -0.06614503 0.09280715 -0.4323117 -0.05153312 -0.068429455 0.12092949
0.28150797 0.017991366 0.15138014 0.100112274 -0.041950926 -0.20468341 -0.16769084 -0.027930332
0.08757925 -0.03013561 0.14285322 -0.11754233 0.023963831 -0.059634488 0.03513319 0.042011663
-0.09478455 0.02381261 0.08805709 -0.025885055 -0.21036826 0.1350912 0.16081758 0.014132837
-0.010982584 0.16867538 -0.21306768 0.13823861 -0.23866908 -0.20229267 -0.119592756 0.020815482
-0.20842649 -0.112748586 0.09189734 -0.06327486 0.027457861 0.17119317 -0.084300205 0.06754771
0.0885815 -0.19983155 0.14850596 -0.037460547 0.17569415 -0.19438338 -0.26659477 0.0049613845
0.17849742 -0.26442847 -0.021426143 -0.092346124 0.19004907 -0.38610804 -0.0047661243 0.15732302
-0.13542436 0.12208316 -0.0075198654 -0.07301407 -0.1364452 0.33558795 0.30503827 -0.025223074
0.23719469 0.26494133 0.19522727 0.09026642 -0.27728102 -0.26360843 -0.02674451 0.09964798
-0.15361956 -0.16297463 0.13850898 0.20035325 0.060742427 -0.21056367 0.036550548 0.14718162
0.1561318 0.34707898 -0.0024355329 0.004275943 -0.03243105 0.009415341 0.17250246 0.09826544
-0.04360282 0.16977315 0.04766686 0.058562808 -0.053666703 -0.118952006 -0.11660773 0.19178824
-0.016946038 -0.09784205 0.019993335 0.18252362 -0.12671326 0.27348518 -0.22603527 -0.19330549
-0.2631375 -0.31373176 0.2973859 -0.116802394 -0.040641457 -0.013125845 0.053233314 -0.2607946
-0.0006446309 -0.022800934 -0.32527006 -0.013693031 0.12572066 -0.15372422 -0.048912477 0.053280674
-0.117480606 0.24731843 -0.14748214 0.14722863 -0.10780045 -0.24642731 -0.08092089 -0.07376972
-0.017949607 -0.11338811 0.24206674 0.04338549 -0.122400574 -0.2614323 -0.29762873 0.1352294
0.22195011 0.17540833 -0.0019302568 -0.10076541 -0.06838928 -0.03488817 -0.117717266 0.10560011
0.24184757 0.32602212 -0.117078304 -0.26459822 -0.048016436 -0.3777238 -0.10097763 -0.09124135

transformer.norm.running_mean f4 [1024]
00000000: 7750 053b c2c6 d33b 96b9 88bb 9ae8 6e3b
00000010: dc58 2fbc b96e f93a 1603 daba 5ebe 8d3b
00000020: cb86 c6bb bcc5 54bb 8f91 163b d694 533c
00000030: 78a6 4bbc 0f88 6a3b cdf9 2fbb c1b9 9cbb
00000040: 34ac 0b3c fdf6 73bc 4276 21bb cbf4 45bc
00000050: 60da f13b 6964 84ba db1f 5bbb d6a9 0abb
00000060: 524b a6b8 bc89 14bb e9a9 3338 c978 c63a
00000070: 4c8a 85bb 0966 7cbb 60ff 973b e956 ddba
00000080: a796 f93b 54a8 203b d2af bf3a c4cf bb3b
00000090: 08a1 0f3a 8d2f 103b 4b31 873b 8435 153b
000000a0: 193f 383c 3038 b73a 778f 9fbb 474b a13a
000000b0: b789 0fbc 80f8 013b 64d0 51bc 1c47 9d3b
000000c0: f7f5 b33b 952b 25bc 1293 8e3b e0b8 f13b
000000d0: 6e90 eb3c 479f 523c 0830 733b 0b13 ccbb
000000e0: c2d2 213b 9f31 59bb 616c 23bc cfa9 1f3b
000000f0: 1309 c0bb 2fe3 253c 177f 40bb a7a6 8a3a
00000100: 857c 98bb 2b5e b93b 956c 8fbb 0293 073c
00000110: c1af a4ba 7892 403c 1685 19bc 33fe ed3a
00000120: be25 0fbc 0c43 283b a7f3 e9ba c14d c8bb
00000130: 4788 12bc 7a5e dc3a 8412 df3a 6290 2a3b
00000140: da3f 603c 67b6 783b 3b48 19bc 982e dc3b
00000150: f599 1dba 6ce2 b23b 8d38 57b9 185c a5bb
00000160: 466c 07bb 897e 153c 7618 093c 1f07 303c
00000170: 47c3 f23b 0a56 3ebc ecd5 5fbb 7ab1 60bc
00000180: e5bf 4abc cf80 09bb ba10 8bbb 08fc 173c
00000190: 097c 693c 1be1 1ebb b551 09b8 d959 963c
000001a0: 7ec1 0abc ea69 a83b 5876 1e3b a427 20bc
000001b0: 432d b0bb 14dd 293c e71f 223c 83e6 803a
000001c0: d77a e23b fe98 7d3b e2ab f83a e02e a4bb
000001d0: bd1e d3bb 4e09 6d3b 22eb 03bb 5040 993b
000001e0: c3ec 4bbb a277 6a39 3c79 6dbb 4d39 adba
000001f0: 1d08 1abc 5bb5 23ba 301c bbbb f93f 113b
00000200: 5865 473b 842e 0cbc e104 4cbc fc89 5fbb
00000210: 1872 c13b 047c 1cbb 003e 69bb 59fb 5f3b
00000220: 8b9f 0e3c 1f1d 7dba a469 c5bb 962c 143c
00000230: e9ac 9db8 68c9 75bb a6ba b13b 2f1f 52bc
00000240: c88f 99bb 4b1b d93b ea80 deb9 8c2f d3bb
00000250: 2772 d93b bdc2 453a 9edc a23a 99d8 41b8
00000260: 1fa8 65bc 2688 52bb d6a5 0e3c dbac 453b
00000270: de24 29bb edbf ae3a 488c b5ba b0c0 1c3c
00000280: 0b1b d1b9 3709 e3ba b9de 15ba a8d6 85ba
00000290: 1915 1bbc 994d 273a 0c46 0bbb ba3b b6b9
000002a0: f0be 1b3c 184e 703a e882 d1ba 1cab 1f3a
000002b0: c3cb 7e3a 38a0 83bb f677 bd3b 95d2 aabb
000002c0: 81c2 ba3b 57c9 9f3b ef48 dc3b df9d fa3a
000002d0: 9450 1a3b 611c 0bbb 24c5 c63a 307c 463c
000002e0: 81cd 303b 8f4d 933a 5295 54bb 1a52 63bb
000002f0: 0cd3 0c3c fc70 403c 6f48 d23b c39d 71bb
00000300: 8f22 263b fe0a eeba 9a33 a2bb ea3c 47bb
00000310: 79de 86bb 1ecf cd3a ac83 3b3b 3c46 293a
00000320: 8faa a43a 7450 353c f81e 06bb dd63 2cbb
00000330: 4165 2b3b 350e 383c fe24 08bb 27d8 0c3c
00000340: e6e4 88bc 076c 1b3c 4549 213b 4f39 93bb
00000350: bff3 fc3b 22d5 8e3a b0cb 2a3c f0e2 803a
00000360: b028 8abc 7f5b 8d3c 1605 20bb d448 0abc
00000370: 5d3b fd3b 327d 833c b26d 853c c50e 373b
00000380: 197e a13b 46bd b0bb 8b40 d4ba f24f 523a
00000390: 2930 d23a 25cf 383b 20b4 0dbb d7d1 803c
000003a0: 9bd5 e4bb 3aae f83b 0d03 103b cf97 a3bb
000003b0: 80d2 a5bb 7d75 0fbc f423 013b bd10 2339
000003c0: 06d2 42bb a220 13bc 7bab f7ba 4431 6fbc
000003d0: 4546 acbb ebe4 adba f864 23ba dd84 f43a
000003e0: 3814 8dbc ee80 3fbc f6ee 8e3b 9518 233c
000003f0: 4c2e 713c 1eb7 1bba 43d4 473b 3e07 efbb
0.002034215 0.0064629028 -0.004172514 0.003645456 -0.010702338 0.001903019 -0.0016633 0.004325672
-0.006058549 -0.0032466492 0.0022974943 0.012913903 -0.012429826 0.0035786664 -0.0026851774 -0.004782886
0.008524943 -0.01489043 -0.0024637138 -0.012082289 0.0073807687 -0.0010100725 -0.0033435735 -0.002115836
-7.929526e-05 -0.0022665104 4.2835167e-05 0.0015142198 -0.004075324 -0.0038512966 0.0046385974 -0.0016886863
0.007616836 0.0024514394 0.0014624542 0.0057315547 0.00054790126 0.0022000999 0.004125749 0.0022767494
0.011245512 0.0013978537 -0.0048693973 0.001230576 -0.008760861 0.0019831955 -0.012806032 0.0047997367
0.005491968 -0.010081192 0.0043510282 0.007376775 0.028755393 0.0128553575 0.0037107486 -0.006227856
0.0024692272 -0.0033141149 -0.00997457 0.0024362688 -0.0058604567 0.010124966 -0.0029372626 0.0010578231
-0.0046535158 0.0056569776 -0.0043769577 0.0082747955 -0.0012564586 0.011753671 -0.009370109 0.0018157422
-0.008737026 0.0025674729 -0.0017849103 -0.0061127846 -0.008943624 0.0016812824 0.0017019068 0.0026026
0.013687098 0.0037950517 -0.0093556 0.0067194216 -0.0006012016 0.0054591205 -0.00020525065 -0.005046379
-0.0020663901 0.009124407 0.008367648 0.010743885 0.007408533 -0.011617193 -0.0034154607 -0.013714189
-0.012374853 -0.0020981317 -0.0042439373 0.0092763975 0.014250764 -0.002424306 -3.273944e-05 0.01835339
-0.008468984 0.005139579 0.0024179425 -0.009775076 -0.0053764894 0.010367651 0.009895301 0.0009834323
0.0069116163 0.0038695927 0.0018972124 -0.0050104707 -0.0064428733 0.0036168876 -0.0020129164 0.004676856
-0.0031116463 0.00022360546 -0.0036235591 -0.001321593 -0.009401348 -0.00062449806 -0.0057101473 0.0022163375
0.0030425396 -0.008556012 -0.012452335 -0.0034109345 0.0059034936 -0.002387763 -0.0035589933 0.0034176914
0.00870503 -0.00096555235 -0.0060245562 0.009043833 -7.5185504e-05 -0.003750408 0.0054238616 -0.012824818
-0.0046863295 0.006625568 -0.00042439188 -0.006444877 0.0066359225 0.0007543972 0.0012425368 -4.6216508e-05
-0.014017134 -0.0032124608 0.008706531 0.0030162844 -0.0025809328 0.0013332345 -0.0013851011 0.009567425
-0.00039883735 -0.0017321472 -0.0005717087 -0.0010211067 -0.009465479 0.00063821074 -0.0021251468 -0.00034758245
0.009505972 0.00091669103 -0.0015984448 0.0006090866 0.0009719694 -0.0040169023 0.0057821227 -0.0052130916
0.005699456 0.0048762965 0.0067225615 0.0019120536 0.0023546563 -0.0021226632 0.0015164954 0.01211457
0.0026977959 0.0011238324 -0.0032437635 -0.0034686388 0.008595239 0.011745688 0.006417326 -0.0036867715
0.0025350188 -0.0018161235 -0.004949999 -0.0030401298 -0.0041158763 0.0015701985 0.0028612418 0.0006457304
0.0012563037 0.011066545 -0.0020465236 -0.002630464 0.0026152881 0.011233856 -0.0020774002 0.008596457
-0.01671071 0.009486205 0.0024610322 -0.0044929157 0.0077194865 0.0010897259 0.010424539 0.0009833258
-0.016865104 0.017255543 -0.0024417094 -0.008440215 0.007728024 0.016050909 0.016287658 0.0027932387
0.004928362 -0.005393657 -0.0016193552 0.0008022777 0.0016036081 0.002819964 -0.0021622255 0.01572506
-0.0069834716 0.007589129 0.0021974475 -0.004992462 -0.005060494 -0.008756039 0.0019705268 0.00015551127
-0.0029727235 -0.008979948 -0.001889571 -0.014599148 -0.0052574 -0.0013267075 -0.0006233002 0.0018655319
-0.017221555 -0.011688454 0.0043619825 0.009954591 0.014720511 -0.00059400673 0.0030491508 -0.0072945645

transformer.norm.running_var f4 [1024]
00000000: a844 d93e 48e2 d93e 063f 033f 07c9 503e
00000010: ff4c fa3e 5a9a 5e3e 9d38 453e 3480 7e3d
00000020: fe6a 4b3e 81c1 d03e 8d43 263e 10fd cb3e
00000030: e7b8 803e a0ad 613e a24c cd3d 9dbc 573e
00000040: 90a6 433e 8476 d83e 486c 973e 037f 9f3e
00000050: 283a 8c3e d6bc d93e 305e 3e3e ecac 1a3e
00000060: 4187 f83d 6482 2f3e c44e 793e 7548 0e3f
00000070: a5ea 273e b85c 183e 62e2 103e 3893 a63e
00000080: 3c7d de3e 00d8 b43d e213 9a3e a825 493e
00000090: 28d2 873c ab90 4e3c 7e9a d93e 867a 953d
000000a0: 7a68 6b3e b86a 433e 7974 d33e 9acf 103f
000000b0: 5f78 613f e5db b83e 68d1 673f 07f0 4a3d
000000c0: 8a92 083e 1923 073e 8098 e93e 8011 083f
000000d0: 9e38 283e f4ea 6b3d aee4 8b3e a569 173f
000000e0: c991 b13e 41ce a73d 9c4a e33e 217d 543e
000000f0: ebdb ae3e ce09 cc3e 67b6 ba3d 33dd 323e
00000100: 7175 583e a74f ac3e 48a1 443e 08ab ce3e
00000110: 5a09 9c3d 24f9 243e b6bf a43e 17d9 933e
00000120: 4c90 e13e 393d 263e 2a6c ae3e 3593 0a3f
00000130: 0e40 5e3e 8b1c cc3e 87b7 b23d 8154 003e
00000140: 62a0 e93e 493d e73e 583f b03e 6897 b33e
00000150: c16e e03d 511b fa3e 318d 153e 4410 313e
00000160: ad87 c83e d2be 0d3f 3ab2 453e eb33 9d3e
00000170: 9591 593e abc1 373e cac7 b93d e5f6 923e
00000180: 8d60 da3e 76a2 d03e d1cc 973e 0a78 8e3e
00000190: 33b5 223f 515a 183f e1c5 a43e 81c5 3f3f
000001a0: 0eaa 393f 0d72 113e 2940 2e3c 4464 873d
000001b0: dc99 303c 4b99 003f 7d23 c83e eb4c f43d
000001c0: 3f8e db3e 473d ca3e ceeb a03e fd51 c13e
000001d0: fb78 0c3e 277d 5d3d 02f3 de3e b70a 573e
000001e0: 5f66 323e 5001 2b3e 7648 9f3e 9910 563e
000001f0: b359 953e ece9 a63e eb0a 843e 5ffd 113c
00000200: 7684 f03e d53c a43e ee05 973e a86c 9e3c
00000210: 0c1a b03e c5ee d43d f463 c83e 6da8 be3e
00000220: 2c4b b13e 8000 393e f621 643e 22ee 893e
00000230: 385d f43c 79a0 d23d 35ba 943e 0ead bd3d
00000240: e036 1e3e 5572 eb3c 4195 d93c a706 703e
00000250: 1672 293f 49cf 543d 3369 3e3f 39f3 523e
00000260: 2edd c93e e398 783e 233e 0e3f 19c0 d53e
00000270: 6df9 2c3d 439e 923e 77b2 2a3d 6472 323f
00000280: 7053 0b3d 17f3 a63d 7f9c 3b3c 52b6 803d
00000290: 233c 353e 8572 683e 1258 063f a026 153d
000002a0: 8430 763e 8453 693e 7c06 e23c 1124 863e
000002b0: b24e 663e bcdc bd3e 9cb7 923e d0aa 693e
000002c0: a5c4 933e f961 b23d 15f4 9b3e 822c b73e
000002d0: 1d6c b93e 9ae6 613e febb 303e 71b9 db3d
000002e0: 2171 043e d019 413f 8691 2d3e 4cf5 353e
000002f0: 7049 063f 2d7e 9d3e 4e36 183f 48df 463e
00000300: 910b 433e 00c9 f83d bf6a d93d ca08 9f3d
00000310: 6579 9f3e 68a4 a73d 3c66 cc3e c4fe c93e
00000320: a337 283e c4f4 ea3d c7ce 4a3e c3ff 2d3e
00000330: 57cd da3d a6d7 1c3f 7868 0e3e edca 3c3e
00000340: a1c2 b83e 22d5 af3d 4651 7c3e 3dd8 483e
00000350: 5291 8b3e de77 a03e 9c03 6b3e 1cdd cf3d
00000360: f6c7 a53e 0e65 bd3e 6c0b 863e 747b 773d
00000370: 611a f63e 85e4 f33d 18df 923e 0c6f ab3e
00000380: c67b 2d3e ca2a 453d 370e 303d c794 a33e
00000390: 7490 f83d c36c 873e 5727 4c3e 9b5f 0b3f
000003a0: 7a37 ae3e bbbc 873e 4df9 273e 2e38 933e
000003b0: 54c4 643e 63d5 dc3e bf40 3c3e f807 ee3e
000003c0: 34be 943d add0 673e 0db4 aa3e c583 a63e
000003d0: 1c61 b33e 7ab3 f53d 2b22 ad3e e47b 073e
000003e0: 01f1 c03e 878f 973e 8b7b ba3e 776c 093e
000003f0: 586c be3e 05dd 233e 3117 d03d feeb 883e
0.42435193 0.4255545 0.5126804 0.20389186 0.48886868 0.21738568 0.19259878 0.062133983
0.19865033 0.40772632 0.16236706 0.3984151 0.2514107 0.22038889 0.10024382 0.21068044
0.19106507 0.4227792 0.295748 0.3115159 0.2738812 0.42526883 0.18590617 0.15105027
0.12135173 0.17139584 0.24346453 0.5557931 0.16398104 0.1487912 0.14148858 0.32534194
0.4345492 0.08830261 0.30093294 0.19643271 0.016579702 0.012607734 0.4250068 0.0729876
0.22989073 0.19083679 0.412998 0.56566775 0.88074297 0.36105266 0.90553904 0.049545314
0.1333715 0.13196982 0.4562416 0.531517 0.16427848 0.057597116 0.27322906 0.59145576
0.34681538 0.08193637 0.4439286 0.20750858 0.3415216 0.3985123 0.09116822 0.17467193
0.2113855 0.3365452 0.19202149 0.4036486 0.07618971 0.16110665 0.32177514 0.28876564
0.44055402 0.16234292 0.34066898 0.5413087 0.21704122 0.39865527 0.08726411 0.12532236
0.45630175 0.45163944 0.34423327 0.3507645 0.10958625 0.48848966 0.14604641 0.17291361
0.39166012 0.55369294 0.1930627 0.30703673 0.21246941 0.17944972 0.0907131 0.2870399
0.42651787 0.40748948 0.2964845 0.27825958 0.6355774 0.5951281 0.3218222 0.7491074
0.7252511 0.14203663 0.010635414 0.06610921 0.01077887 0.50233907 0.39089575 0.119287334
0.42881963 0.39499876 0.31429905 0.37757865 0.13718025 0.054074433 0.43544775 0.21000181
0.17421864 0.1669972 0.3110997 0.20904769 0.29169998 0.32600343 0.2578958 0.008910506
0.4697606 0.3207766 0.29496711 0.01933892 0.34394872 0.10397104 0.39138758 0.37237874
0.34627664 0.18066597 0.2227858 0.26939493 0.029829606 0.10284514 0.29048315 0.09261523
0.1545062 0.028741041 0.026560428 0.23440038 0.66189706 0.051955495 0.7437927 0.20600595
0.3942656 0.24277072 0.55563563 0.4174812 0.04223006 0.2863637 0.041674104 0.69705796
0.03401512 0.081518345 0.011450886 0.06284775 0.17698722 0.22699936 0.52478135 0.03641379
0.24041945 0.22785765 0.027590983 0.2619939 0.22490957 0.3708247 0.28655708 0.22819066
0.28860965 0.08710093 0.30459657 0.35776144 0.36215296 0.22060624 0.17259213 0.107287295
0.1293378 0.7543001 0.16950044 0.17769355 0.52455807 0.30760327 0.5945786 0.19421113
0.19047381 0.12147713 0.10616063 0.07765348 0.31147304 0.08185655 0.3992175 0.39452183
0.16427474 0.114724666 0.19805442 0.16992097 0.10683697 0.61266553 0.13907039 0.18436785
0.3608599 0.08585574 0.24640378 0.19613738 0.27259308 0.3134145 0.22950596 0.10149595
0.3237912 0.3699116 0.2618059 0.06042047 0.48067 0.11908821 0.28685832 0.3348316
0.16941747 0.04813651 0.042982306 0.31949446 0.12136927 0.26450166 0.19936882 0.5444276
0.340267 0.26511177 0.16403694 0.287538 0.22340518 0.4313155 0.18384074 0.46490455
0.07262841 0.22638197 0.33340493 0.32522407 0.35035026 0.11997123 0.3381513 0.13230854
0.3768387 0.2960169 0.3642238 0.13420282 0.37192035 0.16002281 0.101606734 0.26742548
