models/sqa/xls-r-300m/model_300m_lay21_full.pt (torch, 384909 bytes, 67 tensors)

norm_input.weight f4 [1024]
000000 2e 9c 99 3e 31 10 f9 3e f2 0a e7 3e e0 4a cf bd
       0.30001968 0.48645166 0.45125538 -0.10121703
000010 c6 eb d9 3e a3 5b 1c 3f 6a ad 54 3e 3f 8d c5 3e
       0.42562693 0.61077327 0.20769277 0.38584325
000020 88 6c c4 3e 56 95 16 3f 9f 4e c2 3e eb 52 ef 3e
       0.38364053 0.5882162 0.37950608 0.4674295
000030 1d f1 9f 3e 42 99 2f 3f 82 bf 32 3f a4 c5 e7 3e
       0.31238642 0.6859323 0.6982347 0.45267975
000040 56 4d 21 3e e1 42 2f 3f 23 85 1b 3f 6a 9b 33 3f
       0.15752158 0.68461424 0.60750026 0.7015902
000050 93 cb b0 3e 87 68 14 3f ee 1a f0 3e ad f8 0a 3f
       0.34530315 0.57971996 0.46895546 0.542857
000060 8e bc fa 3e a5 c2 02 3f 69 f3 27 3f 24 62 d0 3e
       0.4897198 0.51078254 0.6560579 0.40699875
000070 55 5b 18 3f 43 b4 2e 3f 2e 28 1d 3f 97 df fe 3e
       0.5951436 0.6824381 0.61389434 0.4977996
000080 94 0b 9a 3e 16 e2 f9 3e ac a6 a7 3e ad 2e d5 3e
       0.30086958 0.48805302 0.32744348 0.41637173
000090 4d 01 a5 3e 87 93 2c 3f ea c4 2b 3f 7d f6 04 3f
       0.32227555 0.6741261 0.6709734 0.5193861
0000a0 ba b3 38 3f 8b 83 e4 3e d2 ae b7 3e b8 fc e2 3e
       0.7214924 0.4463161 0.35875565 0.44333434
0000b0 76 05 36 3f 1f fa fa 3e ea b9 5f 3e 0b 8e c7 3e
       0.7110208 0.49018952 0.21848264 0.38975558
0000c0 a3 f9 1f 3f fc 22 08 3f e4 42 f2 3e d2 8f ee 3e
       0.6249029 0.5317838 0.47316658 0.465941
0000d0 9d b5 98 3e d5 a1 8a 3e f5 91 11 3f 22 4d 11 3f
       0.2982606 0.27076593 0.5686334 0.5675832
0000e0 fc d7 b6 3e d8 7d c5 3e 16 a1 31 3d de e6 0a 3f
       0.35711658 0.38572574 0.043366514 0.54258525
0000f0 77 b9 36 3f 47 34 7e 3e 3a ad c2 3e ed ec cd 3e
       0.71376747 0.2482463 0.38022786 0.40219823
000100 f7 56 a9 3e cc 55 d2 3e 20 ef 46 3f 68 ba 1f 3f
       0.3307416 0.41081083 0.77708626 0.6239381
000110 46 66 c2 3e 12 3c b1 3e 87 68 00 3f 47 c5 fd 3e
       0.37968653 0.34616143 0.50159496 0.49564573
000120 2c 0a d6 3e d9 ab 0b 3f 74 d4 03 3f 1a c6 d9 3e
       0.41804636 0.54559094 0.5149605 0.42533952
000130 a4 3f 05 3f 88 71 10 3f cb 32 04 3f a5 90 c5 bd
       0.5205023 0.56423235 0.51640004 -0.096467294
000140 4c 99 05 3f f2 98 76 3f e9 14 8c 3e 7f 19 17 3f
       0.5218704 0.96327126 0.27359703 0.5902328
000150 c1 c3 50 3f 86 de cc 3e d4 29 6d 3f 99 1a ed 3e
       0.81548697 0.40013522 0.9264195 0.46309355
000160 c8 84 f7 3e ce 32 89 3e 2f 49 4b 3e f1 92 0f 3f
       0.48343492 0.26796573 0.19852136 0.5608359
000170 b3 ed b8 3d f3 59 b0 3e 8e b1 95 3e 51 c3 da 3e
       0.090297125 0.34443626 0.29237026 0.4272714
000180 6d af 06 3f 51 91 c1 3e 48 16 c3 3e 3d e2 b8 3e
       0.5261143 0.3780618 0.38102937 0.36110106
000190 e6 83 ff 3e 8a 4a df 3e 80 a1 c3 3e 12 32 e0 3e
       0.49905318 0.43611556 0.38209152 0.437882
0001a0 f4 83 05 3f 47 d8 10 3f 9c 95 75 3d e6 f6 52 3f
       0.5215447 0.56580013 0.05995713 0.8240799
0001b0 ab 22 39 3f 45 27 52 3f 63 f5 e1 3e 6b 76 0e 3f
       0.72318524 0.8209117 0.44132528 0.5564944
0001c0 58 2c cf 3e 13 fc 17 3f 22 57 e2 3e b6 43 12 3f
       0.4046352 0.5936901 0.44207102 0.5713457
0001d0 0b d2 ee 3e f7 1b d4 3e 52 62 69 3e bf 8b 12 3f
       0.46644625 0.41427585 0.22791412 0.57244486
0001e0 de 7e af 3e f7 ea d7 3d f9 e3 e2 3d 07 d0 32 3d
       0.3427648 0.10542863 0.110786386 0.04365542
0001f0 6d 2a 82 3e 39 75 9a 3e cb 49 33 3f 4c 47 cc 3e
       0.25422993 0.3016756 0.70034474 0.39898145
000200 2c 36 33 3f 9a 90 0d 3f 54 08 32 3f 16 4b e1 3e
       0.70004535 0.5529877 0.6954396 0.440026
000210 a8 94 bd bd d8 73 a8 3e 43 58 1e 3f 01 4f 3f 3f
       -0.092568696 0.32900882 0.61853427 0.74729925
000220 3b 30 7e bd a8 b2 26 3f 7b 3a 13 3f d0 97 a2 3d
       -0.062057715 0.6511636 0.5751111 0.07939112
000230 fa 48 d8 3e 54 5b b1 3e 6c aa 95 3e 4b f7 22 3f
       0.42243177 0.3463999 0.29231584 0.6365859
000240 6a 17 22 3f 14 4b 23 3f da 37 ce 3e 26 a6 df 3e
       0.6331698 0.63786435 0.40276986 0.4368145
000250 ee 58 c6 3e c9 05 f3 3e f2 af be 3e 38 93 21 3f
       0.38739723 0.4746535 0.3724361 0.63115263
000260 fc 7b 07 3f ef 06 b6 3e 16 1d 72 3e 8f 56 1d 3f
       0.5292356 0.35552165 0.23643908 0.614602
000270 ba 5d ba 3e be b0 14 be 39 83 cf 3e b7 3a 9a 3e
       0.36399633 -0.14520547 0.40529802 0.3012292
000280 18 85 00 3f d6 50 2f 3f 12 9d 62 3f 0a df 22 be
       0.50203085 0.6848272 0.8852092 -0.15905395
000290 fb aa 02 3f 54 a6 45 3e 0b c2 bb 3e 40 f8 08 3f
       0.51042145 0.1930173 0.3667148 0.535038
0002a0 dc b3 cd 3e db 06 84 3e 26 1c 08 3f 08 3b 06 3f
       0.40176284 0.2578648 0.5316795 0.52433825
0002b0 9c 12 ee 3e 73 3e dd 3e 63 5d f3 3e 34 a8 31 3f
       0.46498573 0.43211707 0.47532186 0.6939728
0002c0 02 fa 1f 3f f3 4c b0 3e 65 df d3 3e 00 08 bd 3e
       0.62490857 0.34433708 0.41381374 0.36920166
0002d0 b1 40 0a 3f 0e 4e 60 3d 8b 8b b6 3e 5a e2 2c 3f
       0.5400496 0.05476194 0.35653338 0.67532885
0002e0 c4 99 d3 3e 19 a9 e1 3e ef 35 af bd e3 b7 89 3e
       0.4132825 0.44074324 -0.08555209 0.26898107
0002f0 3f 93 07 3f c4 61 b3 3d d1 3c 9c 3d 9c 37 fa 3e
       0.52959055 0.08758882 0.07628787 0.48870552
000300 2a 40 ea 3e 5e ba dc 3e 4a a4 30 3f f3 4e ed 3e
       0.45752078 0.43110937 0.69000685 0.46349296
000310 84 08 13 3f 3e e0 af 3e 7d dc 66 3f c7 ba 1e 3f
       0.5743487 0.3435077 0.9018019 0.6200375
000320 41 02 0a 3f c4 ae 2f 3f c3 21 cd 3e 2a d1 40 3f
       0.5390969 0.68626046 0.4006482 0.7531916
000330 65 fa b7 3e 63 d5 2a 3f 3c 68 dc 3e 80 96 0c 3f
       0.35933223 0.6673185 0.43048275 0.54917145
000340 e9 88 eb 3e 1c 23 a7 3e 2d f3 e1 3e 87 a7 00 3f
       0.46002892 0.32643974 0.4413084 0.50255626
000350 9a 38 f8 3e 56 13 18 3f 61 e1 b7 3e d5 a8 9e 3e
       0.48480684 0.59404504 0.35914138 0.30988184
000360 dd a7 19 3f 24 7a c6 3e ce ab 13 3f 8b 8e 4a 3e
       0.60021764 0.3876506 0.5768403 0.19780938
000370 ed 93 b2 3d bf 94 f9 3e 01 27 12 3f 5c aa 99 3f
       0.08719621 0.48746297 0.57090765 1.2005115
000380 cd 9b 20 3f 81 6c f9 bc 41 c7 0d 3f 06 fe d7 3e
       0.62737733 -0.030447247 0.5538216 0.42185992
000390 3b a7 cc 3e 57 86 11 3f 9a f8 2b 3f 53 b1 14 3f
       0.39971337 0.5684561 0.6717621 0.58083075
0003a0 f0 ca 23 3f d0 d3 a6 3e f8 42 ca 3e 34 94 f9 3e
       0.63981533 0.32583475 0.39504218 0.48745883
0003b0 ee 16 03 3f ca ba b8 3e 77 cc 0b 3f a1 ba 0a 3f
       0.5120686 0.3608001 0.54608864 0.54191023
0003c0 94 99 c9 3e 5b 59 c3 3e e1 70 e2 3e 82 32 60 3f
       0.39374983 0.3815411 0.44226745 0.8757707
0003d0 95 ff 07 be 72 96 f2 3e 74 a4 d6 3e 09 84 21 3f
       -0.1328109 0.47380406 0.41922343 0.63092095
0003e0 1b f8 df 3e f2 be e8 3e 55 41 a7 3e 46 bf d2 3e
       0.43743977 0.4545818 0.32667032 0.41161555
0003f0 5c f7 16 3f bc 3b c4 3e 1d d9 ac 3e ee c7 2b 3f
       0.5897119 0.38326824 0.33759394 0.67101943

norm_input.bias f4 [1024]
000000 6b 9e 53 3b 66 bf b4 3a a6 34 e6 38 45 d4 a0 bb
       0.003229047 0.0013789951 0.00010977061 -0.004908117
000010 01 42 33 bc cc 93 8c 3b ec 55 9a ba 45 af e5 bb
       -0.0109410295 0.0042900797 -0.0011774874 -0.007009419
000020 ab e2 1d 3c 8f aa 3d 3c c4 c1 3e bb 27 09 af b9
       0.009636561 0.011576309 -0.0029107193 -0.0003338542
000030 e7 9d 92 bb 96 3a 61 bc 06 83 a2 3a aa 84 38 3c
       -0.00447439 -0.013746878 0.0012398667 0.011262098
000040 05 d9 6a 3b 5f 09 88 ba 27 10 e3 ba 20 63 e6 bb
       0.003583492 -0.0010378769 -0.0017323539 -0.0070308596
000050 9d 34 06 39 db bb a8 3c 91 63 88 3b 56 6b 6e bb
       0.00012798836 0.020597389 0.00416226 -0.0036379895
000060 a1 ce 3d 3c 59 46 79 bc b6 d5 a2 bc e2 19 97 3b
       0.011584909 -0.015214526 -0.019877296 0.00461124
000070 bc 23 51 bc e1 f3 df b8 ab 2f 09 bc c3 48 64 b9
       -0.012764867 -0.000106788946 -0.008373181 -0.0002177088
000080 19 09 2a ba 76 cc 11 bc d5 1c e0 3b 36 c7 d2 3a
       -0.0006486341 -0.008898845 0.0068393745 0.0016081098
000090 b2 79 36 bb 31 48 74 3c 2a 5f 44 3c db 55 54 3b
       -0.0027843532 0.01490979 0.0119855795 0.0032399807
0000a0 b6 09 0e 3c b3 83 43 3c 89 05 f1 bb fc aa 11 3c
       0.008669307 0.011933255 -0.007355396 0.0088908635
0000b0 3c a6 ba bc a0 bd 5f 3b 46 98 bb ba 4d a8 86 bc
       -0.022784345 0.0034140125 -0.0014312349 -0.016437674
0000c0 74 3f 99 3b 02 b6 25 bc a7 ea e7 bb f2 19 23 bc
       0.0046767537 -0.010114195 -0.0070775333 -0.009954916
0000d0 ba ec 00 3b de 7a 68 3b 87 56 05 3c f8 95 91 3c
       0.001967235 0.0035473625 0.0081383055 0.017771706
0000e0 78 fd 5b bb cc f3 07 3b ec d1 f6 ba ac 89 fa 3b
       -0.0033567827 0.002074468 -0.0018830872 0.0076458063
0000f0 91 56 8d bb 3b 61 15 bb 01 27 37 bc 82 83 01 3c
       -0.004313298 -0.002279355 -0.011178733 0.007904889
000100 4a 36 c2 bb a1 51 63 3c 66 c6 4a bb 2d 46 a5 3a
       -0.005926882 0.013874442 -0.0030941009 0.0012609415
000110 f7 aa df 3a d4 29 b7 bb a9 7a 4f 3c f8 26 c6 ba
       0.0017064501 -0.005589703 0.012663522 -0.0015117815
000120 ac c3 dd 3b ec 56 b0 bc 05 51 ec 3a 42 db 9e 3a
       0.0067677107 -0.021525823 0.0018029517 0.0012119787
000130 a1 01 27 bc 97 4b 00 bb b0 c8 eb 39 e5 ab 18 bc
       -0.010193259 -0.0019576305 0.00044972217 -0.009318327
000140 40 08 74 3c 0b ff ba 3a 58 77 df ba 39 61 7e 3b
       0.014894545 0.0014266683 -0.0017049117 0.0038815273
000150 b2 12 b7 bb ec 95 26 bb 87 38 2f 3b 83 af 1d 3c
       -0.0055869455 -0.002541895 0.0026736574 0.009624365
000160 6e a8 96 3a 7e 31 3d b9 71 04 33 3b 16 d9 15 3c
       0.0011494288 -0.00018042882 0.002731588 0.009145996
000170 a2 1b 3e bb c6 f1 55 3b 95 90 48 3b ac 82 dd bb
       -0.002900817 0.003264533 0.0030603756 -0.006759962
000180 5b 6a 20 bc c8 33 ba bb a4 5a 00 bc ec 4d 35 ba
       -0.009790982 -0.0056824423 -0.00783411 -0.00069162133
000190 bc 77 48 3a 91 4d dc 3b 79 b3 43 ba ea 9d 4c bb
       0.00076472363 0.006723114 -0.0007465403 -0.0031222054
0001a0 13 ff 74 bc e6 eb 7e 3c 5b 88 48 bb 70 ca 28 bd
       -0.014953393 0.015559172 -0.0030598852 -0.041208684
0001b0 15 55 fe ba 6b 92 02 bc ac ad 38 3b 2a 2c 04 3c
       -0.0019404019 -0.007969479 0.0028179688 0.00806717
0001c0 56 c2 6f 3b ba 89 c2 3c e8 2c 00 bb bb bd bf bb
       0.003658434 0.023747314 -0.0019558016 -0.005851475
0001d0 dd db e5 bb 08 68 e2 bb e9 0c 78 bb 57 ec ab 3a
       -0.007014735 -0.006909374 -0.0037849492 0.0013116699
0001e0 99 be 4c 3c d1 2c 45 3b bb ca dc b8 f1 c6 53 3b
       0.012496614 0.0030086527 -0.00010528179 0.0032314623
0001f0 04 36 5b bb a2 02 8f b9 3e d1 a7 3c e4 fc c3 ba
       -0.0033448944 -0.00027277047 0.020485517 -0.0014952687
000200 7b 81 f7 39 58 eb 2f bc ea 9d a8 3b 6e 3e 58 3a
       0.00047207982 -0.010737263 0.005145778 0.0008249049
000210 a6 5b 1a 3b e3 0b 03 3b 1a 75 81 bb ed 3d ef bb
       0.0023553162 0.0019996099 -0.003950727 -0.0073010833
000220 2b 8d 9e bb 5c df d9 3c 93 a2 b9 3b 47 5c 2e 3a
       -0.004838606 0.026595764 0.0056651323 0.00066513236
000230 21 be 90 3c e6 38 17 bb a2 66 e7 bb 7f 6d bb bb
       0.017668786 -0.0023074686 -0.0070617953 -0.00571984
000240 47 57 b9 3c 1d 98 51 3b 2d 2e e0 3a 86 2f 03 3c
       0.022624625 0.0031981536 0.0017103605 0.008006936
000250 ac 2c 79 bb 07 63 da bb 99 8a 82 ba 8a ee 70 bb
       -0.0038021011 -0.006664637 -0.0009959518 -0.0036763274
000260 8f 71 a8 3b f0 89 88 bc 47 a5 02 bb d0 b1 53 3b
       0.0051404904 -0.016667336 -0.0019934939 0.003230203
000270 2e 73 90 3b cd 1f 0c 3c cb 58 d4 ba 05 a4 fd ba
       0.0044082617 0.008552504 -0.0016200779 -0.001935125
000280 83 c6 26 bc 8c e2 b5 3c 31 a7 d5 3c 8d 6e 72 ba
       -0.010179165 0.022202753 0.0260807 -0.0009248041
000290 7a 6c ba 3b 9f 6a 2f 3b 88 f3 89 bc 05 d1 ef 3a
       0.005689201 0.0026766432 -0.016839758 0.0018296546
0002a0 d3 77 92 3a be f5 32 39 e9 50 19 3c d9 7e c9 37
       0.0011174626 0.00017066949 0.009357669 2.4020135e-05
0002b0 56 77 04 39 3a a4 b0 39 4f a7 2d bc 67 4a fe bb
       0.00012632957 0.00033691694 -0.0105989715 -0.0077603343
0002c0 58 61 26 3b d8 ae 94 bb 2a 60 a0 bb 9a 77 08 bc
       0.0025387611 -0.0045374446 -0.004894276 -0.0083292965
0002d0 4c fb 90 ba a5 c4 73 3b 23 46 08 bc df f6 43 bb
       -0.001106122 0.0037196067 -0.008317503 -0.0029901785
0002e0 4b d1 18 3b 11 28 cb 3b be 26 79 3b cd 63 23 bc
       0.0023318108 0.0061998446 0.0038017477 -0.009972525
0002f0 31 e9 09 3b ca 17 ce b9 61 59 97 bb 1e a6 1d bb
       0.0021043534 -0.00039309106 -0.004618809 -0.0024055312
000300 62 3f 19 3a bf a1 73 bc a4 ff 47 bc 26 b1 a7 bb
       0.00058459316 -0.014870106 -0.012206946 -0.0051175533
000310 49 27 95 bb 18 12 ed bb 79 09 14 3c d8 d8 23 3b
       -0.0045518023 -0.007234823 0.009035462 0.0025001075
000320 62 76 0d bb ac 09 3f 3c 81 3d 38 ba b6 46 54 3d
       -0.0021585454 0.011660021 -0.0007028208 0.051825248
000330 75 a1 54 3b 0c 0b b5 3c 03 e3 01 3c a3 81 10 3c
       0.0032444869 0.022099994 0.007927659 0.00881997
000340 17 77 22 3b 2c d6 9b 39 cd 7a 09 bb 22 7d cc bb
       0.0024790221 0.00029723474 -0.0020977736 -0.006240503
000350 d9 f3 ee bc 62 69 82 3b ec c2 97 3b 7c c2 10 38
       -0.02916901 0.0039798478 0.004631391 3.4513403e-05
000360 23 3a ee bb 45 c1 2b 3c 07 8a 1f 3c e6 a5 53 3b
       -0.007270114 0.010483091 0.009737498 0.0032294928
000370 f8 99 5a 3b 27 c0 40 bb 7a 3a 46 bc ab 85 b6 3c
       0.0033355933 -0.0029411407 -0.012098903 0.022280535
000380 3c b2 5c 3c 22 05 a8 39 ee b5 24 bc f1 36 d4 bb
       0.013470229 0.0003204728 -0.010053141 -0.006476276
000390 67 0b 46 38 e0 34 eb bb d4 bd 86 39 07 74 48 ba
       4.7217498e-05 -0.007177934 0.00025699905 -0.0007646684
0003a0 e7 aa c4 bb 79 f9 98 3b 06 85 65 3c bc 76 f8 bb
       -0.0060018185 0.0046684113 0.014008766 -0.0075825136
0003b0 06 a0 cd 3b d8 ca b1 39 fb a9 f8 3b d1 3e 7a 38
       0.00627518 0.000339112 0.0075886226 5.9663147e-05
0003c0 74 ee 9a 39 72 6e a9 3a 68 50 ff bb 76 3e bd bc
       0.0002955083 0.0012926592 -0.0077915676 -0.023101073
0003d0 e0 bc 85 3c e5 9a 16 3c 05 d5 04 3b f2 d6 b0 3b
       0.016325414 0.009192203 0.002026857 0.005396717
0003e0 dd c2 4a 3b 99 91 51 3b 33 93 a2 bb ec c0 94 3a
       0.0030938901 0.0031977652 -0.004961395 0.0011348999
0003f0 86 a3 f8 bc 81 f8 3e bc 6b 9d 9f bb 32 d8 53 bc
       -0.030351412 -0.011655928 -0.0048710606 -0.012929963

norm_input.running_mean f4 [1024]
000000 bc e7 8b 3f 16 7d 43 c0 f9 ba e0 3f 79 1e 4a 3f
       1.0930095 -3.0545096 1.755706 0.7895275
000010 46 74 50 40 6e 00 1d c0 ac 70 87 bf 09 fb df 3f
       3.2570968 -2.4531512 -1.058126 1.7498485
000020 ad b2 0c 40 ff 1d a0 bf 97 e6 f2 3f bc f8 10 bf
       2.1984055 -1.2509154 1.897662 -0.5662954
000030 12 9e a5 40 b3 24 9e bf 07 7f 13 40 ee 72 b4 3f
       5.1755457 -1.235495 2.3046281 1.4097574
000040 7c 83 aa 3f 64 4b 44 bf 8a ec 26 c0 e6 6c 6c 40
       1.3321376 -0.76677537 -2.6081872 3.6941466
000050 6d c1 cc be 2d de a9 40 c3 a0 35 40 29 75 ca bc
       -0.39991322 5.308371 2.837937 -0.02471407
000060 67 2d e5 bd 56 70 a9 40 20 43 c9 bf d7 22 20 c0
       -0.111903004 5.294963 -1.572361 -2.5021265
000070 25 f7 54 bf 5b b5 8e bf 30 47 0d c0 44 d0 ce bf
       -0.8318961 -1.1149095 -2.20747 -1.6157308
000080 6e 4b 21 bf 10 5f bf 3e 7a c5 95 40 5b 6a f2 bf
       -0.6300572 0.37377214 4.680356 -1.8938707
000090 54 5b ce bf f6 cc 16 c0 d6 72 90 c0 03 7f 23 c0
       -1.6121621 -2.3562598 -4.514018 -2.5546272
0000a0 e4 d1 15 bf a9 c6 af 3f fd b7 ed bf 9c db 9e bc
       -0.5852339 1.3732501 -1.8571774 -0.019391827
0000b0 a3 13 92 3f 06 e8 62 40 61 3d 59 40 b2 75 fb 3f
       1.1412243 3.5454116 3.3943713 1.9645293
0000c0 5e 07 86 40 04 61 52 3e 57 4a 46 40 d7 2b a0 bd
       4.1883993 0.20544821 3.0982873 -0.07820862
0000d0 a8 4a 5b 3f e1 b2 7c 40 c6 df 15 40 c7 88 ae c0
       0.8566079 3.948418 2.341783 -5.4541965
0000e0 2f 21 40 c0 f2 cb 55 3f ec 57 67 40 f3 08 22 bf
       -3.0020254 0.8351432 3.6147413 -0.63294905
0000f0 bd 2d 77 bf 4e c7 e3 bf 5c 93 b3 bf 77 34 21 40
       -0.96554166 -1.7795198 -1.4029346 2.5188272
000100 0a 92 45 3f e1 0b 8c bf c0 26 ab 3f 7f e6 37 40
       0.7717596 -1.0941125 1.33712 2.8734434
000110 b1 65 90 bf 16 a2 9e 40 dd 33 3b c0 bb 32 d9 3f
       -1.1281034 4.957286 -2.9250405 1.6968607
000120 a0 e7 91 3f 0d 08 00 3f 16 fc cc be 80 f7 0b 40
       1.1398811 0.50012285 -0.40036076 2.1869812
000130 e9 d4 92 40 d8 08 3a 40 3e 23 8a c0 24 64 4a 3f
       4.58849 2.9067898 -4.316802 0.7905905
000140 b7 54 20 40 45 3a 51 3f 85 bb 62 3e 88 05 5c be
       2.5051706 0.8172954 0.22141846 -0.21486485
000150 8f ff 34 40 89 41 81 bf 34 09 93 3f c6 28 9c 3f
       2.828098 -1.0098125 1.1487184 1.2199943
000160 18 ce 5b 40 41 26 44 c0 07 9b 9d 3f ed 67 81 3f
       3.434454 -3.0648348 1.2312936 1.0109841
000170 22 18 bb 3f 0c 07 3a 40 20 ac d3 be 3a d8 8a 3f
       1.461674 2.90668 -0.41342258 1.0847237
000180 2a f0 6b bf c4 07 a9 3f 91 79 52 40 56 07 fb bd
       -0.92163336 1.3205495 3.2886698 -0.122572586
000190 fe a7 26 40 d8 68 bb 40 9e 44 4d 3f 5b ef 07 3f
       2.6040034 5.8565483 0.80182827 0.530996
0001a0 d8 e2 aa 3f 4d 46 5f 3f 93 20 5f c0 1e 53 3a c0
       1.3350477 0.87216645 -3.4863632 -2.911323
0001b0 88 52 ce 3e 27 aa ae 3f 9a e1 09 40 34 e7 15 3e
       0.4029734 1.3645676 2.1543946 0.14638978
0001c0 5a 2a 39 40 dd 3c 3b 3e a2 7f b7 3f 19 5f 2e c0
       2.89321 0.18284936 1.4335825 -2.7245543
0001d0 68 46 aa 40 c4 22 d7 be a1 92 b2 3f 72 fa 77 40
       5.3210945 -0.42018712 1.3950998 3.874661
0001e0 bc 80 96 3f d2 74 fb bd ca 36 00 40 5d d1 5b be
       1.1758037 -0.12278141 2.003344 -0.21466585
0001f0 f5 71 b8 bf db c2 a0 bf d9 21 cc 3f b2 5e 02 bf
       -1.4409777 -1.2559465 1.594783 -0.50925744
000200 0a 2a 05 3f 61 2a 7c 3f 05 05 75 40 81 ab 81 3e
       0.5201727 0.98502165 3.8284314 0.2532616
000210 ad b2 a7 3f 5b eb 4c 40 99 81 32 bf 65 5d 20 c0
       1.3101403 3.201865 -0.69729 -2.5057003
000220 86 42 24 40 7e eb 00 40 33 ca 78 bf a7 79 a0 3e
       2.5665603 2.0143733 -0.9718353 0.31342813
000230 d1 63 2f 40 52 90 cc 3e c3 ff 77 3f 8f fd dc 3f
       2.7404673 0.39953858 0.96874636 1.726488
000240 7a b4 4d 3e f9 36 28 c0 07 f3 4e 40 72 b8 67 40
       0.20088378 -2.6283553 3.2335832 3.6206326
000250 69 27 a0 3f 6f 25 22 bf 6b aa 4a 40 37 cf 74 bf
       1.2512027 -0.6333837 3.1666515 -0.95628685
000260 a3 f2 fb 3f a3 f9 ea 3f 8c 94 bb c0 38 7f e8 3f
       1.9683422 1.8357433 -5.861883 1.8163824
000270 de ed 0d 40 56 46 a5 c0 46 b0 36 3f 1e 8d 7d be
       2.2176433 -5.164836 0.7136272 -0.24760863
000280 07 7b 15 40 8b fa 4a 40 a7 2b 83 3d 09 15 10 40
       2.335634 3.171542 0.064048104 2.251284
000290 da a9 b7 40 e8 cf c6 3f 5c 95 f1 bf 85 c1 90 3f
       5.739484 1.5532198 -1.8873706 1.1309057
0002a0 66 c7 51 40 53 dd 39 3f bb 19 3c be d8 ed a8 bf
       3.2777953 0.7260334 -0.1836919 -1.3197584
0002b0 dd 00 14 40 13 27 a0 bf 26 5c 3f 40 de 5e c4 40
       2.3125527 -1.2511925 2.9899993 6.1365805
0002c0 29 4c 66 bd fc 99 26 be 9f 01 80 40 88 09 a7 3d
       -0.056224976 -0.16269678 4.000198 0.08156115
0002d0 31 58 4f bf ee 44 be c0 03 17 8c c0 f5 f3 13 3f
       -0.80993944 -5.9459143 -4.377809 0.57794124
0002e0 5e 69 04 3f c8 4e ce 3f 8b fb 26 c0 d7 15 e4 bf
       0.5172328 1.6117792 -2.609103 -1.7819165
0002f0 e8 59 e5 be c0 8f ae 3f 2c 3f 46 c0 4e a2 82 3f
       -0.44795156 1.3637619 -3.0976057 1.0205781
000300 1e c0 0e bf 76 4d 8e 40 46 0a 96 40 9b 45 13 40
       -0.557619 4.4469557 4.688754 2.3011234
000310 b1 ff 40 40 a1 0a dd be 48 0d aa 40 4c f5 15 c0
       3.0156062 -0.43172172 5.3141212 -2.3430967
000320 32 86 88 3f 12 a0 43 3f 48 73 28 c0 b6 20 b9 bf
       1.0665953 0.7641612 -2.6320362 -1.4463108
000330 95 20 3d bf c6 af 7c bf 39 4b ed 3f 75 de 14 bd
       -0.7387784 -0.9870571 1.8538581 -0.036344964
000340 ec 16 fb 3f e7 9d 80 3f 3d a1 f1 3f 93 fa af be
       1.961637 1.0048188 1.8877331 -0.3437086
000350 0c 06 97 40 2c 5e ca 3f 19 ca 37 3e b9 b0 68 40
       4.719488 1.5809989 0.17948188 3.6357863
000360 e8 68 1c 40 e9 d0 1e c0 26 3f 26 c0 88 ed 12 3f
       2.443903 -2.4815009 -2.5976043 0.57393694
000370 23 06 13 40 f7 ce 87 bf b7 c3 d7 40 52 64 ca bf
       2.2972496 -1.0610036 6.742641 -1.5811865
000380 c5 4b a4 be be 3d 9f c2 2a c5 3c 3f 85 e9 5d 40
       -0.32089058 -79.62059 0.7373835 3.467378
000390 71 48 4f 40 62 3e 7e 3f d0 10 e1 bf 61 84 96 40
       3.2387965 0.9931394 -1.7583256 4.7036595
0003a0 67 ac 16 40 66 d3 73 bf 27 12 1f 40 57 6b 0a 40
       2.3542726 -0.95244443 2.485483 2.1628015
0003b0 e1 11 75 3f 59 a6 f7 3f 93 9e 66 3f 05 dd a6 bf
       0.95730406 1.934764 0.90085715 -1.30362
0003c0 fd 5b 08 3e f4 f3 58 40 1c 4d a9 3f ed 07 22 be
       0.1331634 3.3898897 1.3226657 -0.15823336
0003d0 a4 6e 05 41 9f 57 48 c0 27 95 87 bf ef d1 b1 c0
       8.339512 -3.130348 -1.0592393 -5.5568767
0003e0 a8 bc 9a 3f 55 32 12 bf 98 ec 08 40 27 2c 72 3f
       1.2088823 -0.5710805 2.1394405 0.9459862
0003f0 37 c0 67 3f 4d 65 1c 3f a4 23 6a 3f f8 18 06 40
       0.9052767 0.6109207 0.91460633 2.095274

norm_input.running_var f4 [1024]
000000 8d 99 d3 40 77 c3 d9 40 ec 1b 92 40 ab 55 4c 41
       6.612494 6.8051105 4.5659084 12.770915
000010 d8 ec c9 40 60 44 c8 40 06 86 d7 40 c5 96 a0 41
       6.3101616 6.2583466 6.7351103 20.073618
000020 02 69 24 41 d5 e9 9f 40 56 ba 1e 41 4a de 28 41
       10.275637 4.997294 9.920492 10.55427
000030 67 95 5a 41 17 cf cc 40 aa c0 78 41 cf 1f 7c 40
       13.661475 6.4002795 15.547037 3.9394414
000040 67 63 c8 40 9b 2b e6 41 c5 82 77 40 a8 0b b8 40
       6.262134 28.771292 3.8673565 5.751423
000050 98 65 27 41 a8 56 bf 41 44 ee 30 41 09 82 64 41
       10.462303 23.917313 11.05817 14.281747
000060 2c ad 9c 40 c6 00 15 41 63 de b5 40 c0 cc f0 40
       4.896139 9.312689 5.683397 7.524994
000070 83 13 b1 40 e9 13 d8 40 b4 2f 24 41 0b 14 19 42
       5.533632 6.7524304 10.261646 38.269573
000080 95 77 1a 41 7b 41 85 40 d6 d3 25 41 c9 f0 4b 41
       9.654195 4.164243 10.364218 12.746285
000090 07 66 41 41 65 d0 03 41 04 27 23 42 1f c6 f4 40
       12.087409 8.238378 40.7881 7.6491847
0000a0 ac 95 41 41 79 26 15 41 aa 57 3e 41 3e c0 31 40
       12.099041 9.321893 11.896402 2.7773585
0000b0 cb 8c 36 41 0a 49 64 41 da db 1f 41 46 4b 8a 40
       11.409373 14.267832 9.991175 4.3216887
0000c0 ca 76 0c 41 ab 3c e5 40 de 7f 0b 41 ae 02 ee 40
       8.779001 7.1636558 8.718718 7.437827
0000d0 97 5f 70 40 cd e7 b4 40 2b 47 41 41 8a 30 74 42
       3.7558343 5.653296 12.079875 61.0474
0000e0 a3 9e bf 40 aa b7 f7 40 44 61 b1 40 77 4f cc 40
       5.988115 7.74117 5.5431232 6.3847003
0000f0 8b 56 a6 40 28 8a 00 41 fd dc ba 40 a9 58 1e 41
       5.1980643 8.03373 5.839476 9.896646
000100 f9 f3 76 40 b3 9f 8d 40 bd ca aa 40 50 31 1a 41
       3.858641 4.4257445 5.3372483 9.637039
000110 05 54 ba 41 b3 15 e7 40 4f 3c 03 41 27 e6 30 40
       23.291025 7.221399 8.202224 2.7640474
000120 bd 2d 90 40 a9 da ca 40 1e e0 24 42 99 a2 03 41
       4.5055833 6.339192 41.218864 8.227197
000130 af 73 ed 40 5b 58 d2 40 69 37 54 41 52 e0 0d 42
       7.4203715 6.5732856 13.263528 35.469063
000140 07 cc 91 41 7f 6a 67 40 75 56 df 41 73 4b eb 40
       18.224623 3.615875 27.917215 7.35296
000150 1a 2e 2e 41 45 07 01 41 c1 d9 cc 41 c5 c4 33 40
       10.886255 8.064275 25.606325 2.8088849
000160 bf c1 c3 40 7d b4 eb 40 ba 51 8f 40 79 c4 b7 40
       6.1174006 7.3657823 4.4787264 5.7427335
000170 8b fa bf 40 f4 dc af 40 bb e7 a7 40 3c 5d 8a 40
       5.999334 5.495722 5.2470374 4.323881
000180 02 5e 96 40 bc 4d 61 40 75 2f bf 40 0d 4a 11 41
       4.6989756 3.5203695 5.974543 9.080579
000190 20 36 c8 40 64 3f 23 41 e4 a0 ba 40 97 b2 20 41
       6.256607 10.202976 5.83214 10.043601
0001a0 d6 25 7c 40 5c 7b df 40 37 d6 4a 42 90 fe 04 42
       3.9398093 6.9838085 50.709194 33.248596
0001b0 49 fb f1 40 3a af 0c 41 e1 85 18 41 f7 12 fa 40
       7.5619245 8.79278 9.532685 7.814815
0001c0 b7 e1 30 41 e9 aa 10 41 06 ed ee 40 5a 2c 9d 40
       11.055106 9.041726 7.4664335 4.911664
0001d0 c8 39 1d 41 a3 d6 39 41 e4 ac 9f 40 4a 62 b3 40
       9.826607 11.614902 4.989855 5.605748
0001e0 a1 94 87 40 4d 0f fb 40 24 61 be 42 c5 d2 50 41
       4.236893 7.845618 95.18973 13.051457
0001f0 3d e5 15 41 cd de d9 40 00 30 af 40 c2 10 c4 40
       9.368466 6.8084474 5.4746094 6.1270456
000200 e7 eb d8 40 e9 11 cf 40 12 ba b1 41 89 06 4b 41
       6.7787967 6.4709363 22.215855 12.6890955
000210 ae c9 1e 41 bc 77 99 40 2b 15 99 40 51 8f 97 40
       9.924238 4.795866 4.783834 4.7362447
000220 93 10 07 41 66 4c e8 40 36 b2 a6 40 dc a4 b0 40
       8.441546 7.259326 5.2092543 5.5201244
000230 c8 45 fa 40 32 1c 46 40 3b dd 19 42 47 75 04 41
       7.821018 3.095471 38.466045 8.278632
000240 45 74 31 41 f6 a1 37 41 b9 92 b8 40 d2 03 8b 41
       11.090886 11.477041 5.7679105 17.376865
000250 28 ad 6f 41 bb dd 51 41 bf ef 6a 41 b4 9e ae 41
       14.979774 13.116633 14.683532 21.827492
000260 b8 e2 3b 41 86 3c 3a 41 c4 41 da 41 d0 a5 04 41
       11.742851 11.639776 27.282112 8.290482
000270 e0 2d 1d 41 6a c4 2e 41 51 e0 96 41 eb f4 97 40
       9.8237 10.922953 18.85953 4.748647
000280 1f 20 9f 40 7f 6d 9f 40 35 e8 84 41 72 82 13 41
       4.972671 4.982116 16.613382 9.219347
000290 66 9b 3d 41 a2 66 a3 40 3a 33 9d 40 fe cf 20 42
       11.850439 5.1062784 4.9125032 40.203117
0002a0 6f 9a 18 41 23 78 8a 40 5b 5a a8 40 88 9a 9e 40
       9.5377035 4.327165 5.2610297 4.9563637
0002b0 5e 46 b2 42 5c 97 ca 40 3a d6 7c 41 a3 66 9f 41
       89.137436 6.3309765 15.802301 19.925116
0002c0 8e 35 ad 40 a6 89 b3 40 fc d7 b3 40 f4 70 8e 40
       5.4127874 5.610553 5.6201153 4.451288
0002d0 24 f7 f3 40 47 44 09 42 e6 9d f5 40 10 25 bd 40
       7.6239185 34.316677 7.6755247 5.910774
0002e0 87 81 00 41 5b 1d e1 40 da 60 e2 40 fe 26 ca 40
       8.031623 7.0348334 7.0743227 6.31726
0002f0 d4 16 a1 40 d9 f6 04 41 64 79 56 42 bc 10 24 41
       5.0340366 8.310266 53.618546 10.254086
000300 3f ed 94 40 28 0a 65 41 6d db 60 41 3d e5 de 40
       4.6539607 14.31498 14.053571 6.965483
000310 df 4d a4 40 95 5d d4 40 f6 98 0b 41 d9 bd 1f 42
       5.1345057 6.6364236 8.724844 39.9354
000320 80 d8 93 40 7b 95 02 41 7d 13 ca 41 90 23 09 42
       4.620178 8.161494 25.259516 34.28473
000330 d4 59 a7 40 bd 51 d0 40 36 3c d3 40 d0 ef a5 40
       5.2297153 6.509978 6.6011 5.185524
000340 76 6f df 40 2a 72 21 41 2d 2d 33 41 4f 58 5f 41
       6.982356 10.090372 11.198529 13.95906
000350 1c eb f9 40 71 8b ed 40 fb 82 45 41 be bc 1f 41
       7.80995 7.4232717 12.344478 9.98358
000360 c4 6c b4 40 4a 94 be 41 5b 2e e1 40 1d 22 cb 40
       5.638277 23.822407 7.0369086 6.347914
000370 09 60 a5 40 97 87 dc 40 3a 98 9d 41 0e da e0 40
       5.167973 6.8915515 19.69933 7.026618
000380 5b 8f 04 41 4b eb 9c 44 16 f8 80 40 02 c2 18 41
       8.284999 1255.3529 4.030284 9.547365
000390 29 0e b6 40 cf c1 86 40 f8 d5 de 40 98 86 e6 40
       5.6892285 4.2111583 6.963619 7.20393
0003a0 29 83 c1 40 27 1f 04 41 b7 e0 24 41 0c cd 81 40
       6.0472608 8.257606 10.304862 4.05628
0003b0 ec 9b 66 40 45 fb ab 41 03 4f c6 40 5c 1d 03 41
       3.6032667 21.49769 6.197145 8.194668
0003c0 45 be 53 41 5e 2b a5 40 f3 7e da 40 66 6f 01 41
       13.2339525 5.161544 6.8279967 8.089697
0003d0 ef 61 84 41 b4 e0 24 41 02 12 00 41 8d 32 38 41
       16.54782 10.304859 8.004396 11.5123415
0003e0 eb c3 93 40 66 a0 2d 41 a0 e7 9a 40 e5 ff 8b 41
       4.617666 10.85166 4.8407745 17.499949
0003f0 04 c3 81 40 29 0f dd 40 11 39 d6 40 0c 3c 05 41
       4.0550556 6.9081006 6.694466 8.32716

transformer.norm.weight f4 [1024]
000000 1d 1d 48 3e 64 45 09 3f ef e1 cd 3e 4d b6 d5 bd
       0.19542356 0.53621507 0.40211436 -0.10435162
000010 78 e1 ba 3e fd ff 12 3f 73 04 c1 3d b0 ed b5 3e
       0.36500144 0.5742186 0.09424677 0.35532904
000020 dd fd 9e 3e 53 6f 21 3f 64 b0 a7 3e 19 1d cc 3e
       0.31053057 0.6306049 0.32751763 0.3986595
000030 5d f3 41 3e ef eb 38 3f bc 9a 2a 3f 99 8b c7 3e
       0.18940492 0.72235006 0.66642356 0.38973692
000040 18 b4 2a 3d 90 66 28 3f f2 2c 28 3f 06 79 43 3f
       0.041675657 0.657815 0.6569358 0.7635654
000050 17 46 5d 3e f2 68 0c 3f 2f b4 c6 3e b6 1c 13 3f
       0.21608768 0.54847634 0.38809344 0.57465684
000060 fd f4 00 3f 76 d9 f5 3e 07 71 32 3f b5 37 f0 3e
       0.5037382 0.48017472 0.69703716 0.469175
000070 48 10 38 3f 83 19 55 3f af 2b 27 3f 72 21 e6 3e
       0.71899843 0.8324205 0.6530103 0.44947392
000080 e2 d2 64 3e 1b db 22 3f 8f eb 6e 3e 5c 79 e3 3e
       0.2234607 0.6361558 0.23332046 0.44428527
000090 2e 25 85 3e a2 e8 2f 3f ab 69 28 3f 11 a8 0d 3f
       0.26004928 0.68714345 0.65786237 0.55334574
0000a0 6f 37 43 3f e5 14 01 3f 5b 19 83 3e 31 7e b4 3e
       0.7625646 0.5042251 0.25605282 0.35252526
0000b0 da 0e 44 3f fa 69 d7 3e e5 6d af 3d c2 bc c1 3e
       0.7658516 0.4207304 0.085658826 0.37839323
0000c0 1d a8 50 3f 4b e1 08 3f 97 88 e7 3e da 6b ce 3e
       0.8150652 0.5346877 0.45221397 0.4031666
0000d0 55 ec 41 3e 18 44 51 3e e3 b2 27 3f 4a 64 11 3f
       0.1893781 0.20436132 0.65507334 0.56793654
0000e0 32 3d 85 3e 76 3b a0 3e ae e7 d5 3b b5 75 15 3f
       0.2602325 0.31295365 0.0065278625 0.5838273
0000f0 0a 3a 52 3f c0 21 20 3e dc a7 8a 3e 38 19 be 3e
       0.8211981 0.15637875 0.27081192 0.37128615
000100 90 75 b9 3e 15 7e bb 3e 83 3b 52 3f ac 80 1e 3f
       0.36222506 0.3661963 0.8212206 0.6191509
000110 dd 0c a2 3e a5 ff 77 3e 54 c6 01 3f bc 93 09 3f
       0.3165044 0.24218614 0.5069325 0.5374105
000120 7b e0 d8 3e 94 0d ea 3e a1 e7 fc 3e c5 85 a5 3e
       0.42358765 0.45713484 0.4939547 0.3232862
000130 f6 d2 fb 3e ff 9e 17 3f 9b 1a 05 3f 8a 53 5e 3e
       0.49184388 0.59226984 0.5199372 0.21711555
000140 c6 f1 04 3f 35 c3 94 3f 0d f0 09 3e e4 f8 18 3f
       0.51931417 1.1622072 0.13470478 0.59754777
000150 35 33 82 3f cc 9a a3 3e 31 90 83 3f e6 93 c7 3e
       1.0171877 0.31954038 1.0278379 0.38980025
000160 b8 cc de 3e bc dd 3e 3e 52 a2 82 3d 67 76 ff 3e
       0.43515563 0.18639272 0.063786164 0.4989502
000170 bc 60 2c 3e 01 fb 77 3e 6c b5 33 3e 1c 6b ad 3e
       0.16833776 0.24216844 0.17549676 0.3387078
000180 1f 3e 00 3f b7 11 b4 3e 47 3e 8e 3e 69 9b 9b 3e
       0.5009479 0.35169765 0.2778189 0.30392006
000190 11 8d 09 3f 97 cf c7 3e 14 2c 7c 3e 9f 96 cd 3e
       0.53730875 0.39025566 0.2462619 0.40153977
0001a0 d6 ad 09 3f 51 59 14 3f de 5f f1 3c 6e 92 7a 3f
       0.5378088 0.57948786 0.029464658 0.97879684
0001b0 da 9a 3f 3f c5 dc 63 3f 1c bf be 3e 12 fa 0f 3f
       0.7484566 0.8900874 0.3725518 0.5624095
0001c0 d4 6c 8d 3e a7 55 1d 3f af a1 c3 3e 2e 6c 14 3f
       0.27622092 0.6145882 0.38209292 0.5797757
0001d0 76 b5 03 3f 17 28 8c 3e a2 10 fc 3d 2d e0 08 3f
       0.5144876 0.27374336 0.1230786 0.53467065
0001e0 a6 6b a0 3e 3e 87 41 bb 22 d1 86 3d 7d 0a ad ba
       0.3133213 -0.0029530074 0.06582858 -0.0013201978
0001f0 c0 7d 11 3e cb a0 35 3e 55 cb 5a 3f 52 89 ab 3e
       0.14208126 0.17737119 0.8546651 0.33503205
000200 f6 d3 4c 3f c0 35 11 3f 5a 52 4b 3f 06 77 a8 3e
       0.80010927 0.5672264 0.79422534 0.32903308
000210 b1 81 90 3c b9 89 70 3e 16 74 17 3f 06 79 52 3f
       0.017639967 0.23490037 0.5916151 0.8221592
000220 56 27 62 bc 33 ce 2c 3f 52 09 09 3f 39 6d c5 bc
       -0.013803324 0.67502135 0.53529847 -0.024099933
000230 bc 22 be 3e 4f f9 8b 3e ca ad 89 3e 8f e7 1f 3f
       0.37135875 0.27338645 0.26890403 0.62462705
000240 77 85 1c 3f 5d d3 3e 3f 1c 8b df 3e d3 ed dc 3e
       0.6114115 0.74541265 0.4366082 0.43150195
000250 57 e1 8b 3e 76 3e cf 3e bb 05 a4 3e f2 7f 26 3f
       0.27320358 0.4047734 0.32035622 0.6503898
000260 4b 49 07 3f be 32 98 3e 2b d0 2f 3e 55 fb 22 3f
       0.5284621 0.29726213 0.17169254 0.6366475
000270 3d 88 88 3e b6 e1 4f be 3e fb cc 3e d5 b4 39 3e
       0.26666442 -0.20300946 0.40035433 0.18135388
000280 2f ce 01 3f 51 09 30 3f 9d a5 8a 3f a0 fe d6 bd
       0.50705236 0.68764216 1.0831791 -0.104977846
000290 08 97 e6 3e c5 c6 b8 3d 4d f9 b5 3e 4d 12 13 3f
       0.45037103 0.09022287 0.35541764 0.574498
0002a0 ad f6 cd 3e a0 1f 21 3e 93 6d 26 3f 9c c2 04 3f
       0.4022726 0.1573472 0.65010947 0.5185945
0002b0 c6 24 ca 3e fe e7 cc 3e be d8 ed 3e 88 dc 3f 3f
       0.3948118 0.40020746 0.46454424 0.7494588
0002c0 22 73 3a 3f 9e fc 71 3e 7c af b4 3e 60 da a3 3e
       0.7283193 0.23631522 0.35290134 0.32002544
0002d0 a5 07 08 3f 45 49 d2 3c f9 93 92 3e 15 b5 48 3f
       0.53136665 0.025669703 0.2862852 0.7840131
0002e0 77 3b a2 3e 49 df e2 3e c0 9d 21 3d 96 f7 70 3e
       0.31685993 0.44310978 0.039457083 0.23531947
0002f0 b5 06 09 3f bb 66 c9 3c 3f 48 dc 3c a7 3d ea 3e
       0.5352586 0.024585119 0.026889918 0.45750162
000300 d3 de ca 3e 9d 0a da 3e 2e ac 50 3f 30 e4 bf 3e
       0.39623126 0.42586222 0.81512725 0.3747878
000310 a7 06 28 3f 90 38 77 3e 6a ca 85 3f f9 d9 18 3f
       0.6563515 0.2414267 1.0452397 0.597076
000320 8d 5b 13 3f c3 32 40 3f b2 1c 8c 3e b4 fd 58 3f
       0.5756157 0.75077456 0.27365643 0.8476212
000330 d4 87 71 3e 3b ae 44 3f 96 cc b7 3e f7 35 03 3f
       0.2358697 0.76828355 0.35898274 0.5125422
000340 81 00 ca 3e 83 75 54 3e c4 e0 af 3e d1 15 0d 3f
       0.3945351 0.20747952 0.3435117 0.55111414
000350 07 a4 17 3f d9 ba 25 3f 79 3b 6c 3e 45 da 3b 3e
       0.5923466 0.6473823 0.23069562 0.18344982
000360 b8 49 26 3f a6 0b 8b 3e cb 8b 18 3f ae 65 33 3e
       0.64956236 0.27157325 0.5958831 0.17519256
000370 87 80 40 be 34 0a c8 3e 6c 53 25 3f 70 a0 c2 3f
       -0.1879903 0.39070284 0.64580417 1.5205212
000380 cc cb 33 3f b1 27 b2 3b af 52 06 3f 4a 90 cd 3e
       0.70232844 0.0054368605 0.52469915 0.40149146
000390 fd 88 a3 3e 35 9a 14 3f b0 c8 4c 3f 0c 75 08 3f
       0.3194045 0.580478 0.79993725 0.533036
0003a0 89 6b 2b 3f cd 57 3d 3e 4b 54 b1 3e 5a 6f fd 3e
       0.6696096 0.18490525 0.34634623 0.49499017
0003b0 cc 2a fd 3e 4d 35 a3 3e e3 1d 07 3f b4 e2 f5 3e
       0.49446714 0.31876603 0.5277998 0.48024523
0003c0 e0 01 86 3e 5a 53 cc 3e 3e a4 0d 3f f9 d1 7e 3f
       0.26173306 0.39907342 0.5532874 0.9953914
0003d0 a5 5d 2f 3e 0c fe e9 3e 9d 77 ab 3e 67 fb 2a 3f
       0.17125566 0.45701635 0.33489695 0.6678986
0003e0 e6 75 c2 3e 5e 6c c3 3e 1b 49 84 3e c5 a3 a9 3e
       0.37980574 0.38168615 0.25837025 0.3313276
0003f0 08 5d 53 3f 95 ce bd 3e 07 7d 70 3e ae 53 4c 3f
       0.8256383 0.37071672 0.23485194 0.79815185

transformer.norm.bias f4 [1024]
000000 48 6f 4d bc 1e ae 67 3d 60 1e 13 bd 45 10 de 3c
       -0.012538739 0.056562535 -0.03591764 0.027107367
000010 30 93 52 3e 15 b2 0a bd e0 6a 8a bc 05 11 0c be
       0.2056396 -0.03386124 -0.016896665 -0.13678367
000020 a5 1d 9d 3d 2f 76 12 be 2c a1 0c 3d f9 be d9 bd
       0.0767167 -0.14302896 0.034333393 -0.10632128
000030 fb 16 1b be 57 32 24 bd 7b 83 01 3e 82 32 65 bd
       -0.15145485 -0.04008707 0.12647812 -0.05595637
000040 1d 8f db 3c 20 b2 a4 3b b0 48 0a bb 8e c8 5a 3e
       0.02680164 0.005026117 -0.0021100454 0.21365568
000050 1c c9 de bd bf bd 2e 3e df be 27 be 06 39 a3 bd
       -0.10878202 0.1706457 -0.16381405 -0.07969861
000060 59 39 77 be f0 fb 1e bd 8c 9b 8b 3e e9 b7 1e bc
       -0.2414297 -0.038814485 0.2726711 -0.009687402
000070 9b ac 25 bd 08 62 c2 bd 7a fb 27 bd 1a 89 37 3c
       -0.040447813 -0.09491354 -0.04101131 0.011202121
000080 bc d8 3a bd 47 c4 84 3e 69 3e 09 be ea 3f 1d 3d
       -0.04561685 0.25930998 -0.13402714 0.03839103
000090 be 34 aa bc a4 07 a3 be fd cf d3 bc e5 25 76 3d
       -0.020777103 -0.31841767 -0.025856012 0.060094733
0000a0 4c 82 b4 3e 85 cd f5 bd 77 7e 62 3d 06 3a 25 be
       0.3525566 -0.1200209 0.055296388 -0.16135415
0000b0 24 36 07 be b2 87 49 3c 39 dc 93 bb 0a 77 d3 bd
       -0.13204247 0.012300419 -0.0045123366 -0.10325439
0000c0 89 7a 97 be 06 56 83 3c 1d e3 9a bd 66 eb 9a 3c
       -0.29585674 0.01603223 -0.0756285 0.018911075
0000d0 cb ba 38 3d 83 90 9a bd 99 19 2b bd 37 3e 05 be
       0.045100015 -0.07547095 -0.04177246 -0.13012014
0000e0 9f c5 d5 3d bc fb 2d be 60 d4 41 3c f2 18 c9 bc
       0.10438084 -0.1699056 0.011830419 -0.024548028
0000f0 a0 e8 b4 3e 2d 7d 2e be 0e ff b1 3d 85 ff db bd
       0.3533373 -0.17039938 0.08691226 -0.10742096
000100 78 2e 22 be 40 59 3c be 6a cd 49 3e 7b 25 9e be
       -0.15838039 -0.18393421 0.19707265 -0.3088797
000110 03 3a 97 3c 0a b3 90 bd f5 b2 bf 3c 5f 07 fb bd
       0.01846028 -0.07065399 0.023400763 -0.12257265
000120 ae 5c 29 3e c3 2f 75 be c3 63 ff 3c ca 9b a8 be
       0.1653926 -0.23944001 0.0311755 -0.32931358
000130 21 4d 4e 3d 6b 5f 3f bd ee 6f be bc 9a 3d b8 3b
       0.050366525 -0.046721857 -0.023246732 0.005622578
000140 24 93 3d be 0e ce b6 3e a9 62 d1 bd 7e 78 70 be
       -0.18513161 0.35704082 -0.10223896 -0.23483464
000150 af 48 a7 3e 6f 61 27 3e 33 6a 4d be 40 f0 6b be
       0.3267264 0.16345762 -0.20060043 -0.23040867
000160 43 98 bf 3d da 19 1f be 0a 6f 0b be fa 08 03 be
       0.093552135 -0.15537205 -0.13616577 -0.12796393
000170 2e 20 94 3c 3c a4 06 3e 0b 39 b1 bc 21 ae ed 3d
       0.01808175 0.13148588 -0.021633646 0.11605478
000180 cd 1a d6 3d 94 b9 fc bd 7a 73 84 be b6 c4 35 be
       0.104543306 -0.12340084 -0.25869352 -0.1775082
000190 5d f3 4f be a9 b1 10 bd 1d 17 9d 3d 81 9d 50 be
       -0.2030768 -0.03532568 0.07670424 -0.20372583
0001a0 05 e9 8c be db a9 00 3e 53 62 e7 bc e3 a4 e9 bc
       -0.2752153 0.12564795 -0.028245127 -0.028521007
0001b0 24 c7 1f 3d e1 c2 af be a0 af 98 3e 8c e7 00 be
       0.039008275 -0.34328368 0.2982149 -0.12588328
0001c0 ee 3a 6d bd c0 cc 9a be c9 fc b5 bd 8f 1c 69 bd
       -0.057917528 -0.30234337 -0.088861056 -0.056912
0001d0 e0 73 24 3d bc 1a 3a 3e 21 1d 49 3e ff 30 9b 3c
       0.04014957 0.18174261 0.19640018 0.018944262
0001e0 50 fb 7b be 4e fb 5f bb 3e 3d 28 bc a5 29 ff bc
       -0.24607587 -0.003417689 -0.0102685075 -0.031147787
0001f0 72 cf f4 3d 7e a5 44 bd ed b7 fa bd 89 e4 27 bd
       0.119536296 -0.04800939 -0.12242112 -0.040989432
000200 2a f2 f0 3c b5 05 fb 3d c2 85 20 3d 58 16 d3 3c
       0.029412348 0.12256948 0.03919006 0.02576749
000210 d1 ad 02 3d 46 ef ef 3d 62 67 9f bd 3c de 8a be
       0.031904045 0.1171556 -0.077833906 -0.27122676
000220 7d c7 33 bb c2 fb bf 3d 46 28 80 3e 4e d1 ca 3c
       -0.0027432137 0.09374191 0.25030726 0.024758007
000230 35 ae 0c 3c e4 5b bb bd 6e 82 92 3a 45 f2 36 3d
       0.008586456 -0.09148386 0.0011177787 0.04466464
000240 cb 2b a5 3e 31 d2 43 3e b2 a1 11 be 2c b3 b1 be
       0.32259974 0.1912315 -0.14221838 -0.3470701
000250 12 e8 01 bd f6 11 01 3d 0e f2 68 be 85 33 6e be
       -0.03171546 0.03151127 -0.22748587 -0.2326184
000260 4f 4d 8d bc 48 07 f0 bc 8e 8b dd 3d 6e 7f b9 bd
       -0.017248778 -0.029300347 0.108176336 -0.090575084
000270 94 15 f1 bd e3 39 6d bd 57 8c 3b 3d 7d a7 43 bd
       -0.11771694 -0.057916533 0.045788135 -0.04776715
000280 21 13 31 be 7f ba 4e be cc 4b 94 3e 53 88 a1 3d
       -0.17292453 -0.2018833 0.28964078 0.0788733
000290 66 df 03 be 49 4c 9c 3d 3a 79 54 be f3 40 01 3e
       -0.12878188 0.07631738 -0.2074937 0.12622432
0002a0 8e cf 21 be 0b 15 8e 3d 6a b7 44 be 09 a6 b6 bc
       -0.15801832 0.069376074 -0.19210592 -0.022295969
0002b0 b9 58 19 be ee 8a 17 3c 5b 2b c6 bd 89 0f cc bd
       -0.14975251 0.009249432 -0.09676238 -0.099639006
0002c0 1d e4 af 3c 64 2a 81 bd 96 53 ca bd c6 0e ef bd
       0.021471078 -0.063069135 -0.09879224 -0.1167274
0002d0 e6 6b ba bd bc d3 83 3a 76 fd 4b 3b 22 2c 89 bd
       -0.09102611 0.0010057609 0.0031126416 -0.06697871
0002e0 81 39 49 bd 54 1c de 3c e6 0e 43 bd 63 af c8 bd
       -0.049127106 0.027113117 -0.04762163 -0.09799077
0002f0 9a f6 4d 3e 8a 99 76 3c ad 24 09 bd f3 6f 62 be
       0.20113602 0.015051255 -0.033482242 -0.22113018
000300 b2 90 b7 3c 45 e2 2e bd 85 24 94 3e 36 7f ea 3d
       0.022407863 -0.042696256 0.28934112 0.11450045
000310 34 b5 9e bd c1 04 f8 bc 53 cb 61 3d 3b 5e c3 3d
       -0.077494055 -0.030275704 0.055125546 0.095394574
000320 cb 9d af 3c c1 7c 94 3d f4 b4 13 3c 89 21 98 3d
       0.021437546 0.072503574 0.009015311 0.07428271
000330 da 60 33 bd 29 49 73 3d 60 e3 5e bc 6a 70 1d be
       -0.043793537 0.059395943 -0.013604015 -0.15374914
000340 8b 89 0f 3e 1b e4 94 bd 20 7c a4 be 5b b3 43 be
       0.14017312 -0.0727007 -0.3212595 -0.19111387
000350 57 45 37 be ae c8 9e 3d 8d ac 53 bd 81 4d 72 bc
       -0.17897545 0.0775312 -0.05167823 -0.014788986
000360 ec 70 78 3c 15 a7 0c be 48 ce 97 3c 0a 10 70 3d
       0.015163641 -0.13735612 0.01853098 0.058609046
000370 1d 9f 8f bc 78 a5 20 bd ac 06 d7 be e6 cb b1 bd
       -0.017531926 -0.039220303 -0.41997278 -0.08681469
000380 af c1 19 be 89 c4 0b bd 89 e7 cb bd a1 60 14 be
       -0.1501529 -0.034122977 -0.09956271 -0.14489986
000390 ae 51 0a be 72 3c 08 bd 98 4e 8e 3c 88 70 23 3e
       -0.13507721 -0.03326077 0.01737146 0.15960896
0003a0 ec 7f de bc 97 b0 8c 3d c5 a2 29 3d c9 0a 09 bc
       -0.027160607 0.06869619 0.041414995 -0.008364388
0003b0 bb 61 20 bd 59 6d 8e 3d 04 8c 1e bd 67 6c 92 3d
       -0.039155703 0.0695445 -0.038707748 0.07149582
0003c0 bd 01 f4 3d d5 43 d2 bd e5 4b 7d bd cf e6 91 3e
       0.11914394 -0.10266844 -0.061839957 0.28496405
0003d0 65 02 60 bd b5 aa 43 bd c1 2b d9 3d 42 f5 15 3e
       -0.054689784 -0.04777022 0.106040485 0.1464434
0003e0 77 cf 7f 3d aa 81 2c 3e 79 78 5d 3d bf d5 93 bd
       0.062453713 0.16846338 0.05406997 -0.07218503
0003f0 f4 cb aa be f1 70 3c 3e 10 dc 4f bd 94 df ad 3d
       -0.3335873 0.18402459 -0.050746977 0.0848991

transformer.norm.running_mean f4 [1024]
000000 19 15 54 3b 72 80 b7 3a 06 e2 f1 38 af b2 a0 bb
       0.0032361208 0.0014000072 0.00011533876 -0.0049041132
000010 1b 80 33 bc 00 4e 8c 3b 59 09 9a ba ba 40 e5 bb
       -0.010955836 0.0042817593 -0.0011752053 -0.0069962414
000020 9c b1 1d 3c f6 a4 3d 3c c9 64 3d bb 95 3c a0 b9
       0.009624865 0.011574974 -0.0028899184 -0.00030562715
000030 d6 ed 92 bb 9d ee 61 bc 0a 3f a1 3a 2d fe 37 3c
       -0.0044839187 -0.0137898 0.0012302112 0.011230034
000040 15 be 6a 3b 25 82 8a ba f8 8a e4 ba 77 c9 e6 bb
       0.0035818864 -0.001056735 -0.0017436435 -0.0070430594
000050 bd 9e 05 39 c0 ed a8 3c a0 e5 88 3b a7 eb 6d bb
       0.00012743003 0.02062118 0.004177764 -0.003630379
000060 dc a3 3d 3c 7c f1 78 bc 2e bd a2 bc 3e a7 97 3b
       0.011574712 -0.015194293 -0.019865599 0.004628091
000070 64 78 50 bc fa 78 fc b8 a7 d9 08 bc f0 c3 49 b9
       -0.012724016 -0.0001203883 -0.008352674 -0.00019241846
000080 5b 56 27 ba 57 03 12 bc 66 55 e0 3b cf 16 d2 3a
       -0.00063834124 -0.008911929 0.006846118 0.0016028526
000090 81 ab 36 bb 7c 0a 74 3c e3 ac 43 3c f4 9e 55 3b
       -0.002787322 0.014895078 0.011943075 0.0032595964
0000a0 55 40 0e 3c 05 c9 43 3c c5 0b f1 bb 62 d9 11 3c
       0.00868233 0.011949782 -0.0073561394 0.008901926
0000b0 b5 d0 ba bc a0 db 5e 3b b3 48 bb ba 16 be 86 bc
       -0.022804597 0.0034005418 -0.0014288634 -0.016448062
0000c0 35 5a 9a 3b 64 b2 25 bc ac 3c e8 bb 14 31 23 bc
       0.0047104605 -0.010113332 -0.007087311 -0.009960432
0000d0 3c 90 00 3b d7 10 69 3b c6 c4 05 3c 36 86 91 3c
       0.001961722 0.0035563016 0.00816459 0.017764192
0000e0 fd 1d 5c bb 3e dd 07 3b 52 d4 f6 ba 7a b8 fa 3b
       -0.003358721 0.0020731236 -0.0018831587 0.007651386
0000f0 6d d3 8c bb 10 13 15 bb df 5e 37 bc 78 3c 01 3c
       -0.004297665 -0.0022746958 -0.011192053 0.007887952
000100 f3 6e c2 bb 23 f8 62 3c 52 48 4d bb 6b 27 9e 3a
       -0.0059336363 0.013853106 -0.0031323624 0.0012066191
000110 97 c9 de 3a 5f b8 b7 bb c9 d3 4f 3c c2 c1 c6 ba
       0.0016997334 -0.0056066955 0.012684771 -0.0015163945
000120 e2 b9 de 3b f9 8f b0 bc 84 ef eb 3a 0b 3d 9f 3a
       0.0067970613 -0.021553027 0.0018000458 0.001214893
000130 8b c6 26 bc f4 75 00 bb b2 47 f1 39 68 b3 18 bc
       -0.010179172 -0.0019601556 0.0004602052 -0.0093201175
000140 dd 80 74 3c 40 23 b7 3a f9 c2 dd ba 38 5d 7d 3b
       0.0149233015 0.0013972297 -0.0016919068 0.00386603
000150 88 31 b7 bb e3 6c 26 bb c9 41 2c 3b f0 70 1e 3c
       -0.0055906214 -0.0025394491 0.0026284328 0.009670481
000160 6b 2c 95 3a b2 9a 3a b9 a6 cf 32 3b bb 51 16 3c
       0.0011381035 -0.00017795971 0.0027284413 0.0091747595
000170 71 03 3d bb 80 32 55 3b da 41 48 3b 7c 39 dd bb
       -0.0028841163 0.003253132 0.0030556829 -0.0067512374
000180 e7 7c 20 bc bf a2 b9 bb 53 6f 00 bc d2 ff 36 ba
       -0.009795404 -0.005665153 -0.007839042 -0.0006980869
000190 3c ed 44 3a 7a 2f dc 3b 7e 8d 41 ba 55 c4 4c bb
       0.00075121573 0.006719527 -0.00073834497 -0.0031244953
0001a0 1e 8c 75 bc 29 6c 7e 3c 77 5a 48 bb e9 83 28 bd
       -0.01498702 0.015528717 -0.00305715 -0.041141424
0001b0 d9 39 ff ba a0 0e 03 bc e8 26 37 3b f9 14 04 3c
       -0.0019472196 -0.007999092 0.0027946774 0.008061641
0001c0 c9 25 6f 3b 14 71 c2 3c 20 b5 01 bb 6c cd bf bb
       0.0036491028 0.02373556 -0.0019791797 -0.0058533456
0001d0 27 41 e5 bb 78 e0 e1 bb da e1 77 bb 0a a2 a8 3a
       -0.006996292 -0.006893214 -0.0037823827 0.0012865674
0001e0 4b ab 4c 3c 8f 32 45 3b cc 37 fd b8 38 c0 53 3b
       0.012492011 0.003008995 -0.00012074373 0.0032310616
0001f0 d3 60 5b bb 61 d0 88 b9 20 93 a7 3c b6 50 c4 ba
       -0.003347446 -0.00026095196 0.020455897 -0.0014977667
000200 20 25 dd 39 cd d5 2f bc 0e 39 a8 3b cb 83 58 3a
       0.00042180065 -0.010732126 0.0051337546 0.0008259385
000210 41 73 1a 3b 5a e1 00 3b 7b 3a 81 bb 41 56 ed bb
       0.0023567232 0.001966557 -0.003943739 -0.0072429483
000220 61 92 9e bb 24 64 da 3c 90 94 b9 3b ff c6 2e 3a
       -0.004839227 0.026659079 0.005663462 0.0006667226
000230 1c ad 90 3c 54 3d 16 bb c5 65 e7 bb 7b b0 ba bb
       0.01766067 -0.0022924738 -0.0070616924 -0.0056973076
000240 50 90 b8 3c 3c 3a 50 3b c7 fb e0 3a 9d 22 03 3c
       0.022529751 0.0031772992 0.0017164879 0.008003858
000250 da 8c 79 bb 69 6e da bb 11 8b 86 ba 35 6b 70 bb
       -0.003807834 -0.006665994 -0.0010264834 -0.0036684994
000260 40 fe a8 3b e6 9a 88 bc 9d f8 01 bb 7b 2c 50 3b
       0.005157262 -0.016675424 -0.0019832023 0.0031764794
000270 46 5a 90 3b 0b 4a 0c 3c 90 f3 d5 ba 9b 13 fd ba
       0.0044052927 0.008562575 -0.0016323198 -0.0019308211
000280 d5 56 27 bc 54 da b5 3c 19 83 d5 3c ff c5 73 ba
       -0.010213573 0.022198834 0.026063489 -0.0009299218
000290 88 6a ba 3b f0 52 2f 3b e2 34 8a bc f6 e3 eb 3a
       0.005688969 0.0026752315 -0.01687092 0.0017997015
0002a0 32 c7 92 3a 5d f7 2f 39 c5 78 19 3c 0a 75 82 35
       0.0011198281 0.0001678145 0.009367173 9.719818e-07
0002b0 e4 50 1a 39 c8 0a af 39 70 73 2d bc 08 44 fd bb
       0.00014716719 0.00033386634 -0.0105866045 -0.007729057
0002c0 e1 88 28 3b 41 ca 94 bb cf 30 a1 bb 04 a7 08 bc
       0.0025716352 -0.004540712 -0.0049191485 -0.008340601
0002d0 67 a6 97 ba 55 eb 73 3b 10 0b 08 bc b2 51 46 bb
       -0.0011569978 0.0037219126 -0.008303419 -0.0030261097
0002e0 8d b2 19 3b 4e ab cb 3b 8c ef 78 3b 0a 36 23 bc
       0.0023452372 0.0062154895 0.0037984578 -0.009961614
0002f0 6d 70 07 3b ae 4d cd b9 d2 5d 97 bb 61 29 1e bb
       0.0020666376 -0.00039158523 -0.0046193385 -0.002413355
000300 be da 1a 3a 2b a6 73 bc 0d f3 46 bc a9 fc a7 bb
       0.0005907229 -0.0148711605 -0.012142909 -0.005126555
000310 2f 50 94 bb f4 25 ed bb 83 71 14 3c fb 21 23 3b
       -0.00452616 -0.0072371904 0.009060266 0.002489208
000320 1d 6f 0f bb f7 41 3f 3c 4c 1d 36 ba 1a 6d 54 3d
       -0.0021886297 0.011673442 -0.00069471146 0.05186186
000330 27 81 54 3b 02 09 b5 3c 35 bc 01 3c 98 bd 10 3c
       0.0032425614 0.022099022 0.007918407 0.008834265
000340 c4 50 1d 3b ce db 98 39 2b c7 09 bb 78 90 cc bb
       0.002400444 0.00029155466 -0.0021023254 -0.006242808
000350 e2 fc ee bc 31 88 82 3b 12 f2 97 3b 1a 02 34 38
       -0.029173318 0.0039835204 0.0046370113 4.29173e-05
000360 30 f6 ed bb 4b bb 2b 3c 7b e1 1f 3c ce 0e 54 3b
       -0.007262014 0.010481666 0.009758349 0.0032357457
000370 d9 9d 5b 3b d6 87 42 bb 71 55 46 bc 4a 0f b6 3c
       0.0033510833 -0.0029683015 -0.012105332 0.022224087
000380 8b e0 5d 3c b3 bf a7 39 ad b4 24 bc 6f 31 d4 bb
       0.013542305 0.0003199555 -0.010052842 -0.0064756195
000390 67 2f 14 38 ed f3 e9 bb af 05 85 39 29 0e 51 ba
       3.5330097e-05 -0.007139674 0.0002537197 -0.00079748273
0003a0 a6 ee c4 bb cd b4 98 3b 84 a9 65 3c c7 a1 f7 bb
       -0.0060098944 0.004660225 0.014017466 -0.007557127
0003b0 7c 12 ce 3b 83 26 ad 39 b6 2d f8 3b 6d 6d 1b 38
       0.0062888246 0.00033025825 0.0075738085 3.705679e-05
0003c0 b8 64 9d 39 ac 95 a8 3a 25 bd fe bb e3 71 bd bc
       0.00030020415 0.0012861989 -0.0077740126 -0.023125594
0003d0 17 03 86 3c 4b 82 16 3c 23 07 05 3b c8 ab b0 3b
       0.016358895 0.009186338 0.0020298443 0.0053915717
0003e0 07 a1 4a 3b 61 d2 50 3b 9f bc a2 bb 7d e3 94 3a
       0.0030918734 0.0031863677 -0.004966333 0.0011359301
0003f0 f1 9d f8 bc 53 07 3f bc 73 a5 9f bb 7a 21 54 bc
       -0.03034875 -0.011659461 -0.004872018 -0.012947435
