models/sqa-v2/mfcc/model_mfcc_subset.pt (torch, 227341 bytes, 67 tensors)

norm_input.weight f4 [40]
0.9785357 1.1141258 1.0145862 0.95693195 0.9027878 0.9347165 0.76964605 0.84414935
0.8170113 0.80965155 0.8674376 0.8408492 0.82584375 0.80639416 0.722373 0.72591096
0.8366622 0.68100643 0.686593 0.6746021 0.59999156 0.6346781 0.52043474 0.5420377
0.624752 0.5951903 0.54552436 0.60953385 0.5055305 0.668667 0.65221703 0.5912177
0.61245203 0.5737125 0.6462553 0.6319411 0.5214733 0.64356124 0.5607616 0.59301156
00000000: 5181 7a3f ad9b 8e3f f6dd 813f 7ef9 743f
00000010: 1a1d 673f 9549 6f3f 8607 453f 2c1a 583f
00000020: a727 513f 5345 4f3f 6410 5e3f e541 573f
00000030: 7f6a 533f d96f 4e3f 70ed 383f 4dd5 393f
00000040: 7e2f 563f 7056 2e3f 8fc4 2f3f b9b2 2c3f
00000050: 0c99 193f 447a 223f 363b 053f fcc2 0a3f
00000060: bfef 1f3f 645e 183f 7ca7 0b3f 690a 1c3f
00000070: 726a 013f c32d 2b3f b2f7 263f 0b5a 173f
00000080: a8c9 1c3f d3de 123f fd70 253f e4c6 213f
00000090: 467f 053f 6ec0 243f 128e 0f3f 9bcf 173f

norm_input.bias f4 [40]
0.025356669 0.012418948 -0.023820562 0.024773441 0.01585144 0.07179544 0.028517092 0.036193974
-0.030773597 0.0014506294 -0.03278897 -0.006673022 -0.0076155127 0.041895557 0.014218526 0.019837812
-0.016977327 0.0031875647 0.014534601 -0.010631999 0.015122694 0.026972497 -0.0074589956 0.004085822
0.0053501227 0.011333361 0.016791862 -0.016556207 0.0029077504 0.009004421 0.01745315 -0.009879327
-0.013483859 -0.0014691653 -0.00027706433 0.0035661762 0.0049507734 0.038315386 0.0016775787 0.006262064
00000000: cab8 cf3c d878 4b3c 5723 c3bc acf1 ca3c
00000010: e1da 813c 7d09 933d ad9c e93c 2240 143d
00000020: e918 fcbc 0c23 be3a ba4d 06bd 5ea9 dabb
00000030: 8d8b f9bb ad9a 2b3d d2f4 683c e882 a23c
00000040: 0914 8bbc 76e6 503b 8922 6e3c d631 2ebc
00000050: 2dc5 773c 6df5 dc3c 976a f4bb 5ce2 853b
00000060: 1550 af3b 90af 393c 168f 893c e2a0 87bc
00000070: f58f 3e3b 4787 133c e9f9 8e3c e7dc 21bc
00000080: 67eb 5cbc 0291 c0ba f242 91b9 82b6 693b
00000090: 193a a23b 98f0 1c3d 33e2 db3a 0032 cd3b

norm_input.running_mean f4 [40]
-343.05386 114.51937 -56.22127 14.121638 -14.202059 -42.22456 -2.4855962 -21.541409
-16.26609 5.407832 -15.874233 -3.6544995 -0.57564217 -12.741576 -1.0042925 -5.524689
-10.140024 1.7010806 -8.69892 -5.650713 0.6257256 -6.0004535 0.3575888 2.0333488
-2.0145006 5.8991194 2.9154613 3.2712073 7.5994115 2.3020566 2.7545543 2.634546
-3.040229 -0.60208166 -3.9151437 -7.2315445 -5.4222784 -8.790396 -8.422406 -6.068873
00000000: e586 abc3 eb09 e542 95e2 60c2 3bf2 6141
00000010: a23b 63c1 f3e5 28c2 0214 1fc0 ce54 acc1
00000020: f420 82c1 f60c ad40 dcfc 7dc1 52e3 69c0
00000030: 495d 13bf 7fdd 4bc1 a88c 80bf 41ca b0c0
00000040: 8a3d 22c1 02bd d93f c72e 0bc1 a4d2 b4c0
00000050: 8e2f 203f b703 c0c0 e115 b73e 6322 0240
00000060: 94ed 00c0 96c5 bc40 eb96 3a40 765b 5140
00000070: 612e f340 e554 1340 9e4a 3040 679c 2840
00000080: 1d93 42c0 0622 1abf b791 7ac0 d068 e7c0
00000090: 4e83 adc0 76a5 0cc1 2dc2 06c1 3534 c2c0

norm_input.running_var f4 [40]
13788.217 4042.7808 2237.6614 894.1847 525.09875 768.6015 398.37988 296.8563
210.59384 184.56595 173.92491 116.31278 111.248184 143.44371 112.54804 98.15419
97.40849 84.10245 97.873604 81.92926 77.90875 79.06377 73.02483 68.995
68.35646 75.562035 62.993595 60.85392 67.932526 56.44635 51.945145 46.76494
43.850464 41.496803 42.13756 44.805386 41.635624 48.824673 43.21279 39.369488
00000000: de70 5746 7eac 7c45 95da 0b45 d28b 5f44
00000010: 5246 0344 7f26 4044 a030 c743 9b6d 9443
00000020: 0698 5243 e290 3843 c7ec 2d43 25a0 e842
00000030: 127f de42 9771 0f43 9918 e142 f24e c442
00000040: 26d1 c242 7434 a842 49bf c342 c8db a342
00000050: 48d1 9b42 a620 9e42 b70c 9242 71fd 8942
00000060: 82b6 8842 c31f 9742 71f9 7b42 6a6a 7342
00000070: 74dd 8742 10c9 6142 d4c7 4f42 4c0f 3b42
00000080: e066 2f42 bafc 2542 dd8c 2842 b738 3342
00000090: e18a 2642 774c 4342 e6d9 2c42 5b7a 1d42

transformer.norm.weight f4 [40]
0.9311262 1.140698 0.9624834 0.91286397 0.84110165 0.8971112 0.682641 0.7797282
0.73170924 0.7327052 0.8290118 0.7760853 0.745689 0.73200506 0.6170662 0.6289433
0.7699926 0.5642058 0.56432194 0.5402758 0.43895322 0.48121443 0.342263 0.3588088
0.472231 0.42809284 0.37872052 0.4630588 0.32988387 0.54733014 0.5277851 0.42582762
0.46631616 0.4027724 0.4969326 0.49662828 0.3580743 0.50001925 0.38995478 0.45727476
00000000: 495e 6e3f 6402 923f 5065 763f 74b1 693f
00000010: 7052 573f 14a9 653f 90c1 2e3f 449c 473f
00000020: 4c51 3b3f 9192 3b3f 1e3a 543f 87ad 463f
00000030: 79e5 3e3f af64 3b3f 0df8 1d3f 6e02 213f
00000040: 3c1e 453f cb6f 103f 6777 103f 844f 0a3f
00000050: 7abe e03e bd61 f63e 193d af3e c9b5 b73e
00000060: 43c8 f13e fc2e db3e a8e7 c13e 0b16 ed3e
00000070: 8ae6 a83e d41d 0c3f ed1c 073f 1406 da3e
00000080: fec0 ee3e 2f38 ce3e f36d fe3e 1046 fe3e
00000090: 8455 b73e 4301 003f 27a8 c73e eb1f ea3e

transformer.norm.bias f4 [40]
-0.051089842 -0.3204753 -0.06628803 0.07739956 0.118234955 0.05963436 -0.0063578696 0.07302657
0.17698042 0.08118004 -0.0015441594 0.039702762 0.11892886 0.05888346 0.08773763 -0.018339366
0.057543077 -0.04140005 -0.03199926 0.032296035 0.004009143 0.017680548 0.04252418 0.020612948
0.010743884 -0.011368294 -0.032259203 -0.029938757 -0.024199773 -0.015235382 -0.12687239 -0.0046809837
0.0021411125 -0.028971514 0.01748054 0.041946262 0.007392421 0.12885216 0.04764108 0.09367222
00000000: 9543 51bd 5715 a4be 05c2 87bd a983 9e3d
00000010: 2b25 f23d 2943 743d ad55 d0bb f48e 953d
00000020: 5b3a 353e b941 a63d 6465 caba 5d9f 223d
00000030: f990 f33d c82f 713d c9af b33d 703c 96bc
00000040: 4ab2 6b3d 1993 29bd a811 03bd d948 043d
00000050: 215f 833b ccd6 903c d62d 2e3d 7cdc a83c
00000060: 1e07 303c 1542 3abc 3a22 04bd 2042 f5bc
00000070: 9a3e c6bc d39d 79bc d6ea 01be f062 99bb
00000080: e851 0c3b ab55 edbc 5933 8f3c d8cf 2b3d
00000090: 1f3c f23b d2f1 033e 4b23 433d 39d7 bf3d

transformer.norm.running_mean f4 [40]
0.025171842 0.012194207 -0.024094306 0.024743283 0.015823008 0.07164378 0.028415438 0.036135375
-0.030713132 0.0015894768 -0.032816857 -0.0067462493 -0.0076820753 0.041981496 0.014226349 0.019864736
-0.016927348 0.0030601518 0.014639925 -0.010668518 0.0150960265 0.026869806 -0.007405849 0.0041244277
0.0052900002 0.011373741 0.016898906 -0.016691806 0.0029436273 0.009011956 0.01727489 -0.009874756
-0.013479432 -0.0016097393 -0.00022426402 0.0035404067 0.0049600974 0.03840174 0.0016395608 0.006224635
00000000: 2e35 ce3c 36ca 473c 6c61 c5bc 6db2 ca3c
00000010: 419f 813c f9b9 923d 7ec7 e83c b002 143d
00000020: 1b9a fbbc fe55 d03a f86a 06bd a40f ddbb
00000030: ebb9 fbbb caf4 2b3d a215 693c 5fbb a23c
00000040: 39ab 8abc d48c 483b 4cdc 6f3c 02cb 2ebc
00000050: 5355 773c 111e dc3c c4ac f2bb 3526 873b
00000060: bd57 ad3b ed58 3a3c 936f 8a3c 41bd 88bc
00000070: dfe9 403b e2a6 133c 1284 8d3c bbc9 21bc
00000080: d6d8 5cbc e3fd d2ba 6a28 6bb9 2b06 683b
00000090: 5088 a23b 254b 1d3d 88e6 d63a 06f8 cb3b

transformer.norm.running_var f4 [40]
0.9594636 1.2429062 1.031378 0.91540474 0.8129032 0.8735194 0.59119546 0.7129119
0.668659 0.65510404 0.7539178 0.7084186 0.6797487 0.64729846 0.5238765 0.52962285
0.6988769 0.46497542 0.47195268 0.456009 0.3620607 0.40382314 0.27041227 0.29409048
0.39079735 0.35557377 0.2973202 0.37208092 0.25604227 0.4519063 0.42899168 0.3529772
0.37646735 0.3292438 0.41750205 0.4014458 0.27273437 0.41392004 0.3134308 0.3510011
00000000: 689f 753f 8d17 9f3f 3204 843f f757 6a3f
00000010: 6d1a 503f f89e 5f3f 9658 173f 6581 363f
00000020: 3c2d 2b3f e6b4 273f c200 413f ec5a 353f
00000030: 0304 2e3f 5ab5 253f c51c 063f 5d95 073f
00000040: 99e9 323f 4211 ee3e c8a3 f13e 037a e93e
00000050: 0560 b93e e8c1 ce3e 7a73 8a3e 0793 963e
00000060: 9716 c83e c40d b63e 5a3a 983e 6481 be3e
00000070: f917 833e 4360 e73e cca4 db3e 6db9 b43e
00000080: 54c0 c03e a592 a83e d4c2 d53e 4e8a cd3e
00000090: d7a3 8b3e 54ed d33e 007a a03e 6bb6 b33e

transformer.position_encoding.pe f4 [1, 384, 32]
0.0 1.0 0.0 1.0 0.0 1.0 0.0 1.0
0.0 1.0 0.0 1.0 0.0 1.0 0.0 1.0
0.0 1.0 0.0 1.0 0.0 1.0 0.0 1.0
0.0 1.0 0.0 1.0 0.0 1.0 0.0 1.0
0.84147096 0.54030234 0.6132621 0.78987944 0.42217454 0.9065146 0.28378236 0.9588887
0.18881854 0.982012 0.12507936 0.99214673 0.08269767 0.9965747 0.054630887 0.9985066
0.03607656 0.999349 0.023820078 0.9997163 0.015726473 0.9998763 0.010382606 0.9999461
0.006854498 0.9999765 0.0045252484 0.99998975 0.002987503 0.9999955 0.001972303 0.99999803
0.9092974 -0.41614684 0.9688063 0.24781913 0.7654147 0.6435373 0.5442314 0.83893514
0.37084416 0.92869514 0.24819419 0.9687103 0.16482879 0.98632216 0.1090986 0.99403095
0.07210615 0.99739695 0.04762664 0.9988652 0.031449057 0.99950534 0.020764092 0.9997844
0.013708673 0.999906 0.009050404 0.99995905 0.0059749796 0.9999822 0.003944598 0.99999225
0.14112 -0.9899925 0.9172183 -0.398385 0.9655447 0.26023728 0.7599324 0.6500021
0.53952825 0.84196746 0.36741075 0.9300588 0.24583074 0.9693128 0.16324046 0.98658633
0.10804187 0.99414635 0.07140618 0.9974473 0.047163863 0.9988872 0.03114334 0.99951494
0.020562205 0.9997886 0.013575374 0.99990785 0.008962402 0.9999598 0.005916878 0.9999825
-0.7568025 -0.6536436 0.4801775 -0.87717134 0.98514587 -0.17171948 0.9131497 0.4076243
0.6888023 0.72494924 0.4808565 0.8767993 0.3251486 0.9456629 0.21689476 0.976195
0.14383692 0.98960143 0.09514519 0.9954634 0.062867 0.9980219 0.04151923 0.9991377
0.02741477 0.99962413 0.018100066 0.9998362 0.011949746 0.9999286 0.007889135 0.9999689
-0.9589243 0.2836622 -0.15865365 -0.9873343 0.8205534 -0.5715698 0.99128556 0.1317305
0.813296 0.5818502 0.58674973 0.8097683 0.402239 0.91553473 0.26990128 0.962888
0.17944469 0.98376805 0.118830204 0.99291456 0.078554586 0.9969098 0.051890645 0.99865276
0.034266047 0.9994127 0.022624388 0.99974406 0.014936983 0.9998884 0.009861361 0.99995136
-0.2794155 0.96017027 -0.730812 -0.6825788 0.5025415 -0.8645531 0.98791534 -0.15499443
0.90853053 0.41781852 0.68342716 0.7300187 0.47657377 0.8791345 0.32210162 0.9467051
0.21481885 0.97665393 0.1424478 0.9898023 0.094222754 0.9955511 0.062256467 0.99806017
0.041115716 0.9991544 0.027148247 0.9996314 0.017924085 0.99983937 0.011833549 0.99992996
0.6569866 0.75390226 -0.9958531 -0.09097567 0.09056887 -0.9958902 0.9033162 -0.4289753
0.97107977 0.23875536 0.7693703 0.63880306 0.5476437 0.83671165 0.37333995 0.9276946
0.24991333 0.9682682 0.16598454 0.98612833 0.10986761 0.99394625 0.07261557 0.99736
0.047963448 0.9988491 0.03167155 0.9994983 0.020911029 0.9997813 0.01380569 0.9999047
00000000: 0000 0000 0000 803f 0000 0000 0000 803f
00000010: 0000 0000 0000 803f 0000 0000 0000 803f
00000020: 0000 0000 0000 803f 0000 0000 0000 803f
00000030: 0000 0000 0000 803f 0000 0000 0000 803f
00000040: 0000 0000 0000 803f 0000 0000 0000 803f
00000050: 0000 0000 0000 803f 0000 0000 0000 803f
00000060: 0000 0000 0000 803f 0000 0000 0000 803f
00000070: 0000 0000 0000 803f 0000 0000 0000 803f
00000080: a46a 573f 4151 0a3f bffe 1c3f 8a35 4a3f
00000090: 4327 d83e 5711 683f ec4b 913e bb79 753f
000000a0: a659 413e 2365 7b3f ce14 003e 54fd 7d3f
000000b0: 655d a93d 851f 7f3f a3c4 5f3d 219e 7f3f
000000c0: 04c5 133d 56d5 7f3f 5322 c33c 68ed 7f3f
000000d0: ced4 803c e5f7 7f3f ce1b 2a3c 78fc 7f3f
000000e0: b29b e03b 76fe 7f3f 8948 943b 54ff 7f3f
000000f0: fcc9 433b b5ff 7f3f c141 013b dfff 7f3f
00000100: b7c7 683f 3311 d5be b103 783f 4cc4 7d3e
00000110: 38f2 433f dcbe 243f c052 0b3f 74c4 563f
00000120: 49df bd3e f7be 6d3f 9e26 7e3e 66fd 773f
00000130: e1c8 283e 9c7f 7c3f 166f df3d d078 7e3f
00000140: 64ac 933d 6855 7f3f 2714 433d a1b5 7f3f
00000150: bad0 003d 95df 7f3f 7519 aa3c dff1 7f3f
00000160: 589a 603c d7f9 7f3f 2548 143c 51fd 7f3f
00000170: c3c9 c33b d5fe 7f3f b041 813b 7eff 7f3f
00000180: c381 103e 2670 7dbf d2ce 6a3f 1ef9 cbbe
00000190: f02d 773f d23d 853e ee8a 423f 8a66 263f
000001a0: 861e 0a3f 2e8b 573f 431d bc3e 5518 6e3f
000001b0: 0ebb 7b3e e224 783f 8228 273e ec90 7c3f
000001c0: 0e45 dd3d 6080 7e3f 673d 923d b558 7f3f
000001d0: e52e 413d 12b7 7f3f 5120 ff3c 36e0 7f3f
000001e0: 1272 a83c 25f2 7f3f 3f6b 5e3c f6f9 7f3f
000001f0: 0ad7 123c 5efd 7f3f 5fe2 c13b dafe 7f3f
00000200: cfbd 41bf 3055 27bf d3d9 f53e 4d8e 60bf
00000210: 8532 7c3f 3bd7 2fbe 2ec4 693f 22b4 d03e
00000220: 5955 303f 4696 393f d332 f63e eb75 603f
00000230: e179 a63e f716 723f a919 5e3e eae7 793f
00000240: fc49 133e 8556 7d3f 7bdb c23d b0d6 7e3f
00000250: 6ac0 803d 5d7e 7f3f 1110 2a3d 7dc7 7f3f
00000260: f194 e03c 5ee7 7f3f 9746 943c 44f5 7f3f
00000270: dec8 433c 52fb 7f3f 6e41 013c f6fd 7f3f
00000280: 107c 75bf 2c3c 913e 1a76 22be f1c1 7cbf
00000290: ca0f 523f 6652 12bf e4c4 7d3f 5ce4 063e
000002a0: 2b34 503f 22f4 143f 3b35 163f fa4c 4f3f
000002b0: 45f2 cd3e 7c60 6a3f 8030 8a3e d47f 763f
000002c0: 59c0 373e 39d8 7b3f 405d f33d a62f 7e3f
000002d0: 3ae1 a03d 7b35 7f3f 498b 543d b5a7 7f3f
000002e0: 8e5a 0c3d 83d9 7f3f c856 b93c 3aef 7f3f
000002f0: 3fba 743c b0f8 7f3f 8c91 213c d0fc 7f3f
00000300: 8c0f 8fbe b8cd 753f 7f16 3bbf 7cbd 2ebf
00000310: 8fa6 003f 5a53 5dbf 05e8 7c3f dcb6 1ebe
00000320: 7595 683f 4fec d53e 15f5 2e3f 81e2 3a3f
00000330: 7a01 f43e f50e 613f 81ea a43e 445b 723f
00000340: 79f9 5b3e fe05 7a3f d6dd 113e af63 7d3f
00000350: dcf7 c03d 70dc 7e3f a300 7f3d df80 7f3f
00000360: f468 283d 95c8 7f3f 0066 de3c d8e7 7f3f
00000370: 88d5 923c 79f5 7f3f 80e1 413c 69fb 7f3f
00000380: 4630 283f bdff 403f 3bf0 7ebf 7451 babd
00000390: 2c7c b93d a9f2 7ebf bb3f 673f a7a2 dbbe
000003a0: af98 783f 497c 743e 74f5 443f 9988 233f
000003b0: 6132 0c3f bc32 563f 6a26 bf3e 657d 6d3f
000003c0: 48e9 7f3e 6de0 773f daf7 293e e872 7c3f
000003d0: 4502 e13d 4373 7e3f 79b7 943d fc52 7f3f
000003e0: 5275 443d 93b4 7f3f 07ba 013d 1fdf 7f3f
000003f0: 9b4d ab3c abf1 7f3f 4331 623c c1f9 7f3f

transformer.linear_proj.weight f4 [32, 40]
-0.008083303 -0.35082597 0.31845707 -0.34145185 -0.1485851 -0.93511516 -0.425928 0.34246108
0.6473379 0.33695647 0.040374976 0.16689523 -0.6240565 -0.5142546 -0.00024845253 0.5840239
-0.3071603 0.72161776 0.28321996 -0.6715085 0.39015254 0.045510925 -0.4507705 0.4219451
0.30392683 0.018966224 0.47095525 -0.24971274 0.016138664 0.17389819 0.013472296 0.16990712
0.37484315 0.1412266 0.27957883 -0.48577848 0.0094175255 0.25714907 -0.27305925 0.43643162
-0.39243227 0.14741704 -0.528743 -0.89902276 -0.013411252 -0.3110917 -0.19444436 -0.05589957
0.5581513 0.17899893 0.7036783 0.42000294 0.3298187 0.81854165 0.13292599 -0.20164563
-0.25787577 -0.0030314992 0.64781374 -0.054904122 0.19228022 0.118765295 0.010061183 0.091208845
0.081678 -0.7328025 -0.25899816 0.042262603 -0.20648225 0.5904524 -0.12362594 -0.6231437
-0.26197714 -0.22129402 0.6347762 0.76518923 0.3005097 0.565081 0.06773338 0.030002039
-0.09925215 0.24640128 -0.20582493 -0.09260508 0.39646488 -0.47490868 -0.30934998 0.755039
0.24468371 -0.2952091 -0.2736909 -0.028811777 -0.49205133 -0.011095903 -0.19392909 0.45763624
0.25646645 0.058797207 0.4396326 0.29644677 0.61957765 0.29687867 0.047575656 -0.32497576
-0.11305223 0.1578493 0.5098193 0.71104443 0.37292367 -0.18357174 0.05317779 -0.45670962
0.18902549 -0.15085714 -0.42570794 0.1912502 0.31678793 0.034201033 -0.21656336 -0.4581288
-0.32495332 0.23140895 -0.23917471 0.27342427 -0.13022955 -0.31815007 -0.45862535 0.11603554
0.30500865 -0.1721853 -0.60181266 0.10711434 -0.18766679 0.48580238 -0.2238006 0.1924619
-0.36094156 0.18064794 0.11861121 -0.23315798 0.33802667 0.10972282 -0.12400947 0.5001104
0.21735121 0.13811938 0.7389763 -0.12047266 0.23122667 -0.083635196 0.429076 -0.009052757
-0.42627516 -0.45497143 0.43053856 0.25122523 0.17702891 0.15562162 0.95065063 0.3366524
-0.25585765 0.4346226 0.10674398 -0.59371346 0.36695847 0.39205334 0.016244393 0.042889044
-0.36406296 0.28878722 0.24834271 0.91351926 -0.2976183 0.17319159 -0.10682355 0.44277668
-0.0042183814 -0.13458186 -0.7585913 -0.06880241 0.69118345 -0.32568043 -0.013272034 -0.2954766
-0.71303916 0.10429823 -0.016444895 -0.55826133 0.7618899 -0.6044536 0.1595133 0.15677422
0.12454385 -0.10104476 -0.057960853 -0.2099137 0.1375374 -0.010185702 0.2759564 -0.17415702
0.09679394 -0.51633555 0.19529183 -0.41841343 0.06917879 -0.14453186 -0.013829839 -0.5016611
-0.2876708 0.29438427 -0.16680053 0.31459847 0.064839214 0.054379337 -0.5289085 0.5149298
-0.42857736 -0.5158105 -0.18137588 -0.7020044 -0.4003107 -0.005693137 -0.027488038 0.25937468
-0.06586197 -0.35276294 -0.4001138 -0.3434602 -0.3613089 0.079327434 0.14492123 -0.0048952703
-0.08266294 -0.08804888 0.23945984 0.10584648 -0.113410704 0.42891455 -0.38694704 -0.28654158
0.11986412 -0.26992792 -0.3288365 0.16184476 0.41512948 -0.59812576 -0.43873096 0.23482554
-0.13868722 -0.28652734 0.1973941 -0.044345178 0.30091628 0.579667 -0.07261678 -0.06439204
00000000: d56f 04bc 769f b3be ce0c a33e c7d2 aebe
00000010: b126 18be b563 6fbf 3c13 dabe 0f57 af3e
00000020: f0b7 253f 8f85 ac3e 3b60 253d 95e6 2a3e
00000030: 2bc2 1fbf 31a6 03bf bc42 82b9 9782 153f
00000040: 1d44 9dbe f1bb 383f 3502 913e fbe7 2bbf
00000050: 13c2 c73e aa69 3a3d 64cb e6be 3009 d83e
00000060: 4c9c 9b3e 0e5f 9b3c 0c21 f13e b2b4 7fbe
00000070: 3b35 843c 5e12 323e e8ba 5c3c 22fc 2d3e
00000080: 71eb bf3e b59d 103e f524 8f3e f5b7 f8be
00000090: f74b 1a3c 0ba9 833e 6cce 8bbe f773 df3e
000000a0: e2ec c8be 7ef4 163e b45b 07bf 5b26 66bf
000000b0: deba 5bbc 6947 9fbe 6c1c 47be f3f6 64bd
000000c0: 01e3 0e3f 7f4b 373e 4324 343f a00a d73e
000000d0: ffdd a83e f28b 513f c01d 083e 317c 4ebe
000000e0: 4b08 84be 1eac 46bb 1fd7 253f 25e3 60bd
000000f0: 1be5 443e 383b f33d a9d7 243c b4cb ba3d
00000100: cc46 a73d f298 3bbf 689b 84be 8d1b 2d3d
00000110: 1570 53be e327 173f 992f fdbd 5886 1fbf
00000120: de21 86be e69a 62be b180 223f 71e3 433f
00000130: 68dc 993e 26a9 103f ccb7 8a3d d6c6 f53c
00000140: b644 cbbd 9e50 7c3e c5c3 52be bba7 bdbd
00000150: 72fd ca3e 3b27 f3be 1f63 9ebe 3c4a 413f
00000160: 5e8e 7a3e a625 97be 3721 8cbe ad06 ecbc
00000170: 27ee fbbe 97cb 35bc 5995 46be 4c4f ea3e
00000180: 924f 833e 57d5 703d 8617 e13e dfc7 973e
00000190: a49c 1e3f 7b00 983e b1de 423d 3963 a6be
000001a0: ed87 e7bd 3fa3 213e 8583 023f 0207 363f
000001b0: daef be3e 3bfa 3bbe f4d0 593d d8d5 e9be
000001c0: e68f 413e 4b7a 1abe 64f6 d9be 18d7 433e
000001d0: 0732 a23e 6216 0c3d c9c2 5dbe dc8f eabe
000001e0: 4860 a6be 78f6 6c3e 37ea 74be 44fe 8b3e
000001f0: e55a 05be 91e4 a2be f1d0 eabe 0ba4 ed3d
00000200: 182a 9c3e 5851 30be 6510 1abf c35e db3d
00000210: b92b 40be 17bb f83e fc2b 65be bb14 453e
00000220: 55cd b8be c6fb 383e 6fea f23d f7c0 6ebe
00000230: d511 ad3e 5cb6 e03d adf8 fdbd 3c07 003f
00000240: 5191 5e3e 2b6f 0d3e 8d2d 3d3f 5fba f6bd
00000250: afc6 6c3e ee48 abbd d9af db3e 0452 14bc
00000260: bd40 dabe 04f2 e8be 8d6f dc3e 98a0 803e
00000270: 1147 353e 465b 1f3e d75d 733f b45d ac3e
00000280: c6ff 82be da86 de3e 969c da3d 9bfd 17bf
00000290: fbe1 bb3e 37bb c83e f612 853c 6cac 2f3d
000002a0: 7666 babe ebdb 933e 8d4d 7e3e 66dc 693f
000002b0: 6d61 98be 2359 313e 4ec6 dabd a0b3 e23e
000002c0: 593a 8abb d4cf 09be 0a33 42bf 47e8 8cbd
000002d0: 66f1 303f 96bf a6be f272 59bc b548 97be
000002e0: bc89 36bf 4f9a d53d 72b7 86bc 37ea 0ebf
000002f0: 370b 433f 79bd 1abf 7457 233e 6c89 203e
00000300: d910 ff3d 8ef0 cebd 5c68 6dbd 9ef3 56be
00000310: 9bd6 0c3e eee1 26bc 284a 8d3e 3856 32be
00000320: e73b c63d 912e 04bf 95fa 473e 493a d6be
00000330: 9cad 8d3d 2900 14be 8d96 62bc dd6c 00bf
00000340: 9649 93be 89b9 963e c2cd 2abe 0d13 a13e
00000350: 6cca 843d debc 5e3d 8c66 07bf 70d2 033f
00000360: 7e6e dbbe 280c 04bf 99ba 39be 8fb6 33bf
00000370: 86f5 ccbe 7f8d babb 982e e1bc c2cc 843e
00000380: a4e2 86bd 589d b4be b7db ccbe 04da afbe
00000390: 7bfd b8be 6c76 a23d 3b66 143e 8168 a0bb
000003a0: 304b a9bd f952 b4bd f634 753e 0ac6 d83d
000003b0: df43 e8bd b09a db3e ec1d c6be 94b5 92be
000003c0: 527b f53d fe33 8abe 425d a8be a2ba 253e
000003d0: da8b d43e c51e 19bf 58a1 e0be 1b76 703e
000003e0: 0604 0ebe b6b3 92be ae21 4a3e 4aa3 35bd
000003f0: b311 9a3e 0e65 143f 1bb8 94bd f9df 83bd

transformer.linear_proj.bias f4 [32]
0.08622041 0.30515158 -0.27020687 -0.06420884 -0.09305055 -0.060249645 0.016841026 -0.15678807
-0.026588494 -0.05142951 -0.09309021 -0.23671906 -0.04475983 0.085113354 -0.12603313 0.018744554
-0.01991425 -0.041858874 -0.21890642 -0.105403915 -0.09166665 -0.055132426 0.05871439 -0.06257864
-0.2724719 -0.016784277 0.022174949 0.091392726 0.45170832 0.2336049 0.062379144 -0.102616236
00000000: 5494 b03d d43c 9c3e 8e58 8abe ed7f 83bd
00000010: 4991 bebd 55c8 76bd 31f6 893c 0d8d 20be
00000020: 1dd0 d9bc c0a7 52bd 14a6 bebd 7b66 72be
00000030: 1556 37bd e94f ae3d d40e 01be 2e8e 993c
00000040: 3623 a3bc 3674 2bbd 0129 60be 02de d7bd
00000050: b9bb bbbd 8ad2 61bd 807e 703d 3b29 80bd
00000060: 7081 8bbe 2e7f 89bc 3da8 b53c 1c2c bb3d
00000070: 5046 e73e 1f36 6f3e 4681 7f3d 7628 d2bd

transformer.transformer_encoder.layers.0.self_attn.in_proj_weight f4 [96, 32]
0.2683699 -0.35832268 0.17969306 0.24694732 -0.104871646 0.13239251 -0.097617105 0.22749619
0.13448837 -0.12685353 0.09380117 0.018777486 0.07513791 -0.22333951 0.16185479 0.21658655
0.19746783 -0.26476103 -0.072213955 -0.2274584 -0.05123131 0.10193515 0.049740493 -0.4747634
0.2972002 -0.19275759 -0.007369566 0.15965743 -0.03612446 0.2595596 -0.066218406 0.3514729
0.12342354 0.26411206 -0.19421084 0.18606655 -0.4003688 0.0026913246 -0.042024616 0.14063092
-0.32745105 0.2079534 -0.03484624 -0.2780724 -0.14726718 -0.10284091 -0.08469449 0.2127217
0.009907592 -0.13066852 0.01968274 -0.12196497 -0.03041505 -0.2120086 -0.28133926 -0.014588918
0.31229812 -0.049067117 0.0395755 0.29363507 0.018396033 0.0006001047 -0.14152937 -0.16166942
0.06920824 0.12503321 0.08577653 0.27636996 -0.10016673 -0.08820875 -0.1985881 0.18433562
-0.095090516 -0.16786861 -0.025532281 0.22453642 -0.09665724 -0.20939866 0.18072058 0.25373465
-0.32847995 0.09076905 -0.6082288 -0.29208124 -0.108101 -0.49961 -0.0036005466 -0.36554146
0.04102338 -0.122074746 -0.19906908 -0.041381337 0.023791661 -0.14159045 -0.063182816 -0.0038430248
0.2320203 -0.07578674 -0.3045018 0.04603386 -0.23962979 0.27935085 0.06079121 0.040736485
-0.108690076 -0.01171998 -0.08915765 -0.36987346 -0.012004477 0.068119615 0.26444253 -0.047365524
0.04795393 0.1291459 -0.09392545 -0.0904562 -0.038724393 0.16152325 0.14550325 0.35097882
0.1380555 0.21790001 -0.17713074 0.15694343 -0.34198982 0.17309913 -0.15761895 0.082992256
0.047542468 -0.03940539 0.2682197 0.26229978 -0.07003347 0.038767967 -0.094221815 0.13327445
-0.09237046 0.06627513 -0.21484457 0.20662402 -0.0073343515 -0.0035928392 0.0527713 0.011468266
0.07057987 0.49810052 -0.0037545818 0.044378065 0.2684238 0.20857973 -0.2316271 0.11782057
-0.24046361 -0.32121867 -0.18088657 0.2425864 -0.16154177 -0.07122917 0.1287282 -0.14573584
0.28693464 0.036262996 0.1243309 0.3891031 0.25184527 0.14150685 -0.09444186 0.09062539
-0.058065932 0.080147676 0.00515688 0.043175545 0.0715662 0.11346442 -0.0915641 0.01634467
0.12870868 0.28765538 -0.08254881 0.28000224 0.3196038 -0.24553202 0.20545036 0.32329854
-0.24208277 0.01225033 0.36026412 -0.011708201 0.016573014 0.0034387992 0.23079802 0.32473972
0.07249888 -0.1408183 -0.35167488 -0.16528714 0.09589426 0.1695191 0.12758599 0.19731762
0.34427077 0.051833324 -0.014821742 -0.196784 -0.4059849 0.09958024 -0.029354531 0.2579586
-0.05584167 0.20140566 -0.07006316 0.0068780635 0.07622973 -0.22671856 0.1791041 -0.269212
-0.17817745 -0.04438362 0.120892815 -0.25481844 0.15585396 0.17251103 -0.3482282 0.46405095
0.10851533 -0.023712333 0.065874636 0.03467566 0.024407381 0.23804104 0.008662211 0.117611796
0.105511025 -0.07129541 -0.03199442 -0.27471897 0.23117882 0.12798482 0.13539399 0.26696828
-0.067140624 0.113618866 0.31124547 0.02788832 -0.37758926 0.5097901 -0.096201725 -0.46168151
0.22296251 -0.23655276 0.07419706 -0.17187725 0.049433324 -0.12504034 0.050797004 -0.05159657
00000000: c867 893e 1276 b7be 7501 383e c2df 7c3e
00000010: f2c6 d6bd e791 073e 7aeb c7bd c3f4 683e
00000020: 52b7 093e e4e5 01be d41a c03d 3ed3 993c
00000030: e8e1 993d 1db3 64be 43bd 253e ddc8 5d3e
00000040: 0235 4a3e c28e 87be e9e4 93bd dbea 68be
00000050: ecd7 51bd 60c3 d03d b0bc 4b3d 3014 f3be
00000060: a02a 983e 3f62 45be 667c f1bb 3d7d 233e
00000070: 3ef7 13bd ffe4 843e 849d 87bd 42f4 b33e
00000080: 7bc5 fc3d b239 873e 35df 46be 3b88 3e3e
00000090: 24fd ccbe ef60 303b 0122 2cbd 8d01 103e
000000a0: aaa7 a7be bcf1 543e eeba 0ebd 815f 8ebe
000000b0: 35cd 16be 419e d2bd 4e74 adbd b8d3 593e
000000c0: 7453 223c f8cd 05be b33d a13c c5c8 f9bd
000000d0: fc28 f9bc c818 59be b30b 90be 5b06 6fbc
000000e0: 8ae5 9f3e 9afa 48bd eb19 223d 5657 963e
000000f0: 47b3 963c 5850 1d3a 13ed 10be ab8c 25be
00000100: 0dbd 8d3d b508 003e 9bab af3d 5d80 8d3e
00000110: 3724 cdbd caa6 b4bd ae5a 4bbe 7ac2 3c3e
00000120: d1be c2bd c0e5 2bbe 1329 d1bc e0ec 653e
00000130: 3bf4 c5bd 9a6c 56be d10e 393e 82e9 813e
00000140: 862e a8be 20e5 b93d e2b4 1bbf ac8b 95be
00000150: 0f64 ddbd e2cc ffbe 26f7 6bbb 4028 bbbe
00000160: 2208 283d 5302 fabd c4d8 4bbe 7a7f 29bd
00000170: bbe6 c23c 16fd 10be fe65 81bd 42db 7bbb
00000180: bb96 6d3e 1436 9bbd a9e7 9bbe 008e 3c3d
00000190: 8361 75be 1307 8f3e 3400 793d 4ddb 263d
000001a0: e798 debd 2905 40bc 4998 b6bd 0e60 bdbe
000001b0: 6dae 44bc 4c82 8b3d 0365 873e 5a02 42bd
000001c0: 576b 443d d33e 043e fd5b c0bd 1a41 b9bd
000001d0: 789d 1ebd 5a66 253e cefe 143e 7fb3 b33e
000001e0: 6c5e 0d3e 2e21 5f3e c361 35be c7b5 203e
000001f0: 4a19 afbe e640 313e dd66 21be d8f7 a93d
00000200: e4bb 423d 8c67 21bd 1854 893e 284c 863e
00000210: b56d 8fbd 29cb 1e3d 5ef7 c0bd 1979 083e
00000220: b92c bdbd 41bb 873d 3700 5cbe 3f95 533e
00000230: 0055 f0bb d775 6bbb b826 583d 65e5 3b3c
00000240: 2e8c 903d 0807 ff3e 6e0f 76bb c6c5 353d
00000250: d86e 893e ed95 553e a82f 6dbe e94b f13d
00000260: 183c 76be c676 a4be 543a 39be 9268 783e
00000270: 356b 25be 99e0 91bd 53d1 033e c73b 15be
00000280: 19e9 923e 8288 143d 33a1 fe3d 8638 c73e
00000290: ddf1 803e 2ce7 103e bc6a c1bd ce99 b93d
000002a0: 8bd6 6dbd 7724 a43d 0bfb a83b d7d8 303d
000002b0: 4d91 923d 0960 e83d f585 bbbd 42e5 853c
000002c0: 35cc 033e 9147 933e 5a0f a9bd 745c 8f3e
000002d0: 1ca3 a33e bf6c 7bbe 9461 523e 6387 a53e
000002e0: 8ce4 77be 9cb5 483c 8a74 b83e c1d3 3fbc
000002f0: 21c4 873c 7a5d 613b 5156 6c3e 4944 a63e
00000300: 4b7a 943d ac32 10be bb0e b4be 0841 29be
00000310: 3664 c43d 6a96 2d3e e7a5 023e a10d 4a3e
00000320: 4244 b03e 2e4f 543d e4d6 72bc bf81 49be
00000330: 41dd cfbe baf0 cb3d ea78 f0bc 2613 843e
00000340: 3cba 64bd 493d 4e3e 467d 8fbd 6161 e13b
00000350: 551e 9c3d e928 68be 1167 373e 28d6 89be
00000360: 2674 36be 99cb 35bd a796 f73d 9077 82be
00000370: 2e98 1f3e bba6 303e f74a b2be 1698 ed3e
00000380: 493d de3d 5e40 c2bc 48e9 863d 1108 0e3d
00000390: fdf1 c73c 08c1 733e f2eb 0d3c 74de f03d
000003a0: 2a16 d83d 5403 92bd 950c 03bd f7a7 8cbe
000003b0: 24ba 6c3e 740e 033e b9a4 0a3e 11b0 883e
000003c0: 0681 89bd 02b1 e83d 915b 9f3e 0c76 e43c
000003d0: 6153 c1be 9b81 023f 6905 c5bd 8561 ecbe
000003e0: 4950 643e e33a 72be a1f4 973d 9700 30be
000003f0: 997a 4a3d 930a 00be 8510 503d ed56 53bd

transformer.transformer_encoder.layers.0.self_attn.in_proj_bias f4 [96]
-0.019736286 -0.14889966 -0.28137204 -0.04316626 0.019717535 0.1263345 0.030943498 0.003506576
0.3830284 -0.11106757 -0.045963936 0.46777013 -0.54907054 0.19232976 0.33028224 0.106509835
-0.62850136 -0.14906418 -0.42919585 -0.22173569 0.0061720987 -0.044430915 -0.41581798 0.2612499
-0.40360376 -0.14471155 -0.049692087 -0.12957466 0.15783693 -0.2249948 -0.2705853 -0.23979765
0.14626127 -0.39709726 -0.10493349 -0.13599297 0.4369819 0.57435066 -0.063358776 0.21819748
-0.1389044 0.060030457 0.4142056 0.44852012 0.18002737 0.30003363 -0.3840485 0.6060259
-0.2291515 0.07979827 0.3572174 0.5260304 0.00220132 -0.2294013 -0.11502095 -0.34772083
0.10995194 -0.1499837 -0.027046362 0.18170065 0.13346988 0.38806283 -0.038746264 0.24223492
0.020167224 -0.21634081 -0.29493788 -0.21728493 -0.102440305 0.0254424 -0.07152041 -0.0800391
0.049268667 -0.03955196 0.0966439 0.044262066 0.07729074 0.23694411 -0.21145345 0.015089063
0.08937055 -0.38547984 0.00020409253 0.09379601 -0.04485811 -0.091637604 0.025058916 -0.04184878
-0.20977926 0.15938173 0.36763522 -0.10643196 -0.08425761 0.11163572 0.024118388 0.015643725
00000000: fead a1bc 2779 18be ff0f 90be 1bcf 30bd
00000010: ab86 a13c d55d 013e 387d fd3c 95ce 653b
00000020: 4c1c c43e 6577 e3bd ae44 3cbd 917f ef3e
00000030: e38f 0cbf 18f2 443e c11a a93e d421 da3d
00000040: 77e5 20bf 48a4 18be 8fbf dbbe ae0e 63be
00000050: 513f ca3b 31fd 35bd 18e6 d4be 8cc2 853e
00000060: 27a5 cebe 442f 14be ee89 4bbd 38af 04be
00000070: 01a0 213e 0965 66be 288a 8abe 848d 75be
00000080: 84c5 153e 5550 cbbe 5fe7 d6bd be41 0bbe
00000090: 17bc df3e a508 133f 3fc2 81bd 296f 5f3e
000000a0: f43c 0ebe 7fe2 753d c212 d43e 6ea4 e53e
000000b0: 1859 383e 029e 993e 01a2 c4be 8324 1b3f
000000c0: b1a6 6abe 466d a33d 33e5 b63e eea9 063f
000000d0: 0544 103b 2de8 6abe 1b90 ebbd 7708 b2be
000000e0: 7c2e e13d 5495 19be 5590 ddbc bc0f 3a3e
000000f0: 54ac 083e 2cb0 c63e 67b4 1ebd 6e0c 783e
00000100: bc35 a53c 7288 5dbe 1902 97be f17f 5ebe
00000110: 39cc d1bd 946c d03c 4b79 92bd 8aeb a3bd
00000120: f1cd 493d 3c01 22bd 3ded c53d 244c 353d
00000130: 9c4a 9e3d 7aa1 723e 4187 58be 1e38 773c
00000140: e807 b73d 9d5d c5be ac01 5639 1f18 c03d
00000150: 23bd 37bd 7fac bbbd 5b48 cd3c a069 2bbd
00000160: 60d0 56be f734 233e af3a bc3e 00f9 d9bd
00000170: 418f acbd 45a1 e43d ed93 c53c 4527 803c

transformer.transformer_encoder.layers.0.self_attn.out_proj.weight f4 [32, 32]
0.07219035 -0.08490128 -0.26951432 -0.01592316 0.015983583 -0.056211554 -0.1418048 -0.0671452
-0.013062228 -0.024793351 -0.11426318 -0.07012701 -0.12965034 -0.033117633 -0.16900378 -0.10416251
-0.028647227 0.10183111 -0.17937312 -0.064324655 -0.0845529 0.1389999 -0.08832969 -0.07217728
-0.19644344 -0.04269214 0.024930565 0.008132191 -0.04866948 0.050125174 -0.105277136 0.11868043
-0.027199227 0.15587349 -0.18974079 0.07058173 0.009024571 0.049547244 0.06123335 -0.05591817
-0.16678244 0.03951824 0.08675622 0.001791589 -0.0029128923 0.23216908 -0.14692786 -0.0061614052
-0.032686703 -0.12151565 -0.010821281 -0.050567295 -0.06423726 0.08472108 0.06863217 0.0031124265
-0.1078959 -0.009722397 0.07275526 0.0050320253 -0.016116388 -0.003841606 0.0013330725 0.04424596
-0.004575737 0.26493204 0.31290725 0.030541897 0.010562405 0.09414493 0.039645016 0.17134725
0.03785183 0.028312976 -0.06512805 -0.08227541 -0.07243688 -0.07978128 0.2279464 -0.0020273642
0.0882753 0.19804725 0.011001403 0.033826876 -0.06809103 0.1296648 0.042423394 -0.10642478
0.2692523 -0.05721575 -0.17172822 -0.0013311645 0.040878635 0.039682403 -0.07222882 0.038145415
0.09440752 -0.092907816 -0.007858133 0.052792713 -0.15951827 0.10758306 -0.38891047 0.030688759
-0.11775191 0.09985634 -0.04527912 -0.17348424 0.056018643 -0.20057653 0.090350054 -0.0069194366
-0.052085757 0.112345956 -0.09862792 0.20834357 -0.057843767 0.042970676 -0.11465567 0.0055573164
-0.32313922 0.011659066 -0.088844195 -0.12265553 -0.027204566 -0.19028965 0.20778245 0.005194931
0.049362086 -0.2644893 0.16374552 -0.09540811 0.023896601 -0.13491277 0.045969058 -0.023621298
-0.23099115 -0.12124026 -0.068802804 -0.033482376 0.048030328 -0.13762718 0.101302825 -0.06144844
-0.11303372 0.10827908 -0.16050047 -0.102118105 -0.03686282 -0.23643468 -0.05355095 -0.011025427
0.0020128048 0.078990735 0.015254555 -0.044613298 -0.020051647 -0.11117371 0.04279667 -0.053744398
0.09528452 -0.04981961 0.15049455 0.15286632 -0.18276437 -0.07923408 -0.05650483 0.07698697
-0.16870356 -0.12676248 0.07445344 0.38372913 -0.009808487 -0.075335346 -0.087815374 -0.011259763
-0.06444842 0.27060404 0.12694243 -0.07932073 0.0047291466 0.03254466 0.15092286 -0.14400443
-0.25898802 0.00417946 -0.10803416 -0.05315059 -0.051119532 -0.10752069 0.07836914 -0.20335981
-0.043288626 0.00544405 0.045538384 0.08977364 -0.114581205 0.11295116 0.3439632 0.13279268
0.10406363 -0.15570472 -0.04973158 -0.028294612 0.06759955 0.15747313 -0.12140507 -0.060243335
0.27076343 -0.055736754 0.06511878 -0.07401376 0.049685657 0.074730836 -0.07767635 0.0015801388
0.037183844 0.03842748 0.15384479 0.1570874 0.03460975 -0.11282554 0.22471532 0.09165894
-0.056831475 -0.04028853 -0.03862635 0.32751372 0.12415736 -0.058535688 0.10984076 -0.034902308
0.20472524 0.049342714 0.065466136 -0.13782857 0.06552728 -0.16012004 0.16107135 -0.062279187
-0.032846652 -0.010226375 0.050580975 -0.07779065 -0.029823909 0.1846063 -0.05016831 0.123465784
0.11159476 -0.025585981 0.036907677 0.03922152 -0.05152257 -0.11533387 0.011298472 0.09254999
00000000: 89d8 933d b9e0 adbd c8fd 89be 4971 82bc
00000010: 01f0 823c 163e 66bd 4735 11be 6c83 89bd
00000020: f502 56bc 6d1b cbbc d002 eabd c09e 8fbd
00000030: 0fc3 04be 5ba6 07bd 540f 2dbe 2753 d5bd
00000040: 97ad eabc d48c d03d 96ad 37be a5bc 83bd
00000050: 122a adbd fd55 0e3e 32e6 b4bd afd1 93bd
00000060: 7828 49be f4dd 2ebd 2f3b cc3c e23c 053c
00000070: a659 47bd 0e50 4d3d 8a9b d7bd ba0e f33d
00000080: ead0 debc 4d9d 1f3e 694b 42be 278d 903d
00000090: cbdb 133c 0df2 4a3d d2cf 7a3d 730a 65bd
000000a0: 04c9 2abe e1dd 213d 3fad b13d c0d3 ea3a
000000b0: 39e6 3ebb bbbd 6d3e 4274 16be 9de5 c9bb
000000c0: 7ee2 05bd 32dd f8bd be4b 31bc a71f 4fbd
000000d0: d38e 83bd 3f82 ad3d 068f 8c3d daf9 4b3b
000000e0: 87f8 dcbd b04a 1fbc b600 953d b0e3 a43b
000000f0: 8406 84bc 74c3 7bbb 7eba ae3a 403b 353d
00000100: 10f0 95bb 2ca5 873e 6135 a03e 0033 fa3c
00000110: f00d 2d3c 0fcf c03d d062 223d a775 2f3e
00000120: 850a 1b3d 9df0 e73c db61 85bd 0380 a8bd
00000130: c959 94bd 5e64 a3bd c86a 693e 87dd 04bb
00000140: aec9 b43d e6cc 4a3e 3b3f 343c 0d8e 0a3d
00000150: 4f73 8bbd d9c6 043e 27c4 2d3d 3cf5 d9bd
00000160: 70db 893e 105b 6abd 86d9 2fbe 787a aeba
00000170: 5b70 273d 048a 223d b4ec 93bd 5e3e 1c3d
00000180: bb58 c13d 7446 bebd 66bf 00bc 2c3d 583d
00000190: c258 23be 8254 dc3d 461f c7be fe66 fb3c
000001a0: ea27 f1bd 7b81 cc3d 9976 39bd daa5 31be
000001b0: ce73 653d ef63 4dbe 7309 b93d 71bc e2bb
000001c0: e057 55bd a315 e63d 6ffd c9bd 0458 553e
000001d0: 96ed 6cbd 0502 303d 98d0 eabd 261a b63b
000001e0: 8172 a5be ab05 3f3c f2f3 b5bd d332 fbbd
000001f0: 1cdc debc 4adb 42be ecc4 543e 3d3a aa3b
00000200: e62f 4a3d 246b 87be e8ac 273e 5465 c3bd
00000210: cec2 c33c 9326 0abe 0d4a 3c3d 7481 c1bc
00000220: f288 6cbe d04c f8bd 7ce8 8cbd d124 09bd
00000230: 73bb 443d 24ee 0cbe db77 cf3d 5cb1 7bbd
00000240: 397e e7bd 6cc1 dd3d 3c5a 24be 4c23 d1bd
00000250: 78fd 16bd ef1b 72be 3e58 5bbd fea3 34bc
00000260: 43e9 033b e5c5 a13d 3eee 793c 6fbc 36bd
00000270: 5a43 a4bc 0baf e3bd 904b 2f3d 1623 5cbd
00000280: 8824 c33d a60f 4cbd 3e1b 1a3e fd88 1c3e
00000290: 9526 3bbe 7a45 a2bd 9c71 67bd 58ab 9d3d
000002a0: a0c0 2cbe 06ce 01be 0c7b 983d 2578 c43e
000002b0: c7b3 20bc 6b49 9abd 8cd8 b3bd de7a 38bc
000002c0: 89fd 83bd 9d8c 8a3e 32fd 013e e872 a2bd
000002d0: f5f6 9a3b 8d4d 053d 868b 1a3e e675 13be
000002e0: 149a 84be daf3 883b 0441 ddbd 6fb4 59bd
000002f0: b762 51bd cf33 dcbd 0080 a03d 8e3d 50be
00000300: 6a4f 31bd 0064 b23b 7586 3a3d 3edb b73d
00000310: 8da9 eabd f052 e73d f21b b03e cefa 073e
00000320: 501f d53d 0f71 1fbe 57b3 4bbd 1aca e7bc
00000330: a271 8a3d a340 213e 39a3 f8bd b7c1 76bd
00000340: 81a1 8a3e 394c 64bd ff5c 853d 8794 97bd
00000350: 3083 4b3d 7b0c 993d c714 9fbd a91c cf3a
00000360: 164e 183d 2266 1d3d 7d89 1d3e 85db 203e
00000370: f4c2 0d3d 1411 e7bd c61b 663e afb7 bb3d
00000380: 1fc8 68bd 9605 25bd aa36 1ebd e1af a73e
00000390: 3746 fe3d 1ec3 6fbd 31f4 e03d b9f5 0ebd
000003a0: 7ea3 513e 961b 4a3d 1c13 863d ef22 0dbe
000003b0: 2b33 863d 82f6 23be e3ef 243e 7618 7fbd
000003c0: 368a 06bd 878c 27bc ff2d 4f3d b450 9fbd
000003d0: 4551 f4bc 6f09 3d3e 497d 4dbd a1db fc3d
000003e0: cb8b e43d b199 d1bc 812c 173d bfa6 203d
000003f0: 5509 53bd 2a34 ecbd 3a1d 393c d98a bd3d

transformer.transformer_encoder.layers.0.self_attn.out_proj.bias f4 [32]
0.3585899 0.7619846 -1.1928629 -0.8922305 -0.55500853 -0.2647034 -0.1217297 -0.8986004
0.124217086 -0.41714633 -0.1855883 -0.78301865 0.34599996 0.6109801 -0.03883872 0.26783472
0.14984193 -0.61892533 -0.53752536 -0.8688938 -0.67344666 -0.35346475 0.052886162 -0.2862045
-0.40592372 -0.36252603 0.3950753 0.5189174 0.9760511 0.8624129 0.19991387 0.88313967
00000000: 1899 b73e 6c11 433f bbaf 98bf 3869 64bf
00000010: 0a15 0ebf 3487 87be 6c4d f9bd ad0a 66bf
00000020: 8765 fe3d 3494 d5be dc0a 3ebe e973 48bf
00000030: e826 b13e 3169 1c3f 5a15 1fbd a221 893e
00000040: 2a70 193e e471 1ebf 439b 09bf d36f 5ebf
00000050: 0067 2cbf 55f9 b4be 299f 583d 6589 92be
00000060: 3cd5 cfbe 039d b9be 4f47 ca3e c5d7 043f
00000070: 7cde 793f 18c7 5c3f 39b6 4c3e 7115 623f

transformer.transformer_encoder.layers.0.linear1.weight f4 [64, 32]
0.31382975 -0.14572665 0.9861856 0.18098906 0.42267498 0.18925455 0.47977245 -0.017575182
-0.20459996 0.005779429 -0.36318222 0.012550771 0.20957284 -0.6355465 0.019142441 -0.44623375
0.4446247 0.04867078 0.36197472 -0.027987825 0.2242731 -0.46056825 -0.0734052 -0.064571045
-0.21501231 0.32156417 -0.06494298 -0.06537848 -0.4964121 -0.44820085 0.06221701 -0.39371848
-0.08521815 -0.13502067 0.5469112 0.2948849 0.20699053 -0.14579731 0.10106094 0.14347899
-0.14951529 -0.03514402 0.40957406 0.12026438 -0.3844677 -0.78364086 -0.016164359 0.014295194
0.59150493 -0.12744084 0.13430922 0.30390483 0.32535803 -0.23176989 -0.6527286 0.478668
-0.083825424 -0.33613247 -0.23349714 -0.25552028 -0.053015742 -0.42931795 0.24745077 -0.043947667
0.34013426 0.1825733 0.11496203 0.5233548 0.21253194 -0.08508651 -0.35674125 0.096549064
-0.09332097 -0.2645352 -0.047076672 0.23965377 -0.18091868 -0.22314768 -0.21883406 0.28812993
-0.013983832 -0.10612263 0.29693082 0.6750586 0.049983293 -0.16926274 -0.095169775 -0.6100757
-0.19825777 0.6567364 -0.27447578 0.0076063694 -0.44236797 -0.23359284 -0.3133475 0.29133365
-0.14156003 -0.15182008 0.49274796 0.3128757 0.3155437 0.38893738 0.24493706 0.2877028
-0.64621556 0.16460708 -0.42019373 0.37984592 -0.22660726 0.4327926 0.008986982 -0.5431593
-0.356091 0.18590665 -0.15931968 0.33099777 -0.3941323 0.13294779 0.3307556 -0.15796682
0.27345204 0.13785917 -0.5375132 -0.014748026 -0.06030682 -0.15554407 -0.3885688 -0.7254964
0.054205112 -0.46147874 0.00079202914 0.6464872 0.35915545 -0.20895222 -0.6835121 0.4510176
-0.08180891 0.44443128 0.3921131 -0.13508064 -0.019518062 0.09161329 0.5972401 0.3841204
-0.051424168 0.28918582 -0.13248628 0.77810603 -0.18058191 -0.27429575 0.049908437 0.56035286
-0.42127812 0.30869842 -0.10763785 -0.36651993 -0.29834303 -0.5256224 -0.40321168 -0.26966542
-0.3906812 -0.5941642 0.18163943 -0.22658817 0.28429994 -0.12095784 -0.13870177 -0.35760245
-0.45646316 0.19399504 0.24807505 0.5116059 -0.050150827 0.14489825 -0.5269147 0.18732585
0.22865498 0.25102764 -0.05967222 -0.48041713 0.20169081 -0.2049465 -0.3682548 -0.21672054
0.1145366 0.2600741 -0.19331549 0.23864418 0.07586769 -0.021686003 -0.20757492 0.2240285
-0.49608144 -0.24683306 0.028323153 0.033960063 0.3193123 -0.10721072 0.085602276 -0.2853012
0.64430404 0.7581636 0.16715385 0.40281254 0.29088366 -0.28070977 -0.0043255733 -0.4337714
-0.51159 -0.10484848 -0.056262396 0.09125994 0.29908836 0.73646677 0.00831522 -0.13686113
-0.3566609 -0.035411265 -0.42454633 0.22335783 0.10190689 -0.16751774 -0.23169675 -0.090048365
0.080806896 -0.48411992 -0.25061578 0.22309518 0.136296 0.14715753 0.55658734 0.022869611
-0.17154735 0.051776003 -0.15844226 -0.29195276 -0.14614622 -0.040354934 0.34676996 0.1577351
0.060192283 0.1153286 -0.22681479 -0.071816824 0.7612154 -0.17215574 -0.24296601 -0.13858044
0.1205157 -0.08503321 -0.18815102 0.17304786 0.05034206 0.0757947 -0.5550797 -0.31646526
00000000: 4bae a03e 5e39 15be a976 7c3f 3255 393e
00000010: db68 d83e f2cb 413e bca4 f53e d4f9 8fbc
00000020: a782 51be 5d61 bd3b 05f3 b9be c0a1 4d3c
00000030: 439a 563e 2db3 22bf 9cd0 9c3c c078 e4be
00000040: d9a5 e33e 035b 473d c054 b93e b946 e5bc
00000050: d9a7 653e 9acf ebbe 7755 96bd d33d 84bd
00000060: 302c 5cbe 0fa4 a43e d300 85bd 27e5 85bd
00000070: ba29 febe 957a e5be 43d7 7e3d 7895 c9be
00000080: da86 aebd dc42 0abe 5f02 0c3f 27fb 963e
00000090: 53f5 533e e44b 15be 0af9 ce3d 28ec 123e
000000a0: 891a 19be 2df3 0fbd b1b3 d13e 2c4d f63d
000000b0: f3d8 c4be b09c 48bf 1e6b 84bc 6436 6a3c
000000c0: de6c 173f da7f 02be 5b88 093e 6a99 9b3e
000000d0: 5495 a63e 1655 6dbe 3919 27bf f913 f53e
000000e0: aaac abbd 8e19 acbe e019 6fbe 8ed3 82be
000000f0: 0927 59bd 90cf dbbe bc63 7d3e 7802 34bd
00000100: 1426 ae3e 7ff4 3a3e 3671 eb3d 95fa 053f
00000110: f9a1 593e d641 aebd caa6 b6be 84bb c53d
00000120: 111f bfbd 2871 87be 78d3 40bd cc67 753e
00000130: bf42 39be d380 64be 0916 60be c485 933e
00000140: 711c 65bc d256 d9bd 5107 983e a4d0 2c3f
00000150: 48bb 4c3d 3653 2dbe 5fe8 c2bd ec2d 1cbf
00000160: 1604 4bbe e01f 283f 1788 8cbe da3e f93b
00000170: 0e7e e2be f632 6fbe 156f a0be af29 953e
00000180: 1df5 10be b976 1bbe 7649 fc3e 3e31 a03e
00000190: f28e a13e cd22 c73e c8d0 7a3e c84d 933e
000001a0: 626e 25bf c28e 283e a223 d7be 2a7b c23e
000001b0: bc0b 68be fe96 dd3e 223e 133c 7d0c 0bbf
000001c0: 8f51 b6be 505e 3e3e b324 23be 8a78 a93e
000001d0: b5cb c9be 7723 083e cc58 a93e 0ec2 21be
000001e0: e801 8c3e f42a 0d3e 779a 09bf b4a1 71bc
000001f0: 4904 77bd f246 1fbe 7df2 c6be 22ba 39bf
00000200: 2e06 5e3d f146 ecbe 2da0 4f3a 2f80 253f
00000210: 39e3 b73e 92f7 55be a6fa 2ebf c7eb e63e
00000220: 6e8b a7bd 7f8c e33e 0cc3 c83e 9452 0abe
00000230: 58e4 9fbc c09f bb3d bae4 183f 6eab c43e
00000240: 26a2 52bd 2a10 943e 7caa 07be f531 473f
00000250: 77ea 38be 7e70 8cbe ca6c 4c3d 4973 0f3f
00000260: c4b1 d7be b80d 9e3e 3c71 dcbd 80a8 bbbe
00000270: 6bc0 98be 318f 06bf c371 cebe 9611 8abe
00000280: 5e07 c8be 251b 18bf b0ff 393e bb06 68be
00000290: c38f 913e beb8 f7bd d607 0ebe ab17 b7be
000002a0: 8ab5 e9be a3a6 463e 6307 7e3e 9bf8 023f
000002b0: f46a 4dbd 3560 143e e2e3 06bf 59d2 3f3e
000002c0: 8824 6a3e b286 803e dc6a 74bd 3cf9 f5be
000002d0: 0988 4e3e 7fdd 51be e58b bcbe fdeb 5dbe
000002e0: 2a92 ea3d 6f28 853e 7ff4 45be 245f 743e
000002f0: 8560 9b3d d8a6 b1bc 858e 54be ba67 653e
00000300: 63fe fdbe cec1 7cbe f505 e83c b519 0b3d
00000310: e77c a33e 4b91 dbbd 3f50 af3d 0013 92be
00000320: 1cf1 243f 0217 423f 612a 2b3e 723d ce3e
00000330: b4ee 943e 31b9 8fbe 8abd 8dbb 4917 debe
00000340: 90f7 02bf cdba d6bd 6673 66bd 7ee6 ba3d
00000350: 1c22 993e 1689 3c3f 8f3c 083c 5325 0cbe
00000360: 429c b6be 670b 11bd 235e d9be eab7 643e
00000370: 8fb4 d03d c589 2bbe ea41 6dbe 476b b8bd
00000380: 167e a53d 91de f7be b650 80be 1073 643e
00000390: 2e91 0b3e 77b0 163e 827c 0e3f 0d59 bb3c
000003a0: 1caa 2fbe 1313 543d b03e 22be d57a 95be
000003b0: 5ba7 15be 374b 25bd d58b b13e 4f85 213e
000003c0: 2f8c 763d 6731 ec3d 2342 68be b314 93bd
000003d0: 03df 423f 9849 30be 15cc 78be 08e8 0dbe
000003e0: efd0 f63d e425 aebd a9aa 40be 7533 313e
000003f0: 7a33 4e3d 403a 9b3d b419 0ebf bc07 a2be

transformer.transformer_encoder.layers.0.linear1.bias f4 [64]
-0.32173988 -0.4032752 -0.22442113 -0.4572041 -0.35899955 -0.5010915 -0.41666776 -0.3326175
-0.525997 -0.38885984 -0.31688866 -0.55669045 -0.32936832 -0.4405942 -0.4803882 -0.35751033
-0.2644547 -0.17214479 -0.21368822 -0.35631672 -0.44364032 -0.46691778 -0.51542586 -0.28257048
-0.46155238 -0.3213879 -0.3105842 -0.2681909 -0.29941067 -0.37975463 -0.37391683 -0.2948782
-0.64871794 -0.40973788 -0.38962075 -0.29261318 -0.53913635 -0.40598 -0.2540844 -0.24356285
-0.40706727 -0.18332382 -0.34135976 -0.23191133 -0.46052033 -0.22104207 -0.33200473 -0.2942767
-0.3836628 -0.51345855 -0.32275626 -0.4808422 -0.43869698 -0.45622638 -0.29262063 -0.18977991
-0.44114703 -0.30364746 -0.312602 -0.30427837 -0.36976177 -0.30924538 -0.37207857 -0.4268765
00000000: 17bb a4be 167a cebe a7ce 65be a816 eabe
00000010: cace b7be 8847 00bf 7a55 d5be d74c aabe
00000020: bda7 06bf a318 c7be 3b3f a2be 4483 0ebf
00000030: f7a2 a8be 9095 e1be 71f5 f5be 980b b7be
00000040: 9b66 87be b946 30be 16d1 5abe 256f b6be
00000050: d324 e3be d90f efbe f3f2 03bf 14ad 90be
00000060: 9850 ecbe f48c a4be e404 9fbe 5150 89be
00000070: 5b4c 99be 336f c2be 0772 bfbe 47fa 96be
00000080: 6112 26bf 2ac9 d1be 5f7c c7be 65d1 95be
00000090: d704 0abf 9cdc cfbe 5a17 82be 8a68 79be
000000a0: 1f6b d0be 3db9 3bbe b5c6 aebe 2a7a 6dbe
000000b0: 52c9 ebbe da58 62be 86fc a9be 70ab 96be
000000c0: 736f c4be 0572 03bf 4f40 a5be f330 f6be
000000d0: e49c e0be 8196 e9be 5fd2 95be aa55 42be
000000e0: 06de e1be ae77 9bbe 5f0d a0be 60ca 9bbe
000000f0: 6a51 bdbe 6955 9ebe 1581 bebe 8e8f dabe

transformer.transformer_encoder.layers.0.linear2.weight f4 [32, 64]
-0.2145566 -0.36211497 0.09640962 0.05005596 -0.55750334 -0.03033045 0.13346666 -0.25571874
0.1442563 -0.28855377 0.18202005 0.20328046 0.39725086 -0.04146685 0.3110614 0.05947636
-0.002784767 -0.080034755 0.62973857 0.37367705 -0.43565 -0.39473748 -0.08802472 0.30277586
-0.55107987 0.05968833 -0.21455128 0.50823516 0.63909733 0.08165538 0.45454657 0.07407813
-0.12858832 0.3202045 0.83960265 -0.14407696 -0.025090538 0.085394666 0.31916484 -0.041347466
-0.5191242 -0.31698337 -0.045448992 -0.10891233 0.44230232 0.065345705 -0.029435921 -0.02476491
0.41567782 -0.20201986 -0.3398396 -0.58300257 -0.18338972 0.23641628 0.049392562 0.09651069
-0.1629203 0.02633626 0.02622146 -0.20144504 -0.1374685 -0.1489835 0.32354924 0.115624264
0.30761 -0.070724264 -0.13077495 0.3381012 -0.04440331 0.09240513 0.267496 0.09395349
-0.028560385 0.38062716 -0.4707411 -0.30665153 -0.7307098 -0.3154211 -0.10288308 0.3109713
-0.16598047 0.064678855 -0.23495449 -0.33046576 -0.5484334 -0.21639998 -0.55620116 -0.24099585
-0.42443886 -0.26461515 0.07158304 0.7159237 0.3500587 -0.35227203 0.17602652 -0.26261953
0.030577805 0.15195633 -0.26627308 -0.027330752 -0.20076478 -0.4675092 0.018916182 -0.4759016
-0.10266516 -0.3708253 -0.3667255 0.006895482 0.51532865 0.36639002 -0.1530055 0.48043624
0.18720666 0.22127178 0.3627738 -0.19602618 0.354769 -0.0047488133 -0.041791435 -0.5890771
-0.44855645 0.03182798 0.19632092 0.34844044 0.34615567 -0.49364337 -0.23497339 -0.13814703
-0.5085437 0.2828191 -0.08489949 0.097058184 -0.7974757 -0.007523958 0.36293253 0.19611306
-0.47513303 0.19945453 -0.05184304 0.25333348 0.3098391 0.0056401673 -0.018821018 -0.048653565
0.18616284 0.02332471 0.24644358 0.3117615 0.20347708 -0.25838378 -0.050011262 -0.42085147
-0.0069540013 0.28101686 -0.4010194 -0.064286076 -0.07388542 -0.38909903 0.21033987 -0.1763579
-0.4150477 0.30783185 -0.5689632 0.41682664 0.13633463 0.7655781 -0.20993835 0.048702132
0.43183434 -0.0072545544 -0.28295153 -0.34026128 0.26336905 -0.39781263 -0.24939144 0.22244063
0.07524569 -0.21988188 -0.09893249 -0.10164618 -0.3853385 0.2119651 0.62315315 0.19846873
-0.1749859 -0.43480262 0.55891985 -0.02236095 0.44384322 -0.434485 0.07974847 -0.20272703
0.30728233 -0.17718999 0.35070086 -0.08443875 -0.16702855 -0.0069054128 -0.1211607 0.041696504
-0.35421672 -0.2860459 -0.6398052 -0.13276708 0.76389045 -0.33525288 0.06588932 0.35002318
-0.057774577 0.36614898 0.1642826 0.29900146 -0.37775025 -0.012554288 0.44722983 0.5448852
-0.07313206 0.06754767 0.10271328 0.51702726 0.33513498 -0.113334045 0.28350523 0.33324212
-0.25906238 -0.24586383 -0.07533034 0.0924908 0.16869064 0.6710842 -0.013988996 0.28508583
-0.18013188 0.05717917 0.38855714 -0.00073464355 -0.06889588 0.7170336 0.22181846 0.33794954
-0.17530648 -0.52143747 0.5127438 -0.015042334 -0.32053503 0.406702 0.1440395 0.45095474
0.48033848 0.10263779 -0.25145808 -0.3297169 -0.019044317 -0.14509182 0.038546186 -0.2003174
00000000: bab4 5bbe 2267 b9be 6872 c53d 7a07 4d3d
00000010: 8ab8 0ebf 9077 f8bc 7cab 083e 91ed 82be
00000020: ecb7 133e 52bd 93be 7763 3a3e c128 503e
00000030: 7764 cb3e 25d9 29bd 7143 9f3e 7c9d 733d
00000040: a380 36bb 43e9 a3bd 8c36 213f 9952 bf3e
00000050: 840d dfbe 081b cabe 4e46 b4bd 7005 9b3e
00000060: 9213 0dbf c07b 743d 55b3 5bbe b31b 023f
00000070: e29b 233f f03a a73d 54ba e83e 46b6 973d
00000080: a8ac 03be d8f1 a33e 33f0 563f e988 13be
00000090: ac8a cdbc 66e3 ae3d 9369 a33e f65b 29bd
000000a0: 53e5 04bf a54b a2be b928 3abd 6d0d dfbd
000000b0: 7375 e23e f8d3 853d 9a23 f1bc c8df cabc
000000c0: b9d3 d43e 4bde 4ebe 75ff adbe a83f 15bf
000000d0: 84ca 3bbe 1c17 723e db4f 4a3d 66a7 c53d
000000e0: 94d4 26be 24bf d73c 63ce d63c 9c47 4ebe
000000f0: 8bc4 0cbe 218f 18be 3fa8 a53e 6acc ec3d
00000100: 0f7f 9d3e e2d7 90bd dee9 05be 9a1b ad3e
00000110: 3fe0 35bd e73e bd3d 3cf5 883e b06a c03d
00000120: 78f7 e9bc 90e1 c23e fa04 f1be 6e01 9dbe
00000130: cc0f 3bbf e07e a1be 5db4 d2bd a137 9f3e
00000140: c9f6 29be 5976 843d e997 70be cf32 a9be
00000150: 2266 0cbf f597 5dbe 3363 0ebf 9ec7 76be
00000160: 0d50 d9be a37b 87be 219a 923d c746 373f
00000170: e53a b33e 005d b4be 4c40 343e 1176 86be
00000180: 4e7e fa3c 719a 1b3e f254 88be bee4 dfbc
00000190: 4895 4dbe 5e5d efbe 1cf6 9a3c 60a9 f3be
000001a0: 1d42 d2bd d0dc bdbe 72c3 bbbe 7ff3 e13b
000001b0: 94ec 033f 7997 bb3e 79ad 1cbe bdfb f53e
000001c0: 1ab3 3f3e 1295 623e 7dbd b93e 16bb 48be
000001d0: 48a4 b53e ef9b 9bbb 7f2d 2bbd c2cd 16bf
000001e0: 31a9 e5be 0e5e 023d 5a08 493e c966 b23e
000001f0: 513b b13e d3be fcbe dd9c 70be 6a76 0dbe
00000200: ec2f 02bf aacd 903e c9df adbd 71c6 c63d
00000210: 5e27 4cbf 898b f6bb 4bd2 b93e ddd1 483e
00000220: a344 f3be cf3d 4c3e 5e59 54bd edb4 813e
00000230: 3ba3 9e3e 27d1 b83b 892e 9abc f648 47bd
00000240: 79a1 3e3e 7613 bf3c b55b 7c3e 349f 9f3e
00000250: 4c5c 503e e14a 84be 9cd8 4cbd d879 d7be
00000260: 64de e3bb 71e1 8f3e 6a52 cdbe 6ba8 83bd
00000270: 3d51 97bd fd37 c7be 5663 573e 2a97 34be
00000280: 2281 d4be 239c 9d3e 93a7 11bf 4d6a d53e
00000290: 4e9b 0b3e edfc 433f 14fa 56be e37b 473d
000002a0: 6419 dd3e 9db7 edbb 06df 90be ba36 aebe
000002b0: 4fd8 863e 19ae cbbe 7860 7fbe 7ac7 633e
000002c0: 6a1a 9a3d b728 61be 1e9d cabd df2b d0bd
000002d0: 164b c5be 610d 593e f786 1f3f 633b 4b3e
000002e0: 812f 33be 739e debe 5f15 0f3f 502e b7bc
000002f0: 6b3f e33e d174 debe 2a53 a33d ad97 4fbe
00000300: 1c54 9d3e 4b71 35be 108f b33e 39ee acbd
00000310: 8809 2bbe cd46 e2bb 1a23 f8bd f4c9 2a3d
00000320: e55b b5be 9c74 92be 46ca 23bf 18f4 07be
00000330: 538e 433f 44a6 abbe fbf0 863d 3d36 b33e
00000340: 09a5 6cbd e177 bb3e b339 283e b816 993e
00000350: 7b68 c1be 80b0 4dbc 4ffb e43e 997d 0b3f
00000360: 43c6 95bd 6f56 8a3d 575b d23d e65b 043f
00000370: d096 ab3e ae1b e8bd 9927 913e b69e aa3e
00000380: d3a3 84be bac3 7bbe cb46 9abd d16b bd3d
00000390: 3dbd 2c3e 2dcc 2b3f 1a32 65bc c5f6 913e
000003a0: 7e74 38be b534 6a3d f6f0 c63e 1895 40ba
000003b0: 4819 8dbd 848f 373f 6124 633e b907 ad3e
000003c0: 8b83 33be ed7c 05bf 2d43 033f 1f74 76bc
000003d0: 2b1d a4be 3f3b d03e 177f 133e 8ae3 e63e
000003e0: edee f53e c333 d23d 1dbf 80be a7d0 a8be
000003f0: d402 9cbc f392 14be 9be2 1d3d 0120 4dbe
