models/sqa-v2/mfcc/model_mfcc_subset.pt (torch, 227341 bytes, 67 tensors)

norm_input.weight f4 [40]
0	0x3f81542f	1.0103816
1	0x3f9691e1	1.1763269
2	0x3f8d7631	1.1051694
3	0x3f797294	0.9744046
4	0x3f6ba022	0.9204122
5	0x3f822722	1.0168192
6	0x3f6c5895	0.92322665
7	0x3f60b2fe	0.8777312
8	0x3f5ccae3	0.8624708
9	0x3f5da852	0.8658496
10	0x3f70ee81	0.9411393
11	0x3f544a17	0.8292555
12	0x3f51647d	0.8179396
13	0x3f56db5b	0.8392846
14	0x3f4c790f	0.7987222
15	0x3f4b7b3d	0.7948492
16	0x3f487a9f	0.78312105
17	0x3f395f6f	0.72411245
18	0x3f444e52	0.7668201
19	0x3f46f880	0.7772293
20	0x3f2c86f0	0.673934
21	0x3f2076e9	0.6268144
22	0x3f07c535	0.5303529
23	0x3f2db2d6	0.67851007
24	0x3f24b3b1	0.6433669
25	0x3f34c06c	0.7060611
26	0x3f0b1ebb	0.54343766
27	0x3f37d028	0.71801996
28	0x3f22afc2	0.63549435
29	0x3f095e8c	0.5365989
30	0x3f1ea072	0.6196357
31	0x3f240dff	0.64083856
32	0x3f1a0ecf	0.60178846
33	0x3f14d001	0.5812989
34	0x3f1f6b12	0.6227275
35	0x3f1538be	0.58289707
36	0x3f116bea	0.5680529
37	0x3f279757	0.654653
38	0x3f1644c7	0.58698696
39	0x3f2658ca	0.6497923

norm_input.bias f4 [40]
0	0x3b093657	0.002093693
1	0x3d1de296	0.038546167
2	0x3d03e315	0.032198984
3	0x3db599d8	0.08867234
4	0x3b23798e	0.0024944278
5	0xbd7b8b8f	-0.06141239
6	0xbcee7bf1	-0.029111834
7	0xbb9d28a4	-0.0047961045
8	0x3db20559	0.08692426
9	0xbd375979	-0.044763062
10	0xbd8fa46c	-0.07013783
11	0x3cc9c3b2	0.024629448
12	0xbc07c894	-0.008287568
13	0xbd2d9d6b	-0.042386454
14	0xbc4223b0	-0.011849329
15	0xbd00a9bd	-0.031411875
16	0xbd1a32eb	-0.037646215
17	0x3a15a66c	0.0005708698
18	0x3c03ad1e	0.00803688
19	0x3d361556	0.04445394
20	0xbcd90986	-0.026493799
21	0xbbde56ed	-0.0067852647
22	0x3c2dadfc	0.010600563
23	0xbb3d563e	-0.0028890516
24	0xbd21379c	-0.039359674
25	0xbca5fb6d	-0.02026149
26	0xbb24f864	-0.0025172466
27	0x3c1f3abd	0.009718594
28	0xbb5bd214	-0.0033541964
29	0x3ccebdeb	0.025237044
30	0xbbc4a1e5	-0.0060007446
31	0x3bee80f1	0.0072785546
32	0xbc084346	-0.0083168205
33	0x3c51daf1	0.012808547
34	0x3b0641c3	0.0020485974
35	0x3c50d20c	0.012745392
36	0xbd40c8cd	-0.0470665
37	0xbc2b1726	-0.010442531
38	0x3d8d3aa3	0.0689595
39	0xbd39bad9	-0.045344207

norm_input.running_mean f4 [40]
0	0xc3acf445	-345.90836
1	0x42e79595	115.79215
2	0xc25fb6f8	-55.92868
3	0x4173c12b	15.23466
4	0xc1574d57	-13.456382
5	0xc228f425	-42.238422
6	0xc0056072	-2.0840116
7	0xc1af747a	-21.931873
8	0xc18507e5	-16.628855
9	0x40b6f7dc	5.7177563
10	0xc177a4b7	-15.477714
11	0xc07b63b6	-3.9279609
12	0xbf0f9a41	-0.5609475
13	0xc150b46c	-13.044048
14	0xbf9220da	-1.1416276
15	0xc0c61327	-6.189838
16	0xc12a0be8	-10.627907
17	0x3f97e8bf	1.1867903
18	0xc10b5a55	-8.709554
19	0xc0b3a9cd	-5.6144776
20	0x3efd8c90	0.49521303
21	0xc0c4793d	-6.1397996
22	0x3eee82d3	0.46584186
23	0x40158763	2.3363883
24	0xbfbd4979	-1.4788047
25	0x40c49550	6.1432266
26	0x403a3fd4	2.9101458
27	0x4044858a	3.0706506
28	0x40eea6c0	7.457855
29	0x400199a1	2.0250018
30	0x40315bd7	2.7712305
31	0x402d39f0	2.7066612
32	0xc033e7aa	-2.8110147
33	0xbf2a8ef7	-0.666244
34	0xc084df77	-4.1522784
35	0xc0eb774b	-7.358312
36	0xc0b0692c	-5.5128384
37	0xc113099e	-9.189848
38	0xc107d555	-8.489583
39	0xc0c186a4	-6.0476856

norm_input.running_var f4 [40]
0	0x465a3130	13964.297
1	0x4579b92c	3995.5732
2	0x4506e1ea	2158.1196
3	0x4468ceb0	931.2295
4	0x44053d98	532.9624
5	0x443ef824	763.8772
6	0x43c812a5	400.14566
7	0x43956be1	298.8428
8	0x435cfc18	220.98474
9	0x433f23a0	191.13916
10	0x432aa8e3	170.65971
11	0x42f17d4a	120.744705
12	0x42e30f9b	113.53048
13	0x43105539	144.3329
14	0x42d1c58b	104.885826
15	0x42c5d691	98.919075
16	0x42c6338b	99.10067
17	0x42af4fcf	87.655876
18	0x42cd19d0	102.550415
19	0x42b02c27	88.086235
20	0x42a088dd	80.26731
21	0x42ac0020	86.000244
22	0x42940ce5	74.025185
23	0x42922aba	73.08345
24	0x4294be7f	74.37206
25	0x429d7888	78.73541
26	0x42822d42	65.088394
27	0x428095de	64.29271
28	0x428b42e3	69.63064
29	0x426883c2	58.12867
30	0x425ae794	54.72615
31	0x42479aaa	49.90104
32	0x423ce8a6	47.227196
33	0x422b5399	42.83164
34	0x42300fad	44.01531
35	0x423afb50	46.745422
36	0x422a02e7	42.502834
37	0x42489a3b	50.150616
38	0x4236f0ff	45.735348
39	0x4220fea1	40.24866

transformer.norm.weight f4 [40]
0	0x3f748dcf	0.9552888
1	0x3f9b2a0a	1.2122204
2	0x3f8609b7	1.0471715
3	0x3f67a99f	0.90493196
4	0x3f537b28	0.82609797
5	0x3f7bf63a	0.98422587
6	0x3f5470f5	0.8298486
7	0x3f4ffe53	0.8124744
8	0x3f43edaa	0.7653452
9	0x3f474442	0.7783853
10	0x3f62a846	0.88538015
11	0x3f3b503c	0.731693
12	0x3f33b786	0.7020191
13	0x3f3d1f34	0.7387574
14	0x3f32c65a	0.6983391
15	0x3f2b007a	0.667976
16	0x3f304cdf	0.68867296
17	0x3f162858	0.5865531
18	0x3f24a85f	0.64319414
19	0x3f22a46f	0.63532156
20	0x3f06dcb8	0.5268054
21	0x3eec1b68	0.4611466
22	0x3eaebbaf	0.34127566
23	0x3f06f811	0.5272227
24	0x3eef982b	0.46795782
25	0x3f0f5dae	0.5600232
26	0x3eb81511	0.35953572
27	0x3f11af27	0.56907886
28	0x3eed7e85	0.4638559
29	0x3eb8cb39	0.36092547
30	0x3eecb71f	0.4623346
31	0x3ef07e1d	0.46971217
32	0x3edb9b50	0.42891932
33	0x3eca7eb1	0.39549783
34	0x3ee95b5d	0.45577517
35	0x3ed1c6df	0.4097204
36	0x3ec32382	0.38113028
37	0x3efcee17	0.49400398
38	0x3ecd2fcf	0.40075538
39	0x3ef1cb64	0.47225487

transformer.norm.bias f4 [40]
0	0xbda25789	-0.07926852
1	0xbe2a1162	-0.16608194
2	0xbc368166	-0.011139249
3	0x3df3cac1	0.119039066
4	0x3d29e951	0.041482273
5	0xbc720d43	-0.01477367
6	0x3e5764e9	0.21034588
7	0x3aff1ab0	0.001946291
8	0x3df59bee	0.11992632
9	0x3dce5c97	0.10076254
10	0xbddaee1c	-0.10689947
11	0x3d682ffc	0.056686386
12	0x3e1a9e7b	0.15099518
13	0xbc9194b8	-0.01777111
14	0x3d205f62	0.039153464
15	0x3d1ea23e	0.038728945
16	0xbc66cf12	-0.014087455
17	0x3d40960f	0.047018107
18	0xbd88e905	-0.0668507
19	0xbd839308	-0.06424528
20	0x3d5c0c19	0.053722475
21	0x3bdeb220	0.0067961365
22	0xbca0bfc1	-0.019622685
23	0xbd530551	-0.051518742
24	0x3bd7f526	0.0065905033
25	0xbd5c0c84	-0.053722873
26	0xbc1f2c1f	-0.009715109
27	0xbdd5bc5c	-0.10436317
28	0xbc6f3676	-0.014600387
29	0xbb21f1ef	-0.0024710854
30	0xbd376ce8	-0.044781595
31	0x3b9bd667	0.0047557834
32	0x3d27f323	0.041003358
33	0xbd8be344	-0.06830457
34	0x3dea54c4	0.11441949
35	0x3cf1ddd8	0.029524729
36	0x3d18f3f5	0.03734203
37	0x3ddbb613	0.10728087
38	0x3d885a12	0.066578045
39	0x3e166e16	0.14690432

transformer.norm.running_mean f4 [40]
0	0x3b0794ba	0.0020688013
1	0x3d1e363e	0.038625948
2	0x3d02fbf5	0.031978566
3	0x3db5abda	0.08870669
4	0x3b2d0ee8	0.002640659
5	0xbd7b74e8	-0.061390787
6	0xbcee7af8	-0.02911137
7	0xbb956b8f	-0.004559941
8	0x3db1bc5d	0.086785056
9	0xbd386fea	-0.045028605
10	0xbd9013f9	-0.070350595
11	0x3ccb1d00	0.024794102
12	0xbc07e8a0	-0.008295208
13	0xbd2dd1f5	-0.04243656
14	0xbc400cf6	-0.01172184
15	0xbd00fc4a	-0.0314906
16	0xbd1aa591	-0.037755553
17	0x3a168181	0.00057413435
18	0x3c006d98	0.007838629
19	0x3d365f70	0.04452461
20	0xbcda2b4e	-0.026631977
21	0xbbdd2d49	-0.006749783
22	0x3c2e894d	0.010652852
23	0xbb441be2	-0.0029923846
24	0xbd216afd	-0.039408673
25	0xbca664f9	-0.02031182
26	0xbb287b1b	-0.0025708142
27	0x3c1ebd3b	0.009688671
28	0xbb5a4397	-0.0033304447
29	0x3ccf1929	0.025280552
30	0xbbbcabd7	-0.0057577896
31	0x3be9ea24	0.0071385074
32	0xbc0941d0	-0.008377507
33	0x3c51b796	0.012800118
34	0x3b109f76	0.0022067702
35	0x3c50fa56	0.012754997
36	0xbd40de2e	-0.047086887
37	0xbc2b8f33	-0.010471153
38	0x3d8d4bc9	0.068992205
39	0xbd39ad58	-0.04533133

transformer.norm.running_var f4 [40]
0	0x3f82b8ca	1.0212643
1	0x3fb16758	1.3859663
2	0x3f9ca7a2	1.2238657
3	0x3f727a90	0.94718266
4	0x3f585ecd	0.84519655
5	0x3f83d451	1.0299169
6	0x3f5af38f	0.8552789
7	0x3f45472a	0.7706171
8	0x3f3e040c	0.74224925
9	0x3f3f4775	0.7471841
10	0x3f62a7ae	0.8853711
11	0x3f3064f9	0.6890407
12	0x3f2bf620	0.6717243
13	0x3f3482b9	0.70511967
14	0x3f2437ef	0.6414785
15	0x3f2226f5	0.63340694
16	0x3f1d2708	0.6138768
17	0x3f061bfb	0.52386445
18	0x3f16ac84	0.5885699
19	0x3f1a12b6	0.601848
20	0x3ee8d86d	0.4547762
21	0x3ec8cae9	0.39217308
22	0x3e8fafa0	0.2806368
23	0x3eeab1f2	0.45838886
24	0x3ed452fd	0.41469565
25	0x3efef60e	0.497971
26	0x3e95ed96	0.29282826
27	0x3f038997	0.5138182
28	0x3ecf464a	0.40483314
29	0x3e92e518	0.2869041
30	0x3ec37a76	0.38179368
31	0x3ed195ad	0.40934506
32	0x3eb7eb51	0.3592172
33	0x3ead882d	0.33892956
34	0x3ec6b1e0	0.38807583
35	0x3eaed91d	0.3415002
36	0x3ea4dc6f	0.32199427
37	0x3edc4a8b	0.43025622
38	0x3eb03fad	0.3442358
39	0x3ed84a8a	0.4224437

transformer.position_encoding.pe f4 [1, 384, 32]
0	0x00000000	0.0
1	0x3f800000	1.0
2	0x00000000	0.0
3	0x3f800000	1.0
4	0x00000000	0.0
5	0x3f800000	1.0
6	0x00000000	0.0
7	0x3f800000	1.0
8	0x00000000	0.0
9	0x3f800000	1.0
10	0x00000000	0.0
11	0x3f800000	1.0
12	0x00000000	0.0
13	0x3f800000	1.0
14	0x00000000	0.0
15	0x3f800000	1.0
16	0x00000000	0.0
17	0x3f800000	1.0
18	0x00000000	0.0
19	0x3f800000	1.0
20	0x00000000	0.0
21	0x3f800000	1.0
22	0x00000000	0.0
23	0x3f800000	1.0
24	0x00000000	0.0
25	0x3f800000	1.0
26	0x00000000	0.0
27	0x3f800000	1.0
28	0x00000000	0.0
29	0x3f800000	1.0
30	0x00000000	0.0
31	0x3f800000	1.0
32	0x3f576aa4	0.84147096
33	0x3f0a5141	0.54030234
34	0x3f1cfebf	0.6132621
35	0x3f4a358a	0.78987944
36	0x3ed82743	0.42217454
37	0x3f681157	0.9065146
38	0x3e914bec	0.28378236
39	0x3f7579bb	0.9588887
40	0x3e4159a6	0.18881854
41	0x3f7b6523	0.982012
42	0x3e0014ce	0.12507936
43	0x3f7dfd54	0.99214673
44	0x3da95d65	0.08269767
45	0x3f7f1f85	0.9965747
46	0x3d5fc4a3	0.054630887
47	0x3f7f9e21	0.9985066
48	0x3d13c504	0.03607656
49	0x3f7fd556	0.999349
50	0x3cc32253	0.023820078
51	0x3f7fed68	0.9997163
52	0x3c80d4ce	0.015726473
53	0x3f7ff7e5	0.9998763
54	0x3c2a1bce	0.010382606
55	0x3f7ffc78	0.9999461
56	0x3be09bb2	0.006854498
57	0x3f7ffe76	0.9999765
58	0x3b944889	0.0045252484
59	0x3f7fff54	0.99998975
60	0x3b43c9fc	0.002987503
61	0x3f7fffb5	0.9999955
62	0x3b0141c1	0.001972303
63	0x3f7fffdf	0.99999803
64	0x3f68c7b7	0.9092974
65	0xbed51133	-0.41614684
66	0x3f7803b1	0.9688063
67	0x3e7dc44c	0.24781913
68	0x3f43f238	0.7654147
69	0x3f24bedc	0.6435373
70	0x3f0b52c0	0.5442314
71	0x3f56c474	0.83893514
72	0x3ebddf49	0.37084416
73	0x3f6dbef7	0.92869514
74	0x3e7e269e	0.24819419
75	0x3f77fd66	0.9687103
76	0x3e28c8e1	0.16482879
77	0x3f7c7f9c	0.98632216
78	0x3ddf6f16	0.1090986
79	0x3f7e78d0	0.99403095
80	0x3d93ac64	0.07210615
81	0x3f7f5568	0.99739695
82	0x3d431427	0.04762664
83	0x3f7fb5a1	0.9988652
84	0x3d00d0ba	0.031449057
85	0x3f7fdf95	0.99950534
86	0x3caa1975	0.020764092
87	0x3f7ff1df	0.9997844
88	0x3c609a58	0.013708673
89	0x3f7ff9d7	0.999906
90	0x3c144825	0.009050404
91	0x3f7ffd51	0.99995905
92	0x3bc3c9c3	0.0059749796
93	0x3f7ffed5	0.9999822
94	0x3b8141b0	0.003944598
95	0x3f7fff7e	0.99999225
96	0x3e1081c3	0.14112
97	0xbf7d7026	-0.9899925
98	0x3f6aced2	0.9172183
99	0xbecbf91e	-0.398385
100	0x3f772df0	0.9655447
101	0x3e853dd2	0.26023728
102	0x3f428aee	0.7599324
103	0x3f26668a	0.6500021
104	0x3f0a1e86	0.53952825
105	0x3f578b2e	0.84196746
106	0x3ebc1d43	0.36741075
107	0x3f6e1855	0.9300588
108	0x3e7bbb0e	0.24583074
109	0x3f7824e2	0.9693128
110	0x3e272882	0.16324046
111	0x3f7c90ec	0.98658633
112	0x3ddd450e	0.10804187
113	0x3f7e8060	0.99414635
114	0x3d923d67	0.07140618
115	0x3f7f58b5	0.9974473
116	0x3d412ee5	0.047163863
117	0x3f7fb712	0.9988872
118	0x3cff2051	0.03114334
119	0x3f7fe036	0.99951494
120	0x3ca87212	0.020562205
121	0x3f7ff225	0.9997886
122	0x3c5e6b3f	0.013575374
123	0x3f7ff9f6	0.99990785
124	0x3c12d70a	0.008962402
125	0x3f7ffd5e	0.9999598
126	0x3bc1e25f	0.005916878
127	0x3f7ffeda	0.9999825
128	0xbf41bdcf	-0.7568025
129	0xbf275530	-0.6536436
130	0x3ef5d9d3	0.4801775
131	0xbf608e4d	-0.87717134
132	0x3f7c3285	0.98514587
133	0xbe2fd73b	-0.17171948
134	0x3f69c42e	0.9131497
135	0x3ed0b422	0.4076243
136	0x3f305559	0.6888023
137	0x3f399646	0.72494924
138	0x3ef632d3	0.4808565
139	0x3f6075eb	0.8767993
140	0x3ea679e1	0.3251486
141	0x3f7216f7	0.9456629
142	0x3e5e19a9	0.21689476
143	0x3f79e7ea	0.976195
144	0x3e1349fc	0.14383692
145	0x3f7d5685	0.98960143
146	0x3dc2db7b	0.09514519
147	0x3f7ed6b0	0.9954634
148	0x3d80c06a	0.062867
149	0x3f7f7e5d	0.9980219
150	0x3d2a1011	0.04151923
151	0x3f7fc77d	0.9991377
152	0x3ce094f1	0.02741477
153	0x3f7fe75e	0.99962413
154	0x3c944697	0.018100066
155	0x3f7ff544	0.9998362
156	0x3c43c8de	0.011949746
157	0x3f7ffb52	0.9999286
158	0x3c01416e	0.007889135
159	0x3f7ffdf6	0.9999689
160	0xbf757c10	-0.9589243
161	0x3e913c2c	0.2836622
162	0xbe22761a	-0.15865365
163	0xbf7cc1f1	-0.9873343
164	0x3f520fca	0.8205534
165	0xbf125266	-0.5715698
166	0x3f7dc4e4	0.99128556
167	0x3e06e45c	0.1317305
168	0x3f50342b	0.813296
169	0x3f14f422	0.5818502
170	0x3f16353b	0.58674973
171	0x3f4f4cfa	0.8097683
172	0x3ecdf245	0.402239
173	0x3f6a607c	0.91553473
174	0x3e8a3080	0.26990128
175	0x3f767fd4	0.962888
176	0x3e37c059	0.17944469
177	0x3f7bd839	0.98376805
178	0x3df35d40	0.118830204
179	0x3f7e2fa6	0.99291456
180	0x3da0e13a	0.078554586
181	0x3f7f357b	0.9969098
182	0x3d548b49	0.051890645
183	0x3f7fa7b5	0.99865276
184	0x3d0c5a8e	0.034266047
185	0x3f7fd983	0.9994127
186	0x3cb956c8	0.022624388
187	0x3f7fef3a	0.99974406
188	0x3c74ba3f	0.014936983
189	0x3f7ff8b0	0.9998884
190	0x3c21918c	0.009861361
191	0x3f7ffcd0	0.99995136
192	0xbe8f0f8c	-0.2794155
193	0x3f75cdb8	0.96017027
194	0xbf3b167f	-0.730812
195	0xbf2ebd7c	-0.6825788
196	0x3f00a68f	0.5025415
197	0xbf5d535a	-0.8645531
198	0x3f7ce805	0.98791534
199	0xbe1eb6dc	-0.15499443
200	0x3f689575	0.90853053
201	0x3ed5ec4f	0.41781852
202	0x3f2ef515	0.68342716
203	0x3f3ae281	0.7300187
204	0x3ef4017a	0.47657377
205	0x3f610ef5	0.8791345
206	0x3ea4ea81	0.32210162
207	0x3f725b44	0.9467051
208	0x3e5bf979	0.21481885
209	0x3f7a05fe	0.97665393
210	0x3e11ddd6	0.1424478
211	0x3f7d63af	0.9898023
212	0x3dc0f7dc	0.094222754
213	0x3f7edc70	0.9955511
214	0x3d7f00a3	0.062256467
215	0x3f7f80df	0.99806017
216	0x3d2868f4	0.041115716
217	0x3f7fc895	0.9991544
218	0x3cde6600	0.027148247
219	0x3f7fe7d8	0.9996314
220	0x3c92d588	0.017924085
221	0x3f7ff579	0.99983937
222	0x3c41e180	0.011833549
223	0x3f7ffb69	0.99992996
224	0x3f283046	0.6569866
225	0x3f40ffbd	0.75390226
226	0xbf7ef03b	-0.9958531
227	0xbdba5174	-0.09097567
228	0x3db97c2c	0.09056887
229	0xbf7ef2a9	-0.9958902
230	0x3f673fbb	0.9033162
231	0xbedba2a7	-0.4289753
232	0x3f7898af	0.97107977
233	0x3e747c49	0.23875536
234	0x3f44f574	0.7693703
235	0x3f238899	0.63880306
236	0x3f0c3261	0.5476437
237	0x3f5632bc	0.83671165
238	0x3ebf266a	0.37333995
239	0x3f6d7d65	0.9276946
240	0x3e7fe948	0.24991333
241	0x3f77e06d	0.9682682
242	0x3e29f7da	0.16598454
243	0x3f7c72e8	0.98612833
244	0x3de10245	0.10986761
245	0x3f7e7343	0.99394625
246	0x3d94b779	0.07261557
247	0x3f7f52fc	0.99736
248	0x3d447552	0.047963448
249	0x3f7fb493	0.9988491
250	0x3d01ba07	0.03167155
251	0x3f7fdf1f	0.9994983
252	0x3cab4d9b	0.020911029
253	0x3f7ff1ab	0.9997813
254	0x3c623143	0.01380569
255	0x3f7ff9c1	0.9999047

transformer.linear_proj.weight f4 [32, 40]
0	0x3e9f8ef2	0.31163746
1	0xbf8cf33f	-1.1011733
2	0xbf361ffd	-0.7114256
3	0xbeef0983	-0.46686944
4	0xbe764e77	-0.2405337
5	0xbe8a9466	-0.27066344
6	0x3e9fe144	0.31226552
7	0x3e9720c4	0.29517186
8	0xbe2380d3	-0.15967111
9	0x3dd682c0	0.10474157
10	0xbde3850b	-0.1110936
11	0xbee19645	-0.4405996
12	0xbf06fbcb	-0.52727956
13	0x3f4e5672	0.80600655
14	0x3e133d39	0.14378823
15	0xbd816aac	-0.06319174
16	0x3de184fb	0.11011692
17	0xbe35bd44	-0.1774798
18	0xbf2dd3d5	-0.67901355
19	0xbef9edc1	-0.48814204
20	0x3e71d74b	0.23617284
21	0xbe2127fa	-0.15737906
22	0x3dade79c	0.084914416
23	0x3f264409	0.64947563
24	0x3e820e85	0.25401703
25	0xbeb3f4a7	-0.35147592
26	0xbe53ee72	-0.20696428
27	0xbe16c507	-0.14723597
28	0x3eb68408	0.35647607
29	0x3e9637d7	0.29339477
30	0x3e382049	0.17981066
31	0xbd37e6f4	-0.04489799
32	0x3e7256c4	0.23665911
33	0xbf1d882c	-0.61535907
34	0x3dea203a	0.11431928
35	0xbd35c0cc	-0.04437332
36	0xbe211c6c	-0.15733498
37	0x3e561399	0.20905913
38	0x3ebc08b3	0.36725387
39	0xbcd6b16e	-0.026207652
40	0x3ece9e9e	0.4035539
41	0xbf36caec	-0.71403384
42	0x3e781a98	0.24228895
43	0xbedbdf0d	-0.42943612
44	0x3e326552	0.17421463
45	0x3d821b31	0.063528426
46	0xbf02de04	-0.5112002
47	0xbe159d90	-0.14610887
48	0xbf01ccc9	-0.507031
49	0xbf1440f0	-0.57911587
50	0xbeb34e5c	-0.3502072
51	0xbd7f27cf	-0.062293824
52	0x3e82de30	0.2556014
53	0xbe063c7b	-0.13109009
54	0x3e4bc3be	0.19898888
55	0xbe8fbd16	-0.2807395
56	0xbea182d3	-0.31545123
57	0xbf14f182	-0.5818101
58	0xbdcc99bd	-0.09990261
59	0xbe8051ff	-0.25062558
60	0xbf42745d	-0.75958806
61	0xbe907283	-0.28212366
62	0x3e3f63b2	0.18690374
63	0xbed56f8d	-0.4168667
64	0xbe17d7c5	-0.14828403
65	0x3f3c74f3	0.7361595
66	0x3e43de60	0.19127798
67	0xbec464fd	-0.38358298
68	0xbebc6e29	-0.36802796
69	0xbe95d004	-0.29260266
70	0xbf01b5ef	-0.50668234
71	0x3eb92406	0.36160296
72	0x3d825254	0.06363359
73	0x3f5b679f	0.8570499
74	0x3ee1103c	0.43957698
75	0x3eca759f	0.39542863
76	0x3c5d4617	0.01350548
77	0xbe57484b	-0.21023671
78	0xbc660efb	-0.014041658
79	0x3eb6368a	0.35588485
80	0x3ea7b46c	0.32754838
81	0x3ee9215c	0.45533264
82	0x3eabaa11	0.33528188
83	0x3e5e2e61	0.2169738
84	0x3e9bed96	0.304547
85	0x3e925790	0.2858243
86	0x3e901642	0.2814198
87	0x3ede7692	0.43449837
88	0x3d1cd458	0.038288444
89	0x3f30a39c	0.6899965
90	0x3eebc767	0.4605057
91	0x3f028bac	0.5099437
92	0x3e9ce96f	0.30646846
93	0x3d2a4654	0.041570976
94	0xbe78a10d	-0.24280186
95	0x3da22537	0.079172544
96	0x3f30a305	0.6899875
97	0xbeab52e3	-0.33461675
98	0xbf48e133	-0.78468627
99	0x3d8a65dc	0.067577094
100	0xbf1865a6	-0.59530103
101	0xbecafc50	-0.39645624
102	0x3ed51b60	0.41622448
103	0x3e8ee9ab	0.2791265
104	0xbd82ef50	-0.063933015
105	0x3e874fba	0.26428014
106	0x3d89b44e	0.067238435
107	0x3e91dc6e	0.28488487
108	0xbd81f28f	-0.063450925
109	0xbdd26bbb	-0.10274454
110	0xbe1357ca	-0.14388958
111	0x3e9f14c4	0.3107053
112	0x3e96af68	0.294307
113	0x3ed71426	0.4200756
114	0xbe9f4fa9	-0.31115463
115	0xbece3bca	-0.4027999
116	0xbefd732b	-0.4950193
117	0x3e4118f9	0.18857183
118	0x3e88a3c3	0.2668744
119	0x3eabf425	0.33584705
120	0x3e859c42	0.26095778
121	0xbefdfa29	-0.4960492
122	0xbe8ef3ed	-0.27920476
123	0xbde99492	-0.11405291
124	0xbeffed54	-0.49985754
125	0x3e6d782f	0.23190378
126	0xbd3ba99c	-0.04581605
127	0xbed7d4bb	-0.42154488
128	0xbe9d6fe9	-0.30749443
129	0x3d48a1a9	0.048982296
130	0xbe4d3923	-0.20041327
131	0xbc917c6e	-0.017759528
132	0x3f0aa1d6	0.5415319
133	0xbea22a46	-0.31672877
134	0xbf589161	-0.8459683
135	0xbec2facf	-0.38081977
136	0x3e2f104a	0.17096058
137	0xbe8de532	-0.27713925
138	0x3e148282	0.1450291
139	0x3f6e78a5	0.9315284
140	0x3f01695e	0.505514
141	0xbf34855a	-0.7051598
142	0xbf02c86a	-0.5108706
143	0xbf2f8f2c	-0.6857784
144	0xbdc8c30e	-0.09802829
145	0xbd2ad9aa	-0.041711487
146	0x3e7f4d04	0.24931723
147	0xbf61c101	-0.88185126
148	0xbdf81128	-0.12112647
149	0x3e0b0888	0.13577473
150	0xbcb652c7	-0.022256268
151	0xbf12e13d	-0.57374936
152	0x3e76d1f1	0.24103524
153	0x3dc448d6	0.09584205
154	0xbf0560cd	-0.5210083
155	0xbd843dad	-0.06457076
156	0x3ef04e3c	0.46934688
157	0x3e675183	0.22589688
158	0x3e24ef62	0.16106942
159	0x3cb2c442	0.021822099
160	0xbdf532d7	-0.119725876
161	0x3e837efe	0.25682825
162	0xbeae426a	-0.34035045
163	0xbf0adcc8	-0.54243135
164	0x3d82c9f7	0.06386178
165	0xbf309ab2	-0.68986046
166	0xbeb9f264	-0.36317742
167	0x3ef4b451	0.4779382
168	0x3d5e5c01	0.05428696
169	0x3f4ac4bc	0.7920644
170	0xbeb4ef7c	-0.35338962
171	0xbf187c83	-0.5956499
172	0x3cfb3368	0.03066416
173	0xbf0ef4f4	-0.5584252
174	0x3e2d73fb	0.16938774
175	0x3f612306	0.87944067
176	0x3f210304	0.62895226
177	0x3e8712ee	0.2638163
178	0x3efe3fa7	0.49657938
179	0x3daf7838	0.08567852
180	0xbe1174ea	-0.14204755
181	0xbdd02dbe	-0.10164975
182	0x3e8578eb	0.26068816
183	0x3f3ceba2	0.7379705
184	0x3e7fd8f1	0.249851
185	0x3dd9c743	0.10633709
186	0x3f25bfb4	0.6474564
187	0xbf11a7d0	-0.56896687
188	0x3e320ead	0.17388411
189	0x3e7d0526	0.24708995
190	0x3e3b29f7	0.18277727
191	0x3f0f0629	0.55868775
192	0x3f07f8cb	0.53114
193	0x3e98bdc6	0.29832286
194	0x3f37f851	0.71863276
195	0x3e885f1a	0.26635057
196	0x3f02f42d	0.5115383
197	0xbdf256c8	-0.118329585
198	0xbecc61b3	-0.3991829
199	0x3f6becbf	0.9215812
200	0xbe6c35df	-0.23067425
201	0xbf164e48	-0.587132
202	0xbef45b34	-0.47725832
203	0xbeb982e6	-0.3623268
204	0xbcba0758	-0.02270858
205	0xbf17ee1b	-0.59347695
206	0xbed4b1f7	-0.41542026
207	0xbe895030	-0.2681899
208	0xbe352b84	-0.17692381
209	0x3ea431c7	0.32069227
210	0x3f120e18	0.57052755
211	0x3ebd0497	0.36917564
212	0x3db40e8e	0.087918386
213	0xbf0ac198	-0.5420165
214	0xbe638275	-0.22217734
215	0xbce7aa2c	-0.028279386
216	0xbf767399	-0.9627014
217	0xbf46143a	-0.77374613
218	0x3e06754d	0.13130684
219	0xbcdf37fe	-0.027248379
220	0xbf3a86a8	-0.7286172
221	0x3e102a1b	0.14078562
222	0x3d1bbe62	0.03802336
223	0xbeedd5d2	-0.46452194
224	0xbf3f1ee0	-0.74656487
225	0xbef7b1ad	-0.48377743
226	0xbe731cf0	-0.23741508
227	0xbe4141de	-0.18872783
228	0xbed7e816	-0.42169255
229	0xbd7c7251	-0.061632458
230	0xbbae1173	-0.0053121387
231	0xbf185aba	-0.5951344
232	0xbf65d31f	-0.8977527
233	0x3ead6331	0.3386474
234	0x3d6c64d1	0.057713334
235	0xbe5670b9	-0.20941438
236	0xbe2b21c1	-0.16712095
237	0xbe3efeca	-0.18651882
238	0xbe51c6a5	-0.20485933
239	0x3eec7a57	0.46187088
240	0xbe1aeb11	-0.15128733
241	0xbcde84c7	-0.027162923
242	0x3eea04b0	0.457067
243	0xbef5ff9b	-0.48046574
244	0x3eb7c795	0.35894457
245	0xbe004c56	-0.1252912
246	0x3df8a820	0.12141442
247	0xbe6aad5a	-0.22917691
248	0xbe9e47a9	-0.30914047
249	0x3e62d858	0.22152841
250	0xbf25ded5	-0.6479314
251	0x3f678e1f	0.90451235
252	0xbe6e843f	-0.23292635
253	0xbdec618c	-0.11542043
254	0x3d5ee537	0.054417815
255	0x3f25b6b0	0.64731884

transformer.linear_proj.bias f4 [32]
0	0xbde60878	-0.11232084
1	0xbcf0ac3c	-0.029379003
2	0xbf0562af	-0.52103704
3	0xbe7d0264	-0.24707943
4	0x3eb1899b	0.34675297
5	0x3e06f028	0.1317755
6	0xbe71da26	-0.23618373
7	0xbe157ef9	-0.14599217
8	0xbe85ceeb	-0.26134428
9	0x3cebf051	0.028801115
10	0xbd83bae0	-0.06432128
11	0xbedcc94a	-0.4312232
12	0x3e51115d	0.2041678
13	0x3e51b025	0.2047735
14	0x3df56d9b	0.11983796
15	0xbe7ebea1	-0.24877407
16	0xbe09b55b	-0.13448088
17	0xbe06609f	-0.13122796
18	0xbe15102e	-0.14556953
19	0xbe96e593	-0.29472026
20	0xbef75e79	-0.48314264
21	0x3db2dd9f	0.08733677
22	0xbe865d04	-0.2624284
23	0x3e84f1fa	0.25965863
24	0x3f062882	0.5240556
25	0x3e46b9e2	0.19406846
26	0x3f2c7d69	0.6737886
27	0x3d107262	0.035265334
28	0xbec973a9	-0.39346054
29	0x3c5cbcc4	0.01347274
30	0xbd65d221	-0.056108598
31	0x3f5610e2	0.8361951

transformer.transformer_encoder.layers.0.self_attn.in_proj_weight f4 [96, 32]
0	0x3e0c6116	0.1370891
1	0x3e80fabf	0.25191304
2	0xbefdd5e3	-0.49577245
3	0x3cf07694	0.029353417
4	0x3e960b19	0.29305342
5	0x3eddfdcb	0.4335769
6	0x3f387537	0.72053856
7	0xbe0e2ce8	-0.13884318
8	0xbbe4206b	-0.0069618723
9	0x3dd88be4	0.10573557
10	0xbf1cf504	-0.61311364
11	0xbc5040f4	-0.0127107985
12	0x3ed1439e	0.408719
13	0x3e0874bc	0.1332578
14	0xbee2e8f6	-0.4431836
15	0xbec54199	-0.3852661
16	0xbdc457de	-0.09587072
17	0x3d100426	0.035160206
18	0xbd336200	-0.043794632
19	0x3c7af769	0.015317776
20	0xbeae08e7	-0.33991167
21	0x3e545bb3	0.20738105
22	0x3cba5186	0.022743952
23	0x3e936a03	0.28791818
24	0xbc12b32e	-0.008953853
25	0x3f2e142a	0.6799952
26	0x3eb4f06e	0.35339683
27	0xbe5b5a3e	-0.21421143
28	0xbe8e4fa1	-0.27795127
29	0x3e306a4f	0.17228054
30	0xbc13795a	-0.0090011
31	0x3e63dbb1	0.22251774
32	0xbe85b829	-0.26117066
33	0xbc8dcffc	-0.017311089
34	0xbdd59654	-0.104290634
35	0x3ea0f974	0.31440318
36	0x3e9dd6c3	0.30827913
37	0xbebf8233	-0.37404022
38	0x3d705305	0.058672924
39	0xbd85ce7c	-0.065335244
40	0xbd06f1a7	-0.0329453
41	0xbcee8eff	-0.02912092
42	0x3eb94315	0.36183992
43	0xbe339426	-0.17536983
44	0x3e95e56b	0.29276595
45	0x3d567a29	0.052362595
46	0xbd505bc4	-0.050868765
47	0xbe977c7d	-0.29587165
48	0xbed2d92b	-0.4118131
49	0x3ea60fdc	0.32433975
50	0xbc1a2f24	-0.009410653
51	0xbdac5418	-0.08414477
52	0x3a388d4b	0.0007040097
53	0xbebc0db8	-0.36729217
54	0x3ec6f1b0	0.38856268
55	0xbe937b8c	-0.28805196
56	0xbd57d79e	-0.052695863
57	0x3e82c9f9	0.25544718
58	0x3db07c4d	0.086174585
59	0x3cff2563	0.031145757
60	0x3e52c6f6	0.2058371
61	0x3e573683	0.21016888
62	0x3e7b5edb	0.24547903
63	0xbc38ab63	-0.0112713305
64	0x3e987a38	0.29780746
65	0xbe2f1798	-0.17098844
66	0xbe9c4971	-0.3052478
67	0x3e168a36	0.14701161
68	0x3e138f61	0.14410163
69	0x3ce17dd8	0.027525827
70	0xbee14a22	-0.4400187
71	0x3d8a4b9d	0.06752703
72	0xbd564855	-0.052315075
73	0x3c29e815	0.010370274
74	0xbf01c790	-0.50695133
75	0x3e199eee	0.15002033
76	0xbe5a3381	-0.2130871
77	0xbe3d70c0	-0.18500042
78	0x3ee24346	0.4419195
79	0xbe86afda	-0.2630604
80	0xbf4a0069	-0.78906876
81	0x3e8be590	0.2732358
82	0xbf1fdfb8	-0.6245074
83	0x3cab8a12	0.02093986
84	0x3e68f5af	0.22749971
85	0x3dcc8beb	0.09987625
86	0xbe918c27	-0.2842724
87	0xbd8a32e5	-0.067479886
88	0xbed25cc2	-0.41086394
89	0xbe77096f	-0.24124692
90	0xbd093b8c	-0.033504054
91	0xbd62a8e0	-0.055336833
92	0x3eb0f4a6	0.34561652
93	0xbea6a3d4	-0.32546866
94	0x3ebcd61c	0.36882102
95	0xbdbc498f	-0.09193718
96	0x3df65554	0.12027994
97	0x3e61cff3	0.22051983
98	0x3f05a1a4	0.5219977
99	0x3e4c539a	0.19953766
100	0xbc1051cb	-0.008808563
101	0xbea3cafc	-0.31990802
102	0x3e62aee9	0.22137035
103	0xbeb0ca79	-0.34529474
104	0x3e913f3d	0.2836856
105	0xbeb416e1	-0.35173705
106	0x3d73f2b9	0.05955765
107	0x3f194085	0.59864074
108	0x3f10a2b5	0.5649827
109	0xbe3c603d	-0.18396087
110	0xbe04f459	-0.12983836
111	0x3ebfcf56	0.37462872
112	0xbe543f23	-0.2072721
113	0xbe73e68b	-0.23818414
114	0xbe0594a4	-0.13044983
115	0xbd0e4634	-0.03473492
116	0x3e28e1be	0.16492364
117	0xbe65b5a3	-0.2243257
118	0xbdfaf926	-0.122545525
119	0x3deabd86	0.1146193
120	0xbe829476	-0.25503892
121	0x3de63263	0.11240079
122	0xbf04d41e	-0.51886165
123	0xbf5db934	-0.8661072
124	0x3ea68b2b	0.32528052
125	0x3de6081f	0.11232018
126	0xbe3fd70b	-0.18734376
127	0xbe48d52c	-0.19612569
128	0xbde93f4c	-0.11389026
129	0xbe674da8	-0.22588217
130	0x3d31eff4	0.043441728
131	0xbee7a6a2	-0.45244318
132	0x3e5a25e5	0.21303518
133	0x3ea27704	0.31731427
134	0x3f2f670e	0.68516624
135	0xbf02f557	-0.5115561
136	0x3e864bb3	0.2622963
137	0x3ee3b67e	0.44475168
138	0x3db9b8ec	0.09068474
139	0x3dc22c03	0.09481051
140	0x3da4deaf	0.08050286
141	0x3df3487f	0.11879062
142	0x3f24ead7	0.6442084
143	0x3e44bcd8	0.19212663
144	0x3e9d9d46	0.30784053
145	0x3dcf4d85	0.101222076
146	0x3e926c66	0.28598326
147	0xbea4e509	-0.3220599
148	0x3d199338	0.037493914
149	0xbe8d3906	-0.27582568
150	0xbf18008e	-0.59375846
151	0xbc9f2396	-0.019426148
152	0xbee57260	-0.44813824
153	0xbddb4164	-0.10705832
154	0xbe01370d	-0.12618656
155	0x3ddd3bb2	0.108024016
156	0x3eb3609d	0.35034648
157	0xbe7340fe	-0.23755261
158	0x3e5f6081	0.21814157
159	0x3b7cebb6	0.0038592643
160	0x3e8c850f	0.27445266
161	0x3e52f351	0.2060063
162	0xbe65e8da	-0.22452107
163	0xbe18e49e	-0.1493096
164	0xbe46938b	-0.1939222
165	0x3ebfa143	0.3742772
166	0xbe8909a3	-0.26765165
167	0xbe6d0e94	-0.23150092
168	0x3e967bf0	0.29391432
169	0x3e2130bf	0.15741251
170	0xbde2c16b	-0.11072048
171	0xbf05e883	-0.5230791
172	0xbd9c42f9	-0.076299615
173	0x3f38a8a9	0.72132355
174	0xbe122112	-0.14270428
175	0xbd76f33d	-0.060290564
176	0x3dbec9a0	0.09315801
177	0xbda7bec5	-0.08190683
178	0x3d94cd90	0.072657704
179	0xbe5ff2ca	-0.2186996
180	0x3e37c553	0.17946367
181	0x3ebdb5a8	0.37052655
182	0xbf13d2e2	-0.57743657
183	0x3ea9d13c	0.33167446
184	0x3e7b7165	0.24554975
185	0x3e62cecc	0.22149199
186	0x3e8c3b3c	0.27388942
187	0xbecd7220	-0.40126133
188	0xbe9a0629	-0.30082825
189	0x3ef7abf1	0.48373368
190	0x3e911f35	0.28344122
191	0xbe8e9634	-0.2784897
192	0xbdc56eb5	-0.09640256
193	0x3d92ed51	0.07174171
194	0xbe9adda2	-0.30247217
195	0x3f0a932e	0.5413083
196	0x3e2be11c	0.16785091
197	0xbf00403c	-0.50098014
198	0x3e645cac	0.22300977
199	0xbec446a9	-0.3833516
200	0xbf09b500	-0.5379181
201	0x3f06871a	0.525499
202	0x3dbdbc2a	0.09264405
203	0xbe745501	-0.23860551
204	0xbdde3710	-0.10850346
205	0x3e252653	0.16127901
206	0xbe9eae6d	-0.3099245
207	0xbea7ced0	-0.32774973
208	0xbec2650a	-0.37967712
209	0xbba978ea	-0.005171885
210	0x3ecd4778	0.4009359
211	0xbe94a638	-0.29033065
212	0xbe1058e1	-0.14096405
213	0xbdd6b56d	-0.10483823
214	0xbeb7c9e6	-0.35896224
215	0xbe3ec1b4	-0.1862858
216	0xbf02de3f	-0.5112037
217	0xbe31c811	-0.17361476
218	0xbed65912	-0.4186483
219	0x3ec11f39	0.37719133
220	0x3df2a8b9	0.118485875
221	0x3ee067cc	0.4382919
222	0xbd47c9f0	-0.048776567
223	0xbdc47143	-0.095919155
224	0x3ea02d09	0.3128436
225	0x3f263249	0.6492048
226	0xbeede598	-0.4646423
227	0x3e49d54b	0.19710271
228	0xbdd96cba	-0.10616441
229	0x3dcc7715	0.099836506
230	0xbf4d5ea1	-0.8022252
231	0xbee4b1d2	-0.44666916
232	0x3dc5f680	0.09666157
233	0x3eac5ece	0.3366608
234	0x3e512816	0.20425448
235	0xbe222d4c	-0.15837592
236	0xbd81ab41	-0.06331492
237	0xbe18a877	-0.14908014
238	0x3d9b8d96	0.07595365
239	0x3dbc950a	0.092081144
240	0x3d4c7ab1	0.049921695
241	0x3e4d397c	0.2004146
242	0x3c5b968b	0.013402591
243	0x3ebc74d9	0.36807898
244	0xbe8fcc1c	-0.2808541
245	0x3d854316	0.06506936
246	0x3b8acb71	0.004235678
247	0xbeba1d90	-0.3635068
248	0x3e9b725d	0.3036069
249	0x3ec185db	0.37797436
250	0x3eb1f388	0.34756112
251	0xbe919465	-0.2843353
252	0x3dfc00d1	0.12304843
253	0x3e77fe76	0.24218163
254	0xbe0164eb	-0.12636153
255	0x3f0d0e76	0.5510019

transformer.transformer_encoder.layers.0.self_attn.in_proj_bias f4 [96]
0	0x3f3fb917	0.748918
1	0x3d638147	0.05554321
2	0xbe9ce36c	-0.3064226
3	0xbf9810f8	-1.1880178
4	0x3dd8577a	0.1056356
5	0x3ddc690e	0.10762225
6	0x3e110741	0.14162923
7	0x3f30b02a	0.69018805
8	0x3e3d7c98	0.1850456
9	0x3e4db694	0.2008918
10	0xbedf01a1	-0.4355593
11	0x3e8afff9	0.27148417
12	0x3f0c8ea6	0.54905164
13	0xbe1b2997	-0.15152584
14	0x3e5d514b	0.21613042
15	0x3e17a6bf	0.14809702
16	0xbecb1e58	-0.39671588
17	0xbee0312b	-0.43787512
18	0x3e3c6da0	0.18401194
19	0xbeabe14c	-0.33570325
20	0xbf16c477	-0.5889353
21	0xbd0962b9	-0.033541415
22	0xbe559523	-0.20857672
23	0x3df924b8	0.12165207
24	0xbeee75dc	-0.46574295
25	0x3f1de924	0.6168387
26	0xbf177a0e	-0.59170616
27	0x3be667cc	0.0070314165
28	0xbefcb621	-0.49357703
29	0x3d3e8a5a	0.04651866
30	0x3e43e2fe	0.1912956
31	0xbe01902e	-0.12652656
32	0x3f02ff93	0.51171225
33	0x3eaa63c9	0.33279255
34	0x3c662340	0.01404649
35	0xbea90a30	-0.33015585
36	0xbec96d8e	-0.39341396
37	0xbe3194b3	-0.1734188
38	0x3ec762a2	0.38942438
39	0x3cc09229	0.023507195
40	0xbebb747e	-0.36612314
41	0x3f513674	0.81723714
42	0xbda3a126	-0.07989721
43	0xbe2e3e7b	-0.17016022
44	0x3e7c72c2	0.24653152
45	0x3ef03c9c	0.4692124
46	0xbe3ce267	-0.1844574
47	0x3df1f078	0.11813444
48	0xbf0b2dbc	-0.5436666
49	0xbf0f195f	-0.5589809
50	0xbe6f213d	-0.23352523
51	0x3f1f4c16	0.6222547
52	0xbe7ba1d8	-0.24573457
53	0xbe22a54a	-0.15883365
54	0x3dcd486d	0.1002358
55	0x3ed63daf	0.41843936
56	0x3ea791b5	0.32728353
57	0x3d875127	0.066072755
58	0xbeb5e5d3	-0.35526904
59	0x3e4f971b	0.20272486
60	0xbe6309d8	-0.22171724
61	0xbf4b28d5	-0.7935918
62	0xbded1b19	-0.11577434
63	0x3e9599c5	0.2921888
64	0x3ca7bf5b	0.020476988
65	0x3dd04587	0.10169511
66	0x3ccfd4ef	0.02537009
67	0xbb0912c6	-0.002091573
68	0x3d1bb306	0.038012527
69	0xbd34f62b	-0.044180077
70	0x3e0fee41	0.1405573
71	0x3ea60260	0.32423687
72	0x3c05ee6c	0.00817452
73	0x3b84bf10	0.0040510967
74	0xbe124810	-0.14285302
75	0x3c8b62e3	0.017014926
76	0x3dfb74cc	0.122781366
77	0x3e8a3103	0.26990518
78	0xbed92f8f	-0.42419097
79	0xbdb4c86e	-0.088272914
80	0x3ca9020f	0.020630864
81	0x3c0f27d3	0.008737522
82	0x3c8f6941	0.017506244
83	0xbd3fd115	-0.046830256
84	0x3d151778	0.036399335
85	0x39a20091	0.0003089947
86	0xbc927000	-0.017875671
87	0xbd7881c4	-0.06067063
88	0xbe67b92f	-0.22629236
89	0xbcb32dba	-0.02187239
90	0x3db8590e	0.09001361
91	0xbd2cea4f	-0.04221564
92	0x3d78a878	0.06070754
93	0xbd91509f	-0.070954554
94	0xbcb45b0f	-0.022016076
95	0x3d1a90b0	0.03773564

transformer.transformer_encoder.layers.0.self_attn.out_proj.weight f4 [32, 32]
0	0x3c32f2f5	0.010922183
1	0xbdcd0bfd	-0.10012052
2	0x3e2ebf82	0.17065242
3	0xbbdf477c	-0.0068139415
4	0xbdc33de5	-0.0953329
5	0xbcede654	-0.029040493
6	0x3e028c22	0.12748769
7	0x3c8f78f6	0.017513733
8	0xbdac24dd	-0.084054686
9	0xbc97e143	-0.01854003
10	0x3d84d6f6	0.06486313
11	0x3d9742d4	0.07385793
12	0x3b3f4bed	0.0029189542
13	0xbdefd8eb	-0.11711296
14	0x3e08f5a6	0.13374957
15	0xbd33200e	-0.04373174
16	0xbd0299be	-0.0318849
17	0x3d230914	0.03980358
18	0x3d0a9de2	0.033841975
19	0x3e9e9e90	0.3098035
20	0xbb3d0191	-0.0028840045
21	0xbce4d025	-0.027931282
22	0x3a37fb90	0.0007018382
23	0xbd251539	-0.040303443
24	0xbd3fe566	-0.04684963
25	0x3b67b9a9	0.0035358465
26	0x3cda7555	0.026667276
27	0xbd56f671	-0.05248112
28	0x3d5b345a	0.053516723
29	0xbd3361aa	-0.04379431
30	0x3dc4c484	0.09607795
31	0x3e2619af	0.16220735
32	0xbbe18669	-0.006882478
33	0x3deb4127	0.11487036
34	0xbd5a96ae	-0.053366356
35	0xbd719b37	-0.058985915
36	0x3d3f117c	0.046647534
37	0xbcd0b22b	-0.025475582
38	0xbc392b30	-0.011301801
39	0x3db2dd6b	0.087336384
40	0xbcc88ee9	-0.024482207
41	0x3c2a1f1c	0.010383394
42	0x3d058a0d	0.03260236
43	0xbe031f73	-0.12804966
44	0x3c1fd98c	0.009756457
45	0xbaee3d9b	-0.0018176319
46	0xbcb549b9	-0.02212988
47	0xbdede92b	-0.11616739
48	0xbe02573e	-0.12728593
49	0x3d3632a0	0.044481874
50	0xbd14f54d	-0.03636675
51	0xbdb4d200	-0.08829117
52	0xbca0c0d2	-0.019623194
53	0x3d0b4ae9	0.034006987
54	0x3d9cecbb	0.0766234
55	0xbda7178d	-0.08158789
56	0xbc967763	-0.018367475
57	0x3d526497	0.05136546
58	0xbd0a1171	-0.03370804
59	0x3dada4ff	0.08478736
60	0xbe2d3764	-0.16915661
61	0xbcab4c86	-0.020910513
62	0x3cb190d7	0.02167551
63	0xbdcc00ff	-0.099611275
64	0xbdb7d696	-0.08976476
65	0xbdb0f4a0	-0.086404085
66	0xbe507eb8	-0.2036084
67	0xbc8530d7	-0.01625864
68	0x3c6692e4	0.014073107
69	0x3d34f457	0.044178333
70	0xbce024fe	-0.02736139
71	0xbdf69e01	-0.120418556
72	0x3d159427	0.036518242
73	0xbcb93d4d	-0.022612238
74	0x3d6fb615	0.058523256
75	0xbe02270c	-0.12710208
76	0xbdacb5bf	-0.08433103
77	0x3d45bb78	0.048274487
78	0x3e17273e	0.14761063
79	0x3c4f1a39	0.012640529
80	0x3e706092	0.23474339
81	0xbdaac3a3	-0.08338096
82	0x3daca538	0.084299505
83	0x368a8a03	4.128787e-06
84	0xbda2de6d	-0.079525806
85	0x3d9ecb88	0.07753664
86	0x3da85dfd	0.08221052
87	0x3d4edbb3	0.05050249
88	0x388c6cc9	6.695983e-05
89	0xbcecceda	-0.028907228
90	0x3c8172ea	0.015801866
91	0xbd9c0c8b	-0.0761958
92	0x3d301fa8	0.04299894
93	0x3cc60310	0.024171382
94	0x3d59e144	0.053193346
95	0xbdd87d5b	-0.10570785
96	0x3bcd4efd	0.0062655197
97	0x3d4f360f	0.050588664
98	0x3e8eaed9	0.27867773
99	0x3d16103a	0.03663657
100	0x3c964165	0.01834173
101	0xbc184581	-0.009293915
102	0x3b131090	0.0022440292
103	0x3c9ecfd8	0.019386217
104	0xbdd1c731	-0.10243071
105	0xbc77604c	-0.015098643
106	0x3be4d9f0	0.006983988
107	0x3d3a2d61	0.045453433
108	0xbb8874bc	-0.0041643064
109	0xbdb50c46	-0.088402316
110	0xbe244741	-0.16042806
111	0x3d9c90fa	0.076448396
112	0xbe03e6c5	-0.12881
113	0x3d395694	0.045248583
114	0xbd4acf90	-0.049514353
115	0xbd112301	-0.035433773
116	0x3e120052	0.14257935
117	0xbd9b0de4	-0.07571009
118	0x3d77582a	0.060386814
119	0xbd9a1884	-0.07524207
120	0xbe6a8331	-0.22901608
121	0x3bea2780	0.007145822
122	0xbd278ae5	-0.040903945
123	0x3c4bd0e0	0.012439936
124	0x3d2fc963	0.042916667
125	0x3bdb91fb	0.006700752
126	0x3dd42a56	0.103596374
127	0x3df34718	0.118787944
128	0xbd4ff639	-0.050771926
129	0x3da1d074	0.079010874
130	0xbd02ef92	-0.031966753
131	0xbc04d70b	-0.008107911
132	0xbc220e1b	-0.009891058
133	0xbd8f2fa6	-0.0699151
134	0xbcd32c7e	-0.025778051
135	0x3e35c780	0.17751884
136	0x3b828c1a	0.0039839866
137	0xbc4e613f	-0.012596427
138	0xbd39821e	-0.045290105
139	0xbd7171d7	-0.058946457
140	0x3d3cf589	0.046132598
141	0x3d220b56	0.039561592
142	0xbd3d6111	-0.046235148
143	0xbdc30de5	-0.095241345
144	0x3c957c08	0.01824762
145	0x3d0fbe41	0.03509355
146	0x3d4b710c	0.049668357
147	0x3cd45de2	0.025923673
148	0xbcf33048	-0.029686108
149	0xbdeb1406	-0.114784285
150	0xbc90d674	-0.017680384
151	0x3da63c58	0.081169784
152	0xbe1e82b4	-0.15479547
153	0x3d2690a3	0.04066528
154	0x3cfd64db	0.03093188
155	0xba658d6a	-0.0008756729
156	0x3e0971f7	0.1342238
157	0x3e04162d	0.12899084
158	0xbda6937a	-0.08133598
159	0x3dcd4ccb	0.10024413
160	0xbbf7320c	-0.007543808
161	0x3e0de9a0	0.13858652
162	0xbd916043	-0.070984386
163	0xbcba0fa7	-0.022712542
164	0x3c629994	0.013830561
165	0xbd197936	-0.03746911
166	0x3e9d9742	0.30779463
167	0x3e0ab425	0.13545282
168	0xbd0193bb	-0.031635027
169	0xbdc304a6	-0.09522371
170	0x3cf5582a	0.029949266
171	0x3e0c87f4	0.13723737
172	0x3cd3d5c2	0.025858764
173	0x3d9ef1ed	0.077609874
174	0x3e265966	0.1624504
175	0xbcd81cec	-0.026380979
176	0xbd8f7710	-0.07005131
177	0xbd8099b7	-0.06279319
178	0x3e00a927	0.12564526
179	0x3e696689	0.2279302
180	0x3d0cccef	0.034375127
181	0x3dc25ce9	0.094903775
182	0xbd087cc2	-0.033322103
183	0xbc9a2f5c	-0.01882141
184	0x3e14b959	0.1452383
185	0xbc703a1d	-0.014662293
186	0x3b9fcf80	0.004877031
187	0x3e0fcb5f	0.14042424
188	0xbdcf9139	-0.10135121
189	0xbc30ed38	-0.010798745
190	0x3e013ec7	0.12621604
191	0xbc55bafa	-0.013045067
192	0x3cc09ada	0.023511339
193	0xbda36953	-0.079790734
194	0x3e90a3b0	0.28249884
195	0xbd9fa1d7	-0.077945404
196	0xbe041443	-0.12898354
197	0x3d7f0a95	0.06226595
198	0xbe60fe2f	-0.21971963
199	0xbe22f994	-0.15915519
200	0x3ce160f8	0.027512059
201	0x3d3bb279	0.0458245
202	0x3d94bb92	0.07262339
203	0x3d8f077d	0.0698385
204	0xbd1cc5b0	-0.038274467
205	0xbdef12ba	-0.11673494
206	0xbdbacabb	-0.09120699
207	0x3d003a9f	0.031305905
208	0x3c65e0f8	0.0140306875
209	0xbd0a352d	-0.03374212
210	0xbcea30ae	-0.028587665
211	0x3e17c4df	0.14821194
212	0x3e0e0930	0.13870692
213	0x3cc0a699	0.02351694
214	0x3ce50f22	0.027961317
215	0xbd2501f0	-0.04028505
216	0xbd914483	-0.07093146
217	0xbd930d8a	-0.07180317
218	0x3d14b374	0.036303952
219	0x3b9ce2a2	0.004787759
220	0x3d26eb2e	0.04075163
221	0x3c89ac4a	0.016805787
222	0x3de062bb	0.10956331
223	0x3db186c7	0.08668285
224	0xbddaf35c	-0.10690948
225	0xbdb931a9	-0.09042675
226	0xbe51867c	-0.20461458
227	0xbd868cda	-0.06569834
228	0xbb1b27ca	-0.002367484
229	0x3b9243a1	0.0044636284
230	0x3dc5fe69	0.096676655
231	0x3e23516c	0.15949029
232	0xbd14229b	-0.036165815
233	0x3dc2b66c	0.095074505
234	0xbc194afc	-0.009356257
235	0x3cd942dd	0.02652114
236	0xbd0417b7	-0.03224918
237	0x39703f7d	0.00022911835
238	0x3e7a943e	0.24470612
239	0x3d0259df	0.03182399
240	0x3e7934de	0.24336573
241	0x3d4cab3f	0.049968
242	0x3d0329cc	0.032022282
243	0x3df5a627	0.11994582
244	0xbdcd86d3	-0.10035481
245	0xbd0ad3d5	-0.033893425
246	0x3e00f735	0.12594302
247	0xbdb3c9f7	-0.08778756
248	0x3eb12b15	0.3460318
249	0x3cf8bcf1	0.030363532
250	0xbe783ac8	-0.24241173
251	0xbd4b05e9	-0.049566183
252	0x3e3521f6	0.17688736
253	0xbdcbe8b0	-0.09956491
254	0xbc806690	-0.015673906
255	0x3d62215e	0.055207603

transformer.transformer_encoder.layers.0.self_attn.out_proj.bias f4 [32]
0	0xbf0f5927	-0.5599541
1	0xbf0b8e60	-0.5451412
2	0xbf62d073	-0.8859932
3	0xbf18963f	-0.5960426
4	0x3f327c8c	0.69721293
5	0xbe7eb7e4	-0.24874836
6	0xbf2f5fb6	-0.6850542
7	0xbe7b9d9a	-0.24571839
8	0xbf22e4d9	-0.63630444
9	0xbe4bf1db	-0.1991648
10	0x3da81f5c	0.08209106
11	0xbeb48766	-0.3525955
12	0xbe139822	-0.14413503
13	0x3e900639	0.28129748
14	0xbe28acd2	-0.16472176
15	0xbf5a6a50	-0.8531847
16	0xbe7250c6	-0.23663625
17	0x3d219afc	0.039454445
18	0xbe7e2a39	-0.24820794
19	0xbf60c487	-0.87799877
20	0xbf41e321	-0.75737196
21	0xbe19165f	-0.1494994
22	0xbec55482	-0.38541037
23	0xbc9f0ca0	-0.0194152
24	0x3f7c3dc1	0.9853173
25	0x3ebdbf9c	0.3706025
26	0x3f4b9adc	0.7953317
27	0x3eb84986	0.35993594
28	0xbe148534	-0.14503938
29	0x3f03a7d7	0.5142798
30	0x3eb0d0ef	0.34534404
31	0x3fa06e3a	1.2533638

transformer.transformer_encoder.layers.0.linear1.weight f4 [64, 32]
0	0x3eeb73cf	0.45986792
1	0xbde64620	-0.11243844
2	0xbe2d5be6	-0.16929588
3	0xbecd1f60	-0.40063
4	0xbec74f20	-0.38927555
5	0x3d994375	0.074835695
6	0x3d1f7bec	0.03893654
7	0xbc617969	-0.013761857
8	0xbba15253	-0.004923144
9	0xbec669a6	-0.38752478
10	0x3f0cf0c1	0.5505486
11	0x3e3e2e4c	0.18572348
12	0xbba46a00	-0.005017519
13	0x3e14e1db	0.14539282
14	0xbd47b44f	-0.04875594
15	0xbdc6e21e	-0.09711097
16	0xbdf56b01	-0.119833
17	0x3ee1ba9c	0.44087684
18	0xbd3bd0ad	-0.045853306
19	0x3dc283c2	0.09497787
20	0xbe18c7a6	-0.1491991
21	0xbda3956c	-0.07987484
22	0x3f5a5f46	0.85301626
23	0x3ef2c6f0	0.47417402
24	0xbee03db9	-0.4379709
25	0xbeb33aba	-0.35005742
26	0xbd036be6	-0.03208532
27	0xbda285be	-0.079356655
28	0x3ee54a51	0.4478326
29	0x3e0b9145	0.13629635
30	0xbd374354	-0.044741943
31	0xbf1c12a0	-0.6096592
32	0x3ebfc52b	0.37455115
33	0x3dff24c7	0.124581866
34	0x3f1189ab	0.5685069
35	0x3e4909dc	0.19632667
36	0x3e86a15d	0.26294985
37	0x3ea25daf	0.317121
38	0xbe0dd5fc	-0.1385116
39	0x3e33ebc0	0.175704
40	0xbe471638	-0.1944207
41	0x3e548c66	0.20756683
42	0x3ea77e2a	0.32713443
43	0x3f16e470	0.5894232
44	0x3d956bd1	0.07295955
45	0xbeba3272	-0.36366612
46	0x3e031c23	0.12803702
47	0x3eb73c1c	0.35788047
48	0xbe98bb7f	-0.29830548
49	0xbedab1b0	-0.4271369
50	0xbea8ce23	-0.3296977
51	0xbf0b7768	-0.54479074
52	0xbe9d4397	-0.3071563
53	0xbeccb70a	-0.39983398
54	0xbeefedf6	-0.46861237
55	0x3d337fc8	0.043823034
56	0xbee92214	-0.45533812
57	0x3e314e89	0.17315115
58	0xbdbc9de8	-0.09209806
59	0x3e929333	0.2862793
60	0x3e9fe0a2	0.3122607
61	0xbeb054c6	-0.34439677
62	0x3e006b7d	0.12541004
63	0xbe39636b	-0.18104331
64	0x3cd9bd74	0.026579596
65	0x3e1bacc0	0.15202618
66	0x3f0658f7	0.524795
67	0xbe73c1dd	-0.23804422
68	0xbefde686	-0.49589938
69	0xbd4a4ac9	-0.049387727
70	0x3eabe9c3	0.33576784
71	0xbcbca7e1	-0.02302927
72	0x3ec2f53c	0.38077724
73	0xbf367909	-0.71278435
74	0x3f067e5f	0.52536577
75	0x3e9534e3	0.29141912
76	0xbee9750a	-0.45597106
77	0xbf0cdf3e	-0.5502814
78	0x3e797e85	0.2436467
79	0x3f44d752	0.7689105
80	0x3e6f7874	0.23385793
81	0xbf0b6fb8	-0.54467344
82	0x3e8868e2	0.2664252
83	0x3ed17c4e	0.4091515
84	0x3c0880e1	0.008331508
85	0x3eb1a895	0.3469893
86	0x3e20a404	0.15687567
87	0xbc39ed3b	-0.011348064
88	0x3e438f31	0.19097592
89	0x3d4faa1f	0.05069935
90	0xbe89ad79	-0.26890162
91	0xbea160c4	-0.3151914
92	0xbe515738	-0.20443428
93	0xbe28931f	-0.16462372
94	0x3b56d643	0.0032781519
95	0xbdd05730	-0.1017288
96	0xbe20c5c7	-0.15700446
97	0xbe03c769	-0.12869038
98	0x3c692e01	0.01423216
99	0xbde4642a	-0.11151917
100	0x3e894a82	0.26814657
101	0x3e8d6428	0.27615476
102	0x3e80164b	0.25017008
103	0xbce02aba	-0.027364124
104	0xbe92efb1	-0.28698495
105	0xbe857690	-0.26067019
106	0x3ea1fbe5	0.31637493
107	0x3d54a318	0.05191335
108	0x3e28dad4	0.16489726
109	0x3d9770e4	0.07394579
110	0xbe06ceb7	-0.13164793
111	0x3e27a31e	0.16370818
112	0xbdebd8a4	-0.1151593
113	0x3c0621e5	0.008186792
114	0x3ed0426a	0.4067567
115	0x3e01a958	0.12662256
116	0x3ddb4e2d	0.1070827
117	0xbe8e1dc6	-0.2775709
118	0x3eba21e9	0.36353996
119	0xbd4b245c	-0.049595222
120	0xbe975bf3	-0.2956234
121	0xbedc789e	-0.43060774
122	0xbe1f82ea	-0.15577284
123	0x3f354fb7	0.7082476
124	0x3d065519	0.032796
125	0xbe7d10ed	-0.24713488
126	0xbdc33cce	-0.09533082
127	0xbed0d643	-0.4078847
128	0x3ebdd407	0.37075827
129	0x3efc5f04	0.4929124
130	0x3f0da609	0.55331475
131	0x3eb80a8c	0.35945547
132	0xbf3e51ef	-0.7434377
133	0xbecb87b3	-0.39751968
134	0xbe8e3831	-0.27777246
135	0x3dd3b82f	0.103378646
136	0x3e53c71f	0.20681427
137	0x3da9ff77	0.08300679
138	0x3ee74d93	0.45176372
139	0xbd7f8fc1	-0.062392954
140	0xbe546560	-0.20741796
141	0xbf17156b	-0.59017056
142	0x3ea22d24	0.31675065
143	0x3b97c428	0.004631538
144	0x3e29180d	0.16513081
145	0x3e93ab7f	0.2884178
146	0x3d590e17	0.052991953
147	0x3cf199d8	0.029492304
148	0x3e0697c5	0.13143833
149	0xbecfaaa5	-0.4055988
150	0x3ea87386	0.32900637
151	0x3f2113b6	0.629207
152	0xbf373688	-0.71567583
153	0xbf03db1e	-0.5150622
154	0xbea7a5cb	-0.32743677
155	0xbefeb527	-0.49747583
156	0x3e5488b3	0.20755272
157	0xbd9b0ccf	-0.075708024
158	0xbd9b94ff	-0.07596778
159	0xbe2b8b6f	-0.16752408
160	0x3e67afee	0.22625706
161	0x3e7902ce	0.24317476
162	0xbe99afa1	-0.30016807
163	0xbe87794d	-0.26459733
164	0xbf308259	-0.68948895
165	0xbec59531	-0.38590387
166	0xbe0f5d3c	-0.1400041
167	0xbe8f2771	-0.2795978
168	0x3f19d153	0.6008503
169	0x3e81cc10	0.25351
170	0xbd8b9568	-0.06815606
171	0xbe821f99	-0.25414732
172	0x3e822b55	0.25423685
173	0x3ed88e06	0.42295855
174	0x3f08f6e2	0.53501713
175	0x3f2c370c	0.67271495
176	0x3e1f29a5	0.1554323
177	0x3ed2b487	0.41153356
178	0x3e32399e	0.17404792
179	0xbe270544	-0.16310602
180	0x3d3dbdb5	0.046323497
181	0xbe8a71ad	-0.27039853
182	0x3f215352	0.6301776
183	0xbdf65cc3	-0.12029412
184	0xbeff362a	-0.4984601
185	0x3ee6df13	0.45092067
186	0xbeade65c	-0.33964813
187	0xbd6bfa1d	-0.057611573
188	0x3de43609	0.11143119
189	0x3e2afebb	0.16698734
190	0x3e16ae79	0.14714994
191	0xbe98efca	-0.29870445
192	0x3ea48b76	0.3213765
193	0x3d419cbd	0.047268618
194	0xbc9b1e2c	-0.018935286
195	0xbe6681fa	-0.2251052
196	0x3e5f16f2	0.21786097
197	0xbec1dd12	-0.37863976
198	0xbd5c9f7a	-0.053863026
199	0xbd4668e9	-0.048439894
200	0x3f363d99	0.7118774
201	0xbe9f0fb3	-0.31066665
202	0x3e6c7332	0.23090819
203	0xbe6c1dca	-0.23058239
204	0x3f0d6762	0.55235875
205	0xbe8a8fba	-0.2706278
206	0x3f00b145	0.5027049
207	0xbe52336d	-0.2052743
208	0x3ea2b20e	0.3177647
209	0xbeb9e906	-0.36310595
210	0x3ec83b32	0.39107662
211	0x3e167d0a	0.14696136
212	0x3c9335e7	0.017970039
213	0x3e174047	0.14770614
214	0xbdd0bf5e	-0.101927504
215	0xbed748d4	-0.4204775
216	0xbf0f389d	-0.5594576
217	0x3e94e9c3	0.29084596
218	0xbe4e72c9	-0.20160975
219	0xbd818eac	-0.063260406
220	0xbe94b5b2	-0.29044873
221	0x3e1d5fb5	0.1536854
222	0x3e833e34	0.25633395
223	0xbf03792d	-0.51356775
224	0x3f1b6074	0.6069405
225	0x3e9dc4f6	0.30814332
226	0x3d8f0b9a	0.06984635
227	0x3dce8d8f	0.10085594
228	0xbe32aa52	-0.17447785
229	0x3ed96324	0.4245845
230	0x3d77428e	0.060366206
231	0xbd8e7c06	-0.06957249
232	0x3e155572	0.14583376
233	0x3f0bc06a	0.54590476
234	0x3f1ebc88	0.62006426
235	0xbdac4a95	-0.08412663
236	0xbdbe004a	-0.09277399
237	0xbee00b10	-0.4375844
238	0x3e3ccf4a	0.1843845
239	0x3f00a54c	0.50252223
240	0x3e42b72d	0.19015189
241	0x3d3a1421	0.045429353
242	0xbef65789	-0.4811366
243	0xbec6a6d4	-0.38799155
244	0xbeb8d7ae	-0.3610205
245	0x3efb7b70	0.49117613
246	0xbe01d72c	-0.12679738
247	0x3eb791d3	0.35853443
248	0xbce7cef8	-0.028296933
249	0x3cf392cd	0.029733086
250	0xbe99d8c4	-0.30048192
251	0xbdde1582	-0.10843946
252	0xbf212725	-0.62950355
253	0xbe350ae7	-0.1767994
254	0xbd852fe8	-0.06503278
255	0xbf4c096b	-0.7970187

transformer.transformer_encoder.layers.0.linear1.bias f4 [64]
0	0xbea8ea50	-0.32991266
1	0xbeca5328	-0.39516568
2	0xbeee49c0	-0.46540642
3	0xbea00ad8	-0.31258273
4	0xbee0e11a	-0.4392174
5	0xbe868524	-0.26273453
6	0xbee0993b	-0.43866906
7	0xbe8afec0	-0.27147484
8	0xbefacf8b	-0.48986468
9	0xbea7c637	-0.32768413
10	0xbe9dced9	-0.30821875
11	0xbecac4b5	-0.396032
12	0xbec22c31	-0.3792434
13	0xbe79fc89	-0.24412741
14	0xbeb8d9ed	-0.36103764
15	0xbec31f6f	-0.3810992
16	0xbef40618	-0.476609
17	0xbe792f2f	-0.24334405
18	0xbf0181e1	-0.50588804
19	0xbe6d15eb	-0.23152892
20	0xbec6556f	-0.38737056
21	0xbeb996d3	-0.36247882
22	0xbee400bd	-0.44531813
23	0xbe872283	-0.26393518
24	0xbea179d2	-0.31538254
25	0xbf1e21d2	-0.61770356
26	0xbeb6ed70	-0.35728025
27	0xbebf1ee7	-0.37328264
28	0xbe9b97e6	-0.30389327
29	0xbe720cf9	-0.23637761
30	0xbdd31db0	-0.10308397
31	0xbec6189a	-0.38690645
32	0xbefdbbd0	-0.49557352
33	0xbf046417	-0.51715225
34	0xbeea7952	-0.45795685
35	0xbe2f9afb	-0.17148964
36	0xbe94e50f	-0.29081008
37	0xbea3db02	-0.32003027
38	0xbe801183	-0.2501336
39	0xbee1440b	-0.43997225
40	0xbecb01ab	-0.3964971
41	0xbeafbbc7	-0.3432295
42	0xbebb2e10	-0.3655858
43	0xbf12ff4e	-0.57420814
44	0xbeae03bc	-0.33987224
45	0xbec893e2	-0.39175326
46	0xbe6f0654	-0.23342258
47	0xbea53afb	-0.3227156
48	0xbe22e966	-0.15909347
49	0xbea30639	-0.31840685
50	0xbef934fe	-0.48673242
51	0xbe4d2ca1	-0.20036556
52	0xbef59243	-0.4796315
53	0xbeb988bf	-0.3623714
54	0xbf0b8694	-0.54502225
55	0xbeb8b48e	-0.36075252
56	0xbebf0a72	-0.37312657
57	0xbe94c1eb	-0.29054198
58	0xbed15402	-0.40884405
59	0xbe09f7b6	-0.134734
60	0xbef241be	-0.47315782
61	0xbea149fb	-0.31501755
62	0xbed6249b	-0.41824803
63	0xbe94fc9a	-0.2909897
