models/sqa-v2/mfcc/model_mfcc_full.pt (torch, 227341 bytes, 67 tensors)

norm_input.weight f4 [40]
1.317679 1.2822309 1.1039137 0.9714182 0.91194654 0.9715312 0.87587756 0.8356252
0.82045656 0.77826905 0.89535046 0.84536666 0.8038754 0.8521625 0.8316051 0.7873091
0.8291393 0.7836527 0.7146713 0.6206278 0.6792933 0.5832303 0.5013714 0.543514
0.6120225 0.6245516 0.56707996 0.5968575 0.47235477 0.5411386 0.46017703 0.6584534
0.5868837 0.5651116 0.60217506 0.5228674 0.53989154 0.5633682 0.5202296 0.5594816
00000000: b5a9 a83f 2420 a43f 0b4d 8d3f ddae 783f
00000010: 5475 693f 45b6 783f 8339 603f 88eb 553f
00000020: 7109 523f a43c 473f b035 653f f369 583f
00000030: c7ca 4d3f 5227 5a3f 12e4 543f 178d 493f
00000040: 7942 543f 779d 483f b3f4 363f 77e1 1e3f
00000050: 2ae6 2d3f 954e 153f e059 003f bc23 0b3f
00000060: 82ad 1c3f 9de2 1f3f 272c 113f a7cb 183f
00000070: 7cd8 f13e 0f88 0a3f 539c eb3e 6790 283f
00000080: 033e 163f 27ab 103f 2528 1a3f a3da 053f
00000090: 5536 0a3f e638 103f c42d 053f 303a 0f3f

norm_input.bias f4 [40]
-0.099959694 0.09229387 -0.111209296 0.009568366 0.025731983 0.004221587 -0.045183413 0.026037708
0.02044472 0.0059303525 0.009424101 0.04128672 0.042604163 0.008599301 -0.050302107 -0.023401838
0.029915575 0.06300597 -0.016364867 0.020130461 -0.014799332 0.0031823446 0.0041134185 -0.016814088
-0.050647486 0.029890593 -0.0075615393 -0.0058875857 0.012532044 -0.0011662265 -0.014466674 0.0282679
0.024594812 0.009443964 -0.010822481 -0.0017707101 0.023014698 -0.020564042 -0.01176624 -0.0072489344
00000000: abb7 ccbd 9204 bd3d b3c1 e3bd a3c4 1c3c
00000010: e1cb d23c 3d55 8a3b 3e12 39bd 084d d53c
00000020: af7b a73c 6753 c23b 8b67 1a3c 441c 293d
00000030: b481 2e3d 15e4 0c3c 9509 4ebd 36b5 bfbc
00000040: 8211 f53c 4609 813d 9d0f 86bc a3e8 a43c
00000050: e678 72bc e28e 503b dbc9 863b b3bd 89bc
00000060: bd73 4fbd 1edd f43c cac6 f7bb a6ec c0bb
00000070: 3453 4d3c 11dc 98ba a105 6dbc 1592 e73c
00000080: 0f7b c93c dbba 1a3c c650 31bc 2c17 e8ba
00000090: 5289 bc3c ec75 a8bc 30c7 40bc 7888 edbb

norm_input.running_mean f4 [40]
-262.41986 96.81786 -42.177937 12.209292 -16.577211 -32.112038 -7.7380743 -15.627029
-12.092006 3.730823 -13.075634 -2.085486 -2.8877447 -8.704407 -3.7231293 -4.0465927
-8.570824 1.0202923 -7.565591 -3.0248442 -1.7592608 -3.1807373 -0.68415195 2.0052183
-1.567083 4.9554667 2.0103076 3.9165916 5.130512 3.5043721 2.1139212 2.3982453
-2.6275468 -0.6314742 -4.557159 -6.3019166 -6.8716125 -8.152828 -8.628144 -6.57064
00000000: be35 83c3 bfa2 c142 35b6 28c2 4359 4341
00000010: 219e 84c1 ba72 00c2 4e9e f7c0 5008 7ac1
00000020: db78 41c1 cec5 6e40 cc35 51c1 9a78 05c0
00000030: cfd0 38c0 4045 0bc1 c047 6ec0 b07d 81c0
00000040: 1822 09c1 f098 823f 5219 f2c0 0c97 41c0
00000050: 752f e1bf 3391 4bc0 9524 2fbf 7f55 0040
00000060: 2d96 c8bf 2f93 9e40 e1a8 0040 70a9 7a40
00000070: 282d a440 a247 6040 7c4a 0740 da7c 1940
00000080: ba29 28c0 4ba8 21bf 3fd4 91c0 4da9 c9c0
00000090: 40e4 dbc0 fc71 02c1 e10c 0ac1 af42 d2c0

norm_input.running_var f4 [40]
25881.451 4630.018 2238.0618 941.00903 580.77515 833.02496 515.8612 333.03882
243.98203 181.86482 184.75626 136.00848 126.300644 159.6236 122.91201 105.44474
105.590614 83.90694 97.88385 97.701485 90.73458 91.68786 81.019066 79.81164
77.26783 79.193794 70.13949 69.40945 75.079956 66.64468 57.466476 53.123848
49.650806 44.67276 47.235817 49.982475 51.73819 50.94983 50.78636 43.23266
00000000: e732 ca46 25b0 9045 fde0 0b45 9440 6b44
00000010: 9c31 1144 9941 5044 1ef7 0044 f884 a643
00000020: 66fb 7343 65dd 3543 9ac1 3843 2c02 0843
00000030: ee99 fc42 a49f 1f43 f3d2 f542 b5e3 d242
00000040: 652e d342 5ad0 a742 88c4 c342 2967 c342
00000050: 1b78 b542 2f60 b742 c309 a242 8f9f 9f42
00000060: 2189 9a42 3963 9e42 6b47 8c42 a3d1 8a42
00000070: f028 9642 134a 8542 acdd 6542 d27e 5442
00000080: 6d9a 4642 e8b0 3242 7af1 3c42 0eee 4742
00000090: e8f3 4e42 a0cc 4b42 3c25 4b42 3eee 2c42

transformer.norm.weight f4 [40]
1.3958373 1.3317944 1.0494834 0.8898002 0.82219845 0.93782085 0.7724905 0.74060214
0.7130824 0.6600419 0.81806684 0.7417629 0.6776258 0.7441212 0.7069811 0.6695374
0.7153407 0.6613994 0.56345034 0.4495481 0.5133745 0.39764696 0.31075945 0.33257538
0.46423206 0.46165133 0.39134976 0.42066342 0.27448228 0.34670976 0.26557425 0.4963098
0.43067235 0.3790742 0.43284786 0.3355406 0.34367278 0.379332 0.33014446 0.37717217
00000000: ccaa b23f 3d78 aa3f 7955 863f f2c9 633f
00000010: 997b 523f 0715 703f f0c1 453f 1a98 3d3f
00000020: 918c 363f 82f8 283f d46c 513f 2ce4 3d3f
00000030: e278 2d3f ba7e 3e3f b7fc 343f ce66 2b3f
00000040: 9120 373f 7951 293f 483e 103f 2b2b e63e
00000050: 836c 033f 6298 cb3e dd1b 9f3e 5247 aa3e
00000060: d3af ed3e 905d ec3e ff5e c83e 3261 d73e
00000070: f188 8c3e f183 b13e 59f9 873e 511c fe3e
00000080: 1681 dc3e 0316 c23e 3c9e dd3e facb ab3e
00000090: e1f5 af3e ce37 c23e b208 a93e b61c c13e

transformer.norm.bias f4 [40]
0.09452678 -0.3374084 -0.19491844 0.0701081 0.09846813 0.011088639 0.16312335 0.1463982
0.20218027 0.09659166 0.041267212 0.17134894 0.22953607 0.0040045665 0.18892153 0.036044028
0.029189099 0.042258274 0.06599893 0.021163875 0.075977884 9.687523e-05 -0.020847125 -0.11520621
-0.08076163 -0.05745951 -0.02740708 -0.17626294 -0.024249082 0.03316342 -0.030178782 -0.034526285
-0.018882364 0.037791774 0.031058747 0.006161611 0.058513783 0.040590785 0.063033566 0.048874736
00000000: 4297 c13d cbc0 acbe b398 47be d694 8f3d
00000010: a9a9 c93d 1fad 353c cf09 273e 69e9 153e
00000020: 5808 4f3e d9d1 c53d cf07 293d 1976 2f3e
00000030: 810b 6b3e bd38 833b a574 413e e7a2 133d
00000040: fa1d ef3c 0317 2d3d 722a 873d dd5f ad3c
00000050: 4b9a 9b3d 7e29 cb38 97c7 aabc 3cf1 ebbd
00000060: 5a66 a5bd aa5a 6bbd d084 e0bc 467e 34be
00000070: 03a6 c6bc 5ed6 073d 7e39 f7bc 6f6b 0dbd
00000080: 30af 9abc 8ccb 1a3d ea6e fe3c 57e7 c93b
00000090: 26ac 6f3d 8642 263d be17 813d e030 483d

transformer.norm.running_mean f4 [40]
-0.10027911 0.09221391 -0.11122742 0.009618571 0.025622688 0.0041083847 -0.04505922 0.026152907
0.02042707 0.0058986624 0.009657704 0.04115235 0.042756736 0.008710328 -0.05028533 -0.023476716
0.030016776 0.063017406 -0.016255146 0.020131635 -0.014699808 0.0032390456 0.004121602 -0.016777163
-0.05071631 0.029745376 -0.0075262007 -0.0059693707 0.012518969 -0.0012988872 -0.014464702 0.028269725
0.024592107 0.009431715 -0.0109136235 -0.001802727 0.023094295 -0.020631414 -0.011710413 -0.0072762636
00000000: 225f cdbd a5da bc3d 34cb e3bd 3697 1d3c
00000010: ace6 d13c a19f 863b 0490 38bd 9f3e d63c
00000020: ac56 a73c 9149 c13b 593b 1e3c 5e8f 283d
00000030: b021 2f3d c3b5 0e3c fdf7 4dbd 3e52 c0bc
00000040: bee5 f53c 450f 813d 8329 85bc 19eb a43c
00000050: 77d7 70bc 2b46 543b 810e 873b 4370 89bc
00000060: e8bb 4fbd 93ac f33c 599e f6bb b69a c3bb
00000070: 5d1c 4d3c 6c3f aaba 5cfd 6cbc e995 e73c
00000080: 6375 c93c 7b87 1a3c 0ecf 32bc 7b49 ecba
00000090: 3f30 bd3c 3603 a9bc 08dd 3fbc b96d eebb

transformer.norm.running_var f4 [40]
1.7365367 1.6405398 1.219399 0.9439069 0.8328372 0.9485306 0.7696502 0.7000134
0.6732609 0.60657233 0.804918 0.7139849 0.646746 0.72759885 0.6895722 0.6205285
0.6898869 0.61465496 0.51335794 0.38658303 0.46215615 0.34431806 0.25451818 0.29766494
0.37303403 0.39133686 0.32171485 0.35238665 0.22368404 0.29548922 0.21147357 0.436634
0.34338495 0.3211936 0.3611029 0.27312788 0.29393557 0.31915388 0.2709428 0.31440267
00000000: d646 de3f 35fd d13f 4415 9c3f e2a3 713f
00000010: d234 553f e7d2 723f cc07 453f 1434 333f
00000020: d45a 2c3f 5348 1b3f 1b0f 4e3f b7c7 363f
00000030: 2591 253f eb43 3a3f ce87 303f f5da 1e3f
00000040: 6e9c 303f 075a 1d3f 6d6b 033f 36ee c53e
00000050: bb9f ec3e 754a b03e 3550 823e 8a67 983e
00000060: 51fe be3e 4e5d c83e cfb7 a43e 066c b43e
00000070: 6e0d 653e 5d4a 973e 878c 583e 7e8e df3e
00000080: 27d0 af3e 7d73 a43e 7be2 b83e 6bd7 8b3e
00000090: b97e 963e 2368 a33e 04b9 8a3e 63f9 a03e

transformer.position_encoding.pe f4 [1, 384, 32]
0.0 1.0 0.0 1.0 0.0 1.0 0.0 1.0
0.0 1.0 0.0 1.0 0.0 1.0 0.0 1.0
0.0 1.0 0.0 1.0 0.0 1.0 0.0 1.0
0.0 1.0 0.0 1.0 0.0 1.0 0.0 1.0
0.84147096 0.54030234 0.6132621 0.78987944 0.42217454 0.9065146 0.28378236 0.9588887
0.18881854 0.982012 0.12507936 0.99214673 0.08269767 0.9965747 0.054630887 0.9985066
0.03607656 0.999349 0.023820078 0.9997163 0.015726473 0.9998763 0.010382606 0.9999461
0.006854498 0.9999765 0.0045252484 0.99998975 0.002987503 0.9999955 0.001972303 0.99999803
0.9092974 -0.41614684 0.9688063 0.24781913 0.7654147 0.6435373 0.5442314 0.83893514
0.37084416 0.92869514 0.24819419 0.9687103 0.16482879 0.98632216 0.1090986 0.99403095
0.07210615 0.99739695 0.04762664 0.9988652 0.031449057 0.99950534 0.020764092 0.9997844
0.013708673 0.999906 0.009050404 0.99995905 0.0059749796 0.9999822 0.003944598 0.99999225
0.14112 -0.9899925 0.9172183 -0.398385 0.9655447 0.26023728 0.7599324 0.6500021
0.53952825 0.84196746 0.36741075 0.9300588 0.24583074 0.9693128 0.16324046 0.98658633
0.10804187 0.99414635 0.07140618 0.9974473 0.047163863 0.9988872 0.03114334 0.99951494
0.020562205 0.9997886 0.013575374 0.99990785 0.008962402 0.9999598 0.005916878 0.9999825
-0.7568025 -0.6536436 0.4801775 -0.87717134 0.98514587 -0.17171948 0.9131497 0.4076243
0.6888023 0.72494924 0.4808565 0.8767993 0.3251486 0.9456629 0.21689476 0.976195
0.14383692 0.98960143 0.09514519 0.9954634 0.062867 0.9980219 0.04151923 0.9991377
0.02741477 0.99962413 0.018100066 0.9998362 0.011949746 0.9999286 0.007889135 0.9999689
-0.9589243 0.2836622 -0.15865365 -0.9873343 0.8205534 -0.5715698 0.99128556 0.1317305
0.813296 0.5818502 0.58674973 0.8097683 0.402239 0.91553473 0.26990128 0.962888
0.17944469 0.98376805 0.118830204 0.99291456 0.078554586 0.9969098 0.051890645 0.99865276
0.034266047 0.9994127 0.022624388 0.99974406 0.014936983 0.9998884 0.009861361 0.99995136
-0.2794155 0.96017027 -0.730812 -0.6825788 0.5025415 -0.8645531 0.98791534 -0.15499443
0.90853053 0.41781852 0.68342716 0.7300187 0.47657377 0.8791345 0.32210162 0.9467051
0.21481885 0.97665393 0.1424478 0.9898023 0.094222754 0.9955511 0.062256467 0.99806017
0.041115716 0.9991544 0.027148247 0.9996314 0.017924085 0.99983937 0.011833549 0.99992996
0.6569866 0.75390226 -0.9958531 -0.09097567 0.09056887 -0.9958902 0.9033162 -0.4289753
0.97107977 0.23875536 0.7693703 0.63880306 0.5476437 0.83671165 0.37333995 0.9276946
0.24991333 0.9682682 0.16598454 0.98612833 0.10986761 0.99394625 0.07261557 0.99736
0.047963448 0.9988491 0.03167155 0.9994983 0.020911029 0.9997813 0.01380569 0.9999047
00000000: 0000 0000 0000 803f 0000 0000 0000 803f
00000010: 0000 0000 0000 803f 0000 0000 0000 803f
00000020: 0000 0000 0000 803f 0000 0000 0000 803f
00000030: 0000 0000 0000 803f 0000 0000 0000 803f
00000040: 0000 0000 0000 803f 0000 0000 0000 803f
00000050: 0000 0000 0000 803f 0000 0000 0000 803f
00000060: 0000 0000 0000 803f 0000 0000 0000 803f
00000070: 0000 0000 0000 803f 0000 0000 0000 803f
00000080: a46a 573f 4151 0a3f bffe 1c3f 8a35 4a3f
00000090: 4327 d83e 5711 683f ec4b 913e bb79 753f
000000a0: a659 413e 2365 7b3f ce14 003e 54fd 7d3f
000000b0: 655d a93d 851f 7f3f a3c4 5f3d 219e 7f3f
000000c0: 04c5 133d 56d5 7f3f 5322 c33c 68ed 7f3f
000000d0: ced4 803c e5f7 7f3f ce1b 2a3c 78fc 7f3f
000000e0: b29b e03b 76fe 7f3f 8948 943b 54ff 7f3f
000000f0: fcc9 433b b5ff 7f3f c141 013b dfff 7f3f
00000100: b7c7 683f 3311 d5be b103 783f 4cc4 7d3e
00000110: 38f2 433f dcbe 243f c052 0b3f 74c4 563f
00000120: 49df bd3e f7be 6d3f 9e26 7e3e 66fd 773f
00000130: e1c8 283e 9c7f 7c3f 166f df3d d078 7e3f
00000140: 64ac 933d 6855 7f3f 2714 433d a1b5 7f3f
00000150: bad0 003d 95df 7f3f 7519 aa3c dff1 7f3f
00000160: 589a 603c d7f9 7f3f 2548 143c 51fd 7f3f
00000170: c3c9 c33b d5fe 7f3f b041 813b 7eff 7f3f
00000180: c381 103e 2670 7dbf d2ce 6a3f 1ef9 cbbe
00000190: f02d 773f d23d 853e ee8a 423f 8a66 263f
000001a0: 861e 0a3f 2e8b 573f 431d bc3e 5518 6e3f
000001b0: 0ebb 7b3e e224 783f 8228 273e ec90 7c3f
000001c0: 0e45 dd3d 6080 7e3f 673d 923d b558 7f3f
000001d0: e52e 413d 12b7 7f3f 5120 ff3c 36e0 7f3f
000001e0: 1272 a83c 25f2 7f3f 3f6b 5e3c f6f9 7f3f
000001f0: 0ad7 123c 5efd 7f3f 5fe2 c13b dafe 7f3f
00000200: cfbd 41bf 3055 27bf d3d9 f53e 4d8e 60bf
00000210: 8532 7c3f 3bd7 2fbe 2ec4 693f 22b4 d03e
00000220: 5955 303f 4696 393f d332 f63e eb75 603f
00000230: e179 a63e f716 723f a919 5e3e eae7 793f
00000240: fc49 133e 8556 7d3f 7bdb c23d b0d6 7e3f
00000250: 6ac0 803d 5d7e 7f3f 1110 2a3d 7dc7 7f3f
00000260: f194 e03c 5ee7 7f3f 9746 943c 44f5 7f3f
00000270: dec8 433c 52fb 7f3f 6e41 013c f6fd 7f3f
00000280: 107c 75bf 2c3c 913e 1a76 22be f1c1 7cbf
00000290: ca0f 523f 6652 12bf e4c4 7d3f 5ce4 063e
000002a0: 2b34 503f 22f4 143f 3b35 163f fa4c 4f3f
000002b0: 45f2 cd3e 7c60 6a3f 8030 8a3e d47f 763f
000002c0: 59c0 373e 39d8 7b3f 405d f33d a62f 7e3f
000002d0: 3ae1 a03d 7b35 7f3f 498b 543d b5a7 7f3f
000002e0: 8e5a 0c3d 83d9 7f3f c856 b93c 3aef 7f3f
000002f0: 3fba 743c b0f8 7f3f 8c91 213c d0fc 7f3f
00000300: 8c0f 8fbe b8cd 753f 7f16 3bbf 7cbd 2ebf
00000310: 8fa6 003f 5a53 5dbf 05e8 7c3f dcb6 1ebe
00000320: 7595 683f 4fec d53e 15f5 2e3f 81e2 3a3f
00000330: 7a01 f43e f50e 613f 81ea a43e 445b 723f
00000340: 79f9 5b3e fe05 7a3f d6dd 113e af63 7d3f
00000350: dcf7 c03d 70dc 7e3f a300 7f3d df80 7f3f
00000360: f468 283d 95c8 7f3f 0066 de3c d8e7 7f3f
00000370: 88d5 923c 79f5 7f3f 80e1 413c 69fb 7f3f
00000380: 4630 283f bdff 403f 3bf0 7ebf 7451 babd
00000390: 2c7c b93d a9f2 7ebf bb3f 673f a7a2 dbbe
000003a0: af98 783f 497c 743e 74f5 443f 9988 233f
000003b0: 6132 0c3f bc32 563f 6a26 bf3e 657d 6d3f
000003c0: 48e9 7f3e 6de0 773f daf7 293e e872 7c3f
000003d0: 4502 e13d 4373 7e3f 79b7 943d fc52 7f3f
000003e0: 5275 443d 93b4 7f3f 07ba 013d 1fdf 7f3f
000003f0: 9b4d ab3c abf1 7f3f 4331 623c c1f9 7f3f

transformer.linear_proj.weight f4 [32, 40]
-0.14160934 -0.46455023 -0.017681986 -0.45556742 -0.36700672 -0.78340507 -0.06717826 0.21176802
0.9695737 0.6582348 0.05585906 0.23152788 -0.9123847 -0.97047466 -0.57493156 0.44349656
-0.62465894 0.7569141 -0.23923743 0.1300894 -0.3597054 -0.7997254 -0.1708579 -0.41660044
-0.08949696 0.025900511 0.25091386 0.09746785 0.21514824 -0.4292688 0.06323427 0.119642705
0.1346551 0.1510375 0.47447762 0.015932817 0.6112021 0.2793954 -0.20465153 0.5828812
0.2575132 -0.49710062 -0.4848358 -0.7608049 -0.39526072 -0.44646153 -0.5188368 -0.7512941
0.10039516 0.57630396 0.7143659 0.4648417 0.47548872 0.27561674 0.10503788 -0.5431818
0.5681555 -0.07703081 -0.05668034 -0.11631444 0.002197404 0.20526929 0.12508254 0.22200638
0.7976245 0.089571826 0.11746064 0.6445502 -0.27064937 -0.015471792 0.031341523 -0.14351065
-0.40305135 0.63719827 -0.03119703 1.1891333 -0.1805543 0.50386167 0.4581684 -0.17768352
0.42436725 0.13282715 -0.13162744 0.018293338 0.6969014 -0.28154868 -0.54632175 0.118897945
0.5873585 -0.7811512 -0.31824356 0.55666167 -0.21691307 0.32278064 0.21144286 0.27279437
0.3204128 -0.114628516 0.36940813 -0.59350103 -0.17827678 -0.057011254 0.2961632 0.17571852
0.025830593 -0.5589282 -0.14843917 -0.10780774 0.072345674 -0.078800894 0.54029524 0.3576865
0.5391881 0.4741143 0.017243275 0.3307028 0.047951806 0.55742675 0.036937565 0.3863284
-0.25126693 -0.2441675 -0.32154757 0.2436624 -0.65935564 -0.551572 -0.61801815 0.35209194
0.025085611 -0.21212462 -0.60519034 -0.6600602 0.019956341 0.9413863 -0.20613882 -0.10372228
-0.28110912 0.43345734 -0.49632764 0.37635446 -0.37063 0.46536148 -0.52950114 -4.1759955e-05
0.15565944 -0.5478967 0.08861551 0.116512835 -0.24257648 -0.1430393 -0.12450486 -0.7125925
-0.087475576 -0.3362553 0.6435952 0.1302739 -0.12851197 0.5664377 0.1360554 -0.49484748
0.01616594 0.8736104 0.19568004 0.009727509 0.7926321 0.5764367 0.4324452 0.87405246
0.1723153 0.2814919 0.019538455 0.82566494 0.5910429 0.41447118 -0.59295744 0.22614843
-0.042075444 0.47123998 -0.29022098 0.034574114 -0.41574615 0.22233713 0.87154394 0.376613
-0.07405534 0.11957527 -0.34165436 0.5418193 0.20620501 -0.22506008 0.08095242 -0.3212521
-0.5879733 -0.02696764 -0.015811365 -0.33648345 0.09202146 -0.6960032 -0.6482682 0.15221398
-0.054888885 -0.46335003 -0.0034107824 -0.4723836 0.09285819 -0.43169907 0.33930027 -0.6304947
-0.61324835 0.08814402 -0.33542058 0.44290414 0.1606733 -0.197708 -0.7404768 0.29107028
-0.51394534 -0.77051026 -0.7325429 -0.15908785 0.02128792 0.27481437 0.0442552 -0.22230135
-0.38165072 -0.8737931 -0.279526 -0.7919898 -0.61251944 0.33297688 0.349439 -0.372607
0.62040806 -0.29650843 0.4774949 0.46943897 0.036153026 -0.06934583 0.38947028 0.46827656
0.10696587 -0.2049165 -0.043207403 -0.5678774 0.48770145 -0.5077814 0.016388712 0.27003446
0.36021584 -0.62476176 0.3882837 0.057138633 -0.20120017 -0.015678326 0.21917114 -0.47154543
00000000: 0a02 11be 87d9 edbe d0d9 90bc 2240 e9be
00000010: 4ee8 bbbe 3c8d 48bf c194 89bd b7d9 583e
00000020: fb35 783f 1382 283f 78cc 643d a515 6d3e
00000030: 0b92 69bf 0771 78bf b72e 13bf fb11 e33e
00000040: a6e9 1fbf 1fc5 413f a8fa 74be 2836 053e
00000050: 4e2b b8be ceba 4cbf 60f5 2ebe a74c d5be
00000060: 2f4a b7bd 4f2d d43c c877 803e 399d c73d
00000070: d24f 5c3e 1fc9 dbbe f880 813d 3c07 f53d
00000080: 07e3 093e 93a9 1a3e bbee f23e 8a85 823c
00000090: be77 1c3f ea0c 8f3e 2c90 51be b437 153f
000000a0: c5d8 833e f983 febe 663c f8be 1cc4 42bf
000000b0: 9d5f cabe 9b96 e4be 7dd2 04bf cf54 40bf
000000c0: fa9b cd3d a888 133f afe0 363f bbff ed3e
000000d0: 4273 f33e a31d 8d3e 1a1e d73d f60d 0bbf
000000e0: a472 113f 54c2 9dbd a529 68bd 4436 eebd
000000f0: 5202 103b 1d32 523e a315 003e a455 633e
00000100: 1f31 4c3f 6f71 b73d 348f f03d 3e01 253f
00000110: 8e92 8abe 667d 7dbc f85f 003d 75f4 12be
00000120: bf5c cebe 6d1f 233f ea90 ffbc 8535 983f
00000130: 3ae3 38be 14fd 003f 0c95 ea3e abf2 35be
00000140: aa46 d93e d703 083e 58c9 06be e9db 953c
00000150: 2168 323f 2627 90be bedb 0bbf c480 f33d
00000160: 205d 163f 86f9 47bf d2f0 a2be 6181 0e3f
00000170: 761e 5ebe 8143 a53e 7a84 583e b4ab 8b3e
00000180: 260d a43e 5bc2 eabd 1023 bd3e afef 17bf
00000190: 308e 36be a284 69bd b4a2 973e 8eef 333e
000001a0: ae9a d33c eb15 0fbf 7000 18be 4eca dcbd
000001b0: f829 943d 5d62 a1bd ca50 0a3f af22 b73e
000001c0: 3b08 0a3f 1cbf f23e c541 8d3c e151 a93e
000001d0: 1d69 443d 85b3 0e3f d84b 173d d6cc c53e
000001e0: 0fa6 80be 0c07 7abe e2a1 a4be a382 793e
000001f0: 88cb 28bf d333 0dbf 7036 1ebf 6545 b43e
00000200: 5780 cd3c 3237 59be c1ed 1abf b5f9 28bf
00000210: 7b7b a33c b1fe 703f 0e16 53be 596c d4bd
00000220: 89ed 8fbe 1fee dd3e a81e febe 88b1 c03e
00000230: 37c3 bdbe dc43 ee3e 638d 07bf 6927 2fb8
00000240: 3065 1f3e f542 0cbf 0c7c b53d 489e ee3d
00000250: f865 78be e578 12be 67fc febd 766c 36bf
00000260: 6526 b3bd a829 acbe a8c2 243f 8566 053e
00000270: a498 03be 1002 113f 1b52 0b3e a65c fdbe
00000280: 6f6e 843c eea4 5f3f 5960 483e 2160 1f3c
00000290: f0e9 4a3f 5b91 133f 7569 dd3e e7c1 5f3f
000002a0: 6c73 303e b51f 903e 1c0f a03c c75e 533f
000002b0: 964e 173f 9135 d43e 0fcc 17bf 7493 673e
000002c0: 4d57 2cbd 5e46 f13e d897 94be 969d 0d3d
000002d0: aedc d4be 58ac 633e 811d 5f3f 6bd3 c03e
000002e0: 53aa 97bd e1e3 f43d 52ed aebe abb4 0a3f
000002f0: 6827 533e 2676 66be 62ca a53d 287b a4be
00000300: 6b85 16bf 3deb dcbc d686 81bc 8f47 acbe
00000310: bf75 bc3d 442d 32bf e8f4 25bf fbdd 1b3e
00000320: 2bd3 60bd 373c edbe 6f87 5fbb 43dc f1be
00000330: 6f2c be3d a907 ddbe c4b8 ad3e 1a68 21bf
00000340: d8fd 1cbf da84 b43d 3fbc abbe 55c4 e23e
00000350: 8b87 243e f773 4abe e38f 3dbf 2a07 953e
00000360: ec91 03bf 2940 45bf ee87 3bbf ede7 22be
00000370: 0164 ae3c 78b4 8c3e f144 353d f7a2 63be
00000380: b967 c3be e8b0 5fbf 081e 8fbe d8bf 4abf
00000390: 13ce 1cbf f27b aa3e abe9 b23e 58c6 bebe
000003a0: 10d3 1e3f f4cf 97be 367a f43e 4e5a f03e
000003b0: 3215 143d 3005 8ebd a668 c73e f2c1 ef3e
000003c0: ec10 db3d a2d5 51be 3ffa 30bd 6a60 11bf
000003d0: 01b4 f93e f6fd 01bf 9f41 863c f541 8a3e
000003e0: 366e b83e 63f0 1fbf 1fcd c63e 330a 6a3d
000003f0: 6b07 4ebe d56f 80bc 666e 603e 676e f1be

transformer.linear_proj.bias f4 [32]
0.07405554 0.033051394 -0.2777336 -0.36510053 -0.2106675 -0.15904255 0.09769126 -0.100888826
0.085326456 -0.078631386 0.059887987 -0.10078536 0.059654057 0.10742322 0.047063623 -0.13376059
-0.07179078 -0.17217146 -0.2648584 -0.2544958 -0.31899443 0.1699725 0.85710007 -0.116834156
-0.34519273 -0.24160172 -0.22876175 -0.026402695 0.077726945 0.255443 0.26912686 0.6802632
00000000: 6eaa 973d e660 073d 1933 8ebe 75ee babe
00000010: 39b9 57be 0ddc 22be 5b12 c83d cd9e cebd
00000020: a3bf ae3d 7e09 a1bd 1b4d 753d 8e68 cebd
00000030: d057 743d b500 dc3d c9c5 403d 89f8 08be
00000040: 0b07 93bd b74d 30be 859b 87be 464d 82be
00000050: 3d53 a3be 450d 2e3e e96a 5b3f bf46 efbd
00000060: 1abd b0be 7166 77be 8540 6abe 774a d8bc
00000070: 4e2f 9f3d 6dc9 823e ffca 893e bb25 2e3f

transformer.transformer_encoder.layers.0.self_attn.in_proj_weight f4 [96, 32]
-0.20919795 -0.050208956 -0.28744096 0.006530568 0.031774987 -0.44092622 0.2329732 -0.01162744
0.050357338 0.38137996 0.092788145 0.24037571 0.049635116 0.22745895 0.17024922 -0.4355458
0.3006768 -0.27648997 -0.06497688 -0.1625013 -0.22915322 -0.037231136 0.667465 -0.056891732
-0.20972927 -0.21891943 0.1937586 -0.021265589 0.20653723 -0.030623203 0.3297016 -0.08719092
-0.21588609 0.1103665 0.27672186 -0.2207638 -0.27283463 0.14870912 -0.23714142 -0.08936364
-0.034560997 -0.23841354 0.2536959 -0.02921917 -0.43585825 -0.45603526 -0.4287546 0.36906067
-0.55548733 -0.095425084 0.11655888 -0.1967404 -0.54456043 -0.028883303 -0.86673033 0.30467013
-0.017099278 0.19021589 -0.07711055 0.6404303 -0.0126133105 0.2899855 -0.33203104 -0.15742962
-0.17617533 -0.17983882 -0.42747942 0.07612457 -0.024070196 -0.27487674 0.2685556 0.6600374
0.57552016 0.38570982 0.2161074 -0.03890409 0.74047685 0.58760315 -0.03389499 0.120701216
0.051774386 0.51826555 0.32778543 0.088369004 0.03511537 0.21014097 0.23120649 0.3584805
0.019465651 0.0056476872 -0.2025968 -0.108158685 -0.26494038 0.15506114 -0.21485561 0.3146505
0.07896965 -0.11359552 -0.3909393 -0.01911202 -0.25679487 -0.37239966 0.11881503 -0.4088345
-0.11499634 -0.04897966 -0.048960894 0.13216817 -0.10293546 0.1712792 0.4200403 -0.08620496
0.12333895 0.09648607 0.077303335 0.30264726 -0.13408183 -0.20259747 -0.0471315 -0.4686681
-0.040284153 -0.3784071 0.09347472 -0.26788858 -0.01601967 0.016404768 -0.21049625 0.024120716
0.16198446 0.6992602 0.3278909 0.0041853995 0.3326878 0.04990749 0.17895105 0.28448054
-0.48962393 0.2977827 0.13014309 -0.36166582 0.42987671 0.1473953 0.45340532 -0.09811539
-0.24418512 0.34018508 0.007677975 0.30289772 -0.052671865 0.11417116 0.24501695 -0.31614536
0.045753445 -0.03736487 0.18957278 -0.003590759 -0.13009945 0.03163522 0.4221325 -0.017945163
-0.036539286 -0.15123795 0.14717889 -0.009859007 0.2833484 0.02962102 0.2440143 -0.25759846
0.025572252 0.0048221527 0.021577638 -0.14483362 0.36570656 -0.06489192 0.30741414 0.08665024
-0.11279905 -0.21125098 0.29094976 -0.061358668 0.77775925 0.13653806 0.5319422 0.34751263
-0.20073886 0.54257584 -0.18037353 -0.27625513 0.09578001 -0.29021537 -0.32180887 0.102885365
0.30369663 0.11684016 0.088510714 -0.019532194 0.21364394 -0.5503209 0.2401098 0.48554954
0.1341385 0.32838783 0.063571624 -0.35820973 -0.34624812 0.2722801 0.17182934 -0.63568175
-0.32084206 0.04951675 -0.07765143 0.104146704 0.15794376 0.158486 0.0024909303 -0.15353894
0.41951147 0.17367224 0.14571276 -0.1723113 -0.09899757 0.037543584 0.121059485 -0.03383896
0.28214684 -0.33380485 -0.28814077 0.35994643 0.30405203 -0.22776896 0.2937277 0.13279082
0.24774575 0.24501215 -0.36252463 0.32176158 0.28915265 0.32503903 0.41090006 -0.48130295
0.5263255 0.1531207 -0.4467167 0.096962005 -0.04336873 -0.11700698 0.11969185 -0.35975283
-0.20899965 0.2477061 -0.24390092 -0.6680823 -0.18204728 -0.52132624 0.38609445 -0.10434894
00000000: fd37 56be e8a7 4dbd 762b 93be 60fe d53b
00000010: 7d26 023d 15c1 e1be 8790 6e3e 0581 3ebc
00000020: 7f43 4e3d 3c44 c33e b607 be3d 0d25 763e
00000030: 314e 4b3d 00eb 683e d055 2e3e dcff debe
00000040: 4ff2 993e 1890 8dbe 9912 85bd be66 26be
00000050: 24a7 6abe ad7f 18bd fcde 2a3f 4e07 69bd
00000060: 45c3 56be 6a2c 60be a868 463e 2c35 aebc
00000070: 7f7e 533e 83dd fabc a6ce a83e 2791 b2bd
00000080: 3e11 5dbe d507 e23d 7dae 8d3e e80f 62be
00000090: fbb0 8bbe 3447 183e 33d5 72be 4904 b7bd
000000a0: d58f 0dbd ae22 74be 6ee4 813e 0a5d efbc
000000b0: d028 dfbe 747d e9be b985 dbbe 85f5 bc3e
000000c0: 6b34 0ebf 3a6e c3bd 6cb6 ee3d 5176 49be
000000d0: 5068 0bbf ad9c ecbc 0ae2 5dbf b9fd 9b3e
000000e0: c913 8cbc f4c7 423e 23ec 9dbd 3df3 233f
000000f0: 0fa8 4ebc fb78 943e f9ff a9be 3b35 21be
00000100: 4e67 34be ab27 38be 95de dabe 33e7 9b3d
00000110: dc2e c5bc a5bc 8cbe 1f80 893e 36f8 283f
00000120: 4a55 133f c27b c53e 424b 5d3e e559 1fbd
00000130: e48f 3d3f 296d 163f 79d5 0abd 3332 f73d
00000140: 6111 543d 0dad 043f 7ed3 a73e cffa b43d
00000150: 22d5 0f3d 322f 573e 65c1 6c3e c28a b73e
00000160: 6e76 9f3c 3c10 b93b 8975 4fbe 4d82 ddbd
00000170: 44a6 87be 59c8 1e3e 1c03 5cbe df19 a13e
00000180: d7ba a13d c5a4 e8bd 3229 c8be d090 9cbc
00000190: 9e7a 83be 2bab bebe 4b55 f33d c152 d1be
000001a0: 3383 ebbd e59e 48bd 388b 48bd 1857 073e
000001b0: d4cf d2bd d163 2f3e 860f d73e 3a8c b0bd
000001c0: 2299 fc3d 7d9a c53d 3651 9e3d 95f4 9a3e
000001d0: bf4c 09be b675 4fbe f60c 41bd 44f5 efbe
000001e0: ff00 25bd 93be c1be ad6f bf3d b128 89be
000001f0: af3b 83bc 4b63 863c 548c 57be cf98 c53c
00000200: 41df 253e b702 333f 51e1 a73e ad25 893b
00000210: 0e56 aa3e cc6b 4c3d f23e 373e 6fa7 913e
00000220: fdaf fabe f976 983e 3b44 053e 432c b9be
00000230: cd18 dc3e cbee 163e be24 e83e b9f0 c8bd
00000240: aa0b 7abe bd2c ae3e 8697 fb3b 6915 9b3e
00000250: 74be 57bd 92d2 e93d b9e5 7a3e cedd a1be
00000260: f767 3b3d e80b 19bd 5e1f 423e f052 6bbb
00000270: ca38 05be ef93 013d c021 d83e bc01 93bc
00000280: 38aa 15bd 1fde 1abe 10b6 163e ac87 21bc
00000290: 0b13 913e c8a7 f23c e2de 793e f2e3 83be
000002a0: e67c d13c 2603 9e3b 96c3 b03c 444f 14be
000002b0: e43d bb3e 0ee6 84bd 6365 9d3e ae75 b13d
000002c0: 3003 e7bd 2d52 58be 5ef7 943e 3a53 7bbd
000002d0: 3b1b 473f a2d0 0b3e 5d2d 083f 2ded b13e
000002e0: 7d8e 4dbe 40e6 0a3f d7b3 38be 5071 8dbe
000002f0: 4f28 c43d 1c97 94be 22c4 a4be 90b5 d23d
00000300: 207e 9b3e e549 ef3d 1b45 b53d fb01 a0bc
00000310: 7ac5 5a3e d5e1 0cbf 58df 753e f399 f83e
00000320: 9a5b 093e 7322 a83e d731 823d 4467 b7be
00000330: 6f47 b1be 4c68 8b3e 08f4 2f3e 0abc 22bf
00000340: 6945 a4be 13d2 4a3d b707 9fbd de4a d53d
00000350: 02bc 213e 274a 223e e03e 233b 5039 1dbe
00000360: 35ca d63e 23d7 313e ba35 153e 6072 30be
00000370: 3dbf cabd 4dc7 193d 09ee f73d b99a 0abd
00000380: 8d75 903e 78e8 aabe 3087 93be e64a b83e
00000390: b5ac 9b3e 443c 69be 7a63 963e 51fa 073e
000003a0: 10b1 7d3e 77e4 7a3e d49c b9be efbd a43e
000003b0: d10b 943e 846b a63e 7e61 d23e 576d f6be
000003c0: 45bd 063f accb 1c3e 0db8 e4be 0494 c63d
000003d0: 69a3 31bd 5ba1 efbd 0021 f53d 8631 b8be
000003e0: 0104 56be aba6 7d3e 2ac1 79be 7107 2bbf
000003f0: 9a6a 3abe a375 05bf 2cae c53e e6b4 d5bd

transformer.transformer_encoder.layers.0.self_attn.in_proj_bias f4 [96]
0.32885712 -0.30886903 0.26639754 -0.27858794 0.43350768 0.110209435 0.116100796 -0.16769376
-0.05965622 -0.46175343 0.80929214 0.92824554 -0.23581094 -0.09725907 0.47120574 0.10009893
-0.117698565 -0.23025395 0.00053387135 0.23454617 0.13413149 -0.10905971 -0.79566234 -0.16165125
-0.49150977 0.4344269 -0.058515288 -0.39176646 0.092116304 -0.49620494 -0.040990993 0.087234356
-0.105953895 -0.04711984 -0.28780958 -0.60377175 0.2022609 -0.044366892 0.080920026 -0.02832816
-0.095555045 0.36598527 0.5610498 0.32068852 -0.123551555 -0.007934774 0.63980085 0.13098499
-0.029800862 -0.14810216 0.16706534 -0.16575487 -0.021989599 -0.17411573 -0.29874197 0.37865353
0.40909562 -0.21338697 0.17768596 -0.50951475 -0.17309764 -0.0633948 -0.085740305 -0.0787341
-0.23992078 0.084652044 -0.3271133 -0.047947306 -0.0712381 -0.08538155 0.012683612 0.07910783
-0.13766116 0.039370667 0.10418327 -0.021391638 -0.08399979 0.04851158 0.038334634 0.0831867
-0.03249129 -0.24259748 -0.045565467 0.03431789 0.080577515 -0.061225526 0.0073806797 0.073104605
-0.37193298 -0.47823563 -0.034546714 -0.010212998 -0.055914123 0.016829269 -0.13882867 -0.016494852
00000000: f65f a83e 1524 9ebe 4265 883e 14a3 8ebe
00000010: b8f4 dd3e 7cb5 e13d 41c6 ed3d eab7 2bbe
00000020: 155a 74bd f26a ecbe c52d 4f3f 80a1 6d3f
00000030: 6c78 71be c32f c7bd e141 f13e ab00 cd3d
00000040: f20b f1bd b1c7 6bbe 80f3 0b3a df2c 703e
00000050: c459 093e b25a dfbd 87b0 4bbf e887 25be
00000060: 2ba7 fbbe 346d de3e baad 6fbd 9d95 c8be
00000070: 79a7 bc3d 930e febe 2ce6 27bd eda7 b23d
00000080: 5bfe d8bd bc00 41bd c75b 93be c990 1abf
00000090: 7b1d 4f3e 0fba 35bd 66b9 a53d 7510 e8bc
000000a0: 5db2 c3bd 6c62 bb3e f6a0 0f3f 4931 a43e
000000b0: 9908 fdbd db00 02bc fdc9 233f ee20 063e
000000c0: f020 f4bc 18a8 17be 2d13 2b3e a5bb 29be
000000d0: 8823 b4bc 654b 32be b5f4 98be e0de c13e
000000e0: fb74 d13e 1d82 5abe 4ff3 353e 8f6f 02bf
000000f0: 8240 31be 22d5 81bd 9d98 afbd 583f a1bd
00000100: cbad 75be 0d5e ad3d 657b a7be 6564 44bd
00000110: 48e5 91bd 86dc aebd edce 4f3c 4903 a23d
00000120: 0cf7 0cbe 2343 213d 0a5e d53d 843d afbc
00000130: 1508 acbd 14b4 463d c704 1d3d ca5d aa3d
00000140: 9615 05bd 796b 78be dba2 3abd ea90 0c3d
00000150: d305 a53d 9ec7 7abd a1d9 f13b deb7 953d
00000160: 006e bebe 4ddb f4be db80 0dbd 6b54 27bc
00000170: 3506 65bd 89dd 893c 1a29 0ebe 3620 87bc

transformer.transformer_encoder.layers.0.self_attn.out_proj.weight f4 [32, 32]
0.00011234252 -0.11086587 0.045768425 0.04391675 0.056592707 0.029086092 0.021048943 -0.10562942
-0.12379625 0.050474122 -0.05243257 -0.046797194 0.046274625 0.010920551 -0.03845212 0.07386367
0.03961366 -0.06056066 -0.027528903 -0.0066348785 0.078221254 0.016995495 -0.059579406 -0.022373755
-0.13434082 0.096604615 0.1772694 0.005956832 0.012351114 -0.05385449 -0.016372142 -0.09117506
0.011582378 -0.123510376 -0.012032586 0.023699675 -0.063246995 0.022219881 0.05125944 -0.19860916
-0.029200757 -0.09414894 0.0397363 -0.08548452 0.05848343 0.013902187 -0.28293338 0.013769413
-0.067925714 -0.23736027 0.042514507 0.0036755847 -0.027538357 0.1856786 0.06410122 -0.024634166
0.05862431 0.1739383 -0.0010184929 -0.03968137 -0.058134988 -0.03925985 -0.05835337 0.012749818
0.08799571 0.025166309 0.03954975 0.04875673 -0.05875896 0.020374173 -0.0053496 -0.04012591
-0.004986654 -0.24311116 -0.066478655 -0.016096039 -0.05979339 0.033564784 0.15415655 -0.029778762
0.018643461 0.10576517 0.0011099485 -0.046581283 -0.118851244 -0.070549205 -0.013776702 -0.0076057105
0.14374857 -0.12079852 0.021287914 0.122104086 0.0921124 0.0061887414 -0.002747472 -0.037444774
-0.13749641 -0.098535374 -0.105470985 -0.0026385651 -0.03187929 -0.04565742 -0.008942192 -0.03354217
0.0044770446 0.10633634 -0.064000964 -0.0024627887 0.03842539 0.005853807 0.16103163 0.035770506
0.02300582 0.09753108 -0.13224201 -0.03040979 0.01642779 -0.08671293 0.0026986727 0.044623654
-0.1946706 -0.044054154 -0.028699787 -0.029884605 0.07297098 -0.045249484 -0.020932503 -0.1252818
0.08732656 0.0235594 -0.0065641766 0.04283718 -0.09251854 0.018902835 0.038552403 -0.1752314
-0.05134814 0.14837739 0.122840226 -0.023720304 -0.004974187 0.0023561812 0.14921904 0.05441881
-0.118026994 0.13879724 0.03117112 -0.009950323 0.025761254 0.022243539 0.032932527 0.06705254
-0.1644745 0.11698684 -0.00046761017 -0.039963033 -0.0058955 -0.03173499 -0.0071496554 0.045673035
0.028830979 -0.07131481 -0.15259825 0.05450962 -0.012580518 0.05780895 0.009645077 0.024704691
0.01793946 -0.15876558 0.03894735 0.010474286 -0.009173465 -0.041214604 -0.02210893 0.13590409
-0.1189073 -0.0058583817 -0.07695607 -0.03399766 0.15731218 -0.015716018 -0.06274784 -0.024583114
-0.14928906 -0.16780101 0.09532352 -0.18754324 -0.08660391 0.04973552 -0.027627703 -0.09202094
-0.2634638 -0.15767679 0.038567565 -0.012841605 0.073754385 -0.0036215503 0.0045163776 -0.060841907
-0.005837621 -0.022207102 -0.07787792 -0.17228098 0.032656215 0.072713606 0.06361704 -0.03601252
-0.000654918 -0.115512386 -0.09250246 0.036989562 -0.07225836 0.029427515 0.07408114 0.021626776
-0.16419923 -0.056001917 0.009315938 -0.133542 0.062045056 -0.049214527 0.04564892 0.061178457
-0.031162541 -0.10790795 -0.17512575 0.013919172 0.023912264 0.056617696 -0.068727635 0.06916464
-0.029118877 0.13532962 0.13951737 0.1345401 0.046370707 -0.09593121 -0.08043594 0.0023475192
0.12976512 -0.34085017 0.1151118 0.025552295 -0.050604697 0.08147571 0.036331672 -0.104119144
0.17561099 0.016722696 -0.08894563 0.10211917 0.029268188 0.0764084 -0.017115053 0.034325853
00000000: 6e99 eb38 a50d e3bd ac77 3b3d 0de2 333d
00000010: c1cd 673d f545 ee3c d56e ac3c 3d54 d8bd
00000020: e388 fdbd f4bd 4e3d 89c3 56bd 6aae 3fbd
00000030: 768a 3d3d 1cec 323c f87f 1dbd d645 973d
00000040: ef41 223d 740e 78bd 4b84 e1bc 6569 d9bb
00000050: 7732 a03d 233a 8b3c 8909 74bd 2a49 b7bc
00000060: a490 09be a4d8 c53d 1c86 353e 8731 c33b
00000070: 545c 4a3c 8796 5cbd df1e 86bc fdb9 babd
00000080: 04c4 3d3c 02f3 fcbd 5324 45bc d225 c23c
00000090: a487 81bd 7806 b63c 6bf5 513d 3360 4bbe
000000a0: 6d36 efbc 29d1 c0bd 88c2 223d 8212 afbd
000000b0: 528c 6f3d 00c6 633c a5dc 90be 1b99 613c
000000c0: a31c 8bbd 920e 73be b123 2e3d 14e2 703b
000000d0: 1f98 e1bc 8822 3e3e 8047 833d 97cd c9bc
000000e0: 0b20 703d e21c 323e f37e 85ba ef88 22bd
000000f0: f41e 6ebd f0ce 20bd f103 6fbd 9de4 503c
00000100: 1837 b43d 9329 ce3c ebfe 213d 23b5 473d
00000110: 3cad 70bd bde7 a63c b34b afbb 115b 24bd
00000120: 1667 a3bb 22f2 78be f625 88bd d7db 83bc
00000130: eae9 74bd 3a7b 093d 37db 1d3e 97f2 f3bc
00000140: 2cba 983c 699b d83d b17b 913a 04cc 3ebd
00000150: 4868 f3bd 1a7c 90bd adb7 61bc 5339 f9bb
00000160: d332 133e 3765 f7bd fe63 ae3c b511 fa3d
00000170: 6da5 bc3d edca ca3b ee0e 34bb b15f 19bd
00000180: dccb 0cbe eacc c9bd 2c01 d8bd c7eb 2cbb
00000190: dc93 02bd 4603 3bbd 4682 12bc 8463 09bd
000001a0: 2cb4 923b dec6 d93d f012 83bd bd66 21bb
000001b0: f163 1d3d 4bd1 bf3b 7ae5 243e 1884 123d
000001c0: b476 bc3c 60be c73d 736a 07be f41d f9bc
000001d0: 9393 863c 8c96 b1bd 37dc 303b 4bc7 363d
000001e0: bb57 47be 2172 34bd d11b ebbc 8fd0 f4bc
000001f0: cf71 953d 8657 39bd a47a abbc df49 00be
00000200: 44d8 b23d a5ff c03c 4e18 d7bb 0a76 2f3d
00000210: 5c7a bdbd 1eda 9a3c 20e9 1d3d dc6f 33be
00000220: 6d52 52bd 3ef0 173e a893 fb3d 1551 c2bc
00000230: 81fe a2bb 296a 1a3b e0cc 183e 42e6 5e3d
00000240: 23b8 f1bd dd20 0e3e 945a ff3c ae06 23bc
00000250: 4409 d33c 1538 b63c 42e4 063d d852 893d
00000260: 016c 28be cc96 ef3d 9329 f5b9 47b0 23bd
00000270: 0a2f c1bb 8dfc 01bd a847 eabb a613 3b3d
00000280: f22e ec3c 800d 92bd b742 1cbe 7b45 5f3d
00000290: 841e 4ebc 14c9 6c3d 6306 1e3c 7e61 ca3c
000002a0: c6f5 923c 7293 22be 4287 1f3d 579c 2b3c
000002b0: 4d4c 16bc a5d0 28bd c91d b5bc 712a 0b3e
000002c0: ac85 f3bd abf7 bfbb 259b 9dbd 2141 0bbd
000002d0: 7216 213e e1be 80bc f181 80bd 8762 c9bc
000002e0: 3bdf 18be 07d4 2bbe fa38 c33d 560b 40be
000002f0: 645d b1bd 79b7 4b3d 7e53 e2bc 7975 bcbd
00000300: bae4 86be 0676 21be 06f9 1d3d 9865 52bc
00000310: 8a0c 973d 8857 6dbb 1ffe 933b 5d35 79bd
00000320: 8449 bfbb abeb b5bc 757e 9fbd 6d6a 30be
00000330: 86c2 053d dfea 943d a749 823d dd81 13bd
00000340: ceae 2bba c291 ecbd ee71 bdbd 5e82 173d
00000350: 31fc 93bd f911 f13c dab7 973d a32a b13c
00000360: d823 28be 4462 65bd e0a1 183c 3cbf 08be
00000370: f522 7e3d 2c95 49bd 5dfa 3a3d 4396 7a3d
00000380: 9648 ffbc d8fe dcbd 2a54 33be 3d0d 643c
00000390: a7e3 c33c f5e7 673d 13c1 8cbd 31a6 8d3d
000003a0: b68a eebc d993 0a3e a4dd 0e3e e1c4 093e
000003b0: 36ef 3d3d 9577 c4bd 99bb a4bd d6d8 193b
000003c0: 26e1 043e ea83 aebe bcbf eb3d 0c53 d13c
000003d0: df46 4fbd bddc a63d 85d0 143d 6b3c d5bd
000003e0: 5ed3 333e 09fe 883c 2029 b6bd db23 d13d
000003f0: d7c3 ef3c 027c 9c3d de34 8cbc 4499 0c3d

transformer.transformer_encoder.layers.0.self_attn.out_proj.bias f4 [32]
0.011948721 0.38575053 -1.1502377 -1.2333614 -0.44066843 -0.64849985 -0.25869536 -0.5549757
0.07062518 -0.33662248 -0.10559121 -0.27144006 -0.33947447 0.5756489 -0.04418691 -0.2134025
0.058014613 -0.79577017 -0.3427099 -0.8658661 -0.65644807 0.23338088 0.8411942 -0.38233724
-0.22439972 -0.12528919 0.07793313 0.47775796 0.21340491 0.2747382 0.74758226 1.2991631
00000000: 91c4 433c 1881 c53e fd3a 93bf c9de 9dbf
00000010: 4b9f e1be 1604 26bf b873 84be e312 0ebf
00000020: efa3 903d c859 acbe 3440 d8bd 31fa 8abe
00000030: 99cf adbe ba5d 133f 55fd 34bd 2f86 5abe
00000040: bba0 6d3d 98b7 4bbf ac77 afbe 67a9 5dbf
00000050: fb0c 28bf 66fb 6e3e 8158 573f b5c1 c3be
00000060: 0ac9 65be cf4b 00be 689b 9f3d b19c f43e
00000070: d186 5a3e 7caa 8c3e 8d61 3f3f fa4a a63f

transformer.transformer_encoder.layers.0.linear1.weight f4 [64, 32]
0.31301475 0.5401935 0.23348577 0.74929607 0.12523143 -0.043451287 0.037485905 0.26640695
0.187504 0.2262734 -0.39532974 -0.3470802 0.26074478 0.22846451 0.14924638 -0.122220665
0.123744495 0.13692485 -0.46095538 0.28917032 -0.060622826 -0.54359335 -0.61138463 0.17083992
-0.35384047 0.32296452 0.06876676 0.036066804 -0.11267696 -0.7416083 -0.46817234 -0.28706554
-0.34611621 0.29572034 -0.6219367 0.41201928 -0.025563449 -0.029553844 -0.86931914 -0.27575135
0.22948013 0.2980827 0.42596453 0.16779777 0.16860239 -0.18568474 -0.20420349 0.093973994
0.33406684 0.20678417 -0.18709935 0.20770834 0.24338552 0.28273246 0.018759562 0.47862232
0.21249188 -0.25213996 0.1643813 -0.32210138 0.1723337 -0.10235033 -0.32348093 -0.80483645
-0.43809393 -0.09862651 0.030725624 0.48540956 0.24506193 -0.019139824 0.059179027 -0.3197643
0.33599684 -0.35175633 -0.31167153 0.6174587 0.005333658 -0.2460349 -0.1453643 0.48416564
0.57446295 -0.2380481 -0.35682622 0.12590595 0.219958 -0.46389955 -0.81978416 -0.23210539
-0.5971053 0.26923826 0.09014598 -0.050949693 -0.47461134 -0.25808513 -0.12986687 0.14750192
-0.50497174 0.3601782 -0.06300906 -0.15851317 0.15041655 0.4853785 0.092065856 0.30157864
0.045951344 0.24892108 -0.7162293 0.28385842 0.4487722 -0.048906624 0.0880799 0.19253796
-0.45633155 0.17368671 -0.07843241 0.5951884 0.87236667 -0.1707093 -0.18231632 0.036363102
0.33258256 0.32658413 -0.3534066 -0.74685967 -0.83449453 -0.34273702 0.21524571 -0.48750004
-0.108394146 -0.47370887 0.2878907 0.6172414 0.34077123 -0.68648404 -0.19148675 0.2682013
0.28230795 -0.47153735 -0.66540396 -0.27397177 0.10025786 0.0086360155 -0.01716557 0.9448949
0.43355379 0.7198518 -0.40032792 0.047290944 -0.16644318 -0.08343952 0.037077017 0.13279714
-0.1432738 0.14324778 -0.091460355 0.21362406 -0.049672265 -0.4794162 -0.14174174 -0.79046685
0.18517053 -0.3360613 -0.18360631 -0.005429422 -0.043693166 0.30655605 -0.309971 0.24274936
0.10456983 -0.04059346 0.28399527 0.17365122 -0.20968115 -0.07321329 0.25969985 -0.17016934
-0.114248246 0.60190105 -0.05926626 0.094353184 0.19606824 -0.41129705 -0.23653205 0.026913887
0.23861288 -0.2290915 -0.42628422 0.12746269 0.038888153 0.14711228 -0.31333262 0.016100693
0.3787401 -0.37397408 0.2452117 -0.112996735 0.21036266 0.03059915 -0.02898309 0.017798256
0.060495026 0.042830855 0.40960616 0.1434596 -0.019831626 -0.08506176 0.20331845 0.053601637
-0.103890054 -0.297874 -0.34371388 -0.3879084 -0.085832976 0.11476488 -0.42662144 -0.19521292
-0.05500993 0.49630994 0.43689755 -0.2364181 0.049562607 0.2937216 -0.22304037 -0.21022803
0.44746965 0.1402251 0.35395312 -0.01706816 0.57221806 -0.17772524 -0.5947259 0.06202759
0.3016937 0.052297354 -0.14711401 0.12875716 0.06999766 -1.2169645 -0.229304 0.22929214
0.22170183 0.47820115 0.059472546 0.2538229 -0.08342712 0.23061058 -0.26896545 -0.17373279
0.38243443 0.08860581 -0.54380697 0.20185132 -0.5047279 -0.5490236 0.1705631 -0.29452273
00000000: 7843 a03e 1f4a 0a3f e516 6f3e ded1 3f3f
00000010: ab3c 003e faf9 31bd d28a 193d 7e66 883e
00000020: 0c01 403e 37b4 673e a968 cabe 7fb4 b1be
00000030: 5780 853e 9af2 693e 0bd4 183e d44e fabd
00000040: c16d fd3d 0736 0c3e 5802 ecbe 220e 943e
00000050: a44f 78bd ef28 0bbf b483 1cbf a9f0 2e3e
00000060: 942a b5be 9b5b a53e 96d5 8c3d c9ba 133d
00000070: 2ec3 e6bd 0bda 3dbf 49b4 efbe 41fa 92be
00000080: 2536 b1be a868 973e 3e37 1fbf 31f4 d23e
00000090: 706a d1bc e71a f2bc b38b 5ebf 482f 8dbe
000000a0: d7fc 6a3e 4c9e 983e 0618 da3e 2ed3 2b3e
000000b0: 1ba6 2c3e 2424 3ebe b81a 51be 7075 c03d
000000c0: cf0a ab3e 3bbf 533e f996 3fbe 7fb1 543e
000000d0: 0e3a 793e 4fc2 903e a7ad 993c fc0d f53e
000000e0: 7997 593e 7d18 81be 9253 283e 79ea a4be
000000f0: 3f78 303e 0d9d d1bd 4b9f a5be c309 4ebf
00000100: d94d e0be b2fc c9bd 4eb4 fb3c 9a87 f83e
00000110: 84f1 7a3e 1fcb 9cbc b565 723d 25b8 a3be
00000120: c707 ac3e 6819 b4be 6993 9fbe c611 1e3f
00000130: f7c5 ae3b 93f0 7bbe 61da 14be 8fe4 f73e
00000140: 0110 133f e2c2 73be edb1 b6be 7ded 003e
00000150: ac3c 613e 3e84 edbe 60dd 51bf 09ad 6dbe
00000160: e5db 18bf 99d9 893e 759e b83d a0b0 50bd
00000170: 4200 f3be bc23 84be d2fb 04be be0a 173e
00000180: d445 01bf 4769 b83e e50a 81bd 4751 22be
00000190: cc06 1a3e 8883 f83e 068d bc3d 8468 9a3e
000001a0: 7a37 3c3d 2be5 7e3e ce5a 37bf e455 913e
000001b0: 78c5 e53e 5052 48bd 3c63 b43d ac28 453e
000001c0: 4aa4 e9be eeda 313e 2ca1 a0bd 445e 183f
000001d0: 6c53 5f3f 6bce 2ebe 21b1 3abe 7af1 143d
000001e0: 4348 aa3e 0936 a73e b6f1 b4be 3232 3fbf
000001f0: 6fa1 55bf 3a7b afbe 5f69 5c3e 9b99 f9be
00000200: c0fd ddbd f889 f2be 6966 933e 8803 1e3f
00000210: 9179 ae3e 6bbd 2fbf 1a15 44be ae51 893e
00000220: ab8a 903e 586d f1be ea57 2abf 0746 8cbe
00000230: fe53 cd3d 137e 0d3c cf9e 8cbc a2e4 713f
00000240: c3fa dd3e 3548 383f c8f7 ccbe 26b4 413d
00000250: 1570 2abe 57e2 aabd 12de 173d f9fb 073e
00000260: 5eb6 12be 8caf 123e 914f bbbd 44c0 5a3e
00000270: 2575 4bbd 0a76 f5be bf24 11be 095c 4abf
00000280: 589d 3d3e 3a10 acbe 4b03 3cbe 4be9 b1bb
00000290: 9bf7 32bd eaf4 9c3e 85b4 9ebe 4a93 783e
000002a0: b528 d63d 5445 26bd d467 913e a0d1 313e
000002b0: a8b6 56be d9f0 95bd 61f7 843e df40 2ebe
000002c0: fcfa e9bd 3016 1a3f 2ec1 72bd 3e3c c13d
000002d0: 1dc6 483e 8795 d2be 7535 72be 837a dc3c
000002e0: ef56 743e f696 6abe ed41 dabe 9485 023e
000002f0: 2f49 1f3d 9aa4 163e 226d a0be 9ae5 833c
00000300: 39ea c13e 8879 bfbe c718 7b3e d56a e7bd
00000310: 4f69 573e 12ab fa3c f26d edbc a6cd 913c
00000320: a2c9 773d 686f 2f3d e6b7 d13e 13e7 123e
00000330: ef75 a2bc dc34 aebd b632 503e 648d 5b3d
00000340: 4fc4 d4bd f182 98be 44fb afbe ee9b c6be
00000350: 33c9 afbd d909 eb3d 206e dabe e5e5 47be
00000360: 1852 61bd 561c fe3e 09b1 df3e 9617 72be
00000370: 2902 4b3d ad62 963e b264 64be 0446 57be
00000380: be1a e53e 2b97 0f3e 5839 b53e 87d2 8bbc
00000390: e27c 123f 9bfd 35be f53f 18bf a410 7e3d
000003a0: 9977 9a3e c035 563d 0ea5 16be ebd8 033e
000003b0: ef5a 8f3d 7ec5 9bbf abce 6abe 8fcb 6a3e
000003c0: ce05 633e c8d6 f43e 7c99 733d 13f5 813e
000003d0: d6db aabd 2e25 6c3e d7b5 89be 02e7 31be
000003e0: 72ce c33e f776 b53d ef36 0bbf 1db2 4e3e
000003f0: d935 01bf d08c 0cbf 18a8 2e3e afcb 96be

transformer.transformer_encoder.layers.0.linear1.bias f4 [64]
-0.304978 -0.11247099 -0.38716543 -0.41733792 -0.32515144 -0.114063464 -0.20342751 -0.36023623
-0.48896644 -0.48470575 -0.2700946 -0.58141065 -0.34035897 -0.3512671 -0.17670111 -0.39870837
-0.5933369 -0.28667343 -0.19780973 -0.18970257 -0.16313845 -0.41095063 -0.3367473 -0.33295044
-0.36458027 -0.26550695 -0.49155506 -0.33923414 -0.31259623 -0.37333542 -0.31864315 -0.27662763
-0.3502767 -0.23559098 -0.44111243 -0.3171619 -0.2971777 -0.36739224 -0.3892257 -0.1513273
-0.29243484 -0.62392116 -0.34948468 -0.30833894 -0.27017236 -0.543994 -0.3515769 -0.3952615
-0.48405486 -0.38660797 -0.1541781 -0.27055404 -0.08732798 -0.18944705 -0.38764685 -0.50042546
-0.35863996 -0.29584998 -0.12547895 -0.44759607 -0.349565 -0.34879124 -0.35602835 -0.27106333
00000000: 1426 9cbe 3157 e6bd 8c3a c6be 51ad d5be
00000010: 407a a6be 1b9a e9bd 4d4f 50be e270 b8be
00000020: cf59 fabe 5a2b f8be d749 8abe 54d7 14bf
00000030: 8843 aebe 48d9 b3be 23f1 34be 8123 ccbe
00000040: ede4 17bf dcc6 92be a28e 4abe 6441 42be
00000050: c40d 27be 1f68 d2be 246a acbe 7b78 aabe
00000060: 44aa babe 87f0 87be 1bad fbbe 19b0 adbe
00000070: 9d0c a0be d225 bfbe 3225 a3be 23a2 8dbe
00000080: 7857 b3be c33e 71be 7dd9 e1be 0b63 a2be
00000090: ad27 98be d61a bcbe 9748 c7be 8bf5 1abe
000000a0: 05ba 95be 4cb9 1fbf a8ef b2be 9ade 9dbe
000000b0: 0854 8abe 3143 0bbf e301 b4be b75f cabe
000000c0: 0ad6 f7be 7bf1 c5be dde0 1dbe 0f86 8abe
000000d0: 03d9 b2bd 68fe 41be a679 c6be e21b 00bf
000000e0: a89f b7be a679 97be 8e7d 00be 502b e5be
000000f0: 2ffa b2be c494 b2be 5949 b6be d0c8 8abe

transformer.transformer_encoder.layers.0.linear2.weight f4 [32, 64]
-0.20111378 0.04696118 0.14885525 -0.032430336 -0.17374927 0.2909923 -0.042771652 0.0126875825
0.22066337 0.26060143 -0.40163293 0.45321587 0.14278877 -0.010110723 -0.17934555 0.12456682
-0.41870815 -0.25997838 0.23257224 0.41995406 -0.7942259 -0.28572482 0.12555623 0.6322933
0.12277809 -0.16028069 0.07008431 0.38234746 0.02835914 -0.068030715 -0.17240718 0.4292338
-0.32173535 0.20622118 0.9056484 -0.2540289 -0.11426276 -0.0128615275 0.11763705 0.28995657
0.084477216 0.124708615 -0.32394668 0.027179442 0.36334085 0.14658815 -0.5832893 -0.11202083
-0.22495548 -0.48661184 -0.013187365 0.010476521 -0.4564728 0.2965285 0.23044279 -0.17175692
0.5425421 -0.008942825 -0.24625956 0.37328106 -0.23887548 0.23333114 -0.22229443 0.0076364614
-0.43915096 -0.11798816 -0.40190765 0.50053406 -0.34641758 0.20259483 -0.37496153 0.44409832
-0.2621253 -0.03128504 0.011309709 0.3215242 -0.15949556 0.25140643 -0.112962626 -0.01831458
-0.6517887 -0.01922287 -0.37023765 0.26572073 0.37024078 -0.7196907 0.2171079 -0.06578973
-0.070014186 -0.08585258 0.3745472 0.018424435 0.055764936 0.40823433 0.51620734 -0.19859701
-0.20278303 -0.3923401 -0.54477155 -0.4191799 0.0578618 -0.3517779 -0.48781157 -0.55776066
0.34604633 0.12324232 -0.09029748 -0.0055792867 0.090088494 -0.103836425 0.29382074 0.42794037
-0.17772014 0.08072601 0.2896293 -0.2726757 0.095722586 -0.57641584 -0.4809099 -0.3370304
0.21440516 0.09099467 0.26564106 -0.41107264 0.60209143 -0.072208814 0.020767419 0.020147067
-0.673841 0.08198517 0.31918085 0.1713878 -0.0048863296 -0.08249115 0.5127474 -0.44138998
0.53175646 0.314241 -0.57174957 -0.3798472 -0.2938601 0.09809239 -0.1264043 -0.010244664
0.06266173 -0.12419293 0.6071383 0.58228636 0.08493005 0.41258588 0.24441423 0.22483131
0.15345736 -0.12523553 -0.12025435 -0.61586165 0.13788062 -0.6240696 -0.53125405 -0.0078031276
-0.28375903 0.5130201 -0.3747231 0.08039431 -0.048636325 0.07212558 -0.056619182 -0.0376882
0.12003488 0.5077833 0.18211807 0.5031385 0.67566764 -0.2589429 0.30062217 -0.35507393
0.28211412 0.30000478 0.36323673 -0.6937112 -0.07725332 0.056674674 -0.343357 0.1414303
-0.37317184 0.29311267 0.25514653 0.10784124 -0.015923698 0.22401097 -0.30641 -0.53773177
-0.30450305 0.40696427 -0.010902341 0.7163521 -0.15414518 0.06382023 -0.15888041 0.34486458
-0.13800283 0.15849371 -0.0711453 0.3983346 0.17672206 -0.40378144 0.18835019 -0.09541552
0.3578446 -0.1552025 0.06176705 0.2850198 0.6487699 0.39120242 0.37074715 0.23583119
0.042886186 -0.11786828 0.06356386 0.09415193 -0.47598743 0.4606429 -0.28037953 0.4224575
-0.1330046 0.05798294 0.11060457 0.33273342 0.36401573 0.30352905 0.45370018 0.13521303
0.30776665 -0.42839622 0.06601455 0.36394426 0.42623323 0.3687261 0.30690455 -0.1759148
0.00318596 -0.2465162 0.04847394 0.110188894 0.29666242 0.042578846 -0.14426894 -0.24421875
-0.46416512 0.097856425 -0.2198253 0.22513212 -0.16497599 -0.14400129 -0.070337676 -0.40892452
00000000: c5f0 4dbe 5e5a 403d 836d 183e acd5 04bd
00000010: 54eb 31be f1fc 943e 5431 2fbd 94df 4f3c
00000020: 94f5 613e 8d6d 853e d5a2 cdbe e90b e83e
00000030: 3837 123e 72a7 25bc 5ca6 37be e41c ff3d
00000040: ea60 d6be e31b 85be 6b27 6e3e 3804 d73e
00000050: 6352 4bbf 864a 92be d091 003e f9dd 213f
00000060: 1473 fb3d 9f20 24be 5d88 8f3d 0cc3 c33e
00000070: 6d51 e83c b053 8bbd 828b 30be 88c4 db3e
00000080: 7fba a4be a52b 533e 93d8 673f 1310 82be
00000090: 9802 eabd 28b9 52bc b2eb f03d 3075 943e
000000a0: 6402 ad3d 3b67 ff3d 57dc a5be 6ca7 de3c
000000b0: d007 ba3e 341b 163e 7352 15bf 2d6b e5bd
000000c0: bb5a 66be 3025 f9be d10f 58bc b7a5 2b3c
000000d0: ceb6 e9be 95d2 973e 32f9 6b3e 0ce1 2fbe
000000e0: 0ae4 0a3f ed84 12bc 772b 7cbe b21e bf3e
000000f0: c69b 74be 5cee 6e3e 27a1 63be 483b fa3b
00000100: 65d8 e0be c7a3 f1bd d7c6 cdbe 0023 003f
00000110: a55d b1be 0575 4f3e f5fa bfbe db60 e33e
00000120: 4a35 86be be24 00bd 5c4c 393c d29e a43e
00000130: ce52 23be 58b8 803e f358 e7bd 7508 96bc
00000140: a0db 26bf 4879 9dbc ca8f bdbe 8c0c 883e
00000150: 3390 bd3e a63d 38bf 8951 5e3e c4bc 86bd
00000160: 9963 8fbd 7ad3 afbd a7c4 bf3e d7ee 963c
00000170: c669 643d 1704 d13e 2a26 043f 045d 4bbe
00000180: 5ba6 4fbe cde0 c8be 2676 0bbf bf9e d6be
00000190: 7f00 6d3d 3c1c b4be 70c2 f9be 67c9 0ebf
000001a0: fc2c b13e 7866 fc3d e3ed b8bd 73d2 b6bb
000001b0: 5180 b83d 31a8 d4bd ac6f 963e 001b db3e
000001c0: 45fc 35be ae53 a53d 4b4a 943e 269c 8bbe
000001d0: 340a c43d fd8f 13bf d339 f6be 408f acbe
000001e0: 078d 5b3e 6a5b ba3d 1b02 883e 1d78 d2be
000001f0: aa22 1a3f 37e2 93bd 6f20 aa3c 760b a53c
00000200: d880 2cbf d7e7 a73d ac6b a33e 4980 2f3e
00000210: 811d a0bb 1ff1 a8bd 6a43 033f defd e1be
00000220: 3121 083f 32e4 a03e 2e5e 12bf 557b c2be
00000230: d574 96be aae4 c83d 2170 01be 3cd9 27bc
00000240: cb54 803d dd58 febd 6a6d 1b3f b810 153f
00000250: ceef ad3d 753e d33e b947 7a3e 2e3a 663e
00000260: ed23 1d3e be3d 00be ea47 f6bd 1ca9 1dbf
00000270: 9430 0d3e 06c3 1fbf 4400 08bf 61b1 ffbb
00000280: dd48 91be 4955 033f b5db bfbe c6a5 a43d
00000290: e236 47bd 93b6 933d 84e9 67bd f15e 1abd
000002a0: d9d4 f53d 16fe 013f 297d 3a3e afcd 003f
000002b0: 8ef8 2c3f 2a94 84be 26eb 993e 40cc b5be
000002c0: 4371 903e 3a9a 993e 2afa b93e 0f97 31bf
000002d0: fd36 9ebd b423 683d 7dcc afbe 1bd3 103e
000002e0: 6110 bfbe dd12 963e 91a2 823e dedb dc3d
000002f0: 6a72 82bc 2263 653e c6e1 9cbe caa8 09bf
00000300: d3e7 9bbe 9f5d d03e bc9f 32bc da62 373f
00000310: 3cd8 1dbe 2eb4 823d 8cb1 22be 1792 b03e
00000320: 9d50 0dbe 2d4c 223e a1b4 91bd 83f2 cb3e
00000330: a1f6 343e 71bc cebe dfde 403e 3669 c3bd
00000340: 6837 b73e 67ed 1ebe 72ff 7c3d 1dee 913e
00000350: c915 263f af4b c83e 92d2 bd3e bb7d 713e
00000360: 6da9 2f3d ed64 f1bd c52d 823d bad2 c03d
00000370: a0b4 f3be 63d9 eb3e e88d 8fbe 594c d83e
00000380: 5c32 08be 857f 6d3d a684 e23d 095c aa3e
00000390: 4560 ba3e 2968 9b3e 644b e83e 4975 0a3e
000003a0: 9793 9d3e c056 dbbe a332 873d e756 ba3e
000003b0: 3e3b da3e abc9 bc3e 9822 9d3e 0223 34be
000003c0: 8acb 503b be6e 7cbe 9c8c 463d b7aa e13d
000003d0: 23e4 973e 2867 2e3d 3dbb 13be 7b14 7abe
000003e0: 0da7 edbe f368 c83d e219 61be 0989 663e
000003f0: 77ef 28be 1375 13be 330d 90bd 8e5e d1be
