models/sqa/xls-r-2b/model_2b_lay10_full.pt (torch, 528269 bytes, 67 tensors)

norm_input.weight f4 [1920]
0	0x3f2e2e7a	0.6803967
1	0x3f092795	0.5357602
2	0x3f3e3035	0.7429231
3	0x3eb74dba	0.35801488
4	0x3eecf604	0.46281445
5	0x3e5c8253	0.2153409
6	0x3ec974ea	0.3934701
7	0x3ebb051a	0.3652733
8	0x3ef01398	0.4688995
9	0x3e5a7466	0.21333465
10	0x3f1385e7	0.57626194
11	0x3f262ae7	0.64909214
12	0x3e99ead7	0.3006198
13	0x3ea4c715	0.32183138
14	0x3f307489	0.6892782
15	0x3f2e8c4f	0.68182844
16	0x3dde2d65	0.10848502
17	0x3eaa986b	0.3331941
18	0x3e8d3a58	0.27583575
19	0x3ec371c1	0.38172725
20	0x3ebc2b48	0.3675177
21	0xbe4a5bc3	-0.19761567
22	0x3f17f5c7	0.593594
23	0x3f1ad274	0.60477376
24	0x3f25e3a7	0.64800495
25	0x3e830643	0.25590715
26	0x3dd1475e	0.1021869
27	0x3f16a2ea	0.5884234
28	0x3f40b027	0.7526879
29	0x3ec2b8a6	0.380315
30	0x3eaa8db1	0.33311227
31	0x3ee60351	0.44924405
32	0xbea1a61a	-0.31572038
33	0x3f1e799f	0.6190433
34	0x3dead0da	0.114656165
35	0x3f23903a	0.6389195
36	0xbd8aeba9	-0.0678323
37	0x3ed9864d	0.42485276
38	0x3e07d48f	0.13264678
39	0x3f175a13	0.5912182
40	0x3ee9e731	0.45684198
41	0x3e26ecc4	0.16301256
42	0x3f21c121	0.63185316
43	0x3ee899fc	0.4542998
44	0x3eadfb7b	0.33980927
45	0x3f4766df	0.77891344
46	0x3f4662e2	0.77494633
47	0x3ee31caf	0.4435782
48	0x3e82cf2d	0.25548688
49	0x3eb2d34c	0.34926832
50	0x3ec0c260	0.37648296
51	0x3ec2b75c	0.38030517
52	0x3f1d7ef8	0.61521864
53	0x3f1f1a2e	0.6214932
54	0x3eadebd4	0.33968985
55	0x3f7ac581	0.9795762
56	0x3ec558cd	0.38544312
57	0xbe266412	-0.16249111
58	0x3eccaa72	0.3997379
59	0x3f0dbd31	0.5536681
60	0x3e998f14	0.29991972
61	0x3ef6d8f8	0.4821241
62	0xbe050064	-0.1298843
63	0x3f10d2bc	0.56571555
64	0x3e937010	0.28796434
65	0x3f55c5b8	0.8350482
66	0x3e9e2785	0.30889526
67	0x3ebdb706	0.37053698
68	0xbe040afd	-0.12894817
69	0x3f1ad3df	0.6047954
70	0x3edfc01e	0.4370126
71	0x3f11a13b	0.56886643
72	0x3ea452c7	0.32094404
73	0xbea66ce9	-0.32504967
74	0x3e3108bd	0.1728849
75	0x3ea71eda	0.32640725
76	0x3e1fbf21	0.15600254
77	0x3e93fbc3	0.28903016
78	0x3df7e3c5	0.121039905
79	0xbd2d26dc	-0.042273387
80	0x3eeab0bc	0.45837963
81	0x3edde3e9	0.43337944
82	0x3ed7a163	0.42115316
83	0x3ee19ad0	0.44063425
84	0x3e8e77f9	0.27825907
85	0x3e97ca88	0.29646707
86	0x3e5a8857	0.21341072
87	0x3e8f6e72	0.2801395
88	0x3ee5bf25	0.44872394
89	0x3e8a9c45	0.2707235
90	0x3f2c0e6c	0.67209506
91	0xbda6036c	-0.081061214
92	0x3e9d211d	0.30689326
93	0x3f1482a6	0.58011854
94	0x3f318c29	0.6935449
95	0xbd754446	-0.059879564
96	0x3f30b8e3	0.69032115
97	0x3e8e3b9c	0.27779853
98	0x3e9e6a7a	0.3094061
99	0xbde679f2	-0.11253728
100	0x3f031177	0.51198524
101	0x3f520df8	0.82052565
102	0x3f7df913	0.9920818
103	0x3ebbbe0c	0.36668432
104	0x3ef6e176	0.48218888
105	0x3f367673	0.7127449
106	0xbe82bdb2	-0.2553535
107	0x3e36dcbc	0.17857641
108	0x3ec43380	0.3832054
109	0x3f03b88a	0.5145346
110	0x3f844368	1.0333071
111	0x3f40c49e	0.75300014
112	0x3f06b962	0.5262662
113	0x3f1254f2	0.57160866
114	0x3f51b3f7	0.8191523
115	0x3f2b1cc3	0.6684076
116	0x3f1cf8c5	0.6131709
117	0x3eb97861	0.36224654
118	0x3ec862f4	0.39137995
119	0x3e00d582	0.12581447
120	0x3ef799bf	0.48359486
121	0xbdde5687	-0.108563475
122	0xbdbee950	-0.093218446
123	0x3eb83826	0.35980338
124	0x3ebba11c	0.36646354
125	0x3f17659e	0.5913943
126	0x3ecca04e	0.39966053
127	0x3e555b04	0.20835501
128	0x3ee7b458	0.4525478
129	0x3f288ba0	0.6583805
130	0xbe6a7ea9	-0.2289988
131	0x3e8195f4	0.25309718
132	0x3eb771bb	0.35828957
133	0x3ee10f76	0.43957108
134	0x3e66ec95	0.22551186
135	0x3f1447b2	0.579219
136	0x3e9a6b36	0.3015992
137	0x3e9c8d3e	0.3057651
138	0x3e9e7a72	0.30952793
139	0xbe8ecbbb	-0.2788981
140	0x3f2a8c47	0.66620296
141	0x3e923a49	0.28560093
142	0x3f0b982c	0.5452907
143	0x3ea73670	0.3265872
144	0x3f003fcd	0.5009735
145	0x3e90fb42	0.28316694
146	0x3f0c867c	0.54892707
147	0x3e831b9b	0.25607
148	0x3f145ed6	0.5795721
149	0x3f52d722	0.82359517
150	0x3eccd6be	0.40007585
151	0x3ecbb93b	0.39789757
152	0x3f0ebbd3	0.55755347
153	0x3ebf88e4	0.37409127
154	0x3f22cfc4	0.63598275
155	0x3f2b6ced	0.6696308
156	0xbdcc3a9b	-0.099721156
157	0x3eba566d	0.36394063
158	0x3f0398c5	0.5140498
159	0x3f4fc064	0.8115294
160	0x3eaa2e66	0.33238524
161	0x3edf3f65	0.43603054
162	0x3e0ba147	0.13635741
163	0x3e99fff9	0.30078104
164	0x3f1ae57d	0.6050642
165	0x3ebae88d	0.36505547
166	0x3f16df1e	0.589342
167	0x3f04d904	0.5189364
168	0x3f00b0bd	0.5026968
169	0x3f1563f0	0.5835562
170	0x3ec6f6f9	0.388603
171	0x3f0d87b4	0.5528519
172	0x3de9c5d6	0.11414687
173	0x3ec80c47	0.39071867
174	0x3e941a6a	0.28926402
175	0x3e7e1267	0.24811707
176	0x3f0d7ef8	0.55271864
177	0x3f3abe39	0.72946507
178	0x3f147d99	0.58004147
179	0x3f63f752	0.89049256
180	0x3efff356	0.49990338
181	0xbe95387a	-0.2914465
182	0xbdc8e7bd	-0.098098256
183	0x3ee9e069	0.45679024
184	0x3e129563	0.14314799
185	0x3ef9184f	0.48651358
186	0x3ec40d59	0.38291433
187	0x3e892f57	0.2679393
188	0x3ec083df	0.3760061
189	0x3ec6b2ef	0.3880839
190	0x3ec07633	0.3759018
191	0x3de7c524	0.113168985
192	0x3f135a88	0.57560015
193	0x3ed3d2a4	0.41371644
194	0x3ede9cbe	0.4347896
195	0x3f196665	0.59921867
196	0x3f159423	0.58429164
197	0x3ed79a5f	0.42109963
198	0x3e527151	0.2055104
199	0x3f10de34	0.56589055
200	0x3ef9f9c1	0.4882336
201	0x3f13ccaa	0.5773417
202	0x3f302c52	0.6881763
203	0x3cc08616	0.023501437
204	0x3f753750	0.95787525
205	0x3f05343e	0.5203284
206	0xbe1f6190	-0.15564561
207	0x3ee21f17	0.44164345
208	0x3f01f9c6	0.5077175
209	0x3f3cbc97	0.73725265
210	0x3f314051	0.69238764
211	0x3e1b4794	0.15164024
212	0x3db501de	0.08838247
213	0x3f00c1d1	0.5029574
214	0x3f0c01b7	0.54690117
215	0x3f213e38	0.62985563
216	0x3f26df52	0.6518451
217	0x3f04e258	0.51907873
218	0x3e614b4e	0.22001383
219	0x3e1faffb	0.15594475
220	0x3ea90a16	0.33015507
221	0x3eacbccb	0.33737788
222	0x3eea3cfd	0.45749655
223	0x3dfaa791	0.12238992
224	0x3f12a4df	0.57282823
225	0x3f2183db	0.6309182
226	0x3f1b7de9	0.60739
227	0x3e9dc025	0.30810657
228	0x3f647d54	0.89253736
229	0x3d4e71d0	0.05040151
230	0x3f05551a	0.5208298
231	0xbedf8d48	-0.43662477
232	0x3edc83fd	0.4306945
233	0x3eeb46f2	0.45952564
234	0x3f1a271b	0.6021592
235	0x3dd14698	0.10218543
236	0x3f075130	0.5285826
237	0x3ea4bd0a	0.32175475
238	0x3f2e4e96	0.6808866
239	0x3e54dd3c	0.20787519
240	0x3f35db67	0.71037906
241	0x3ebcb8cb	0.36859736
242	0x3e442362	0.19154122
243	0x3f5245c8	0.8213773
244	0x3f0f02f2	0.5586387
245	0x3f10e74d	0.56602937
246	0x3f0019a9	0.50039154
247	0x3ed9b07e	0.42517465
248	0x3f02463f	0.5088844
249	0x3f8178d1	1.0114995
250	0x3eb829bf	0.3596935
251	0x3ec50861	0.38482955
252	0x3ebabb41	0.36470988
253	0x3f0bcfbe	0.54613864
254	0xbdcb3699	-0.09922523
255	0x3f0ee049	0.5581098

norm_input.bias f4 [1920]
0	0xb8ca7f72	-9.655849e-05
1	0x3bf44e65	0.0074556344
2	0x3d7d1a80	0.06179285
3	0xbccd86dd	-0.025088722
4	0xbc204b6f	-0.00978361
5	0xbc42e5d7	-0.011895618
6	0xbbf17983	-0.0073692217
7	0x3ceb9300	0.028756618
8	0xbbbaaff8	-0.0056972466
9	0x3c140ba5	0.009035979
10	0x3c7f7331	0.015591429
11	0xbbb3212b	-0.0054666004
12	0xba85a276	-0.0010195512
13	0xbc3547e8	-0.011064507
14	0xbc4b051a	-0.012391353
15	0xbb2d37c8	-0.0026430953
16	0xbbf6e961	-0.007535145
17	0x3b793e63	0.003803157
18	0x3c55a8e4	0.013040755
19	0x3c2c001b	0.010498072
20	0xbcaf70a5	-0.021416018
21	0xbc1a0180	-0.009399772
22	0x3c034fe1	0.00801465
23	0x3ccd6dc5	0.025076756
24	0x3d42240d	0.047397662
25	0x3af8ac76	0.0018972296
26	0x3c16ace3	0.009196493
27	0xbb533b7b	-0.0032231498
28	0xbbc21a98	-0.0059235804
29	0xb98cda4c	-0.00026865525
30	0xbb2202b3	-0.0024720847
31	0xbc6eb638	-0.0145698115
32	0xbc00a628	-0.007852115
33	0xbc091a00	-0.008368015
34	0x3b1d384a	0.002398985
35	0xbba565ed	-0.005047551
36	0xbbb0c261	-0.0053942655
37	0xbb90dfcc	-0.00442121
38	0xbb4c6555	-0.0031188328
39	0xba253a2c	-0.0006302919
40	0x3cda57e3	0.026653236
41	0x3aad4f55	0.0013222495
42	0x3ca7fcfc	0.020506375
43	0x3b269a64	0.0025421614
44	0x3b992a18	0.0046742074
45	0x3bfa9219	0.0076468107
46	0x3d07d600	0.03316307
47	0x3b27f454	0.0025627809
48	0xbc811104	-0.015755184
49	0xbaa059da	-0.0012233809
50	0x3c091856	0.008367619
51	0x3c87bb87	0.016568912
52	0xbc72b505	-0.014813666
53	0x3a348ee8	0.000688775
54	0x3c0af203	0.008480552
55	0x3c24c848	0.010057516
56	0xb7958084	-1.7822029e-05
57	0xbbf2f49e	-0.0074144145
58	0xbc325c49	-0.01088626
59	0x3be075d6	0.0068499846
60	0x3cf36873	0.029712891
61	0xbc106798	-0.008813761
62	0x3c929e24	0.017897673
63	0xbc9caead	-0.01912626
64	0x3b17b405	0.0023148071
65	0x3c8e97eb	0.017406425
66	0x3c821d6b	0.015883168
67	0x3c5ea578	0.0135892555
68	0x3bed25b9	0.007237163
69	0xba9b304b	-0.0011839954
70	0xbc1fa833	-0.009744692
71	0x3c83b27f	0.016076325
72	0x3ab5dc76	0.0013874907
73	0xbc00394f	-0.007826163
74	0x39b76eca	0.00034987024
75	0xba48f3af	-0.0007665706
76	0xbc18fee4	-0.009338114
77	0x3cbc887b	0.023014298
78	0x3c3883e6	0.011261916
79	0xbb6d41ba	-0.0036202506
80	0x3c8d0570	0.017214507
81	0x3bc7dfa4	0.006099658
82	0x3c8d4d76	0.01724885
83	0x3c2c83a8	0.010529436
84	0xbc003ce5	-0.007827018
85	0x3b60fa63	0.003432893
86	0x3ae257e5	0.0017268626
87	0xbc712a37	-0.014719537
88	0xbaa4c96d	-0.0012572237
89	0x3bb28e6c	0.005449107
90	0x3bb2b925	0.0054542
91	0xbba395c5	-0.004992219
92	0xbc4fb17a	-0.012676591
93	0xbc5329d2	-0.012888389
94	0x3d612186	0.05496361
95	0x3ba568ae	0.005047879
96	0xbbaec858	-0.0053339414
97	0x3bfc2e55	0.007695953
98	0x3d30503e	0.043045275
99	0x39976321	0.0002887482
100	0xbc188ec8	-0.009311385
101	0xbd11b8fc	-0.035576805
102	0xbccf1e48	-0.025282994
103	0x3b445ca1	0.0029962438
104	0x3a67c1b5	0.0008840815
105	0x3cb65d50	0.022261292
106	0xbb3be189	-0.0028668365
107	0x3bcaa8f4	0.0061846916
108	0x3ca06ba0	0.01958257
109	0xbc6af0ee	-0.014339669
110	0xbcea3b89	-0.028592842
111	0x3b524d71	0.0032089616
112	0xbb6e919f	-0.0036402715
113	0xbc9de099	-0.019272136
114	0xbc642b86	-0.013926392
115	0x3cc01c4a	0.02345099
116	0xba3f9a39	-0.0007309053
117	0x3b0bb895	0.0021319736
118	0x3bdfbbc3	0.006827803
119	0x3cbbc103	0.022919184
120	0xbc14e267	-0.009087182
121	0xbb39dcc1	-0.002836034
122	0xbbd537bc	-0.006506888
123	0x3a8becf2	0.0010675474
124	0xbccfd4ed	-0.025370086
125	0xbcbf9f44	-0.023391373
126	0xbbf736c1	-0.007544369
127	0x3cafd349	0.021463053
128	0xbb854150	-0.0040666237
129	0x3c275066	0.01021204
130	0x3af0f292	0.0018382838
131	0xbc7e41eb	-0.015518646
132	0xba6c140f	-0.00090056745
133	0xbc1fcab0	-0.009752914
134	0x3beae6b2	0.0071686143
135	0xbcb90617	-0.022585912
136	0x3c051798	0.008123301
137	0xbc2f64fe	-0.010705231
138	0x3bba3cc0	0.0056835115
139	0xbb94ed55	-0.0045448937
140	0xbca4a2a3	-0.020097082
141	0xbb6e780d	-0.0036387474
142	0x3caa213f	0.020767806
143	0x3c19a4d8	0.009377681
144	0x3b41ab57	0.002955159
145	0x3d07c010	0.03314215
146	0xbaf3b7f9	-0.0018594257
147	0xbabbcf09	-0.0014328669
148	0x3c78a1c9	0.015175291
149	0x3cbd837f	0.023133991
150	0x3b7ac511	0.0038264433
151	0xbbf79593	-0.0075556724
152	0x3b977914	0.004622588
153	0xbb5c46ce	-0.0033611539
154	0xbc88aec4	-0.016684897
155	0x3bf77ca2	0.007552699
156	0x3b150779	0.002274005
157	0x3a07944f	0.0005171941
158	0x3afcdd87	0.0019292095
159	0x3c6f8f9f	0.014621644
160	0x3d0d5305	0.034503
161	0xbc52f2df	-0.012875288
162	0x3c3c61ae	0.011497898
163	0x3c2b6398	0.010460757
164	0xbc017ca4	-0.007903252
165	0xbb1942ab	-0.0023385684
166	0xbc2e9186	-0.010654813
167	0xbccb6857	-0.024830027
168	0x3c677756	0.014127573
169	0x3c6174f2	0.013760792
170	0xbc7c57af	-0.015401765
171	0xbc2a46f4	-0.010392893
172	0xbb937d09	-0.0045009893
173	0x3b12924f	0.0022365039
174	0xbc00cd24	-0.007861409
175	0xbaba3a33	-0.0014208019
176	0x3c13dff1	0.00902556
177	0x3b742678	0.0037254374
178	0xbc1a2989	-0.009409317
179	0x3d081a01	0.033227924
180	0xbbb231ee	-0.005438081
181	0xbbbb503a	-0.005716351
182	0xb912511e	-0.00013953864
183	0x390e53ab	0.00013573344
184	0x3c0564c6	0.008141702
185	0x3bc295b6	0.005938257
186	0x3c229b0d	0.009924662
187	0x3c6030b0	0.013683483
188	0xb90cd1c0	-0.00013429578
189	0xbbfadabb	-0.0076554692
190	0x3c609ae3	0.013708803
191	0x3a64fac0	0.00087348744
192	0xbc9579dd	-0.018246586
193	0xba8e4a52	-0.0010855889
194	0xbcb05378	-0.021524176
195	0x3ca9ab03	0.020711428
196	0x3ca89d5d	0.02058285
197	0x3c7a2ed5	0.015269955
198	0x3c5a3594	0.013318438
199	0x3b59b9f9	0.003322242
200	0x3bda895a	0.0066692056
201	0xbbd99786	-0.0066403775
202	0x3c1b2f1f	0.009471684
203	0xbc921798	-0.017833516
204	0xbd256819	-0.04038248
205	0xbc0ab93c	-0.008467015
206	0x3b3c252e	0.0028708684
207	0xbbdbfc91	-0.006713458
208	0xbc7a49dd	-0.015276399
209	0x3c9351c2	0.017983321
210	0x3c4e8c30	0.0126066655
211	0xbbc991e0	-0.006151423
212	0xbb4c99ab	-0.0031219523
213	0xbbfd58dd	-0.0077315406
214	0x3cb38624	0.02191455
215	0xbbef6287	-0.0073054465
216	0x3c608b04	0.013705019
217	0xbb78d046	-0.0037965938
218	0xb9059391	-0.00012738841
219	0xbbd6b2b5	-0.0065520653
220	0xbcb1e8a1	-0.021717371
221	0x3bf3b943	0.0074378564
222	0x3b484ea1	0.0030564445
223	0xbcbb92d7	-0.022897167
224	0xbb1bebd3	-0.0023791685
225	0x3cc878ee	0.024471726
226	0xbcafee67	-0.021475984
227	0x3b7c2a84	0.003847749
228	0xbc0164f8	-0.007897608
229	0xbbae03f0	-0.005310528
230	0x3cb3a14d	0.0219275
231	0xbd0c797e	-0.03429555
232	0xbbf9ae85	-0.0076196813
233	0xbc66b71f	-0.014081745
234	0xbca4d633	-0.02012167
235	0xbd0b98e4	-0.034081355
236	0x3cc6ae9a	0.024253178
237	0x3b1096b5	0.0022062485
238	0xbc2d82e0	-0.010590285
239	0x3b4cc303	0.0031244166
240	0x3d066787	0.032813575
241	0x3c538b31	0.012911604
242	0x3c841037	0.016121013
243	0x3ce8f3e8	0.028436616
244	0x3b7d8c32	0.00386883
245	0x39c5ddba	0.00037739967
246	0x3babd27b	0.005243597
247	0x3aacedf1	0.0013193471
248	0x3b83c14e	0.0040208464
249	0x3d6d048c	0.057865664
250	0x3b8c14ab	0.0042749248
251	0x3acd9bf5	0.0015686738
252	0x3b76841c	0.0037615364
253	0xba1e0057	-0.00060272723
254	0x3ba147a4	0.0049218703
255	0x3c1712d4	0.009220798

norm_input.running_mean f4 [1920]
0	0xbdcf9283	-0.10135367
1	0xbd8ca169	-0.06866724
2	0x3e862b95	0.26205125
3	0xbe8ec921	-0.27887824
4	0x3e0bc20b	0.1364824
5	0x3c038369	0.008026936
6	0xbe3e0ee8	-0.18560374
7	0xbef9d076	-0.48791856
8	0xbd1c3eb9	-0.038145754
9	0xbe87ca36	-0.26521462
10	0xbe75cd31	-0.24004056
11	0xbe845072	-0.25842625
12	0x3eeca1e8	0.46217275
13	0x3d575009	0.05256656
14	0x3e5befe6	0.21478233
15	0xbf0d9e26	-0.5531944
16	0xbd8f0b7a	-0.06984611
17	0x3ef12857	0.4710109
18	0x3ec07aa3	0.37593564
19	0x3df51d30	0.11968458
20	0xbf2b957b	-0.67024964
21	0xbd7292d4	-0.059222057
22	0xbaa5113d	-0.0012593638
23	0x3eb3e170	0.35132933
24	0xbe37e289	-0.1795751
25	0xbd1e2a8f	-0.038614806
26	0x3f03e569	0.5152193
27	0x3e00f4bd	0.1259336
28	0xbde138c8	-0.10997158
29	0xba30e71c	-0.0006748305
30	0xbebf143e	-0.3732013
31	0x3de63adc	0.11241695
32	0x3da82255	0.08209673
33	0xbe391f26	-0.18078288
34	0x3cb00aa1	0.021489443
35	0xbe704d98	-0.234671
36	0xbd4c8662	-0.049932845
37	0x3b6e6450	0.003637571
38	0x3c3affee	0.011413557
39	0xbed5ab8f	-0.4173245
40	0x3e36c673	0.1784914
41	0x3e5b2833	0.21402054
42	0xbe125124	-0.14288765
43	0x4283b51c	65.85373
44	0x3e976dfa	0.29576093
45	0xbe3215d8	-0.17391145
46	0x3ebedef5	0.37279478
47	0x3d7dba01	0.061944965
48	0x3eec3ecc	0.4614166
49	0xbd6fdfd8	-0.058563083
50	0xbe5dc498	-0.21657026
51	0xbd3f7f32	-0.046752162
52	0x3c560d19	0.013064646
53	0x3f209320	0.62724495
54	0xbc96f0ca	-0.018425364
55	0x3cd44d8d	0.025915885
56	0x3e200320	0.15626192
57	0xbeece731	-0.46270135
58	0xbeea16d5	-0.45720544
59	0x3de621ab	0.112368904
60	0x3ef83d78	0.48484397
61	0xbd8a6070	-0.06756675
62	0xbea29e5e	-0.3176145
63	0x3df4c3a2	0.119513765
64	0x3f05f23a	0.52322733
65	0x3db70854	0.08937135
66	0x3af6557f	0.001879379
67	0xbf2926ae	-0.66074646
68	0x3ce63c3b	0.028104892
69	0x3e14ccae	0.14531204
70	0x3e8f982a	0.2804578
71	0x3ed98b47	0.42489073
72	0x3e9591b3	0.29212722
73	0x3e9e24c5	0.30887428
74	0xbedba25b	-0.42897305
75	0x3d7952d6	0.060870014
76	0x3db6f8e7	0.08934193
77	0x3f65688b	0.89612645
78	0x3f8cd1f4	1.1001573
79	0xbe14709d	-0.14496084
80	0xbe578a8a	-0.21048942
81	0x3f491a29	0.7855554
82	0xbea29429	-0.31753662
83	0x3e18e586	0.14931306
84	0xbee40d99	-0.44541624
85	0xbb27f30a	-0.002562704
86	0x3e0c8db8	0.13725936
87	0xbeba8fbd	-0.3643779
88	0x3ef5ef48	0.4803412
89	0x3ee2a8b9	0.4426935
90	0x3e658960	0.22415686
91	0xbf098d84	-0.5373156
92	0x3dabfc4d	0.08397732
93	0x3eb66166	0.35621184
94	0xbd90a584	-0.070628196
95	0x3da424f6	0.08014862
96	0xbe857c12	-0.2607122
97	0x3ee087b1	0.43853524
98	0xbe0b0600	-0.13576508
99	0x3e7e465b	0.24831526
100	0x3d0f0f8f	0.034926947
101	0xbdb607c3	-0.08888199
102	0xbe1ed14f	-0.15509532
103	0xbee2b732	-0.44280392
104	0xbe1cd9aa	-0.15317407
105	0x3cb7ff4e	0.022460606
106	0xbd35bd9c	-0.04437028
107	0xbe3a5249	-0.18195452
108	0xbeab3f51	-0.33446744
109	0xbf12171a	-0.570665
110	0xbdc53249	-0.09628732
111	0x3eea5569	0.45768288
112	0xbdf3e91d	-0.11909697
113	0x3f15f218	0.5857253
114	0xbef05936	-0.46943063
115	0xbd776147	-0.060395505
116	0x3d84fad9	0.06493158
117	0xbea228e3	-0.3167182
118	0xbe93836d	-0.28811207
119	0xbeb2bd86	-0.3491022
120	0x3c80d9b5	0.01572881
121	0xbd8e2d68	-0.06942254
122	0xbf485021	-0.78247267
123	0x3ef6bd4e	0.48191303
124	0x3e577893	0.21042089
125	0xbe8889b8	-0.2666757
126	0xbe84672a	-0.25859958
127	0x3d8c2582	0.068430915
128	0xbcb0e06e	-0.021591391
129	0x3e87c1d0	0.26515055
130	0xbe743f5e	-0.23852298
131	0xbd8b9334	-0.06815186
132	0x3cd308aa	0.025760967
133	0xbe70ba05	-0.23508461
134	0x3d5b47c9	0.053535257
135	0x3f0b48dc	0.5440805
136	0xbdc58335	-0.096441664
137	0x3e8403cf	0.25784156
138	0xbef39317	-0.47573158
139	0x3c353a85	0.011061315
140	0xbeabcbcd	-0.33553925
141	0xbdaa311a	-0.08310147
142	0xbf4ab06f	-0.79175466
143	0xbe492dec	-0.19646424
144	0xbe958810	-0.2920537
145	0xbd1f87ee	-0.038947992
146	0x3c4b2040	0.012397826
147	0xbf0a98bb	-0.541393
148	0x3d87d281	0.06631947
149	0x3e2a9fdc	0.16662544
150	0xbf291865	-0.6605285
151	0x3e9d8a6b	0.30769667
152	0xbf553aae	-0.83292663
153	0xbe8dab12	-0.2766958
154	0x3ed0f8c0	0.4081478
155	0x3d445841	0.047935728
156	0xbec233ba	-0.3793009
157	0xbd239c93	-0.039944243
158	0xbefcb4e1	-0.4935675
159	0xbf634cb1	-0.88788897
160	0x3f407539	0.7517887
161	0x3f339aac	0.70157886
162	0x3e07b5c9	0.1325294
163	0x3e388307	0.18018733
164	0x3ec5395b	0.3852032
165	0xbf17791d	-0.5916918
166	0x3df45fcc	0.11932334
167	0xbd2346dc	-0.0398625
168	0xbd2a2cbb	-0.041546565
169	0xbea0285f	-0.312808
170	0x3f270cd2	0.6525394
171	0x3e3b92f1	0.18317772
172	0x3e9494fd	0.2901992
173	0x3f25c78b	0.64757603
174	0xbf1a8e5c	-0.60373473
175	0xbe1d494d	-0.15359993
176	0x3d98cf12	0.074613705
177	0xbe112339	-0.14173593
178	0xbda45ffa	-0.080261186
179	0x3e12f134	0.14349824
180	0x3e000733	0.12502746
181	0x3e294d7d	0.16533466
182	0xbf1845eb	-0.59481686
183	0x3e8b45e5	0.27201763
184	0x3e9d9e51	0.30784848
185	0xbee15cfb	-0.4401625
186	0xbeb47fa8	-0.35253644
187	0x3e89baa1	0.269002
188	0xbf0af2d3	-0.5427677
189	0xbe55508e	-0.2083151
190	0x3f2ec324	0.6826651
191	0xbcb23b73	-0.021756863
192	0x3f03e2ef	0.5151815
193	0xbe17ee2c	-0.14836949
194	0x3ebe56af	0.3717551
195	0x3e9a018f	0.30079314
196	0xbe5f3110	-0.2179606
197	0x3f0e0e0e	0.55490196
198	0x3e9909e9	0.29890373
199	0xbe34ee82	-0.17669109
200	0x3ebf1321	0.37319282
201	0xbe0506e8	-0.12990916
202	0x3eae325d	0.340228
203	0xbe50decd	-0.20397492
204	0x3e99e7c0	0.30059624
205	0x3ead7ce5	0.3388435
206	0xb997fe16	-0.00028990273
207	0xbe4456ac	-0.19173688
208	0xbd99302b	-0.074798904
209	0xbf23e182	-0.6401597
210	0xbdfc8c27	-0.123314194
211	0x3e2d2aba	0.1691083
212	0xbeab1833	-0.334169
213	0x3ce33a77	0.02773784
214	0x3dc22f84	0.09481719
215	0xbe5d457e	-0.2160854
216	0xbd8bcadf	-0.06825804
217	0x3e2abdf3	0.16674022
218	0xbe09826a	-0.13428655
219	0xbdc95cee	-0.09832178
220	0xbe71ec99	-0.23625411
221	0x3edc6b1f	0.43050477
222	0x3ee5b8a0	0.4486742
223	0x3d9590d3	0.07303014
224	0xbe9b9bf1	-0.3039241
225	0xbee52627	-0.4475567
226	0x3e05e0ea	0.13074079
227	0xbf197c55	-0.5995534
228	0x3e71c173	0.23608951
229	0xbe807a7c	-0.25093448
230	0x3e4e4fec	0.20147675
231	0x3d9b6fca	0.075896814
232	0xbe8e085f	-0.27740762
233	0x3b3b2609	0.0028556606
234	0x3db207ed	0.08692918
235	0x3e365c18	0.17808568
236	0xbea71642	-0.3263417
237	0xbed6fe0c	-0.41990697
238	0x3e59253b	0.21205609
239	0x3e5333c9	0.20625223
240	0x3cc20eca	0.023688693
241	0xbeb0e81b	-0.34552082
242	0xbdfd6521	-0.123728044
243	0x3d075cc1	0.03304744
244	0x3e114229	0.14185394
245	0x3e648d75	0.22319587
246	0xbc3744a9	-0.011185803
247	0xbf6bdc5b	-0.9213311
248	0xbe29373d	-0.16524978
249	0xbeb14202	-0.34620672
250	0x3cbf33b7	0.02334009
251	0x3dcbb422	0.09946467
252	0xbdfc3654	-0.1231505
253	0xbf3959d8	-0.72402716
254	0x3e26e567	0.16298448
255	0xbd6d2be2	-0.057903178

norm_input.running_var f4 [1920]
0	0x3fcf6c46	1.6204917
1	0x3fc30998	1.5237303
2	0x3fcb6208	1.5889292
3	0x3fc0d69f	1.5065497
4	0x40088666	2.133203
5	0x3fe39d8a	1.7782452
6	0x3fdecbc4	1.7405934
7	0x3fdf057d	1.742355
8	0x3ff17467	1.8863648
9	0x3ff0e7b5	1.8820711
10	0x400610ee	2.0947833
11	0x4012f422	2.2961507
12	0x3fcc8906	1.5979316
13	0x3ffc0063	1.9687618
14	0x4008a198	2.134863
15	0x3ffb7226	1.964421
16	0x40203ee3	2.5038383
17	0x4001556e	2.0208392
18	0x4005041f	2.0783765
19	0x400b73d7	2.1789453
20	0x4007f353	2.1242263
21	0x4020ea56	2.5143027
22	0x40095ecb	2.1464107
23	0x3fec99dc	1.8484454
24	0x3ffb570e	1.9635942
25	0x3ff09a21	1.8797036
26	0x402b0ec3	2.672776
27	0x3ff8079f	1.9377326
28	0x3fe01746	1.7507102
29	0x401d0c7b	2.4538867
30	0x3fc9b501	1.5758363
31	0x3ff944c5	1.9474112
32	0x3fe0a6ca	1.75509
33	0x40067958	2.1011562
34	0x3ff06bb5	1.878287
35	0x3ff9a967	1.9504822
36	0x401dae07	2.4637468
37	0x3fed0db4	1.8519807
38	0x3fe8d53f	1.8190078
39	0x400c3088	2.190462
40	0x3fb8cbf5	1.4437243
41	0x4002350a	2.0344872
42	0x3fe2970b	1.7702345
43	0x444d81be	822.0272
44	0x4004cee1	2.075127
45	0x3ffbde72	1.967726
46	0x40048c80	2.0710754
47	0x3fd8b6c5	1.6930777
48	0x3ff42ea3	1.9076732
49	0x3ff6c727	1.9279526
50	0x3fea5e4f	1.8310031
51	0x3fd79eac	1.6845298
52	0x3feb34d0	1.8375492
53	0x400f52fc	2.23944
54	0x3fccb1ee	1.59918
55	0x3fe5764a	1.7926724
56	0x3ffac00c	1.9589858
57	0x40033315	2.0499928
58	0x3fdc5afb	1.7215265
59	0x3fc3a847	1.5285729
60	0x40285afc	2.6305532
61	0x3fca8ac6	1.58236
62	0x3fe9fd03	1.8280338
63	0x3fe9c60b	1.8263563
64	0x4014640c	2.3186064
65	0x3fccdf94	1.6005731
66	0x3ff9a45d	1.9503285
67	0x401857a9	2.3803504
68	0x4008d909	2.1382468
69	0x3fbc50d1	1.4712163
70	0x3fdd85f7	1.7306508
71	0x4001fb34	2.0309572
72	0x40254e64	2.5829096
73	0x3fc5112b	1.5395864
74	0x3ff44cff	1.9085997
75	0x3fea4be4	1.830441
76	0x3ffb078a	1.9611676
77	0x4021bac6	2.5270247
78	0x41055407	8.3330145
79	0x401eae50	2.4793892
80	0x3fe502c0	1.7891464
81	0x4057f1c6	3.3741317
82	0x3ff75aa2	1.9324534
83	0x3fde9fd9	1.7392532
84	0x4010abf8	2.2604961
85	0x3fe75176	1.8071735
86	0x3fd95df4	1.6981797
87	0x4003c569	2.058924
88	0x3ff85e5c	1.9403796
89	0x3fef696b	1.8704046
90	0x3fe28c84	1.7699132
91	0x401e57fc	2.4741201
92	0x400e3ee1	2.2225878
93	0x3fe897cd	1.8171326
94	0x4004238e	2.06467
95	0x4003bb07	2.0582902
96	0x3fea3cc5	1.8299795
97	0x40167ad9	2.351248
98	0x3fd50d55	1.6644694
99	0x3ff61b2b	1.9227041
100	0x40023e86	2.0350661
101	0x3ffe988f	1.9890307
102	0x40000c01	2.0007327
103	0x3fcf0b4a	1.617532
104	0x3fda6400	1.7061768
105	0x3fd56c72	1.667372
106	0x3ffdab7a	1.9817955
107	0x3fe217d6	1.7663524
108	0x3ffa47d1	1.9553167
109	0x4041584b	3.021014
110	0x3fe182b0	1.7618008
111	0x3ff0842f	1.8790339
112	0x3fe148f8	1.7600393
113	0x3ff8be7d	1.9433132
114	0x3fe30a9a	1.773761
115	0x3ff3b8bc	1.9040751
116	0x3ff25e77	1.8935078
117	0x3fdb9b9d	1.7156864
118	0x3ffa7e3c	1.9569774
119	0x3fe61252	1.7974341
120	0x401e8e82	2.477448
121	0x3fc0a99b	1.505176
122	0x4009d275	2.1534703
123	0x3fe851aa	1.8149922
124	0x3fef640b	1.8702406
125	0x3fdaf205	1.7105108
126	0x3ffa77b6	1.9567783
127	0x4000f514	2.0149584
128	0x400d74e2	2.210259
129	0x3fee8351	1.8633825
130	0x3fdf4676	1.7443378
131	0x3fea3bfd	1.8299557
132	0x4006cd8f	2.1062963
133	0x3fdbefe8	1.7182589
134	0x400cf670	2.2025414
135	0x3fdbe752	1.7179968
136	0x4004dbdd	2.0759194
137	0x4013adf2	2.3074918
138	0x400b1cfd	2.1736443
139	0x3fe9781d	1.8239781
140	0x3ff89695	1.9420954
141	0x4001e76e	2.0297503
142	0x40120f82	2.2821965
143	0x4070ed09	3.7644675
144	0x40047e95	2.070226
145	0x3fca4a6d	1.5803963
146	0x400b9d2b	2.1814678
147	0x3fd87141	1.6909562
148	0x3fe445d3	1.7833809
149	0x40084886	2.1294265
150	0x3ff22ee7	1.8920563
151	0x3fcd0e66	1.6020019
152	0x400fd294	2.2472277
153	0x3fd766f9	1.68283
154	0x4032e79c	2.7953863
155	0x3ffc0824	1.9689984
156	0x3fe883b4	1.8165193
157	0x3ff1dcf7	1.8895558
158	0x3feddbac	1.8582664
159	0x40119124	2.2744837
160	0x3fe469f2	1.7844832
161	0x401bc0cd	2.4336426
162	0x3ffea7d0	1.9894962
163	0x4009c848	2.1528492
164	0x3fd8b409	1.6929942
165	0x400504a5	2.0784085
166	0x3fd16d7b	1.6361536
167	0x3fcb0e30	1.5863705
168	0x3fd3506b	1.6508917
169	0x401de547	2.467119
170	0x3fc82f3f	1.5639418
171	0x400b8fe5	2.1806576
172	0x3fe006c3	1.7502064
173	0x40020fd2	2.0322156
174	0x3fdb56b9	1.7135841
175	0x4004f24a	2.0772882
176	0x3fdd2e85	1.7279822
177	0x3ff0a407	1.8800057
178	0x400ea1d9	2.2286284
179	0x3fc7aad3	1.5599006
180	0x3fea2895	1.8293635
181	0x3fec85a8	1.8478289
182	0x3ff3503f	1.9008864
183	0x401267ff	2.2875974
184	0x409680e5	4.703234
185	0x3ff1bf66	1.8886535
186	0x3fe104d4	1.7579598
187	0x40057f2c	2.085887
188	0x3fe1ceea	1.764127
189	0x3fce3eec	1.6112952
190	0x401973a4	2.3976831
191	0x3fd998b4	1.6999726
192	0x401828c6	2.3774886
193	0x3fe88ada	1.8167374
194	0x3ffed9e3	1.9910244
195	0x3ff31aff	1.8992614
196	0x3ff03987	1.8767556
197	0x3fc223e5	1.5167204
198	0x40047639	2.0697157
199	0x3fdaac3a	1.7083809
200	0x3fb84ae7	1.4397858
201	0x4005d79e	2.0912852
202	0x3fdc6ab0	1.7220058
203	0x3fbfaf61	1.4975396
204	0x400cb9f5	2.19885
205	0x3fe9a19a	1.8252442
206	0x3fcbcc12	1.5921652
207	0x3ff16e68	1.8861818
208	0x3fcc822e	1.5977228
209	0x3ff0c5a9	1.8810321
210	0x3ff2ac53	1.8958839
211	0x3fdb3589	1.7125713
212	0x3ff0cb9f	1.881214
213	0x3fff6d17	1.9955167
214	0x3fe3883d	1.7775952
215	0x400362a3	2.0528953
216	0x400a9853	2.1655471
217	0x3ffde348	1.9834986
218	0x4000e278	2.0138226
219	0x401992c7	2.3995836
220	0x3fd7bcb3	1.6854461
221	0x4017f309	2.3742087
222	0x3fee65df	1.8624839
223	0x3fe5bba9	1.7947894
224	0x3fd8e9ea	1.6946385
225	0x40186bbc	2.3815756
226	0x3fd238e1	1.6423608
227	0x40868a6c	4.204397
228	0x401900a4	2.390664
229	0x400cca97	2.199865
230	0x3fe026e6	1.7511871
231	0x3fdc364a	1.7204068
232	0x3fe4ef92	1.7885611
233	0x400210a0	2.0322647
234	0x3fd2c470	1.6466198
235	0x3fcca83c	1.5988841
236	0x3ff1e67f	1.8898467
237	0x40033965	2.050378
238	0x3fd58e74	1.6684098
239	0x3fddfb26	1.734227
240	0x3fcf06ed	1.6173989
241	0x3feec900	1.865509
242	0x3fe63697	1.798541
243	0x3fc520e6	1.5400665
244	0x3fd8be19	1.6933013
245	0x4016f8e9	2.3589423
246	0x3ff2206e	1.8916147
247	0x401f9a46	2.493791
248	0x3fc44ae9	1.5335361
249	0x3fc30c6a	1.5238163
250	0x3fe40fec	1.7817359
251	0x3ffb4bfc	1.9632564
252	0x40131d6a	2.2986703
253	0x4024664e	2.5687442
254	0x3ff124c8	1.883935
255	0x400981a5	2.1485379

transformer.norm.weight f4 [1920]
0	0x3f2d99f2	0.67813027
1	0x3f088bcf	0.5333833
2	0x3f627940	0.8846626
3	0x3edac4f1	0.4272838
4	0x3ea29936	0.31757516
5	0x3e4615a7	0.19344197
6	0x3ed4d432	0.41568142
7	0xbf15ccc7	-0.5851559
8	0x3eb9700c	0.36218297
9	0x3de2bd01	0.11071206
10	0x3f0cf9e9	0.5506883
11	0x3f2b26e0	0.66856194
12	0x3e1cf311	0.15327097
13	0x3e58f1ca	0.21185985
14	0x3f2f4fc3	0.6848108
15	0x3f2b90eb	0.67018
16	0xbd64814b	-0.055787366
17	0x3e5c997e	0.21542928
18	0x3eab9edb	0.33519635
19	0x3e92cc1d	0.2867135
20	0x3eb3e0f2	0.35132557
21	0xbef64816	-0.48101872
22	0x3f0fc838	0.56164885
23	0x3f1d6b29	0.6149164
24	0x3f210f1d	0.62913686
25	0x3e25640c	0.16151446
26	0xbd027b91	-0.031856123
27	0x3f028693	0.50986594
28	0x3f3afe76	0.73044527
29	0x3ea62fed	0.3245844
30	0x3e65321b	0.22382395
31	0x3f02083d	0.5079382
32	0xbe98a00c	-0.29809606
33	0x3f09faa8	0.53898096
34	0x3d66474e	0.056220345
35	0x3f159f7e	0.5844649
36	0x3e082d88	0.13298619
37	0x3ebdc6d8	0.37065768
38	0x3d1dc88b	0.03852133
39	0x3f1aaa0d	0.60415727
40	0x3eeac4d0	0.4585328
41	0x3e17177b	0.14755051
42	0x3f1427a0	0.5787296
43	0x3eb16064	0.34643853
44	0x3e956a99	0.2918289
45	0x3f4ab6e4	0.7918532
46	0x3f5c1ee1	0.8598462
47	0x3f0b6bbd	0.5446127
48	0x3e2202e8	0.15821421
49	0x3ea2bda1	0.317853
50	0x3ec27cd8	0.37985873
51	0x3ed73cbc	0.42038524
52	0x3f1b3679	0.60629994
53	0x3f131c98	0.57465506
54	0x3e4c73a3	0.19965987
55	0x3f865261	1.049389
56	0x3e92ba35	0.2865769
57	0xbd92d51c	-0.07169554
58	0x3ecd1316	0.40053624
59	0x3f077067	0.5290589
60	0x3f0180d2	0.5058719
61	0x3f0179cb	0.50576466
62	0xbd5d49ab	-0.054025333
63	0x3f01d087	0.5070881
64	0xbebb3814	-0.36566222
65	0x3f63ac7b	0.8893506
66	0x3e825145	0.2545263
67	0x3ea2497b	0.31696686
68	0x3e86591c	0.2623986
69	0x3f103a85	0.56339294
70	0x3eff00a0	0.49805164
71	0x3ef722a5	0.4826862
72	0x3e8922ed	0.2678446
73	0x3eaf09f6	0.34187287
74	0xbe01443e	-0.12623689
75	0x3e6f55aa	0.23372522
76	0x3d06fe5c	0.03295742
77	0x3e6a012f	0.22852014
78	0x3e24b44e	0.16084406
79	0xbd017b82	-0.031611927
80	0x3edde63f	0.43339726
81	0x3eabdcfe	0.3356704
82	0x3eafc84d	0.34332505
83	0x3ee86561	0.45389846
84	0x3e596047	0.21228133
85	0x3eac3bf0	0.3363948
86	0x3e0c9a7a	0.13730803
87	0x3e568145	0.2094775
88	0x3ebf2718	0.37334514
89	0x3e4c4b42	0.19950584
90	0x3f1be04a	0.6088911
91	0xbdf770d0	-0.12082064
92	0x3ea639d1	0.32465985
93	0x3f008c7a	0.5021435
94	0x3f31ed9c	0.6950319
95	0xbe0c7cb8	-0.13719451
96	0x3f40e564	0.7535002
97	0x3ebecf0f	0.37267348
98	0x3e95166e	0.29118675
99	0xbdfa72c4	-0.12228921
100	0x3eeded40	0.4647007
101	0x3f87c91f	1.0608252
102	0x3f893755	1.0720011
103	0x3e889216	0.26673955
104	0x3ed9df36	0.4255311
105	0x3f3703a3	0.71489924
106	0xbe1e9217	-0.15485416
107	0x3d3b4f24	0.04572977
108	0x3eb0a127	0.3449795
109	0x3ecb1754	0.39666235
110	0x3f8fff5a	1.1249802
111	0x3f361315	0.71122867
112	0x3efa4567	0.48881075
113	0x3f05cd67	0.52266544
114	0x3f5b0344	0.8555186
115	0x3f222a33	0.6334564
116	0x3f1ce3ee	0.61285293
117	0x3eb51181	0.35364917
118	0x3ed0833f	0.40725133
119	0x3e11f065	0.1425186
120	0x3ebe2ae6	0.37142104
121	0xbd8f38fb	-0.0699329
122	0xbde1bda7	-0.110225014
123	0x3ea6f7f4	0.32611048
124	0x3eb3ffa8	0.35155988
125	0x3f14fbc2	0.5819665
126	0x3e96df99	0.29467466
127	0x3e052ffb	0.13006584
128	0x3e993dd7	0.29929993
129	0x3f215463	0.6301939
130	0xbe67754d	-0.2260334
131	0x3e71d4c5	0.23616321
132	0x3e9f4ab2	0.31111676
133	0x3ea46d6d	0.32114735
134	0x3dc737d2	0.09727444
135	0x3f108787	0.564568
136	0x3ea97aa1	0.3310137
137	0x3e39bcc3	0.18138413
138	0x3e47743f	0.19477938
139	0x3eafe435	0.34353796
140	0x3f25bcac	0.64741015
141	0x3ef6edd8	0.48228335
142	0x3f041e9f	0.51609224
143	0x3e4f62d5	0.20252545
144	0x3ef98bd3	0.4873949
145	0xbe93b272	-0.2884708
146	0x3f01e5ae	0.5074109
147	0x3e077c02	0.13230899
148	0x3f14c06f	0.5810613
149	0x3f741558	0.9534507
150	0x3e94dbc6	0.29073924
151	0x3edacdf1	0.42735246
152	0x3f16ec9e	0.589548
153	0x3e61d0e3	0.2205234
154	0xbf18c2a7	-0.59672016
155	0x3f3ac581	0.7295762
156	0xbdaba93b	-0.083818875
157	0x3f1d9269	0.6155153
158	0x3f13e60c	0.577729
159	0x3f5b2143	0.8559763
160	0x3e7dde45	0.2479182
161	0x3ea0fd11	0.31443074
162	0x3dcf600c	0.10125741
163	0x3e677ee3	0.22606997
164	0x3f106468	0.5640321
165	0x3e7827de	0.24233958
166	0x3f278446	0.6543621
167	0x3f1e1397	0.6174864
168	0x3ee8d477	0.45474598
169	0x3f18a309	0.5962377
170	0x3ea07f02	0.313469
171	0x3f138aec	0.5763385
172	0xbd78e6c6	-0.060766958
173	0x3e8cd8c8	0.2750914
174	0x3e4cb055	0.1998914
175	0x3e459ee6	0.19298896
176	0x3f147861	0.57996184
177	0x3f4195c0	0.75619125
178	0x3f1497cf	0.5804414
179	0x3f805dce	1.0028627
180	0x3ef36d66	0.47544402
181	0xbe760517	-0.24025379
182	0x3de6f54c	0.112772554
183	0x3e9e31b0	0.30897284
184	0x3e14b29f	0.14521264
185	0x3ecd2110	0.40064287
186	0x3ebb75da	0.3661335
187	0xbeae8529	-0.34085968
188	0x3ed5c0e2	0.4174872
189	0x3eee7535	0.46573797
190	0x3e90c822	0.2827769
191	0x3c43556c	0.011922222
192	0x3f1ac310	0.6045389
193	0x3ed19393	0.40932903
194	0x3f0ca8dc	0.5494516
195	0x3f247b32	0.6425048
196	0x3f1663fe	0.58746326
197	0x3eccfcfb	0.4003676
198	0x3e900ab8	0.28133178
199	0x3eed01c2	0.46290404
200	0x3ee5c992	0.44880348
201	0x3f1e0cdb	0.61738366
202	0x3f310c56	0.6915945
203	0xbb32a03e	-0.0027256156
204	0x3f8a13a8	1.0787249
205	0x3ee509be	0.44733995
206	0x3dd35a95	0.103200115
207	0x3ebcb2e5	0.36855236
208	0x3f0b317f	0.543724
209	0x3f4845a1	0.78231245
210	0x3f34a1b7	0.7055926
211	0x3d3197f9	0.043357823
212	0x3d3531e8	0.044237047
213	0x3ed80b7d	0.42196265
214	0x3ef5754d	0.47941056
215	0x3f1861aa	0.59524024
216	0x3f356528	0.7085748
217	0x3eda48ed	0.42633763
218	0x3ddd45bd	0.10804317
219	0x3cbe238b	0.023210308
220	0x3ebce9b2	0.36897045
221	0x3e7c2c83	0.24626355
222	0x3ec02c86	0.3753397
223	0xbe89be08	-0.26902795
224	0x3f1d7834	0.6151154
225	0x3f0817c0	0.5316124
226	0x3f256760	0.6461086
227	0x3e2f3dc4	0.17113405
228	0x3f776a43	0.9664652
229	0x3cf51000	0.029914856
230	0x3f049a2e	0.5179776
231	0xbed55e50	-0.41673517
232	0x3ec2010f	0.37891433
233	0x3ef1533a	0.4713381
234	0x3f19c24e	0.6006211
235	0xbea6ca86	-0.32576388
236	0x3f105e4c	0.56393886
237	0x3e487a64	0.19577938
238	0x3f36585b	0.7122857
239	0x3da298bc	0.07939288
240	0x3f362f2a	0.71165717
241	0x3e8cb112	0.27478844
242	0x3d85a073	0.06524744
243	0x3f6f52bd	0.93485624
244	0x3f047f6e	0.5175694
245	0x3f09fef7	0.5390467
246	0x3ed8ca71	0.4234195
247	0x3ec2acc6	0.3802244
248	0x3ee14799	0.43999937
249	0x3f91ffa4	1.140614
250	0x3e950893	0.29108104
251	0x3e81eaab	0.2537435
252	0x3e9e699c	0.3093995
253	0x3f0664a5	0.5249732
254	0x3e6512b8	0.22370422
255	0x3f04b330	0.5183592

transformer.norm.bias f4 [1920]
0	0x3c911f15	0.017715016
1	0xbe7a01e1	-0.24414779
2	0x3e46a0e3	0.19397311
3	0xbea9df8b	-0.33178362
4	0x3dda0a63	0.10646512
5	0x3d5264f2	0.0513658
6	0x3daf9fe7	0.08575421
7	0x3dca419b	0.098757945
8	0x3e390d67	0.18071519
9	0xbe52dd78	-0.20592296
10	0x3e187a81	0.14890482
11	0x3e26bb5c	0.1628241
12	0x3d53e870	0.05173534
13	0x3cf27eab	0.029601416
14	0xbdb15063	-0.08657911
15	0xbe2cbddf	-0.16869305
16	0x3dcf135d	0.10111115
17	0x3e39a7cc	0.18130416
18	0x3e5b57b7	0.2142018
19	0x3e217c7b	0.15770142
20	0x3dd96fca	0.10617025
21	0x3dd430f2	0.10360898
22	0x3e0df55e	0.13863131
23	0xbb7adadc	-0.0038277423
24	0xbe2d968d	-0.16951962
25	0xbe11b4e0	-0.14229155
26	0xbe294dc8	-0.16533577
27	0xbd71ab35	-0.059001166
28	0xbdce0fb2	-0.100615874
29	0xbd816712	-0.06318487
30	0xbe2b7000	-0.16741943
31	0x3e8274a5	0.25479618
32	0x3e5826b5	0.21108516
33	0x3ed79f47	0.42113706
34	0xbd12c8db	-0.035836082
35	0xbe53d67f	-0.20687293
36	0x3e3a0f6d	0.18169947
37	0xbe101bd3	-0.14073114
38	0x3d1b1a2a	0.03786675
39	0x3e2ceb08	0.16886532
40	0xbec081ed	-0.37599126
41	0xbca87549	-0.020563738
42	0x3b6b54eb	0.003590877
43	0x3c148680	0.00906527
44	0x3e7d2058	0.2471937
45	0xbdb7bd25	-0.08971623
46	0x3e731e93	0.23742132
47	0xbe054d58	-0.13017786
48	0x3ea09356	0.31362408
49	0xbcfb8484	-0.030702837
50	0x3e65a60c	0.22426623
51	0x3ecffb5e	0.40621465
52	0x3dea9ba8	0.1145547
53	0xbe8be45a	-0.27322656
54	0xbe22ab6a	-0.15885702
55	0x3e91f8e1	0.28510192
56	0x3e15b52e	0.14619896
57	0x3d1c62af	0.03818005
58	0xbe2fc598	-0.1716522
59	0x3e6a49a5	0.22879656
60	0xbe5d66ad	-0.21621199
61	0x3e94299f	0.28938004
62	0xbdbb92f2	-0.09158887
63	0xbda7e77b	-0.08198448
64	0xbd083a9c	-0.03325902
65	0xbe1535c0	-0.14571285
66	0x3df52f31	0.11971892
67	0x3da36884	0.07978919
68	0x3e5a5bde	0.21324107
69	0x3e53ed04	0.20695883
70	0x3d279ab0	0.040919006
71	0x3ded906e	0.115998134
72	0xbda0f7b9	-0.07859749
73	0x3e04ed70	0.129812
74	0x3d7fe045	0.06246974
75	0x3c8fa55f	0.01753491
76	0x3d7ac326	0.061221264
77	0xbdc6efda	-0.09713717
78	0xbdf80e8e	-0.12112151
79	0x3ca52ea6	0.020163845
80	0xbd90ec68	-0.07076341
81	0xbcaf4b4a	-0.021398205
82	0xbe6b5d33	-0.22984771
83	0x3e7d3c62	0.24730065
84	0x3e5ec036	0.2175301
85	0xbe98c5ba	-0.29838353
86	0x3a9ff489	0.0012203614
87	0x3e00e88b	0.12588708
88	0xbe5e6a62	-0.2172027
89	0xbda7f1c4	-0.0820041
90	0xbe3d7191	-0.18500353
91	0xbde77d8f	-0.11303245
92	0xbcff4551	-0.031160982
93	0x3e802b9a	0.25033265
94	0xbe4987b2	-0.1968067
95	0x3dce78b3	0.10081615
96	0x3d27dd6c	0.04098265
97	0x3e8ede33	0.279039
98	0xbe17334c	-0.14765662
99	0xbda7d418	-0.081947505
100	0x3e210a5a	0.15726605
101	0xbca2fa99	-0.019894885
102	0xbd0c9723	-0.034323823
103	0xbe02b732	-0.12765196
104	0xbe8ec7e9	-0.27886894
105	0x3d8af3a7	0.06784754
106	0x3e1fa4d4	0.1559022
107	0x3d8fa06d	0.07013021
108	0x3e61137e	0.21980092
109	0xbdc9dc86	-0.09856515
110	0x3e053eb9	0.13012208
111	0x3dee9591	0.11649621
112	0xbe50b4ac	-0.20381421
113	0xbd8ab507	-0.067728095
114	0xbe872284	-0.2639352
115	0x3d36b5b2	0.044606872
116	0xbe2a062c	-0.16603917
117	0x3e4074b7	0.18794523
118	0x3da1d349	0.079016276
119	0xbdaa620f	-0.083194844
120	0x3ea87bc7	0.32906935
121	0xbcf5b1ca	-0.029992003
122	0x3e203cda	0.15648213
123	0x3dbd9cff	0.0925846
124	0x3e2dd073	0.16974048
125	0x3e11b07a	0.14227477
126	0xbdfe1e56	-0.1240813
127	0x3e2a8580	0.16652489
128	0x3e67d567	0.2264
129	0xbd337b4b	-0.043818753
130	0x3e24876b	0.16067283
131	0x3d97e4da	0.07416697
132	0xbe4ce8b2	-0.20010641
133	0x3c783391	0.015149013
134	0x3e8f5eb2	0.28001934
135	0x3e870d3e	0.2637729
136	0x3cd83033	0.02639017
137	0xbd714a38	-0.05890867
138	0xbdfab073	-0.12240686
139	0x3cd63e0a	0.02615263
140	0xbe038d80	-0.12846947
141	0xbddcfc00	-0.10790253
142	0x3df9e2e7	0.12201481
143	0x3dd20f55	0.102568306
144	0x3e09b89e	0.13449332
145	0xbe386fee	-0.18011448
146	0xbd510e15	-0.05103882
147	0xbe22c270	-0.15894485
148	0x3ddad7a1	0.10685659
149	0x3d132035	0.035919387
150	0xbe7471f2	-0.23871592
151	0xbe111315	-0.14167435
152	0xbe61b76e	-0.22042629
153	0xbe8cd56a	-0.27506572
154	0x3d22b14c	0.039719865
155	0xbd1ab144	-0.03776671
156	0x3e059f6b	0.13049094
157	0x3daaef97	0.083464794
158	0x3e401564	0.1875816
159	0xbe9a558f	-0.301434
160	0x3e98124f	0.29701468
161	0x3de8ce35	0.11367456
162	0x3d4324e2	0.047642596
163	0xbda52284	-0.08063224
164	0xbe54c352	-0.20777634
165	0x3cbaafae	0.022788849
166	0xbe8ab072	-0.27087742
167	0xbdf8a277	-0.12140363
168	0x3e176c45	0.14787395
169	0x3eb27aaa	0.3485921
170	0x3da1835c	0.07886383
171	0x3e420d32	0.18950346
172	0xbd4378b0	-0.04772252
173	0xbd693934	-0.05693932
174	0x3b4948fa	0.0030713663
175	0xbe693a78	-0.2277621
176	0xbe1f6935	-0.15567477
177	0x3e1f2e40	0.15544987
178	0xbd33aa5b	-0.043863636
179	0xbdbdbf33	-0.09264984
180	0xbecb36a3	-0.39690122
181	0x3b89f042	0.004209549
182	0xbdcff40f	-0.10153972
183	0xbe8ed924	-0.2790004
184	0xbd63075d	-0.055426944
185	0xbe390fde	-0.18072459
186	0x3bd36d2f	0.0064522247
187	0x3e374547	0.17897521
188	0xbc18a786	-0.009317284
189	0xbdac1248	-0.08401924
190	0xbe301a1e	-0.17197463
191	0x3d4956c6	0.04915502
192	0x3e7af4d0	0.24507451
193	0xbe3829e0	-0.17984724
194	0x3d324da1	0.043531064
195	0x3e895294	0.26820815
196	0xbe69ab27	-0.22819196
197	0x3e0d5fc6	0.13806066
198	0xbdb6b309	-0.08920867
199	0xbe237425	-0.15962274
200	0x3e1c0a1c	0.15238231
201	0xbd8ad52e	-0.06778942
202	0xbd64d3dc	-0.055866107
203	0xbde4527c	-0.11148545
204	0x3e680bf3	0.22660808
205	0xbd5ad08a	-0.053421535
206	0x3c688a87	0.014193184
207	0xbdfe6313	-0.12421241
208	0x3d091e3d	0.033476103
209	0x3deb00c4	0.114747554
210	0xbe883147	-0.26600096
211	0xbe208079	-0.15674008
212	0xbd52c504	-0.05145742
213	0x3e30d51a	0.17268792
214	0x3b78014d	0.0037842572
215	0x3e0e1cc8	0.13878167
216	0x3ca3d41d	0.019998604
217	0x3e85c345	0.2612554
218	0xbe933f7a	-0.28759366
219	0x3dae552f	0.08512341
220	0x3dd6f6a8	0.10496265
221	0x3c40886e	0.011751277
222	0x3c81ceb6	0.015845638
223	0xbd0c4525	-0.03424563
224	0xbd7f17c6	-0.06227853
225	0x3e25d53e	0.16194627
226	0xbc99fcc3	-0.018797284
227	0xbcd32b43	-0.025777465
228	0x3e01a1f2	0.12659433
229	0xbd2a420c	-0.041566893
230	0x3c4c6656	0.012475571
231	0xbe092dd0	-0.13396382
232	0x3deb9cc6	0.115045115
233	0x3bb5210f	0.0055276225
234	0xbe53f86f	-0.20700239
235	0x3e3d760e	0.18502066
236	0xbe48d5dc	-0.19612831
237	0x3dafcb2a	0.08583672
238	0x3dfef08d	0.12448225
239	0xbdbdb33c	-0.09262702
240	0x3eaf7bfb	0.34274277
241	0xbd626364	-0.055270568
242	0x3aacf632	0.001319593
243	0x3ec4f273	0.38466224
244	0x3bc2d242	0.005945475
245	0xbe33a5f0	-0.17543769
246	0xbe4e1f2f	-0.20129083
247	0xbe59e0a4	-0.212771
248	0xbd60a31b	-0.05484305
249	0x3e2cd7cd	0.16879196
250	0x3d19897e	0.03748464
251	0xbd8df4b6	-0.069314405
252	0x3e2b1b02	0.16709521
253	0x3d60bb0d	0.054865886
254	0xbe3e509f	-0.18585442
255	0x3e474c05	0.19462593

transformer.norm.running_mean f4 [1920]
0	0xb8d7522c	-0.000102673046
1	0x3bf65c90	0.0075183585
2	0x3d7d7967	0.061883356
3	0xbcce84c1	-0.025209786
4	0xbc212831	-0.0098362425
5	0xbc42b4f0	-0.011883959
6	0xbbf9e8e2	-0.0076266387
7	0x3ced3670	0.028956622
8	0xbbba424f	-0.005684174
9	0x3c13d7ba	0.009023601
10	0x3c7ff276	0.015621772
11	0xbbac1f9f	-0.005252793
12	0xba85435e	-0.0010167172
13	0xbc365bed	-0.011130315
14	0xbc4ad905	-0.012380843
15	0xbb31f070	-0.0027151369
16	0xbbf7282e	-0.0075426316
17	0x3b775a15	0.0037742902
18	0x3c574ec9	0.013141342
19	0x3c2c4101	0.010513545
20	0xbcaf95e1	-0.021433773
21	0xbc1f3a84	-0.009718541
22	0x3c036644	0.0080199875
23	0x3cce6fb1	0.025199743
24	0x3d41ffc9	0.047363076
25	0x3af9959e	0.0019041782
26	0x3c162a2d	0.009165329
27	0xbb580ea3	-0.0032967709
28	0xbbc4310e	-0.005987293
29	0xb96a3c4f	-0.00022338446
30	0xbb2520bd	-0.0025196515
31	0xbc6e9f65	-0.01456437
32	0xbc0194df	-0.007909029
33	0xbc079615	-0.008275528
34	0x3b1c4bbb	0.002384885
35	0xbba61365	-0.00506823
36	0xbbac35a4	-0.005255418
37	0xbb90a0ed	-0.004413715
38	0xbb4c98f7	-0.0031219104
39	0xba7102f1	-0.0009193859
40	0x3cd9c372	0.026582453
41	0x3ab6a2c2	0.0013934004
42	0x3ca66c56	0.02031533
43	0x3b27130a	0.0025493526
44	0x3b9c4844	0.004769357
45	0x3bfbdc67	0.007686186
46	0x3d08b94d	0.03337984
47	0x3b225f99	0.002477622
48	0xbc81091e	-0.015751418
49	0xba9ee3e4	-0.001212236
50	0x3c073667	0.008252717
51	0x3c8771f6	0.016533833
52	0xbc71db98	-0.014761828
53	0x3a338246	0.00068477204
54	0x3c0a7340	0.008450329
55	0x3c276fff	0.010219573
56	0xb8518100	-4.9949624e-05
57	0xbbf334a8	-0.0074220486
58	0xbc3551cb	-0.011066864
59	0x3be2a105	0.0069161677
60	0x3cf3a2f7	0.029740794
61	0xbc0fe680	-0.008782983
62	0x3c92ab53	0.01790396
63	0xbc9ced04	-0.019155987
64	0x3b117484	0.0022194693
65	0x3c8caaff	0.017171381
66	0x3c823141	0.015892627
67	0x3c5f3520	0.013623506
68	0x3bf118e3	0.007357703
69	0xba97f60d	-0.0011593715
70	0xbc1ee36c	-0.009697776
71	0x3c8369ff	0.016041754
72	0x3ab58cd7	0.0013851178
73	0xbc020b62	-0.007937284
74	0x39b58039	0.00034618544
75	0xba47fe4f	-0.00076291425
76	0xbc18ddbf	-0.009330212
77	0x3cbcce3b	0.023047557
78	0x3c390d22	0.011294635
79	0xbb6ea0c7	-0.0036411749
80	0x3c8d91e0	0.017281473
81	0x3bc838bd	0.0061102794
82	0x3c8dc43c	0.017305486
83	0x3c2d5869	0.010580161
84	0xbc001b3c	-0.007818993
85	0x3b655215	0.0034991552
86	0x3ae20663	0.0017244335
87	0xbc719ef1	-0.014747367
88	0xbaa9e24b	-0.0012961117
89	0x3baeed2d	0.005338332
90	0x3babd268	0.0052435882
91	0xbba0a154	-0.0049020443
92	0xbc4df834	-0.012571383
93	0xbc533791	-0.012891666
94	0x3d600999	0.054696653
95	0x3ba62a7e	0.0050709834
96	0xbbad7e15	-0.005294571
97	0x3bfa4f2b	0.007638832
98	0x3d30578d	0.043052245
99	0x3990c0c4	0.00027609442
100	0xbc17f259	-0.009274089
101	0xbd115603	-0.035482418
102	0xbccae618	-0.02476792
103	0x3b42f57a	0.0029748366
104	0x3a5d7142	0.00084473577
105	0x3cb6279e	0.022235688
106	0xbb3bd894	-0.0028663026
107	0x3bcae11f	0.0061913873
108	0x3c9ffada	0.019528795
109	0xbc69f557	-0.014279685
110	0xbce8f600	-0.028437614
111	0x3b528321	0.0032121616
112	0xbb6cd5eb	-0.0036138247
113	0xbc9c7274	-0.019097544
114	0xbc61452d	-0.013749403
115	0x3cbd5faa	0.023116905
116	0xba42fd9d	-0.0007438304
117	0x3b0e222f	0.0021687855
118	0x3bdce44a	0.0067410814
119	0x3cbca3b7	0.023027284
120	0xbc15f515	-0.00915267
121	0xbb3c25fc	-0.0028709164
122	0xbbd31f0a	-0.006442909
123	0x3a9f0ebb	0.0012135127
124	0xbccf1722	-0.025279585
125	0xbcc127a7	-0.023578478
126	0xbbf787cf	-0.0075540314
127	0x3cb00802	0.021488193
128	0xbb816bed	-0.0039496333
129	0x3c26bba6	0.010176575
130	0x3ae0c30a	0.001714797
131	0xbc7ec555	-0.015549977
132	0xba73da50	-0.00093022455
133	0xbc1f3b8f	-0.00971879
134	0x3beada97	0.007167171
135	0xbcb881d9	-0.022522854
136	0x3c04d1e3	0.0081066815
137	0xbc2f2c3f	-0.010691701
138	0x3bba7a0a	0.0056908177
139	0xbb937fab	-0.004501303
140	0xbca438da	-0.02004664
141	0xbb714786	-0.0036816313
142	0x3caa64a9	0.020799952
143	0x3c191f1d	0.009345797
144	0x3b3ae9a0	0.00285206
145	0x3d076104	0.033051506
146	0xbad70cbb	-0.0016406992
147	0xbabcbd96	-0.0014399763
148	0x3c79917c	0.01523244
149	0x3cbc483e	0.022983667
150	0x3b79e2f6	0.0038129664
151	0xbbfa434b	-0.0076374165
152	0x3b976c97	0.004621099
153	0xbb5e324d	-0.0033904493
154	0xbc880566	-0.016604137
155	0x3bf6259f	0.007511809
156	0x3b1426db	0.0022606167
157	0x39e65221	0.0004393021
158	0x3afe3cfb	0.0019396836
159	0x3c708879	0.014680975
160	0x3d0d41b6	0.034486495
161	0xbc530a24	-0.012880836
162	0x3c3c2fb3	0.011485982
163	0x3c2b758c	0.010465037
164	0xbc01af50	-0.007915333
165	0xbb19230d	-0.002336684
166	0xbc2cb689	-0.010541567
167	0xbccca5c5	-0.024981389
168	0x3c67c148	0.014145203
169	0x3c61adaa	0.013774315
170	0xbc7d49bc	-0.015459474
171	0xbc287570	-0.0102819055
172	0xbb93af96	-0.0045070155
173	0x3b0dca31	0.0021635408
174	0xbc00d14b	-0.007862399
175	0xbabe52f9	-0.0014520577
176	0x3c14afd8	0.009075128
177	0x3b725707	0.0036978142
178	0xbc199466	-0.00937376
179	0x3d083526	0.03325381
180	0xbbb1a9fb	-0.0054218746
181	0xbbc01299	-0.005861592
182	0x33b679cc	8.49719e-08
183	0x38affe1e	8.391983e-05
184	0x3c051993	0.008123773
185	0x3bc16f3b	0.0059031523
186	0x3c22d5f0	0.009938702
187	0x3c5d3fff	0.013504027
188	0xb9144e52	-0.00014143556
189	0xbbfc8d3e	-0.007707267
190	0x3c60dea2	0.013724955
191	0x3a64919f	0.0008719209
192	0xbc94cf40	-0.01816523
193	0xba91e7fa	-0.0011131756
194	0xbcb0d726	-0.021586966
195	0x3caa12db	0.020760944
196	0x3ca91b6d	0.02064296
197	0x3c7a3610	0.015271679
198	0x3c58d1d9	0.013233625
199	0x3b6809c1	0.0035406204
200	0x3bd77dfe	0.0065762987
201	0xbbd8f1c4	-0.0066206176
202	0x3c1a7f6a	0.009429792
203	0xbc921e0c	-0.017836593
204	0xbd240c8a	-0.04005102
205	0xbc0e3040	-0.008678496
206	0x3b3daf9a	0.0028943778
207	0xbbdb94c4	-0.006701084
208	0xbc76b26e	-0.015057189
209	0x3c9382a1	0.018006625
210	0x3c4f5a9e	0.012655882
211	0xbbc949ec	-0.0061428454
212	0xbb4bd445	-0.0031101864
213	0xbbfe4da6	-0.0077607213
214	0x3cb41d4c	0.021986626
215	0xbbeb5fec	-0.0071830656
216	0x3c61e29b	0.013786937
217	0xbb7647bc	-0.0037579378
218	0xb92c1aac	-0.00016413134
219	0xbbd6a7fa	-0.006550786
220	0xbcb208ce	-0.021732714
221	0x3bf3418c	0.0074235853
222	0x3b497d07	0.0030744688
223	0xbcbaf063	-0.022819703
224	0xbb1d2895	-0.0023980488
225	0x3cc7edeb	0.02440544
226	0xbcae1dd3	-0.021254456
227	0x3b7d80e5	0.0038681563
228	0xbbfe7e6f	-0.007766537
229	0xbbae6b71	-0.0053228666
230	0x3cb3c104	0.021942623
231	0xbd0c3e5e	-0.034239165
232	0xbbfa6e47	-0.0076425406
233	0xbc656e38	-0.014003329
234	0xbca55841	-0.020183684
235	0xbd08773f	-0.033316847
236	0x3cc6e9ce	0.024281409
237	0x3b160b65	0.0022894975
238	0xbc2e7047	-0.010646886
239	0x3b4cea3d	0.0031267547
240	0x3d063d4c	0.0327733
241	0x3c53fcd7	0.0129387
242	0x3c83e921	0.016102375
243	0x3ce99997	0.02851562
244	0x3b81afb6	0.003957714
245	0x39ca0d84	0.00038538512
246	0x3bad3887	0.0052862796
247	0x3ab275ba	0.0013615408
248	0x3b84651c	0.0040403735
249	0x3d6cbeea	0.057799257
250	0x3b8c1190	0.0042745546
251	0x3ad10d44	0.0015949388
252	0x3b5ffe88	0.0034178812
253	0xba218682	-0.0006161706
254	0x3ba49948	0.0050231554
255	0x3c1664b5	0.009179284
