models/sqa/xls-r-2b/model_2b_lay41_full.pt (torch, 528269 bytes, 67 tensors)

norm_input.weight f4 [1920]
0	0x3f222bc4	0.6334803
1	0x3e249177	0.16071115
2	0x3f31934c	0.6936538
3	0x3ebb90b5	0.3663384
4	0x3ec8fda8	0.39256024
5	0x3ef95517	0.4869773
6	0x3eff8933	0.49909362
7	0x3eb41658	0.35173297
8	0x3ec88c85	0.39169708
9	0x3ecde75f	0.40215585
10	0xbde2be21	-0.110714205
11	0x3eb9ea14	0.363114
12	0xbeee6e57	-0.46568558
13	0x3f4ff076	0.8122629
14	0x3f0bd71b	0.546251
15	0x3df7c216	0.12097566
16	0x3efc26db	0.49248394
17	0x3ece086c	0.402408
18	0x3eca00fd	0.3945388
19	0x3f0d1845	0.5511516
20	0x3eff405b	0.49853787
21	0x3e8515b0	0.2599311
22	0x3f1a0c97	0.6017546
23	0x3ef82263	0.48463735
24	0x3f120476	0.57038057
25	0xbd9933ba	-0.07480569
26	0x3ebe64cd	0.3718628
27	0x3dbceceb	0.09224876
28	0x3f12d620	0.5735798
29	0x3f17d420	0.5930805
30	0x3f44fab8	0.76945066
31	0xbe99f567	-0.3007004
32	0x3df0dc09	0.117607184
33	0x3ee04fa9	0.43810776
34	0x3f260a8f	0.6485986
35	0x3e497584	0.19673735
36	0xbdc6dafd	-0.097097374
37	0x3ed31d43	0.41233262
38	0x3ec13a5c	0.37739837
39	0x3ef19d2d	0.47190228
40	0x3e85de35	0.26146093
41	0x3ec51ba5	0.38497654
42	0x3ee68401	0.45022586
43	0x3e57bd7d	0.21068378
44	0x3eb8c986	0.3609125
45	0x3f38b58c	0.7215202
46	0x3ed70f4d	0.4200386
47	0x3e9a7cc3	0.3017331
48	0x3f0d3ecd	0.5517395
49	0x3f14780d	0.5799568
50	0x3f357245	0.70877486
51	0x3ee3de56	0.44505566
52	0x3f590495	0.84772617
53	0x3f34caa6	0.70621717
54	0x3f0d95f5	0.5530694
55	0x3f196b88	0.59929705
56	0x3e56f355	0.20991261
57	0x3f11c22e	0.5693692
58	0x3f0f3ffb	0.55957
59	0x3e97167b	0.2950934
60	0x3f0c23a7	0.547419
61	0x3ea90da0	0.33018208
62	0x3e88d411	0.26724294
63	0x3ea3dec7	0.32005903
64	0x3e482a5c	0.19547409
65	0x3f017cbe	0.50580966
66	0x3e300eca	0.17193142
67	0xbdf784e4	-0.12085894
68	0x3eb457ed	0.35223332
69	0x3ecce939	0.40021685
70	0x3e4e1b08	0.20127499
71	0x3f215285	0.6301654
72	0x3f0ea0a1	0.5571385
73	0x3ef74042	0.48291212
74	0x3f81db8a	1.0145123
75	0x3f19a0d5	0.60011035
76	0x3eff80c5	0.4990293
77	0x3e5082cb	0.20362394
78	0x3f0cee5f	0.55051225
79	0x3e8f8661	0.2803221
80	0x3f33f8ce	0.7030152
81	0x3e814eba	0.25255376
82	0x3f2080da	0.6269661
83	0x3e4fabbd	0.20280357
84	0x3da129cf	0.078693025
85	0x3e862240	0.26198006
86	0x3e47a833	0.19497757
87	0x3f089144	0.5334666
88	0x3ea743e3	0.3266898
89	0x3dad1bbc	0.084525555
90	0x3ee83a4c	0.45356977
91	0x3edd7199	0.4325073
92	0x3ed55472	0.4166599
93	0x3f154b51	0.5831805
94	0x3ec0a3b1	0.37624887
95	0x3e9f4928	0.311105
96	0x3e847754	0.2587229
97	0x3ed068a0	0.40704823
98	0x3dc8bac9	0.098012514
99	0x3f0f0a42	0.5587503
100	0x3eab5a1a	0.3346718
101	0x3f044da3	0.51680964
102	0x3eb1b3b7	0.34707424
103	0x3f365da5	0.7123664
104	0x3ed8487d	0.42242804
105	0x3ea91f6f	0.33031794
106	0x3f2c5696	0.6731962
107	0x3efabf22	0.48973948
108	0x3eff36ba	0.4984644
109	0x3dc26ad4	0.09493032
110	0x3f12c85d	0.5733698
111	0x3f13327e	0.5749892
112	0xbef5f3e9	-0.4803765
113	0x3eaebdbf	0.3412914
114	0x3eb2e14a	0.34937507
115	0x3eb94e37	0.36192486
116	0x3f120fed	0.5705555
117	0x3f4114b8	0.7542224
118	0x3e97f3f3	0.29678306
119	0x3e90d62d	0.28288403
120	0x3dabdcef	0.08391749
121	0x3f17520d	0.59109575
122	0x3ee3a007	0.4445803
123	0x3ed4e789	0.41582897
124	0x3efe4497	0.49661705
125	0x3ee58031	0.44824365
126	0x3edf350f	0.43595168
127	0x3f041400	0.5159302
128	0x3ed8ce5c	0.4234494
129	0x3d89a5a9	0.0672105
130	0x3ec995c9	0.3937209
131	0x3f0d887a	0.5528637
132	0x3ea9a729	0.33135346
133	0x3f2abb67	0.66692203
134	0x3e929974	0.286327
135	0x3f32cc9c	0.6984346
136	0x3f0fc0c9	0.5615354
137	0x3eed1d00	0.46311188
138	0x3f325c92	0.696725
139	0x3f29b0d9	0.66285473
140	0xbed082a8	-0.40724683
141	0x3f15d282	0.58524334
142	0xbe303764	-0.1720863
143	0x3f2890a3	0.658457
144	0x3f1a80b6	0.6035265
145	0x3eb3298d	0.34992638
146	0x3e991ae9	0.29903343
147	0x3ef69585	0.4816095
148	0x3ea24f20	0.31700993
149	0x3ec12ab0	0.3772788
150	0x3f12ffde	0.5742167
151	0x3f10c30c	0.5654762
152	0xbe0281c7	-0.12744819
153	0x3f13f6cc	0.5779846
154	0x3e2a364a	0.16622272
155	0xbe6fb0d2	-0.23407295
156	0x3e968957	0.29401657
157	0x3f2972ad	0.66190606
158	0x3ea475cb	0.3212112
159	0x3f08301b	0.53198403
160	0x3e3c8751	0.18410994
161	0x3db09c37	0.086235456
162	0x3f132b1f	0.5748767
163	0x3f1d4538	0.61433744
164	0x3ecf5041	0.40490916
165	0x3ec2fc75	0.38083234
166	0x3eda4189	0.42628124
167	0x3edfddd0	0.43723917
168	0x3ea89fe3	0.32934484
169	0x3efc4f36	0.49279183
170	0x3ec9701d	0.39343348
171	0x3eee3dd0	0.46531534
172	0x3f17dd1c	0.5932176
173	0x3d843290	0.064549565
174	0x3e9bb11d	0.30408564
175	0x3eadca24	0.33943284
176	0x3efdb9f2	0.49555928
177	0x3f3a7ac4	0.72843575
178	0x3eaa05b1	0.33207467
179	0x3eca552a	0.395181
180	0x3ec6e566	0.38846892
181	0x3e5346de	0.20632502
182	0x3efca503	0.49344644
183	0xbd224d9a	-0.039624788
184	0x3ec7a19c	0.38990486
185	0x3f4ddb41	0.8041268
186	0x3ee49298	0.44643092
187	0x3f106700	0.56407166
188	0xbdd832cf	-0.10556566
189	0x3e79654e	0.24355051
190	0x3f0823f2	0.5317985
191	0x3ebc620f	0.36793563
192	0x3eb204dd	0.34769335
193	0x3ebd048b	0.3691753
194	0x3e765526	0.24055919
195	0x3d85dc02	0.06536104
196	0xbe4aadff	-0.19792937
197	0xbed1d394	-0.40981734
198	0x3f331d7a	0.6996685
199	0x3ee27e2c	0.44236887
200	0x3f1383e7	0.5762314
201	0xbd4debf0	-0.050273836
202	0x3ee613b2	0.449369
203	0x3ebdee9f	0.37096116
204	0x3ee5f75d	0.44915286
205	0x3f6117a4	0.879267
206	0x3e938f79	0.28820398
207	0x3eba9d74	0.36448252
208	0x3f19589a	0.5990082
209	0x3f09e98b	0.53871983
210	0x3f09cdfb	0.53829926
211	0x3dd81200	0.10550308
212	0xbd2f7773	-0.042838525
213	0x3e3b5142	0.18292716
214	0x3f6863f5	0.9077752
215	0x3e98a33c	0.29812038
216	0x3e3b0b63	0.18266062
217	0x3ecffa52	0.40620667
218	0x3dcf94df	0.10135817
219	0x3e6d7104	0.23187643
220	0x3f3b19f0	0.7308645
221	0xbdaaee4f	-0.08346235
222	0x3ec4b637	0.3842027
223	0x3ede28ae	0.4339041
224	0x3f075845	0.52869064
225	0x3ee3bebb	0.44481453
226	0x3ecfe797	0.40606377
227	0x3e7b09cb	0.24515454
228	0x3f211e18	0.62936544
229	0xbdd9f5b3	-0.106425665
230	0x3ee7f3d7	0.45303223
231	0x3d51c0dd	0.05120932
232	0x3ecf9766	0.40545195
233	0x3f0ffc2e	0.5624417
234	0x3f0398f5	0.5140527
235	0x3ee0cd0d	0.4390644
236	0x3eef2811	0.46710256
237	0x3e381740	0.17977619
238	0x3f06aece	0.5261048
239	0x3f250d61	0.6447354
240	0xbdb6760a	-0.08909233
241	0x3e18beb3	0.14916496
242	0x3ed1621a	0.40895158
243	0xbe64a22a	-0.22327486
244	0x3eb62951	0.35578397
245	0x3f90d9ba	1.1316445
246	0x3f06d954	0.52675366
247	0x3f1a653c	0.6031072
248	0x3ef2e463	0.4743987
249	0xbe87fa26	-0.26558036
250	0x3efecf8b	0.49767718
251	0x3f072b36	0.5280031
252	0x3f51e451	0.8198901
253	0x3eec7e0f	0.46189925
254	0x3ed04c9c	0.40683448
255	0x3f050b1c	0.51970077

norm_input.bias f4 [1920]
0	0x3bbbcbb6	0.0057310713
1	0xbb58ae83	-0.0033063001
2	0x3cdafc8e	0.026731756
3	0x3c855bc5	0.01627911
4	0x3bc92e50	0.006139554
5	0x3cd9e88b	0.026600143
6	0x3d052ed1	0.03251535
7	0x3b94e150	0.004543461
8	0x3baca158	0.005268257
9	0x391e541d	0.00015099389
10	0xbbb87b4d	-0.005629933
11	0x3b26dd8c	0.0025461642
12	0xbd92ac4d	-0.0716177
13	0xbc0f3a46	-0.008741921
14	0xbb8f9e89	-0.0043829125
15	0x3c2dc024	0.010604892
16	0xbc80c262	-0.015717689
17	0x3bfff812	0.0078115547
18	0x39aeffeb	0.0003337854
19	0x3caa265c	0.020770244
20	0x3b45bae1	0.0030171203
21	0x3cbcc954	0.02304522
22	0x3bb040ff	0.005378842
23	0x3ccac3b3	0.02475152
24	0x3bee1c9b	0.0072665936
25	0xbbddf822	-0.0067739645
26	0xbb396a13	-0.0028291985
27	0x3b0d063d	0.002151861
28	0xbbb646bb	-0.005562631
29	0xbc7b6241	-0.01534325
30	0xbd54fe48	-0.052000314
31	0x3bbbe4a7	0.0057340446
32	0xbb21b836	-0.0024676449
33	0xbd07c303	-0.033144962
34	0x3c36f180	0.0111659765
35	0xbc3b1b10	-0.011420026
36	0xbb713671	-0.0036806131
37	0xbbd743c8	-0.0065693595
38	0xbd00c681	-0.031439308
39	0x3b8703eb	0.00412034
40	0xbc733239	-0.014843517
41	0x3be554ed	0.0069986493
42	0x3a68c264	0.0008879064
43	0xbc16b3c3	-0.009198132
44	0x3c16fba5	0.00921527
45	0x3cba733a	0.022760022
46	0x3ccc5d12	0.024946723
47	0x3b1cd21f	0.0023928953
48	0xbc39e1c6	-0.0113453325
49	0xbb8de9b4	-0.004330838
50	0x3c1ed373	0.009693968
51	0x3b960538	0.004578259
52	0xbc3b3b91	-0.011427776
53	0x3a89bdc0	0.001050882
54	0x3c9b4836	0.018955331
55	0x3ce0f311	0.027459653
56	0xbd01a96c	-0.031655714
57	0xbc54d288	-0.012989648
58	0xbb90d3f8	-0.0044198
59	0x3d5c81c6	0.0538347
60	0xba5dd299	-0.00084618625
61	0x3a5b03ac	0.0008354734
62	0xbb243445	-0.002505557
63	0x3c412c6e	0.011790378
64	0xbc3a682c	-0.011377376
65	0x3b15b8bc	0.0022845706
66	0xbbc69d97	-0.0060612666
67	0x3ba1c966	0.0049373386
68	0xbb9a70ba	-0.004713145
69	0xbbf8bf50	-0.0075911656
70	0xbb623029	-0.003451357
71	0x3c44b94b	0.012007068
72	0x3bbcbee7	0.005760062
73	0x3c285057	0.010273061
74	0x3cdb3172	0.026756976
75	0x3c8fe00f	0.017562894
76	0xbb11d9f3	-0.0022255152
77	0xbc693a32	-0.014235066
78	0x3c3b437d	0.011429665
79	0xba489c79	-0.0007652711
80	0x3c9d0f2b	0.019172272
81	0xbc49953d	-0.012303648
82	0x3ca4e176	0.02012704
83	0x3b1b5a81	0.0023705068
84	0x3c01dfd9	0.007926905
85	0x3a3b8831	0.0007153778
86	0x3bbb64c0	0.0057187974
87	0x3b2fb2b5	0.0026809399
88	0x3a9fe48e	0.0012198852
89	0xb99689a2	-0.00028712774
90	0xbcaab433	-0.020837879
91	0x3b90b953	0.0044166236
92	0xbbee6669	-0.007275392
93	0xbbbbfd6e	-0.0057369983
94	0x3b500025	0.0031738367
95	0xbbbb9667	-0.0057247165
96	0xbd26b03c	-0.040695414
97	0x3ad2ef95	0.001609313
98	0xbb025b9b	-0.0019891027
99	0x3c8bca51	0.017064245
100	0x3b792911	0.0038018862
101	0xbbd66cf0	-0.006543748
102	0xbc1d53f7	-0.009602538
103	0xba01cf1a	-0.000495182
104	0x3cace6ca	0.021106143
105	0xbc79fa19	-0.015257382
106	0x3cb7eec2	0.022452716
107	0xb9ed184b	-0.00045222262
108	0x3c1bcbcd	0.009509039
109	0xbb8aa2fa	-0.004230854
110	0xbc83bbdb	-0.016080787
111	0xbbdbd8a6	-0.006709176
112	0x3d078e3c	0.03309463
113	0x3c073bac	0.008253973
114	0x3b3c0ed6	0.0028695366
115	0xbb67dfd3	-0.0035381212
116	0xbbad87fe	-0.0052957525
117	0xbc10453b	-0.008805568
118	0xbb6f5a9a	-0.0036522509
119	0xba988727	-0.0011636958
120	0xbc156429	-0.009118118
121	0xbc282963	-0.010263774
122	0x3b103c18	0.0022008475
123	0x3a84534d	0.0010095626
124	0xbba8d029	-0.0051517677
125	0xbc14f490	-0.009091511
126	0xb9a7ce3c	-0.0003200638
127	0xbbf010b3	-0.0073262095
128	0x39a920a5	0.00032258514
129	0xbb07237f	-0.0020620523
130	0x3c8a712e	0.016899671
131	0x3bbca00a	0.005756383
132	0xbbca87f2	-0.0061807567
133	0x3c766695	0.015039106
134	0xbabd249d	-0.0014430467
135	0xbbadde8d	-0.005306071
136	0xbb837bb5	-0.0040125498
137	0xbc03d2c6	-0.008045858
138	0xbcc20e14	-0.023688354
139	0x3b6893fa	0.0035488592
140	0x3c1ec2c6	0.009689992
141	0xbbd73bb3	-0.006568396
142	0xbc14fafd	-0.009093043
143	0x3c91ca51	0.017796667
144	0x3b87b5ed	0.0041415603
145	0x3aae945f	0.0013319365
146	0x3c01016e	0.007873876
147	0xbcbf42d5	-0.023347298
148	0xba9173d3	-0.001109714
149	0x3b360a34	0.0027777078
150	0xbc6cd29d	-0.014454511
151	0x3bcc0d4f	0.0062271724
152	0xbc573a35	-0.013136436
153	0xbb6439c7	-0.0034824477
154	0x3cb8e212	0.022568736
155	0xbb879d42	-0.0041386196
156	0xbc57857b	-0.013154383
157	0x3ce1b060	0.027549922
158	0x3b824d74	0.0039765183
159	0xbc26d695	-0.010182996
160	0x3c09f904	0.008421186
161	0xbba72403	-0.0051007285
162	0xbb636ada	-0.003470114
163	0x3b3e319f	0.0029021276
164	0xbc0f25ec	-0.008737069
165	0x3c2edf4d	0.010673356
166	0x3bbb32eb	0.005712857
167	0xbc9d558c	-0.019205831
168	0xbb2e68a9	-0.0026612675
169	0x39d04343	0.00039722965
170	0x3a7a2283	0.0009541886
171	0x3b21f9fd	0.0024715655
172	0x3b54b5e1	0.003245704
173	0xb9c5ce7c	-0.0003772861
174	0xbbbb3765	-0.0057133907
175	0xbbacfb7d	-0.005279003
176	0x3b4b14b6	0.0030987686
177	0xba24d2f6	-0.0006287539
178	0xba1f426f	-0.0006075268
179	0x3c44334e	0.011975123
180	0xbc083628	-0.008313693
181	0xbb2d78c8	-0.0026469696
182	0x3cbe31c3	0.023217088
183	0xbbd057ea	-0.0063581364
184	0x3bda6995	0.0066654184
185	0xbce6b143	-0.028160697
186	0xbb9f5773	-0.0048627197
187	0xbb602917	-0.003420418
188	0x3b9144d7	0.004433255
189	0xba89c546	-0.0010511063
190	0x3bc0b36c	0.0058807638
191	0x3b0a7eaf	0.0021132638
192	0x3b3a298c	0.0028406112
193	0x3c28847f	0.010285496
194	0xbb2abafc	-0.0026051393
195	0x3aaa3f0c	0.001298876
196	0xbb9b4cae	-0.0047393655
197	0xbc3f4f71	-0.011676655
198	0x3b8df8fe	0.0043326607
199	0x3b23c415	0.00249887
200	0x3c5ac9e5	0.0133537995
201	0xbb9778d5	-0.0046225586
202	0xbc028b23	-0.007967743
203	0x3c92cc61	0.017919721
204	0x39c64094	0.00037813617
205	0xbd9835c9	-0.07432134
206	0x3c47e4cf	0.012200548
207	0x3c7b6838	0.015344672
208	0x3c051ceb	0.00812457
209	0xbc936cea	-0.01799627
210	0x3b8306e8	0.003998626
211	0xba89b5a3	-0.0010506402
212	0x3c09568e	0.008382453
213	0xbb534b11	-0.0032240788
214	0x3cfd88b7	0.03094898
215	0x3b8a86f0	0.0042275116
216	0x3b190a3d	0.002335205
217	0x3ac5d29d	0.0015092675
218	0xb9a10310	-0.00030710595
219	0xbb962988	-0.0045825876
220	0x3bb0f512	0.0054003084
221	0xbb62d5d5	-0.0034612317
222	0xbc7075db	-0.014676536
223	0x3a9bc0fa	0.0011883073
224	0xbc4aaa51	-0.012369708
225	0xbbac87e6	-0.005265224
226	0x3c384cc2	0.011248769
227	0xbb24cbf2	-0.0025145975
228	0x3c3333b0	0.010937616
229	0xbb9052f4	-0.00440442
230	0x3c91e345	0.017808566
231	0x3ada2674	0.001664354
232	0xbb6786c4	-0.003532813
233	0x3c4d043e	0.012513218
234	0xbcbae923	-0.022816246
235	0x3bfb1797	0.0076627242
236	0xbc40b4ae	-0.011761827
237	0xbc078e67	-0.008273697
238	0xbc025921	-0.00795582
239	0xbc6a57f4	-0.014303196
240	0xbbe426f4	-0.0069626514
241	0xbc28a7f6	-0.010293951
242	0x3be5cc9d	0.007012917
243	0xbc474724	-0.012162957
244	0x3c31d694	0.010854382
245	0x3c531069	0.01288233
246	0x3a7dfc75	0.0009688803
247	0x3bb229e7	0.005437124
248	0xbca6e91a	-0.020374823
249	0x3d4246d3	0.047430824
250	0xbb1743d7	-0.0023081207
251	0x3c65023e	0.013977585
252	0x3d67090e	0.05640512
253	0x3b91fe7a	0.004455385
254	0xbbd1a68c	-0.0063980278
255	0x3ae83174	0.0017714933

norm_input.running_mean f4 [1920]
0	0xc000334c	-2.003131
1	0xbf933fc4	-1.1503835
2	0x3f744c55	0.95428973
3	0xbd9a629d	-0.0753834
4	0x3f5b9723	0.8577749
5	0x3cadba17	0.021206899
6	0x3e42308b	0.1896383
7	0xbea20b75	-0.31649366
8	0x3f95f48e	1.1715257
9	0x3f99a254	1.2002664
10	0x3fba1167	1.4536561
11	0xbf623817	-0.88366836
12	0x3f18d281	0.59696203
13	0xc00042cf	-2.0040777
14	0x3e86abad	0.26302853
15	0x3edbb349	0.4291022
16	0x3e3b1d45	0.18272884
17	0xbf89951f	-1.0748633
18	0x38813904	6.161819e-05
19	0x3fe652f1	1.7994062
20	0xbedbb437	-0.4291093
21	0x3e796095	0.2435325
22	0x3eb5176e	0.35369438
23	0x3fef4a23	1.86945
24	0xbdfd9185	-0.12381271
25	0xbf85b642	-1.0446246
26	0xbea1db6e	-0.31612724
27	0xbe7604d6	-0.24025282
28	0x3c7083fa	0.014679903
29	0xbfec062d	-1.8439385
30	0x3eac04e9	0.33597496
31	0x400562f7	2.0841653
32	0x3ff01b6b	1.8758367
33	0xbfbcfd12	-1.4764731
34	0xbff68a03	-1.9260868
35	0xbf85fb63	-1.0467342
36	0xc04403fc	-3.0627432
37	0xbd639808	-0.05556491
38	0xbf81cebc	-1.0141215
39	0xbfe6d657	-1.8034161
40	0x3d81ae54	0.063320786
41	0xbfbdd6f0	-1.4831219
42	0xc014978b	-2.3217494
43	0x42524d0c	52.57524
44	0xbfbb3d3e	-1.4628065
45	0x4029e1da	2.65441
46	0xbf162b4a	-0.58659804
47	0x3f881314	1.0630822
48	0x3f4015ef	0.7503347
49	0xbfcd4dae	-1.6039331
50	0xbe5f6eb6	-0.21819577
51	0x3d324de5	0.043531317
52	0x3df1b76c	0.11802563
53	0xbef70e79	-0.4825323
54	0xbfc28555	-1.519694
55	0xbf2ba988	-0.6705556
56	0xbf327a63	-0.69718
57	0x3f9cc028	1.2246141
58	0x3d42d556	0.047566734
59	0xbfda681b	-1.706302
60	0xbe1e1645	-0.15438183
61	0x3fa12e3f	1.2592238
62	0xbd5b0980	-0.053475857
63	0x3f8ff190	1.1245594
64	0xbf1ab2ef	-0.6042928
65	0xbfa003f7	-1.250121
66	0xbfa2892b	-1.269811
67	0x3fa7f3ca	1.3121274
68	0x3f1a18bb	0.60193986
69	0xbe0c42c4	-0.13697344
70	0xbdca6999	-0.098834224
71	0x3fa713e6	1.3052948
72	0xc02ad92c	-2.6695051
73	0xbff1ae7c	-1.8881373
74	0xbf36761e	-0.7127398
75	0x4011195f	2.2671735
76	0xbd01970d	-0.031638194
77	0xbec4b54d	-0.38419572
78	0xbf5f5350	-0.872365
79	0xbda17f45	-0.07885603
80	0xbfe55b11	-1.7918416
81	0xc05002b9	-3.2501662
82	0x3f2e3ad5	0.6805852
83	0x3f810d44	1.0082173
84	0x3f73a1bb	0.95168656
85	0xbfdc16d3	-1.7194465
86	0x3ff45ab0	1.9090176
87	0xbddaea95	-0.10689274
88	0xbeb21e85	-0.3478891
89	0xbfbf273b	-1.4933847
90	0x3fce597a	1.6121056
91	0xbf6bdd02	-0.92134106
92	0x3e6a7b38	0.22898567
93	0x3ed00da9	0.40635422
94	0x3fe155c1	1.7604295
95	0x3f2aadea	0.6667162
96	0xbec4791e	-0.38373655
97	0xbf558ca2	-0.83417714
98	0x3ee8b468	0.4545014
99	0xbfa0af15	-1.2553431
100	0x3f29af57	0.6628317
101	0xc06406d4	-3.5629168
102	0x3d84ff94	0.0649406
103	0xc017e6a2	-2.3734517
104	0x3f995fdc	1.1982379
105	0xbf94a8eb	-1.161405
106	0x3fd12799	1.6340209
107	0xbf903141	-1.1265031
108	0xbe5f17fc	-0.21786493
109	0xbf95b7d0	-1.169672
110	0xbfb60beb	-1.4222387
111	0x3e9c211c	0.3049401
112	0x3f4e8654	0.8067372
113	0x3f6cf203	0.9255678
114	0xbf09601c	-0.53662276
115	0x3f52a135	0.8227723
116	0xbd0aa74e	-0.03385096
117	0x3f8ba27a	1.0908959
118	0xbe906651	-0.2820306
119	0xbf8517dc	-1.0397906
120	0x3f8c1c88	1.0946207
121	0xbe810d83	-0.2520562
122	0xbff74304	-1.9317327
123	0xbffb4f4d	-1.9633576
124	0x3f9bde9c	1.217731
125	0xbfc0bd62	-1.5057795
126	0x3d317655	0.04332574
127	0x3f3f2d00	0.7467804
128	0x3f36190a	0.71131957
129	0x3fa866f1	1.3156415
130	0xbee80aa5	-0.4532062
131	0xbebd865e	-0.37016577
132	0x3fb12462	1.3839228
133	0xbe4f65d8	-0.20253694
134	0xc00b765c	-2.179099
135	0xbf109cbd	-0.56489164
136	0x3f67a107	0.90480083
137	0x3e330167	0.17481004
138	0x3f8f89da	1.1213944
139	0xbf2bd59b	-0.6712281
140	0x3ed8e3bd	0.4236125
141	0xbf7fc24b	-0.9990584
142	0x41c9d37b	25.228262
143	0xbe702853	-0.23452882
144	0xbf912766	-1.1340148
145	0xc016b853	-2.3550003
146	0x3fe46da0	1.7845955
147	0x3e2c2c5e	0.168138
148	0xbeac33ce	-0.33633274
149	0xc0151623	-2.329476
150	0xbfb75bc3	-1.4324878
151	0xc003abf0	-2.0573692
152	0x3fb25da5	1.3934828
153	0x3d9b7a00	0.07591629
154	0xbfd49cd4	-1.661036
155	0x3fdb0559	1.7111007
156	0x40293854	2.644063
157	0xbf623be7	-0.88372654
158	0xbec1c61c	-0.37846458
159	0x4032b5a8	2.7923374
160	0xbf3dfa41	-0.7420998
161	0x3e5415d7	0.20711456
162	0xbfb02268	-1.37605
163	0xbd8059dc	-0.06267139
164	0xbf08d74a	-0.53453505
165	0xbf588cab	-0.8458964
166	0x3fc1c963	1.5139583
167	0x3f8f7511	1.1207601
168	0x3e893af1	0.2680278
169	0xbeb0d72c	-0.34539163
170	0xbe7b483b	-0.24539272
171	0x3e34f477	0.17671381
172	0xbf0d3ea1	-0.5517369
173	0x40c3caed	6.118521
174	0xbea1d10c	-0.31604803
175	0x3e920b2f	0.28524157
176	0xbf3a8510	-0.7285929
177	0xbe4b53c7	-0.19856177
178	0x40208190	2.5079079
179	0xbef25d55	-0.47336832
180	0xc04ad9de	-3.1695476
181	0xbf550472	-0.8320991
182	0xbfd08e16	-1.6293361
183	0x3f39b221	0.7253743
184	0x3f89debd	1.0771099
185	0x3e3a0b05	0.18168266
186	0x3e863181	0.26209643
187	0xbc89f15b	-0.01683872
188	0xbd93f3a3	-0.072242044
189	0x3f0869e5	0.5328658
190	0x3fa80346	1.3125999
191	0xbfa871c0	-1.3159714
192	0x401c385b	2.4409397
193	0xbf8192fe	-1.0122983
194	0x3f8078ce	1.0036867
195	0x3f7ded0e	0.9918984
196	0xc021ddc1	-2.5291598
197	0x3f92ba8c	1.146318
198	0x3fc0b378	1.505477
199	0xbf4ea8fa	-0.8072659
200	0x3fcbcc5f	1.5921744
201	0x3d514a1d	0.05109607
202	0x3fb3b5c7	1.4039849
203	0x40279c11	2.6189005
204	0x3f3eda0a	0.7455145
205	0x3ef3dde7	0.47630236
206	0xbf005939	-0.5013614
207	0x3f8c0a21	1.0940591
208	0x3fe072f0	1.7535076
209	0x3eba62ca	0.36403495
210	0xbdd527e3	-0.104079984
211	0x400b3ca1	2.1755755
212	0xc01df5bf	-2.4681242
213	0x3eb34e26	0.3502056
214	0xbeffce2c	-0.49961984
215	0x3f09c0df	0.5380992
216	0x3e192279	0.14954557
217	0xbf8890d4	-1.0669198
218	0xbe91c241	-0.28468516
219	0x3e9a7480	0.30167007
220	0xbf0205dc	-0.5079019
221	0x3edd6fee	0.43249458
222	0xbdbcaa82	-0.09212209
223	0xbe8704c9	-0.26370838
224	0xbea75a71	-0.3268619
225	0x3f30406d	0.68848306
226	0x3e356719	0.1771511
227	0x3fa35947	1.276162
228	0xbfcb9874	-1.59059
229	0x3cea604f	0.028610377
230	0xbe97292d	-0.29523602
231	0xbe7e5430	-0.24836802
232	0xbfdeb882	-1.7400057
233	0xc03c3e30	-2.9412956
234	0x3e9c7836	0.30560464
235	0xc02f6c57	-2.7409875
236	0x3efa6d68	0.48911595
237	0x3d4a8540	0.049443483
238	0x3faf10c6	1.3676994
239	0x3ee35fdc	0.44409072
240	0x3f1dc60c	0.6163032
241	0x3f0c111d	0.5471361
242	0x3f405259	0.7512565
243	0x3f8b63c3	1.088982
244	0x3f084108	0.5322423
245	0x3f172c5f	0.5905208
246	0xbe064d85	-0.13115509
247	0x3fefae8a	1.872514
248	0x3f4af22d	0.7927578
249	0xc02620c3	-2.5957496
250	0xbf14f99c	-0.58193374
251	0xc07202f3	-3.78143
252	0x3f1bdf1e	0.60887325
253	0xbec4d40b	-0.38443026
254	0x3f592c5c	0.8483331
255	0xc00023ff	-2.002197

norm_input.running_var f4 [1920]
0	0x409c5675	4.885554
1	0x40bdb858	5.928753
2	0x40e4cc7e	7.1499624
3	0x407dff70	3.9687157
4	0x40b6bcf6	5.7105665
5	0x4098cf41	4.7752995
6	0x40c8095c	6.2511425
7	0x40802c06	4.005374
8	0x4071d1f3	3.7784393
9	0x408addb0	4.3395615
10	0x40ddbf27	6.929584
11	0x4081ca17	4.055919
12	0x4055e63f	3.342178
13	0x409d695f	4.9191127
14	0x408779e7	4.2336307
15	0x40a03d9a	5.0075197
16	0x40ca1a61	6.31572
17	0x40bd2a83	5.9114394
18	0x40be20f7	5.941524
19	0x40a6fecf	5.2186046
20	0x40a5e74f	5.184486
21	0x409aa283	4.832338
22	0x40df9d4f	6.9879527
23	0x40ecf90a	7.4054003
24	0x409bc523	4.8678145
25	0x409615ab	4.690145
26	0x409d17c0	4.909149
27	0x40d1142a	6.5337114
28	0x40833cf7	4.101192
29	0x40a99607	5.299564
30	0x40a0b831	5.0224843
31	0x40a89677	5.2683673
32	0x40cccd54	6.4000645
33	0x40a85199	5.2599607
34	0x40a1ec2e	5.0600805
35	0x40a93988	5.288273
36	0x41046ead	8.27702
37	0x40a6bf58	5.2108574
38	0x40983a9c	4.7571545
39	0x40f13168	7.537281
40	0x40c94929	6.2901807
41	0x40b037ef	5.506828
42	0x40a5b3d8	5.1782036
43	0x4456dd37	859.4565
44	0x40904056	4.5078535
45	0x40d9bd80	6.8043823
46	0x40d0121f	6.502212
47	0x408e4642	4.4460764
48	0x4086ad98	4.2086906
49	0x40c239cd	6.0695558
50	0x40b13948	5.5382423
51	0x40a21cb3	5.0660033
52	0x40e7a732	7.2391596
53	0x40e1656e	7.0436316
54	0x409f34d3	4.9751983
55	0x408cbc73	4.398004
56	0x40989268	4.767872
57	0x409e766f	4.951957
58	0x40ae89eb	5.4543357
59	0x40aef51b	5.46742
60	0x40c50f17	6.158092
61	0x4097ebcf	4.747535
62	0x40c4442b	6.1333213
63	0x40cc866a	6.391408
64	0x40f287d1	7.579079
65	0x40a92f73	5.287042
66	0x40b47063	5.638719
67	0x4121b345	10.106267
68	0x40ab4b35	5.3529305
69	0x409f20c0	4.972748
70	0x4097b5d5	4.7409463
71	0x409d49ca	4.9152575
72	0x40d8d371	6.7758107
73	0x40b494b0	5.6431503
74	0x40897b66	4.2963133
75	0x40dc3211	6.8811116
76	0x40851d43	4.159822
77	0x40946a1d	4.6379533
78	0x40d7c3a3	6.7426314
79	0x40ce691a	6.45033
80	0x4093ed77	4.6227374
81	0x40d28adf	6.579452
82	0x40a45ee6	5.1365843
83	0x40a49f6f	5.144462
84	0x40cadf8b	6.339788
85	0x409c6e12	4.8884363
86	0x40947387	4.6391025
87	0x40917357	4.5453296
88	0x409cd0b5	4.900477
89	0x40a60f6b	5.189382
90	0x406aae56	3.6668906
91	0x40d09f53	6.5194488
92	0x409e22e2	4.941758
93	0x40686329	3.6310523
94	0x407f3af8	3.9879742
95	0x40a5f2ed	5.185904
96	0x40a335a3	5.1002975
97	0x411e61a3	9.898837
98	0x416afacc	14.68623
99	0x409c4437	4.883327
100	0x40f880ae	7.765708
101	0x40ea2d4d	7.31803
102	0x40ad0e74	5.4080143
103	0x40a140f7	5.0391803
104	0x40d2e08b	6.58991
105	0x40946f68	4.6385994
106	0x4084c9c9	4.149632
107	0x409d581d	4.917006
108	0x4092f239	4.592068
109	0x411a2629	9.634316
110	0x4095c2a3	4.6800094
111	0x4103391f	8.201446
112	0x40f2c96a	7.5870867
113	0x40b41676	5.627742
114	0x406e32c9	3.7218497
115	0x40ed67cc	7.4189205
116	0x40799832	3.8999143
117	0x409941ca	4.789281
118	0x4073d21c	3.809699
119	0x40a7e4d4	5.246683
120	0x4081ca8b	4.0559745
121	0x40a52f33	5.1620116
122	0x4105af42	8.355288
123	0x41000bc2	8.002871
124	0x40b01090	5.502022
125	0x40a62853	5.1924224
126	0x40daf5fd	6.842528
127	0x40b153de	5.5414877
128	0x40b3902c	5.611349
129	0x40d0940e	6.518073
130	0x40a669f3	5.2004333
131	0x40bc99fa	5.893796
132	0x40a029aa	5.005086
133	0x40c04f7b	6.009702
134	0x40a93157	5.287273
135	0x409a2e99	4.818188
136	0x40d646fa	6.696164
137	0x40a3f869	5.1240735
138	0x4101bd94	8.108784
139	0x408ea431	4.457543
140	0x40d7b522	6.740861
141	0x4087e44c	4.2466183
142	0x4339aaba	185.6669
143	0x409e050c	4.938116
144	0x40703857	3.7534387
145	0x40c0db47	6.0267673
146	0x409585ec	4.672598
147	0x40ae5c73	5.4487853
148	0x411340bb	9.203303
149	0x40fe3efc	7.9451885
150	0x4094de68	4.652149
151	0x40a39d46	5.1129484
152	0x40d4cdf2	6.65014
153	0x40d6ae22	6.7087564
154	0x40b7dd99	5.7458005
155	0x40a2a132	5.082177
156	0x40d15810	6.542
157	0x40895848	4.2920265
158	0x409baf23	4.865129
159	0x40ee6e31	7.450951
160	0x40b3e1dd	5.621321
161	0x40ae6dcf	5.4509044
162	0x40911b8b	4.534612
163	0x4087de13	4.2458587
164	0x40ae8d6d	5.454764
165	0x409588c4	4.672945
166	0x409094d7	4.518169
167	0x40a17066	5.0449705
168	0x409c8cc2	4.8921824
169	0x4091c68e	4.5554876
170	0x40bb576c	5.8544216
171	0x40a31486	5.0962553
172	0x40936d06	4.6070585
173	0x41c50555	24.627604
174	0x40802b79	4.0053067
175	0x409f3545	4.9752526
176	0x412141b5	10.078542
177	0x4081e690	4.059395
178	0x40bd8ec1	5.923676
179	0x40d9d40e	6.8071356
180	0x40d09e47	6.519321
181	0x40d61428	6.6899605
182	0x40c49d62	6.144212
183	0x409e7d92	4.9528284
184	0x4092b457	4.584514
185	0x4081d668	4.0574226
186	0x4098513c	4.7599163
187	0x40e0a560	7.0201874
188	0x409da3e2	4.926255
189	0x409c82c7	4.890964
190	0x40a1b6e0	5.0535736
191	0x409520de	4.660262
192	0x40cc60f0	6.386833
193	0x40ab5dc6	5.355197
194	0x405288b9	3.289595
195	0x40951fb6	4.660121
196	0x40b205b5	5.5631967
197	0x40ba6f6a	5.8261003
198	0x40ce3cd7	6.4449267
199	0x406573ee	3.5852008
200	0x40b6f425	5.717303
201	0x40f0143d	7.5024705
202	0x409ab4e3	4.834581
203	0x40d87f1f	6.7655177
204	0x407b8a00	3.9302979
205	0x409cb250	4.8967667
206	0x409f050b	4.9693656
207	0x40aa5b02	5.3236094
208	0x409c3ca3	4.882402
209	0x406c3c98	3.6911983
210	0x4088f6ff	4.280151
211	0x409b3688	4.8504066
212	0x40e78231	7.2346425
213	0x408b3d3c	4.351225
214	0x40b5943d	5.6743455
215	0x409c2c65	4.8804193
216	0x4074a2b9	3.8224318
217	0x4105d068	8.36338
218	0x40945b0e	4.636115
219	0x40b9ff47	5.812412
220	0x40c4c2f9	6.1488004
221	0x4150660e	13.024916
222	0x40a77044	5.2324543
223	0x4097259c	4.723341
224	0x408543a0	4.164505
225	0x40f80431	7.7505116
226	0x40b7f05f	5.748092
227	0x40e71be8	7.2221565
228	0x40a6e192	5.2150354
229	0x40b693d7	5.705547
230	0x40b58e08	5.673588
231	0x409af36b	4.842214
232	0x408b6354	4.355875
233	0x40d6064e	6.6882696
234	0x4096332c	4.6937466
235	0x40a3b3c7	5.1156955
236	0x40abbe98	5.367016
237	0x40ce2064	6.441454
238	0x409a79bd	4.8273606
239	0x40aef069	5.466847
240	0x40dae51c	6.8404675
241	0x409aa8e0	4.8331146
242	0x409f31d5	4.974833
243	0x40a8ac51	5.2710347
244	0x4098af3b	4.7713904
245	0x409ed7cd	4.963843
246	0x40bf403f	5.9765925
247	0x40a49916	5.1436872
248	0x406a2628	3.6585789
249	0x40b0e978	5.5284996
250	0x4068ed06	3.6394668
251	0x40e86e23	7.2634444
252	0x4056b45c	3.3547583
253	0x40f797d7	7.737285
254	0x40d4d818	6.6513786
255	0x40c3b2e1	6.115586

transformer.norm.weight f4 [1920]
0	0x3f1c585f	0.61072344
1	0xbddfa2b8	-0.10919708
2	0x3f2812d4	0.6565373
3	0x3e93bd7e	0.2885551
4	0x3e8d3e08	0.2758639
5	0x3eeed715	0.4664847
6	0xbf149dad	-0.58053094
7	0x3eb5eadf	0.35530755
8	0x3e987f97	0.29784843
9	0x3e9f1094	0.31067336
10	0xbbf40576	-0.00744694
11	0x3eb2274d	0.3479561
12	0xbf42cbf4	-0.7609246
13	0x3f52b5dd	0.8230875
14	0x3eeee0f1	0.46655992
15	0xbd7877ce	-0.06066113
16	0x3ede72f1	0.43447068
17	0x3ec234f9	0.3793104
18	0x3e9fa612	0.3118139
19	0x3f0cdc37	0.5502352
20	0x3ef224e2	0.47293764
21	0x3eaaf0d5	0.33386865
22	0x3f1d9def	0.6156911
23	0x3f028adc	0.5099313
24	0x3f01f03e	0.50757205
25	0x3c273f9c	0.010208037
26	0x3e850010	0.2597661
27	0xbd7b8fea	-0.061416544
28	0x3f11cc3c	0.5695226
29	0x3f22ddbc	0.6361959
30	0x3f54e92e	0.83168304
31	0x3e648241	0.22315313
32	0x3d8605e3	0.065440916
33	0x3ec9a6c0	0.39385033
34	0x3f28bc27	0.659121
35	0x3e3aec66	0.18254241
36	0x3c5833b9	0.013195925
37	0x3ee5eba2	0.44906336
38	0x3ea592d4	0.32338583
39	0x3edd6cad	0.43246976
40	0x3e845741	0.2584782
41	0x3e81d437	0.2535722
42	0x3eb998aa	0.36249286
43	0x3e5f2ac3	0.21793656
44	0x3e9b7e47	0.3036978
45	0x3f5dd9f0	0.8666067
46	0x3ea40c9a	0.32040864
47	0x3e5e46da	0.21706715
48	0x3f1a157b	0.60189027
49	0x3f140652	0.57822144
50	0x3f263e5e	0.64938915
51	0x3ee0240d	0.43777505
52	0x3f6916e3	0.9105055
53	0x3f557677	0.8338389
54	0x3f31f4d8	0.69514227
55	0x3f205c9e	0.6264132
56	0x3e279871	0.16366746
57	0x3f16627a	0.58744013
58	0x3f0b4665	0.5440429
59	0x3f27e65f	0.65585893
60	0x3f0d7f30	0.552722
61	0x3e50412c	0.20337361
62	0x3e294771	0.16531159
63	0x3e7dda50	0.24790311
64	0x3d9c95f9	0.076457925
65	0x3ee3ad84	0.4446832
66	0x3db9085a	0.09034796
67	0x3c7717d9	0.015081369
68	0x3e8f0897	0.2793624
69	0x3e8f4019	0.2797859
70	0x3df1409f	0.117799036
71	0x3f2a3c54	0.66498303
72	0x3ef1bc73	0.47214088
73	0x3f03457e	0.5127791
74	0x3f8a431e	1.0801733
75	0x3f141f68	0.5786042
76	0x3ee89d5b	0.45432553
77	0x3d990ffb	0.07473751
78	0x3f21a287	0.6313862
79	0x3e2e0b29	0.16996445
80	0x3f2c6c92	0.67353165
81	0x3e1d1658	0.15340555
82	0x3f1b3e78	0.60642195
83	0x3dd3d34f	0.10343038
84	0x3db16425	0.08661679
85	0x3e0e101c	0.13873333
86	0x3e296872	0.16543749
87	0x3eea2a80	0.4573555
88	0x3e73c7d4	0.23806697
89	0xbc6c7342	-0.0144317765
90	0x3f03be95	0.5146268
91	0x3eb08c4f	0.34482047
92	0x3ec04788	0.37554574
93	0x3f1d8b9f	0.6154117
94	0x3ec90c01	0.3926697
95	0x3e4df9d7	0.20114838
96	0x3e58d1ae	0.21173736
97	0x3e8d3adb	0.27583966
98	0x3cf250d1	0.029579552
99	0x3f172df7	0.5905451
100	0x3e6c7385	0.23090942
101	0x3ee1fc98	0.44138026
102	0x3eb15d01	0.3464127
103	0x3f395a7c	0.72403693
104	0x3e974a8a	0.29549056
105	0x3e7e1b71	0.24815156
106	0x3f2bf7b6	0.6717485
107	0x3ee2aa6d	0.4427065
108	0x3ee064b5	0.43826833
109	0x3d349277	0.044084992
110	0x3f1933c7	0.5984463
111	0xbef9135e	-0.48647588
112	0x3f088256	0.53323877
113	0x3e5a38cb	0.21310727
114	0x3e8cdec8	0.2751372
115	0x3e7d5071	0.24737717
116	0x3f301779	0.68785816
117	0x3f594b34	0.84880376
118	0x3e2900b0	0.16504169
119	0x3eae8a1b	0.3408974
120	0x3c0786b3	0.008271861
121	0x3f08c4bb	0.53425187
122	0x3eba5f60	0.3640089
123	0xbed65081	-0.41858295
124	0x3eeac5fb	0.45854172
125	0x3ef1ea31	0.47248986
126	0x3ebfdeca	0.37474662
127	0x3f1304d4	0.5742924
128	0x3ecf8bb1	0.40536264
129	0x3d3d078d	0.04614978
130	0x3eb915ea	0.36149532
131	0x3f16b1c4	0.58865
132	0x3e6faf90	0.23406816
133	0x3f39aa5c	0.7252557
134	0x3eb4fefe	0.35350794
135	0x3f338fe9	0.70141464
136	0x3f1c796c	0.61122775
137	0x3ed8ef0e	0.42369884
138	0x3f42bba4	0.76067567
139	0x3f34d000	0.7062988
140	0xbf0dbb41	-0.5536385
141	0x3f07ded8	0.5307441
142	0x3e169644	0.1470576
143	0x3f23f7d8	0.64050055
144	0x3f10741d	0.56427175
145	0x3e5ba661	0.21450187
146	0x3e9ac079	0.3022497
147	0x3f16aff2	0.5886222
148	0x3e86adbc	0.26304424
149	0x3e8c3ec3	0.27391633
150	0x3f151bf6	0.5824579
151	0x3efcf029	0.49401978
152	0xbdf4b391	-0.11948312
153	0x3f078d04	0.5294955
154	0x3eb23cde	0.34812063
155	0x3e496b14	0.19669753
156	0x3e2c1509	0.168049
157	0x3f35018c	0.70705485
158	0x3e8a450a	0.27005798
159	0x3eff6779	0.4988363
160	0x3e0559f7	0.130226
161	0x3d591272	0.052996106
162	0x3f1f155c	0.62141967
163	0x3f2f1d10	0.6840372
164	0x3e9baa8f	0.30403563
165	0x3eb3907a	0.35071164
166	0x3f0bd27e	0.5461806
167	0x3ed0dade	0.40791982
168	0x3e84e5a3	0.2595645
169	0x3ef1a310	0.4719472
170	0x3ecf94e8	0.40543294
171	0x3ec6ded9	0.38841894
172	0x3f10c6d5	0.56553394
173	0x3d38ec44	0.045147195
174	0x3e503e85	0.2033635
175	0x3e4e9f17	0.20177875
176	0x3ecd7df2	0.4013515
177	0x3f5281a9	0.82229096
178	0x3e810354	0.25197852
179	0x3ec1f567	0.3788254
180	0x3e9994db	0.2999638
181	0x3e02a3da	0.12757817
182	0x3ee3c8ad	0.4448904
183	0xbc8254a7	-0.015909506
184	0x3e835fd6	0.25659055
185	0x3f5ccf8d	0.862542
186	0x3ed0a707	0.40752432
187	0x3f05dde7	0.5229172
188	0xbbe61498	-0.007021498
189	0x3e09ce06	0.13457498
190	0x3ee87f51	0.45409635
191	0x3e9d8a88	0.30769753
192	0x3e7970e1	0.24359466
193	0x3e9cab34	0.30599368
194	0x3e15c2c9	0.14625086
195	0x3bbb6a69	0.005719472
196	0x3e9691aa	0.29408008
197	0xbecb474f	-0.39702842
198	0x3f37e97e	0.71840656
199	0x3f17ff95	0.5937436
200	0x3f002d73	0.5006935
201	0x3a95870b	0.0011408044
202	0x3ec4074d	0.3828682
203	0x3eaba965	0.33527675
204	0x3ec067d9	0.3757923
205	0x3f693ed0	0.9111147
206	0x3e62166a	0.22078863
207	0x3efa5c0a	0.48898345
208	0x3f05eb28	0.52311945
209	0x3f1054c6	0.56379354
210	0x3efc5fba	0.49291784
211	0x3dfa65d5	0.12226454
212	0x3b404d36	0.0029342896
213	0xbdfb8fc4	-0.122832805
214	0x3f7d4dc8	0.9894681
215	0x3e27caf9	0.16386022
216	0x3e2e2775	0.17007239
217	0x3e967040	0.29382515
218	0x3d8fac55	0.070152916
219	0x3e1e945c	0.15486282
220	0x3f4096d9	0.75230175
221	0x3d1d2c89	0.03837255
222	0x3e954aaa	0.29158527
223	0x3eeb12b6	0.45912713
224	0x3ee3f09b	0.44519505
225	0x3edd1ac7	0.43184492
226	0x3eb3b7a0	0.35101032
227	0x3e178452	0.1479657
228	0x3f193158	0.5984092
229	0x3d8d7cd8	0.06908578
230	0x3ef83163	0.4847518
231	0x3c9bd630	0.019023031
232	0x3e9137cf	0.2836289
233	0x3f10fb27	0.5663323
234	0x3f002883	0.50061816
235	0x3ed2d1eb	0.4117578
236	0x3eeb7bb6	0.4599282
237	0x3e49f497	0.1972221
238	0x3eff1a39	0.49824694
239	0x3f1a0e42	0.60178006
240	0xbe0c6d0d	-0.13713475
241	0xbdbeb759	-0.093123145
242	0x3eeda72c	0.46416605
243	0x3e1dae2f	0.15398477
244	0x3eb09fe9	0.34497002
245	0x3fa5939e	1.2935674
246	0x3f153d5e	0.58296764
247	0x3f0eb46c	0.5574405
248	0x3efa02e6	0.48830336
249	0xbf034dce	-0.51290596
250	0x3f108987	0.5645985
251	0x3f045a5c	0.5170038
252	0x3f6cfaa9	0.9256998
253	0x3ed7d31e	0.42153257
254	0x3eae75c8	0.34074235
255	0x3ee57c2a	0.44821292

transformer.norm.bias f4 [1920]
0	0xbe85e0be	-0.26148027
1	0xbe010c92	-0.12602451
2	0x3e8eaea7	0.27867624
3	0x3dcb4e4e	0.09927045
4	0xbe39af21	-0.18133213
5	0x3e6a7e81	0.2289982
6	0x3ebdf6ba	0.371023
7	0xbd66a636	-0.056310855
8	0xbe70e3e5	-0.23524435
9	0x3dfa2c8b	0.12215527
10	0x3d434e72	0.047682233
11	0xbe655f6b	-0.2239968
12	0x3e97da07	0.2965853
13	0x3e8cf0ad	0.2752737
14	0xbe8bd365	-0.2730972
15	0xbe0e4bd7	-0.13896118
16	0xbe023f7b	-0.12719528
17	0x3e43602c	0.19079655
18	0xbda1cbf4	-0.07900229
19	0xbeb551f6	-0.35414094
20	0x3e451551	0.19246413
21	0x3c7b6fbe	0.015346466
22	0xbe2a4fe9	-0.16632046
23	0xbe59bf9d	-0.21264501
24	0x3e0ce892	0.13760594
25	0xbd46ddf2	-0.048551507
26	0x3c84b87f	0.016201256
27	0x3d612723	0.054968964
28	0xbebb8ac8	-0.3662932
29	0xbe953eeb	-0.29149565
30	0x3e70ea1f	0.2352681
31	0x3e4121ab	0.188605
32	0xbcd61500	-0.02613306
33	0xbe98055b	-0.29691586
34	0xbe704b31	-0.23466183
35	0x3da634b7	0.08115523
36	0x3cc1beac	0.02365049
37	0x3ea6f9db	0.326125
38	0xbe80bc18	-0.25143504
39	0xbdee7972	-0.116442576
40	0x3e897cf5	0.26853147
41	0x3e1a49c4	0.15067202
42	0x3e74788e	0.23874113
43	0x3d8e297e	0.06941508
44	0xbdfad973	-0.122485064
45	0xbe93216c	-0.28736436
46	0xbe8bebee	-0.27328438
47	0xbe08a3a9	-0.13343681
48	0xbe4acd48	-0.19804871
49	0xbe9f4d58	-0.31113696
50	0x3d7956fb	0.060873967
51	0x3d660e9c	0.056166276
52	0xbe777bd9	-0.24168338
53	0xbde86fdf	-0.11349463
54	0xbe3cbaeb	-0.18430679
55	0xbe311df2	-0.1729658
56	0xbe8fb2f0	-0.28066206
57	0xbc31280b	-0.01081277
58	0x3da1db48	0.07903153
59	0xbe4345d1	-0.19069602
60	0xbe069e10	-0.13146234
61	0xbdedcdc0	-0.11611509
62	0x3d9a236b	0.07526287
63	0xbecd465c	-0.40092742
64	0xbe4dd360	-0.20100164
65	0xbc2ef031	-0.010677383
66	0x3d971254	0.07376543
67	0x3d95b93b	0.073107205
68	0x3cf5ee2a	0.030020792
69	0xbd154bf8	-0.036449403
70	0x3d0deeed	0.034651686
71	0xbe0cc90a	-0.13748565
72	0x3dd8675f	0.105665915
73	0xbdb40068	-0.0878914
74	0xbe8c4719	-0.27397993
75	0x3df237c2	0.11827041
76	0xbd74ce33	-0.05976696
77	0x3ea2ac98	0.31772304
78	0x3e46f569	0.19429554
79	0x3d84502f	0.06460606
80	0x3e2cfd8a	0.16893592
81	0x3cd86105	0.02641345
82	0x3e6c711e	0.23090026
83	0xbcc4576c	-0.023967467
84	0xbd838cee	-0.064233646
85	0xbcf98fac	-0.030464016
86	0xbdbca09b	-0.092103206
87	0x3e3a5d3f	0.18199633
88	0xbc9d4bbe	-0.019201156
89	0x3c107542	0.008817019
90	0x3e9660b3	0.2937065
91	0x3d4a3662	0.04936827
92	0xbec02202	-0.37525946
93	0xbdedf672	-0.11619271
94	0x3d79a052	0.06094391
95	0x3ca7e05e	0.020492729
96	0x3e61481c	0.22000164
97	0xbda3bf38	-0.079954565
98	0xbde0b75e	-0.109724745
99	0x3e1860f9	0.14880742
100	0x3e12df9d	0.14343114
101	0x3e9b40f7	0.30323002
102	0x3d84a8f0	0.06477535
103	0xbc1d4f13	-0.009601372
104	0xbec639f7	-0.387161
105	0xbd6a0afd	-0.057139385
106	0x3e8cf76a	0.27532512
107	0x3e17efc0	0.14837551
108	0xbd8430b9	-0.064546056
109	0x3bbdb86b	0.0057898066
110	0x3db65088	0.08902079
111	0x3ebf1e26	0.3732769
112	0xbe8c7806	-0.2743532
113	0xbdcacc32	-0.099022284
114	0xbe209744	-0.15682703
115	0x3dd7070a	0.104993895
116	0xbd215516	-0.039387785
117	0x3e801f7a	0.25024015
118	0x3e3ef7d0	0.1864922
119	0xbe7af46a	-0.24507299
120	0xbd5bc5e7	-0.05365553
121	0x3dedf07a	0.11618133
122	0x3e194e3f	0.14971255
123	0xbdf6bc36	-0.12047617
124	0xbe3188f3	-0.17337398
125	0x3d16405c	0.03668247
126	0x3ee985b9	0.45609835
127	0xbe1b68d9	-0.15176715
128	0xbec543c9	-0.38528278
129	0xbda48882	-0.08033849
130	0x3d3bc801	0.045845035
131	0x3e6892c9	0.22712244
132	0x3eb32280	0.3498726
133	0xbdbbe3a7	-0.091742806
134	0x3e42fb7d	0.19041248
135	0x3e66cc4d	0.22538872
136	0xbe7ac010	-0.24487329
137	0xbe0248ec	-0.1272313
138	0xbeb894d0	-0.36051035
139	0xbe824e3e	-0.2545032
140	0x3eb892dc	0.36049545
141	0x3e540c6c	0.20707864
142	0x3e4456a4	0.19173676
143	0x3e72637f	0.23670767
144	0xbe25ba47	-0.1618434
145	0x3e29dc29	0.1658789
146	0x3df49ff4	0.11944571
147	0x3da0a9a0	0.078448534
148	0xbd682ee0	-0.05668533
149	0x3d1c959d	0.03822862
150	0x3d6b0e26	0.05738654
151	0x3cf243aa	0.02957328
152	0x3b368f2a	0.0027856329
153	0xbe719e52	-0.2359555
154	0x3e536b75	0.2064646
155	0x3dfcbf88	0.12341219
156	0x3dd76d8d	0.10518942
157	0x3e9440f0	0.28955793
158	0x3d298bf5	0.04139324
159	0x3ea0448d	0.313023
160	0x3d03c828	0.032173306
161	0x3adfa7cb	0.0017063556
162	0xbd3b0dfa	-0.045667626
163	0xbd43cc30	-0.04780215
164	0xbdb648b9	-0.089005895
165	0xbe678a7e	-0.22611424
166	0xbe8565b3	-0.26054153
167	0x3ea91e04	0.33030713
168	0xbe4cce63	-0.20000605
169	0x3eada412	0.33914238
170	0x3e3112ea	0.17292371
171	0x3e341303	0.17585377
172	0xbe9a7bfd	-0.3017272
173	0xbdef1ad5	-0.1167504
174	0xbdfd0477	-0.12354367
175	0xbe49420a	-0.19654098
176	0xbde44f07	-0.11147886
177	0x3e8c1b3a	0.27364522
178	0xbe1dc4df	-0.15407132
179	0xbbe98059	-0.007125896
180	0xbdcb828b	-0.099370085
181	0x3e20a657	0.15688454
182	0x3ea325b3	0.318647
183	0xbe4885cf	-0.19582294
184	0xbe11dc17	-0.14244114
185	0xbe64f831	-0.22360303
186	0xbca7908d	-0.02045467
187	0x3e8e8bef	0.27841136
188	0x3cc482aa	0.023988087
189	0xbdcaa2c8	-0.09894329
190	0xbe2640f3	-0.16235714
191	0x3e120a83	0.14261822
192	0x3cb533dc	0.022119455
193	0xbdfcff12	-0.12353338
194	0xbe3552bd	-0.17707343
195	0xbd919409	-0.071083136
196	0xbe9ba651	-0.30400327
197	0x3e843507	0.25821707
198	0xbde291b9	-0.11062951
199	0xbe0ca449	-0.13734545
200	0x3ea83bc1	0.3285809
201	0x3cec9b21	0.028882565
202	0xbdaa7e65	-0.08324889
203	0xbf097c79	-0.53705555
204	0x3d45ada4	0.0482613
205	0xbee3e244	-0.44508564
206	0x3e8ff778	0.2811849
207	0x3da5bf28	0.08093101
208	0xbef1ddfa	-0.47239667
209	0xbe600f78	-0.21880901
210	0x3c1128b2	0.0088598
211	0x3c894a0f	0.016758947
212	0x3d3da4ed	0.046299864
213	0x3e12b75e	0.14327762
214	0xbeb9ec37	-0.3631303
215	0x3e7217da	0.23641911
216	0x3b86b0e7	0.004110444
217	0xbe4c29b8	-0.1993779
218	0xbd52383b	-0.051323157
219	0x3e4e6382	0.20155147
220	0x3e4b873a	0.19875804
221	0xbd95c78e	-0.07313453
222	0x3e1c2878	0.15249813
223	0x3e80d7b7	0.25164577
224	0xbc19cb57	-0.009386859
225	0x3d17a2f2	0.03702063
226	0xbe8fc611	-0.280808
227	0x3c8aab29	0.016927319
228	0x3e765d91	0.2405913
229	0xbe284135	-0.16431125
230	0x3e2bd63a	0.1678094
231	0x3c386fa5	0.011257087
232	0xbddb623b	-0.10712095
233	0x3e38bd95	0.1804107
234	0xbe2014f4	-0.15632993
235	0xbe22da85	-0.15903671
236	0xbea03574	-0.31290781
237	0xbe5da0a2	-0.21643308
238	0xbca1b96d	-0.019741738
239	0x3e7f2c86	0.24919328
240	0xbe720d83	-0.23637967
241	0x3dfaf987	0.12254625
242	0xbea1a5ff	-0.31571957
243	0x3d31cbd9	0.043407295
244	0x3ce4cc9c	0.027929597
245	0x3e99bdb9	0.3002756
246	0x3daa0998	0.08302611
247	0x3e634d10	0.22197366
248	0xbe8e9936	-0.27851266
249	0xbe8741f2	-0.264175
250	0xbeded129	-0.43518952
251	0x3eb3c909	0.35114315
252	0x3e7dad7c	0.2477321
253	0xbe20eb0c	-0.15714663
254	0xbe77e30b	-0.24207704
255	0x3ea840a1	0.32861808

transformer.norm.running_mean f4 [1920]
0	0x3bbbdb54	0.005732933
1	0xbb588a4d	-0.0033041418
2	0x3cdb11a4	0.02674181
3	0x3c8562f0	0.016282529
4	0x3bc9315e	0.006139918
5	0x3cd9f6d5	0.026606956
6	0x3d0536fe	0.032523148
7	0x3b95258d	0.0045515955
8	0x3bac7178	0.00526255
9	0x3916473a	0.00014331649
10	0xbbb87e69	-0.0056303036
11	0x3b2691f2	0.002541658
12	0xbd92b054	-0.07162538
13	0xbc0f315f	-0.008739798
14	0xbb8fd454	-0.004389325
15	0x3c2dbddb	0.010604347
16	0xbc80b617	-0.015711827
17	0x3c001720	0.007818013
18	0x39b192d2	0.0003386946
19	0x3caa445a	0.020784546
20	0x3b4667e5	0.0030274328
21	0x3cbcd8f9	0.02305268
22	0x3bb06d20	0.0053841025
23	0x3ccab70c	0.024745487
24	0x3bee296c	0.0072681215
25	0xbbddf802	-0.0067739496
26	0xbb390010	-0.0028228797
27	0x3b0d2519	0.0021537005
28	0xbbb6d2cc	-0.005579328
29	0xbc7b661c	-0.015344169
30	0xbd54ef73	-0.05198617
31	0x3bbbdbc0	0.0057329834
32	0xbb219d15	-0.0024660279
33	0xbd07be96	-0.03314074
34	0x3c36df24	0.011161599
35	0xbc3afaec	-0.0114123635
36	0xbb7134c2	-0.0036805128
37	0xbbd71e09	-0.0065648598
38	0xbd00c7e7	-0.03144064
39	0x3b86f1eb	0.0041181943
40	0xbc7318e7	-0.01483748
41	0x3be577ba	0.007002798
42	0x3a66226f	0.0008778935
43	0xbc169b54	-0.009192307
44	0x3c16d0ea	0.009205082
45	0x3cbaa033	0.022781467
46	0x3ccc5e64	0.024947353
47	0x3b1cde25	0.002393612
48	0xbc39c4a0	-0.011338383
49	0xbb8d9f03	-0.004321934
50	0x3c1edc9b	0.009696151
51	0x3b964374	0.0045856778
52	0xbc3b61c6	-0.011436885
53	0x3a87799c	0.0010335925
54	0x3c9b496f	0.018955914
55	0x3ce0fe2c	0.027464949
56	0xbd01a4c0	-0.03165126
57	0xbc54b71d	-0.012983111
58	0xbb90f5eb	-0.004423847
59	0x3d5c9ca4	0.05386032
60	0xba5b7adb	-0.0008372494
61	0x3a5bc4ed	0.0008383531
62	0xbb23fb54	-0.002502163
63	0x3c41223a	0.011787945
64	0xbc3a4b3f	-0.011370479
65	0x3b14520d	0.0022631914
66	0xbbc6a773	-0.006062442
67	0x3ba1d064	0.004938172
68	0xbb9a99aa	-0.004718025
69	0xbbf8cb83	-0.00759262
70	0xbb61b70b	-0.0034441378
71	0x3c44cf4b	0.012012313
72	0x3bbcb06c	0.005758336
73	0x3c286a4c	0.010279249
74	0x3cdb3667	0.02675934
75	0x3c8fdeb6	0.017562252
76	0xbb11ce2b	-0.002224813
77	0xbc694264	-0.01423702
78	0x3c3b293c	0.011423405
79	0xba48784d	-0.0007647321
80	0x3c9d1e27	0.019179417
81	0xbc49976b	-0.012304167
82	0x3ca4ce89	0.020118015
83	0x3b1b55bc	0.0023702225
84	0x3c0209e3	0.0079369275
85	0x3a3c3be4	0.0007180555
86	0x3bbbc075	0.00572973
87	0x3b300637	0.0026859173
88	0x3a9f956b	0.0012175267
89	0xb997171b	-0.0002881818
90	0xbcaabb5b	-0.020841291
91	0x3b908fe2	0.0044116834
92	0xbbeeceb9	-0.007287827
93	0xbbbc629c	-0.00574906
94	0x3b4f45ca	0.003162729
95	0xbbbb6c6a	-0.005719711
96	0xbd26b688	-0.04070142
97	0x3ad1bf83	0.001600251
98	0xbb0256a4	-0.0019888068
99	0x3c8bde10	0.017073661
100	0x3b79961c	0.0038083857
101	0xbbd6c605	-0.0065543675
102	0xbc1d492a	-0.009599963
103	0xba03d7ea	-0.0005029427
104	0x3cace057	0.021103067
105	0xbc79dba6	-0.015250122
106	0x3cb80f35	0.022468189
107	0xb9ece3ed	-0.00045183246
108	0x3c1bb91e	0.009504585
109	0xbb8aa11d	-0.004230632
110	0xbc83bd15	-0.016081372
111	0xbbdbf244	-0.00671223
112	0x3d077c2b	0.0330774
113	0x3c073786	0.008252984
114	0x3b3aa714	0.0028480934
115	0xbb682886	-0.0035424544
116	0xbbad8d5a	-0.0052963914
117	0xbc102046	-0.008796757
118	0xbb6f5e62	-0.0036524762
119	0xba979bed	-0.0011566855
120	0xbc156524	-0.009118352
121	0xbc2817e9	-0.010259607
122	0x3b0fe0e9	0.0021954125
123	0x3a866aef	0.0010255257
124	0xbba8dded	-0.0051534087
125	0xbc14dd52	-0.00908597
126	0xb9a1eecc	-0.0003088623
127	0xbbf01664	-0.007326888
128	0x39ab4b93	0.0003267197
129	0xbb07341b	-0.0020630423
130	0x3c8a5973	0.016888356
131	0x3bbcde25	0.0057637864
132	0xbbca850c	-0.006180411
133	0x3c769964	0.01505122
134	0xbabe2a7e	-0.0014508513
135	0xbbad83fb	-0.0052952743
136	0xbb835382	-0.0040077576
137	0xbc03d17b	-0.0080455495
138	0xbcc20748	-0.023685113
139	0x3b6859cc	0.0035453914
140	0x3c1ea734	0.009683419
141	0xbbd765ab	-0.006573399
142	0xbc14f562	-0.009091707
143	0x3c91b987	0.017788662
144	0x3b878afe	0.004136442
145	0x3aae6749	0.0013305928
146	0x3c010d05	0.007876639
147	0xbcbf240b	-0.023332616
148	0xba90cf63	-0.0011048134
149	0x3b362ab2	0.0027796444
150	0xbc6cfed4	-0.014465053
151	0x3bcc5895	0.0062361457
152	0xbc575808	-0.013143547
153	0xbb644b94	-0.0034835087
154	0x3cb8a641	0.022540214
155	0xbb876c14	-0.004132757
156	0xbc5786f1	-0.013154731
157	0x3ce1c174	0.027558066
158	0x3b824693	0.0039756983
159	0xbc270682	-0.010194423
160	0x3c0a1d11	0.0084297815
161	0xbba70e28	-0.005098123
162	0xbb640183	-0.003479094
163	0x3b3e0b69	0.00289985
164	0xbc0f2af5	-0.008738269
165	0x3c2f019d	0.010681537
166	0x3bbaba4c	0.005698478
167	0xbc9d3e14	-0.01919464
168	0xbb2e3fb2	-0.0026588258
169	0x39d7d645	0.0004116764
170	0x3a758bdf	0.0009366851
171	0x3b218afa	0.0024649487
172	0x3b5427cb	0.0032372351
173	0xb9c6b2ab	-0.0003789862
174	0xbbbb36b8	-0.00571331
175	0xbbad1cb8	-0.0052829646
176	0x3b4a4f90	0.0030870177
177	0xba24beea	-0.0006284552
178	0xba1f259c	-0.0006070973
179	0x3c440dd0	0.011966184
180	0xbc07fd7d	-0.008300182
181	0xbb2d9e90	-0.0026492216
182	0x3cbe3d81	0.023222687
183	0xbbd06858	-0.006360095
184	0x3bda15dc	0.006655438
185	0xbce6c788	-0.028171316
186	0xbb9f67e4	-0.0048646796
187	0xbb5fc26d	-0.0034142986
188	0x3b9146f2	0.004433506
189	0xba88bab1	-0.0010431615
190	0x3bc0d075	0.005884225
191	0x3b0b5431	0.0021259899
192	0x3b39f1a8	0.0028372798
193	0x3c287e52	0.010284023
194	0xbb2a7056	-0.00260069
195	0x3aaa4c94	0.0012992793
196	0xbb9b3e76	-0.0047376705
197	0xbc3f391e	-0.011671333
198	0x3b8e4fd0	0.0043430105
199	0x3b24700b	0.0025091197
200	0x3c5ad787	0.01335705
201	0xbb977b11	-0.004622825
202	0xbc02ae70	-0.007976159
203	0x3c92e397	0.017930789
204	0x39c58283	0.00037672007
205	0xbd983009	-0.07431037
206	0x3c47dc93	0.012198585
207	0x3c7b6eee	0.015346272
208	0x3c050d84	0.008120898
209	0xbc937618	-0.018000647
210	0x3b832d45	0.0040031993
211	0xba89ea03	-0.0010522011
212	0x3c09581a	0.008382821
213	0xbb533d23	-0.0032232485
214	0x3cfd87ac	0.030948482
215	0x3b8a6bfd	0.004224299
216	0x3b19484e	0.0023389044
217	0x3ac5c750	0.0015089307
218	0xb99f0203	-0.00030328342
219	0xbb963aaf	-0.0045846323
220	0x3bb13f01	0.005409122
221	0xbb62fa7e	-0.0034634168
222	0xbc707465	-0.014676188
223	0x3a99afb4	0.0011725337
224	0xbc4aa1f5	-0.012367715
225	0xbbac5d26	-0.0052601276
226	0x3c38452a	0.011246959
227	0xbb24a22a	-0.0025121071
228	0x3c333f19	0.010940337
229	0xbb904b25	-0.004403489
230	0x3c91dd84	0.017805822
231	0x3ada06b3	0.0016634077
232	0xbb67740c	-0.0035316972
233	0x3c4d34ed	0.0125248255
234	0xbcbadcf6	-0.02281044
235	0x3bfab78e	0.007651276
236	0xbc40bc81	-0.011763693
237	0xbc0741a7	-0.008255399
238	0xbc027211	-0.007961766
239	0xbc6a65fd	-0.014306542
240	0xbbe4224a	-0.0069620954
241	0xbc289fe0	-0.010292023
242	0x3be56fba	0.0070018442
243	0xbc4733dc	-0.01215836
244	0x3c31dd73	0.01085602
245	0x3c534e4e	0.012897087
246	0x3a8185ee	0.0009881833
247	0x3bb21356	0.005434434
248	0xbca6e887	-0.02037455
249	0x3d4255cb	0.0474451
250	0xbb17bce1	-0.0023153352
251	0x3c64e700	0.01397109
252	0x3d672b0f	0.05643755
253	0x3b91f522	0.004454271
254	0xbbd1e850	-0.0064058676
255	0x3ae8138a	0.0017706018
