xls_r_sqa/models/sqa/xls-r-300m/model_300m_lay5_subset.pt (torch, 384909 bytes, 67 tensors)

norm_input.weight f4 [1024]
00000000: f11c dc3e fc98 ff3e 0e43 173f de09 ce3e
00000010: daca eb3e 03c0 ae3e 72b0 203f 9b9b 2a3f
00000020: e4d7 f73e a481 243f 68b2 403f b337 0d3f
00000030: 0528 273f 9b98 193f d1b7 133f a2a6 0c3f
00000040: 3983 093f a8bc 6e3f 0313 ba3e 5dd0 8d3e
00000050: bb29 fb3e c571 e13e c6b7 013f 332d fb3e
00000060: a396 e13e 93a1 c73e 9b3f 3c3f 4c90 d93e
00000070: d805 203f da4c 0f3f 36e8 ee3e 6af7 423f
00000080: c04c ec3e 26ba dc3e ada9 c23e fa37 613f
00000090: f064 363f 0135 093f 1b70 003f e89a 383f
000000a0: 7c02 383f 8299 263f 7bc3 8f3e 2d94 e43e
000000b0: 3be9 223f db2e 163f 2b88 db3e e2ce e33e
000000c0: 3ef8 3f3f e6ad fa3e f3b9 133f f19d 173f
000000d0: 64c3 a43e 6803 fd3e a976 e4bd 4c09 ef3e
000000e0: a88f 143f abb9 cf3e 9c11 083f 99fa 1e3f
000000f0: 8ee0 253f 0531 0b3f 3bee 1c3f a693 0f3f
00000100: ca21 bc3e 37b0 3e3f 1a1b a03e 87fa ef3e
00000110: bba2 043f 0a52 c83e 3fd2 253f a57e 383f
00000120: f557 303f 6c7d d93e ba50 263f 10bf e93e
00000130: a044 023f d703 5f3f b906 143f da48 e13e
00000140: d3cc 213f a2c7 e03e 82c4 ee3e bca5 eb3e
00000150: e9e4 e23e a690 363f 860b b13e 763c d53e
00000160: bbc7 4d3f 928d f63e 59c2 f03e b652 213f
00000170: 0759 0c3f c9e1 f53e 5fbc f33e 54c8 8e3e
00000180: 7d22 883e 7edd 243f 4c06 213f 2d06 2d3f
00000190: 86b2 ef3e 5f59 373f 83cb 7e3e 520b 063f
000001a0: 9e93 543f 6f25 1d3f e057 253e d5fa 0b3f
000001b0: 95e5 2e3f bedf ed3e abfd 1e3f 9983 1d3f
000001c0: 02b5 fc3e 0408 bc3e ce5a e33e 8ca8 143f
000001d0: ba91 213f 5208 0a3e 3b6e 083f f626 753f
000001e0: fa26 7a3f 4ca2 403f 4132 183e 92e2 e23e
000001f0: 7a3c 153f 97e4 733e 041d 903e 8183 4f3f
00000200: c85d e93e a34f 1c3f 9618 e83e 61d0 fe3e
00000210: 82f1 283f cade 033f 8210 2d3f a28f dd3e
00000220: 9632 2c3e 20e4 1d3f a0d2 623e 357a e53e
00000230: f078 013f d5ed c73e 9899 0f3f 5b71 c43e
00000240: 1a39 123f 3202 223f b05c f33e cdf1 e73e
00000250: a17d e83e d0b1 2f3e ee78 3a3f c64a 4e3f
00000260: ad5a 5f3f bd29 a03e 98ae 223f 2e4d a83e
00000270: ce21 513f b395 4d3f 4321 be3e 4674 3a3f
00000280: 6845 103f e251 d33d 2629 0f3f 4d78 f83e
00000290: 43f3 153f b756 343f 0d60 603e d910 d83e
000002a0: 7f10 3f3f 7e12 2d3f 9d9c 4b3e 2e15 dd3e
000002b0: 2af9 f43e 9f58 ea3e 6100 9d3e 189c 113f
000002c0: 40a1 023f 3cdf 3c3f 01a6 1f3f 4af4 103f
000002d0: f02b 0a3f 4577 003e 4b89 273f 5683 093f
000002e0: 5ef1 0f3f 5873 563f 0963 1d3f a15d 2f3f
000002f0: 537a 213f eb2c 3f3f 4ee2 433f 6bc0 1e3f
00000300: 6253 613f 46fd d53e b287 423f 19dc 0f3f
00000310: e49f 3b3f 221f 103f 4b77 293f 0698 113f
00000320: 7267 d53e 04e4 2c3e 5c78 c53e a415 ad3e
00000330: 6909 133f 6cc9 bd3e 371c 353f 6731 053f
00000340: 49b3 173f 4180 dc3e 7ed0 243f 1dcd f83e
00000350: 7bb7 aa3e 2193 e53e d865 883e a4a5 f83e
00000360: 15cb 133f 407f 183f 8617 a63e 1cae 0f3f
00000370: 7318 1c3f 6557 ed3e f0f6 0a3f 08b0 163f
00000380: 6e4d 0d3f 10fd 823e c9f4 2e3f 3291 103f
00000390: 4445 1e3f 9b3e b53e 9b7b 2b3f a254 f63e
000003a0: 8f04 243f 58d6 d73e fd93 0a3f ec2d 2e3f
000003b0: 2e72 203f e7da e73e 7850 d33e 807b 223f
000003c0: 1b36 323f c975 323f 7789 383f c023 2c3f
000003d0: 9c23 823f 77db e13e d843 ff3e a8c2 4b3f
000003e0: a20d 583f db67 0a3f d830 403f b766 9b3e
000003f0: 7bfa 563f 3d97 253f 82ce 3c3f e47e 143f
0.4299083 0.49921405 0.5908669 0.40241903 0.460532 0.34130868 0.62769234 0.66643685
0.484069 0.64260316 0.75272226 0.55163115 0.6529544 0.5999848 0.57702357 0.5494176
0.53715855 0.93256617 0.3634263 0.2769803 0.49055275 0.44032112 0.5067104 0.49057922
0.4406024 0.3899046 0.73534554 0.42492902 0.62508917 0.5597664 0.46661538 0.76158774
0.46152306 0.4311077 0.38020077 0.8797604 0.7124777 0.535965 0.5017106 0.7211137
0.7187879 0.65077984 0.28078827 0.446443 0.6363713 0.58665246 0.42877325 0.44493777
0.7498816 0.489608 0.5770561 0.59225374 0.3218032 0.4941666 -0.11155445 0.4668678
0.580317 0.4057134 0.5315187 0.6210113 0.6479577 0.5437167 0.6130101 0.5608467
0.3674453 0.7448763 0.31270677 0.46870825 0.51810807 0.3912509 0.64773935 0.72068244
0.6888421 0.42478502 0.6496693 0.45653582 0.50885963 0.87115234 0.5782276 0.44000894
0.6320316 0.43902308 0.466343 0.46024883 0.4431527 0.71314466 0.34579104 0.4164769
0.8038289 0.48154885 0.47023275 0.6301683 0.54823345 0.48023823 0.47604653 0.27887213
0.26588812 0.6440047 0.62900233 0.6758755 0.4681589 0.71620744 0.24882321 0.52361023
0.83037746 0.61385244 0.16146803 0.54679614 0.68319064 0.46459764 0.62105817 0.6152893
0.49356848 0.36724865 0.44405216 0.5806968 0.63112986 0.13479736 0.532932 0.95762575
0.97715724 0.75247645 0.1486292 0.44313484 0.58295405 0.23817669 0.28147137 0.81060034
0.45579362 0.61059016 0.45331258 0.49768355 0.6599351 0.51511824 0.67603314 0.43273646
0.16816172 0.61676216 0.2215066 0.448198 0.5057516 0.3904864 0.5609374 0.38367733
0.5711838 0.632846 0.47531652 0.45301667 0.45408347 0.17157674 0.72840774 0.80582845
0.87247735 0.31281844 0.6354766 0.32871383 0.81692207 0.8030655 0.37134752 0.7283367
0.56355906 0.10318352 0.5592216 0.48529282 0.5857431 0.70444816 0.2191164 0.42200354
0.74634546 0.6760634 0.19883962 0.4318022 0.47846347 0.45770738 0.30664352 0.56878805
0.510273 0.7377813 0.62362677 0.56622756 0.53973293 0.12545498 0.6544387 0.5371603
0.5622767 0.8376975 0.6147924 0.6850224 0.63077277 0.74677914 0.7651719 0.62012357
0.8801786 0.41794795 0.75988305 0.5619522 0.7329085 0.56297505 0.6619765 0.56872594
0.41680485 0.16883856 0.3856839 0.33805573 0.57436234 0.37067735 0.7074618 0.52028507
0.5925794 0.430666 0.64380634 0.4859399 0.3334311 0.44838813 0.266402 0.48563874
0.57731754 0.5956917 0.32439822 0.56125045 0.60974807 0.4635574 0.54283047 0.5886235
0.55196273 0.25583696 0.6834226 0.5647155 0.6182444 0.35399327 0.6698548 0.48111445
0.64069456 0.4215572 0.5413206 0.6803882 0.62674224 0.45284197 0.4127233 0.63469696
0.6961381 0.69710976 0.72084755 0.6724205 1.0167117 0.4411275 0.49856448 0.79593897
0.843958 0.5406472 0.7507453 0.30351803 0.8397595 0.64683896 0.73752606 0.5800612

norm_input.bias f4 [1024]
00000000: 9fa8 54bb a387 5abb c882 64bc 7f11 323b
00000010: c5d4 0f3c 3f84 a2ba 81ca fbb9 8133 8f3c
00000020: 8137 d73b 6f73 98bb f743 063b 6dad 84bb
00000030: 8955 30b9 c492 963b 9fc4 caba 3576 1dbb
00000040: e004 a23b c538 193c 975a 63ba 7f22 b2bb
00000050: 784c a73a 1482 73bb 4915 503b 35a9 d83b
00000060: f857 2dbc 65a8 7dba 5dab 103c a061 8abb
00000070: 6bad 643c cf8a 183b 65e6 17bc 0637 9cbc
00000080: 2398 cd3a cbee fabb 4ffd 3e3b 708a 9ebc
00000090: 9824 963b a27d fb3b 0ee7 d2b9 7438 9e3c
000000a0: a26c 573a ccce 693a 96e4 893a a501 afba
000000b0: fd0b de3b e547 133b a4ff f83b aaae 1abc
000000c0: 106c 623c 48e5 dbba f1bd 7cb9 001b 403b
000000d0: e0aa e73b 637e 0dbb b9fc 82b9 845e 2abc
000000e0: 7d66 2a3c b026 833b 8aa7 e53b ac64 dd3b
000000f0: 3022 d9bb 8a6b d93b 135a 3e3b 1315 3e3b
00000100: a0ab e73b 082c 8039 603c 1aba 1320 87bb
00000110: c344 b93b 0c05 05bb 3587 223c a772 a4bb
00000120: a333 0aba 34a4 003c 66ef c4bb d44a 85bb
00000130: e72c aebb 8f41 0dbc ea1f 353c d35b e53a
00000140: b665 94bb 5769 a63a 730d be39 cbef f1bb
00000150: ad39 b7bb f220 f5bb 9866 833b 62f3 4d38
00000160: a211 8fbb cac5 ae3b 7d55 e3b8 9603 90bb
00000170: 2a15 fc3a a3a1 0c3c 41a0 6abb eaf0 a1bb
00000180: af05 993b 4ecb dd3b fdf5 e0bb a908 2f3c
00000190: 27cd 9d3b 4f03 463b da5d f2ba db13 283c
000001a0: 5325 263b b36a 373c 857d 1b36 ba2d 553b
000001b0: a5b5 03bc 51d7 ceba f3a3 1cbc 84f5 a6bb
000001c0: b3ba 14bb 06d4 a5bb 1ad4 9438 fe0b 9fbb
000001d0: 375c 363b 7c2c 053c 4fee b73b 0c78 693c
000001e0: c734 993b b98e 403c 270c ae3a 2d02 b9ba
000001f0: dece 003c b104 c4bb 6e7e 13bc a763 a1bc
00000200: 7672 1bbc c4c0 c9ba 7df0 c3bb b875 95b9
00000210: 35ea 363b de46 b13a fcc8 353b e8ea 133b
00000220: 5ec1 ce3a 8cae 9f3a 9240 f537 2d84 e0ba
00000230: 4e14 29bb 2c97 983b c9b0 643b 35ff 2ebb
00000240: e3e0 5d3b 1622 003b 33e0 6fbc 541a a63b
00000250: 679e ed3b 911b 0c3a 1d11 173b 54bc 26bc
00000260: 7585 55b9 1677 563c 816c 22bc 17de 9e3b
00000270: 74bc 213c 64bd a7ba ccc6 94bb a21c 043c
00000280: 8eb9 f53b 29c4 f4ba a98b 2abc 5eea 72bb
00000290: bb35 823b e4a9 87bc 90ea c0ba c7a0 423b
000002a0: e79f 543c 5e62 40bb 67ae 68ba cc2c 8bba
000002b0: 611a d6ba e352 dd3a fc3c 893a f91a 8abb
000002c0: b314 7bbc 99ef 89bb 6812 2b3c 9f36 9f3a
000002d0: 05a7 aa3b 2624 233a 5948 edbb 88cb d1b9
000002e0: e8af aa3b 1c66 8bbc 810c 283b cb50 3b3b
000002f0: e9f2 04bc c5fb bbbb 6eba 53bc cc30 1d3b
00000300: 45a6 19bc b8be 9cbb d931 6cb9 71a3 61bc
00000310: d9ce 8f3a 395d d7ba 6580 a73b 30d9 2dba
00000320: fd37 133b 7d84 2ab9 0764 8139 7402 8a3b
00000330: 111e 95ba c586 a13a 7a1b ab3c 0788 073b
00000340: c584 da3b b6f0 40bb a12d bb39 fa97 37bc
00000350: 96d5 7339 d3b9 d23b 996d f139 2a25 8cb8
00000360: ba23 9c3a 8959 533b ec86 5a3c 3a9f 7c3b
00000370: 3781 6b3c 9b9b 84ba 7a0e e63b 02a0 823a
00000380: 2559 86bb 380a f03a 061e 393c d1cb 22bc
00000390: ad25 fb3a ecd4 a3bb e96c c23b d6d5 d4bb
000003a0: 050a 123c 2959 c63b ff58 033c abfb 8f3b
000003b0: 8dce 183c 5744 b3bb b39f f4b8 b767 a23b
000003c0: 3b54 aa3b a1fb b9bc 2541 82bb 933e 87bb
000003d0: df48 6cbb 6cc8 9fb9 d008 863b 6dfe 9b3c
000003e0: dd27 4ebb a4e8 5dbc 21f5 48bc 5615 7f3b
000003f0: 3266 133c 5a57 53ba 7721 643b e0d5 79bb
-0.0032449139 -0.0033345006 -0.013947196 0.0027171073 0.008778756 -0.0012399032 -0.00048025328 0.017480614
0.006567896 -0.0046524326 0.0020487288 -0.0040489943 -0.00016816532 0.0045951325 -0.0015469975 -0.0024026756
0.004944429 0.009351914 -0.0008672862 -0.005436241 0.0012763878 -0.003715639 0.0031750968 0.006611968
-0.010580055 -0.0009676277 0.008829919 -0.0042230636 0.013957362 0.0023276096 -0.009271239 -0.019069206
0.0015685599 -0.007657861 0.0029142683 -0.019353122 0.004581999 0.0076748887 -0.0004022647 0.019314028
0.00082177867 0.000891906 0.0010520394 -0.001335193 0.0067763315 0.0022473272 0.007598834 -0.009441057
0.013819709 -0.0016776705 -0.00024103351 0.0029312968 0.0070699304 -0.0021590225 -0.00024983825 -0.010398511
0.010400412 0.0040024146 0.0070084976 0.006756386 -0.00662639 0.006635134 0.0029045388 0.002900426
0.00707002 0.00024446868 -0.00058836304 -0.0041236966 0.005653949 -0.0020297198 0.009919931 -0.0050185504
-0.00052719767 0.007851649 -0.006009984 -0.004067758 -0.0053154114 -0.008621587 0.011054972 0.0017498679
-0.0045287265 0.0012696189 0.00036249644 -0.007383322 -0.0055915923 -0.007480734 0.004010033 4.9102477e-05
-0.0043661157 0.005333637 -0.00010840127 -0.0043949587 0.0019232382 0.008583459 -0.0035801085 -0.0049420493
0.004669867 0.0067686206 -0.0068652616 0.010683217 0.004815716 0.0030214374 -0.0018491105 0.01025864
0.0025351837 0.011194873 2.3169862e-06 0.0032528476 -0.008038913 -0.0015780722 -0.009560573 -0.0050951857
-0.002269429 -0.0050606756 7.096697e-05 -0.0048537245 0.002782596 0.008128282 0.0056131254 0.014249813
0.004675481 0.011752778 0.0013278768 -0.0014115028 0.007861821 -0.0059820046 -0.009002311 -0.019700838
-0.009487739 -0.0015392532 -0.005979596 -0.00028507202 0.0027910594 0.0013525148 0.0027738204 0.0022570435
0.0015774181 0.0012182756 2.9236344e-05 -0.0017129235 -0.0025799456 0.004656693 0.0034895411 -0.0026702408
0.0033855967 0.0019551567 -0.014640856 0.0050690565 0.007251549 0.0005344684 0.0023050972 -0.010176737
-0.0002036298 0.013089916 -0.009913565 0.0048482525 0.009871591 -0.0012797532 -0.0045403 0.008063467
0.0074989265 -0.0018674183 -0.010409274 -0.0037065963 0.0039736903 -0.016560502 -0.0014718343 0.0029697882
0.012977577 -0.0029355506 -0.00088760856 -0.0010618209 -0.0016334766 0.0016885664 0.0010470445 -0.004214641
-0.015324759 -0.0042094705 0.0104414 0.0012147016 0.0052078986 0.0006223343 -0.0072412905 -0.0004001523
0.005208958 -0.017016463 0.0025642219 0.0028582092 -0.008114555 -0.0057368004 -0.012922866 0.0023985384
-0.009378021 -0.0047834776 -0.00022525284 -0.013771878 0.001097168 -0.0016430981 0.0051117414 -0.000663179
0.0022463792 -0.00016261819 0.00024679324 0.004211718 -0.0011376758 0.001232349 0.020887125 0.0020680444
0.0066686594 -0.002944035 0.00035701416 -0.011205668 0.00023253853 0.0064308434 0.0004604876 -6.6826426e-05
0.0011912503 0.0032249412 0.013337832 0.0038547055 0.014374069 -0.0010117175 0.0070207687 0.0009965899
-0.0040999823 0.0018313592 0.011298662 -0.009936289 0.0019161009 -0.0049997475 0.0059333933 -0.006495218
0.008913522 0.006053109 0.008016824 0.004394015 0.009326589 -0.005470793 -0.00011664573 0.0049562114
0.0051980293 -0.022702994 -0.003975051 -0.0041273325 -0.0036054177 -0.0003047617 0.004090406 0.019042218
-0.0031456866 -0.013544235 -0.012265475 0.003892263 0.008996533 -0.00080620276 0.0034809986 -0.0038121864

norm_input.running_mean f4 [1024]
00000000: ea12 473f 4d74 ae3f f568 603f a4be 563f
00000010: e96c 223f 9c7b 603f 1071 923e 2743 2d3f
00000020: f0f0 3c3f 0319 9a3f 29f4 4abe c1a8 b53f
00000030: fcc8 303f a784 5a3f 7f41 353f 301f 0c3d
00000040: 34fa 8b3f 2d7d 703f b020 f73e 9ea8 3d3f
00000050: 7296 723f 2b9b fa3e 26f8 043f 6c60 193f
00000060: 9669 843f a367 e53e 7eee cf3e 13c7 123f
00000070: 9cb0 3b3f 3464 5d3f efd0 e93e 6611 8e3f
00000080: f6bb b1bf 41c0 733f 11f5 173f fa2b 703f
00000090: 98d2 9c3f 3e07 e83e b91d 703e bac2 a83f
000000a0: a29f 8b3f 2d71 2d3f 6308 483f 47be 1e3f
000000b0: 852b 333f 5dca 0a3f b9ed 633f 9ed5 9fbd
000000c0: 3e1c 243f b63d c93f 705b 5a3f af99 a63f
000000d0: 36d4 9b3f 70bd 343f 7104 d63e d323 6c3f
000000e0: ed85 863f 48c8 b23f e07c 7a3f 6ca5 823f
000000f0: 6cbb 523f 9efe 713f 96fa aa3f 5427 f53e
00000100: 49d1 623f 606c 943d 00c8 fe3e 3237 1b3f
00000110: 5d5f 7b3f 6ec3 7d3f 78f8 1f3f f447 413e
00000120: d6b5 073f 9f62 b23f 3c40 94be f40a 483f
00000130: 06e6 8b3e d0ef b53e a55b 643f 0a15 853f
00000140: 4e69 193e 1e7a 873e cd90 2ebf d2a1 0d3f
00000150: cc4f 6abd 70cf 133f c947 e83e 8ebc 0b3f
00000160: 4ab6 f53e a299 833e c819 bd3f d4bd 4c3f
00000170: 706e 1c3f 4a4a 813f 7630 863f 0a5c 1a3f
00000180: f48c 5a3f 54a3 3d3f b253 d83e 7e30 4c3f
00000190: 0ee2 3b3f 7353 2d3f 4070 043e 872d d93f
000001a0: 023f 833f 0f97 863f a4ab a340 3573 1c3f
000001b0: 65a0 c53e 8511 c83f b47e 8f3f caba 0a3f
000001c0: 0b30 613f 4a6b b53f 3f23 413d 3a1e e83e
000001d0: 3955 a43f ca61 143f b396 9f3e dda4 0c3f
000001e0: 0a6c ea3f 1c52 9e3f 060b 1f40 fc3a 993f
000001f0: 7e39 983f 6133 a63f e3b8 173f dce4 f83e
00000200: b07d 8b3e 50e3 903e 2517 753f 9801 d23e
00000210: d70a 7a3f 4679 333f 3886 3f3f 42e7 153f
00000220: 0e8c 813f e227 783f 15f9 2e3f 8994 b8bd
00000230: cac7 873f d0cd 6c3f 966a 893f 83fa b83f
00000240: 6b69 bc3d 3b3f 3d3f 10d9 1a3f 6c16 1f3f
00000250: e86a 2f3f 4978 e13f a9ca 8e3f ece9 3b40
00000260: c003 9d3f 5303 f33d 8e39 4ac0 0184 813e
00000270: 7d8e 503e 885d 913f abd2 b43e f69b ef3e
00000280: 4935 233e 0a38 4c3f 4a5c 0940 e73f 8f3f
00000290: be56 443f 62e0 4e3f 52dc a63f d655 3c3f
000002a0: c5fa ef3e 316d f03d c4d3 9d3f c426 493f
000002b0: 23bb 1d3f 9ef7 ad3e 6ccd 0f40 e921 b43e
000002c0: da76 b33e 0014 65be bffd 1a3f 607d 8a3f
000002d0: 94d3 1f3f 882f 35c0 ce09 743f a6bc ea3e
000002e0: b4e9 9c3f 9638 543f 9f67 1f3f fb19 493f
000002f0: 7866 d73e 2a98 283f 2bfc 5abe e854 193f
00000300: 6ac5 3a3f 4525 2d3f 72ca 583e 481f 2b3f
00000310: e951 d73d e52c d0bd 8b73 853c 54a4 663f
00000320: 28b0 193f 9c55 41bf 2500 b93f 5dd1 af3e
00000330: 637d 7d3f a7f0 a53f d73c 9a3e 5469 053f
00000340: d7d0 ab3f b1fa 9a3f bebe 1540 3cae a1bd
00000350: 4826 133f 1620 163f 1772 6b3f a5f4 043d
00000360: fecc 4f3f 09c5 6bbd 0f3a 9c3f 439e 563f
00000370: 2d49 723f 6034 a63f 63e8 583f db15 803d
00000380: 2813 863f 57b1 aec1 8ecf 603e 7770 5b3f
00000390: df73 443f 45d4 a03e ef0d 443f 1d49 573f
000003a0: 885a ab3f a17b 973f 558f 663f 2302 8b3f
000003b0: cadc a03f 05af 423f d7b8 603f ce04 dd3e
000003c0: 2013 143f 76e5 d03f d31e ce3e baeb 0a3f
000003d0: f66b 9f3f 2ce0 4f3e 8a3a a23e 9c7f 5b3f
000003e0: 7cc7 563f 8acf 203f c67e fc3e cc6f 823f
000003f0: b279 693f 0431 6c3f 2f7e 483f 7270 ea3f
0.77763236 1.3629242 0.8766015 0.83884645 0.63447434 0.8768861 0.28601885 0.6768059
0.7380514 1.2038883 -0.19819702 1.4192125 0.6905668 0.8535866 0.70803064 0.03420943
1.0935731 0.93941003 0.48267126 0.74085414 0.9476081 0.4894651 0.51941144 0.59912753
1.0344722 0.4480563 0.40611643 0.57335013 0.7331636 0.8648102 0.45667216 1.109906
-1.3885486 0.9521523 0.59358317 0.938171 1.2251768 0.45318025 0.23448838 1.3184426
1.0908091 0.6775082 0.781378 0.6200909 0.6998828 0.5421503 0.8903461 -0.07804416
0.64105594 1.5721958 0.8529577 1.301565 1.2174137 0.7060156 0.41800264 0.92242163
1.0509621 1.3967371 0.97846794 1.0206733 0.82317233 0.9452914 1.3357723 0.47881567
0.88600594 0.072472334 0.49761963 0.60631096 0.9819239 0.9912633 0.6248851 0.18875104
0.53011835 1.3936347 -0.28955257 0.78141713 0.2732393 0.35534525 0.8920234 1.0397046
0.14981577 0.26460356 -0.681897 0.55325043 -0.057205006 0.577384 0.45367268 0.54584587
0.47990638 0.2570315 1.4773493 0.79977155 0.61106014 1.0100796 1.0483539 0.6029669
0.8537133 0.74077344 0.42251354 0.79761493 0.7339181 0.6770546 0.12933445 1.6967019
1.0253603 1.051485 5.114702 0.6111329 0.38598934 1.5630347 1.1210542 0.5419127
0.8796393 1.4173367 0.047152754 0.4533556 1.2838508 0.57961714 0.31169662 0.5493906
1.8314221 1.2368808 2.4850478 1.1971126 1.1892545 1.298443 0.5926649 0.48612106
0.2724433 0.28298426 0.9573844 0.4101684 0.9767279 0.70106924 0.74814177 0.58555996
1.0120866 0.96935856 0.6834882 -0.09012706 1.0607846 0.92501545 1.0735652 1.445145
0.091997944 0.7392461 0.6048746 0.6214359 0.685225 1.7614833 1.1155597 2.9361525
1.226677 0.118658684 -3.1597629 0.25296023 0.20366855 1.1356668 0.35316977 0.46798676
0.15938295 0.7977301 2.1462579 1.1191376 0.7669486 0.8081113 1.3035986 0.73568475
0.4687101 0.117395766 1.2330251 0.78574777 0.6161367 0.3397798 2.246913 0.3518212
0.35051614 -0.2237091 0.60543436 1.0819511 0.6243222 -2.831026 0.9532746 0.45847052
1.225882 0.82898843 0.6226749 0.7855527 0.42070365 0.65857184 -0.21385257 0.5989518
0.7295748 0.67634994 0.21170977 0.66844606 0.1051367 -0.10164813 0.016290447 0.90094495
0.6003442 -0.75521255 1.4453169 0.3433942 0.9901945 1.2964066 0.30124542 0.5211384
1.3423108 1.2107755 2.339767 -0.07894561 0.5748029 0.5864271 0.9197096 0.032459874
0.8117217 -0.057560954 1.2205218 0.8383524 0.9464291 1.2984734 0.84729594 0.062541686
1.0474596 -21.836592 0.21954176 0.8571848 0.76739305 0.3141195 0.7658376 0.84095937
1.3387003 1.1834604 0.9006246 1.0860027 1.256738 0.7604831 0.87782043 0.43167728
0.5784168 1.6320026 0.40257892 0.5426594 1.2454822 0.20300359 0.31685287 0.8574159
0.8389814 0.6281668 0.4931547 1.0190368 0.9120132 0.9226229 0.7831754 1.8315566

norm_input.running_var f4 [1024]
00000000: 9071 1740 82ef d940 ece5 f03f 2f75 6140
00000010: 2045 0840 9807 ff3f 2d8d 0940 8129 9b40
00000020: a3d4 0c40 8bd7 4840 b3cb 4440 85a6 1140
00000030: 2aeb f73f c2af 3740 46aa 2340 96c6 ff3f
00000040: c2db f83f 8049 0b40 553f f43f 9ddb 0440
00000050: ebf0 0740 608e 2e40 02f3 0440 3a41 1540
00000060: 5667 6040 abf0 5340 fdbc 0b40 2f24 0540
00000070: 2593 fb3f 5a1e fb3f 18ad ff3f 3160 4140
00000080: dffc 0541 b826 1440 3b37 3c40 a57f 1840
00000090: 0067 0940 cbdd ec3f 0771 6940 2796 0140
000000a0: 7d92 f93f e2c8 0840 c576 0740 ef5a 1940
000000b0: 0260 2340 1f0e 0540 352e 2440 3932 2e40
000000c0: 4c96 f33f ca34 0940 781b 0640 ce62 1340
000000d0: fe3f 1440 3018 0140 2996 7240 10d5 e13f
000000e0: 6c8e f83f f431 8740 f5e0 0040 2833 3940
000000f0: 6159 0e40 2d82 de3f 8226 2040 53d4 3640
00000100: 7476 0440 5f39 0b40 d16f 0540 2797 1140
00000110: c290 4240 3fe5 e83f 9c2e 0d40 6734 0140
00000120: 59d2 0340 b6e2 f93f 622d 2741 c734 e93f
00000130: d0a0 0c41 7465 4c40 d8cf 1040 41ee 1d40
00000140: cf21 3340 0083 0040 3adf 2442 6628 0c40
00000150: a397 1940 4f3b e83f 9021 b740 7510 1240
00000160: 03be ed3f b428 8540 5863 5040 f9c8 1140
00000170: d08d eb3f cc37 1d40 8b38 ea3f 49a6 0d40
00000180: 0f00 e33f ffe2 f43f eb3e 4940 497d f33f
00000190: 9de0 1940 cdaa 0740 8ddf 3040 303e 2240
000001a0: 4dfc f43f da5b 1540 b14f 1a42 5451 1240
000001b0: 2b41 0140 4e8c 0740 d467 f43f 3eb5 1a40
000001c0: 5c21 1d40 ace1 1b40 46a1 5040 cf9c ef3f
000001d0: 4234 eb3f d608 0740 4227 0840 e920 0240
000001e0: 5741 0f40 e6ed 1840 8e63 2343 8619 f43f
000001f0: a64d ee3f 90be 4d40 f0f2 0440 567e a840
00000200: 76ae 1940 a6db 0e40 0a61 1b40 e571 0940
00000210: 3242 d33f 5516 ec3f c715 1240 0260 0140
00000220: 0dd9 2040 c082 fc3f 7593 eb3f 5ea1 0a40
00000230: 67c9 ff3f 61e6 0340 f27a 1740 9500 1f40
00000240: 8906 2b40 8746 0d40 89c8 fc3f 4803 2440
00000250: 2d46 0540 667c 1b40 f601 fc3f 8295 0c42
00000260: d35f fe3f 383b 1c40 1191 1c42 302f 8340
00000270: 9965 0c40 3e29 0f40 76a0 0340 85c3 fd3f
00000280: f05f 7d41 111c 2e40 6d6f e340 e112 1340
00000290: dd8d fe3f 28c9 0a40 e660 0240 2851 5840
000002a0: 5cee 0f40 1d85 f23f 9db2 f03f 8af1 1040
000002b0: 7c7f 1b40 4f06 3340 89c4 f741 dbf4 0140
000002c0: 1a9c 1840 2e5c 3640 1aaf f63f 9ed5 0140
000002d0: a260 fa3f 8462 9542 c9e5 0b40 fc69 2e40
000002e0: 2add 0340 6aa6 0240 6422 3440 3596 0a40
000002f0: 43ed ed3f d472 0140 161e 7041 d33f 0340
00000300: 0b90 f23f 4111 0f40 7489 f93f 708f fc3f
00000310: ce3e ea3f 4794 2640 77c6 1040 1e9e 0940
00000320: d2cc 0640 b159 5a41 c502 0a41 52a9 4840
00000330: 40c8 0b40 c777 f43f 4184 2440 e2d8 0140
00000340: f582 fe3f f444 1240 c945 5340 9ea2 c241
00000350: b43c 2440 b651 1440 eba6 8d40 e9e4 2640
00000360: 1ad3 0140 ee9e 2740 f35e 0640 b43f 0640
00000370: c93c 2540 e584 1440 d37f 1940 440b 2040
00000380: ee43 0640 1ddc 3e42 216d 3040 28de 5140
00000390: 9edf 0f40 4caa 2140 6ca4 e33f d0c3 1340
000003a0: b14d 0d40 f0c1 1d40 c326 0140 9128 f23f
000003b0: cefa 1940 1614 3240 d6ec 1940 cef3 f63f
000003c0: 573e 0e40 7c6f d040 174e 0340 545a 0e40
000003d0: d441 0d40 3a5b 1c40 af6b fc3f ad0c 0140
000003e0: acf1 e93f 9270 1540 762a fc3f 4c67 6c42
000003f0: 777f e53f 5171 f33f ea84 0640 53f7 1e40
2.3663063 6.810487 1.8820167 3.5227773 2.129219 1.9924192 2.1492417 4.8488164
2.2004783 3.1381557 3.0749328 2.2757885 1.9368641 2.8701024 2.5572677 1.9982479
1.9442065 2.176361 1.9081827 2.0759041 2.1240795 2.7274399 2.077332 2.332106
3.5063071 3.3115642 2.18341 2.0803335 1.965428 1.9618638 1.9974699 3.021496
8.374236 2.3148632 2.940871 2.3827908 2.1469116 1.8505186 3.6475236 2.0247896
1.949783 2.137261 2.116624 2.3961751 2.5527349 2.078987 2.5653203 2.7218153
1.9030242 2.143847 2.0954266 2.3029056 2.3164058 2.0171013 3.790415 1.7643147
1.9418464 4.224848 2.0137303 2.8937473 2.2242053 1.7383476 2.5023503 2.8567092
2.0697298 2.1753767 2.0849497 2.2748506 3.0400853 1.819496 2.2059698 2.0188234
2.0597136 1.9522312 10.44858 1.8219231 8.789261 3.1936922 2.2626858 2.4676669
2.7989385 2.0079956 41.217995 2.1899657 2.3998802 1.81431 5.722847 2.2822545
1.8573612 4.1612186 3.2560635 2.2778914 1.8402653 2.4565306 1.8298506 2.2132742
1.7734393 1.9131774 3.1444652 1.9022609 2.4043343 2.1197999 2.7636445 2.5350456
1.9139496 2.3337312 38.577824 2.2862139 2.0196025 2.1179385 1.9094186 2.4173121
2.455161 2.435649 3.2598433 1.8719729 1.8375323 2.1099143 2.127396 2.0332587
2.238363 2.3895202 163.38889 1.9070289 1.8617446 3.214756 2.0773277 5.265422
2.4012733 2.2321563 2.4277978 2.1475766 1.6504576 1.8444315 2.2825792 2.0214849
2.5132477 1.9727402 1.8404375 2.166099 1.9983338 2.0609362 2.366879 2.4844105
2.6722739 2.2074296 1.9748698 2.5627003 2.0824082 2.4294677 1.9688098 35.146004
1.9872993 2.4411144 39.141666 4.09951 2.193701 2.2368922 2.0566688 1.9825293
15.835922 2.720463 7.107352 2.2980273 1.9887043 2.1685276 2.0371642 3.3799534
2.2489233 1.8946873 1.8804508 2.2647424 2.429656 2.79726 30.970964 2.0305698
2.3845277 2.8493762 1.9272187 2.0286632 1.956074 74.69241 2.1859 2.7252188
2.0603738 2.041407 2.814599 2.165418 1.8588032 2.0226336 15.007345 2.0507705
1.8950208 2.235428 1.9495072 1.9731274 1.8300416 2.6028001 2.2621133 2.1502757
2.1062512 13.646897 8.625676 3.1353345 2.1840973 1.9099053 2.5705721 2.0288625
1.9883715 2.2854586 3.3011343 24.329403 2.566205 2.3174872 4.4266257 2.6077216
2.0285096 2.6190753 2.0995452 2.0976381 2.581835 2.3206112 2.3984268 2.5006876
2.097896 47.714954 2.7566607 3.2791843 2.2480235 2.526019 1.7784553 2.3088264
2.207867 2.464962 2.0179908 1.891863 2.405933 2.782476 2.4050803 1.9293153
2.222555 6.513609 2.0516412 2.2242632 2.2071428 2.443068 1.9720362 2.0163987
1.8276877 2.3349957 1.9700458 59.100876 1.7929524 1.9018956 2.1018624 2.4838455

transformer.norm.weight f4 [1024]
00000000: dcfa b43e ad91 e13e ff13 173f ed98 73be
00000010: 1e23 d93e 0685 b03e 8225 323f a708 243f
00000020: 2a73 0a3f ffda 203f cdd9 7e3f e398 133f
00000030: c599 433f f4bb 0a3f 356f 173f f59f dd3e
00000040: 45df 0c3f 619b 9a3f 7c96 613e bec9 3d3e
00000050: d6f5 ec3e 729d cf3e 126e 033f 8a8a f43e
00000060: 30af dd3e d323 4d3e 8f23 793f 8534 b33e
00000070: 9a56 3f3f 91e7 1d3f 0c2b d03e eee7 673f
00000080: a268 b23e 6c9f a03e 6cc4 933e 125b 913f
00000090: df02 523f 7ab3 f83e 9bdc bd3e 9d70 483f
000000a0: f8ad 543f 3a2c 303f bac4 243e 44bb cd3e
000000b0: f6f9 2d3f 769d 1f3f 7826 bb3e 0597 d93e
000000c0: c7f3 313f 5a0d ac3e 6a0b 233f 00b9 2d3f
000000d0: 3d69 8e3e 884b 123f e620 43bd b62c 053f
000000e0: cba0 0a3f 40c0 833e a1a3 133f f30d 393f
000000f0: 6640 3c3f 52db 0a3f 71d5 203f 9c7f 1a3f
00000100: 2d27 bb3e 4b2c 683f fb2a 4c3e c7ed f13e
00000110: 1940 e43e 0847 993e f9e2 313f 4898 5a3f
00000120: d8d4 433f b7ac 063f 7c19 383f a0b2 a63e
00000130: f289 d93e c68e 823f 32e2 0a3f 659e 933e
00000140: 795d 363f be8b e53e 9e25 ad3e 1d4a d53e
00000150: e574 9e3e 6045 473f 793b 483e d3a6 9d3e
00000160: 38d2 6e3f a4b8 fc3e 276b c73e 9dc5 2b3f
00000170: b166 1e3f 223e d43e 66b1 c63e 6b09 a93e
00000180: c091 1b3e 4c08 1a3f 7667 263f 424d 283f
00000190: c577 e13e 3455 473f 920a ac3d ea58 1e3f
000001a0: 5800 743f 7f72 123f 28c9 413e b3c6 013f
000001b0: a0a6 5d3f 51a5 bc3e af81 393f a739 2e3f
000001c0: 6551 c53e 61d4 5abe e791 c63e 6c56 1c3f
000001d0: b8e2 183f 8f1c 883c 73ad 133f 0285 973f
000001e0: 512d a03f 5fe3 503f 98d7 6f3d c523 bb3e
000001f0: 8d2c 153f 66cf 0e3e 04fa bf3e 8bd2 813f
00000200: fb14 ca3e d3b1 243f b480 cf3e 6b23 c03e
00000210: 5731 663f 3744 d03e 1170 353f b2fe eb3e
00000220: da17 4c3d 57fb 3b3f 5852 1c3e fb38 8c3e
00000230: bc7e 103f 3d86 9b3e 61ae 053f edd1 b03e
00000240: 2749 0e3f 7a60 1f3f e9dd be3e c3d6 e93e
00000250: 43b0 c13e 43d5 d33d 7e87 3d3f ac16 633f
00000260: 60e3 7b3f 1b94 c43e 1c10 343f 138e be3e
00000270: ccbd 543f 2980 5c3f 62d4 cf3e f8a4 603f
00000280: eaa0 eb3e 481d 693c f6c1 d83e 0c33 d13e
00000290: 00a3 053f 7032 563f 838c c53d e343 d13e
000002a0: 62b2 763f 2336 393f e548 8d3d e260 b43e
000002b0: 0386 ec3e 7fba a83e 78df 6e3e 613f df3e
000002c0: 7fbd 063f 7658 563f c1a8 2b3f 00d9 253f
000002d0: e046 003f 8e0d 15bd 767b 393f 8afe 123f
000002e0: 0e6f 073f f232 823f 4bda 1e3f 73be 313f
000002f0: 0eb1 433f 7299 6f3f b7cb 483f 8ecc 033f
00000300: af85 7c3f 9ba9 c63e cff8 643f 6907 ff3e
00000310: 9fb5 593f 892e 143f 2881 613f a597 143f
00000320: e932 d63e 8cf5 b63d 0e01 9e3e 2e73 a13e
00000330: bfd4 0a3f ba03 c83e de53 443f 1b5b 053f
00000340: f067 1d3f 0f35 df3e 08cf 393f 5cd6 d33e
00000350: 8237 623e 3524 d53e 2716 133e cf5c a93e
00000360: fdc6 093f 8cdd 533f 7fa9 bf3e b01a 003f
00000370: 409d 383f 155c d23e 1e39 123f 2ab3 093f
00000380: 4cbc 2e3f 3f77 f23d b8c0 453f 3a7b 1c3f
00000390: 5d1e 1b3f 1aa2 553e 7f27 393f cf83 d33e
000003a0: 923b 2c3f edb2 d43e fb5f 1e3f f1b6 3f3f
000003b0: 3bfc 4d3f 91a8 9c3e 3abd a23e 6a6d 103f
000003c0: 3af4 293f 2676 5b3f e800 2d3f d710 2e3f
000003d0: d572 a43f e951 983e 9674 c63e bd20 533f
000003e0: f69b 803f 6043 1e3f 7188 603f eaf1 103e
000003f0: 8eb5 833f 9d3f 283f bcce 5c3f aa14 1c3f
0.3534764 0.44056454 0.59014887 -0.23788805 0.42409605 0.3447649 0.6958848 0.640757
0.54081976 0.6283416 0.9955109 0.5765516 0.7640651 0.54193044 0.59154063 0.432861
0.5502818 1.2078668 0.22030061 0.1853399 0.46281308 0.4054981 0.5133983 0.47761947
0.4329772 0.20033197 0.97319883 0.35001007 0.7474152 0.6168147 0.40657842 0.9058827
0.34845454 0.3137163 0.28860795 1.1355917 0.8203563 0.4857443 0.3708237 0.78296834
0.83077955 0.68817484 0.1609067 0.40181935 0.67959535 0.6234964 0.36552787 0.4249803
0.695126 0.33603936 0.6368929 0.6786041 0.27814665 0.571465 -0.047638796 0.5202135
0.541516 0.25732613 0.5767155 0.7228691 0.73535764 0.54240906 0.62825686 0.60350966
0.36553326 0.90692586 0.19938271 0.47251722 0.44580153 0.29937005 0.6948696 0.8538861
0.7649665 0.5260729 0.71913886 0.32558155 0.42488056 1.0199821 0.54251397 0.28831783
0.7123638 0.44833177 0.33817762 0.41658106 0.30948558 0.7784023 0.19553937 0.3079134
0.9328952 0.4935962 0.38948938 0.6709841 0.61875445 0.41453654 0.3880722 0.33014998
0.15192318 0.6016891 0.6500162 0.65742886 0.4403669 0.77864385 0.084004536 0.6185442
0.95313025 0.5720596 0.18924391 0.50693816 0.86582375 0.36844876 0.72463506 0.6805672
0.38538662 -0.21370079 0.3878319 0.6106937 0.59720945 0.01661518 0.5768654 1.1837466
1.251383 0.8159694 0.058555216 0.36550727 0.58271104 0.13946304 0.37495434 1.0142378
0.39469132 0.6433384 0.4052788 0.37527022 0.89919037 0.40677044 0.70874125 0.46092755
0.049827434 0.7343039 0.15265787 0.27387223 0.5644338 0.30375853 0.52219206 0.3453516
0.5558037 0.62256587 0.3727868 0.45671663 0.3782979 0.10343411 0.7403487 0.8870647
0.9839382 0.38394246 0.7033708 0.3721777 0.8310211 0.86133057 0.40591723 0.8775172
0.46021205 0.014228173 0.4233548 0.40859258 0.52201843 0.8367071 0.09645941 0.40872106
0.9636594 0.7234823 0.06898669 0.35230166 0.46195993 0.32954785 0.23327434 0.43603042
0.526329 0.8372873 0.67054373 0.6478424 0.50108147 -0.03638988 0.7245401 0.57419646
0.5290383 1.0171797 0.6205184 0.6943123 0.7644204 0.93593514 0.78435844 0.51484
0.98641485 0.38801274 0.8944215 0.4981034 0.85042757 0.57883507 0.880877 0.5804389
0.41835716 0.08933553 0.3086018 0.31533188 0.54230875 0.39065343 0.7669047 0.5209214
0.6148672 0.43595168 0.7258153 0.4137448 0.22091487 0.41629186 0.14363919 0.3307862
0.5381926 0.8275993 0.37434003 0.5004072 0.72114944 0.41085878 0.57118404 0.5378901
0.6825607 0.11839151 0.7724719 0.6112553 0.60593206 0.20862618 0.7232589 0.413115
0.672784 0.4154276 0.61865205 0.7488852 0.80463 0.30597356 0.31784993 0.5641695
0.66388285 0.85727155 0.6757951 0.67994446 1.2847544 0.29749992 0.38760823 0.8247183
1.0047596 0.61821556 0.87708193 0.14154783 1.0289781 0.65722066 0.8625295 0.6096903

transformer.norm.bias f4 [1024]
00000000: adde 933c b060 a0bd 7234 c23d c2de 10be
00000010: e976 eabd 50b1 05be b6ba a13e 7158 743e
00000020: ab10 3ebd 661a af3e b4ee 873e bbaa ea3d
00000030: 022c bd3d 3542 4b3e e089 943c a4e4 73be
00000040: 49a2 0c3e 53b7 663e 5634 33be 9af2 9b3c
00000050: bb21 9cbc 5750 c8bd 6337 23be 8c99 5b3d
00000060: 243e 953d 18e1 9cbd 08a5 bfbc c4d9 69bb
00000070: 59dc 71be 8218 9fbd 42b8 b13d 93fa 2d3e
00000080: e57d 8c3e b0dc 12be 026a a7bd e6fb a53d
00000090: 9aa4 3e3e 29aa 25be 0a1b 383e 8d3e 0abd
000000a0: 2aaf 38be c3c7 793e 272d 4bbc cf6b 90bd
000000b0: 5d9d b73c b002 7a3e 61fd 81be 84db 7fbc
000000c0: 8037 9cbe 16ce 1c3c 15bb 6ebd f8df e73d
000000d0: e3f1 96be a8bf 02bd b3d0 263d 8e28 283e
000000e0: 46b0 d83d 85aa 4ebd da8c a4bb b201 f7bd
000000f0: 1d36 74be d55b ef3c 0875 febd b03f 6b3e
00000100: 3e21 01be 7471 dc3c 0f03 cebd caa2 11bb
00000110: 24bd 173e 1b98 163e 83ff 8dbc 64c5 4abe
00000120: 1bd5 03bd d1d1 b4be 3af3 453e d644 2fbd
00000130: 0c0b b0bd 0932 303d 1644 94be 9a2f 393e
00000140: d4d8 50bb b4d9 8ebc 6aef e23d 3f61 a23e
00000150: c625 563c c3b2 133e 17d7 efbc ffd6 2ebe
00000160: f866 9dbd 0757 333e e5b9 fb3d 9038 e63c
00000170: fdaf b1bd 82d8 0c3e 83fe 7f3d cdd0 a43c
00000180: 5af9 9fbe fdb2 8f3e e7e1 693e 4019 dcbd
00000190: 0aa1 febd 025d 813d f396 afbd f2f3 56be
000001a0: b21e bfbe aaab 2e3e f406 36bd 8aff bcbd
000001b0: 6cfc 483e 5dad 153e 65c0 5bbe c459 773d
000001c0: fc2b 3ebe c9b7 673d 59b6 14be ad7e 803d
000001d0: ef38 2d3e 446e c6bd edb9 35bd c65f 33be
000001e0: 6c96 b03c 849b 9d3e 6f5c 49bd 5c61 013e
000001f0: cde7 03be a611 03bb 0918 d53e 2a3d 873e
00000200: 8f20 e53d afed 0f3e 3a64 463d 3172 da3d
00000210: 556a d43d e5ed 31bc 5a54 8cbd 8cc0 76be
00000220: e9cb 3a3e 9c00 3a3e eba0 dbbd d636 253d
00000230: 60e2 883e 09e2 8b3e 339d 4bbe adbd 15be
00000240: 12cc 0dbe c345 74bd 35da 16bc 1ec8 543e
00000250: 7013 c1bd 15b2 193d 2d62 22be 08a3 5e3e
00000260: a441 383d ceeb a7be ef8e 38be 3672 9fbd
00000270: 69c0 7b3e 8ebb 7bbe 53a8 09bc dc08 c73d
00000280: a60d 8abd 77c8 45bd d27b 59bc 2ac6 b5bd
00000290: 4fd2 99be be45 8e3b eac4 c93d f2ca 0e3e
000002a0: 3a25 3b3e 3efc f03d 49a0 f4bc eef8 653d
000002b0: 357e bebc bf9c 533d 78f6 95bd 803b f53b
000002c0: 3d8e 383e 09b9 6f3d 7c72 983d ee6c ef3d
000002d0: 50e5 4e3e 7e35 b13d 6173 c0bd d035 81be
000002e0: cbb1 633e d21b c2bd 34f4 393e 9f42 353e
000002f0: f79e 0f3e bb3c 863d 06cb 523d 24ee 37bb
00000300: 6fab 96bc 2e5a b53d 7cd3 a33d 36dc 45be
00000310: ad2c be3d 643e 8ebd 234f 9a3d 14b5 ad3d
00000320: f76c b63c 23a9 813d 4531 aebd 32c1 debd
00000330: 0cfa 2fbe bb60 ce3d 2da2 7fbe e4e8 57be
00000340: 435d 67bc 78c2 dc3d 3b3f 243e 4c64 0dbe
00000350: 7b2d 34be 3a28 37be ade3 b23d 2bdb bb3d
00000360: e0e8 53be d8b7 c9be 5285 dbbd d623 6dbc
00000370: 7338 92bc 2850 40be 8968 e6bd 9ad5 f0bd
00000380: 488c c73c 46c1 053e 93f7 013e b411 c63c
00000390: 9335 67be 6d38 37be 736e 65be 57aa 95bc
000003a0: 35fd 62be 8cae 53be 0d14 8e3d 3bba a43d
000003b0: 206d 25bc 78c1 75be 4b09 8c3c c534 713e
000003c0: 0814 883d 0cbc 653e 6d64 91be 5db2 85be
000003d0: 53cb 363d 4d89 34bd 5cc2 853c fb6d 093e
000003e0: 9c7f 163e 5b79 f03e bf10 2ebe 8b6a 823e
000003f0: 508b 58be a666 8dbe 43e5 8abe 7486 22be
0.018050516 -0.07830942 0.094826594 -0.14147475 -0.114484616 -0.1305592 0.31587762 0.23861863
-0.046402615 0.34199828 0.26549304 0.114583455 0.092369094 0.19849475 0.01813215 -0.23817688
0.13733782 0.2253087 -0.17500433 0.01903658 -0.019059053 -0.097809486 -0.15939097 0.05361323
0.07287243 -0.07660121 -0.023394123 -0.0035682777 -0.23619212 -0.07768346 0.086777225 0.16990118
0.274398 -0.14341998 -0.08174516 0.081046864 0.18617478 -0.16178192 0.17979065 -0.03375106
-0.1803557 0.2439261 -0.012400902 -0.07051813 0.022413904 0.24415088 -0.25388625 -0.015616301
-0.30511093 0.009570619 -0.058283884 0.113220155 -0.2948142 -0.03192106 0.040726375 0.1642172
0.105804965 -0.05045559 -0.0050216736 -0.1206087 -0.23848768 0.029218594 -0.12424666 0.22973514
-0.12610337 0.026909567 -0.10059177 -0.0022222274 0.14818245 0.14706461 -0.017333752 -0.19801861
-0.032185655 -0.35316327 0.19331065 -0.042790256 -0.08595857 0.043016467 -0.28958195 0.18084565
-0.003186752 -0.017437793 0.11080821 0.31714818 0.013070529 0.14423661 -0.029277368 -0.17074202
-0.07685655 0.17513667 0.12291316 0.028103143 -0.08676145 0.13754466 0.06249858 0.020119095
-0.31244928 0.28066245 0.22840081 -0.107470036 -0.124330595 0.06316568 -0.08573713 -0.20991495
-0.37328106 0.17057672 -0.044440225 -0.09228428 0.19627541 0.14616914 -0.21460111 0.06038834
-0.18571466 0.056571756 -0.14522685 0.062741615 0.1691625 -0.09689 -0.044366766 -0.17517003
0.021556102 0.30782712 -0.049160417 0.12634796 -0.12881394 -0.0019999533 0.416199 0.26413852
0.11187851 0.14055513 0.048435427 0.106663115 0.10371844 -0.010859941 -0.06852026 -0.24096888
0.18241848 0.18164295 -0.10724052 0.0403355 0.2673521 0.2732089 -0.19884185 -0.14623137
-0.13847378 -0.059636842 -0.009207298 0.20779464 -0.094275355 0.037523348 -0.15857764 0.21741879
0.044984475 -0.32797092 -0.18023275 -0.07785456 0.24585117 -0.24583265 -0.008401948 0.09718487
-0.067408845 -0.04828688 -0.01327415 -0.088756874 -0.30043265 0.00434181 0.098520115 0.13944605
0.1827592 0.117668614 -0.029861586 0.0561456 -0.02325354 0.051663157 -0.07322401 0.0074838996
0.1802301 0.058526073 0.07443711 0.116906986 0.20204663 0.08652781 -0.09397007 -0.25236368
0.22235791 -0.094779626 0.18159562 0.17701195 0.14025484 0.06554552 0.05146315 -0.0028065527
-0.018392293 0.08855091 0.07999322 -0.19322285 0.09285865 -0.06945494 0.075346254 0.084818035
0.022268755 0.063310884 -0.08505491 -0.10876693 -0.17185229 0.100770436 -0.24964209 -0.21084934
-0.014121356 0.107792795 0.16039746 -0.13807791 -0.17595474 -0.17886439 0.08734832 0.09172662
-0.20694304 -0.39398074 -0.10718788 -0.014473876 -0.017849183 -0.18780577 -0.11250407 -0.11759491
0.024358884 0.13062009 0.12692098 0.024178363 -0.2257903 -0.17892618 -0.22405414 -0.0182697
-0.22166903 -0.20672053 0.06937418 0.08043333 -0.010096818 -0.23999584 0.017094275 0.23555286
0.06644446 0.22435015 -0.2839693 -0.26112643 0.0446275 -0.044076253 0.01632803 0.1342086
0.14697117 0.46967587 -0.16998576 0.2547191 -0.21146894 -0.27617377 -0.27128038 -0.15871602

transformer.norm.running_mean f4 [1024]
00000000: 1ef3 55bb dfaa 59bb 92dc 64bc d793 323b
00000010: 6482 103c 2110 a0ba cff7 fdb9 0a21 8f3c
00000020: 6ee2 d73b 0c89 98bb 840e 063b 97d1 84bb
00000030: 9195 45b9 501d 973b c074 c7ba e131 1fbb
00000040: 9be7 a03b fc8b 193c 03c1 64ba 94ad b2bb
00000050: 2e48 a73a 48b7 74bb c423 503b aacf d73b
00000060: 7d56 2dbc 1c89 7bba 3a6f 0f3c cdc3 8abb
00000070: 8af0 643c 111e 1a3b 8da4 17bc 2f27 9cbc
00000080: 1c08 cc3a d161 fbbb 59d8 3f3b ae47 9ebc
00000090: 7c47 913b ef95 fc3b c998 d1b9 5946 9e3c
000000a0: fd79 503a 1f84 6a3a daa8 8a3a 7155 acba
000000b0: 5fbf dd3b 9aa4 123b fce7 f93b 60ba 1abc
000000c0: 5bcb 623c d514 dcba b3df 43b9 ed5c 403b
000000d0: 7ef8 e73b f70d 0dbb a0b8 85b9 5b56 2abc
000000e0: 61c2 2a3c ade5 823b 84f1 e53b 470c dd3b
000000f0: 894a d9bb 90d8 d93b 4b79 3d3b da32 3e3b
00000100: 8db3 e73b cabb 6f39 1dc6 15ba dd76 88bb
00000110: d916 ba3b a48d 04bb 99fb 233c d889 a2bb
00000120: 5faa 12ba fb94 ff3b baee c5bb 0300 86bb
00000130: b402 aebb 4fe1 0bbc 8083 353c 2384 e63a
00000140: 09f7 93bb 9207 a33a f7b9 bb39 6e48 f1bb
00000150: e038 b7bb 3045 f6bb 3244 833b 2540 2838
00000160: e9bd 8dbb b000 af3b 6d54 ffb8 19df 90bb
00000170: 85a1 ff3a 3b0d 0c3c 3e86 69bb b3c5 a1bb
00000180: e90e 993b bc04 dd3b 4c45 e2bb 0a35 2f3c
00000190: 80bf 9d3b d714 433b aa17 f3ba 08db 273c
000001a0: c512 293b 0ac9 363c 1e2c a737 cab3 553b
000001b0: eeb0 03bc f8a5 c8ba a865 1dbc 875d a8bb
000001c0: fc2d 14bb 96d9 a5bb 8ecc 8b38 4063 9fbb
000001d0: 84f9 343b 782e 053c 5583 b73b fa73 693c
000001e0: e7ec 973b e083 413c d9a4 ae3a e1bd b8ba
000001f0: 8c79 003c a636 c4bb a796 13bc 12b4 a1bc
00000200: b949 1bbc 097d c9ba 6d6b c3bb 6947 9ab9
00000210: 3c0e 373b 5872 b23a bcd7 343b c8eb 133b
00000220: 9f97 cf3a 2d5d a03a 662c c937 e3b2 deba
00000230: d779 28bb 9093 983b 588e 663b 4ea2 2fbb
00000240: 8e10 5e3b 0a92 fe3a 0ece 6fbc e929 a53b
00000250: 881e ed3b e314 103a 82c7 183b 4a89 26bc
00000260: 8e71 45b9 c8a3 563c 7e54 22bc f2fb 9d3b
00000270: caa0 203c 7340 acba 7535 95bb 1e84 033c
00000280: abe7 f43b f8eb f4ba 7848 2abc 542f 74bb
00000290: 9fe7 813b 7a7e 87bc 0984 c0ba cef9 413b
000002a0: 951d 533c 1e74 3fbb d684 68ba acc1 89ba
000002b0: 8a55 d8ba f56f d83a 8893 893a 7acf 89bb
000002c0: e6fd 7abc 6aab 88bb 2467 2b3c 2d7c a83a
000002d0: dc17 a93b 9568 243a dc5f edbb 5868 d8b9
000002e0: 9596 aa3b 3471 8bbc 92e4 283b d350 373b
000002f0: 46fb 04bc 910e bbbb 8bc8 53bc 3f6e 1d3b
00000300: df3a 19bc c0c6 9cbb bd2f 76b9 9619 62bc
00000310: b85e 943a b176 d4ba b4cb a73b b5f9 32ba
00000320: 21a8 113b f8fc 2db9 3a12 7c39 3c67 8a3b
00000330: c069 93ba 3c9f a23a 0a56 ab3c 44cf 083b
00000340: cc78 db3b 8725 40bb b1c0 9e39 9488 37bc
00000350: dda2 7939 5aa7 d23b 6251 ea39 eaa5 9cb8
00000360: d362 993a 80ca 533b 015f 5a3c ccf0 7c3b
00000370: 63aa 6b3c e104 86ba da43 e53b d31c 853a
00000380: 02ba 87bb 587d f03a b864 393c 6f7f 22bc
00000390: b0ff f13a 70dd a2bb 2776 c13b a1a3 d4bb
000003a0: b017 113c 8a39 c63b aeb1 023c 8851 913b
000003b0: 5b14 193c a7d8 b2bb f073 08b9 8b2f a33b
000003c0: 5bbb a83b b1e8 b9bc 52b0 80bb e530 87bb
000003d0: 4a63 7abb 3bfa 9fb9 b9ce 863b 977f 9c3c
000003e0: fe6f 4bbb da77 5dbc 35f1 48bc fe1e 7f3b
000003f0: 2185 123c 1ce4 4aba 8d5b 623b c5fb 79bb
-0.003264613 -0.003321342 -0.013968604 0.0027248764 0.00882015 -0.0012211838 -0.00048440552 0.017471809
0.006588272 -0.004655009 0.002045543 -0.0040533054 -0.00018843102 0.0046116486 -0.0015217289 -0.0024291205
0.004910422 0.009371754 -0.0008726271 -0.005452821 0.00127626 -0.003734069 0.00317596 0.006586035
-0.010579702 -0.0009595321 0.008754546 -0.004234767 0.013973365 0.0023516456 -0.009255541 -0.019061653
0.0015566382 -0.0076715727 0.002927324 -0.019321289 0.0044335704 0.007708303 -0.0003997742 0.019320654
0.0007952748 0.0008946079 0.0010578886 -0.0013148022 0.006767198 0.0022375942 0.0076265316 -0.009443849
0.013842429 -0.0016790876 -0.00018679984 0.0029352263 0.007079183 -0.0021523216 -0.00025505293 -0.010396565
0.01042232 0.0039946646 0.0070173163 0.0067458483 -0.0066311997 0.0066481307 0.0028911408 0.002902201
0.0070709647 0.00022862773 -0.000571342 -0.00416456 0.005678993 -0.0020226026 0.010008716 -0.00496028
-0.0005594845 0.0077997423 -0.0060404213 -0.004089357 -0.005310381 -0.0085376045 0.011078715 0.0017586987
-0.004515533 0.0012438169 0.00035805974 -0.0073633706 -0.005591497 -0.007515572 0.0040059322 4.011406e-05
-0.0043256176 0.005340658 -0.00012175073 -0.0044211266 0.0019503093 0.008548076 -0.0035632993 -0.0049368977
0.004670967 0.006744949 -0.0069052335 0.010693798 0.0048140883 0.002976706 -0.0018546481 0.010245092
0.002579854 0.01115633 1.9928495e-05 0.0032608383 -0.008037789 -0.0015308252 -0.009606756 -0.0051381025
-0.0022610417 -0.0050613387 6.666138e-05 -0.0048641264 0.0027614543 0.008128755 0.005600373 0.014248842
0.0046363953 0.011811227 0.0013324275 -0.0014094674 0.007841479 -0.00598796 -0.009008086 -0.019739185
-0.009478026 -0.0015372346 -0.005963734 -0.00029426374 0.0027932068 0.0013614399 0.0027594408 0.0022570956
0.0015838033 0.00122348 2.3981742e-05 -0.0016990568 -0.0025707388 0.0046562627 0.0035180058 -0.0026799622
0.003388438 0.0019422185 -0.01463653 0.0050403965 0.0072363056 0.00054962764 0.0023312275 -0.010164568
-0.00018829686 0.013100572 -0.00990784 0.004821294 0.00980396 -0.0013141766 -0.0045534917 0.008027105
0.007473906 -0.0018686047 -0.010393254 -0.0037259655 0.003964379 -0.0165398 -0.0014687787 0.0029598358
0.012885471 -0.0029213498 -0.0008869892 -0.0010509989 -0.0016504985 0.0016512858 0.0010496238 -0.0042056413
-0.015319323 -0.004170825 0.010461602 0.001285439 0.005160315 0.00062716875 -0.0072440933 -0.00041276473
0.005205939 -0.017021753 0.0025771004 0.002797176 -0.008116549 -0.0057085236 -0.012926231 0.002402201
-0.009352415 -0.004784435 -0.00023478172 -0.0138000455 0.0011319732 -0.0016209689 0.005120719 -0.00068273704
0.0022225457 -0.00016592804 0.00024039383 0.0042237323 -0.0011246726 0.0012407075 0.02091505 0.0020875493
0.0066977497 -0.0029319243 0.00030279675 -0.011201996 0.00023807162 0.0064286413 0.00044692593 -7.4695636e-05
0.0011702426 0.0032316744 0.013328315 0.0038595675 0.014383885 -0.0010224843 0.006996614 0.0010155685
-0.004142047 0.0018347902 0.011315517 -0.009918078 0.0018463042 -0.004970245 0.0059039774 -0.0064892326
0.008855745 0.0060493397 0.007976932 0.004434768 0.009343232 -0.005457956 -0.00013013161 0.004980033
0.0051492876 -0.022693964 -0.003927269 -0.0041257017 -0.0038206154 -0.0003051328 0.0041139987 0.019103808
-0.0031042094 -0.013517344 -0.0122645395 0.0038928385 0.008942873 -0.00077396794 0.0034539432 -0.003814445

transformer.norm.running_var f4 [1024]
00000000: 27ee 3c3e 09c2 7f3e b896 b23e c8c3 253e
00000010: 0810 593e eb43 ee3d ddc6 c93e 9984 e33e
00000020: 7ac0 6f3e 3c24 d43e 39ef 103f 1ed5 9a3e
00000030: 7928 da3e d826 b83e 3e00 ab3e ccb0 9a3e
00000040: 2d69 933e b298 5e3f 8a4f 073e 1e88 9d3d
00000050: bc41 773e dd63 463e 24b0 833e 8d2f 763e
00000060: fc35 473e 184a 1b3e d07f 0a3f 6906 393e
00000070: 3877 c73e 51c5 a03e 5243 5f3e 305b 143f
00000080: fda4 5a3e 4066 3e3e b348 143e 5905 463f
00000090: f1c9 013f b319 933e f6bb 803e 7663 053f
000000a0: ddbe 033f 1530 d83e 41fd a13d 8f73 4b3e
000000b0: d9ed ce3e 3ead b03e 8a5d 3c3e e783 4a3e
000000c0: c919 103f 1847 763e 5be5 aa3e 2270 b33e
000000d0: c0a0 d53d 47a3 7a3e acf4 4b3c 1d2d 5e3e
000000e0: 5f0b ac3e 0147 283e 9bbb 903e 666d c53e
000000f0: 1a8c d63e 825b 973e e384 c03e 46b8 a03e
00000100: 2371 0a3e 5c60 0e3f 6c87 c93d 68b4 603e
00000110: 8faf 883e 328c 1c3e c518 d73e 9942 053f
00000120: dfe7 f23e e413 383e 081f d93e abd4 553e
00000130: 3a60 853e 95df 413f 93f0 ab3e 3281 473e
00000140: 1b9b cc3e e430 453e 6761 5f3e 5ed1 583e
00000150: 51ed 483e 9bb5 013f bd4d f53d ce98 313e
00000160: ed08 253f bb39 6e3e af6c 633e 9f1d cc3e
00000170: 2bca 993e 21b6 6b3e 1d71 673e eac8 9f3d
00000180: bed5 903d 2f3c d43e 4ea4 c93e c8de ea3e
00000190: 56b1 613e 975f 033f 3da4 7d3d cd5c 8c3e
000001a0: fd11 303f a1d7 c03e 074d d53c c89e 993e
000001b0: ed24 ee3e 4d40 5d3e 848d c53e 2bb9 c13e
000001c0: d901 793e 3f16 0b3e d8f2 493e b22c ab3e
000001d0: 7c14 cc3e a578 953c 517f 913e d3f7 6a3f
000001e0: 7d7f 743f 1315 113f d665 b53c f261 493e
000001f0: fb6b ad3e f86f 683d 49fd a23d 2637 283f
00000200: 4a62 533e e3e3 be3e a21c 533e 820e 7d3e
00000210: a897 de3e 625b 873e 86cc e93e 89d4 3e3e
00000220: b37b e73c f02d c33e 8157 493d f606 4e3e
00000230: 6dc4 823e f141 1c3e e121 a13e 0436 173e
00000240: 4db8 a63e 6180 cd3e 969b 673e d4f6 513e
00000250: e666 523e aa80 f03c 4202 083f ad34 263f
00000260: f7be 423f d686 c83d a537 ce3e d720 dc3d
00000270: d7ba 2a3f 0551 253f 5743 0d3e c3a0 073f
00000280: 56cb a23e e7f1 293c 9a6a a03e 48cb 6f3e
00000290: 45ef af3e 2fd0 fd3e 4dac 433d cabe 363e
000002a0: 1ca4 0e3f 61f8 ea3e 1c5c 233d 0e6a 403e
000002b0: 1e03 6a3e 1f5f 563e 2c11 c03d 02fc a43e
000002c0: 23ad 853e 30c8 0a3f 0eaa c63e 633f a43e
000002d0: 8625 953e b202 7f3c 8c0f db3e c88d 933e
000002e0: 17c6 a13e ffac 333f f462 c03e c829 f13e
000002f0: 39c1 cb3e fa36 0e3f 927f 153f 7548 c53e
00000300: e4ef 453f 1c2c 323e 6b7a 133f 0dae a13e
00000310: bca3 093f a6a9 a13e 0387 e03e 299e a53e
00000320: 7391 313e 9d44 e73c edd8 183e e137 e83d
00000330: 5008 a93e 59ef 0c3e 2460 003f c986 8a3e
00000340: 004a b43e 31e3 3c3e 22b1 d43e c17c 713e
00000350: 7dde e33d 8de4 4e3e 8f9b 913d 44ae 713e
00000360: 01b8 aa3e 641a b63e 7d25 d83d 2b34 a23e
00000370: 9cd4 be3e 7cd7 5a3e 9ab7 963e 26cd b13e
00000380: f79f 9b3e 41aa 843d 3649 ef3e 6932 a33e
00000390: 4b42 c43e 2751 003e d030 e63e 6a39 6c3e
000003a0: 02b7 d23e af5a 373e ead4 953e 8096 ec3e
000003b0: 4007 c93e 8562 523e 6030 2e3e 43ff cd3e
000003c0: e2b5 f83e 5e73 f93e 8153 053f 9b81 e63e
000003d0: f53c 843f b059 473e 3e02 803e fdc2 213f
000003e0: aaec 353f 9918 963e 5918 103f 6ed7 bc3d
000003f0: 069f 343f c52f d53e 61b8 0b3f c48a ac3e
0.18450223 0.24976362 0.34880614 0.16187966 0.21197522 0.11634048 0.39409533 0.444371
0.23413268 0.41433895 0.56615025 0.3024072 0.42609003 0.35967135 0.33398622 0.3021301
0.2879118 0.86951745 0.13213935 0.07691978 0.2414617 0.19374032 0.25720322 0.24041577
0.19454187 0.15164983 0.54101276 0.18068852 0.38958144 0.3140054 0.21803024 0.5795164
0.21352 0.18593693 0.14480858 0.7735191 0.50698763 0.28730544 0.25143403 0.5210489
0.5146311 0.42224184 0.079096325 0.19868301 0.40415838 0.34507173 0.18395057 0.19776879
0.56289345 0.24050558 0.3337811 0.35046488 0.10431051 0.24476348 0.012448471 0.21696897
0.33602425 0.16433336 0.28268132 0.38560027 0.41903764 0.29562002 0.37601385 0.3139059
0.1351972 0.5561578 0.09840283 0.2194382 0.2669644 0.15287855 0.42011085 0.52054745
0.4744253 0.17976338 0.42406487 0.20881908 0.26049978 0.75731784 0.3358198 0.19482878
0.39962086 0.19256932 0.218145 0.21173617 0.19621779 0.5066773 0.11977718 0.17343447
0.64466745 0.2326421 0.22209428 0.3986635 0.30037054 0.23018695 0.22601743 0.07801993
0.07072018 0.41452166 0.39383167 0.45873094 0.22040305 0.51317734 0.061924208 0.2741455
0.6877745 0.37664512 0.026037706 0.30003953 0.46512547 0.2160656 0.3858453 0.37836584
0.24317111 0.13582705 0.19721544 0.33432537 0.39859378 0.018246004 0.28417447 0.917844
0.9550703 0.5667278 0.022143286 0.1966627 0.33871445 0.056747407 0.079584666 0.6570915
0.20642963 0.3728324 0.20616391 0.24712566 0.4347508 0.26436907 0.45663851 0.18635763
0.028257227 0.38120985 0.049155716 0.20119843 0.25540486 0.1525953 0.3147116 0.14766699
0.32562485 0.40137008 0.22617945 0.20504314 0.20547065 0.029358227 0.53128445 0.64924127
0.7607264 0.09791343 0.40276828 0.10748451 0.66691345 0.6457675 0.1379522 0.5297968
0.31795758 0.010372615 0.3133133 0.2341739 0.34362236 0.49572894 0.04777174 0.17846218
0.5571916 0.45892623 0.039882764 0.18790457 0.22852752 0.20934723 0.09378275 0.32223517
0.26108655 0.5421171 0.38801616 0.3207961 0.2913019 0.015564607 0.427853 0.28819108
0.31596443 0.70185846 0.37575495 0.4710219 0.39795855 0.5555264 0.5839778 0.38531843
0.7731917 0.17399639 0.5760867 0.31578103 0.53765464 0.31574744 0.43853006 0.3234723
0.1734064 0.02823096 0.149265 0.11338783 0.33014154 0.13763179 0.501467 0.27055958
0.35212708 0.18446042 0.41541392 0.23582746 0.11126421 0.20204373 0.071097486 0.23601633
0.3334351 0.3556701 0.10554025 0.31680426 0.37271583 0.21371263 0.29436952 0.34726828
0.3039548 0.06477786 0.46735543 0.31874397 0.38331828 0.12530957 0.44959116 0.23068777
0.4115525 0.17905687 0.29264003 0.46208572 0.39263344 0.20545395 0.17010641 0.40233812
0.48576266 0.4872083 0.5208054 0.45020756 1.0331103 0.19467807 0.2500171 0.63188154
0.71064246 0.29315642 0.5628715 0.092207775 0.7055515 0.41638008 0.54578215 0.3369962
