xls_r_sqa/models/sqa/xls-r-300m/model_300m_lay21_subset.pt (torch, 384909 bytes, 67 tensors)

norm_input.weight f4 [1024]
0.5448345 0.5407947 0.33433154 0.44301638 0.60984784 0.52228177 0.43937895 0.619351
0.6686169 0.3005435 0.7202827 0.6338306 0.47834855 0.6391576 0.45946136 0.31633785
0.5326891 0.48671466 0.54582036 0.3673048 0.30829376 0.5841636 0.4789201 0.5443578
0.50185937 0.78596115 0.7824191 0.26498482 0.51886 0.17203273 0.5978098 0.707033
0.6418189 0.5590798 0.46600395 0.72480446 0.6781303 0.37849838 0.27796662 0.45014223
0.77933115 0.9299763 0.8148219 0.3068133 0.096995294 0.81175196 0.4432351 0.5622768
0.6674459 0.36216298 0.67345476 0.57534325 -0.083419934 0.6022576 0.54492116 0.3394171
0.56505513 0.4149388 0.6053349 0.7268333 0.515424 0.4494268 0.57297814 0.86815006
0.6662611 0.72539073 -0.101901166 0.12983198 0.25623256 0.17501342 0.5591828 0.6253
0.44920173 0.2446299 0.59948653 0.723675 0.70895153 0.60127896 0.57182086 0.57828593
0.59030324 0.62181616 0.38570407 0.47742063 0.86132145 0.44974378 0.2874981 0.69078326
0.66102564 0.27449375 0.44786114 0.5026111 0.6375314 0.86396194 0.764238 0.6028375
0.6124982 0.43392092 0.3043126 0.5368155 0.4424513 0.6987184 0.5392432 0.41363522
0.45549917 0.3936137 0.1329656 0.6766364 0.48138168 0.3513947 0.64203006 0.57819504
0.447891 0.49720928 0.8107134 0.49730435 0.3624189 0.43260604 0.42888865 0.4351571
0.6106944 0.60121363 0.037167963 0.40661263 0.2730077 0.48565266 0.3310882 0.29660687
0.595529 0.74160874 0.45310593 0.52291113 0.36646974 0.48377734 0.3958116 0.59453315
0.61628145 0.5763756 0.6102793 0.24026994 0.34863308 0.58141136 0.33641925 0.62485695
0.50911516 0.79747885 0.5693649 0.35781226 0.19369997 0.57903916 0.3204254 0.25526315
0.7648524 0.6297035 0.21045882 0.55903864 0.77070576 0.18790874 0.7884413 0.51003486
0.3776703 0.94866174 0.49831492 0.47682175 0.61545557 -0.13268158 0.49036315 0.5985561
0.29872724 0.33568713 0.9027635 0.4396593 -0.06521497 0.68468964 0.47204763 0.19722748
0.62207896 -0.0578551 0.66572374 0.82957065 0.61104774 0.39634794 0.41692156 0.6373732
0.095218346 0.6887289 0.43600783 0.6140658 0.20372544 0.11110662 0.13421012 0.58457136
0.3842493 0.62401927 0.470421 0.5663608 0.7902125 0.59129196 0.46259823 0.59476066
0.91766274 0.6281718 0.7251944 0.48757383 0.85800195 0.7869168 0.43777755 0.3330816
0.6705764 0.707607 0.59498966 0.6609419 0.6401346 0.438794 0.49758798 0.5062434
0.5647086 0.48785684 0.55148745 0.77611864 0.6925594 0.53297406 0.65186703 0.6054325
0.6196061 0.7075328 0.026286181 0.5932551 0.37076887 0.7463551 0.82262504 0.32411683
0.43493944 0.59524274 0.6251041 0.46449646 0.33123255 0.78627753 0.59956205 0.37692052
0.47170758 0.5530288 0.7415283 0.5002735 0.18583275 0.73343235 0.654972 0.6109812
0.22895084 0.61958903 0.5205115 0.5406836 0.64996254 0.83311826 0.5862748 0.56642807
00000000: 467a 0b3f 8571 0a3f 812d ab3e 0bd3 e23e
00000010: fd1e 1c3f 42b4 053f 47f6 e03e ca8d 1e3f
00000020: 7a2a 2b3f d6e0 993e 7264 383f b942 223f
00000030: 1aea f43e d59f 233f 853e eb3e 09f7 a13e
00000040: 505e 083f aa32 f93e e2ba 0b3f 600f bc3e
00000050: aed8 9d3e bf8b 153f 0435 f53e 085b 0b3f
00000060: db79 003f c034 493f 9e4c 483f 17ac 873e
00000070: 02d4 043f 5929 303e 100a 193f 1d00 353f
00000080: 3e4e 243f db1f 0f3f 1298 ee3e c98c 393f
00000090: f399 2d3f 8aca c13e a451 8e3e 0b79 e63e
000000a0: 3f82 473f ed12 6e3f 2b98 503f a216 9d3e
000000b0: 78a5 c63d face 4f3f b6ef e23e 5ff1 0f3f
000000c0: bcdd 2a3f 6d6d b93e 8867 2c3f b249 133f
000000d0: 12d8 aabd 8e2d 1a3f f47f 0b3f 14c8 ad3e
000000e0: 74a7 103f dc72 d43e 3af7 1a3f bf11 3a3f
000000f0: d4f2 033f 451b e63e b2ae 123f 153f 5e3f
00000100: 1690 2a3f 35b3 393f 8fb1 d0bd adf2 043e
00000110: ea30 833e b836 333e 9b26 0f3f a913 203f
00000120: c5fd e53e 4380 7a3e f377 193f c442 393f
00000130: d97d 353f 6bed 193f da62 123f 8c0a 143f
00000140: 1d1e 173f 582f 1f3f 017b c53e 7a70 f43e
00000150: 907f 5c3f d144 e63e f332 933e 2cd7 303f
00000160: fa38 293f 728a 8c3e 0e4e e53e 1fab 003f
00000170: 4235 233f 9c2c 5d3f 1aa5 433f 8f53 1a3f
00000180: afcc 1c3f e22a de3e dcce 9b3e be6c 093f
00000190: fa88 e23e 36df 323f d80b 0a3f ffc7 d33e
000001a0: 3037 e93e bc87 c93e 2228 083e 0b38 2d3f
000001b0: a977 f63e 02ea b33e 155c 243f 9704 143f
000001c0: f851 e53e 3792 fe3e ea8a 4f3f ad9e fe3e
000001d0: f88e b93e 8a7e dd3e 4b97 db3e e9cc de3e
000001e0: 7856 1c3f 23e9 193f 6f3d 183d 882f d03e
000001f0: aac7 8b3e 77a7 f83e 6484 a93e dbdc 973e
00000200: 9774 183f 12da 3d3f 80fd e73e 81dd 053f
00000210: eca1 bb3e aab1 f73e d1a7 ca3e 5333 183f
00000220: 9fc4 1d3f 5a8d 133f 443b 1c3f 5309 763e
00000230: 0980 b23e 60d7 143f 253f ac3e a0f6 1f3f
00000240: 5f55 023f 9327 4c3f e6c1 113f 2b33 b73e
00000250: 4959 463e e93b 143f cc0e a43e dab1 823e
00000260: 5ecd 433f 4034 213f 8482 573e 281d 0f3f
00000270: f94c 453f 266b 403e 4ad7 493f a591 023f
00000280: 005e c13e 7fdb 723f 2223 ff3e fb21 f43e
00000290: 7f8e 1d3f aedd 07be e110 fb3e f93a 193f
000002a0: c7f2 983e 2fdf ab3e 821b 673f 061b e13e
000002b0: 6d8f 85bd d247 2f3f 3ab0 f13e 00f6 493e
000002c0: 9140 1f3f 78f9 6cbd df6c 2a3f be5e 543f
000002d0: a06d 1c3f 1eee ca3e be76 d53e e42a 233f
000002e0: d601 c33d 8a50 303f 6b3c df3e 6b33 1d3f
000002f0: 679d 503e de8b e33d 616e 093e 78a6 153f
00000300: 53bc c43e babf 1f3f 05db f03e 05fd 103f
00000310: 5e4b 4a3f e95e 173f add9 ec3e 3c42 183f
00000320: f2eb 6a3f decf 203f 57a6 393f 47a3 f93e
00000330: 04a6 5b3f 6173 493f 6124 e03e ac89 aa3e
00000340: e5aa 2b3f bb25 353f 3e51 183f 7d33 293f
00000350: dcdf 233f 9ba9 e03e dac3 fe3e 2b99 013f
00000360: be90 103f 5fc8 f93e 482e 0d3f b6af 463f
00000370: 934b 313f fd70 083f c2e0 263f a0fd 1a3f
00000380: 819e 1e3f df20 353f 1e56 d73c 91df 173f
00000390: 6bd5 bd3e 2111 3f3f 8e97 523f a4f2 a53e
000003a0: 62b0 de3e d461 183f d306 203f 7bd2 ed3e
000003b0: 5097 a93e 7c49 493f e67c 193f bafb c03e
000003c0: a883 f13e 4c93 0d3f ccd4 3d3f ed11 003f
000003d0: f14a 3e3e 39c2 3b3f 3fac 273f 4469 1c3f
000003e0: 1772 6a3e 639d 1e3f 3e40 053f 3e6a 0a3f
000003f0: f263 263f 3d47 553f 1b16 163f 6e01 113f

norm_input.bias f4 [1024]
0.003738514 0.016659873 -0.0006009002 -0.0036401064 0.00057547167 0.0040811975 -0.0041549597 0.002284732
-0.0048783985 -9.038608e-05 0.00042503202 -0.0029893504 -0.003333938 0.0049517266 -0.007637933 0.0006510286
0.0010588105 0.003167802 0.00488562 0.0046790955 -0.0011018275 0.00095823826 -0.00022029383 -0.0041291215
-0.0039761458 -0.001959558 -0.0013736188 0.00062147604 -0.0020676446 -0.003066269 0.008577036 0.009143203
0.0017732482 0.009621712 -0.005934798 -0.005481432 0.0016060342 0.0043575745 0.004318457 -0.0024459972
0.0070749773 -0.013060441 -0.0004964439 0.0009209324 -0.0012312825 -9.093993e-05 0.0020161485 -0.012397992
0.0027197616 0.0021097998 0.00809919 -0.0022061397 -0.001134413 0.010623674 -0.008004548 0.0027041356
-0.002221113 0.0042069876 -0.0005698554 0.0013201836 -0.0020269875 -0.0012895253 0.0036771656 -0.013033422
-0.00011185439 -0.003636829 3.6082918e-05 -0.00044307846 -0.0016717887 -0.00017107789 0.0018387204 0.006979346
0.0019958483 2.8352904e-05 0.0009917426 0.0041505643 0.005814766 -0.008060189 0.0064894315 -0.0029158583
-0.00032091298 0.005522405 -0.0010128795 -0.0035033408 -0.021882216 -0.0023183627 0.0038466738 0.005756806
0.010458615 -0.0004242961 0.0019903048 -0.0015184741 0.0017819453 0.02016574 0.0019793068 -0.009054775
0.0023354874 -0.0020549805 0.00019821746 -0.00035055567 0.0016760167 0.005709204 0.0025369003 0.0034823355
-0.0010058368 -0.0005447683 1.1879028e-05 -0.0037785596 -0.0010546627 -0.002284256 0.00023255582 0.00465796
0.00062211865 -0.0036786774 0.0107164355 -0.00084055826 0.002387801 0.00425643 0.005781024 -0.0005673181
-0.000992531 0.0060926755 -7.60497e-05 0.0012202589 0.0022330808 0.001644822 -0.0004895245 -0.0045732656
-0.0041870074 -0.003935723 0.00031178838 0.0022843296 -0.0053071105 -0.002235566 0.000690047 -0.004802015
-0.008682909 0.0044888556 -0.0038915332 0.0019407737 0.0017329943 0.017808432 -0.0050601293 0.0054810965
0.005038656 -0.002841682 -0.018409131 0.001915502 -0.0016918904 -0.0063876426 -0.0037641784 0.00089452276
-0.00012657292 0.006297735 -0.0014579154 -0.0035122114 0.0022415472 -0.0025652808 0.006619339 -0.00047784517
-0.0007591878 0.002598903 0.006468319 -0.0064379955 -0.0037941816 -0.00031997636 0.00085190305 0.0055307206
-0.0035891195 -0.0006600722 -0.0028885119 -0.0066476823 -0.0011429248 -0.0037425032 0.0014755585 -0.0003129942
-0.008907583 -0.0021202732 -0.0037042608 0.014713624 -0.00049107085 -0.00060768233 -0.00018886729 0.00052238716
-0.0040795757 -0.0017553426 -0.0023348457 -0.00371602 -0.0005635441 -0.0005531264 0.0012477888 -0.004471594
-0.004917853 -0.0020753315 0.0018482738 -0.003857931 4.420843e-05 0.0038111783 -0.0015920966 0.0016474049
-0.0022079176 -0.007209625 0.0042257328 0.0024785867 0.009915654 -0.001098985 0.0014498445 -0.0066396026
0.0034045286 0.007358336 -0.0028616432 0.009104434 0.01264344 -0.0072167357 0.000681491 0.00951746
-0.0006608988 0.012618897 0.00042414656 0.0031418407 0.0047075287 0.0024456216 0.0057029007 -0.009250828
0.0015164427 -0.0073501235 1.823266e-05 0.0044216695 0.0033567308 0.0025872958 -0.016373904 0.0006555914
-0.007761953 0.0016188518 -0.0014609444 -0.0064790775 -0.00030823535 -0.013256252 -0.0008293761 -0.0028518895
-0.001146632 -0.006588282 0.0054148226 -0.002566925 -0.00074556394 -0.006300973 0.0024570918 -0.0027977806
-0.001593705 0.005905971 -0.001458411 0.0001869198 -0.0026919814 0.00023911578 0.0031432668 0.003999104
00000000: db01 753b 497a 883c bb85 1dba da8e 6ebb
00000010: 40db 163a 91bb 853b 5426 88bb 71bb 153b
00000020: f9da 9fbb a88d bdb8 d5d6 de39 fae8 43bb
00000030: 337e 5abb 1842 a23b a047 fabb caa9 2a3a
00000040: c9c7 8a3a e69a 4f3b 8d17 a03b 1953 993b
00000050: 326b 90ba 4832 7b3a adfe 66b9 954d 87bb
00000060: 544a 82bb ee6b 00bb 000b b4ba 8dea 223a
00000070: 5281 07bb 75f3 48bb b286 0c3c 5fcd 153c
00000080: 566c e83a 63a4 1d3c b278 c2bb 969d b3bb
00000090: 9181 d23a fcc9 8e3b d881 8d3b 064d 20bb
000000a0: 36d5 e73b 76fb 55bc c923 02ba ba6a 713a
000000b0: fc62 a1ba 01b7 beb8 5c21 043b f320 4bbc
000000c0: 073e 323b 9144 0a3b 77b2 043c e294 10bb
000000d0: 95b0 94ba eb0e 2e3c 8225 03bc de37 313b
000000e0: 1890 11bb c5da 893b 5962 15ba 030a ad3a
000000f0: 35d7 04bb 4a05 a9ba 9afc 703b 228a 55bc
00000100: 5e93 eab8 de57 6ebb bd57 1738 fc4c e8b9
00000110: ec1f dbba 5f63 33b9 3801 f13a ffb2 e43b
00000120: c7cc 023b 66d7 ed37 5cfd 813a 7501 883b
00000130: cb89 be3b e20e 04bc 4ca5 d43b fc17 3fbb
00000140: 3640 a8b9 4af5 b43b 99c2 84ba 4e98 65bb
00000150: 5542 b3bc acef 17bb 7a18 7c3b 97a3 bc3b
00000160: 9c5a 2b3c 0f74 deb9 c66f 023b 8907 c7ba
00000170: 2a90 e93a 9f32 a53c 42b7 013b 7b5a 14bc
00000180: fa0e 193b daac 06bb 98d8 4f39 c9ca b7b9
00000190: caad db3a 4614 bb3b 2042 263b e537 643b
000001a0: 48d6 83ba c8ce 0eba 094c 4737 b6a1 77bb
000001b0: 9c3c 8aba 75b3 15bb 3ada 7339 cda1 983b
000001c0: ad15 233a f715 71bb fd93 2f3c e958 5cba
000001d0: a77c 1c3b 8679 8b3b bf6e bd3b 13b8 14ba
000001e0: d017 82ba 11a5 c73b df7c 9fb8 18f1 9f3a
000001f0: e158 123b 1197 d73a 6f53 00ba 55db 95bb
00000200: 2a33 89bb 3df7 80bb 8777 a339 b1b4 153b
00000210: 45e7 adbb 9382 12bb 45e4 343a 395a 9dbb
00000220: c342 0ebc 4017 933b 1809 7fbb 8f61 fe3a
00000230: a425 e33a fde2 913c 71cf a5bb c59a b33b
00000240: 4f1b a53b 833b 3abb bfce 96bc 9511 fb3a
00000250: 6cc2 ddba 6e4f d1bb 6fb0 76bb 687e 6a3a
00000260: a9b8 04b9 3b5d ce3b 8617 bfba 212d 66bb
00000270: ece6 123b 451e 28bb 0ae7 d83b 4b87 fab9
00000280: 3b04 47ba 5b52 2a3b 31f4 d33b d2f5 d2bb
00000290: cea7 78bb 80c2 a7b9 3f52 5f3a 0c3b b53b
000002a0: 6f37 6bbb b208 2dba 304d 3dbb cdd4 d9bb
000002b0: 31ce 95ba c944 75bb 8767 c13a 5f19 a4b9
000002c0: 1cf1 11bc 48f4 0abb 2fc3 72bb 6911 713c
000002d0: 35bb 00ba df4c 1fba ad0a 46b9 cff0 083a
000002e0: f6ad 85bb 8613 e6ba 3604 19bb 7888 73bb
000002f0: ceba 13ba afff 10ba d88c a33a 7386 92bb
00000300: f125 a1bb 4902 08bb c741 f23a 57d5 7cbb
00000310: 716c 3938 f6c4 793b e6ad d0ba bced d73a
00000320: b6b2 10bb b83e ecbb 0478 8a3b c96f 223b
00000330: 4475 223c d10b 90ba b508 be3a 0691 d9bb
00000340: 831e 5f3b 321e f13b 688a 3bbb c42a 153c
00000350: 6e26 4f3c 5e7a ecbb 16a6 323a 1fef 1b3c
00000360: 2b40 2dba 7dbf 4e3c fd5f de39 57e7 4d3b
00000370: 9d41 9a3b b946 203b 66df ba3b c990 17bc
00000380: 60c3 c63a 4ed9 f0bb 57f2 9837 a7e3 903b
00000390: 99fc 5b3b 9f8f 293b 9122 86bc fedb 2b3a
000003a0: fb57 febb a72f d43a 297d bfba 714e d4bb
000003b0: a69a a1b9 c030 59bc 7d6a 59ba c4e6 3abb
000003c0: 964a 96ba 84e2 d7bb d36e b13b db39 28bb
000003d0: f371 43ba 6478 cebb 2907 213b f85a 37bb
000003e0: dee3 d0ba e086 c13b 2728 bfba e7ff 4339
000003f0: f46b 30bb 27bb 7a39 44ff 4d3b ea0a 833b

norm_input.running_mean f4 [1024]
1.1674821 -3.416873 1.9512182 0.9642304 3.6399903 -2.8432777 -1.0438157 1.892202
2.489369 -1.3252695 2.2229888 -0.5176142 5.815018 -1.3610166 2.4476817 1.5930701
1.4896692 -1.1676589 -2.862861 4.153575 -0.36287764 6.0431175 3.1885805 -0.10995386
-0.18658413 5.7787676 -1.646378 -2.8928585 -0.9523935 -1.213121 -2.4836566 -1.8129005
-0.7290735 0.38112167 5.3478317 -1.8501742 -1.795112 -2.6022115 -5.1132636 -2.6848905
-0.38748634 1.4807409 -2.0527313 -0.103698 1.0429661 3.9630053 3.755721 2.093623
4.694609 0.26223913 3.283188 0.04190268 0.94275427 4.4506326 2.550492 -6.193521
-3.477103 0.9202497 4.0839105 -0.8409797 -1.1401671 -1.9354821 -1.5189939 2.5568092
0.75205773 -1.2279401 1.5355703 3.1696167 -0.89500606 5.395265 -3.2430396 1.9358683
1.2150255 0.4596173 -0.50152314 2.4819934 5.0639954 3.3846767 -4.853671 0.52853215
2.837624 0.7852287 0.46604037 -0.3321179 3.2487276 -1.145497 1.027432 1.3231148
3.78878 -3.2670674 1.4232386 1.0567435 1.6439775 3.2592778 -0.38098118 1.2425107
-1.0749038 1.5952026 3.6296635 -0.20129208 2.797544 6.539536 0.87748665 0.6982978
1.5135725 1.0892462 -4.210498 -3.0329227 0.52143574 1.5943105 2.5683494 0.21907791
3.108437 0.08975458 1.6649013 -3.0745876 5.9267764 -0.2743721 1.5044272 4.327917
1.2363052 -0.03844923 2.1094232 -0.46504584 -1.5055047 -1.1497492 1.7602501 -0.69428676
0.3709197 1.0204438 4.1847453 0.42152292 1.5204394 3.5447137 -0.77729464 -2.8088925
2.8344927 2.2996554 -1.0275381 0.36590677 2.964567 0.41322735 0.76514536 1.8026087
0.30195084 -2.9984596 3.5989552 4.0706577 1.2606515 -0.70008606 3.5367024 -1.10126
2.4553306 1.9377865 -6.714558 1.9988043 2.4366882 -5.772107 0.7774881 -0.18877183
2.7469838 3.58284 0.06194245 2.3620832 6.399331 1.7311306 -2.1966836 0.97258866
3.7107027 0.7890624 -0.12115864 -1.4314727 2.3359473 -1.4246434 3.4951684 6.567812
0.084512256 -0.24098602 4.5804143 0.3019112 -0.8568686 -6.6262956 -4.8322144 0.67946243
0.3762605 1.6734514 -2.9762056 -2.084874 -0.48724806 1.4909914 -3.4596338 0.9249797
-0.53794813 4.8059564 5.0450206 2.7408655 3.1835418 -0.5654469 5.970274 -2.4320292
1.1356186 0.7913832 -2.873401 -1.5068107 -0.788223 -1.1324157 2.0301557 -0.054243904
2.251092 1.0678536 2.1537156 -0.28519976 5.237293 1.6700872 0.14872403 4.0118957
2.5659137 -2.5839696 -2.7689402 0.5416389 2.57381 -1.2992959 7.383985 -1.7903405
-0.3355858 -87.48089 0.7885279 3.7559626 3.6392548 1.1987478 -1.9369004 5.383707
2.6042798 -1.057236 2.5794215 2.407954 1.1550237 2.3345222 0.9508429 -1.3445936
0.2391341 3.7597513 1.4941419 -0.079074964 9.069094 -3.4280338 -1.0040442 -6.3056617
1.3541452 -0.604934 2.4685657 0.9131482 0.8353756 0.7489838 0.8611193 2.1967988
00000000: 0e70 953f 0cae 5ac0 85c1 f93f ced7 763f
00000010: 9af5 6840 43f8 35c0 c19b 85bf ad33 f23f
00000020: d251 1f40 6ea2 a9bf 7345 0e40 5d82 04bf
00000030: a114 ba40 cb35 aebf d1a6 1c40 b9e9 cb3f
00000040: 7bad be3f d975 95bf 1d39 37c0 16ea 8440
00000050: 19cb b9be 3861 c140 b411 4c40 7d2f e1bd
00000060: e90f 3fbe aaeb b840 84bc d2bf 9824 39c0
00000070: 0fd0 73bf 8d47 9bbf 3bf4 1ec0 200d e8bf
00000080: 90a4 3abf 6122 c33e 7021 ab40 82d2 ecbf
00000090: 3bc6 e5bf a28a 26c0 db9f a3c0 3fd5 2bc0
000000a0: 9c64 c6be eb88 bd3f f35f 03c0 9e5f d4bd
000000b0: ea7f 853f e1a1 7d40 bc5d 7040 ebfd 0540
000000c0: 3d3a 9640 3544 863e c11f 5240 25a2 2b3d
000000d0: 5858 713f 956b 8e40 433b 2340 5331 c6c0
000000e0: db88 5ec0 7c95 6b3f 65af 8240 724a 57bf
000000f0: fff0 91bf e1bd f7bf 646e c2bf c3a2 2340
00000100: db86 403f 242d 9dbf 918d c43f 00db 4a40
00000110: 1e1f 65bf 03a6 ac40 f68d 4fc0 88ca f73f
00000120: f585 9b3f f552 eb3e d263 00bf fbd8 1e40
00000130: 400c a240 8b9e 5840 4651 9bc0 e24d 073f
00000140: a29b 3540 c004 493f d89c ee3e 5b0b aabe
00000150: 27eb 4f40 a59f 92bf e482 833f d35b a93f
00000160: 5f7b 7240 a217 51c0 af2c b63f 5f43 873f
00000170: db6d d23f 0298 5040 f70f c3be 970a 9f3f
00000180: 7396 89bf 992f cc3f 684c 6840 831f 4ebe
00000190: f60a 3340 e143 d140 f7a2 603f a5c3 323f
000001a0: bebc c13f 6b6c 8b3f 66bc 86c0 681b 42c0
000001b0: d07c 053f 5e12 cc3f d65f 2440 f655 603e
000001c0: a2f0 4640 40d1 b73d 7c1b d53f 0bc6 44c0
000001d0: 27a8 bd40 807a 8cbe 1291 c03f 4c7e 8a40
000001e0: 403f 9e3f f17c 1dbd ca00 0740 7d1a eebe
000001f0: 61b4 c0bf fb2a 93bf e04f e13f c7bc 31bf
00000200: 30e9 bd3e e79d 823f 6fe9 8540 dad1 d73e
00000210: c29d c23f 97dc 6240 c8fc 46bf e5c4 33c0
00000220: 5468 3540 8e2d 1340 5e86 83bf 2258 bb3e
00000230: 77bb 3d40 8992 d33e 91e0 433f e2bb e63f
00000240: 4d99 9a3e c3e6 3fc0 4855 6640 d442 8240
00000250: 075d a13f d738 33bf 5559 6240 16f6 8cbf
00000260: 2324 1d40 6309 f83f a9dd d6c0 d2d8 ff3f
00000270: b3f2 1b40 1ab5 b8c0 7609 473f 674d 41be
00000280: 95ce 2f40 404d 6540 5eb7 7d3d 5f2c 1740
00000290: 52c7 cc40 b095 dd3f 7796 0cc0 92fb 783f
000002a0: 277c 6d40 feff 493f 0522 f8bd 7f3a b7bf
000002b0: 2980 1540 b75a b6bf d7b0 5f40 842b d240
000002c0: c314 ad3d 0ac5 76be c192 9240 1b94 9a3e
000002d0: be5b 5bbf 9d0a d4c0 80a1 9ac0 40f1 2d3f
000002e0: 37a5 c03e a833 d63f 277a 3ec0 936e 05c0
000002f0: 9478 f9be ced8 be3f a46a 5dc0 78cb 6c3f
00000300: f8b6 09bf 65ca 9940 cf70 a140 576a 2f40
00000310: 26bf 4b40 21c1 10bf 7c0c bf40 5ea6 1bc0
00000320: f35b 913f 1798 4a3f cde5 37c0 2cdf c0bf
00000330: fcc8 49bf fff2 90bf 12ee 0140 db2e 5ebd
00000340: e411 1040 6daf 883f 7ad6 0940 b405 92be
00000350: e797 a740 6bc5 d53f 1d4b 183e 7361 8040
00000360: ee37 2440 c25f 25c0 5136 31c0 d9a8 0a3f
00000370: 4eb9 2440 544f a6bf 9b49 ec40 e129 e5bf
00000380: e7d1 abbe 37f6 aec2 f7dc 493f b161 7040
00000390: 8de9 6840 9170 993f 5aec f7bf 5447 ac40
000003a0: 85ac 2640 8253 87bf 3e15 2540 eb1b 1a40
000003b0: d1d7 933f d068 1540 716a 733f a51b acbf
000003c0: 92df 743e c49f 7040 0b40 bf3f 0ef2 a1bd
000003d0: 021b 1141 e864 5bc0 8584 80bf fbc7 c9c0
000003e0: a154 ad3f f4dc 1abf fbfc 1d40 15c4 693f
000003f0: 2ddb 553f 67bd 3f3f 5072 5c3f 5a98 0c40

norm_input.running_var f4 [1024]
7.297052 6.5905375 4.805964 14.334552 5.566688 6.290822 7.243767 21.453547
10.356844 5.423514 10.136612 11.524051 12.163722 6.7808123 16.872746 4.1357884
6.7641892 31.473888 3.5156922 4.7125583 11.4682045 23.987381 11.439397 15.7422495
5.487119 7.1433535 6.174912 7.7873282 6.2064896 7.576775 11.075494 42.352715
11.039614 4.54641 9.236245 13.675915 13.294391 8.507022 44.920998 8.010106
13.614086 10.2785635 12.787422 2.965306 12.903703 14.328965 9.896761 4.3450475
7.586968 7.857339 8.491619 8.069192 4.167889 4.5710254 12.80515 64.36684
5.7489414 8.648838 4.6182733 7.0188236 5.8629093 8.705626 6.27845 10.170815
4.255295 4.802751 5.64295 9.55335 26.053488 5.343746 8.168499 2.7231944
4.815316 6.8852687 45.930424 8.664238 5.9087095 6.4157157 13.14071 40.2051
19.649788 4.0088353 30.642624 8.0875435 11.275622 8.868476 28.646051 2.9049392
5.3747144 7.1939125 4.725043 6.336717 6.693125 5.1895356 5.985502 4.9090624
5.0550747 3.7264018 5.49119 10.066946 5.989777 7.3349285 6.3418736 10.877107
4.202469 7.5188727 53.306995 35.86632 8.400285 9.248099 10.099524 8.989564
11.584837 9.978673 8.11984 4.6179156 7.917391 12.5878 5.2497735 4.5826964
4.567341 8.700459 108.044235 14.155219 10.366271 7.223126 5.8837857 6.6121883
7.2150397 6.7255087 23.106642 14.39527 11.100111 4.192829 5.456791 4.641579
8.419553 7.6166916 5.8501086 6.0946345 7.8959627 3.4627018 42.81212 8.8632
12.557003 12.33259 5.2077713 18.18286 16.28526 14.829067 14.7305 24.835539
11.979405 12.504395 26.248682 8.727083 10.346494 9.276315 20.797764 5.083512
4.931952 4.2860236 18.755337 9.363877 9.310956 5.500136 5.1149826 45.09612
9.32967 4.85268 5.919042 5.338369 102.57311 6.9129744 16.406029 17.259398
6.099928 6.2804165 4.4471583 4.7408686 8.373531 34.06152 6.455199 6.5863876
8.925831 7.503969 7.255531 6.7830887 5.640309 9.427867 56.254013 11.370096
5.139165 13.907678 13.18799 6.9625564 4.7817683 7.442601 6.5296717 43.879436
5.131867 9.017105 27.54418 37.985123 5.611919 7.0888667 6.829607 5.800273
7.3292775 11.021183 11.839249 15.573344 6.264562 8.142469 12.8894825 9.873336
5.5836544 25.876493 7.009687 6.9467683 5.30315 7.439482 16.845415 7.561921
9.271938 649.81726 4.3314896 9.420371 5.2687807 4.610596 7.428524 5.593953
5.9703636 9.028319 10.922932 3.9986339 3.9248946 22.92621 6.690353 8.96592
14.808627 4.5094166 7.4381723 9.220565 10.464233 10.569722 8.885514 9.026272
4.940872 11.817322 4.871203 19.755919 4.376008 7.54332 7.2866015 8.966889
00000000: 7381 e940 afe5 d240 75ca 9940 535a 6541
00000010: 4f22 b240 6a4e c940 f0cc e740 dda0 ab41
00000020: a2b5 2541 6d8d ad40 902f 2241 8362 3841
00000030: 9b9e 4241 6afc d840 62fb 8641 6158 8440
00000040: 3d74 d840 86ca fb41 1a01 6140 47cd 9640
00000050: c47d 3741 28e6 bf41 c507 3741 41e0 7b41
00000060: 7b96 af40 5a96 e440 e198 c540 cb31 f940
00000070: 909b c640 f174 f240 3935 3141 2e69 2942
00000080: 42a2 3041 317c 9140 a9c7 1341 8cd0 5a41
00000090: d3b5 5441 c31c 0841 1aaf 3342 6529 0041
000000a0: 4cd3 5941 ff74 2441 4899 4c41 93c7 3d40
000000b0: 9175 4e41 7143 6541 2259 1e41 a10a 8b40
000000c0: 71c8 f240 526f fb40 acdd 0741 691b 0141
000000d0: 595f 8540 d745 9240 e5e1 4c41 d2bb 8042
000000e0: 54f7 b740 a461 0a41 e5c8 9340 349a e040
000000f0: f49c bb40 3e4a 0b41 10e9 c840 a9bb 2241
00000100: 602b 8840 23b0 9940 0c93 b440 86da 1841
00000110: 8b6d d041 f8ff aa40 2cb2 0241 d148 2e40
00000120: 1217 9a40 1f54 dc40 c1b8 3742 b8a0 0a41
00000130: 2614 bd40 8b4d cd40 5940 5241 06d2 2042
00000140: c432 9d41 6148 8040 1824 f541 9466 0141
00000150: f368 3441 47e5 0d41 1d2b e541 86ea 3940
00000160: a9fd ab40 8834 e640 8d33 9740 63c6 ca40
00000170: 142e d640 ad10 a640 3b89 bf40 0a17 9d40
00000180: 2cc3 a140 5e7d 6e40 d4b7 af40 3612 2141
00000190: 41ac bf40 bcb7 ea40 a1f0 ca40 a108 2e41
000001a0: a07a 8640 9b9a f040 5d3a 5542 1d77 0f42
000001b0: 9167 0641 37f8 1341 a697 2141 41d5 0f41
000001c0: 7e5b 3941 a5a8 1f41 ddea 0141 f7c5 9340
000001d0: 445b fd40 a167 4941 25fe a740 73a5 9240
000001e0: a827 9240 1435 0b41 a616 d842 c77b 6241
000001f0: 3fdc 2541 d923 e740 f947 bc40 0c97 d340
00000200: 9be1 e640 5e37 d740 67da b841 0753 6641
00000210: 0e9a 3141 a82b 8640 089e ae40 d187 9440
00000220: 7db6 0641 f0bb f340 1734 bb40 3f07 c340
00000230: baab fc40 e89c 5d40 9c3f 2b42 abcf 0d41
00000240: 7ce9 4841 4a52 4541 10a6 a640 7f76 9141
00000250: 3648 8241 dc43 6d41 21b0 6b41 2faf c641
00000260: a5ab 3f41 0012 4841 4dfd d141 22a2 0b41
00000270: 3d8b 2541 c96b 1441 d261 a641 21ac a240
00000280: 8dd2 9d40 1b27 8940 ee0a 9641 71d2 1541
00000290: adf9 1441 1d01 b040 f0ad a340 6d62 3442
000002a0: 5446 1541 2849 9b40 cb68 bd40 ebd3 aa40
000002b0: 6f25 cd42 1637 dd40 8c3f 8341 3f13 8a41
000002c0: 9c32 c340 2cf9 c840 1f4f 8e40 32b5 9740
000002d0: fcf9 0541 ff3e 0842 fd90 ce40 b0c3 d240
000002e0: 34d0 0e41 8420 f040 4f2d e840 100f d940
000002f0: 697d b440 8bd8 1641 1c04 6142 eaeb 3541
00000300: 0a74 a440 d985 5e41 0202 5341 43cd de40
00000310: 3f04 9940 ca29 ee40 12f3 d040 8b84 2f42
00000320: 4138 a440 1046 1041 7b5a dc41 c4f0 1742
00000330: d794 b340 ffd7 e240 248c da40 d69b b940
00000340: 7189 ea40 c456 3041 906d 3d41 6b2c 7941
00000350: 4b77 c840 8e47 0241 523b 4e41 2ff9 1d41
00000360: 4cad b240 0f03 cf41 5b4f e040 ed4b de40
00000370: 68b3 a940 3d10 ee40 69c3 8641 42fb f140
00000380: dc59 1441 4e74 2244 909b 8a40 d7b9 1641
00000390: da99 a840 018a 9340 78b6 ed40 aa01 b340
000003a0: 380d bf40 ff73 1041 54c4 2e41 9ee9 7f40
000003b0: 7931 7b40 e168 b741 5f17 d640 6974 0f41
000003c0: 23f0 6c41 244d 9040 8205 ee40 6f87 1341
000003d0: 806d 2741 951d 2941 112b 0e41 9c6b 1041
000003e0: a01b 9e40 c013 3d41 e5e0 9b40 1f0c 9e41
000003f0: 4208 8c40 e162 f140 d72b e940 6178 0f41

transformer.norm.weight f4 [1024]
0.5509152 0.5330738 0.22159 0.31355804 0.70508075 0.45390317 0.35503352 0.6376757
0.8437592 0.16651905 0.77663684 0.5898727 0.51608694 0.6628771 0.48629892 0.21092843
0.42548963 0.42768368 0.55504227 0.25967813 0.19594647 0.62560016 0.35393482 0.6655265
0.54971343 1.0189176 0.99828374 0.14956047 0.5440606 0.029927412 0.6802089 0.76674557
0.61483234 0.630292 0.34541386 0.7364091 0.8331113 0.22602557 0.18178345 0.2988999
0.93449897 1.144116 1.0975891 0.19619183 -0.0056632888 1.089141 0.31394193 0.52680147
0.7407589 0.32192937 0.80904776 0.59004194 0.10911147 0.8425572 0.7158814 0.28005105
0.6252062 0.262881 0.67091334 0.9541086 0.45889857 0.40804458 0.6248597 0.96197987
0.64973193 0.80329967 -0.008078975 -0.18662435 0.18814242 -0.23063509 0.5995675 0.75462586
0.48508143 0.13873032 0.6795948 0.87866014 0.77010185 0.5134028 0.6362945 0.74793035
0.5911145 0.6522776 0.22730811 0.5216798 1.1793938 0.44532174 0.17349629 0.73440754
0.8124638 0.16197649 0.4055195 0.44075143 0.685786 1.044661 0.9002954 0.6732128
0.6293395 0.36063033 0.21147524 0.4848319 0.551394 0.8365154 0.47366688 0.27893916
0.520934 0.22165272 -0.059952825 0.78699166 0.4899902 0.30375484 0.6946045 0.57766813
0.4937327 0.4904394 1.0614465 0.39311025 0.31537107 0.2787076 0.3936552 -0.3058197
0.58414406 0.58704907 0.0055076093 0.2803026 0.11840886 0.40125462 0.21021919 0.1892792
0.64077693 0.94031334 0.35740632 0.4993025 0.3564068 0.5031252 0.30288225 0.70969033
0.6544462 0.5329938 0.60289073 0.071808845 0.21214472 0.5943009 0.21467943 0.6745117
0.5080852 0.976086 0.5930695 0.31480828 0.26758173 0.65526026 0.17410165 0.07897686
0.8881771 0.7239927 -0.02752902 0.6853271 0.93581533 0.05128594 0.89080524 0.5611551
0.22727104 1.2374688 0.5555621 0.3757661 0.6199307 0.0813576 0.49625093 0.5861873
0.15218347 0.27774194 1.0409167 0.39838502 0.021087712 0.7191216 0.3834338 0.006598538
0.79806983 -0.019080848 0.7610474 1.1177266 0.6308312 0.26290688 0.3513171 0.7340817
-0.007897124 0.80719614 0.35265443 0.61618704 -0.006823069 0.025438786 0.029832462 0.7156386
0.34031323 0.7641973 0.59284616 0.49524432 0.93723893 0.6913903 0.47742364 0.73108685
1.2355258 0.6641813 0.8278766 0.5530803 1.0214375 1.1287818 0.29837957 0.17092039
0.69893706 0.7129961 0.47971857 0.8466714 0.69718176 0.44360125 0.39306346 0.48531908
0.6439755 0.4301824 0.7272948 0.9833875 0.7092353 0.5609316 0.76106495 0.61214215
0.563316 0.805779 -0.0051890877 0.5727048 0.34730032 0.8652827 1.131415 0.15817079
0.39870188 0.5251624 0.70334476 0.42893592 0.20993309 0.9982405 0.6821222 0.22225295
0.42449924 0.48100463 0.9344307 0.4513771 0.070718914 0.93370914 0.7231204 0.53838915
0.08834269 0.73496443 0.5890504 0.42960775 0.7069693 0.99849766 0.6174874 0.5626742
00000000: c708 0d3f 8677 083f 7de8 623e ae8a a03e
00000010: 2c80 343f ff65 e83e f4c6 b53e b73e 233f
00000020: 9a00 583f f883 2a3e acd1 463f e601 173f
00000030: 461e 043f 50b2 293f 2cfc f83e 9ffd 573e
00000040: c7d9 d93e 5bf9 da3e 4017 0e3f 88f4 843e
00000050: 31a6 483e 5527 203f f236 b53e f25f 2a3f
00000060: 05ba 0c3f e46b 823f 868f 7f3f 6126 193e
00000070: 8e47 0b3f 552a f53c 2c22 2e3f 7049 443f
00000080: a765 1d3f d15a 213f 16da b03e 4f85 3c3f
00000090: c846 553f 3f73 673e 7125 3a3e 6809 993e
000000a0: 533b 6f3f 6572 923f cd7d 8c3f 83e6 483e
000000b0: 1c93 b9bb f968 8b3f ffbc a03e 76dc 063f
000000c0: 60a2 3d3f edd3 a43e c11d 4f3f fd0c 173f
000000d0: d675 df3d d4b1 573f 0144 373f da62 8f3e
000000e0: 830d 203f 5798 863e fac0 2b3f 7640 743f
000000f0: c1f4 ea3e 38eb d03e cef6 1f3f 5044 763f
00000100: d554 263f 0ca5 4d3f ad5d 04bc 741a 3fbe
00000110: 68a8 403e 9b2b 6cbe 417d 193f 292f 413f
00000120: 985c f83e 520f 0e3e edf9 2d3f dfef 603f
00000130: 6525 453f 5e6e 033f 32e4 223f 5d78 3f3f
00000140: 4853 173f aafb 263f 75c3 683e cf8c 053f
00000150: 60f6 963f 3601 e43e 03a9 313e 2202 3c3f
00000160: a1fd 4f3f 2add 253e 40a0 cf3e 2caa e13e
00000170: ac8f 2f3f 74b7 853f c279 663f ad57 2c3f
00000180: 651c 213f 8aa4 b83e f78c 583e e33b f83e
00000190: 2828 0d3f e025 563f 7784 f23e 1dd1 8e3e
000001a0: ee5b 053f eef8 623e 1891 75bd 4978 493f
000001b0: ffdf fa3e c185 9b3e 9ad1 313f 0fe2 133f
000001c0: 88ca fc3e df1a fb3e 7bdd 873f bf45 c93e
000001d0: 5178 a13e c3b2 8e3e 2d8d c93e 6694 9cbe
000001e0: 778a 153f d948 163f 2d79 b43b d383 8f3e
000001f0: 5880 f23d 3f71 cd3e b343 573e 68d2 413e
00000200: f509 243f 60b8 703f f6fd b63e 94a4 ff3e
00000210: f47a b63e d0cc 003f 6213 9b3e 44ae 353f
00000220: c989 273f 4872 083f 0c57 1a3f 8410 933d
00000230: 773c 593e 1b24 183f edd4 5b3e ccac 2c3f
00000240: df11 023f c6e0 793f 67d3 173f 8d2e a13e
00000250: 7900 893e 23bf 273f b447 323e 9fbe a13d
00000260: 935f 633f 9657 393f 8a84 e1bc 9971 2f3f
00000270: 9891 6f3f 3511 523d d00b 643f dca7 0f3f
00000280: bdb9 683e 6165 9e3f 5139 0e3f 6a64 c03e
00000290: c7b3 1e3f d09e a63d 9a14 fe3e 5f10 163f
000002a0: fcd5 1b3e 3134 8e3e c23c 853f 1ff9 cb3e
000002b0: 23c0 ac3c 5a18 383f 6f51 c43e 8c38 d83b
000002c0: 4e4e 4c3f 704f 9cbc 01d4 423f aa11 8f3f
000002d0: 277e 213f bb9b 863e d6df b33e c7ec 3b3f
000002e0: f062 01bc 68a4 4e3f 1f8f b43e 6fbe 1d3f
000002f0: 0d94 dfbb 0065 d03c 3563 f43c 1734 373f
00000300: 893d ae3e 6fa2 433f c4c4 173f aa90 fd3e
00000310: e4ee 6f3f f4fe 303f df70 f43e 8228 3b3f
00000320: b625 9e3f c907 2a3f b9ef 533f ac96 0d3f
00000330: 77be 823f ec7b 903f 35c5 983e c105 2f3e
00000340: 8aed 323f ea86 363f ac9d f53e 75bf 583f
00000350: 817a 323f b41f e33e 9d3f c93e be7b f83e
00000360: 94db 243f de40 dc3e fe2f 3a3f 48bf 7b3f
00000370: 7290 353f 3799 0f3f 27d5 423f 59b5 1c3f
00000380: 7a35 103f 8847 4e3f 3909 aabb c89c 123f
00000390: 59d1 b13e 2b83 5d3f 35d2 903f 86f7 213e
000003a0: a722 cc3e 0b71 063f 670e 343f 7d9d db3e
000003b0: b3f8 563e b08c 7f3f 8f9f 2e3f 4796 633e
000003c0: f757 d93e 3d46 f63e da36 6f3f e61a e73e
000003d0: 14d5 903d 9007 6f3f 6b1e 393f dfd3 093f
000003e0: 03ed b43d a126 3c3f 02cc 163f 8cf5 db3e
000003f0: f1fb 343f 8b9d 7f3f a713 1e3f 6b0b 103f

transformer.norm.bias f4 [1024]
0.106423475 -0.04953548 -0.038533963 0.07280138 -0.015467849 0.0069444594 0.2099385 -0.2405323
-0.24788514 -0.12884846 -0.03177289 -0.07987121 0.078271456 -0.3887148 0.2285711 0.08242489
-0.22666626 0.25389972 0.38855493 0.16883364 0.29625267 -0.13534065 -0.0721876 0.06749796
-0.1521169 -0.20365332 0.17580266 -0.06309984 -0.13191575 -0.029706737 0.101312645 -0.0048254053
0.14188702 0.2804062 -0.033442248 0.1867553 -0.027562216 -0.08196532 0.029968323 -0.05463712
0.11270343 -0.40977994 0.15120684 -0.023619974 -0.024856454 0.2245394 -0.11501832 0.18527699
0.17482294 -0.011465242 -0.030092627 -0.25864908 0.016685952 -0.049128875 0.07731111 0.06590068
0.018771157 0.1099841 0.12866469 -0.2786825 -0.01736224 -0.022389654 -0.014924514 -0.033720985
0.00723726 0.008102754 0.019398531 -0.063388236 -0.027107898 0.013661759 -0.12604232 -0.18877335
-0.06602798 -0.023355072 0.12880757 0.10249087 0.06468314 0.14571445 -0.3632578 0.10841727
0.04267508 -0.015748149 -0.24026604 0.19382775 0.16256575 -0.051684797 0.060442697 -0.019208118
-0.07758465 0.09152944 0.19172081 -0.09401476 0.14990583 -0.03782597 0.047267716 0.15167274
-0.08228573 -0.054003466 0.057655048 0.20467171 0.2066931 -0.10417995 -0.013973087 -0.18043053
-0.076975666 -0.08856996 -0.10172742 0.30885538 0.073377 0.11416513 0.27178442 0.121914595
-0.14966583 -0.06546912 -0.06531878 0.043045036 -0.10133854 0.30184528 -0.21862714 0.0680717
0.04319812 0.03137389 0.010313825 -0.08635714 -0.08705558 -0.104837395 -0.1299191 -0.11411933
0.10454798 -0.11904961 -0.12127793 0.102473855 0.17186065 -0.1555562 -0.21676375 0.15626155
0.0074566454 0.09009811 0.31520742 -0.016894143 0.1343219 0.04485142 -0.17076616 0.019440042
-0.24000868 -0.026412819 0.10404321 -0.15938497 0.13811168 0.29555517 0.07100271 -0.06634943
0.38465568 0.24004966 0.042457297 -0.036669392 0.22482507 -0.103469364 0.12136823 -0.060412597
0.24132454 -0.06447868 0.31546828 0.14475013 0.15697548 -0.021372998 -0.11897472 -0.101387605
-0.217813 -0.18246287 -0.24450034 0.1213472 0.012259897 0.0047622984 0.020537699 0.07278483
0.15183727 -0.011605471 -0.17196044 -0.13759482 0.12151772 -0.07228196 -0.008377477 0.16765037
0.097649336 -0.1622045 0.23372626 0.21758965 -0.009525686 0.012689655 -0.1234281 -0.104963236
-0.058078192 -0.08043183 -0.058085456 0.12429119 0.044708647 -0.12666866 -0.02262953 0.15193383
0.12715301 -0.09962779 0.22419268 0.36753738 0.09823162 0.18403134 -0.15940389 -0.06336788
0.020179212 0.14039749 -0.17712437 -0.23616031 -0.1630791 -0.060039297 -0.12125745 0.29691064
0.11776907 0.18662012 -0.10473338 -0.22812714 -0.19201607 0.0051638912 0.0028509763 -0.1190523
-0.013670624 -0.044288404 -0.020338992 -0.18232796 0.06879681 0.06685619 -0.08450763 -0.121677965
-0.21128088 -0.12373735 0.014819608 0.38331977 -0.11232061 0.010451912 -0.0057123774 0.1614207
0.020127641 0.1886566 0.045860644 -0.014258018 -0.04155617 0.1993109 -0.070088945 0.12667209
-0.09840698 -0.05145243 -0.03669121 -0.0117910085 0.11562943 0.065233916 -0.13526706 -0.04396628
00000000: 8df4 d93d b7e5 4abd cad5 1dbd e418 953d
00000010: dc6c 7dbc 598e e33b 1efa 563e 194e 76be
00000020: 9ad5 7dbe daf0 03be 4a24 02bd 8493 a3bd
00000030: c94c a03d a005 c7be 8b0e 6a3e 61ce a83d
00000040: 331b 68be 25ff 813e acf0 c63e bae2 2c3e
00000050: 6eae 973e bd96 0abe 18d7 93bd 5f3c 8a3d
00000060: 88c4 1bbe 7f8a 50be 9d05 343e 7d3a 81bd
00000070: ec14 07be 8b5b f3bc 017d cf3d 6f1e 9ebb
00000080: d54a 113e 6791 8f3e bdfa 08bd c83c 3f3e
00000090: 28ca e1bc 6fdd a7bd 2180 f53c 2ccb 5fbd
000000a0: 0ed1 e63d adce d1be f7d5 1a3e ad7e c1bc
000000b0: c39f cbbc a8ed 653e ba8e ebbd 40b9 3d3e
000000c0: c904 333e b6d8 3bbc d084 f6bc a76d 84be
000000d0: fab0 883c 5c3b 49bd 4a55 9e3d f0f6 863d
000000e0: f8c5 993c 583f e13d adc0 033e 79af 8ebe
000000f0: 423b 8ebc 826a b7bc f385 74bc 041f 0abd
00000100: 8a26 ed3b 6ac1 043c abe9 9e3c b1d1 81bd
00000110: 6211 debc 92d5 5f3c 3d11 01be cd4d 41be
00000120: ad39 87bd 2353 bfbc 22e6 033e bce6 d13d
00000130: 9878 843d 2b36 153e edfc b9be e009 de3d
00000140: 11cc 2e3d 4302 81bc 4d08 76be c87a 463e
00000150: a377 263e 70b3 53bd c392 773d 585a 9dbc
00000160: b3e4 9ebd c973 bb3d 7652 443e cf8a c0bd
00000170: ea80 193e 68ef 1abd cb9b 413d 1950 1b3e
00000180: 6c85 a8bd bd32 5dbd b327 6c3d 7695 513e
00000190: 5ba7 533e 4c5c d5bd 60ef 64bc c8c2 38be
000001a0: 6ba5 9dbd 2b64 b5bd 7756 d0bd 4b22 9e3e
000001b0: ae46 963d 68cf e93d 5427 8b3e 5cae f93d
000001c0: 0042 19be ad14 86bd dac5 85bd fe4f 303d
000001d0: 958a cfbd 778b 9a3e cbdf 5fbe 2d69 8b3d
000001e0: 83f0 303d e881 003d 51fb 283c 03dc b0bd
000001f0: 324a b2bd fdb4 d6bd 8309 05be 65b7 e9bd
00000200: 401d d63d 48d0 f3bd 9060 f8bd d0dd d13d
00000210: 3dfc 2f3e 204a 1fbe 51f7 5dbe 0703 203e
00000220: e056 f43b 5c85 b83d de62 a13e 9665 8abc
00000230: ae8b 093e 1fb6 373d 53dd 2ebe b940 9f3c
00000240: d6c4 75be b25f d8bc 9b14 d53d d035 23be
00000250: 266d 0d3e 0253 973e de69 913d 36e2 87bd
00000260: 97f1 c43e 94cf 753e b4e7 2d3d a532 16bd
00000270: 8b38 663e bfe7 d3bd e88f f83d 3373 77bd
00000280: c81d 773e 660d 84bd 0f85 a13e 6139 143e
00000290: 2ebe 203e 6d16 afbc 05a9 f3bd 4ea4 cfbd
000002a0: 5f0a 5fbe 8cd7 3abe 4c5e 7abe e184 f83d
000002b0: bcdd 483c 0e0d 9c3b ad3e a83c 3710 953d
000002c0: 3b7b 1b3e e024 3ebc 6616 30be a8e5 0cbe
000002d0: 48de f83d 9008 94bd af41 09bc 8aac 2b3e
000002e0: 60fc c73d f018 26be f055 6f3e d2cf 5e3e
000002f0: 9f11 1cbc 45e8 4f3c dfc7 fcbd f7f6 d6bd
00000300: 66e3 6dbd 71b9 a4bd 04eb 6dbd 618c fe3d
00000310: 6a20 373d 6eb5 01be 9061 b9bc 8b94 1b3e
00000320: 6634 023e a809 ccbd c492 653e dc2d bc3e
00000330: a92d c93d b672 3c3e c63a 23be 05c7 81bd
00000340: e04e a53c 5cc4 0f3e 1760 35be 02d4 71be
00000350: 35fe 26be c4eb 75bd d355 f8bd ac04 983e
00000360: e930 f13d 5819 3f3e 747e d6bd 299a 69be
00000370: dc9f 44be dc35 a93b 72d7 3a3b b1d1 f3bd
00000380: c1fa 5fbc c267 35bd f59d a6bc 2eb4 3abe
00000390: 58e5 8c3d e6eb 883d 5612 adbd 4c32 f9bd
000003a0: 045a 58be 026a fdbd f1cd 723c 7d42 c43e
000003b0: 5908 e6bd 7f3e 2b3c e52e bbbb 784b 253e
000003c0: b9e2 a43c 322f 413e 5fd8 3b3d 769a 69bc
000003d0: cd36 2abd 2818 4c3e cb8a 8fbd 54b6 013e
000003e0: 9989 c9bd c9bf 52bd 8649 16bd 132f 41bc
000003f0: 1fcf ec3d 5c99 853d 7383 0abe fc15 34bd

transformer.norm.running_mean f4 [1024]
0.0037566954 0.016673464 -0.0005997905 -0.0036496504 0.0005787171 0.0040978035 -0.004159907 0.0022682017
-0.00492379 -9.839736e-05 0.0004273212 -0.002989621 -0.003333178 0.0049360986 -0.007645999 0.00064703776
0.0010524226 0.0031485045 0.004880831 0.0046780077 -0.0011006135 0.00095689285 -0.00020767214 -0.0041292086
-0.0040304814 -0.0019709775 -0.0013812212 0.00062294345 -0.0020465294 -0.0030661481 0.008574408 0.009128805
0.0017788536 0.009604878 -0.005930396 -0.0054618823 0.0015894886 0.0043524215 0.004320362 -0.0024392307
0.0070246668 -0.012991155 -0.0004981907 0.00092549203 -0.0012312547 -9.241199e-05 0.0020165553 -0.012387918
0.0027402292 0.0021129823 0.008062378 -0.0022372196 -0.0011181887 0.010634455 -0.008030823 0.0027099112
-0.002222517 0.0042131958 -0.00055859453 0.001340722 -0.0020230508 -0.0012972205 0.003672152 -0.013111437
-0.00010506423 -0.003629752 3.602826e-05 -0.0004154869 -0.0016743526 -0.0001183373 0.001825953 0.0069674226
0.0019873094 3.0495592e-05 0.0009836383 0.004145979 0.005815901 -0.008075704 0.0064728116 -0.002952832
-0.000304281 0.0055331714 -0.0010202744 -0.0035189409 -0.021865236 -0.0023231448 0.0038500521 0.005755535
0.010470112 -0.00042331184 0.001961266 -0.00150212 0.0017669803 0.02023834 0.0019741463 -0.009059738
0.0023229388 -0.002051667 0.00020144776 -0.00034562926 0.0016882393 0.0056982157 0.002552412 0.003488037
-0.0009920626 -0.00054911984 1.1392985e-05 -0.0037828241 -0.0010319353 -0.0022858444 0.00021302239 0.0046514277
0.00060876674 -0.0036744196 0.010746333 -0.0008372302 0.0023801147 0.004249848 0.005769923 -0.0005689339
-0.0009673142 0.006080655 -7.5879005e-05 0.0012042067 0.0022335777 0.001654266 -0.00049067487 -0.0045793736
-0.004194709 -0.0039554937 0.00032875768 0.0022924966 -0.0053035314 -0.002243067 0.00070167024 -0.004791019
-0.008702115 0.0044890568 -0.0038894678 0.0019399802 0.0017293679 0.01780821 -0.005059357 0.005481774
0.0050461693 -0.0028134033 -0.018413536 0.0019225656 -0.0016784543 -0.0063981996 -0.0037731032 0.0008987722
-9.746976e-05 0.006282679 -0.0014551234 -0.0035191257 0.0022298465 -0.0025663644 0.006622529 -0.00048624448
-0.00075443264 0.0025904018 0.0064489907 -0.006438835 -0.0037893062 -0.0003281067 0.00085389824 0.005544833
-0.003593204 -0.0006451545 -0.0029055066 -0.0066452734 -0.0011443422 -0.0037294968 0.0014788028 -0.00031344887
-0.008929192 -0.002121747 -0.0037144949 0.01470172 -0.00050095853 -0.000607004 -0.00019841986 0.00053241424
-0.0040799435 -0.0017499675 -0.0023187972 -0.003722339 -0.0005627655 -0.0005534289 0.0012502562 -0.0044409907
-0.00492261 -0.0020787728 0.0018426772 -0.003857333 7.577351e-05 0.003801791 -0.00155956 0.0016649901
-0.002139699 -0.0071983775 0.0042205686 0.0024801956 0.009915533 -0.001114211 0.0014547709 -0.0066435495
0.003404774 0.0073564798 -0.0028414216 0.009108392 0.012645905 -0.0072119837 0.0006812523 0.009544401
-0.00066449575 0.012605636 0.00041905267 0.0031515965 0.004667572 0.0024404689 0.0057030795 -0.00925358
0.0015259506 -0.00731095 1.7866885e-05 0.0044240365 0.0033376147 0.0025846972 -0.016289478 0.00065504125
-0.007769654 0.0016278747 -0.0014732684 -0.006476313 -0.00032796586 -0.0132146 -0.000839231 -0.0028516501
-0.0011218971 -0.0065770517 0.005408483 -0.002550906 -0.0007470714 -0.006302088 0.0024632683 -0.0028066798
-0.0015981147 0.0059132804 -0.0014645465 0.00017635894 -0.0026828262 0.0002587008 0.0031406889 0.0040147407
00000000: e432 763b ca96 883c 423b 1dba f92e 6fbb
00000010: 0cb5 173a de46 863b d44f 88bb 1ca6 143b
00000020: bf57 a1bb ae5a ceb8 150a e039 84ed 43bb
00000030: 7371 5abb ffbe a13b 4a8b fabb f89d 293a
00000040: 71f1 893a 2457 4e3b 61ef 9f3b f949 993b
00000050: 7642 90ba fed7 7a3a 91c2 59b9 504e 87bb
00000060: 2112 84bb 842b 01bb 180a b5ba 074d 233a
00000070: 111f 06bb 6ef1 48bb ac7b 0c3c fc90 153c
00000080: 6c28 e93a c75d 1d3c c453 c2bb 97f9 b2bb
00000090: 6356 d03a c29e 8e3b d391 8d3b 80db 1fbb
000000a0: 2d2f e63b dad8 54bc 0399 02ba b89c 723a
000000b0: 0d62 a1ba 4fcd c1b8 2f28 043b b2f6 4abc
000000c0: 6b95 333b f679 0a3b 1018 043c 519e 12bb
000000d0: 3090 92ba 233c 2e3c b793 03bc c498 313b
000000e0: a6a7 11bb d90e 8a3b a56e 12ba 2abb af3a
000000f0: 2995 04bb 7f07 aaba 7da8 703b 5ad1 56bc
00000100: ee55 dcb8 22e1 6dbb 0d1d 1738 b5d5 d9b9
00000110: f375 dbba db2b f8b8 d154 ef3a fa4e e43b
00000120: 853d 023b c9d0 ff37 6ded 803a feda 873b
00000130: 5093 be3b f54f 04bc e119 d43b 4d84 41bb
00000140: e887 9fb9 9b4f b53b baba 85ba 089e 66bb
00000150: b91e b3bc e73f 18bb 2851 7c3b ed98 bc3b
00000160: d58a 2b3c f4ef ddb9 9588 003b c9e2 c4ba
00000170: 059a e73a e0ca a53c ae60 013b 4c6f 14bc
00000180: 723c 183b 4375 06bb b93b 5339 9335 b5b9
00000190: e947 dd3a 19b8 ba3b 5e46 273b 8d97 643b
000001a0: 1908 82ba cff2 0fba 7f24 3f37 42e9 77bb
000001b0: 0142 87ba 1bce 15bb c35e 5f39 016b 983b
000001c0: a595 1f3a 88ce 70bb 6311 303c 9179 5bba
000001d0: b3fb 1b3b 4f42 8b3b 9f11 bd3b 8224 15ba
000001e0: 5b93 7dba 3b40 c73b 3b21 9fb8 79d6 9d3a
000001f0: 3761 123b f5d3 d83a a2a0 00ba 920e 96bb
00000200: c573 89bb 169d 81bb 1c5d ac39 b63d 163b
00000210: 3fc9 adbb 6b00 13bb 4bf0 373a fbfd 9cbb
00000220: 5193 0ebc f018 933b 71e6 7ebb ef46 fe3a
00000230: f5ab e23a 86e2 913c f6c8 a5bb 74a0 b33b
00000240: 565a a53b 1361 38bb fcd7 96bc 99fe fb3a
00000250: 95ff dbba fda7 d1bb 2b46 77bb 959b 6b3a
00000260: ae68 ccb8 eede cd3b d7b9 beba 22a1 66bb
00000270: 9e22 123b 7330 28bb cd01 d93b a1ee feb9
00000280: 1ec5 45ba bbc3 293b 0e52 d33b ddfc d2bb
00000290: 0256 78bb bc05 acb9 24d8 5f3a 6eb1 b53b
000002a0: f67b 6bbb 961f 29ba 506a 3ebb 98c0 d9bb
000002b0: c1fd 95ba 936a 74bb 63d4 c13a 6556 a4b9
000002c0: bf4b 12bc 020d 0bbb e26e 73bb 7cdf 703c
000002d0: c252 03ba 591f 1fba ed0e 50b9 b791 0b3a
000002e0: 0cb1 85bb 2a5f e5ba f6f6 17bb 7cf2 73bb
000002f0: 8e86 13ba fc13 11ba a3df a33a bb85 91bb
00000300: d84d a1bb 053c 08bb fd85 f13a 4fcb 7cbb
00000310: 98e8 9e38 7827 793b 266a ccba cc3b da3a
00000320: 313a 0cbb 5ee0 ebbb b24c 8a3b c78a 223b
00000330: c274 223c b80a 92ba 03ae be3a 22b2 d9bb
00000340: a122 5f3b a00e f13b 2537 3abb 5d3b 153c
00000350: c530 4f3c 8152 ecbb 1196 323a 1f60 1c3c
00000360: 8e31 2eba df87 4e3c 4cb4 db39 048b 4e3b
00000370: 6ff2 983b 46f0 1f3b e6e0 ba3b 549c 17bc
00000380: 6802 c83a b290 efbb d8e0 9537 82f7 903b
00000390: e2bb 5a3b 0664 293b 8371 85bc 13b7 2b3a
000003a0: 9598 febb 695e d53a af1a c1ba 4037 d4bb
000003b0: d5f2 abb9 0d82 58bc d7ff 5bba c0e2 3abb
000003c0: 9f0c 93ba 4f84 d7bb a539 b13b 1a2d 27bb
000003d0: 1dd7 43ba bf81 cebb c96e 213b 46f0 37bb
000003e0: d577 d1ba 31c4 c13b 07f6 bfba feec 3839
000003f0: 5bd2 2fbb 3ca2 8739 04d4 4d3b 168e 833b

transformer.norm.running_var f4 [1024]
0.29653755 0.29421827 0.111024424 0.19557753 0.37236792 0.27341932 0.192965 0.38424402
0.44788742 0.09003092 0.5202266 0.40054223 0.22952037 0.40923753 0.21107557 0.09954893
0.283569 0.23680927 0.29742873 0.13543533 0.09428638 0.34195778 0.22969641 0.29655635
0.25161472 0.61741 0.6114117 0.07009432 0.26916072 0.029980706 0.35771218 0.4995203
0.41152537 0.3130437 0.21790145 0.5279201 0.46190295 0.14328136 0.07669621 0.20350456
0.61020356 0.86189795 0.66493505 0.0942567 0.009533104 0.6580524 0.19634403 0.31614727
0.44561455 0.13047911 0.45372313 0.33108073 0.0069649704 0.36322996 0.29609716 0.11444184
0.32055208 0.17327082 0.36672664 0.5288854 0.26548743 0.20291428 0.32829136 0.7556126
0.44373515 0.5255382 0.0103873825 0.016828284 0.06615424 0.030716771 0.31216842 0.39111322
0.20142838 0.05872816 0.36031815 0.5255201 0.5006628 0.36234334 0.32694364 0.3353202
0.34807354 0.38858622 0.1492288 0.22848439 0.74234825 0.20205794 0.082351245 0.47624153
0.43744823 0.07564815 0.20112136 0.251997 0.4075854 0.74680823 0.5857439 0.36074033
0.37485945 0.18851957 0.09274483 0.28873923 0.19561884 0.48698592 0.29043904 0.17160043
0.20779982 0.15546682 0.017153407 0.45775038 0.23134714 0.123897456 0.41065314 0.33452898
0.19995084 0.24595529 0.6566225 0.24687096 0.13186744 0.18657044 0.18269943 0.18919046
0.37380317 0.3623072 0.0014068374 0.16434336 0.07417451 0.23646511 0.10881792 0.08779888
0.35289165 0.54979396 0.20517902 0.27238968 0.13498028 0.23345089 0.1561454 0.35270783
0.3817641 0.3319095 0.37206066 0.05767885 0.12180264 0.33704144 0.112805784 0.38946876
0.2598064 0.6352286 0.3252986 0.12858535 0.037130337 0.333861 0.103177205 0.06521568
0.5850096 0.39611477 0.044208996 0.31259355 0.59537363 0.03522716 0.6236551 0.2598993
0.14322893 0.9011444 0.2477 0.2271631 0.37871245 0.017585896 0.2414889 0.35825443
0.0891048 0.11237822 0.81535727 0.19433285 0.0042727063 0.47056052 0.222805 0.03892785
0.38739997 0.0032903748 0.4433826 0.6873827 0.3736832 0.15594277 0.17398308 0.4046984
0.009227957 0.47439864 0.19072907 0.3782054 0.041633554 0.012886817 0.018453749 0.34045824
0.14799146 0.38702148 0.22150016 0.32090762 0.6250502 0.3484387 0.21235383 0.35383075
0.8420113 0.39400518 0.52599794 0.23790492 0.73724407 0.6190023 0.19146064 0.11013712
0.45067343 0.5010413 0.35513434 0.43664527 0.40879416 0.19177628 0.24633394 0.25610605
0.31973013 0.2383373 0.30494368 0.60331434 0.47879624 0.28461796 0.42430875 0.36760706
0.38332215 0.50046664 0.0007225845 0.35380316 0.13821962 0.55722654 0.67724675 0.105358556
0.18940525 0.35440502 0.3916955 0.21546644 0.109935366 0.6179624 0.3590867 0.14154944
0.2217821 0.30746025 0.5500601 0.24938731 0.034328267 0.5379166 0.4287381 0.3717996
0.05224576 0.38369966 0.27047062 0.29201463 0.42306706 0.69443136 0.34328446 0.32092664
00000000: c5d3 973e c7a3 963e c660 e33d 7a45 483e
00000010: 02a7 be3e 9efd 8b3e 9e98 453e a2bb c43e
00000020: 8051 e53e 2262 b83d 922d 053f df13 cd3e
00000030: 6307 6b3e 9587 d13e 3224 583e 4fe0 cb3d
00000040: f52f 913e 217e 723e 9448 983e 8faf 0a3e
00000050: 3819 c13d 1715 af3e 8935 6b3e 3cd6 973e
00000060: a5d3 803e 950e 1e3f 7a85 1c3f 9c8d 8f3d
00000070: 6fcf 893e 199a f53c 0d26 b73e 20c1 ff3e
00000080: 74b3 d23e 4447 a03e 8f21 5f3e c625 073f
00000090: 8b7e ec3e 59b8 123e e712 9d3d 8063 503e
000000a0: 4d36 1c3f 58a5 5c3f 2f39 2a3f a809 c13d
000000b0: bc30 1c3c 1f76 283f 690e 493e 0ede a13e
000000c0: 9727 e43e 519c 053e 664e e83e 6a83 a93e
000000d0: 683a e43b 47f9 b93e 0c9a 973e 7c60 ea3d
000000e0: 671f a43e e86d 313e 98c3 bb3e 0965 073f
000000f0: f8ed 873e c3c8 4f3e ce15 a83e d46f 413f
00000100: 4131 e33e ac89 063f d72f 2a3c 78db 893c
00000110: e07b 873d bda1 fb3c 8ad4 9f3e fe3f c83e
00000120: 3e43 4e3e f08c 703d 9f7b b83e 7c88 063f
00000130: 702b 003f 1185 b93e 2865 a73e 17af ab3e
00000140: b236 b23e c6f4 c63e 6fcf 183e d0f7 693e
00000150: 890a 3e3f 47e8 4e3e c5a7 a83d eed5 f33e
00000160: 37f9 df3e 6bed 9a3d c2f2 4d3e c005 813e
00000170: 09af d03e d32e 3f3f 50f3 153f f5b2 b83e
00000180: 94ed bf3e 460b 413e 00f1 bd3d a1d5 933e
00000190: 4e50 483e 3856 f93e 6db4 943e 06b8 2f3e
000001a0: 7ac9 543e b232 1f3e 4d85 8c3c 425e ea3e
000001b0: 44e6 6c3e f3bd fd3d 2141 d23e 6247 ab3e
000001c0: eabf 4c3e b4db 7b3e 6a18 283f becb 7c3e
000001d0: 4208 073e 520c 3f3e 8f15 3b3e 25bb 413e
000001e0: 2163 bf3e 5480 b93e a165 b83a a049 283e
000001f0: cee8 973d e923 723e eedb de3d e6cf b33d
00000200: 37ae b43e 4cbf 0c3f 731a 523e a976 8b3e
00000210: 4538 0a3e c00d 6f3e 94e4 1f3e 1f96 b43e
00000220: 9676 c33e 0bf0 a93e bc7e be3e a840 6c3d
00000230: aa73 f93d b290 ac3e b806 e73d 7368 c73e
00000240: 5805 853e 579e 223f 8a8d a63e e1ab 033e
00000250: fb15 183d d4ef aa3e 924e d33d cc8f 853d
00000260: 30c3 153f 8ecf ca3e 7e14 353d 430c a03e
00000270: 686a 183f 5b4a 103d dca7 1f3f 8511 853e
00000280: 9baa 123e 66b1 663f 12a5 7d3e 729d 683e
00000290: 99e6 c13e 4c10 903c de48 773e 206d b73e
000002a0: 947c b63d 8d26 e63d 41bb 503f 31ff 463e
000002b0: 0f02 8c3b 4fed f03e fe26 643e cf72 1f3d
000002c0: 4a59 c63e 54a3 573b 0b03 e33e 50f8 2f3f
000002d0: 6853 bf3e 76af 1f3e 9f28 323e a134 cf3e
000002e0: db30 173c 61e4 f23e 7b4e 433e 23a4 c13e
000002f0: f287 2a3d 3a23 533c 512c 973c 8b50 ae3e
00000300: 138b 173e ae27 c63e f0d0 623e 014e a43e
00000310: 4a03 203f 8f66 b23e 4873 593e 4e29 b53e
00000320: 0d8e 573f 0cbb c93e cda7 063f 599d 733e
00000330: 07bc 3c3f ef76 1e3f 420e 443e 928f e13d
00000340: abbe e63e 3e44 003f 2bd4 b53e f88f df3e
00000350: 784d d13e 0061 443e f73e 7c3e 5520 833e
00000360: abb3 a33e b10e 743e 9421 9c3e cf72 1a3f
00000370: c824 f53e 72b9 913e ff3e d93e fe36 bc3e
00000380: cd42 c43e 951e 003f d36b 3d3a b025 b53e
00000390: 7289 0d3e 66a6 0e3f 0b60 2d3f 3ac6 d73d
000003a0: 73f3 413e 9374 b53e 508c c83e 3ca3 5c3e
000003b0: cb25 e13d c932 1e3f 36da b73e 56f2 103e
000003c0: d91a 633e 6e6b 9d3e bdd0 0c3f 635f 7f3e
000003d0: cc9b 0c3d e7b4 093f 8f83 db3e 845c be3e
000003e0: a6ff 553d 4874 c43e 207b 8a3e f182 953e
000003f0: 3f9c d83e 41c6 313f fbc2 af3e 7f50 a43e
